checkpoints/models/single_stock_daily/81to8/000001/model20.pth (torch, 542438 bytes, 20 tensors)

encoder.rnn.weight_ih_l0 f4 [192, 6]
-0.053089615 0.01415587 0.08396576 -0.096762285 -0.04510776 -0.04924245 -0.06328892 -0.0049063405
0.08347872 0.022291513 -0.11811006 0.110219784 0.10223243 0.04181 0.06445008 0.049819823
0.105125815 -0.09594377 -0.10831381 -0.057032496 -0.070874356 -0.12668228 -0.16380082 -0.044249203
-0.021471668 0.08770824 0.050648928 0.010445234 -0.10257865 -0.050293192 -0.0061696856 -0.10946156
0.012348501 0.037055727 0.12499641 -0.23065041 0.12473377 0.045323685 -0.028386794 0.16556707
0.15631296 -0.10962733 -0.08506213 0.05493542 -0.08292476 0.080104046 -0.065122046 0.090578645
-0.048118185 0.124790035 -0.03411809 -0.017581534 0.08255089 -0.10490202 -0.017079484 -0.11417641
-0.13105592 -0.04535069 -0.002577907 0.056182653 -0.12540038 -0.036881708 0.030898478 0.04567185
0.071521945 -0.09660931 -0.044411838 0.028371856 -0.09437703 0.06555744 -0.1162661 0.054204844
0.07536839 0.019767692 0.11992512 0.17344612 0.15961349 0.031517167 -0.06780581 0.033771794
0.08741737 0.017632775 0.07856353 -0.05121279 0.079828486 0.0040613203 -0.09297139 -0.018440118
0.12463932 -0.054598313 -0.005624347 -0.009924263 -0.011518337 0.06833185 0.12429015 -0.18807709
-0.012604841 0.0040573645 -0.09638811 -0.06880703 0.0033400161 -0.10535404 0.045425847 -0.002812951
-0.028168237 -0.0330132 0.07943629 0.2046715 0.06470741 0.06519598 -0.05686288 0.054333538
-0.08094976 0.062942274 -0.09202633 -0.016975762 0.06992109 0.06436106 0.09178283 0.04111365
0.035315864 0.026039116 0.08354286 0.057886362 0.0294058 -0.05781908 -0.052793533 0.0035382358
0.10201225 -0.030383382 0.07283009 0.08631792 0.11201742 -0.08998298 0.03831309 0.084003866
-0.11116529 0.08996641 -0.08375997 -0.07362314 -0.026978346 -0.025342984 -0.030211693 0.016418204
0.045009393 0.0436944 0.08100679 -0.084368 -0.12377006 -0.10961992 -0.07095241 -0.040986497
0.07689377 -0.07124896 -0.07202385 0.044225108 -0.07114752 0.030161122 -0.09030736 0.052724045
0.08399092 -0.120219015 0.03158678 -0.071690224 0.07382566 0.10693712 -0.1120435 0.062277798
0.0778541 0.084860906 0.061623506 -0.0064537385 -0.023593381 -0.03502242 -0.07551346 -0.050951153
-0.047475398 -0.115978666 -0.042558957 -0.084455125 -0.050767288 -0.042257503 -0.12988666 0.11482428
0.056806125 0.105037145 -0.0991935 -0.08764915 0.14946315 0.02368479 0.0657574 -0.013215886
0.0010035574 -0.0073253633 0.067066096 0.09462618 -0.041106794 -0.09369578 -0.06310289 0.08191675
-0.0023460204 0.096628085 -0.054498233 -0.08830154 0.03410462 -0.046123926 -0.06698203 0.08543309
0.016132887 0.010115997 0.122042015 0.084584765 -0.12957287 -0.14013971 -0.088372834 -0.039350092
-0.0701252 0.08154708 -0.0876053 0.11113252 0.035155308 0.002771986 0.013594234 0.008001304
0.021220956 -0.12041334 -0.020783024 0.05387482 0.13894065 -0.0045372127 -0.0887192 0.059610922
-0.11358468 0.19350147 0.058259003 0.022604235 -0.027059255 0.05185434 -0.08993259 -0.14744917
-0.06819808 0.1135122 -0.029972576 -0.07342443 0.054378603 -0.10167191 -0.03183827 -0.08745707
0.02220835 -0.025819315 0.01044926 0.08800078 -0.0599844 0.01716448 0.0046671024 0.17842698
00000000: 7f74 59bd 06ee 673c 3ef6 ab3d 4e2b c6bd
00000010: eac2 38bd 74b2 49bd 9f9d 81bd 5ec5 a0bb
00000020: e4f6 aa3d b19c b63c b0e3 f1bd e9ba e13d
00000030: 3c5f d13d f640 2b3d 67fe 833d df0f 4c3d
00000040: 344c d73d 2b7e c4bd a1d3 ddbd e89a 69bd
00000050: 9326 91bd 00b9 01be 67bb 27be a73e 35bd
00000060: 5ae5 afbc 61a0 b33d 4075 4f3d 7d22 2b3c
00000070: c114 d2bd 3c00 4ebd 132b cabb 622d e0bd
00000080: 5e51 4a3c bfc7 173d 1efe ff3d 9f2f 6cbe
00000090: 6b74 ff3d 54a5 393d 6c8b e8bc 6a8a 293e
000000a0: 8110 203e 4b84 e0bd 0e35 aebd f703 613d
000000b0: 75d4 a9bd 970d a43d b55e 85bd 4c81 b93d
000000c0: 9317 45bd eb91 ff3d 69bf 0bbd 2607 90bc
000000d0: 7110 a93d dfd6 d6bd 46ea 8bbc 52d5 e9bd
000000e0: 8633 06be a5c1 39bd 1af2 28bb c81f 663d
000000f0: f568 00be 4611 17bd ce1e fd3c 6812 3b3d
00000100: 197a 923d 1adb c5bd 30e9 35bd 186c e83c
00000110: bf48 c1bd fb42 863d ec1c eebd e605 5e3d
00000120: be5a 9a3d dbef a13c 4d9b f53d dc9b 313e
00000130: b871 233e 2518 013d c6dd 8abd 4b54 0a3d
00000140: e107 b33d 9c72 903c ebe5 a03d 81c4 51bd
00000150: 1e7d a33d d314 853b c967 bebd bb0f 97bc
00000160: e642 ff3d 7ba2 5fbd 714c b8bb 6099 22bc
00000170: 68b7 3cbc 92f1 8b3d d68b fe3d 4897 40be
00000180: 8984 4ebc a4f3 843b 2167 c5bd b3ea 8cbd
00000190: 2ce4 5a3b dcc3 d7bd 7410 3a3d 7d59 38bb
000001a0: 13c1 e6bc d938 07bd 7eaf a23d 6895 513e
000001b0: 5285 843d 7885 853d 0de9 68bd d88c 5e3d
000001c0: fdc8 a5bd e1e7 803d 4d78 bcbd c110 8bbc
000001d0: ca32 8f3d bbcf 833d a3f8 bb3d c966 283d
000001e0: 5ea7 103d fc4f d53c 8518 ab3d 401a 6d3d
000001f0: 6fe4 f03c b3d3 6cbd 083e 58bd bfe1 673b
00000200: cceb d03d 92e6 f8bc f127 953d 73c7 b03d
00000210: 6469 e53d ff48 b8bd 30ee 1c3d 380a ac3d
00000220: a1aa e3bd 4f40 b83d 598a abbd bbc7 96bd
00000230: b101 ddbc 179c cfbc 837e f7bc 787f 863c
00000240: c55b 383d e6f8 323d e3e6 a53d 21c9 acbd
00000250: 287b fdbd 6980 e0bd 7f4f 91bd 75e1 27bd
00000260: 7b7a 9d3d faea 91bd 3e81 93bd 6325 353d
00000270: cab5 91bd 7514 f73c 11f3 b8bd 2bf5 573d
00000280: 6e03 ac3d 6335 f6bd 2461 013d 53d2 92bd
00000290: e831 973d d901 db3d 1077 e5bd 0117 7f3d
000002a0: f871 9f3d 8ecb ad3d ee68 7c3d e279 d3bb
000002b0: e846 c1bc ab73 0fbd cda6 9abd 28b2 50bd
000002c0: 9075 42bd 3986 edbd 4d52 2ebd cff6 acbd
000002d0: 5cf1 4fbd 3416 2dbd 0201 05be fe28 eb3d
000002e0: 8aad 683d b71d d73d f625 cbbd 6681 b3bd
000002f0: de0c 193e 9b06 c23c d1ab 863d 7287 58bc
00000300: cc89 833a 9a09 f0bb f359 893d 5fcb c13d
00000310: 995f 28bd 93e3 bfbd 173c 81bd f8c3 a73d
00000320: b1bf 19bb f2e4 c53d 8a39 5fbd 70d7 b4bd
00000330: 49b1 0b3d 71ec 3cbd e02d 89bd 8bf7 ae3d
00000340: 1e29 843c 91bd 253c 2af1 f93d c73a ad3d
00000350: c0ae 04be c980 0fbe d1fc b4bd 902d 21bd
00000360: cd9d 8fbd 2802 a73d 686a b3bd 7299 e33d
00000370: 03ff 0f3d 35aa 353b 5aba 5e3c e717 033c
00000380: 92d7 ad3c 459b f6bd 2941 aabc d8ab 5c3d
00000390: 7546 0e3e e6ac 94bb 69b2 b5bd 952a 743d
000003a0: 169f e8bd 4025 463e fea0 6e3d 842c b93c
000003b0: 5fab ddbc 3765 543d 942e b8bd eafc 16be
000003c0: 6fab 8bbd 1679 e83d 0c89 f5bc 8c5f 96bd
000003d0: 19bc 5e3d 5d39 d0bd d968 02bd b11c b3bd
000003e0: 49ee b53c 0783 d3bc 5f33 2b3c c139 b43d
000003f0: 34b2 75bd 869c 8c3c 7eee 983b 90b5 363e

encoder.rnn.weight_hh_l0 f4 [192, 64]
0.04886768 -0.036728114 -0.10012144 -0.033124838 -0.10005128 -0.14476371 0.031758647 -0.059950814
-0.105473734 0.10154656 0.08398411 0.11510258 0.021655967 0.0041128946 0.05845703 -0.082603365
-0.014449956 0.12864494 0.08360802 0.015646745 -0.008087129 0.03398211 0.033317275 -0.038335938
0.064960875 0.116918944 -0.03430457 0.0930128 -0.028765937 0.043180052 0.09088283 -0.09291338
0.08009378 -0.00014255162 -0.07641538 -0.03355718 0.11923825 0.0908142 -0.057358798 0.06569791
0.071788 0.09975196 0.085234106 -0.034378465 0.08469516 -0.01782133 0.0054787355 0.01436879
-0.0023462416 0.0054252553 -0.13515548 0.021469835 0.09964002 0.04443462 -0.11573829 0.008609849
0.0008516341 0.0069822054 -0.10650004 0.027694503 -0.09257318 0.016620034 0.07419189 0.102410994
-0.012362659 0.10636312 -0.016697407 -0.058442254 0.061699934 -0.0079426905 -0.10297299 0.06754827
0.11394485 0.082150765 -0.011463601 -0.110288374 0.12151888 -0.06173934 0.01824737 -0.09761948
0.0816019 0.041069362 0.12633982 0.053134535 -0.110215455 0.10616018 -0.108123995 -0.07250803
0.070320874 -0.07219739 0.04436615 0.0021469768 0.018060662 -0.070662245 0.0775457 0.0038912413
0.057382204 0.020710446 -0.054405853 -0.05819918 0.07749621 -0.11506568 -0.050229125 -0.12630518
-0.061208896 0.023851214 -0.04698902 0.033542078 0.09944514 0.034618348 0.12468296 -0.004958057
0.12817103 0.013778802 0.0011842232 0.027942568 -0.093162775 0.11122565 0.10581779 -0.11857129
-0.053233236 0.086766556 0.041569132 -0.03560706 -0.055269383 -0.03746522 -0.02044294 0.11227896
-0.07665784 0.006363004 0.037527807 -0.062143117 -0.009828962 -0.024102345 0.10036485 0.093522824
-0.0043118093 -0.09494253 -0.06743617 -0.049436014 0.10850284 0.10751584 0.019912459 -0.10333461
0.043131277 -0.029676853 0.06948049 0.07127959 0.104574986 0.010440652 0.0104296645 -0.0029149621
0.09703029 0.095344305 0.04206989 -0.021470383 -0.03698429 0.118107125 -0.06656218 0.020276036
0.039485034 0.07123991 -0.0753165 -0.0016009349 -0.0074203475 -0.0161436 -0.10877628 0.054043707
-0.097407624 -0.033145282 0.03135572 0.102868214 -0.02198992 -0.06915251 -0.04909798 0.0028496452
-0.07101724 0.029367814 0.060304556 0.11830173 0.10420281 -0.04268345 0.054261483 0.0036172878
0.06291226 -0.060144957 0.11463349 0.0014829843 0.07212999 0.09434395 -0.02802704 0.09875724
0.007067359 -0.0053879167 -0.043346494 -0.1284686 0.009574156 0.06384357 0.060905647 -0.08713659
-0.10537784 0.012676529 -0.0050084987 -0.029521942 -0.1060675 0.015102782 -0.03250528 -0.0021092629
0.07511706 -0.047681395 -0.060599945 0.073133714 0.1351667 -0.053633183 0.07109688 -0.08490574
0.14553855 -0.049252454 -0.11766118 -0.06552638 0.13779385 -0.01887033 -0.06969447 0.035603773
0.12544271 0.12275499 -0.023954837 -0.042940773 -0.15095197 -0.120027855 -0.13689296 -0.022686807
-0.08080161 0.038842116 0.080331005 0.063104205 -0.046777505 -0.04164803 -0.03226563 -0.12834182
0.038539644 -0.14522572 0.048979394 -0.05771055 -0.053695265 -0.074522085 0.014270823 -0.006121196
-0.1573825 0.11472929 -0.025700014 0.03953468 0.07555606 0.029593704 -0.114679664 0.07288028
00000000: 7a29 483d 3870 16bd 780c cdbd e9ad 07bd
00000010: afe7 ccbd f03c 14be 5b15 023d fc8e 75bd
00000020: 9d02 d8bd a5f7 cf3d dcff ab3d e7ba eb3d
00000030: db67 b13c 76c5 863b a470 6f3d f42b a9bd
00000040: 82bf 6cbc 80bb 033e ae3a ab3d 9a2d 803c
00000050: e17f 04bc d330 0b3d b277 083d 2506 1dbd
00000060: 350a 853d 3373 ef3d f382 0cbd 7f7d be3d
00000070: 8ba6 ebbc 91dd 303d c720 ba3d 5f49 bebd
00000080: 3508 a43d e979 15b9 ab7f 9cbd 4173 09bd
00000090: 2f33 f43d ccfc b93d 0ff1 6abd a08c 863d
000000a0: 9605 933d c14a cc3d 388f ae3d 6fd0 0cbd
000000b0: a874 ad3d 0afe 91bc f786 b33b 136b 6b3c
000000c0: 67c3 19bb 57c6 b13b 3366 0abe 82e1 af3c
000000d0: 1110 cc3d 1301 363d 3208 edbd 5310 0d3c
000000e0: 3240 5f3a fcca e43b b11c dabd 95df e23c
000000f0: 0297 bdbd bd26 883c ebf1 973d dbbc d13d
00000100: c08c 4abc e8d4 d93d 00c9 88bc 2561 6fbd
00000110: 12b9 7c3d 0f22 02bc 81e3 d2bd bf56 8a3d
00000120: eb5b e93d a93e a83d d4d1 3bbc dfde e1bd
00000130: e4de f83d 64e2 7cbd 827b 953c b9ec c7bd
00000140: e61e a73d 5938 283d 3a5f 013e 99a3 593d
00000150: a4b8 e1bd 826a d93d 1d70 ddbd 177f 94bd
00000160: 6404 903d 3adc 93bd 48b9 353d 4bb4 0c3b
00000170: f4f3 933c 5eb7 90bd 48d0 9e3d 3204 7f3b
00000180: 9a09 6b3d f4a8 a93c acd8 5ebd 4362 6ebd
00000190: 55b6 9e3d 8ea7 ebbd 0ebd 4dbd 2556 01be
000001a0: 2eb6 7abd 9f63 c33c 8f77 40bd 6b63 093d
000001b0: e5a9 cb3d f8cb 0d3d c859 ff3d 3277 a2bb
000001c0: 443f 033e 7cc0 613c f037 9b3a d0e7 e43c
000001d0: 20cc bebd 46ca e33d ffb6 d83d 81d5 f2bd
000001e0: 180b 5abd aab2 b13d 6544 2a3d b5d8 11bd
000001f0: 2662 62bd 2175 19bd f477 a7bc 83f2 e53d
00000200: c9fe 9cbd bf80 d03b c2b6 193d c889 7ebd
00000210: a809 21bc 4872 c5bc 168c cd3d e588 bf3d
00000220: 144a 8dbb 3b71 c2bd fa1b 8abd 6b7d 4abd
00000230: bd36 de3d 4431 dc3d 741f a33c 19a1 d3bd
00000240: 6caa 303d df1c f3bc ca4b 8e3d 09fb 913d
00000250: 692b d63d 450f 2b3c 2fe1 2a3c f308 3fbb
00000260: d1b7 c63d e043 c33d 7a51 2c3d a8e2 afbc
00000270: d77c 17bd 26e2 f13d c151 88bd ee19 a63c
00000280: 0fbb 213d 3be6 913d 8a3f 9abd 76d6 d1ba
00000290: 6326 f3bb 953f 84bc 19c6 debd ef5c 5d3d
000002a0: a67d c7bd 59c3 07bd db6e 003d 92ac d23d
000002b0: 3424 b4bc d59f 8dbd f71a 49bd 1dc1 3a3b
000002c0: 7d71 91bd c594 f03c e901 773d 2d48 f23d
000002d0: 4868 d53d d7d4 2ebd 4a41 5e3d 0510 6d3b
000002e0: 25d8 803d 8f5a 76bd f7c4 ea3d b260 c23a
000002f0: e3b8 933d 6737 c13d f798 e5bc 3c41 ca3d
00000300: 4e95 e73b 1f8d b0bb 188c 31bd 468d 03be
00000310: ecdc 1c3c 6bc0 823d 3378 793d ab74 b2bd
00000320: 56d0 d7bd 37b1 4f3c 551e a4bb 00d8 f1bc
00000330: eb39 d9bd a971 773c 4224 05bd 8f3b 0abb
00000340: f9d6 993d 914d 43bd a637 78bd 21c7 953d
00000350: 2469 0a3e 78ae 5bbd 3e9b 913d 10e3 adbd
00000360: 0f08 153e f1bc 49bd 58f8 f0bd b232 86bd
00000370: d519 0d3e f395 9abc f9bb 8ebd 43d5 113d
00000380: 0e74 003e f866 fb3d ef3c c4bc aae2 2fbd
00000390: 2793 1abe 2ad1 f5bd ab2d 0cbe afd9 b9bc
000003a0: 517b a5bd e918 1f3d 9584 a43d c73c 813d
000003b0: c599 3fbd 2097 2abd f728 04bd 0a6c 03be
000003c0: bfdb 1d3d 0db6 14be 9e9e 483d e661 6cbd
000003d0: 91ef 5bbd 099f 98bd 2cd0 693c 5094 c8bb
000003e0: e128 21be 31f7 ea3d d688 d2bc 1eef 213d
000003f0: 23bd 9a3d 7f6e f23c 2cdd eabd 4242 953d

encoder.rnn.bias_ih_l0 f4 [192]
-0.05261739 0.00071910606 -0.046727438 -0.1336685 0.0034096427 -0.06929811 -0.0726033 -0.117826365
-0.048486393 -0.0036380754 -0.104597196 0.008919715 -0.019992333 0.056695104 0.041334994 -0.017818712
-0.12429134 -0.04494249 -0.10130382 0.007949074 -0.13100053 -0.10281555 0.0800279 -0.064686626
0.027742246 0.103159904 -0.08785416 -0.12034335 -0.104426146 0.0620433 0.10818211 0.018648257
-0.09663438 -0.062590934 -0.056251425 -0.12296901 0.0472293 0.08335196 0.11505383 -0.13040838
0.04349503 -0.04692435 -0.12001066 0.08334623 0.06927057 -0.0095065385 0.016879665 -0.09731824
0.06884749 -0.049836412 -0.012876452 0.09331419 -0.09404428 0.12301163 0.07043898 -0.07727978
-0.08540378 -0.1142682 0.09160784 0.0008560751 -0.022042785 0.085129976 -0.023762725 0.050847743
0.006107046 -0.009914539 -0.06590383 -0.32178408 -0.2388646 -0.06152793 -0.07152455 0.3178063
0.031503066 -0.1336315 -0.089806564 -0.25039926 -0.21876013 -0.1798375 -0.26767075 -0.48645946
-0.005113228 -0.15166451 -0.09362038 -0.045231957 0.0038801008 0.21044411 0.077350706 -0.24896018
-0.04487049 -0.07112661 0.018997064 0.15315321 0.13046038 -0.32822883 0.10698881 -0.44824204
-0.07456735 -0.16840626 0.010398501 0.05414192 -0.05871853 0.1884961 -0.099748336 -0.15262069
-0.06361969 -0.024505513 -0.433295 -0.02027831 0.08199694 0.02859741 0.01928215 -0.07134617
0.032986116 -0.10297746 0.28152996 0.12399953 -0.021886485 -0.06402616 -0.08985695 -0.36489853
-0.12282469 -0.19127417 -0.12853627 0.061205715 -0.06196216 0.04346667 -0.016633088 -0.20143744
-0.058911398 0.0053424765 0.03637559 -0.061480336 -0.06226829 0.014390968 -0.061854124 0.13136388
0.022499012 -0.04640897 0.034026284 -0.052568104 -0.013866044 0.027878325 0.05446416 0.013816038
0.006209471 -0.04932054 -0.11343487 0.09176607 -0.015087515 -0.11058531 0.08425006 0.09731466
-0.02640484 0.0014566443 -0.07787649 0.08134626 -0.10612371 0.083624676 0.03653226 0.1134512
-0.065491915 -0.019485796 0.0024326497 0.056983903 0.03125756 0.0169586 0.11306451 0.02894275
-0.069709696 -0.06182071 0.07911096 0.11136741 -0.10520892 -0.10622243 -0.098379746 0.09321126
-0.07269778 0.06356793 -0.036778744 0.0682999 0.004649958 -0.03977493 0.095050946 0.120169565
-0.052105635 0.08973713 -0.084901646 -0.08534595 0.0053178393 0.093529776 0.0099277925 0.08612242
00000000: 5585 57bd 6482 3c3a 4565 3fbd 65e0 08be
00000010: 5074 5f3b 2bec 8dbd 0ab1 94bd f34e f1bd
00000020: ab99 46bd c76c 6ebb 0e37 d6bd ff23 123c
00000030: f6c6 a3bc 2039 683d e24e 293d 8cf8 91bc
00000040: 758c febd 9e15 38bd 6178 cfbd d53c 023c
00000050: 0125 06be f690 d2bd abe5 a33d 6c7a 84bd
00000060: b543 e33c 8045 d33d e2ec b3bd 9376 f6bd
00000070: 60dd d5bd 1e21 7e3d 958e dd3d 3bc4 983c
00000080: 3fe8 c5bd ad2f 80bd e567 66bd 2dd7 fbbd
00000090: 8373 413d 6fb4 aa3d 58a1 eb3d c689 05be
000000a0: d827 323d bf33 40bd 26c8 f5bd 6eb1 aa3d
000000b0: bbdd 8d3d 50c1 1bbc 3947 8a3c c94e c7bd
000000c0: eaff 8c3d 4421 4cbd c1f7 52bc 831b bf3d
000000d0: 4a9a c0bd 85ed fb3d 5042 903d dc44 9ebd
000000e0: 2de8 aebd 7205 eabd e49c bb3d 3a6a 603a
000000f0: 1293 b4bc a058 ae3d 0caa c2bc b945 503d
00000100: 9d1d c83b 9770 22bc 96f8 86bd e2c0 a4be
00000110: ec98 74be b604 7cbd 777b 92bd 82b7 a23e
00000120: 5c09 013d b2d6 08be 81ec b7bd 5534 80be
00000130: a802 60be 5227 38be 240c 89be 3711 f9be
00000140: de8c a7bb f14d 1bbe 0bbc bfbd 2545 39bd
00000150: 4a49 7e3b a97e 573e 0c6a 9e3d 6bef 7ebe
00000160: 1eca 37bd d4aa 91bd bb9f 9b3c 32d4 1c3e
00000170: 6897 053e 9c0d a8be f31c db3d fb7f e5be
00000180: c4b6 98bd b172 2cbe 795e 2a3c ebc3 5d3d
00000190: d782 70bd 1f05 413e db48 ccbd 9948 1cbe
000001a0: 0a4b 82bd c9bf c8bc d8d8 ddbe b31e a6bc
000001b0: 03ee a73d 1e45 ea3c 99f5 9d3c f11d 92bd
000001c0: 731c 073d d9e5 d2bd b224 903e 77f3 fd3d
000001d0: 494b b3bc 2620 83bd ec06 b8bd fbd3 babe
000001e0: 838b fbbd 60dd 43be 039f 03be d8b2 7a3d
000001f0: 09cc 7dbd 1b0a 323d 1d42 88bc 9e45 4ebe
00000200: 144d 71bd f10f af3b 92fe 143d ced2 7bbd
00000210: 090d 7fbd 18c8 6b3c c05a 7dbd 4184 063e
00000220: d94f b83c 5517 3ebd 255f 0b3d a751 57bd
00000230: 672e 63bc 1661 e43c d015 5f3d aa5c 623c
00000240: d178 cb3b 5604 4abd 8b50 e8bd d9ef bb3d
00000250: a031 77bc 8d7a e2bd 4c8b ac3d e94c c73d
00000260: f74e d8bc dfec be3a b67d 9fbd de98 a63d
00000270: 6357 d9bd 6a43 ab3d daa2 153d 1a59 e83d
00000280: a020 86bd ada0 9fbc 176d 1f3b f467 693d
00000290: ed07 003d c3ec 8a3c 5e8e e73d 5919 ed3c
000002a0: f5c3 8ebd b637 7dbd ed04 a23d 9914 e43d
000002b0: c677 d7bd 258b d9bd 527b c9bd 8ce5 be3d
000002c0: 93e2 94bd e72f 823d 4fa5 16bd d1e0 8b3d
000002d0: ad5e 983b 09eb 22bd 12aa c23d 761b f63d
000002e0: b86c 55bd 1ac8 b73d eae0 adbd dcc9 aebd
000002f0: 4541 ae3b 8a8c bf3d 2ea8 223c f460 b03d

encoder.rnn.bias_hh_l0 f4 [192]
0.07230071 0.069356255 0.0447402 -0.15340999 -0.10156587 -0.12739801 0.022623071 0.0079150805
0.0069800373 -0.13374831 0.028025063 -0.08575405 -0.101852 0.033653744 -0.017558606 -0.08667023
-0.0022937723 0.03732806 -0.117904305 -0.007219734 0.087712884 0.10479735 -0.04397815 -0.048607334
-0.06977642 -0.09661803 -0.050266217 0.07458284 0.08018981 -0.037232324 0.010368138 -0.083329916
-0.02350304 0.085990265 0.07376998 -0.024411367 -0.10216971 -0.014391349 -0.05006113 0.013197474
0.11105454 -0.02004195 -0.025440902 -0.01201951 -0.0023506747 0.026765645 0.0076701236 -0.13096227
0.10813448 -0.08351383 0.1097246 -0.018728405 -0.027158272 0.06543911 -0.047430143 0.0006966665
-0.047898922 -0.09532611 0.09348674 0.08784537 0.05276598 0.11233621 0.06416468 0.10853873
-0.04513193 0.09429856 0.033466194 -0.23849984 -0.031875685 -0.25634688 -0.18945779 0.13796198
0.09434751 -0.12028814 0.029299274 -0.038251594 -0.105328806 -0.14310323 -0.23020363 -0.32043487
0.031722866 -0.13823432 -0.100254625 -0.031548914 0.09445968 0.11532084 0.028229153 -0.19740902
0.04296123 -0.14490595 0.18516585 -0.011600709 0.07425192 -0.14880838 -0.002030752 -0.49389842
0.033623606 -0.018393788 -0.04354166 0.24767335 0.06712484 0.1962556 0.07713841 -0.312696
-0.032483406 -0.16702513 -0.37750444 0.10004416 0.088868774 -0.15228502 0.08290765 0.12115018
0.02072762 -0.07545719 0.07514293 -0.013426727 0.07897538 0.0040481593 -0.0082329875 -0.43554577
-0.14356606 -0.22750746 -0.08951573 0.032364596 0.008640332 -0.074012935 -0.07216847 -0.20775926
-0.09108772 0.11075737 0.04367913 0.059858467 0.05818129 0.08480387 0.109167695 -0.048955802
0.024978543 0.0701547 -0.11959838 0.07289353 -0.122033946 -0.0867872 -0.0683192 -0.09063353
-0.083696894 0.077551305 -0.11025107 -0.06164806 -0.10261158 -0.039931837 -0.008167965 0.03973177
-0.061112728 0.020941373 0.068460494 0.102739125 -0.026100371 -0.09568107 0.07075497 -0.038026333
-0.119250976 -0.057624787 -0.015915839 0.038813144 0.09355542 0.06816552 -0.06534371 0.09776071
0.04944483 0.030275384 -0.084919 -0.025926664 0.05307776 -0.040856473 0.05470784 0.055065285
-0.08416409 0.094759494 0.025416404 -0.014930448 0.00020195825 -0.009851612 -0.007579915 -0.043292668
0.01753422 -0.03325498 0.11825905 -0.03264874 -0.1115396 0.11246196 0.07774275 -0.09515906
00000000: 6512 943d a70a 8e3d 8041 373d 8217 1dbe
00000010: c401 d0bd a074 02be 0554 b93c 41ae 013c
00000020: ccb8 e43b 51f5 08be d194 e53c d29f afbd
00000030: c897 d0bd 82d8 093d 11d7 8fbc 2980 b1bd
00000040: 1d53 16bb 4fe5 183d d077 f1bd 8593 ecbb
00000050: d0a2 b33d fe9f d63d 6f22 34bd 7c18 47bd
00000060: f1e6 8ebd acdf c5bd f3e3 4dbd e3be 983d
00000070: 8e3a a43d ec80 18bd 1fdf 293c e0a8 aabd
00000080: 7389 c0bc aa1b b03d b714 973d 59fa c7bc
00000090: 5a3e d1bd b1c9 6bbc e60c 4dbd 383a 583c
000000a0: 9070 e33d 042f a4bc 7069 d0bc 7bed 44bc
000000b0: c70d 1abb a043 db3c a955 fb3b f91a 06be
000000c0: 9c75 dd3d 4d09 abbd 4bb7 e03d 506c 99bc
000000d0: 067b debc f104 863d 1c46 42bd 7fa0 363a
000000e0: a931 44bd 563a c3bd fa75 bf3d 46e8 b33d
000000f0: 2421 583d 8710 e63d c668 833d 8e49 de3d
00000100: 42dc 38bd 9a1f c13d d913 093d 4d39 74be
00000110: 1490 02bd e63f 83be 3901 42be e845 0d3e
00000120: 4439 c13d a159 f6bd 0805 f03c b4ad 1cbd
00000130: a1b6 d7bd a789 12be 80ba 6bbe 0a10 a4be
00000140: d6ef 013d 4c8d 0dbe 4c52 cdbd 6f39 01bd
00000150: 1474 c13d 552d ec3d d340 e73c 9725 4abe
00000160: 1df8 2f3d 3a62 14be 1e9c 3d3e e610 3ebc
00000170: 6411 983d 3961 18be 5d16 05bb 41e0 fcbe
00000180: e8b8 093d 92ae 96bc bd58 32bd 159e 7d3e
00000190: c078 893d 3af7 483e befa 9d3d b119 a0be
000001a0: 520d 05bd a308 2bbe 4348 c1be f4e3 cc3d
000001b0: d500 b63d 9bf0 1bbe 7ccb a93d 961d f83d
000001c0: f8cc a93c 4d89 9abd 89e4 993d c6fb 5bbc
000001d0: d8bd a13d 6ca6 843b a7e3 06bc dbff debe
000001e0: fb02 13be b7f7 68be 0654 b7bd bd90 043d
000001f0: 2e90 0d3c 1894 97bd 10cd 93bd d8be 54be
00000200: 338c babd c3d4 e23d e3e8 323d 272e 753d
00000210: 814f 6e3d a7ad ad3d 5093 df3d e185 48bd
00000220: cd9f cc3c 44ad 8f3d ffef f4bd 3449 953d
00000230: efec f9bd 7dbd b1bd f0ea 8bbd 129e b9bd
00000240: 4769 abbd 38d3 9e3d 50cb e1bd ad82 7cbd
00000250: 0526 d2bd 918f 23bd eed2 05bc c8bd 223d
00000260: 5751 7abd 3e8d ab3c 0435 8c3d e468 d23d
00000270: 72d0 d5bc 70f4 c3bd fbe7 903d 80c1 1bbd
00000280: db39 f4bd f807 6cbd ef61 82bc 88fa 1e3d
00000290: fc99 bf3d 5d9a 8b3d ecd2 85bd c436 c83d
000002a0: a986 4a3d 1504 f83c 03ea adbd 2864 d4bc
000002b0: 1168 593d 1e59 27bd 5415 603d 238c 613d
000002c0: 395e acbd 4411 c23d 1036 d03c d69e 74bc
000002d0: c1c4 5339 a868 21bc f060 f8bb a753 31bd
000002e0: eda3 8f3c 6036 08bd cd31 f23d afba 05bd
000002f0: e06e e4bd 7552 e63d 9737 9f3d c1e2 c2bd

encoder.rnn.weight_ih_l1 f4 [192, 64]
0.10271627 -0.106663175 -0.06810339 -0.039714526 0.02005316 0.013359526 -0.05182674 -0.062223062
-0.06997337 0.11858411 0.06108748 0.010748291 0.02468929 0.005632543 -0.028485132 -0.05440779
0.11651174 -0.016568998 -0.07285041 -0.017072028 0.04397677 -0.10418703 0.030458808 -0.018773029
-0.055859607 0.0159562 0.030777372 -0.13163063 0.06458992 0.047705464 -0.08036171 0.03073416
-0.05551018 0.09168083 -0.054136775 0.021494703 0.039576042 -0.008744163 -0.07068168 0.037806597
0.052246526 -0.055883683 -0.028290361 0.0462647 -0.10318227 0.023141686 0.02606659 -0.12435101
0.021879956 -0.10037695 -0.11097701 0.10659394 0.06561756 0.09657953 0.10720468 -0.06955421
-0.026687017 -0.010783807 0.057158485 0.01969934 -0.004245299 0.11971127 -0.05629976 0.05676396
0.06092187 -0.061600994 0.0676187 0.07271893 -0.012689067 -0.074107334 0.0636793 0.10071347
0.03850226 -0.008549452 0.07283009 0.026073432 -0.056616444 -0.090700865 -0.04706564 0.023212224
-0.047170773 0.0062404955 -0.056701668 -0.09800028 0.09400911 -0.063958235 0.030750817 0.115675345
0.034272034 0.06264246 -0.10690025 -0.102001704 -0.054082796 -0.05006742 -0.075258605 -0.057995286
0.055667747 0.11446536 0.09299299 0.062061567 -0.11417541 -0.028095232 0.03617601 0.124500945
-0.08232779 0.08476994 0.09849388 -0.028362306 -0.10684816 0.06511615 0.07372486 -0.11023195
0.104264565 -0.015389024 -0.075854555 0.0044504837 0.08182186 -0.0036572572 -0.10518372 -0.0559374
0.02179804 0.061589025 0.08050033 0.04775918 0.06524304 -0.03284644 0.05601987 0.02322312
0.027935568 0.11697787 -0.055767316 0.118038595 -0.048357096 0.0820309 -0.024574947 0.06490289
-0.0456248 0.031450745 0.109883465 -0.014521693 -0.006167364 -0.056460004 0.09140393 0.059438728
-0.026293803 -0.009035307 0.11687665 0.06687539 0.107654065 -0.062781334 -0.05238171 -0.09314883
-0.0957841 -0.016765589 0.012333926 -0.0760268 -0.032054152 0.009575931 -0.029504115 -0.10285029
0.11282223 -0.045273647 0.02539067 0.04152065 -0.114089414 -0.014505994 -0.09902522 0.08741908
-0.039503895 0.08943132 0.005397116 -0.060588166 0.052029587 -0.09481074 -0.046757128 -0.019832784
0.12619734 -0.10946198 0.047336895 0.12093309 -0.023873614 -0.060697384 -0.08782214 -0.024217388
0.113604985 -0.084568806 0.12795007 -0.09239993 0.11024657 0.0006644404 -0.02942792 -0.10343904
-0.070865534 -0.073195346 -0.10396034 -0.0179319 0.0782462 -0.12162414 0.111797065 0.031026602
0.0787408 0.010975443 -0.06305942 0.06872256 0.09682943 0.051837705 0.04588061 0.14825314
0.013167148 -0.04055986 0.057848297 -0.057124197 0.09877607 0.008096031 0.06694472 0.0077298954
0.09295996 0.07891679 0.07799266 -0.05391541 0.015953746 0.1014218 0.09366012 -0.064191304
0.09232953 -0.09242469 0.085367486 -0.05238697 -0.07649888 0.116887756 0.008400753 -0.064479485
0.06917357 0.07885547 -0.016942432 -0.080079086 -0.06897036 -0.075369194 0.033712115 -0.106378384
-0.076055124 -0.1090477 -0.014563434 0.12278044 0.025546273 0.0026887876 0.065374985 -0.09423416
-0.0126888305 0.08270401 -0.11304152 -0.12687919 -0.05316067 -0.10439196 -0.02777223 0.09914258
00000000: e85c d23d 3972 dabd ca79 8bbd b3ab 22bd
00000010: 8646 a43c eae1 5a3c 4748 54bd 9cdd 7ebd
00000020: 334e 8fbd 3adc f23d de36 7a3d 9a19 303c
00000030: 3241 ca3c 3291 b83b a759 e9bc b4da 5ebd
00000040: b59d ee3d b5bb 87bc 9932 95bd a3da 8bbc
00000050: fc20 343d 0260 d5bd c084 f93c e5c9 99bc
00000060: 0bcd 64bd 94b6 823c d420 fc3c 2eca 06be
00000070: b847 843d ce66 433d ae94 a4bd 35c6 fb3c
00000080: a45e 63bd 29c3 bb3d 86be 5dbd a915 b03c
00000090: 7d1a 223d ae43 0fbc 8fc1 90bd 17db 1a3d
000000a0: 7400 563d 4ae6 64bd 30c1 e7bc 0e80 3d3d
000000b0: 3a51 d3bd a293 bd3c 9a89 d53c beab febd
000000c0: 983d b33c 6e92 cdbd ea47 e3bd ec4d da3d
000000d0: 8062 863d 7dcb c53d 218e db3d 7072 8ebd
000000e0: bb9e dabc 91ae 30bc 041f 6a3d 8360 a13c
000000f0: 261c 8bbb 2f2b f53d 949a 66bd 5381 683d
00000100: 3689 793d 5351 7cbd ac7b 8a3d aaed 943d
00000110: cee5 4fbc 96c5 97bd 4b6a 823d dd42 ce3d
00000120: 8cb4 1d3d 0013 0cbc f127 953d f397 d53c
00000130: a5e6 67bd 60c1 b9bd e7c7 40bd 9027 be3c
00000140: 2436 41bd 127d cc3b 0240 68bd 5fb4 c8bd
00000150: d987 c03d 89fc 82bd 23e9 fb3c 32e7 ec3d
00000160: d560 0c3d b14a 803d 85ee dabd 45e6 d0bd
00000170: ec85 5dbd 7f13 4dbd 2f21 9abd 778c 6dbd
00000180: dd03 643d d16c ea3d 1c73 be3d 4534 7e3d
00000190: ccd4 e9bd f927 e6bc 4c2d 143d 5afa fe3d
000001a0: 799b a8bd dd9b ad3d 29b7 c93d 1158 e8bc
000001b0: 35d3 dabd 9e5b 853d 0ffd 963d 4ac1 e1bd
000001c0: a988 d53d 3f22 7cbc a259 9bbd 5dd5 913b
000001d0: 3892 a73d 98ae 6fbb 906a d7bd 9d1e 65bd
000001e0: ce91 b23c c644 7c3d 5bdd a43d 219f 433d
000001f0: 259e 853d fd89 06bd 1775 653d 6a3e be3c
00000200: 22d9 e43c 1892 ef3d 456c 64bd 38be f13d
00000210: 1712 46bd d1ff a73d 6651 c9bc ceeb 843d
00000220: 12e1 3abd 7fd2 003d 950a e13d 65ec 6dbc
00000230: 9917 cabb 9b42 67bd fc31 bb3d 0676 733d
00000240: 1a66 d7bc d308 14bc 065d ef3d f7f5 883d
00000250: bc79 dc3d 8093 80bd 348e 56bd d0c4 bebd
00000260: 742a c4bd fd57 89bc 3c14 4a3c f0b3 9bbd
00000270: 374b 03bd 5ee4 1c3c 9db2 f1bc 2ca3 d2bd
00000280: 570f e73d dc70 39bd 1800 d03c 8f11 2a3d
00000290: b6a7 e9bd 8caa 6dbc bccd cabd c608 b33d
000002a0: d6ce 21bd c527 b73d 4ada b03b 4c2b 78bd
000002b0: fa1c 553d 222c c2bd 6784 3fbd 5d78 a2bc
000002c0: e039 013e 9a2d e0bd 55e4 413d c5ab f73d
000002d0: 9992 c3bc d29d 78bd 18dc b3bd 8b63 c6bc
000002e0: bba9 e83d 6932 adbd 5805 033e 2d3c bdbd
000002f0: f4c8 e13d d72d 2e3a d212 f1bc d9d7 d3bd
00000300: f321 91bd 71e7 95bd 29e9 d4bd ece5 92bc
00000310: 8b3f a03d 1416 f9bd dcf5 e43d 802b fe3c
00000320: db42 a13d 58d2 333c 4c25 81bd 6abe 8c3d
00000330: 824e c63d c653 543d 4eed 3b3d accf 173e
00000340: 06bb 573c 1922 26bd 56f2 6c3d 10fb 69bd
00000350: 1c4b ca3d 37a5 043c 501a 893d 104b fd3b
00000360: cb61 be3d 209f a13d 9eba 9f3d 68d6 5cbd
00000370: 6eb1 823c 3cb6 cf3d e1d0 bf3d bb76 83bd
00000380: 4417 bd3d 2849 bdbd 26d5 ae3d b893 56bd
00000390: 72ab 9cbd d962 ef3d 50a3 093c d20d 84bd
000003a0: dfaa 8d3d fa7e a13d dbca 8abc 8100 a4bd
000003b0: 5540 8dbd 2a5b 9abd b715 0a3d e9dc d9bd
000003c0: cac2 9bbd 6754 dfbd 789b 6ebc 5074 fb3d
000003d0: 6b46 d13c 5f36 303b 52e3 853d d7fd c0bd
000003e0: d0e4 4fbc b860 a93d 5082 e7bd 9eec 01be
000003f0: 01bf 59bd 74cb d5bd 9682 e3bc 440b cb3d

encoder.rnn.weight_hh_l1 f4 [192, 64]
0.022377929 -0.04301618 -0.08855077 -0.084997155 -0.06772507 0.09555066 0.09295895 0.12271133
-0.052771572 0.03477673 -0.07860905 -0.037100144 0.10260354 -0.09075522 -0.10683032 -0.0041873315
0.018278347 0.098445535 0.042565677 0.029287651 0.13677534 0.107048705 -0.058098994 -0.109682724
-0.10611143 0.02490984 0.03654558 -0.037400857 0.097124174 0.020112393 0.01657644 -0.023246791
0.082789764 0.036010385 -0.09594522 -0.036730908 0.059605252 0.054027975 -0.037706476 0.12472235
0.10557082 -0.054204743 0.11082544 0.09902104 0.08046356 -0.0343004 0.052337382 -0.07677649
0.07493411 0.008158439 0.061341822 0.072072804 0.04587818 0.0351839 -0.055373352 -0.10159419
-0.10447809 -0.022467656 -0.11544251 -0.03623493 -0.0014792671 -0.12927325 0.11359268 0.011169619
0.080927454 -0.098378375 0.07174497 -0.08602597 0.030095384 0.11768091 0.09430732 -0.10790872
-0.056800254 -0.06634128 0.053018358 -0.089473285 0.08546848 -0.10489362 -0.048791308 0.0039266255
-0.0729267 -0.0152228195 -0.10313358 -0.09175678 -0.14604433 0.042531956 -0.06503945 -0.0371004
0.051946033 0.06086967 0.069813736 0.051747523 0.11786816 -0.029784033 0.09764736 -0.07396532
-0.14095919 0.0007579434 -0.053926535 -0.09162041 -0.06007805 -0.02797127 0.035966936 0.0037403258
-0.024461588 0.10494541 0.04552194 -0.054759845 -0.094525255 0.008920802 0.06535042 0.093178794
0.06840469 0.085168146 0.0018203275 -0.08228911 0.08355783 0.021394793 0.05807821 -0.07217951
-0.121614106 0.07711076 -0.010408038 -0.051926237 0.13057382 0.087185465 0.08993024 0.09030484
-0.08706866 0.11383565 0.068664126 -0.106091015 -0.0022286035 0.07338466 0.04062041 -0.07019367
-0.083384834 -0.09056077 0.06836475 -0.101797156 0.012208041 -0.07140255 -0.056983054 0.10329265
-0.097065486 0.0020315303 0.08511781 -0.07143372 -0.0346455 -0.026812755 0.11616051 0.03918001
0.07528318 -0.07027094 -0.120635524 0.08128111 0.08013031 0.08176182 0.04774902 0.03917333
0.03892987 -0.06119425 -0.039213203 0.11738803 0.01252126 0.011528103 -0.09091059 0.10957364
-0.0014177248 0.018522693 0.008282726 0.0940213 0.10956398 0.122696124 -0.081280015 -0.038767096
-0.050320316 0.06304149 0.044203606 -0.12217455 -0.09661838 -0.03764752 -0.012895281 0.0802215
0.021970289 0.09457773 -0.10098813 0.10978973 0.116045564 0.067961864 0.0008650799 0.11479489
-0.010278553 -0.01364576 -0.016465137 0.04322064 0.047890317 0.099443726 0.10166922 0.050925784
0.039075464 0.038202252 0.086003125 -0.036471173 0.08419551 -0.058485053 -0.050529987 0.05365264
-0.07343694 -0.06668425 0.041292425 0.009328468 0.07634928 -0.08505625 -0.08081463 0.02056944
0.045945704 0.01739308 -0.09138381 -0.08625365 0.03902621 0.026327174 0.07858304 -0.05936058
0.095720604 0.004532678 0.038542468 -0.070767365 -0.02302551 -0.032082822 -0.09342305 0.07032619
0.033143323 -0.091879904 0.030540632 -0.03281207 -0.11696747 0.016161317 -0.019877894 0.08278495
-0.015535619 -0.07553207 -0.03607788 0.05394306 -0.0974252 0.01909106 -0.08836719 -0.08984819
-0.017006226 0.08277624 -0.055413615 -0.08769645 -0.056517404 -0.08342982 -0.006009042 -0.09934523
00000000: eb51 b73c bc31 30bd 1b5a b5bd fd12 aebd
00000010: 71b3 8abd 10b0 c33d 4361 be3d 1450 fb3d
00000020: 0127 58bd 0b72 0e3d c8fd a0bd 52f6 17bd
00000030: ce21 d23d dfdd b9bd dbc9 dabd e235 89bb
00000040: 79bc 953c d09d c93d 5959 2e3d a8ec ef3c
00000050: d60e 0c3e 5a3c db3d 36f9 6dbd 56a1 e0bd
00000060: f350 d9bd b90f cc3c d1b0 153d a431 19bd
00000070: 0ae9 c63d bfc2 a43c 50cb 873c 0e70 bebc
00000080: ae8d a93d a07f 133d ed7e c4bd 2673 16bd
00000090: a324 743d 704c 5d3d 1b72 1abd 6e6e ff3d
000000a0: 8435 d83d cb05 5ebd 73f8 e23d 8bcb ca3d
000000b0: 14ca a43d 947e 0cbd b95f 563d fe3c 9dbd
000000c0: 0e77 993d f9aa 053c 9041 7b3d e89a 933d
000000d0: c2ea 3b3d fe1c 103d 2bcf 62bd 9d10 d0bd
000000e0: 9cf8 d5bd 170e b8bc 1f6d ecbd 146b 14bd
000000f0: f8e3 c1ba 3560 04be 47a3 e83d c700 373c
00000100: 4bbd a53d 9a7a c9bd 07ef 923d 622e b0bd
00000110: 988a f63c b002 f13d 3224 c13d 3fff dcbd
00000120: 62a7 68bd f0dd 87bd c729 593d c53d b7bd
00000130: 190a af3d 77d2 d6bd 65d9 47bd ecaa 803b
00000140: 985a 95bd 2269 79bc b337 d3bd fbea bbbd
00000150: a58c 15be fd35 2e3d 6733 85bd 97f6 17bd
00000160: 5dc5 543d 7a52 793d 81fa 8e3d 36f5 533d
00000170: dd64 f13d a5fd f3bc 57fb c73d 217b 97bd
00000180: 9b57 10be b8b0 463a 12e2 5cbd 7ba3 bbbd
00000190: 6714 76bd 0124 e5bc 1152 133d 4120 753b
000001a0: ab63 c8bc 9eed d63d 3775 3a3d dc4b 60bd
000001b0: 7596 c1bd 8e28 123c 71d6 853d 86d4 be3d
000001c0: c217 8c3d a36c ae3d 0e98 ee3a 3187 a8bd
000001d0: 5e20 ab3d 2244 af3c 6be3 6d3d dad2 93bd
000001e0: d110 f9bd 3fec 9d3d 7a86 2abc 9bb0 54bd
000001f0: 25b5 053e 4b8e b23d 582d b83d bef1 b83d
00000200: 0e51 b2bd aa22 e93d c79f 8c3d 3f46 d9bd
00000210: c30d 12bb b24a 963d 9661 263d b3c1 8fbd
00000220: abc5 aabd ed77 b9bd d102 8c3d 077b d0bd
00000230: 3c04 483c 803b 92bd 1067 69bd 198b d33d
00000240: 45ca c6bd 6c23 053b 3f52 ae3d d84b 92bd
00000250: 71e8 0dbd 6ca6 dbbc 90e5 ed3d 387b 203d
00000260: 112e 9a3d 36ea 8fbd c20f f7bd b676 a63d
00000270: 5c1b a43d be72 a73d 7a94 433d 3774 203d
00000280: ed74 1f3d d2a6 7abd 069e 20bd 2369 f03d
00000290: f925 4d3c 5ee0 3c3c 552f babd 2568 e03d
000002a0: f3d2 b9ba e7bc 973c 45b4 073c 3d8e c03d
000002b0: 1463 e03d 1b48 fb3d 2376 a6bd 3fca 1ebd
000002c0: ad1c 4ebd e61b 813d d70e 353d a736 fabd
000002d0: dbdf c5bd 4934 1abd bb46 53bc 2b4b a43d
000002e0: 09fb b33c f8b1 c13d ddd2 cebd 70d9 e03d
000002f0: 4ca9 ed3d 972f 8b3d 88c6 623a 9519 eb3d
00000300: 6067 28bc 7792 5fbc e5e1 86bc 2008 313d
00000310: a328 443d 27a9 cb3d f437 d03d 8e97 503d
00000320: 980d 203d f779 1c3d 6822 b03d cc62 15bd
00000330: b26e ac3d 068e 6fbd 88f8 4ebd dfc2 5b3d
00000340: 1b66 96bd c191 88bd 3f22 293d 6ed6 183c
00000350: 035d 9c3d f931 aebd 2482 a5bd 3e81 a83c
00000360: 9031 3c3d ef7b 8e3c 6f27 bbbd c1a5 b0bd
00000370: f2d9 1f3d 16ac d73c 25f0 a03d 1424 73bd
00000380: 2a09 c43d dc86 943b b5de 1d3d 7bee 90bd
00000390: ff9f bcbc 4769 03bd 9654 bfbd 2d07 903d
000003a0: 4bc1 073d 882b bcbd 5930 fa3c f365 06bd
000003b0: a48c efbd bd64 843c f7d6 a2bc 288b a93d
000003c0: 1c89 7ebc 8fb0 9abd 66c6 13bd 66f3 5c3d
000003d0: dd86 c7bd db64 9c3c dbf9 b4bd 5402 b8bd
000003e0: a450 8bbc 9786 a93d 63f9 62bd 329a b3bd
000003f0: cb7e 67bd 41dd aabd 7fe7 c4bb 8375 cbbd

encoder.rnn.bias_ih_l1 f4 [192]
-0.013203455 -0.024019012 -0.0114219 -0.00025521062 0.017610835 0.050990604 0.057545867 0.12127058
0.06855706 -0.004880491 0.017139915 -0.02440158 0.11063093 0.02688111 -0.123068534 -0.011728039
-0.048428394 -0.061732028 0.06673119 0.027800744 0.096424036 -0.106391065 0.06690505 0.02735183
0.04150674 -0.066799656 0.06165975 0.0057272203 -0.05146819 0.08124111 0.03243973 0.091521
-0.012408778 0.06454231 0.07696234 0.08451518 -0.040880177 0.10071595 0.049859393 -0.03890335
0.040876564 0.08960757 -0.04961794 0.06869134 -0.07359417 -0.060044687 0.045224022 0.0060473164
0.123149194 -0.039208867 0.008948509 -0.01710912 -0.008239811 -0.07040153 0.025054658 0.03214927
0.026779914 -0.05575137 0.06864647 0.054185126 0.07182894 -0.034739178 0.024132451 0.060766116
-0.03865421 -0.041293044 -0.038360458 -0.11609908 0.0050220513 -0.027552877 -0.26288173 0.048001822
-0.021961946 -0.05016461 -0.06695849 -0.17640561 -0.17562145 -0.13176975 0.08894502 -0.10704594
-0.028269527 -0.12515067 0.062533006 0.003172337 0.03337717 0.1182241 -0.014767201 -0.013829284
-0.0067641772 0.094859906 0.041186646 -0.05910169 -0.04800762 -0.10302669 0.051380575 0.04814211
-0.04549115 -0.0072398726 0.11562161 0.073360026 -0.04123489 -0.03940061 0.025372671 0.03586196
0.06265511 -0.14119378 -0.03793819 0.031668615 -0.095873445 0.08586017 0.11325312 0.09540486
0.059555348 -0.06519476 -0.05968385 0.10264944 -0.03187428 -0.013904921 -0.2940611 -0.053171013
0.0092995735 0.039651703 -0.040793665 -0.0014713681 -0.12406941 -0.19412072 -0.12504178 0.003640376
-0.08965031 0.014229852 -0.0066388296 -0.006158648 0.12324921 0.07927391 -0.10695813 -0.12471147
0.071608916 0.0826176 -0.09815343 0.036952477 0.027206559 0.054420475 0.022239666 0.09379221
0.09439397 0.055337626 0.11121055 0.03660251 -0.033336315 -0.012884661 0.052884996 -0.084480226
-0.04849766 -0.038728274 -0.010858755 -0.0144339185 -0.101152904 0.052539367 0.044734556 0.0877232
0.016156813 0.01549664 0.11303709 0.13488214 -0.1020632 0.031550977 -0.11812834 -0.10260411
0.06758472 -0.06314358 0.0010958364 -0.016334552 0.06409217 -0.038277764 -0.05119832 0.115168035
-0.07551656 -0.1023348 0.053434633 0.009373631 -0.118413575 0.09932725 -0.11792878 0.05021785
0.051760018 -0.068486445 0.026127977 0.03230409 -0.12949185 0.008269389 0.061025918 0.0121471295
00000000: 4e53 58bc 85c3 c4bc ec22 3bbc cacd 85b9
00000010: 9944 903c 86db 503d 37b5 6b3d b65c f83d
00000020: a567 8c3d 87ec 9fbb 0269 8c3c d3e5 c7bc
00000030: 7892 e23d c635 dc3c 5b0b fcbd f626 40bc
00000040: da5c 46bd b9da 7cbd 5daa 883d 63be e33c
00000050: f779 c53d 8fe3 d9bd 8405 893d f210 e03c
00000060: f902 2a3d 42ce 88bd ef8e 7c3d 68ab bb3b
00000070: 4fd0 52bd bd61 a63d 86df 043d 5d6f bb3d
00000080: 304e 4bbc c22e 843d 6e9e 9d3d 4b16 ad3d
00000090: f971 27bd 2a44 ce3d 5d39 4c3d 1e59 1fbd
000000a0: 2f6e 273d 2c84 b73d 2e3c 4bbd 0cae 8c3d
000000b0: 8ab8 96bd 6bf1 75bd d33c 393d 9128 c63b
000000c0: a535 fc3d 7a99 20bd c49c 123c 6d28 8cbc
000000d0: 4600 07bc ad2e 90bd 6d3f cd3c f4ae 033d
000000e0: 8d61 db3c 8c5b 64bd 8596 8c3d 39f1 5d3d
000000f0: 0d1b 933d ab4a 0ebd 6bb1 c53c e4e5 783d
00000100: e053 1ebd e522 29bd db1f 1dbd 5bc5 edbd
00000110: 0590 a43b 92b6 e1bc 6f98 86be 8f9d 443d
00000120: 8ae9 b3bc 6879 4dbd 8821 89bd aca3 34be
00000130: 1cd6 33be a6ee 06be cf28 b63d e73a dbbd
00000140: 7f95 e7bc 7f27 00be 4e11 803d fce6 4f3b
00000150: 80b6 083d 7a1f f23d 21f2 71bc 3994 62bc
00000160: 08a6 ddbb e945 c23d 54b3 283d 9d14 72bd
00000170: a3a3 44bd a8ff d2bd 7074 523d a930 453d
00000180: ee54 3abd 743c edbb 06cb ec3d c83d 963d
00000190: ebe5 28bd 8962 21bd 59da cf3c fee3 123d
000001a0: 5351 803d 1a95 10be 1365 1bbd f3b6 013d
000001b0: 4c59 c4bd 75d7 af3d 40f1 e73d a063 c33d
000001c0: 4ff0 733d d584 85bd 0d77 74bd df39 d23d
000001d0: 9b8e 02bd 77d1 63bc 2d8f 96be d9c9 59bd
000001e0: 3d5d 183c d369 223d 4217 27bd ecda c0ba
000001f0: 1a18 febd 95c7 46be f40a 00be 6093 6e3b
00000200: 959a b7bd 5324 693c 8a8a d9bb 7cce c9bb
00000210: 156a fc3d 5c5a a23d dd0c dbbd ba68 ffbd
00000220: b2a7 923d 6b33 a93d aa04 c9bd 7b5b 173d
00000230: 4ae0 de3c 01e8 5e3d f62f b63c 2116 c03d
00000240: a051 c13d b5a9 623d 5bc2 e33d 83ec 153d
00000250: a98b 08bd 2f1a 53bc f09d 583d f803 adbd
00000260: 7ba5 46bd 8aa1 1ebd ebe8 31bc 3e7c 6cbc
00000270: 4129 cfbd 8533 573d 953b 373d 39a8 b33d
00000280: 4b5b 843c 9ee5 7d3c fd7f e73d 8b1e 0a3e
00000290: 8306 d1bd 993b 013d 45ed f1bd 1b22 d2bd
000002a0: dc69 8a3d 6c51 81bd 2ba2 8f3a 0ad0 85bc
000002b0: c142 833d 25c9 1cbd 54b5 51bd 38dd eb3d
000002c0: 6da8 9abd e894 d1bd 46de 5a3d dc93 193c
000002d0: d182 f2bd 166c cb3d a584 f1bd 3bb1 4d3d
000002e0: 5002 543d 9f42 8cbd 570a d63c 4b51 043d
000002f0: 8399 04be 557c 073c 50f6 793d c104 473c

encoder.rnn.bias_hh_l1 f4 [192]
0.02554032 0.03563317 0.11730824 0.06208348 0.0014859523 -0.059969254 0.005134636 0.10248666
-0.09356466 0.08783479 0.042472795 -0.10236576 -0.026690595 -0.07779216 -0.10535239 0.07649716
-0.059325255 0.039478462 0.10327844 -0.09344989 0.01047025 -0.123647965 -0.043177314 0.08284296
-0.09780803 0.031795993 0.11628956 0.068383746 -0.07593787 -0.09807627 -0.038021196 0.04952842
0.044156704 -0.026511151 0.07968896 0.06626692 0.0759914 0.009210528 0.10928682 -0.1105838
0.024997119 0.10103292 -0.11159649 0.020807583 -0.08307232 0.012362834 -0.0015562737 -0.11636962
-0.060469855 -0.044192515 -0.007755175 -0.111783616 -0.026329236 -0.045171663 -0.12967873 -0.07856313
-0.08405919 0.098583095 0.0119628385 -0.09110992 0.13072458 -0.046439536 -0.042887945 0.08343118
-0.0021876665 0.04588233 -0.055413343 -0.047068004 0.07358621 -0.041237857 -0.122458935 0.10073212
-0.15712728 -0.019305654 -0.08749758 -0.017773803 -0.2121758 -0.019146845 -0.028210526 0.0658931
0.063596174 -0.010416574 0.015603573 -0.038897302 -0.11131839 -0.096361876 -0.2017991 0.026963864
-0.03663056 -0.09778955 0.061063133 -0.21291588 0.097521596 -0.11538785 -0.055930313 -0.023505848
-0.059659366 0.10953722 -0.008540857 0.006173404 0.0063667595 -0.10037959 0.06025639 -0.09851822
-0.08915592 -0.00915521 -0.14879231 -0.0040522385 0.07403057 0.008507697 -0.027608842 0.114023685
-0.09602345 -0.005434333 0.10799642 0.038518805 0.02432736 -0.11628251 -0.16428073 -0.047133137
-0.10796817 0.0571214 0.07124414 0.049590778 0.009830191 -0.05088785 -0.09322932 0.041636012
-0.0050776354 -0.057403307 0.049980406 0.12047672 -0.018198868 -0.009462932 -0.005255093 -0.1173443
-0.08005803 0.038797062 -0.12558107 0.0065958523 0.026781607 0.08173416 -0.04182556 -0.03726827
-0.027012998 -0.040281747 -0.0053290087 0.001964443 0.10961659 -0.09892163 0.00020020813 0.08187962
-0.006417212 -0.05812503 0.021002216 0.10748659 -0.08521758 0.06863742 -0.060089752 -0.0066083106
-0.11245933 -0.10126697 0.07589619 0.0025768818 -0.008408416 0.03758793 0.10467992 0.005157555
-0.10905609 0.09411235 -0.08999974 -0.07164492 0.004605764 -0.06128434 0.10491483 0.08732295
0.102933206 0.0185062 0.07492555 -0.07902393 -0.12573996 0.11694936 0.095584184 0.09149476
-0.0055553312 0.021166196 0.09448244 -0.09687277 -0.06114665 0.04191635 0.10955523 -0.07777982
00000000: ef39 d13c 16f4 113d 4d3f f03d 3f4b 7e3d
00000010: 49c4 c23a 52a2 75bd 7340 a83b 87e4 d13d
00000020: d49e bfbd bae2 b33d f4f7 2d3d 24a5 d1bd
00000030: 3ca6 dabc 7f51 9fbd fec2 d7bd 8baa 9c3d
00000040: 0aff 72bd 2bb4 213d a683 d33d a862 bfbd
00000050: 698b 2b3c 253b fdbd b2da 30bd 92a9 a93d
00000060: 944f c8bd 843c 023d 3929 ee3d c70c 8c3d
00000070: 5085 9bbd 36dc c8bd 1dbc 1bbd 50de 4a3d
00000080: a9dd 343d ea2d d9bc f733 a33d f3b6 873d
00000090: 61a1 9b3d c1e7 163c c5d1 df3d c279 e2bd
000000a0: c2c6 cc3c 59ea ce3d b38c e4bd aa74 aa3c
000000b0: d221 aabd 7c8d 4a3c e1fb cbba 3253 eebd
000000c0: 3daf 77bd 3603 35bd 1f1f febb cfee e4bd
000000d0: 69b0 d7bc ec05 39bd 80ca 04be b5e5 a0bd
000000e0: 3927 acbd efe5 c93d c8ff 433c d697 babd
000000f0: aadc 053e 6237 3ebd 45ab 2fbd f7dd aa3d
00000100: f45e 0fbb 1cef 3b3d 1af9 62bd 61ca 40bd
00000110: 5eb4 963d 07e9 28bd c0cb fabd a44c ce3d
00000120: f9e5 20be e426 9ebc ee31 b3bd 5e9a 91bc
00000130: 9d44 59be d8d9 9cbc c319 e7bc f6f2 863d
00000140: b63e 823d 47aa 2abc 21a6 7f3c c752 1fbd
00000150: e5fa e3bd 6059 c5bd 6ca4 4ebe 52e3 dc3c
00000160: ed09 16bd e345 c8bd 561d 7a3d 9f06 5abe
00000170: 67b9 c73d 7750 ecbd 2f17 65bd 568f c0bc
00000180: 615d 74bd 0d55 e03d f3ee 0bbc 444a ca3b
00000190: 40a0 d03b d193 cdbd 68cf 763d ecc3 c9bd
000001a0: 6197 b6bd bcff 15bc 035d 18be a4c8 84bb
000001b0: 579d 973d de63 0b3c f02b e2bc 4085 e93d
000001c0: f1a7 c4bd 7d12 b2bb 3a2d dd3d e5c5 1d3d
000001d0: 2c4a c73c 8625 eebd 3539 28be ad0e 41bd
000001e0: 6a1e ddbd 21f8 693d 73e8 913d b31f 4b3d
000001f0: cf0e 213c c76f 50bd 04ef bebd 868a 2a3d
00000200: 4b62 a6bb bb1f 6bbd 41b8 4c3d 80bc f63d
00000210: cb15 95bc 6a0a 1bbc ea32 acbb 3552 f0bd
00000220: 77f5 a3bd abe9 1e3d 5398 00be 0522 d83b
00000230: 1a65 db3c 3d64 a73d 4751 2bbd 9da6 18bd
00000240: 5d4a ddbc 79fe 24bd f79e aebb e2bd 003b
00000250: aa7e e03d 6c97 cabd f6ee 5139 81b0 a73d
00000260: 7a47 d2bb 8314 6ebd d70c ac3c ee21 dc3d
00000270: 8e86 aebd c791 8c3d ac20 76bd 878a d8bb
00000280: 1451 e6bd 0f65 cfbd 766f 9b3d e7e0 283b
00000290: 74c3 09bc cdf5 193d 6d62 d63d b500 a93b
000002a0: cd58 dfbd fabd c03d c951 b8bd 92ba 92bd
000002b0: f3eb 963b 4a05 7bbd 96dd d63d 60d6 b23d
000002c0: a5ce d23d 509a 973c 9172 993d 4cd7 a1bd
000002d0: fac1 00be 2583 ef3d a4c1 c33d 9b61 bb3d
000002e0: 7f09 b6bb bb64 ad3c 0280 c13d 3b65 c6bd
000002f0: e974 7abd 7bb0 2b3d 7e5e e03d 074b 9fbd

decoder.attn.v f4 [64]
0.009524454 0.09494349 -0.05735913 -0.115660235 -0.024542121 0.10942009 -0.06272696 -0.05481583
0.087287076 -0.029935315 0.062245663 -0.09423879 -0.07551568 0.08205123 -0.11069459 -0.017564187
-0.017213965 -0.13102159 0.033827126 -0.07624802 0.06807981 -0.092195585 0.01788052 0.075636454
-0.07157384 -0.07868472 0.10423778 -0.06444946 -0.11335194 0.027859757 -0.011911339 0.026904145
-0.119787894 0.0068313424 -0.043051913 0.060613375 0.08584036 -0.12150205 0.040629074 0.114681564
0.0608605 -0.07443515 0.062047474 -0.008228962 -0.09792701 -0.049346417 0.09997972 0.045987204
0.13958618 0.12369329 -0.10070036 0.12828723 0.048615027 0.04196004 -0.08722936 0.008723745
-0.11667018 -0.013566872 -0.1088265 -0.009759881 0.022299098 -0.11098335 -0.061445378 0.09599763
00000000: 750c 1c3c bc71 c23d 68f1 6abd 46df ecbd
00000010: 8f0c c9bc a417 e03d fe76 80bd 9086 60bd
00000020: 91c3 b23d e83a f5bc 4ff5 7e3d 4400 c1bd
00000030: f7a7 9abd 7a0a a83d d8b3 e2bd c5e2 8fbc
00000040: 4d04 8dbc 862a 06be 508e 0a3d ec27 9cbd
00000050: 6d6d 8b3d 0ad1 bcbd 2b7a 923c 49e7 9a3d
00000060: 4e95 92bd 7425 a1bd 9e7a d53d 14fe 83bd
00000070: 1025 e8bd 253a e43c c727 43bc 1566 dc3c
00000080: 5b53 f5bd 74d9 df3b 3457 30bd bb45 783d
00000090: 12cd af3d 11d6 f8bd ac6a 263d 2bde ea3d
000000a0: dc48 793d 7571 98bd 7e25 7e3d c5d2 06bc
000000b0: f58d c8bd 781f 4abd 2bc2 cc3d 145d 3c3d
000000c0: aeef 0e3e e852 fd3d fe3b cebd ba5d 033e
000000d0: 8d20 473d 4ade 2b3d 4fa5 b2bd 0aee 0e3c
000000e0: c6f0 eebd 9647 5ebc 6ee0 debd e8e7 1fbc
000000f0: 99ac b63c 3d4b e3bd 26ae 7bbd 689a c43d
