checkpoints/models/single_stock_daily/81to8/000001/model25.pth (torch, 542438 bytes, 20 tensors)

encoder.rnn.weight_ih_l0 f4 [192, 6]
00000000: 3dcb 59bd 5227 793c d05d ae3d 33f2 c3bd
00000010: e648 34bd 65da 48bd 4e55 80bd f258 7abb
00000020: 1048 a83d 310b b53c df5b f2bd d3ac d83d
00000030: 3c07 d43d 6ac7 363d 181e 8a3d 5bfb 573d
00000040: 813e dd3d 6998 b9bd 3ad5 dabd c135 6bbd
00000050: 2c35 93bd 4054 02be fd68 28be 255b 18bd
00000060: fa33 9dbc 9172 b33d 7936 443d 9c51 143c
00000070: c21d d5bd 814d 45bd eccf 04bc 6e96 e2bd
00000080: 7c93 453c 2735 143d 266a fe3d 2f27 7bbe
00000090: 01ff fc3d 629e 373d 2b67 dabc 961b 2a3e
000000a0: 56c5 203e e510 e7bd 7103 adbd 3caa 653d
000000b0: 393d a7bd 3bbf a63d 24d5 82bd 24bc d43d
000000c0: 8e47 48bd 9e6b ff3d 4f1a 0cbd 58fa 90bc
000000d0: f0dd a83d 6113 d5bd 30c6 8dbc 0c06 ecbd
000000e0: 1403 07be c0b4 3dbd 1eb4 64bb 5bb0 5d3d
000000f0: 8be4 ffbd 0f29 13bd 0876 013d 9c61 3e3d
00000100: de26 943d a757 c9bd fcf0 38bd da12 e63c
00000110: a304 c1bd 391c 863d 7742 eebd 5164 653d
00000120: 89b0 953d e006 a63c 211b fb3d c830 333e
00000130: d81d 253e d215 e33c 1974 8abd 3726 0b3d
00000140: 1561 b23d 47da 8f3c 0cd8 a03d 70a7 5cbd
00000150: 9a32 a23d 9351 5b3b 48a5 bdbd c38c 98bc
00000160: a6ff fe3d b932 5ebd cc34 f6bb 57c5 2abc
00000170: fff3 30bc ffcf 8b3d d3ba fe3d 61f5 4ebe
00000180: 3e7a 4dbc 1670 8f3b 67b5 c4bd 8145 8cbd
00000190: b027 703b ae92 d6bd 8958 433d 2023 feba
000001a0: c8c4 e5bc 8e8c 04bd e7a9 a33d c3e5 5c3e
000001b0: 55f6 833d 8cec 843d f5ff 69bd ee59 5d3d
000001c0: b952 a6bd 5c72 813d 8640 bcbd 2844 8bbc
000001d0: e3fd 8d3d 9532 833d 504e bb3d 17c5 273d
000001e0: db3e 103d aaa7 d53c 4dcd aa3d 97d4 6c3d
000001f0: f688 f03c 72ea 6dbd d21b 50bd 5cc1 fb3b
00000200: 77f1 d93d c329 d7bc cae0 9d3d d3f9 af3d
00000210: 81bc e53d 1a7b b9bd 147b 1b3d f10c ab3d
00000220: ad9d e4bd c4ac b93d ed1c aebd b9a5 96bd
00000230: e7c7 d4bc 0368 cbbc 5d18 f3bc 96ec 7e3c
00000240: f690 383d 50d4 333d 5b21 a63d e682 acbd
00000250: 3529 fdbd a16a e2bd 2f21 93bd fe0f 2abd
00000260: 2c6a 9d3d c388 92bd 170b 94bd 0303 2b3d
00000270: 7331 8dbd f4ac 0a3d 24fa b1bd 9d18 663d
00000280: 492b b33d 1c8a f7bd ba08 fe3c e00d 93bd
00000290: 06f7 973d c16d db3d 5d43 e5bd dc7d 7b3d
000002a0: ab36 9f3d f50b ab3d f79a 753d a16a 02bc
000002b0: 47b3 cdbc df5c 34bd e811 9bbd 1fac 51bd
000002c0: d1b0 4dbd 1f94 f0bd 9fd3 34bd a311 b2bd
000002d0: 10b8 4fbd 6b89 2abd 7b92 04be f35e ec3d
000002e0: cace 6a3d 7420 db3d 27a0 cebd 64b0 b5bd
000002f0: b7eb 193e 0560 c03c 628b 863d 204f aabc
00000300: 4091 ca39 12ca ddbb 30c1 893d 0f9a c23d
00000310: cb2c 27bd 4571 bebd 0a4d 80bd 387b a83d
00000320: 12b7 1ebb 4c43 c63d 21bd 5ebd ab33 b3bd
00000330: 83e0 0b3d 2eeb 37bd eedb 86bd 4174 b13d
00000340: c887 8d3c 7ad3 803c d527 fa3d d7a2 ae3d
00000350: f3ef 03be 98b0 0ebe 5294 b3bd 1d22 0cbd
00000360: 5c18 90bd 83e9 a63d 293a b4bd bd2c e33d
00000370: d6fa 0e3d bc9d 043b cbc2 5f3c d603 fb3b
00000380: a2ad aa3c 0550 f7bd 7c50 adbc 705f 5d3d
00000390: c8c9 0e3e 73c7 8ebb 7c3c b6bd b163 743d
000003a0: f6bd e8bd 4ae9 493e 749f 6e3d 9db9 b03c
000003b0: 26f2 f2bc 1119 4d3d a3fb bbbd 4f85 18be
000003c0: 3fa5 8dbd 3cc9 e93d f4b0 e7bc ef1e 94bd
000003d0: 309d 633d e3cc d1bd a745 fdbc fd91 b0bd
000003e0: d69f b73c 2001 ccbc 6544 363c 3746 d43d
000003f0: d5db 7abd e99b 873c b642 d23b 6f35 373e
-0.05317234 0.015207129 0.08513987 -0.0956768 -0.044014834 -0.049036402 -0.062662706 -0.0038199988
0.0821687 0.022100063 -0.11833929 0.105798386 0.10352942 0.04462377 0.06744021 0.052729946
0.10802937 -0.09062273 -0.10685201 -0.05742431 -0.07187876 -0.12727451 -0.164463 -0.037196297
-0.019189823 0.08762086 0.04790351 0.00905266 -0.104060665 -0.048169617 -0.008106213 -0.110638484
0.012059089 0.036183503 0.1242259 -0.24526666 0.12353326 0.04482878 -0.026660522 0.16612086
0.15700278 -0.11282519 -0.08447922 0.05607055 -0.08165974 0.08141943 -0.063883096 0.103874475
-0.048896365 0.12471698 -0.034204777 -0.017697498 0.08245456 -0.10404087 -0.017306417 -0.11524591
-0.13184768 -0.046314955 -0.0034897397 0.054123264 -0.12494763 -0.03592783 0.031606704 0.046479806
0.07233976 -0.098311715 -0.045151696 0.028085161 -0.094247125 0.06548352 -0.11633771 0.056003872
0.07309062 0.02026695 0.12261034 0.17499077 0.16124666 0.027720366 -0.06760425 0.03397199
0.08709923 0.017560137 0.07853708 -0.05387062 0.07919808 0.003346537 -0.092600405 -0.018621808
0.12451105 -0.05424759 -0.007513618 -0.010423026 -0.010800361 0.068267815 0.12437978 -0.20210792
-0.012541352 0.0043773754 -0.09604912 -0.06849194 0.003664475 -0.10477196 0.047691856 -0.001938913
-0.028047934 -0.032360606 0.07991391 0.21572022 0.064434685 0.0649043 -0.057128865 0.05404084
-0.08121247 0.063206404 -0.09191994 -0.017000273 0.06933191 0.06406132 0.09145796 0.040959444
0.035216194 0.026080925 0.08339939 0.05781993 0.029362183 -0.058084913 -0.05080778 0.0076829623
0.10641759 -0.02626503 0.07708891 0.08592572 0.11217595 -0.09056683 0.037959173 0.08352078
-0.11162887 0.090661556 -0.08501611 -0.07355828 -0.025974227 -0.02482987 -0.029674703 0.015559336
0.04506012 0.04390365 0.08111831 -0.084234044 -0.12361375 -0.11055494 -0.07184064 -0.041519158
0.07686266 -0.071549915 -0.07228678 0.04175092 -0.06894197 0.033856347 -0.08690289 0.056175817
0.0874849 -0.12086889 0.03101002 -0.07180381 0.07420163 0.10714293 -0.11194489 0.061399326
0.07774099 0.0835189 0.05996224 -0.007959993 -0.0251099 -0.04403388 -0.07571775 -0.051189538
-0.050217453 -0.11747002 -0.04414713 -0.0869477 -0.050712645 -0.04163496 -0.12946503 0.115415476
0.057326116 0.10699549 -0.100891404 -0.088715345 0.15031324 0.023483286 0.06569554 -0.020789683
0.00038636662 -0.0067684734 0.06726301 0.095020406 -0.040814202 -0.09298948 -0.06264694 0.08226627
-0.0024218005 0.096808046 -0.054379586 -0.08750089 0.034149658 -0.04490202 -0.06584917 0.08664752
0.01727666 0.01572584 0.122146286 0.08527153 -0.12884502 -0.13934553 -0.08768524 -0.03421222
-0.07035896 0.081500076 -0.08800156 0.110925175 0.034907185 0.0020235619 0.013657282 0.0076603694
0.020834748 -0.120758094 -0.021156542 0.054046094 0.13944161 -0.0043572723 -0.08898255 0.059665386
-0.11364357 0.19717899 0.058257535 0.021572882 -0.029656481 0.050072733 -0.09178855 -0.14894603
-0.06916284 0.114153355 -0.02828262 -0.072324626 0.055569828 -0.10244157 -0.030917002 -0.08621595
0.022415083 -0.02490288 0.011124705 0.10364955 -0.061244804 0.016553836 0.006416644 0.17891477

encoder.rnn.weight_hh_l0 f4 [192, 64]
00000000: 2e17 463d 14d3 12bd 75d5 ccbd 489f 00bd
00000010: 1f96 cebd 526d 16be e54a 063d 5cac 7bbd
00000020: edf5 d6bd 3cc9 d03d 8729 ac3d faff ec3d
00000030: 3802 c23c b117 953b 3bb7 6b3d 1054 a5bd
00000040: 17bf 7fbc 3530 053e 288e aa3d b743 853c
00000050: 9a4f 05bc 82f7 053d 3f13 0b3d a753 23bd
00000060: 065b 813d 75a1 f03d 7a9a 03bd ddb1 bd3d
00000070: 6ed8 ebbc 8fc8 343d 6d71 ba3d 5667 c1bd
00000080: 936c a53d b942 303a b4df 9cbd 8d6d 11bd
00000090: 072b f53d 5944 bc3d b5b6 6bbd bf20 833d
000000a0: 5c5b 973d ea2f cb3d a26e ab3d 18bb 0bbd
000000b0: e3dc ab3d b32a 93bc 8bb7 d73b 22ef 7b3c
000000c0: f016 3fbb 6933 cb3b d3bf 0bbe e206 b53c
000000d0: 3890 ca3d 6e42 373d fe7d ecbd 344e f13b
000000e0: 5ecb 0b3b 4918 bd3b 41ab dabd b364 ea3c
000000f0: ac56 bfbd 1ea2 8b3c f574 993d 2bf3 d33d
00000100: b361 56bc b33b df3d 43ad 89bc 57c9 6abd
00000110: 8442 753d 4a6f 15bc b339 cfbd 071c 893d
00000120: 3cd2 ea3d ca63 b53d 8421 51bc 5d5e e0bd
00000130: 02c0 ff3d 06ed 7ebd 9989 8c3c aaf1 bfbd
00000140: 8acf a53d 64d4 353d 049a 003e 1c82 5a3d
00000150: 4621 e2bd b37c d63d da43 dcbd ddb6 95bd
00000160: 3a28 8b3d 7629 90bd 4fbf 4e3d 4b2a d33a
00000170: ebaf 913c dee7 8cbd 4829 a03d 02a6 b03a
00000180: 6740 6b3d 4874 a03c b175 62bd a130 81bd
00000190: 01cf a13d c1c5 e8bd 8b83 4abd 6245 02be
000001a0: 7e7b 73bd a43e bc3c 15b2 52bd 6979 073d
000001b0: 1780 c93d 7353 0b3d 0857 fe3d fa70 72bb
000001c0: fdb0 023e fe89 743c 7c7c 3cba 53b9 ea3c
000001d0: 3e5a c1bd 263d ea3d fcf5 d93d db02 f7bd
000001e0: 151c 40bd 623d b13d 3f8c 2b3d 15d6 11bd
000001f0: 1a45 5cbd 48f5 17bd 8288 8fbc 620b ea3d
00000200: 9fb3 9ebd c020 773b 0286 1f3d 9562 7cbd
00000210: 5962 4dbc b893 d1bc 5c0e d53d 339d c13d
00000220: eacc 40bb 4adb c9bd 19b3 87bd 05b2 3fbd
00000230: f5ad e33d bc79 df3d 21f2 873c bed7 bbbd
00000240: bfbe 313d 0ba3 f0bc d781 8c3d 840f 973d
00000250: 4647 d53d 2b67 1e3c 4aaa 403c 54a6 9abb
00000260: 523b ca3d 04e4 c53d 4f28 1b3d 7e79 a7bc
00000270: 0a98 1abd 092a f73d 5700 88bd 36d7 803c
00000280: 8508 203d 35b7 963d 1337 9bbd 2d0c ae3a
00000290: 3a05 01bc 0dcb 88bc 6ec3 debd c140 5a3d
000002a0: df49 c6bd c54c 0ebd cf8d b83c 7a17 d63d
000002b0: c2b3 bfbc e0c7 8ebd eed6 3fbd 7041 b23b
000002c0: 2c0f 95bd 5e3f f63c aeaa 763d ba83 f43d
000002d0: c259 d23d 97fb 42bd a034 633d a7e0 8cbb
000002e0: 636a 8a3d beae 7bbd 014f e83d 5313 c13a
000002f0: eb68 903d c297 c33d ceb7 f3bc fecd cf3d
00000300: cc80 053c 8f08 80bc 2d78 2cbd deeb 03be
00000310: 9a66 223c 560c 823d 38fb 783d ce15 a2bd
00000320: 4eda d7bd e47a ab3b 0854 2c3b b3d7 f4bc
00000330: f10c dbbd 70ee a13c ebeb 07bd 453a 07bb
00000340: 0d45 9f3d 8dae 53bd 2f8e 78bd 544f 983d
00000350: 46ba 0a3e f130 50bd 5375 913d bddd aebd
00000360: 2e85 1e3e c957 4bbd 6cb5 08be d140 7dbd
00000370: aec0 0d3e 756c 9bbc 9f0e 98bd eafd 123d
00000380: a1c1 013e 14fa fe3d bbfc b3bc 7937 01bd
00000390: 3a20 1fbe f34d 02be 2ef2 0dbe 5695 b4bc
000003a0: f691 a8bd d727 213d 7c90 a43d 5d48 853d
000003b0: 323e 40bd e80f 24bd 408a 01bd 5dae 03be
000003c0: 40c7 1c3d 0652 16be f37e 573d 41e5 6ebd
000003d0: 3c2c 59bd f1f5 a8bd 2b15 623c 6d10 dcbb
000003e0: fa74 22be a341 e83d 7485 dfbc 813c 223d
000003f0: 18c5 8e3d cb5c f23c 1a59 ecbd 7f65 953d
0.04836195 -0.03584583 -0.10001651 -0.031401902 -0.10087227 -0.1469014 0.03278627 -0.06144367
-0.10496125 0.101946324 0.08406358 0.11572261 0.023682699 0.0045499434 0.05754779 -0.08072674
-0.015609524 0.13006671 0.083278954 0.01626764 -0.008136654 0.032706745 0.0339539 -0.0398747
0.063161895 0.117495455 -0.032129742 0.0926244 -0.028789725 0.04413658 0.091036655 -0.09443538
0.080773495 0.00067238096 -0.076598555 -0.035504866 0.119710974 0.09192724 -0.05754729 0.0640273
0.07390472 0.09921248 0.08370711 -0.034113973 0.0839174 -0.017964697 0.0065831593 0.015376838
-0.002915796 0.006201197 -0.13647394 0.022098009 0.09890789 0.044741087 -0.115474686 0.007364059
0.0021330933 0.0057707173 -0.10677195 0.02861247 -0.09342703 0.017045077 0.07493011 0.10349115
-0.013084817 0.109000586 -0.01680625 -0.05732092 0.059877887 -0.009120772 -0.10118427 0.06694799
0.1146588 0.08856924 -0.012764338 -0.10955498 0.124877945 -0.062237762 0.017155455 -0.09372266
0.080962256 0.044392005 0.12558752 0.05334674 -0.11041503 0.10473003 -0.10755129 -0.07310269
0.06794782 -0.07039158 0.050475415 0.0016110627 0.01778408 -0.06880163 0.07820374 0.0013477209
0.057434466 0.019586697 -0.05528802 -0.06308103 0.07900811 -0.113658436 -0.049441855 -0.1272178
-0.059443943 0.022979088 -0.051439364 0.03307477 0.09838884 0.03401513 0.12418944 -0.0036993609
0.12762828 0.014925478 -0.00071901805 0.028652823 -0.094410405 0.114374444 0.10642621 -0.120610915
-0.04690178 0.08654286 0.041881796 -0.035604555 -0.053776838 -0.037099153 -0.017521147 0.11427952
-0.07749104 0.003770873 0.03894616 -0.061617453 -0.012535655 -0.025583133 0.104031295 0.094538115
-0.0029419013 -0.09856279 -0.06625957 -0.046800632 0.11117164 0.10911891 0.016594948 -0.09172009
0.0433948 -0.02937462 0.068607025 0.07376006 0.10413985 0.009668152 0.01175935 -0.004719535
0.09874596 0.09662631 0.03788024 -0.020443674 -0.037742652 0.120685644 -0.0664069 0.01572762
0.039070625 0.07359163 -0.07578864 0.0013278775 -0.007874781 -0.016698385 -0.10877119 0.05328441
-0.096820585 -0.034741182 0.022528557 0.104536965 -0.023401145 -0.06971717 -0.046835832 0.0054399297
-0.072782844 0.030059513 0.060221367 0.11939187 0.10271026 -0.047603216 0.05547011 -0.0042992416
0.06758573 -0.061445944 0.11343194 0.001473049 0.070512615 0.0955043 -0.02975073 0.10146712
0.008148383 -0.015629081 -0.042106796 -0.12882945 0.009912157 0.06350009 0.060786456 -0.07914315
-0.10539685 0.0052331556 0.0026295204 -0.02988801 -0.10695828 0.019767016 -0.033183973 -0.0020634097
0.07776842 -0.051680136 -0.06068247 0.07437006 0.1354762 -0.050827924 0.07102456 -0.08538387
0.15480492 -0.049644265 -0.13350457 -0.061829392 0.13843033 -0.018972615 -0.07424664 0.035886683
0.1267152 0.12450042 -0.021971097 -0.031547043 -0.15539637 -0.12725048 -0.13861915 -0.022043865
-0.08230965 0.039344635 0.08035371 0.06507943 -0.046934314 -0.040054232 -0.031625986 -0.12859483
0.038275957 -0.14679727 0.052611303 -0.058324102 -0.0530207 -0.082500346 0.013798992 -0.0067158253
-0.15864936 0.11340644 -0.027285315 0.039608482 0.069711864 0.029585263 -0.11540432 0.072947495

encoder.rnn.bias_ih_l0 f4 [192]
00000000: 9265 56bd 19f4 8b3a 721f 3bbd 61bb 08be
00000010: 22dc 813b 4932 92bd 3358 96bd 4ba5 f0bd
00000020: d21d 49bd 32e3 7fbb 3494 d5bd 5d4f 0b3c
00000030: 0198 b1bc e946 693d cdbe 263d 6b66 a0bc
00000040: c23a febd 35c2 32bd a203 d0bd 6098 013c
00000050: 021a 06be a182 cebd 5058 a43d df2c 85bd
00000060: 938e e33c c85b d23d 4121 afbd 80ee f6bd
00000070: 2867 d6bd adf4 7c3d b3b4 dd3d 2771 893c
00000080: d6e4 c6bd 9a22 80bd 3481 65bd 7902 fcbd
00000090: ce2c 403d 8022 ab3d b010 ec3d 7307 06be
000000a0: dff0 303d 440a 3cbd b5af f8bd 7fc9 ad3d
000000b0: 914a 8e3d cfdb 23bc 1236 8d3c 1671 cabd
000000c0: 94c4 8b3d 36f9 4cbd 4b79 58bc d663 be3d
000000d0: 9337 c1bd c7a8 013e 7e33 8f3d f056 9fbd
000000e0: d731 b0bd d96d ebbd 7230 bc3d e3e9 1eb9
000000f0: 5fd4 b2bc 7417 ae3d 1738 c3bc 882d 4e3d
00000100: 18c3 e73b 5ae6 7bbc c56b 84bd c876 aabe
00000110: a056 80be 1ad0 90bd 2b28 a0bd b032 b13e
00000120: 3482 1f3d a9f5 16be 54e0 c4bd 68e9 80be
00000130: 8ce5 62be a79d 3ebe 6d72 90be b094 ffbe
00000140: b781 b9bb 7f07 21be c33e c5bd 5d63 41bd
00000150: da8c af3b 34d3 5b3e d2c2 a33d d4c5 85be
00000160: 4cce 25bd 5499 a9bd 13bb 3a3c 689a 303e
00000170: 3192 083e c317 b0be dbcb e83d 0178 efbe
00000180: de50 95bd bb28 28be 6d11 353c 6fc5 5f3d
00000190: d88f 57bd cbe5 493e b84c e0bd 59fb 31be
000001a0: f66a 91bd 2c26 cdbc b8f6 e7be b555 a7bc
000001b0: 1e1a 9e3d d420 e33c 245b b03c 85a4 8dbd
000001c0: f9e1 f63c e5d1 d4bd 72c9 993e f53c f63d
000001d0: 2ee3 eebc 3fbb a5bd d890 b9bd e1df c5be
000001e0: 12dc f9bd 4678 52be f0d8 07be 36c1 763d
000001f0: 4ea2 78bd 31a1 343d 09d0 4abc 914b 5ebe
00000200: 7157 6fbd fc2c a83b 9c14 153d f5fe 7cbd
00000210: 53ad 7cbd 5921 6e3c 2574 7ebd 01a4 063e
00000220: 2445 b73c a0e5 3dbd 39c7 0b3d 41fd 58bd
00000230: 57d3 62bc 5f7f e23c acf5 5f3d f535 623c
00000240: 8284 c83b 6f12 4bbd 9f89 e7bd b36d bb3d
00000250: d641 75bc 87a6 e1bd 887f ac3d 5e80 c73d
00000260: 56ec d7bc 46ac 803a d6c6 9fbd a4be a63d
00000270: 83f2 d8bd 4587 aa3d 09f3 153d 08e1 e83d
00000280: a373 86bd 5e38 a0bc 30b7 323b c54e 693d
00000290: 3240 fd3c 0966 8b3c 0dd1 e63d b9bd ee3c
000002a0: 5fda 8ebd c6ce 7bbd 8c79 a23d e6c7 e33d
000002b0: 942d d7bd 5c3e d9bd bec0 c8bd fb33 be3d
000002c0: 3a54 94bd a046 823d a454 16bd 9bbd 8b3d
000002d0: 5e7b a23b 2e50 22bd 0059 c23d 1e7e f63d
000002e0: 2b23 56bd 3527 b83d 1e2a adbd 4952 aebd
000002f0: 549c a73b 170d bf3d f241 223c fbee af3d
-0.05234296 0.0010677605 -0.045684285 -0.1335273 0.0039630095 -0.071384974 -0.073410414 -0.11750277
-0.049100704 -0.003904533 -0.10428658 0.008502808 -0.021678926 0.05695239 0.040709306 -0.019580087
-0.12413551 -0.04364224 -0.10156943 0.007909864 -0.13095859 -0.10083509 0.08024657 -0.06502699
0.027777946 0.10271412 -0.085512646 -0.12057209 -0.10468894 0.06175678 0.10825481 0.016777588
-0.09711616 -0.062566 -0.05603142 -0.12305159 0.04691773 0.0835619 0.115266204 -0.13088779
0.043198463 -0.045908228 -0.121428885 0.08485698 0.06947816 -0.010001137 0.017237697 -0.09884851
0.06824604 -0.050042354 -0.013212512 0.09296386 -0.09434428 0.1266204 0.06992243 -0.07780254
-0.08603256 -0.11495561 0.09188928 -0.00015155184 -0.021829782 0.08500567 -0.023830457 0.05033639
0.0070728175 -0.015374744 -0.06465868 -0.33293748 -0.2506609 -0.07070942 -0.078201614 0.34608984
0.03894253 -0.1474215 -0.096131 -0.25178075 -0.22157878 -0.18614827 -0.282123 -0.49918127
-0.005661215 -0.15725516 -0.096311115 -0.0472139 0.005357367 0.21467286 0.079961434 -0.26127493
-0.040479943 -0.08281198 0.011397141 0.17246401 0.13337018 -0.3439313 0.11367007 -0.46771243
-0.07290815 -0.16421787 0.011051518 0.054631647 -0.052627414 0.19716565 -0.10952133 -0.17381038
-0.07100479 -0.025042616 -0.4530542 -0.02042661 0.07719825 0.027725615 0.021527834 -0.06916145
0.030137049 -0.10391597 0.30036503 0.120233454 -0.029161062 -0.08092355 -0.0906083 -0.3864737
-0.12200178 -0.20553693 -0.13266349 0.060242854 -0.06070166 0.044099037 -0.012378701 -0.21708514
-0.058433 0.0051323157 0.036396608 -0.061766583 -0.061688732 0.014534318 -0.062122483 0.131485
0.022371836 -0.046361566 0.03412554 -0.052975897 -0.013844333 0.027648626 0.05467765 0.01380681
0.006119312 -0.049578127 -0.11305546 0.09151783 -0.01496931 -0.11018091 0.08422762 0.09741281
-0.026357811 0.0009816966 -0.07801597 0.081418306 -0.105931304 0.08326582 0.03660873 0.11371046
-0.06565025 -0.019558128 0.0027269833 0.056959886 0.0309144 0.017016428 0.11270342 0.029143201
-0.06975245 -0.06147649 0.079333395 0.11122112 -0.1050674 -0.10607597 -0.09802388 0.09287258
-0.072426274 0.06361127 -0.036701813 0.06823274 0.004958554 -0.039627247 0.09489632 0.12035774
-0.052279633 0.08991853 -0.08455299 -0.085117884 0.0051150713 0.093286686 0.009903418 0.08590504

encoder.rnn.bias_hh_l0 f4 [192]
00000000: 37a2 943d 6dc1 8e3d 5387 3b3d 7ef2 1cbe
00000010: 9fdf cebd be97 04be 58b7 b23c 9ffb 063c
00000020: bc97 d03b 1a3b 09be 3520 e83c 6a7a b0bd
00000030: 160c d4bd 4be6 0a3d 27f7 94bc 9c1b b5bd
00000040: 481d 0cbb b738 1e3d 1103 f2bd 71dc edbb
00000050: c7b8 b33d 54ae da3d 343d 33bd 6d7d 48bd
00000060: 44d4 8ebd 64c9 c6bd b64c 44bd f546 983d
00000070: c7b0 a33d 5cad 19bd 1010 2b3c 9d7d aebd
00000080: 357c c4bc bd28 b03d 0e88 973d 7aa7 c8bc
00000090: b5e1 d1bd fc58 68bc 342e 4cbd 9a5e 503c
000000a0: 02d5 e23d f6db 9bbc 9107 dcbc 0a2d 2cbc
000000b0: 5d72 0cbb 6a36 d73c a488 033c 1bac 07be
000000c0: 473a dc3d 4175 abbd 1407 e03d 064b 9cbc
000000d0: 32f0 e0bc eb68 8d3d c363 44bd 1e4f 3639
000000e0: ddc4 46bd bda2 c4bd 8809 c03d ffd7 b13d
000000f0: 7500 593d 5bcf e53d 5145 833d 6d3d dd3d
00000100: 99e7 34bd e5f0 b53d 8e2d 0e3d 2da5 7fbe
00000110: 9ae1 32bd 57f3 87be a4d7 48be 4b3c 2a3e
00000120: a875 d03d cc4b 09be b135 bc3c 6a56 22bd
00000130: 487c ddbd fcff 18be 2687 7abe 8393 aabe
00000140: 8262 ff3c da46 13be 05d5 d2bd aa57 09bd
00000150: 9e7a c43d 4cd6 f43d 00a4 fc3c a5c1 56be
00000160: eff3 413d 7c59 20be ded3 353e 96a5 fc3b
00000170: fb06 9e3d 9975 28be cb63 983b 1b6c 03bf
00000180: bb84 103d 29be 68bc 05ac 2fbd 781e 7e3e
00000190: 40f2 953d e6d7 513e e0f6 893d 0ff3 aabe
000001a0: 144d 23bd 7295 2bbe 2366 cbbe 4496 cc3d
000001b0: ee2c ac3d 1ed5 1cbe d264 ae3d 0497 fc3d
000001c0: 1276 923c 5b75 9cbd 8b77 c03d ebd7 8cbc
000001d0: d2d7 923d c385 52bc 2033 13bc c10b eabe
000001e0: 472b 12be 9d92 77be cfc7 bfbd 1a9f 003d
000001f0: 2f37 223c 8748 96bd 9616 8bbd cac4 64be
00000200: 0b9d b9bd 3855 e23d 9aef 323d 8e6b 743d
00000210: daa8 703d c1cd ad3d 8905 df3d baee 47bd
00000220: 5b8d cb3c d9ce 8f3d 66de f4bd 4973 943d
00000230: 1ab3 f9bd 6c23 b2bd 3559 8bbd 48a0 b9bd
00000240: f49d abbd dc40 9e3d 4704 e1bd 3369 7dbd
00000250: 34df d1bd 50cc 21bd 1033 06bc 0b39 233d
00000260: f72d 7abd dec0 a73c d545 8c3d ca82 d23d
00000270: 8c08 d4bc 46b9 c4bd 0208 913d 3ffd 1abd
00000280: ff81 f4bd 673a 6cbd 50f6 7fbc f406 1f3d
00000290: 3be9 be3d f884 8b3d 8999 86bd 6581 c83d
000002a0: 554f 4a3d 6cb6 fa3c 9d6b adbd 3421 d4bc
000002b0: 57ea 593d 19af 26bd 9db3 613d 464a 603d
000002c0: 05dd abbd 3f32 c23d 249f d03c 8bb0 75bc
000002d0: f86e 0c3a d429 1ebc 839a fdbb 0fd0 30bd
000002e0: 4842 8e3c 318b 07bd 35e6 f23d cacb 04bd
000002f0: ccce e4bd fbee e53d 2c35 9f3d fc50 c3bd
0.072575025 0.06970487 0.045783352 -0.15326878 -0.10101246 -0.1294851 0.02181594 0.008238702
0.0063657444 -0.13401452 0.02833567 -0.08617099 -0.10353868 0.03391103 -0.018184258 -0.08843157
-0.0021379758 0.038628306 -0.11816991 -0.0072589447 0.08775478 0.10677782 -0.04375954 -0.04894774
-0.0697408 -0.09706381 -0.04792472 0.07435409 0.07992702 -0.037518844 0.010440841 -0.085200526
-0.023985008 0.0860152 0.07398997 -0.024493922 -0.10248128 -0.014181372 -0.04984875 0.012717867
0.11075784 -0.019025784 -0.026859077 -0.010508785 -0.002143047 0.026271064 0.008028183 -0.13249247
0.10753303 -0.08371974 0.1093885 -0.019078743 -0.027458284 0.06904777 -0.047946703 0.00017386346
-0.048527587 -0.09601352 0.09376818 0.08683776 0.05297895 0.112211905 0.064097054 0.10802732
-0.04416618 0.088838376 0.034711413 -0.24965353 -0.04367218 -0.2655284 -0.1961351 0.16624562
0.10178691 -0.1340782 0.02297482 -0.039633192 -0.108147204 -0.149414 -0.24465618 -0.33315668
0.031174902 -0.14382496 -0.102945365 -0.03353087 0.095937 0.119549364 0.03083992 -0.20972307
0.047351774 -0.15659136 0.17756602 0.007710169 0.07716175 -0.1645111 0.004650568 -0.5133683
0.03528283 -0.014205494 -0.04288866 0.2481631 0.07321596 0.20492515 0.06736541 -0.33388564
-0.03986843 -0.16756228 -0.39726362 0.099895984 0.08407007 -0.15315673 0.08515324 0.123334914
0.017878566 -0.07639571 0.09397801 -0.017192801 0.07170071 -0.012849274 -0.008984357 -0.45712093
-0.14274321 -0.24177022 -0.09364282 0.03140173 0.009900852 -0.07338052 -0.06791417 -0.22340694
-0.09063157 0.110514104 0.043685533 0.059672885 0.05875478 0.0848651 0.108897276 -0.04881165
0.024847677 0.07021875 -0.11956482 0.072485514 -0.12192364 -0.086981624 -0.06804124 -0.09063774
-0.083797365 0.07727215 -0.10987144 -0.061867904 -0.10247651 -0.03950149 -0.008190885 0.039849322
-0.06107899 0.020477708 0.06849257 0.10278852 -0.025882982 -0.096056506 0.070816055 -0.03783917
-0.11938857 -0.057672884 -0.01562269 0.03882499 0.09321829 0.06812471 -0.06572253 0.09790305
0.049392063 0.030604564 -0.08467791 -0.025894739 0.053202 -0.04069433 0.055102933 0.054758333
-0.083917655 0.0948224 0.02546651 -0.014995704 0.0005357112 -0.009653527 -0.0077393665 -0.04316717
0.01736559 -0.033091728 0.11860315 -0.03242091 -0.11172256 0.112272225 0.077738136 -0.09536931

encoder.rnn.weight_ih_l1 f4 [192, 64]
00000000: 7046 d23d 6992 d7bd a464 8cbd b3de 1dbd
00000010: 5d70 a43c 70e0 523c b06b 55bd c989 83bd
00000020: e397 8fbd a082 fd3d 8645 723d 9312 2f3c
00000030: be69 d73c cef9 a83b f671 e7bc 45e4 60bd
00000040: bc77 ee3d 34a1 5fbc 87b9 94bd bee1 90bc
00000050: 2460 343d f95c d6bd 019f f83c c3cd 98bc
00000060: 5b71 69bd 2f64 843c c888 0b3d 6cb3 07be
00000070: d3b1 843d 9a37 433d ccd4 a3bd 7da2 f93c
00000080: 3e07 62bd 403e bb3d 1659 5fbd 1b33 8c3c
00000090: 0c33 243d dc0c 07bc 5f2c 90bd e7d1 163d
000000a0: f87a 5a3d 2a95 64bd db3c e8bc 98d0 3a3d
000000b0: 941d d3bd 0f1f be3c 07a5 cf3c 1248 ffbd
000000c0: 89f7 b53c e65d cdbd 6950 e4bd 5526 da3d
000000d0: d23a 863d d204 cb3d 9545 db3d 107b 8dbd
000000e0: ce68 cfbc df93 2dbc c5e9 6b3d 3010 a23c
000000f0: 6b57 5bbb 92bb f43d 84e2 66bd ad35 683d
00000100: 3fa2 7c3d e8d8 84bd a772 8b3d 1dd3 953d
00000110: 0bf4 4fbc 8c1f 9bbd e003 843d e55f cf3d
00000120: e9e9 1d3d 9766 51bc c81b 9c3d 1d81 d93c
00000130: a74f 66bd c409 b5bd a342 46bd eae8 e33c
00000140: 7be9 3dbd 47cf 153b a69d 65bd 0e3b c6bd
00000150: be92 c13d 183d 7ebd cc56 fe3c f476 e83d
00000160: 5a20 2d3d a580 7c3d 58de f7bd cd4f cfbd
00000170: 1c15 5bbd ba95 4bbd 3e99 9dbd 37ef 72bd
00000180: a0cc 673d 5695 ef3d c682 c13d 8475 873d
00000190: 2e06 efbd d2ec f4bc acdd 0e3d 8d63 fe3d
000001a0: 32fe a9bd dd36 ae3d 2d14 c53d 9d1b dcbc
000001b0: 4560 dbbd 15d3 873d 6c6c 9c3d 894e e1bd
000001c0: 90da d43d 5659 85bc ff84 96bd 76e7 8c3b
000001d0: 4b7a a73d 26c6 f4bb 2997 d8bd 5e4e 6fbd
000001e0: b543 a33c 0e50 733d 6949 a23d b9b3 473d
000001f0: 9502 7d3d c6ae 06bd cec3 5c3d aa1b c23c
00000200: c64e e43c d451 f03d fa5a 65bd cce0 f53d
00000210: 69b3 47bd 5095 a33d 7030 c6bc 6f4d 813d
00000220: f593 3abd fa7d 0c3d 9b6a e13d b2ff 68bc
00000230: 5d2e 76bb f1c4 66bd ed5d ba3d 03d7 793d
00000240: 144d d9bc cee4 e9bb bd78 ef3d ebf2 883d
00000250: ddb6 dc3d a3a0 81bd 1d08 56bd 13fc c0bd
00000260: 3164 c5bd c30a 86bc 5f54 5a3c 5af9 9cbd
00000270: 550c 02bd 8751 243c 47d1 f1bc fd3d d5bd
00000280: 36aa e83d 5eaa 37bd 11c4 ce3c 4c07 243d
00000290: 2b27 e9bd b430 67bc 8abf cabd 95dd ae3d
000002a0: ab53 1abd a0d6 b63d 578d 843b d574 78bd
000002b0: 1b01 543d 5dc6 c1bd 3437 3fbd 72a6 9fbc
000002c0: e936 013e d7ac dfbd 47d2 3f3d b1dd f73d
000002d0: d82a c6bc 8b1d 77bd 880b b4bd 4525 ccbc
000002e0: 2950 eb3d d341 afbd 8221 033e 4a3c bcbd
000002f0: 8de9 e13d 67d0 233a 4775 f1bc 41b7 d2bd
00000300: 51a8 90bd 533c 95bd e478 d6bd 03a8 70bc
00000310: 4001 a03d 554f fbbd 54dd e33d 2116 f13c
00000320: f752 a03d 4f31 873c 86c3 81bd ab4f 8d3d
00000330: f768 c53d 7012 563d fb74 3b3d 7bb4 163e
00000340: 84a9 4e3c c408 15bd 8a06 6e3d 795b 6cbd
00000350: 8bb6 ca3d a931 013c b933 883d f277 f83b
00000360: 4fa0 b73d 2bd4 a13d f6d4 a53d 3bd0 5fbd
00000370: 3b75 863c 8802 d03d 1e1d c03d feff 84bd
00000380: 4445 be3d 595f bbbd 9e7a ae3d 4b05 5cbd
00000390: 19af 9bbd 7ac5 f13d e2a6 133c d46b 89bd
000003a0: 00ff 8e3d c7c6 a13d 88c0 8abc ee46 a5bd
000003b0: c094 8dbd 6e9a 99bd 9cc7 033d aeac dabd
000003c0: be98 9abd bcc1 debd 19ed 75bc e0d4 fa3d
000003d0: bdd2 d13c 872d 4a3b e0e6 843d 2ed0 c0bd
000003e0: 0fa1 51bc 7fc4 a63d a972 e6bd 01b2 01be
000003f0: d5f8 57bd b8ba d6bd e5a8 e2bc 042a cb3d
0.10267341 -0.105259724 -0.06855133 -0.03854246 0.02007311 0.012870893 -0.052104652 -0.06422765
-0.07011392 0.1237843 0.059148334 0.010685581 0.026295539 0.005156732 -0.028252583 -0.054905195
0.11643931 -0.013649274 -0.07261949 -0.017685767 0.044037 -0.10466952 0.030349256 -0.018652802
-0.05699287 0.016161053 0.03406599 -0.13252038 0.0647923 0.047660448 -0.07999572 0.030472988
-0.055182688 0.091427326 -0.05452832 0.017114213 0.040087745 -0.008242812 -0.07039713 0.036821272
0.05333993 -0.055806316 -0.02834933 0.045609087 -0.10308376 0.02320817 0.025347246 -0.12464918
0.02221276 -0.10027675 -0.111481495 0.106518425 0.06554188 0.09913029 0.10706631 -0.06908238
-0.02531853 -0.010594337 0.057595987 0.01978311 -0.0033468853 0.11949839 -0.056368366 0.056691814
0.061678167 -0.06486684 0.068089776 0.07315657 -0.012692462 -0.075743765 0.064460516 0.10125712
0.038553152 -0.012780807 0.07622486 0.026550824 -0.056228306 -0.08839753 -0.048403393 0.027821023
-0.046365242 0.0022859143 -0.05605855 -0.096792325 0.09451817 -0.062069982 0.031047247 0.113508135
0.04226718 0.061646122 -0.121029556 -0.10122643 -0.05348693 -0.049703337 -0.07695244 -0.059310164
0.05659163 0.116984054 0.09448771 0.06614211 -0.116711006 -0.029898081 0.03487937 0.124213316
-0.08300437 0.08506558 0.09622989 -0.026868636 -0.10711721 0.066320576 0.07637867 -0.110013075
0.1039325 -0.01627795 -0.07349586 0.004300053 0.081776224 -0.00746991 -0.105757065 -0.058424346
0.019929746 0.059402518 0.07924158 0.04875538 0.06177004 -0.03288152 0.05389767 0.023694832
0.027869593 0.117343575 -0.055994965 0.12005767 -0.048755083 0.079874635 -0.024193019 0.063135974
-0.04555126 0.034299828 0.110066615 -0.014221119 -0.0037564256 -0.05634016 0.09099946 0.060996067
-0.026526012 -0.0071378713 0.11692951 0.06686958 0.10777066 -0.06329467 -0.05225383 -0.09423079
-0.096382506 -0.016362553 0.01332578 -0.076647475 -0.031750042 0.010029203 -0.029518737 -0.10412214
0.1136059 -0.04484021 0.025239976 0.04004602 -0.11384424 -0.014110733 -0.098998144 0.08538357
-0.03767745 0.08927655 0.0040451693 -0.060658295 0.051758867 -0.09461663 -0.046683505 -0.019488547
0.12618603 -0.109216385 0.046831395 0.12102831 -0.024190351 -0.06033091 -0.08791262 -0.024920115
0.11489899 -0.08557477 0.12805751 -0.09191187 0.110308744 0.0006249011 -0.029474868 -0.10288859
-0.07063354 -0.072868966 -0.10472277 -0.014688495 0.078127384 -0.12270991 0.11126199 0.029429497
0.07828324 0.016503004 -0.06336121 0.06899961 0.09639161 0.052263677 0.04576586 0.14717285
0.012613658 -0.036385313 0.058111705 -0.057704423 0.098980986 0.007885375 0.0665049 0.007582658
0.08966123 0.07901796 0.0809726 -0.054641943 0.016413322 0.10156733 0.09380554 -0.06494139
0.09290555 -0.091490455 0.08519481 -0.053715985 -0.076017566 0.11805244 0.009011956 -0.0671002
0.06982231 0.07899242 -0.01693751 -0.080701694 -0.069131374 -0.07500158 0.032172784 -0.10677467
-0.075486645 -0.10876796 -0.015010142 0.12247634 0.025613183 0.003084989 0.064893484 -0.09414707
-0.012794747 0.081429474 -0.112523384 -0.1266556 -0.05272754 -0.104848325 -0.027668426 0.09920123

encoder.rnn.weight_hh_l1 f4 [192, 64]
00000000: 09c1 ba3c e362 29bd 8b30 b4bd 4b0d afbd
00000010: 5afc 8cbd bef1 c13d 3d8f be3d 9c6f fc3d
00000020: b034 58bd 5622 0e3d cc16 a1bd 1bc3 19bd
00000030: a9a7 d13d 892b bcbd d47c d7bd 855b 95bb
00000040: 555e 993c 99b0 c73d 8c0b 2e3d d302 f53c
00000050: 9e0f 0c3e ab99 db3d 8c3b 60bd 0b45 e0bd
00000060: 4845 d8bd 48ac c83c f5be 173d d671 16bd
00000070: 3aa0 c73d d125 a63c 7d66 823c f302 c4bc
00000080: 3e67 a73d 9b11 133d 8a80 c4bd 5520 18bd
00000090: a89b 763d 6b0e 603d b282 19bd 69d8 ff3d
000000a0: f902 d93d 5262 5fbd 3e95 e23d 9d4c cb3d
000000b0: f7f3 a13d 472a 0dbd 4656 543d a49b 9dbd
000000c0: 6f41 993d 299a 073c 7666 763d f8d5 943d
000000d0: d544 3d3d 5483 0f3d 19d5 62bd 10d2 d0bd
000000e0: 860c d6bd ec7f bbbc 6496 ecbd a65f 16bd
000000f0: 6070 92ba 9751 04be ab5c e73d 1230 2a3c
00000100: ea70 a63d 5665 cabd fa35 953d 05b6 b0bd
00000110: 7fc2 f63c 056c f13d a07c c43d 0ea7 ddbd
00000120: e2d9 6cbd 0a9a 8abd ba38 5d3d 5907 b8bd
00000130: 0df1 ab3d f391 d6bd 6fbf 55bd ecca 743b
00000140: 4fd3 9abd 8690 81bc ffb8 d4bd 5eb9 bdbd
00000150: 0d85 16be e5e0 2e3d 2b6e 88bd ec0f 19bd
00000160: 87cb 503d 0fb8 7b3d fb41 8f3d aa97 523d
00000170: 844c f03d 20e8 febc a1cf c83d 6d6b 97bd
00000180: f9cf 0ebe 218d b139 336d 5ebd b190 bcbd
00000190: dfda 77bd 7025 efbc 7cac 173d 3b98 813b
000001a0: b3e1 cdbc b7ff d63d 3849 403d 162b 5cbd
000001b0: e407 c0bd 69c3 1e3c eb05 893d 95ac bd3d
000001c0: 0b8f 8d3d 3fe5 af3d 3321 f93a 7872 afbd
000001d0: 31a5 ab3d f355 a93c c63b 713d 6fe6 93bd
000001e0: 8d27 fcbd bf33 a23d 3059 3ebc 4002 48bd
000001f0: db7c 063e 7376 b23d ff08 b83d 70a2 bd3d
00000200: ca20 b2bd 5b32 ea3d 2bc5 8e3d 9650 d9bd
00000210: 1d3e 5dbb 921b 953d 8849 2a3d e8bf 8fbd
00000220: b75a abbd 13f1 b9bd c564 8c3d efff cfbd
00000230: be43 273c f561 92bd 6cb7 67bd 1085 d33d
00000240: 5c10 c7bd 30ac 093a 51d8 ad3d 8908 91bd
00000250: d64e 0dbd 9bc6 dbbc d50f f33d bb0e 213d
00000260: 6cd5 9a3d f6b3 8fbd 68d6 f6bd 02e2 a53d
00000270: fa18 a43d d240 a73d 39d9 423d 462d 1f3d
00000280: 876e 203d 0522 7bbd 2eea 20bd 0261 f03d
00000290: 6934 4d3c 19aa 493c fbb6 b9bd 072c e03d
000002a0: 5493 b0ba 1fe4 913c 05a0 1e3c 3f0e c13d
000002b0: 56cd df3d d306 fb3d bff2 a6bd 4f95 1fbd
000002c0: f811 4ebd 951b 823d 12a4 333d 756f fabd
000002d0: 5690 c5bd 81ed 19bd 6eb9 45bc cbf3 a33d
000002e0: be24 ad3c 9034 c13d c619 d0bd 81b1 e03d
000002f0: 8832 ee3d 2127 8a3d b824 723a 5cb9 eb3d
00000300: 3be9 1abc ca5d 46bc 2247 82bc 8f77 2d3d
00000310: 29dc 403d cd47 cc3d a4bc cb3d aecf 533d
00000320: c311 203d 6de4 1a3d 37b2 b03d e68a 19bd
00000330: febc ac3d 8f33 74bd cfa5 4cbd eeec 583d
00000340: a12f 95bd 6b0a 89bd 3704 293d d700 133c
00000350: 612c 9b3d 6bd3 acbd 79c9 a1bd 9fc3 a33c
00000360: b503 3f3d 6973 873c e3a6 b9bd c6d3 adbd
00000370: 5b77 223d c501 d73c 2ce5 9e3d 53aa 76bd
00000380: 8c7b c13d 8bf5 873b 0892 1d3d 61cd 92bd
00000390: fbe0 b3bc 5f92 00bd a34d bebd f06c 913d
000003a0: 6897 0a3d 7c27 bcbd f70d e93c 2617 04bd
000003b0: a37f f1bd 004b 833c 256c a8bc 30b6 a83d
000003c0: fbf6 82bc 2656 9bbd 35b9 18bd cb69 623d
000003d0: ed74 c6bd 683a 973c a6e3 b8bd 1b9a b9bd
000003e0: 4ef8 89bc 0a61 aa3d f11a 5fbd 5cd8 b3bd
000003f0: 1aba 64bd af5f a8bd 408b eabb dec3 cebd
0.022797124 -0.04135407 -0.08798321 -0.08547457 -0.0688407 0.09469937 0.09304664 0.12325975
-0.05278462 0.034700714 -0.07865676 -0.037539583 0.10237057 -0.09187991 -0.10521856 -0.004558029
0.018721739 0.0975048 0.04249148 0.029908573 0.13677832 0.10722669 -0.05474429 -0.10950669
-0.10560089 0.024496213 0.037047345 -0.036729656 0.09747358 0.020281704 0.01591801 -0.023927188
0.08173989 0.03590546 -0.095948294 -0.03714021 0.06020704 0.05470125 -0.037478156 0.12492449
0.1059627 -0.054537125 0.11063622 0.09926722 0.07907861 -0.034464147 0.05184009 -0.07695702
0.074831836 0.008276501 0.060156308 0.07267374 0.04620822 0.035037354 -0.055379007 -0.10196316
-0.104516074 -0.022888146 -0.11552122 -0.03671231 -0.0011172406 -0.12921749 0.11296972 0.010387437
0.081270054 -0.098826095 0.07285686 -0.086284675 0.03012204 0.11788181 0.09594083 -0.10822879
-0.057824977 -0.06767662 0.054009177 -0.089857765 0.08395586 -0.10477056 -0.05218452 0.0037352396
-0.07559835 -0.015815984 -0.10386848 -0.092638716 -0.14699192 0.042694945 -0.06661638 -0.0373687
0.05097535 0.06145483 0.06995007 0.05141417 0.11733344 -0.031116545 0.09805227 -0.07393537
-0.13946523 0.0003386522 -0.05430336 -0.09207285 -0.060511466 -0.029192656 0.03702973 0.003954915
-0.025132036 0.104979925 0.046944827 -0.053752027 -0.09376505 0.009690144 0.06690582 0.09261433
0.06912049 0.08588647 0.0019007087 -0.08566755 0.08381117 0.020670867 0.058894895 -0.07221686
-0.12312231 0.07920026 -0.011617944 -0.04883027 0.13133566 0.08713999 0.08986091 0.09259498
-0.0869766 0.11435386 0.069712006 -0.10611074 -0.0033758946 0.07280649 0.04157403 -0.07019025
-0.08366912 -0.090791844 0.06855158 -0.10156237 0.010209022 -0.0714759 -0.05657141 0.10328114
-0.09719917 0.0005251793 0.08488525 -0.07081706 -0.034499012 -0.0268281 0.11868254 0.03932069
0.07560238 -0.07016747 -0.120526135 0.08099748 0.080125764 0.0816666 0.04757044 0.038861535
0.039167907 -0.06131174 -0.03928583 0.11737253 0.012524703 0.012308621 -0.09068104 0.109458975
-0.0013471642 0.017808972 0.009681706 0.09426545 0.109278366 0.12257161 -0.08151769 -0.03896075
-0.050310105 0.06352917 0.04385764 -0.1222829 -0.096466705 -0.037580017 -0.012068136 0.08005484
0.021135684 0.094338536 -0.10161166 0.10971356 0.11630732 0.067457445 0.0009237039 0.11509964
-0.009455021 -0.012107322 -0.01590306 0.042350348 0.04708496 0.099746324 0.0994809 0.05171173
0.03907944 0.0378155 0.08627742 -0.03748598 0.08434485 -0.059619483 -0.049962815 0.05296033
-0.07284475 -0.0669144 0.041263785 0.008972368 0.07576824 -0.08438762 -0.07899756 0.01999074
0.046634395 0.016534524 -0.09065034 -0.08487658 0.039664607 0.026245961 0.07758555 -0.060221028
0.09447393 0.004149144 0.038469344 -0.07168079 -0.021957865 -0.03138959 -0.09292152 0.07100856
0.0338358 -0.091872185 0.028449042 -0.03224864 -0.11791923 0.016026974 -0.02055938 0.082378745
-0.01598691 -0.07584791 -0.037286002 0.055276673 -0.096902706 0.018460467 -0.090277955 -0.090625964
-0.016842034 0.0831929 -0.054469053 -0.08781502 -0.055841543 -0.08221375 -0.007157713 -0.100959525

encoder.rnn.bias_ih_l1 f4 [192]
00000000: 4707 5dbc 27b2 c7bc d2eb 3dbc 8ddb 53ba
00000010: 45bd 8f3c 81cf 513d 5ad7 693d 64c2 f73d
00000020: a554 8c3d 2d78 92bb 28e3 8d3c 2940 d4bc
00000030: d1d4 e13d cb21 dc3c fad2 fbbd d1ef 3dbc
00000040: 6456 45bd d3d2 7cbd 8a94 883d b8f7 e43c
00000050: 5a24 c53d 0e01 dabd 114f 8a3d f987 de3c
00000060: 84bf 2b3d bf38 89bd bb7f 7c3d fbbe 923b
00000070: 53c0 52bd e8b9 a63d 272f 053d d434 bb3d
00000080: 42c5 48bc 17ea 833d d8d5 9d3d fbf9 aa3d
00000090: 7ea9 28bd e48d ce3d fa80 4c3d 4f4e 1ebd
000000a0: 341c 273d f0a4 b73d 0483 4cbd 7eb9 8c3d
000000b0: a6df 96bd 67ee 75bd cbfa 393d 6a94 c43b
000000c0: a961 fc3d 8055 22bd a56b 113c 7c59 85bc
000000d0: 22cf 0cbc f5a3 91bd 343e c53c 4b06 033d
000000e0: 8243 d63c 5803 64bd b38f 8c3d a2d4 5c3d
000000f0: 13cd 923d b3ff 12bd 8c00 bf3c d1b3 7b3d
00000100: 0ca5 1ebd dde5 35bd 2b23 2ebd a8e4 f8bd
00000110: a81e 293b 8d11 cabc fd40 8ebe 5f3f 473d
00000120: df58 d9bc 9b90 4bbd a16e 84bd 2ec8 38be
00000130: 4996 3abe d0a3 07be 6926 bf3d 4d8e ddbd
00000140: 357f 03bd 3685 06be d289 783d 1d56 e63a
00000150: b07b 003d cfa2 ef3d 3381 b0bc 9435 a3bc
00000160: 5244 c4bb 3433 be3d 59b3 2a3d 06f7 89bd
00000170: 4350 44bd 745c d4bd 6510 5c3d 3d1f 453d
00000180: 6aeb 38bd 490f dabb 8624 e93d f720 8c3d
00000190: 119f 38bd e4bb 27bd d9c0 d93c d671 153d
000001a0: 93cc 813d 0a76 12be eb16 60bd f941 013d
000001b0: 98a4 c7bd 2295 ac3d d357 ee3d bd86 c23d
000001c0: 1dce 713d eaca 8ebd 3e12 77bd e166 d13d
000001d0: 4e7e f8bc f93b 73bc 5cd3 9dbe e693 57bd
000001e0: 4229 cf3b fac4 213d aa3b 39bd f43f 12bc
000001f0: 24f3 00be 8310 4dbe 40d9 02be 01a1 283b
00000200: d72c b7bd b54a 6b3c 485f dcbb 8d66 d6bb
00000210: 0fee fb3d 1771 a23d 6a38 dbbd bb82 febd
00000220: 3b6d 923d 6932 a93d e5dc c8bd 8b1e 163d
00000230: bc36 dd3c 6dd5 5e3d 14ad b33c 8dbf bf3d
00000240: c3f2 c03d 2956 623d 9907 e43d 0d51 153d
00000250: d98c 08bd 0faa 51bc 46c0 573d e21c adbd
00000260: 018f 47bd 2c6b 1fbd 5ba9 32bc d705 67bc
00000270: 26fc cebd 67eb 563d 5954 373d 757e b33d
00000280: d2bd 813c 9d17 7e3c 2f80 e73d 6bed 093e
00000290: 86d0 d0bd df4e 013d c6a2 f1bd 9d26 d2bd
000002a0: 1ddb 8a3d fd29 81bd 5a83 c03a 2f09 86bc
000002b0: 5d23 833d f4df 1cbd a607 51bd 0ff1 eb3d
000002c0: e1ac 9abd 6693 d1bd bc15 5b3d 6231 193c
000002d0: 321b f2bd afc0 ca3d 1048 f2bd ad67 4d3d
000002e0: 646c 533d e5e2 8bbd 5e5e d63c 2282 043d
000002f0: f778 04be 6a93 093c ef7c 783d e120 453c
-0.013490505 -0.024376942 -0.0115918685 -0.0008081727 0.017546305 0.05122328 0.05709014 0.12097624
0.06852082 -0.0044698925 0.01732023 -0.0259095 0.1102692 0.026871582 -0.122961 -0.011592821
-0.04817809 -0.061724495 0.066689566 0.027950153 0.09626074 -0.106447324 0.06753362 0.027164446
0.04193069 -0.067002766 0.06164525 0.004478333 -0.051452946 0.081409276 0.03251567 0.091409355
-0.012254061 0.064411335 0.07706803 0.08348461 -0.041177265 0.10085657 0.04992769 -0.0386489
0.04079838 0.08967006 -0.049929634 0.06871317 -0.07366876 -0.06004181 0.04540519 0.0059991376
0.12323315 -0.03963232 0.008875762 -0.016278021 -0.008594306 -0.071113504 0.024077512 0.031988423
0.026155237 -0.05566725 0.06863346 0.05391372 0.07168021 -0.035888385 0.02331569 0.061450783
-0.03873162 -0.044408668 -0.042514008 -0.12152988 0.0025805626 -0.024666572 -0.27783957 0.04864442
-0.026531635 -0.049698453 -0.06466413 -0.18045112 -0.18221392 -0.13246083 0.09333498 -0.10818157
-0.032103736 -0.13136753 0.06067831 0.0017573271 0.031367958 0.11700975 -0.021545982 -0.019923009
-0.0059895897 0.0928711 0.041674946 -0.06736569 -0.047928106 -0.103691965 0.053726573 0.048125494
-0.045146383 -0.006654654 0.113839194 0.06842225 -0.045073573 -0.04095067 0.026581215 0.036485516
0.063378476 -0.14302841 -0.054709356 0.031557057 -0.09748191 0.08426882 0.11637845 0.094983555
0.059034456 -0.069722965 -0.06032013 0.10224701 -0.030333664 -0.014845842 -0.30825317 -0.05263128
0.006322057 0.039494492 -0.045222916 -0.00892638 -0.12592751 -0.2002583 -0.12778187 0.0025730731
-0.089440994 0.014361073 -0.0067252256 -0.0065429867 0.123012654 0.079317264 -0.107041195 -0.124272786
0.0714974 0.08261568 -0.09807757 0.03665022 0.027003638 0.054402757 0.021933116 0.09362707
0.09421303 0.05525795 0.11134262 0.03645425 -0.033337448 -0.012796893 0.0526736 -0.084527746
-0.048720364 -0.038920566 -0.010904635 -0.014100513 -0.10106687 0.05247059 0.044758175 0.08764354
0.015837584 0.0155085595 0.11303746 0.13469474 -0.10196023 0.031569358 -0.11798625 -0.10261271
0.06780074 -0.06306837 0.0014687583 -0.016361801 0.064032294 -0.038299516 -0.051032685 0.11520588
-0.07552505 -0.10233192 0.053487524 0.009350153 -0.11821593 0.09900033 -0.11830151 0.0501477
0.05161704 -0.06830386 0.026168045 0.032350667 -0.1293677 0.008396963 0.06066602 0.012031765

encoder.rnn.bias_hh_l1 f4 [192]
00000000: f5df ce3c b27c 103d 38e6 ef3d 8607 7c3d
00000010: 6f4f ba3a 57ae 74bd d251 993b 354a d13d
00000020: d4b1 bfbd f3b9 b43d 05b5 2e3d c5bb d4bd
00000030: cb9c ddbc 7856 9fbd 9b8a d7bd 6af1 9c3d
00000040: 94f8 71bd 11bc 213d d36d d33d 5314 bfbd
00000050: 78de 283c a458 fdbd 9647 2ebd 4a47 a93d
00000060: 5c71 c7bd 8d67 013d 9e21 ee3d f97d 893d
00000070: 597d 9bbd 0b84 c8bd 7c6c 1bbd 3869 4a3d
00000080: df7f 353d 7f40 dabc 616b a33d a49a 853d
00000090: a505 9b3d a935 193c 92f5 df3d 51f4 e1bd
000000a0: db22 cc3c 1e0b cf3d 2630 e5bd a9a2 aa3c
000000b0: ee48 aabd 6699 4a3c cb3c b4ba 816c eebd
000000c0: 4957 77bd 3bbf 36bd aa40 00bc 1c3b e3bd
000000d0: d597 dabc 88f0 3bbd b1ca 05be 0b3a a1bd
000000e0: b76e adbd fc11 ca3d ccc8 433c 2026 bbbd
000000f0: acb5 053e 6aec 42bd aa03 33bd f144 ac3d
00000100: ee71 14bb 242c 2f3d 6afc 73bd e008 57bd
00000110: 56b4 913d 7416 1dbd ecb6 0cbe 919d cf3d
00000120: e893 25be 2c55 9abc 077f aebd 86be b2bc
00000130: ca04 60be 4483 a2bc 5b23 c3bc 909f 843d
00000140: fac8 743d c442 88bc 0143 613c 861e 25bd
00000150: 5d18 e8bd 0ad6 c7bd 6895 55be d5f7 aa3c
00000160: c2dd 12bd 9858 ccbd 5c1d 7c3d 037d 62be
00000170: 1fe3 c73d 43ad edbd 387b 5bbd 19b2 c0bc
00000180: dff3 72bd d787 e13d fb22 29bc d9f8 a13a
00000190: a1ad 253b 82c0 d0bd aec2 7b3d 097d c8bd
000001a0: 241c b5bd 7d0e 34bc 6f89 29be 6670 88bb
000001b0: 0b52 943d 13a2 e23b ba91 c8bc 5da8 e83d
000001c0: 0fb9 c5bd 8d39 23bc a8df db3d d51f 1c3d
000001d0: 07e9 d33c e212 f0bd 6ec1 36be b8d8 3ebd
000001e0: 7637 e3bd 4853 693d 37d6 883d 9096 2c3d
000001f0: a89d 023c ab93 69bd b48b c4bd 5b2b 263d
00000200: a9d9 9fbb c4bc 6abd 6358 4c3d 84e9 f53d
00000210: acf8 96bc a744 1abc 26a9 aebb 066b efbd
00000220: e62a a4bd 74db 1e3d d885 00be f0b8 d03b
00000230: 1ca9 d93c 6959 a73d a075 2cbd 0a4c 19bd
00000240: 59b4 debc 4751 25bd bc03 aabb 5a49 ef3a
00000250: cb82 e03d 1969 cabd 74dc 1838 f199 a73d
00000260: f33e d9bb eae8 6ebd 37b6 ab3c 7ad8 dc3d
00000270: 015a aebd dd6a 8c3d 2d21 76bd d14f dbbb
00000280: 74f7 e6bd bd5c cfbd 0a68 9b3d a809 1a3b
00000290: 30fb 07bc 4b0b 1a3d b5a9 d63d f14d a93b
000002a0: 15e7 debd fde1 c03d 91a9 b7bd 4cb5 92bd
000002b0: b020 943b 0318 7bbd 7f33 d73d d5e4 b23d
000002c0: 31ca d23d faa7 973c 6091 993d 78ef a1bd
000002d0: 528c 00be 20c2 ee3d 520f c33d 6236 bb3d
000002e0: 6e45 b9bb c597 ae3c 169e c13d 1051 c6bd
000002f0: a7f4 79bd 7315 2c3d 16a6 df3d 0a91 9fbd
0.025253275 0.03527517 0.117138326 0.061530612 0.0014214347 -0.059736576 0.004678943 0.10219232
-0.0936009 0.088245295 0.042653102 -0.10387377 -0.027052304 -0.077801645 -0.10524484 0.076632336
-0.059074953 0.039485995 0.10323682 -0.093300484 0.010306947 -0.123704225 -0.04254874 0.082655504
-0.097384185 0.031592894 0.11627506 0.067134805 -0.075922675 -0.0979081 -0.037945256 0.04941675
0.0443114 -0.026642082 0.07979465 0.06523636 0.07569436 0.0093511725 0.10935511 -0.11032928
0.024918964 0.10109542 -0.11190824 0.020829516 -0.083146915 0.012365675 -0.0013751028 -0.11641789
-0.060385976 -0.044615965 -0.007827917 -0.110952586 -0.026683727 -0.045883685 -0.13065602 -0.07872399
-0.08468383 0.098667115 0.011949729 -0.09138131 0.13057584 -0.047588743 -0.043704666 0.08411587
-0.0022650915 0.042766705 -0.059566893 -0.0524987 0.071144745 -0.03835149 -0.13741654 0.10137475
-0.16169703 -0.018839441 -0.08520322 -0.021819364 -0.21876827 -0.019837983 -0.02382057 0.06475747
0.05976198 -0.016633399 0.013748885 -0.040312313 -0.11332772 -0.097576216 -0.20857775 0.020870129
-0.035856016 -0.099778354 0.061551437 -0.22118 0.09760117 -0.11605313 -0.053584307 -0.023522424
-0.059314605 0.110122375 -0.010323281 0.0012357488 0.0025280493 -0.10192968 0.061464958 -0.097894736
-0.08843258 -0.010989782 -0.16556333 -0.0041637896 0.07242211 0.0069162934 -0.02448355 0.11360238
-0.09654438 -0.009962452 0.107360184 0.038116295 0.025867952 -0.117223516 -0.17847225 -0.046593398
-0.11094563 0.05696419 0.06681483 0.042135775 0.0079721585 -0.057025593 -0.09596959 0.04056869
-0.004878242 -0.057308927 0.04988898 0.1200743 -0.018429123 -0.009415782 -0.0053302227 -0.11690335
-0.08015995 0.038783506 -0.12551057 0.0063697025 0.026569895 0.081713505 -0.042104363 -0.037426032
-0.027185606 -0.040360715 -0.0051884335 0.0018256113 0.10962447 -0.09883327 3.6444937e-05 0.08183659
-0.0066298186 -0.058327593 0.02096091 0.10783477 -0.08513261 0.0685632 -0.060090233 -0.0066928645
-0.11277667 -0.1012511 0.07588203 0.002350429 -0.008299634 0.037608426 0.10481588 0.005166762
-0.10883919 0.09418104 -0.08967889 -0.07163486 0.004520498 -0.061302196 0.10507869 0.087350525
0.10292471 0.018512715 0.07498431 -0.07907003 -0.12553528 0.1165812 0.095244065 0.09141232
-0.0056540286 0.021312604 0.094539806 -0.0968343 -0.061024334 0.042012643 0.1092035 -0.07791336

decoder.attn.v f4 [64]
00000000: 897e 1c3c 0484 c23d d537 6bbd 61ab ecbd
00000010: 447e cdbc 1e08 e03d 1397 80bd ab20 61bd
00000020: e046 b33d 0f39 f5bc d43f 7f3d 062d c1bd
00000030: 9ca3 9abd 179b a93d 22a7 e2bd 6458 93bc
00000040: 5a03 8dbc ca5c 05be b776 0b3d b876 9cbd
00000050: 421f 8c3d 04fd b9bd 2c48 923c 411a 9b3d
00000060: 94ca 93bd ab6d a1bd ec9c d63d b9ed 81bd
00000070: 7e52 e8bd 5d2d e53c 8ad8 48bc 8bb8 db3c
00000080: 2f9d f5bd 8e69 e33b 4436 30bd 36d4 783d
00000090: 5560 b03d e743 f9bd 7edb 253d 6e8e eb3d
000000a0: fdf7 793d 51c5 98bd fc1c 7e3d babd 1cbc
000000b0: 5e67 c8bd 52d5 4cbd 2274 cc3d 0632 3b3d
000000c0: d657 123e 53d1 fd3d 2b3b cebd c383 033e
000000d0: f5e8 463d e691 303d 0a1d b4bd e595 1a3c
000000e0: f68e efbd f1e3 66bc 2128 ebbd f0e0 1fbc
000000f0: 7141 ba3c e20a e3bd bb89 7dbd 2f27 c43d
0.009551653 0.09497836 -0.057426292 -0.115561254 -0.025084622 0.10939048 -0.06278815 -0.054962795
0.08753753 -0.029934434 0.06231673 -0.09432416 -0.07550737 0.08281534 -0.11067034 -0.017986484
-0.017213512 -0.13023677 0.034048762 -0.07639831 0.068418995 -0.09081462 0.01785668 0.07573367
-0.07216373 -0.07882246 0.10479149 -0.0634417 -0.11343859 0.027975732 -0.012258658 0.026821395
-0.11992871 0.0069400733 -0.0430205 0.060749255 0.08612124 -0.121711545 0.040492527 0.11501776
0.061027516 -0.0745951 0.06203936 -0.009566719 -0.09785341 -0.050008126 0.09983088 0.045702003
0.14291319 0.12393441 -0.10069879 0.12843232 0.04856201 0.04310789 -0.08794601 0.009435152
-0.116971895 -0.014092431 -0.11482263 -0.009758219 0.022736283 -0.1108606 -0.061898928 0.09577786
