checkpoints/models/single_stock_daily/81to8/000001/model30.pth (torch, 542438 bytes, 20 tensors)

encoder.rnn.weight_ih_l0 f4 [192, 6]
-0.054847006 0.015987366 0.08623313 -0.09465314 -0.043322906 -0.049203966 -0.06065433 0.00018106929
0.07678184 0.02124139 -0.11909755 0.08897519 0.10167912 0.047241475 0.07131032 0.05600076
0.11122397 -0.09603937 -0.107005365 -0.06541798 -0.082279965 -0.13661976 -0.17299718 -0.012268295
-0.017707031 0.08647524 0.039994508 0.004474641 -0.10829594 -0.03332925 -0.0053369887 -0.0993342
0.027546896 0.04944055 0.13762602 -0.28109467 0.122915715 0.045912713 -0.019447647 0.1703055
0.16068402 -0.123242386 -0.07194493 0.05920846 -0.07598705 0.08591227 -0.058699366 0.123870224
-0.0526914 0.12904184 -0.029121796 -0.012953342 0.0867838 -0.112704106 -0.019711506 -0.116327904
-0.13218108 -0.046915215 -0.004552734 0.041810457 -0.1266981 -0.037114706 0.02896881 0.044564374
0.07039091 -0.09357032 -0.047124803 0.026376594 -0.095671 0.064046636 -0.1182024 0.05552363
0.073697604 0.036355063 0.14698766 0.19496574 0.1815243 0.0030318943 -0.06726732 0.032125276
0.084439516 0.0152124725 0.076612666 -0.03870488 0.07782185 2.45941e-05 -0.09312044 -0.0203358
0.12220842 -0.052796222 -0.0075170677 -0.0020010099 -1.2850591e-05 0.07780174 0.13419527 -0.24608278
-0.01167186 0.0058454517 -0.094302416 -0.06684586 0.0051687737 -0.10729165 0.041911975 -0.007998971
-0.035842847 -0.039476637 0.07364718 0.22970854 0.061226062 0.0640217 -0.058521073 0.052922767
-0.08238633 0.06312514 -0.09299816 -0.016793864 0.0681627 0.063480586 0.09126715 0.041862294
0.031214556 0.025671681 0.0827354 0.05733898 0.028748272 -0.057205297 -0.049542904 0.0214851
0.12369027 -0.010455008 0.0920137 0.07234849 0.11419508 -0.091003455 0.037464514 0.0828755
-0.11193112 0.10918682 -0.08546023 -0.07595504 -0.027551133 -0.02673523 -0.031951368 0.015101918
0.045788325 0.044769973 0.08179745 -0.08344632 -0.12291002 -0.11370271 -0.07264808 -0.041840944
0.077659175 -0.07122335 -0.072315335 0.035270665 -0.065347016 0.033965588 -0.0881062 0.055508096
0.08676155 -0.12485122 0.030719465 -0.07029579 0.07492945 0.10794911 -0.11023723 0.06375853
0.07322344 0.07483405 0.049605954 -0.017518895 -0.03437149 -0.06274394 -0.07647903 -0.05127444
-0.05751697 -0.12126289 -0.04703386 -0.09151471 -0.050583657 -0.042561818 -0.13173646 0.11375037
0.056081764 0.11039822 -0.099405885 -0.08801101 0.15642273 0.02687593 0.06875407 -0.040023204
-0.0027417035 -0.0070340536 0.065223835 0.09354968 -0.041344285 -0.103372544 -0.062062874 0.082065254
-0.0038793448 0.09576873 -0.054671034 -0.08197273 0.029030124 -0.04720931 -0.069219984 0.08385785
0.014520692 0.026639102 0.12185416 0.08882059 -0.1263505 -0.1366547 -0.08434628 -0.031396613
-0.0718887 0.078713305 -0.09405574 0.10639552 0.030623078 0.015862707 0.014981919 -0.0050657596
0.007673441 -0.13377887 -0.034040097 0.053380333 0.13677794 -0.015039627 -0.10734432 0.04481827
-0.12767604 0.2040013 0.056085423 0.013996514 -0.04347668 0.03932186 -0.10196992 -0.14953423
-0.07028699 0.11673229 -0.020213442 -0.06685496 0.060540974 -0.10462931 -0.035018705 -0.09426399
0.012474543 -0.03401125 0.002330567 0.10008805 -0.05993692 0.018034989 0.013495102 0.18308872
00000000: 41a7 60bd f0f7 823c ff9a b03d 81d9 c1bd
00000010: 5c73 31bd 198a 49bd ad70 78bd 6bdd 3d39
00000020: cc3f 9d3d 6c02 ae3c 6be9 f3bd a038 b63d
00000030: 243d d03d 4780 413d 250b 923d 0e61 653d
00000040: 65c9 e33d 4ab0 c4bd a125 dbbd ddf9 85bd
00000050: 6682 a8bd 0de6 0bbe 2c26 31be f500 49bc
00000060: 560e 91bc ee19 b13d 48d1 233d 02a0 923b
00000070: 43ca ddbd 4084 08bd e8e1 aebb bb6f cbbd
00000080: 07aa e13c 2d82 4a3d d6ed 0c3e a4eb 8fbe
00000090: 3cbb fb3d f80e 3c3d ac50 9fbc 9164 2e3e
000000a0: 5a8a 243e 8166 fcbd dd57 93bd 9284 723d
000000b0: 199f 9bbd c6f2 af3d bf6e 70bd acaf fd3d
000000c0: f0d2 57bd 8b23 043e d590 eebc 413a 54bc
000000d0: b4bb b13d 69d1 e6bd 067a a1bc 533d eebd
000000e0: 7a5a 07be 2b2a 40bd 1a2f 95bb 7141 2b3d
000000f0: 26bd 01be 9705 18bd ff4f ed3c 2289 363d
00000100: 1c29 903d cca1 bfbd f005 41bd ba13 d83c
00000110: 28ef c3bd e22a 833d 1a14 f2bd bf6c 633d
00000120: c5ee 963d 0ce9 143d ef83 163e 19a5 473e
00000130: 82e1 393e bfb2 463b 73c3 89bd cb95 033d
00000140: a0ee ac3d bc3d 793c 1ae7 9c3d 0289 1ebd
00000150: 1061 9f3d 6d4f ce37 eeb5 bebd 4397 a6bc
00000160: 6848 fa3d da40 58bd bc51 f6bb 6023 03bb
00000170: de98 57b7 8556 9f3d 7c6a 093e 20fd 7bbe
00000180: 543b 3fbc 348b bf3b a021 c1bd 7be6 88bd
00000190: d15e a93b b9bb dbbd e4ab 2b3d 1e0e 03bc
000001a0: f3cf 12bd 41b2 21bd 55d4 963d b738 6b3e
000001b0: 2ec8 7a3d cf1d 833d cbb3 6fbd 8bc5 583d
000001c0: 2aba a8bd c147 813d d275 bebd 4993 89bc
000001d0: e398 8b3d 1c02 823d 46ea ba3d cc77 2b3d
000001e0: abb5 ff3c 6b4d d23c 2d71 a93d 47dc 6a3d
000001f0: 7f81 eb3c 1a50 6abd 80ed 4abd 8501 b03c
00000200: 5351 fd3d 7b4b 2bbc ae71 bc3d 722b 943d
00000210: 1cdf e93d 0560 babd 6474 193d a1ba a93d
00000220: 253c e5bd 579d df3d c605 afbd 518e 9bbd
00000230: eab2 e1bc d703 dbbc 70df 02bd 096e 773c
00000240: 8a8c 3b3d b860 373d 6c85 a73d e7e5 aabd
00000250: 40b8 fbbd f7dc e8bd 84c8 94bd 6961 2bbd
00000260: c60b 9f3d 8cdd 91bd 101a 94bd f977 103d
00000270: a8d4 85bd 801f 0b3d 0671 b4bd 755c 633d
00000280: 0ab0 b13d ffb1 ffbd 63a7 fb3c 3df7 8fbd
00000290: 9d74 993d 6c14 dd3d 0fc4 e1bd d593 823d
000002a0: 2cf6 953d 9842 993d 9d2f 4b3d c983 8fbc
000002b0: 1fc9 0cbd e57f 80bd 0aa1 9cbd 2605 52bd
000002c0: ea96 6bbd ae58 f8bd 94a6 40bd 106c bbbd
000002d0: cf30 4fbd 4d55 2ebd ece5 06be f4f5 e83d
000002e0: feb5 653d 7618 e23d 5095 cbbd 1e3f b4bd
000002f0: 482d 203e e92a dc3c efce 8c3d 5fef 23bd
00000300: 27ae 33bb eb7d e6bb 1394 853d fa96 bf3d
00000310: a058 29bd fcb4 d3bd a435 7ebd d411 a83d
00000320: 9b3c 7ebb 6522 c43d bcee 5fbd 52e1 a7bd
00000330: 95d0 ed3c 8d5e 41bd 35c3 8dbd aabd ab3d
00000340: 32e8 6d3c 3f3a da3c ad8e f93d 92e7 b53d
00000350: 0762 01be 36ef 0bbe bebd acbd bc99 00bd
00000360: 623a 93bd 7134 a13d 4ca0 c0bd e5e5 d93d
00000370: 40dd fa3c 82f2 813c b976 753c acfe a5bb
00000380: 7d71 fb3b 54fd 08be a16d 0bbd 56a5 5a3d
00000390: 840f 0c3e c568 76bc 57d7 dbbd 5d93 373d
000003a0: 82bd 02be b7e5 503e d4b9 653d a251 653c
000003b0: 9a14 32bd f50f 213d 9bd5 d0bd 801f 19be
000003c0: a0f2 8fbd 5711 ef3d a996 a5bc 41eb 88bd
000003d0: d0f9 773d e447 d6bd c66f 0fbd 7b0d c1bd
000003e0: 0762 4c3c 614f 0bbd 6dbc 183b f7fa cc3d
000003f0: 6a80 75bd 1dbe 933c 8f1a 5d3c 9c7b 3b3e

encoder.rnn.weight_hh_l0 f4 [192, 64]
0.0502726 -0.034817968 -0.1014142 -0.026955698 -0.09998112 -0.14825113 0.03221711 -0.062037818
-0.10564031 0.10536586 0.0841494 0.11510879 0.02702413 0.00506139 0.05770253 -0.07866944
-0.014559068 0.13333225 0.0855751 0.014516657 -0.006393202 0.034097698 0.033587407 -0.042047285
0.0670197 0.11585338 -0.03347649 0.08940926 -0.026849918 0.043717667 0.093554765 -0.09669502
0.08269718 0.003009436 -0.07510768 -0.040236272 0.11603944 0.09407985 -0.057945073 0.062066328
0.074299216 0.10058394 0.08232043 -0.035342127 0.08480465 -0.015535546 0.0073690806 0.0136251105
-0.0012825781 0.0052604754 -0.13671766 0.021581527 0.09916333 0.044954445 -0.117110945 0.007033168
0.0025677257 0.0030565292 -0.10584972 0.03077971 -0.08950352 0.015358043 0.07081154 0.10315791
-0.015430391 0.12097014 -0.017532166 -0.05120441 0.05433418 -0.01637196 -0.09576181 0.06467513
0.11746023 0.11967312 -0.017900314 -0.10872419 0.1417152 -0.06444039 0.01336426 -0.08331748
0.07654023 0.0600303 0.12240061 0.053463474 -0.110780366 0.09748716 -0.104711525 -0.0750621
0.054446124 -0.063052036 0.07503422 -0.0010312289 0.017480813 -0.061825972 0.082275316 -0.008968562
0.057858545 0.012885283 -0.058307596 -0.08745181 0.084439866 -0.10679846 -0.04601815 -0.13237484
-0.050520103 0.02054575 -0.06555818 0.030598996 0.093691185 0.03153656 0.11910155 0.001982256
0.1261794 0.019150022 -0.009159256 0.031313397 -0.09714003 0.12016687 0.10841015 -0.12729102
-0.028859131 0.08648879 0.044696905 -0.035263002 -0.04693693 -0.0363911 -0.005574326 0.122259796
-0.07675648 0.004277821 0.037077375 -0.056434143 -0.01322772 -0.03295656 0.10667614 0.09038461
-0.0029918493 -0.07687015 -0.06535182 -0.045496907 0.12511045 0.10917137 0.0137071125 -0.07054413
0.042505782 -0.02222539 0.07037203 0.07277598 0.105395466 0.008457263 0.011393099 -0.010066869
0.09711256 0.09815389 0.043098796 -0.02410499 -0.035151795 0.123446524 -0.06727671 0.0024457965
0.042709637 0.079793245 -0.07566465 -0.027170716 -0.0089553995 -0.015883392 -0.10880636 0.04768097
-0.09051134 -0.034405116 0.0023024443 0.10330175 -0.023983806 -0.06743538 -0.044499423 0.007032436
-0.07191322 0.029260876 0.05753525 0.118972115 0.10208023 -0.045063477 0.05377112 -0.015230854
0.08524049 -0.065406606 0.11405296 0.004407085 0.072280966 0.09429012 -0.037305474 0.10488548
0.011614029 -0.076893345 -0.037490886 -0.14439861 0.01468721 0.07315134 0.056516424 -0.050408173
-0.10978065 -0.03819694 0.0338594 -0.034475014 -0.12470225 0.03711699 -0.032030396 -0.006044776
0.09061982 -0.07999934 -0.06277596 0.07873592 0.13350002 -0.036380358 0.06629434 -0.08088138
0.20412327 -0.05327575 -0.19662455 -0.03392248 0.13854438 -0.02406622 -0.10552389 0.04405777
0.12462745 0.12487849 -0.010728248 0.036313318 -0.16226497 -0.18138897 -0.15732129 -0.008937796
-0.09384693 0.04213548 0.085857674 0.07287422 -0.044999275 -0.038261406 -0.03057385 -0.12951519
0.03746241 -0.15641797 0.07740578 -0.06474152 -0.04709931 -0.09740111 0.012027199 -0.0021977536
-0.1710531 0.11612908 -0.033302493 0.036187634 0.028570209 0.0323791 -0.09596982 0.06808271
00000000: a4ea 4d3d 499d 0ebd 40b2 cfbd 32d2 dcbc
00000010: e7c2 ccbd 25cf 17be 17f6 033d 5e1b 7ebd
00000020: f259 d8bd 0eca d73d 8556 ac3d 28be eb3d
00000030: b561 dd3c 04da a53b 7d59 6c3d 711d a1bd
00000040: 2889 6ebc 4088 083e ff41 af3d 46d7 6d3c
00000050: 117e d1bb 07aa 0b3d f392 093d c639 2cbd
00000060: a041 893d 8944 ed3d a51e 09bd 341c b73d
00000070: 5cf4 dbbc 4c11 333d a499 bf3d 0a08 c6bd
00000080: 245d a93d f539 453b 0ed2 99bd cace 24bd
00000090: 16a6 ed3d f0ac c03d d057 6dbd 4339 7e3d
000000a0: 302a 983d f4fe cd3d 9d97 a83d e8c2 10bd
000000b0: 0fae ad3d cd88 7ebc 5478 f13b db3b 5f3c
000000c0: 2e1c a8ba 1160 ac3b b7ff 0bbe becb b03c
000000d0: 2516 cb3d 2722 383d ddd7 efbd 7d76 e63b
000000e0: 4a47 283b 0d50 483b bdc7 d8bd bb25 fc3c
000000f0: 9f4d b7bd 4da0 7b3c a405 913d 7444 d33d
00000100: c0cf 7cbc 31bf f73d 9e9f 8fbc b7bb 51bd
00000110: 848d 5e3d 7d1e 86bc c51e c4bd 6574 843d
00000120: fd8e f03d 2e17 f53d aea3 92bc caaa debd
00000130: ca1d 113e 53f9 83bd c5f5 5a3c 5ba2 aabd
00000140: 20c1 9c3d 55e2 753d 2cad fa3d 84fc 5a3d
00000150: d1e0 e2bd 59a7 c73d ff72 d6bd 29ba 99bd
00000160: e602 5f3d 6d21 81bd 8bab 993d 4d2a 87ba
00000170: ec33 8f3c 3b3d 7dbd f67f a83d e0f0 12bc
00000180: 15fd 6c3d cb1c 533c f2d3 6ebd ef19 b3bd
00000190: cfee ac3d 27b9 dabd 877d 3cbd 458d 07be
000001a0: 2bee 4ebd 904f a83c 5e43 86bd bfaa fa3c
000001b0: 2ae1 bf3d 7b2c 013d 83eb f33d bde8 013b
000001c0: 2c35 013e 82e0 9c3c b410 16bc 7a42 003d
000001d0: 5af1 c6bd 0c1a f63d 2406 de3d 9458 02be
000001e0: fc69 ecbc 0921 b13d 1a14 373d f06f 10bd
000001f0: f040 40bd d60e 15bd d6a8 b6bb 5863 fa3d
00000200: 8032 9dbd f72c 8c3b 72de 173d 7d27 67bd
00000210: 14b9 58bc 75fd 06bd 0579 da3d 911b b93d
00000220: e712 44bb 196e 9dbd 2dd7 85bd f75a 3abd
00000230: f41c 003e 3d95 df3d cc93 603c 7179 90bd
00000240: 8b1a 2e3d 0512 b6bc 361f 903d 930b 953d
00000250: 94d9 d73d 5590 0a3c 1faa 3a3c 82ef 24bc
00000260: f3e2 c63d e804 c93d 5d88 303d d477 c5bc
00000270: 54fb 0fbd 88d1 fc3d 5fc8 89bd a849 203b
00000280: 4df0 2e3d a46a a33d 11f6 9abd 1f95 debc
00000290: abb9 12bc e31d 82bc ded5 debd 1f4d 433d
000002a0: 025e b9bd 61ec 0cbd 9be4 163b de8f d33d
000002b0: b079 c4bc 8f1b 8abd 0745 36bd 5970 e63b
000002c0: 3d47 93bd 81b4 ef3c 15aa 6b3d a7a7 f33d
000002d0: 710f d13d 7b94 38bd 1b3f 5c3d d58a 79bc
000002e0: 9192 ae3d e6f3 85bd 9994 e93d 4f69 903b
000002f0: 0b08 943d 2e1b c13d a0cd 18bd 33ce d63d
00000300: c548 3e3c 427a 9dbd 0b90 19bd 3bdd 13be
00000310: a0a2 703c 5fd0 953d c47d 673d cd78 4ebd
00000320: add4 e0bd 6574 1cbd 27b0 0a3d ac35 0dbd
00000330: e563 ffbd fc07 183d 4e32 03bd 4213 c6bb
00000340: e296 b93d b2d6 a3bd af90 80bd 4c40 a13d
00000350: 3bb4 083e 9203 15bd 54c5 873d 23a5 a5bd
00000360: b105 513e ac37 5abd f257 49be 4cf2 0abd
00000370: 94de 0d3e 8526 c5bc e91c d8bd ec75 343d
00000380: ad3c ff3d 4bc0 ff3d 89c5 2fbc 46bd 143d
00000390: ca28 26be 08be 39be d518 21be d56f 12bc
000003a0: d232 c0bd 4196 2c3d 26d6 af3d 143f 953d
000003b0: 2951 38bd feb7 1cbd 0376 fabc a19f 04be
000003c0: 2f72 193d 082c 20be ec86 9e3d 3497 84bd
000003d0: 35eb 40bd 3c7a c7bd bb0d 453c 3008 10bb
000003e0: 8b28 2fbe 15d5 ed3d 3268 08bd 7c39 143d
000003f0: 120c ea3c f29f 043d d38b c4bd f36e 8b3d

encoder.rnn.bias_ih_l0 f4 [192]
-0.05462764 0.0022230716 -0.047615815 -0.13053977 0.005252953 -0.07664496 -0.0767447 -0.10890488
-0.05295592 -0.005744001 -0.106186256 0.007348676 -0.028905252 0.058394518 0.03841708 -0.023847146
-0.12326408 -0.044593144 -0.10457422 0.007018792 -0.13432214 -0.101917505 0.081648044 -0.06605979
0.02821878 0.1019636 -0.08269194 -0.12119252 -0.11018534 0.0611254 0.10833998 0.010388713
-0.10061278 -0.061954636 -0.059214365 -0.12324967 0.045103807 0.083850674 0.11551787 -0.13322589
0.041052166 -0.04768 -0.126383 0.08765428 0.06954645 -0.011234345 0.015175856 -0.105088815
0.06619693 -0.053646408 -0.01586058 0.08853166 -0.099033155 0.12118114 0.068802245 -0.079466075
-0.08884767 -0.115794234 0.09519487 -0.006279618 -0.020803716 0.08479324 -0.0237768 0.049231187
0.0017966799 -0.015229735 -0.062009107 -0.33002675 -0.26761308 -0.08589779 -0.10274439 0.35168168
0.05068365 -0.14278151 -0.1123675 -0.25427744 -0.25425634 -0.14068657 -0.34142038 -0.5597308
0.0030264722 -0.18909387 -0.094448924 -0.04107097 0.010730597 0.19268362 0.0730167 -0.250089
-0.016464744 -0.10714614 -0.0006254341 0.21782641 0.14676604 -0.40102232 0.14007035 -0.511664
-0.06771259 -0.1428588 0.0013483476 0.030736769 -0.054632008 0.24016652 -0.20030461 -0.25483787
-0.13239428 -0.028774746 -0.5068152 -0.02107271 0.08437578 0.038727425 0.032755423 -0.06960062
0.010462747 -0.095697984 0.32153755 0.11713141 -0.022700123 -0.1754522 -0.08481324 -0.45691508
-0.14095995 -0.21896505 -0.14959401 0.056796387 -0.03961224 0.05726609 -0.011977553 -0.2724769
-0.05694995 0.004944372 0.035654977 -0.061731968 -0.060726438 0.015020844 -0.0634122 0.1324176
0.020865202 -0.046287145 0.035443082 -0.053413633 -0.015363012 0.027728768 0.055471834 0.013250563
0.006266697 -0.050530694 -0.110154375 0.09116168 -0.01065621 -0.10689086 0.081796534 0.09665958
-0.026252428 0.00035934572 -0.07745726 0.082633704 -0.10343921 0.082319915 0.03590502 0.11435316
-0.06566888 -0.020020366 0.0045572063 0.05751588 0.029457483 0.016138416 0.11096434 0.029128494
-0.06986684 -0.061047368 0.08006338 0.11104487 -0.10453242 -0.105342604 -0.09814016 0.090635516
-0.07125206 0.06288374 -0.035867054 0.06778193 0.005910892 -0.035168316 0.0945752 0.12069927
-0.05282871 0.089514606 -0.080972984 -0.08219318 0.004550638 0.09174828 0.0101551935 0.08513046
00000000: 3bc1 5fbd f4b0 113b cd08 43bd 38ac 05be
00000010: f720 ac3b 08f8 9cbd 532c 9dbd 8609 dfbd
00000020: 4fe8 58bd 2c38 bcbb 2e78 d9bd 2acd f03b
00000030: b5ca ecbc 172f 6f3d 3a5b 1d3d 175b c3bc
00000040: e171 fcbd 4da7 36bd 022b d6bd e5fd e53b
00000050: be8b 09be 20ba d0bd 1737 a73d 5b4a 87bd
00000060: 122b e73c 4bd2 d03d 645a a9bd c933 f8bd
00000070: daa8 e1bd a15e 7a3d 5ae1 dd3d 6c35 2a3c
00000080: 130e cebd 25c4 7dbd c38a 72bd 536a fcbd
00000090: c5be 383d e7b9 ab3d a294 ec3d 5e6c 08be
000000a0: 5126 283d 1b4c 43bd 8c6a 01be 1684 b33d
000000b0: 5f6e 8e3d 4210 38bc 27a4 783c ce38 d7bd
000000c0: 4292 873d 56bc 5bbd 0cee 81bc 1650 b53d
000000d0: e5d1 cabd d12d f83d 31e8 8c3d 1cbf a2bd
000000e0: c4f5 b5bd 8725 edbd 87f5 c23d 41c5 cdbb
000000f0: 8e6c aabc 14a8 ad3d 90c7 c2bc a4a6 493d
00000100: 937e eb3a 2386 79bc 43fd 7dbd 44f9 a8be
00000110: 9504 89be 2eeb afbd a76b d2bd 9f0f b43e
00000120: a999 4f3d 5135 12be ef20 e6bd a730 82be
00000130: e32d 82be 2410 10be a7ce aebe 854a 0fbf
00000140: c757 463b d3a1 41be 706e c1bd 093a 28bd
00000150: 63cf 2f3c db4e 453e c889 953d aa0b 80be
00000160: 12e1 86bc 6f6f dbbd 2cf4 23ba e30d 5f3e
00000170: d649 163e cc52 cdbe 9a6e 0f3e 69fc 02bf
00000180: e6ac 8abd 9449 12be 0abb b03a adcb fb3c
00000190: d0c5 5fbd 36ee 753e a71c 4dbe 1c7a 82be
000001a0: 5e92 07be 04b9 ebbc a4be 01bf ada0 acbc
000001b0: 35cd ac3d a6a0 1e3d 8d2a 063d c58a 8ebd
000001c0: f16b 2b3c 4efd c3bd 92a0 a43e 98e2 ef3d
000001d0: 9cf5 b9bc bea9 33be 90b2 adbd c6f0 e9be
000001e0: ce57 10be 6038 60be 2c2f 19be 54a3 683d
000001f0: 7240 22bd d98f 6a3d 803d 44bc 1882 8bbe
00000200: 5a44 69bd 6604 a23b f40a 123d a9da 7cbd
00000210: 49bc 78bd fc19 763c 41de 81bd 7b98 073e
00000220: 80ed aa3c 9797 3dbd c42c 113d 41c8 5abd
00000230: 25b5 7bbc 7127 e33c 6f36 633d e418 593c
00000240: dd58 cd3b 46f9 4ebd 9e98 e1bd fab2 ba3d
00000250: 6297 2ebc 98e9 dabd f184 a73d 75f5 c53d
00000260: 550f d7bc 9166 bc39 e9a1 9ebd dc3b a93d
00000270: f0d7 d3bd 5897 a83d 2411 133d fd31 ea3d
00000280: 687d 86bd c001 a4bc 9e54 953b c595 6b3d
00000290: d250 f13c b634 843c 4641 e33d e19e ee3c
000002a0: 5916 8fbd ce0c 7abd 45f8 a33d 7e6b e33d
000002b0: 1815 d6bd ddbd d7bd b5fd c8bd 1d9f b93d
000002c0: 9aec 91bd 31c9 803d 55e9 12bd 41d1 8a3d
000002d0: 28b0 c13b a70c 10bd a4b0 c13d 2e31 f73d
000002e0: eb62 58bd 6f53 b73d 2ad5 a5bd e654 a8bd
000002f0: 851d 953b 86e6 bb3d f861 263c e158 ae3d

encoder.rnn.bias_hh_l0 f4 [192]
0.070290424 0.07086023 0.043851823 -0.15028137 -0.0997224 -0.13474502 0.018481528 0.01683673
0.0025106566 -0.13585493 0.026436033 -0.087324806 -0.110764585 0.035353154 -0.020476636 -0.09269898
-0.0012669369 0.03767743 -0.12117469 -0.008150052 0.08439107 0.1056954 -0.042357832 -0.049980436
-0.06929957 -0.09781433 -0.04510406 0.0737337 0.07443065 -0.038150195 0.010525356 -0.09158921
-0.027481297 0.08662662 0.07080705 -0.02469219 -0.10429545 -0.013892549 -0.049596865 0.0103798555
0.108611576 -0.020797627 -0.03181332 -0.0077119283 -0.0020746079 0.02503783 0.0059662964 -0.13873261
0.105483904 -0.087323785 0.10674039 -0.02351084 -0.032146655 0.063608475 -0.049066797 -0.0014895733
-0.051342983 -0.096852146 0.09707378 0.08070961 0.054004908 0.111999474 0.06415079 0.106922045
-0.049442127 0.08898316 0.03736059 -0.24674365 -0.060624737 -0.28071702 -0.22067757 0.17183854
0.113527924 -0.12943833 0.0067383954 -0.042130377 -0.1408259 -0.10395318 -0.303954 -0.39370537
0.03986235 -0.17566347 -0.10108314 -0.027388016 0.10131015 0.09756031 0.023895152 -0.19853742
0.07136695 -0.1809254 0.16554311 0.05307242 0.090557404 -0.22160211 0.03105092 -0.55731994
0.040478095 0.0071540102 -0.052591737 0.2242681 0.07121154 0.24792625 -0.023418015 -0.4149132
-0.10125819 -0.17129463 -0.45102406 0.09924987 0.09124759 -0.14215462 0.09638075 0.122895695
-0.0017957354 -0.068177916 0.115150444 -0.020294562 0.07816185 -0.10737798 -0.0031890129 -0.5275633
-0.1617015 -0.25519845 -0.110572994 0.027955493 0.030989984 -0.060213707 -0.06751276 -0.27879873
-0.08912006 0.110162675 0.042964637 0.059982784 0.059700973 0.08513743 0.10770039 -0.04774497
0.023275334 0.07016602 -0.11818769 0.07202193 -0.12258965 -0.08677851 -0.06705182 -0.0911348
-0.08377384 0.0764589 -0.10704815 -0.062241912 -0.09827989 -0.036477122 -0.010657842 0.03910026
-0.061018366 0.019824365 0.069137275 0.10382566 -0.023292786 -0.09705892 0.06999341 -0.037218995
-0.11927937 -0.058048952 -0.013862415 0.039564695 0.09170838 0.06712578 -0.06758287 0.09771919
0.04915643 0.030833082 -0.083701804 -0.025692571 0.053620562 -0.03994115 0.054996446 0.052610736
-0.08280068 0.094148755 0.02626296 -0.015520197 0.0012781412 -0.005328919 -0.008105434 -0.043006103
0.016866224 -0.03360566 0.12220432 -0.029611005 -0.112279214 0.11066255 0.0780327 -0.09614861
00000000: 6df4 8f3d 2b1f 913d f89d 333d 5ce3 19be
00000010: 423b ccbd 99fa 09be 9366 973c 2fed 893c
00000020: d489 243b 8e1d 0bbe 6190 d83c 59d7 b2bd
00000030: 8bd8 e2bd 78ce 103d 9ebe a7bc f6d8 bdbd
00000040: 590f a6ba a653 1a3d 702a f8bd cc87 05bc
00000050: 3ad5 ac3d d476 d83d 687f 2dbd 49b8 4cbd
00000060: efec 8dbd e152 c8bd 09bf 38bd b201 973d
00000070: 196f 983d 6143 1cbd 8b72 2c3c 2093 bbbd
00000080: 7520 e1bc 4c69 b13d 4903 913d 4747 cabc
00000090: da98 d5bd 939d 63bc 1526 4bbd 4510 2a3c
000000a0: bf6f de3d c95f aabc af4e 02bd 58b4 fcbb
000000b0: 25f6 07bb 231c cd3c ec80 c33b ec0f 0ebe
000000c0: f207 d83d d0d6 b2bd b59a da3d ce99 c0bc
000000d0: 36ac 03bd 2945 823d 44fa 48bd c93d c3ba
000000e0: 054d 52bd 6b5a c6bd 9ece c63d 144b a53d
000000f0: 4034 5d3d fb5f e53d 7d61 833d f2f9 da3d
00000100: d483 4abd ce3c b63d 6b07 193d 5eaa 7cbe
00000110: a551 78bd 24ba 8fbe 4df9 61be 71f6 2f3e
00000120: 5481 e83d 7b8b 04be c2cd dc3b e790 2cbd
00000130: aa34 10be 68e5 d4bd dc9f 9bbe c093 c9be
00000140: b446 233d 20e1 33be ad04 cfbd d55c e0bc
00000150: b27b cf3d b3cd c73d c4bf c33c 654d 4bbe
00000160: d628 923d 8244 39be 2284 293e 7762 593d
00000170: 2976 b93d aaeb 62be 805e fe3c 85ac 0ebf
00000180: 5ccc 253d 306c ea3b 6f6a 57bd 89a6 653e
00000190: 5bd7 913d 61e0 7d3e 23d7 bfbc 816f d4be
000001a0: 7460 cfbd dc67 2fbe a0ec e6be 8443 cb3d
000001b0: 04e0 ba3d fb90 11be 4563 c53d bdb0 fb3d
000001c0: e25e ebba dda0 8bbd ffd3 eb3d c840 a6bc
000001d0: 5213 a03d fde8 dbbd c2fe 50bb 630e 07bf
000001e0: 1495 25be 5fa9 82be 1874 e2bd eb02 e53c
000001f0: b5de fd3c a6a2 76bd 2144 8abd b5be 8ebe
00000200: 9484 b6bd f89c e13d b0fb 2f3d 82b0 753d
00000210: 0289 743d 885c ae3d 0692 dc3d 3b90 43bd
00000220: eaab be3c 34b3 8f3d 630c f2bd 3c80 933d
00000230: 4810 fbbd eeb8 b1bd 7752 89bd e2a4 babd
00000240: 9e91 abbd 7c96 9c3d 0f3c dbbd 60f1 7ebd
00000250: f846 c9bd 0969 15bd 3b9e 2ebc 9827 203d
00000260: 65ee 79bd b566 a23c d897 8d3d 8ca2 d43d
00000270: 83d0 bebc d4c6 c6bd b458 8f3d f272 18bd
00000280: be48 f4bd bdc4 6dbd 2f1f 63bc 970e 223d
00000290: 9ad1 bb3d 3e79 893d e368 8abd 0021 c83d
000002a0: 4158 493d a995 fc3c da6b abbd 3a79 d2bc
000002b0: 3ca1 5b3d 5599 23bd f443 613d 5b7e 573d
000002c0: 6793 a9bd 10d1 c03d 6b25 d73c 6d48 7ebc
000002d0: 4d87 a73a 369e aebb a7cc 04bc 2b27 30bd
000002e0: 092b 8a3c 17a6 09bd 4246 fa3d c792 f2bc
000002f0: a5f2 e5bd 0ca3 e23d 9ccf 9f3d 90e9 c4bd

encoder.rnn.weight_ih_l1 f4 [192, 64]
0.10434042 -0.10612418 -0.06895554 -0.04167651 0.021963079 0.01654709 -0.054401897 -0.062492482
-0.07125132 0.11463412 0.06259734 0.008795237 0.019672323 0.0054736054 -0.027088776 -0.059278984
0.11637391 -0.020332465 -0.07170875 -0.018932333 0.04480968 -0.102631725 0.029636811 -0.016110444
-0.056100383 0.013637232 0.027620917 -0.13182597 0.06551978 0.04585372 -0.08029942 0.03378199
-0.055487905 0.09105129 -0.052073453 0.026589291 0.038179345 -0.008863969 -0.07130634 0.040486835
0.048494972 -0.054174703 -0.022824693 0.045757193 -0.10225575 0.024276169 0.025918812 -0.12634312
0.023318117 -0.10101169 -0.109755665 0.1057814 0.06723267 0.09605267 0.10552879 -0.06680216
-0.03488385 -0.009093524 0.05808067 0.019851755 -0.0049600923 0.11844278 -0.05550688 0.054673564
0.0631681 -0.06145375 0.06373859 0.07740596 -0.010223411 -0.077464014 0.060593788 0.09423323
0.036127515 -8.621509e-05 0.0725753 0.024103144 -0.05205314 -0.08777727 -0.04539115 0.02752264
-0.047927078 0.007846055 -0.053608354 -0.10143289 0.09624978 -0.061091725 0.028550075 0.11259145
0.036530722 0.061123807 -0.09415448 -0.10668046 -0.050607964 -0.052699186 -0.07965818 -0.058096286
0.060309604 0.117621794 0.09544801 0.057100505 -0.11327731 -0.02847506 0.034239557 0.121376336
-0.078425236 0.087582566 0.09499188 -0.03082887 -0.1048864 0.06857509 0.07373828 -0.11274698
0.10750762 -0.0177876 -0.07686833 0.0018262671 0.08207003 0.003349335 -0.10861203 -0.052944265
0.028466253 0.05880613 0.08308445 0.051063497 0.06634656 -0.035811592 0.054586224 0.020971552
0.026954765 0.12029756 -0.057010718 0.12925512 -0.050783843 0.06948387 -0.02195032 0.059199862
-0.044506066 0.04910052 0.10897306 -0.012500065 0.012131702 -0.054325484 0.08899105 0.07040859
-0.027703585 0.002427114 0.116350755 0.067405045 0.107671864 -0.0658556 -0.051735826 -0.0998267
-0.099354655 -0.013656195 0.019281605 -0.08052718 -0.030558541 0.012367234 -0.030069817 -0.11136111
0.1177942 -0.04214805 0.023822384 0.02964775 -0.1117715 -0.012392588 -0.09709233 0.076436915
-0.026859296 0.08843155 -0.004156061 -0.061074693 0.050391316 -0.093681864 -0.047223624 -0.017354188
0.1258379 -0.108602226 0.043206185 0.121463224 -0.025618782 -0.060869794 -0.08815118 -0.028700829
0.12435101 -0.094043665 0.1277635 -0.08971039 0.11129262 0.00020766408 -0.034247234 -0.09981763
-0.06989557 -0.0852925 -0.10185851 -0.017231302 0.077358715 -0.118432485 0.11179691 0.03571781
0.07803905 0.012418438 -0.057539135 0.071432106 0.08649423 0.055964846 0.043404263 0.14061125
0.016940864 -0.03913491 0.057795044 -0.056025863 0.09870826 0.011490283 0.066356406 0.010228484
0.0990338 0.076628625 0.056455266 -0.049745847 0.014845793 0.10242488 0.09402275 -0.061502088
0.089673534 -0.0861746 0.08640393 -0.037726272 -0.08069074 0.113814995 0.01202337 -0.06685987
0.06096966 0.07816186 -0.011043675 -0.07666535 -0.070152365 -0.07511829 0.034431398 -0.10790277
-0.07690711 -0.10822019 -0.0071046147 0.12321904 0.025555886 -0.010092396 0.065499775 -0.096445635
-0.022143966 0.07936754 -0.11638285 -0.12822278 -0.060733765 -0.103533804 -0.032602903 0.098961115
00000000: 6eb0 d53d a257 d9bd 9038 8dbd fdb4 2abd
00000010: eaeb b33c c38d 873c 86d4 5ebd 1ef8 7fbd
00000020: 36ec 91bd 4bc5 ea3d 0933 803d e619 103c
00000030: da27 a13c ee5b b33b 48e9 ddbc 85ce 72bd
00000040: 7255 ee3d 4590 a6bc 0adc 92bd fb17 9bbc
00000050: 5b8a 373d 9530 d2bd e6c8 f23c 0dfa 83bc
00000060: 84c9 65bd b26e 5f3c 4345 e23c 63fd 06be
00000070: 3c2f 863d 1cd1 3b3d 0674 a4bd fc5e 0a3d
00000080: 4947 63bd 1979 ba3d f94a 55bd c9d1 d93c
00000090: f261 1c3d 2e3a 11bc 0f09 92bd 86d5 253d
000000a0: aaa2 463d 4be6 5dbd dafa babc e56b 3b3d
000000b0: 766b d1bd d1de c63c b053 d43c 1760 01be
000000c0: a305 bf3c 38df cebd 94c7 e0bd eba3 d83d
000000d0: 48b1 893d 43b7 c43d 7a1f d83d 92cf 88bd
000000e0: 5ee2 0ebd 01fd 14bc ffe5 6d3d 26a0 a23c
000000f0: 4588 a2bb 2192 f23d 2f5b 63bd 63f1 5f3d
00000100: 475e 813d edb6 7bbd 6189 823d 0487 9e3d
00000110: 1880 27bc 74a5 9ebd 3131 783d 5afd c03d
00000120: 72fa 133d 60ce b4b8 5ca2 943d f573 c53c
00000130: ac35 55bd 92c4 b3bd 12ec 39bd 2977 e13c
00000140: 2f4f 44bd bd8c 003c 6f94 5bbd 0cbc cfbd
00000150: 9b1e c53d 513b 7abd d9e1 e93c 5996 e63d
00000160: 3da1 153d f55c 7a3d 10d4 c0bd 497b dabd
00000170: 4c4a 4fbd 1adb 57bd d423 a3bd 5ff6 6dbd
00000180: 3407 773d b2e3 f03d 3f7a c33d 38e2 693d
00000190: effd e7bd 8744 e9bc c73e 0c3d 2894 f83d
000001a0: 699d a0bd 7d5e b33d 1a8b c23d d48c fcbc
000001b0: aece d6bd 1971 8c3d 1804 973d e3e7 e6bd
000001c0: f42c dc3d 4db7 91bc 256d 9dbd 5b5f ef3a
000001d0: 5514 a83d 8480 5b3b fc6f debd 16dc 58bd
000001e0: 0f32 e93c b2de 703d 2e28 aa3d f527 513d
000001f0: b5e0 873d 2daf 12bd ce95 5f3d 88cc ab3c
00000200: 3dd0 dc3c 915e f63d 1284 69bd 745b 043e
00000210: b802 50bd 8f4d 8e3d 28d1 b3bc 8e7b 723d
00000220: fe4b 36bd a01d 493d 452d df3d 13cd 4cbc
00000230: 0cc4 463c 6684 5ebd f140 b63d 6132 903d
00000240: a1f2 e2bc 3710 1f3b 4e49 ee3d a80b 8a3d
00000250: 1183 dc3d 4ddf 86bd f2e8 53bd f171 ccbd
00000260: 747a cbbd 3cbe 5fbc 75f4 9d3c 6feb a4bd
00000270: e855 fabc f09f 4a3c fa54 f6bc 4b11 e4bd
00000280: 163e f13d 6fa3 2cbd 2927 c33c d7df f23c
00000290: 75e8 e4bd 480a 4bbc 58d8 c6bd f58a 9c3d
000002a0: 0708 dcbc 9a1b b53d 912f 88bb 7529 7abd
000002b0: 2067 4e3d 47dc bfbd 8f6d 41bd 5f2a 8ebc
000002c0: a7db 003e d86a debd f8f8 303d b6c1 f83d
000002d0: 7bde d1bc 9b52 79bd 9b88 b4bd 001e ebbc
000002e0: beab fe3d f799 c0bd 6fd4 023e 15ba b7bd
000002f0: 63ed e33d 67c0 5939 d446 0cbd 306d ccbd
00000300: 6925 8fbd d6ad aebd 329b d0bd a928 8dbc
00000310: 3f6e 9e3d bb8c f2bd c7f5 e43d d74c 123d
00000320: f0d2 9f3d b476 4b3c 28ae 6bbd ff4a 923d
00000330: e323 b13d 653b 653d abc8 313d 65fc 0f3e
00000340: 91c7 8a3c ed4b 20bd 7fba 6c3d 607b 65bd
00000350: 8e27 ca3d bd41 3c3c dee5 873d 5f95 273c
00000360: 3cd2 ca3d 78ef 9c3d a33d 673d 4dc2 4bbd
00000370: c53b 733c 23c4 d13d 008f c03d 9de9 7bbd
00000380: c2a6 b73d 4f7c b0bd 8bf4 b03d dd86 1abd
00000390: 3041 a5bd d617 e93d abfd 443c d4ed 88bd
000003a0: 52bb 793d 5313 a03d 88f0 34bc b902 9dbd
000003b0: 0bac 8fbd 9ed7 99bd f007 0d3d 21fc dcbd
000003c0: 7a81 9dbd 8ca2 ddbd d4cd e8bb 445a fc3d
000003d0: 945a d13c 945a 25bc bf24 863d 4a85 c5bd
000003e0: 4367 b5bc 738b a23d 225a eebd d54c 03be
000003f0: f8c3 78bd 8809 d4bd 9f8a 05bd 20ac ca3d

encoder.rnn.weight_hh_l1 f4 [192, 64]
0.024793029 -0.040867954 -0.08723762 -0.08831977 -0.06849739 0.10048165 0.089444175 0.12550478
-0.05462221 0.03009003 -0.077188775 -0.04026197 0.10145165 -0.094301276 -0.1092422 -0.006090429
0.01863597 0.09903953 0.04272358 0.02668069 0.13069189 0.108348764 -0.062409226 -0.112726614
-0.10638319 0.022690075 0.038380835 -0.031188464 0.09799431 0.019122247 0.015069585 -0.02461624
0.077091835 0.036177035 -0.096440695 -0.03942798 0.06198311 0.053626616 -0.03347214 0.1263952
0.10726151 -0.053681124 0.105767675 0.1009326 0.07739292 -0.033992004 0.052496105 -0.077549614
0.07408812 0.007708641 0.059112154 0.07340415 0.046877544 0.032834467 -0.06023826 -0.10257182
-0.10490299 -0.021895716 -0.11180109 -0.03500332 0.0006649015 -0.12584049 0.11005586 0.0081595145
0.084296346 -0.096595176 0.07740358 -0.08970125 0.02568601 0.11652321 0.10593264 -0.1040257
-0.061618093 -0.07051656 0.057152018 -0.09095113 0.07938896 -0.10848177 -0.046961386 0.0010554793
-0.075688794 -0.019353496 -0.10549367 -0.090334624 -0.15046264 0.046737958 -0.057231285 -0.039380852
0.055388972 0.058391713 0.072436035 0.053592835 0.121710055 -0.033274382 0.09416932 -0.07824786
-0.14359723 -0.0033960042 -0.055453446 -0.095262036 -0.055965733 -0.022595044 0.039539043 0.006464667
-0.022953527 0.097733 0.060630888 -0.04941966 -0.09951132 0.010114196 0.06106688 0.089260064
0.06760494 0.09025284 -0.0031610583 -0.07900779 0.087214895 0.017862821 0.062397942 -0.07551749
-0.12750201 0.07655126 -0.013334583 -0.053382233 0.13548021 0.08388361 0.087153375 0.091117434
-0.086003974 0.1129713 0.06389718 -0.10562582 -0.005394734 0.068653114 0.05109022 -0.070444055
-0.085039675 -0.09088904 0.07061943 -0.09968562 0.0042757546 -0.070703745 -0.055230744 0.10324487
-0.09648385 -0.0068792156 0.083804056 -0.066219285 -0.03407408 -0.02704049 0.12321949 0.041270107
0.07620526 -0.06837442 -0.12134457 0.0779466 0.08072364 0.08081518 0.048610035 0.03778999
0.041346606 -0.06203808 -0.04001417 0.11787857 0.011775692 0.0132232625 -0.08935749 0.108630836
-0.0016269311 0.013660563 0.019496834 0.09605532 0.10868745 0.12295736 -0.08266396 -0.039629262
-0.049189243 0.06701368 0.04401764 -0.122962184 -0.096116126 -0.03663407 -0.005050251 0.080263294
0.018282883 0.09148229 -0.10648367 0.10614047 0.117113076 0.062331796 0.0028203 0.1182757
-0.007540657 -0.018131563 -0.02249473 0.041209433 0.049460206 0.10907173 0.08359952 0.0513803
0.04161499 0.038272053 0.08703446 -0.039845448 0.08741034 -0.059261348 -0.053111974 0.05353547
-0.07373875 -0.055504423 0.04344726 -0.00010926247 0.07506446 -0.08465689 -0.09882671 0.016305877
0.041308153 0.015600462 -0.09191005 -0.08165814 0.037706185 0.025957398 0.078636795 -0.058191825
0.09205009 0.0051093646 0.039835714 -0.07197373 -0.022394666 -0.03946948 -0.09333531 0.0728788
0.033911135 -0.08382281 0.01837331 -0.03273495 -0.11581247 0.016831586 -0.013958153 0.083169736
-0.018594392 -0.08126965 -0.03466168 0.055466197 -0.09863471 0.017817082 -0.106209315 -0.0892323
-0.015617751 0.084736556 -0.048091102 -0.0812426 -0.056884605 -0.0751544 -0.0076011517 -0.1037037
00000000: c01a cb3c 2865 27bd a3a9 b2bd ffe0 b4bd
00000010: 5c48 8cbd 53c9 cd3d 822e b73d 5384 003e
00000020: 8abb 5fbd 5e7f f63c 2615 9ebd bce9 24bd
00000030: e2c5 cf3d 0721 c1bd 60ba dfbd 3992 c7bb
00000040: 76aa 983c 3dd5 ca3d ecfe 2e3d 7691 da3c
00000050: 18d4 053e f5e5 dd3d d1a0 7fbd 36dd e6bd
00000060: 6edf d9bd 89e0 b93c 3935 1d3d f37e ffbc
00000070: 3eb1 c83d 42a6 9c3c 6ce6 763c ffa7 c9bc
00000080: 53e2 9d3d 5f2e 143d b382 c5bd 3c7f 21bd
00000090: 00e2 7d3d 95a7 5b3d 151a 09bd be6d 013e
000000a0: ecab db3d bde0 5bbd b99c d83d c0b5 ce3d
000000b0: 2e80 9e3d 333b 0bbd 2806 573d 55d2 9ebd
000000c0: 83bb 973d c498 fc3b 961f 723d ea54 963d
000000d0: ab02 403d 6f7d 063d 65bc 76bd 2d11 d2bd
000000e0: 61d7 d6bd a55e b3bc f8f7 e4bd a45f 0fbd
000000f0: c94c 2e3a 54dc 00be f764 e13d 7caf 053c
00000100: 90a3 ac3d b1d3 c5bd c585 9e3d 4ab5 b7bd
00000110: 786b d23c b9a3 ee3d 36f3 d83d 6d0b d5bd
00000120: 4163 7cbd fc6a 90bd 3c18 6a3d 9644 babd
00000130: ae96 a23d b12b debd 955a 40bd 0258 8a3a
00000140: ba02 9bbd 398b 9ebc 110d d8bd 5c01 b9bd
00000150: e112 1abe 4d70 3f3d 5a6b 6abd d14d 21bd
00000160: 8cdf 623d 262c 6f3d 5859 943d 2984 5b3d
00000170: 1f43 f93d b84a 08bd d8db c03d 6a40 a0bd
00000180: 270b 13be 7f8f 5ebb 2723 63bd be18 c3bd
00000190: 533c 65bd 3e19 b9bc b1f3 213d 8fd5 d33b
000001a0: 0909 bcbc 3d28 c83d 1858 783d 456c 4abd
000001b0: 97cc cbbd 03b6 253c 4421 7a3d fbcd b63d
000001c0: 7574 8a3d 7bd6 b83d c229 4fbb d6ce a1bd
000001d0: b99d b23d 0d55 923c fc94 7f3d eaa8 9abd
000001e0: e38f 02be e8c6 9c3d 4b79 5abc 54a7 5abd
000001f0: 53bb 0a3e 2ccb ab3d 787d b23d c79b ba3d
00000200: da22 b0bd 7f5d e73d 86dc 823d 5a52 d8bd
00000210: 4fc6 b0bb 019a 8c3d fb43 513d f944 90bd
00000220: 4829 aebd 0824 babd eba0 903d f927 ccbd
00000230: a11b 8c3b 20cd 90bd a239 62bd 0c72 d33d
00000240: 5399 c5bd 0b6b e1bb 76a1 ab3d fa9d 87bd
00000250: 4391 0bbd 0584 ddbc 805a fc3d d80a 293d
00000260: 8111 9c3d e307 8cbd 8083 f8bd 78a2 9f3d
00000270: 7052 a53d 6e82 a53d 511b 473d adc9 1a3d
00000280: 0f5b 293d a41b 7ebd e6e5 23bd 526a f13d
00000290: d5ee 403c 62a6 583c 0f01 b7bd d879 de3d
000002a0: c03e d5ba 8ed0 5f3c d3b7 9f3c a7b8 c43d
000002b0: 8797 de3d 12d1 fb3d b94b a9bd 4b52 22bd
000002c0: a97a 49bd 783e 893d d74b 343d 99d3 fbbd
000002d0: 88d8 c4bd 9b0d 16bd 937c a5bb 1561 a43d
000002e0: fcc5 953c 115b bb3d 1c14 dabd 2d60 d93d
000002f0: fbd8 ef3d a04f 7f3d c8d4 383b 883a f23d
00000300: 9e17 f7bb a588 94bc de46 b8bc 39cb 283d
00000310: c996 4a3d 0061 df3d 3a36 ab3d 2674 523d
00000320: 7b74 2a3d 28c3 1c3d 1f3f b23d fb34 23bd
00000330: 3104 b33d 07bc 72bd f18b 59bd 0248 5b3d
00000340: 5704 97bd 9b58 63bd c1f5 313d d823 e5b8
00000350: 65bb 993d 9760 adbd a865 cabd e793 853c
00000360: bd32 293d 1599 7f3c 563b bcbd 623c a7bd
00000370: cd71 1a3d 9ca4 d43c 540c a13d 8d5a 6ebd
00000380: c284 bc3d 756c a73b c62a 233d f766 93bd
00000390: 0575 b7bc c0aa 21bd 9526 bfbd 7b41 953d
000003a0: 67e6 0a3d 4bab abbd a083 963c 1515 06bd
000003b0: 172f edbd 65e2 893c bdb0 64bc e554 aa3d
000003c0: 4453 98bc b470 a6bd 68f9 0dbd 8630 633d
000003d0: ff00 cabd 21f5 913c 4584 d9bd 6dbf b6bd
000003e0: 98e1 7fbc 5c8a ad3d 2dfb 44bd 8562 a6bd
000003f0: d5ff 68bd 8dea 99bd 1513 f9bb 9b62 d4bd

encoder.rnn.bias_ih_l1 f4 [192]
-0.014323499 -0.027851624 -0.012267431 0.00026278276 0.014829197 0.051242296 0.055130564 0.117835976
0.06783931 -0.0041450853 0.01544468 -0.030968288 0.11115972 0.026555879 -0.12382563 -0.012672838
-0.050037283 -0.06167992 0.06112902 0.027967552 0.09475302 -0.10630789 0.062783584 0.027527932
0.040611677 -0.06780023 0.05585859 0.010341611 -0.051997725 0.08166251 0.031042704 0.091768526
-0.0132902935 0.062239487 0.076181285 0.083528034 -0.041535813 0.101853624 0.04993312 -0.03832397
0.04120468 0.08861864 -0.051283892 0.065316066 -0.07506816 -0.059919976 0.044877674 0.005918868
0.12291117 -0.041679546 0.007439501 -0.018025892 -0.008989344 -0.071169086 0.022947205 0.030007787
0.02593489 -0.05544327 0.06736704 0.05408603 0.07016927 -0.036889564 0.024095763 0.06093909
-0.03524829 -0.03983467 -0.07741937 -0.14080554 0.010251351 -0.032293987 -0.30961293 0.048322238
-0.035474144 -0.05312237 -0.06721172 -0.17382076 -0.17209561 -0.14057994 0.080202796 -0.10629091
-0.03511883 -0.1516351 0.059767913 -0.0006659061 0.022582462 0.112579755 -0.0075114476 -0.026114598
-0.013750996 0.089209355 0.045320038 -0.055723153 -0.04853416 -0.10050662 0.0547777 0.04777261
-0.029869206 -0.007038336 0.10312848 0.068757355 -0.05587558 -0.05367198 0.025811044 0.036718227
0.067121744 -0.14555751 -0.032266617 0.03422885 -0.1017327 0.08056917 0.11884308 0.09454924
0.05874263 -0.07538925 -0.060547225 0.10000528 -0.030291785 -0.013337133 -0.34247875 -0.052554864
0.017335918 0.06386572 -0.05198898 -0.01070809 -0.12203083 -0.20459688 -0.124875955 0.00070069026
-0.08916974 0.015304658 -0.0060464274 -0.005004505 0.124842584 0.07951074 -0.106500946 -0.1259113
0.07180066 0.08314945 -0.09754218 0.037284218 0.027972423 0.054296497 0.02246245 0.09391137
0.0941196 0.055270184 0.109813735 0.03661084 -0.032918233 -0.012455829 0.05436447 -0.08445535
-0.047014974 -0.039573126 -0.008396391 -0.015585802 -0.10099461 0.051911265 0.044779748 0.08786182
0.015922124 0.0153483655 0.112790406 0.1353406 -0.102057196 0.0317628 -0.11800135 -0.102709174
0.067335896 -0.06372644 0.0023425748 -0.015814725 0.06484167 -0.038182124 -0.05145732 0.1151252
-0.07561172 -0.10144896 0.052821837 0.009115742 -0.11804366 0.09891899 -0.117705315 0.050176818
0.051340476 -0.06800338 0.02592316 0.033131488 -0.12873647 0.008146583 0.061674606 0.011419447
00000000: 1cad 6abc 1729 e4bc 56fd 48bc 1bc6 8939
00000010: 29f6 723c 71e3 513d 96d0 613d fd53 f13d
00000020: 56ef 8a3d 7fd3 87bb af0b 7d3c 35b1 fdbc
00000030: b5a7 e33d b78b d93c 4b98 fdbd bca1 4fbc
00000040: e5f3 4cbd 15a4 7cbd 6c62 7a3d 351c e53c
00000050: df0d c23d f3b7 d9bd ae94 803d 4282 e13c
00000060: 6e58 263d d9da 8abd facb 643d dc6f 293c
00000070: 91fb 54bd ad3e a73d 454d fe3c 23f1 bb3d
00000080: 88bf 59bc d5ee 7e3d ef04 9c3d bf10 ab3d
00000090: 7521 2abd a298 d03d ac86 4c3d 98f9 1cbd
000000a0: 3dc6 283d b17d b53d 0f0f 52bd 6ec4 853d
000000b0: 56bd 99bd a66e 75bd a7d1 373d 10f3 c13b
000000c0: dab8 fb3d 2cb8 2abd 0fc7 f33b 09ab 93bc
000000d0: 0b48 13bc 19c1 91bd c7fb bb3c e4d2 f53c
000000e0: 6875 d43c 7b18 63bd bbf7 893d 5089 5d3d
000000f0: e8b4 8f3d 8319 17bd 7a64 c53c 449b 793d
00000100: 8360 10bd ae29 23bd 0c8e 9ebd 542f 10be
00000110: 48f5 273c b346 04bd 9685 9ebe 8aed 453d
00000120: 564d 11bd d896 59bd 4ca6 89bd 12fe 31be
00000130: d539 30be 30f4 0fbe 5d41 a43d 0caf d9bd
00000140: c3d8 0fbd 3b46 1bbe 33cf 743d 3490 2eba
00000150: dbfe b83c 3790 e63d 9722 f6bb 48ee d5bc
00000160: dc4b 61bc 65b3 b63d 81a1 393d f63d 64bd
00000170: c1cb 46bd 6ad6 cdbd 955e 603d 36ad 433d
00000180: 44b0 f4bc d7a1 e6bb 0635 d33d a8d0 8c3d
00000190: cbdd 64bd 26d7 5bbd af71 d33c da65 163d
000001a0: 2077 893d 070d 15be 002a 04bd 8d33 0c3d
000001b0: 3c59 d0bd 7301 a53d 0064 f33d 08a3 c13d
000001c0: 1d9c 703d ae65 9abd 5e00 78bd 91cf cc3d
000001d0: 7a26 f8bc fe83 5abc 6059 afbe c543 57bd
000001e0: 0e04 8e3c 08cc 823d 66f2 54bd fc70 2fbc
000001f0: 4deb f9bd d881 51be f7be ffbd 87ae 373a
00000200: a09e b6bd 63c0 7a3c 1c21 c6bb d5fc a3bb
00000210: 78ad ff3d 87d6 a23d 2b1d dabd e4ee 00be
00000220: 390c 933d 424a aa3d 32c4 c7bd 56b7 183d
00000230: 6c26 e53c 0166 5e3d 2c03 b83c 9b54 c03d
00000240: c7c1 c03d fd62 623d 06e6 e03d 40f5 153d
00000250: 45d5 06bd 8913 4cbc 47ad 5e3d edf6 acbd
00000260: c692 40bd 6e17 22bd 0491 09bc 975b 7fbc
00000270: 43d6 cebd e8a0 543d f86a 373d e6f0 b33d
00000280: 1d6f 823c b677 7b3c a8fe e63d ba96 0a3e
00000290: 5d03 d1bd b619 023d b1aa f1bd 3059 d2bd
000002a0: 67e7 893d 0283 82bd e285 193b e28d 81bc
000002b0: b6cb 843d dc64 1cbd e9c4 52bd c3c6 eb3d
000002c0: 51da 9abd 79c4 cfbd b65b 583d 315a 153c
000002d0: e0c0 f1bd 0a96 ca3d 7c0f f1bd 3586 4d3d
000002e0: 644a 523d 5b45 8bbd cf5c d43c e2b4 073d
000002f0: 7ed3 03be 3f79 053c 839e 7c3d a218 3b3c

encoder.rnn.bias_hh_l1 f4 [192]
0.024420245 0.031800635 0.11646283 0.06260168 -0.0012957017 -0.059717562 0.0027194466 0.099052265
-0.094282426 0.08857023 0.040777564 -0.10893243 -0.026161434 -0.07811721 -0.1061095 0.07555229
-0.06093416 0.039530564 0.0976763 -0.0932829 0.008799238 -0.12356479 -0.04729887 0.083019294
-0.09870321 0.030795489 0.11048842 0.072997935 -0.07646733 -0.09765489 -0.03941822 0.04977562
0.043275326 -0.02881396 0.078907914 0.065279804 0.07533559 0.010348158 0.10936077 -0.11000435
0.025325393 0.10004401 -0.1132627 0.017432304 -0.08454631 0.012487493 -0.0019025453 -0.11649821
-0.060707968 -0.04666319 -0.009264152 -0.11270017 -0.027078735 -0.045939367 -0.13178632 -0.08070456
-0.084904216 0.0988907 0.010683556 -0.091209196 0.12906426 -0.048589975 -0.042924754 0.083604105
0.0012182813 0.04734062 -0.09447223 -0.07177478 0.07881564 -0.04597901 -0.16919029 0.10105236
-0.17063965 -0.022263473 -0.08775081 -0.015188786 -0.20864995 -0.027957091 -0.0369526 0.06664815
0.05674711 -0.036901046 0.012838357 -0.042735633 -0.12211307 -0.10200638 -0.1945428 0.014678535
-0.04361726 -0.103440106 0.0651965 -0.20953695 0.09699504 -0.11286777 -0.052533053 -0.023875326
-0.04403742 0.10973888 -0.021033803 0.0015709306 -0.008273937 -0.11465074 0.060694724 -0.09766189
-0.084689386 -0.013518272 -0.14312051 -0.0014919321 0.06817134 0.0032165847 -0.022018667 0.11316806
-0.09683631 -0.015628992 0.107133 0.035874445 0.025909789 -0.115714826 -0.21269847 -0.046516992
-0.099931605 0.08133528 0.060048856 0.040354095 0.011868554 -0.061364 -0.09306349 0.038696352
-0.004558045 -0.05660828 0.050470427 0.12144136 -0.016694026 -0.009222424 -0.0048043514 -0.1183053
-0.07987837 0.039419442 -0.124955006 0.0066274065 0.02755674 0.08158724 -0.04153697 -0.037081476
-0.027148979 -0.040382326 -0.0067787087 0.0019891565 0.11001702 -0.09846579 0.0016870671 0.08192611
-0.0049975356 -0.058989126 0.02352177 0.1061432 -0.08512909 0.06801015 -0.05998019 -0.0065603196
-0.11273075 -0.101416655 0.07577476 0.0029078443 -0.008385779 0.037971266 0.10470441 0.00500319
-0.10933672 0.09353189 -0.08876011 -0.0712043 0.005322193 -0.06119906 0.10463535 0.087297924
0.10282241 0.019338343 0.07428054 -0.07923183 -0.1253169 0.11648006 0.09597218 0.091404624
-0.0058860374 0.021640327 0.09428223 -0.09619776 -0.060381453 0.04172923 0.1100847 -0.07840389
00000000: f70c c83c 6241 023d 1084 ee3d 4f35 803d
00000010: 89d4 a9ba 679a 74bd be38 323b eadb ca3d
00000020: 2517 c1bd 4f64 b53d 6006 273d f717 dfbd
00000030: 8150 d6bc eafb 9fbd f04f d9bd 29bb 9a3d
00000040: 1996 79bd cdea 213d 830a c83d 1b0b bfbd
00000050: ae2a 103c 890f fdbd 76bc 41bd 0506 aa3d
00000060: e924 cabd d246 fc3c c147 e23d f17f 953d
00000070: e79a 9cbd 49ff c7bd 0075 21bd 85e1 4b3d
00000080: 7841 313d 410b ecbc 799a a13d 6bb1 853d
00000090: 8c49 9a3d 528b 293c 8af8 df3d f649 e1bd
000000a0: 3377 cf3c e0e3 cc3d 46f6 e7bd 31ce 8e3c
000000b0: 9e26 adbd 5898 4c3c d45e f9ba 9d96 eebd
000000c0: eba8 78bd e721 3fbd abc8 17bc 59cf e6bd
000000d0: 39d4 ddbc eb2a 3cbd fef2 06be 6f48 a5bd
000000e0: 43e2 adbd 3587 ca3d 150a 2f3c e3cb babd
000000f0: 6c29 043e 4806 47bd ded1 2fbd a138 ab3d
00000100: bdae 9f3a 3de8 413d a87a c1bd a8fe 92bd
00000110: 186a a13d 7d54 3cbd 3840 2dbe 8af4 ce3d
00000120: 29bc 2ebe e361 b6bc b2b6 b3bd 63da 78bc
00000130: 55a8 55be 4506 e5bc 9c5b 17bd d37e 883d
00000140: a86f 683d 8d25 17bd f957 523c 8f0b 2fbd
00000150: 6b16 fabd b9e8 d0bd 3a36 47be 3d7e 703c
00000160: 03a8 32bd 68d8 d3bd be85 853d db90 56be
00000170: 56a5 c63d 3827 e7bd e62c 57bd 3096 c3bc
00000180: 9560 34bd c7be e03d 154f acbc afe7 cd3a
00000190: 688f 07bc 02ce eabd 089b 783d f502 c8bd
000001a0: a171 adbd be7b 5dbc 2f8e 12be ef8c c3ba
000001b0: 6a9d 8b3d 56cd 523b 7e60 b4bc a8c4 e73d
000001c0: 1e52 c6bd 5f08 80bc 8c68 db3d 15f1 123d
000001d0: c440 d43c e5fb ecbd a1cd 59be 9a88 3ebd
000001e0: f1a8 ccbd 1c93 a63d caf5 753d 564a 253d
000001f0: 5374 423c d158 7bbd 1298 bebd 1180 1e3d
00000200: a75b 95bb 15de 67bd 14ba 4e3d 3fb6 f83d
00000210: e9c1 88bc a619 17bc d26d 9dbb 0d4a f2bd
00000220: 4597 a3bd 4876 213d 69e8 ffbd b72a d93b
00000230: acbe e13c 3617 a73d ab22 2abd bfe2 17bd
00000240: 8967 debc f067 25bd ee1f debb 825c 023b
00000250: 9a50 e13d 6fa8 c9bd 9420 dd3a e0c8 a73d
00000260: 5ec2 a3bb 959e 71bd bab0 c03c 9b61 d93d
00000270: 2958 aebd e848 8b3d caad 75bd f3f7 d6bb
00000280: 61df e6bd 89b3 cfbd cc2f 9b3d 8891 3e3b
00000290: 8264 09bc c287 1b3d 446f d63d cdf1 a33b
000002a0: eeeb dfbd a68d bf3d dcc7 b5bd 8fd3 91bd
000002b0: ca65 ae3b deab 7abd 0f4b d63d 41c9 b23d
000002c0: 8e94 d23d 726b 9e3c 6520 983d 4c44 a2bd
000002d0: 1353 00be 198d ee3d 108d c43d 5932 bb3d
000002e0: a9df c0bb 0e47 b13c 0b17 c13d 5503 c5bd
000002f0: 8b52 77bd 45ec 2a3d 1674 e13d 3892 a0bd

decoder.attn.v f4 [64]
0.009922332 0.093200766 -0.05548321 -0.11713864 -0.025278043 0.109014034 -0.06309412 -0.054028444
0.08682054 -0.030223541 0.061314624 -0.093989424 -0.075451225 0.07983655 -0.11162499 -0.016224774
-0.017793685 -0.14992185 0.032051347 -0.075835034 0.06759181 -0.100984 0.017406786 0.076582834
-0.07089704 -0.08082944 0.10019977 -0.060460754 -0.11802551 0.028414723 -0.012105335 0.025900355
-0.115167074 0.005384259 -0.041321766 0.05981515 0.08404784 -0.120516635 0.04174346 0.11191448
0.061146718 -0.07729164 0.062655725 -0.013023217 -0.09992673 -0.045908973 0.10064139 0.051783778
0.1742945 0.12301469 -0.10157802 0.12703362 0.0501444 0.042453986 -0.08411064 0.0042911135
-0.1162948 -0.017536523 -0.13336171 -0.010083956 0.022233522 -0.11196069 -0.064853154 0.09910631
00000000: 4791 223c 0be0 be3d 5d42 63bd 62e6 efbd
00000010: e613 cfbc c042 df3d 7d37 81bd ee4c 5dbd
00000020: f8ce b13d 5c97 f7bc 0b25 7b3d 877d c0bd
00000030: 2c86 9abd 5881 a33d a59b e4bd d1e9 84bc
00000040: 10c4 91bc 1d85 19be 4648 033d 664f 9bbd
00000050: 936d 8a3d b3d0 cebd ad98 8e3c 76d7 9c3d
00000060: 7832 91bd e889 a5bd 8935 cd3d b2a5 77bd
00000070: 5cb7 f1bd fec5 e83c 7455 46bc fb2c d43c
00000080: b7dc ebbd 706e b03b 0341 29bd bb00 753d
00000090: 4621 ac3d 6dd1 f6bd 31fb 2a3d 6b33 e53d
000000a0: fb74 7a3d 144b 9ebd a551 803d 555f 55bc
000000b0: 63a6 ccbd 0c0b 3cbd 131d ce3d 3a1b 543d
000000c0: 427a 323e 20ef fb3d 2308 d0bd 1a15 023e
000000d0: 3764 4d3d 3be4 2d3d 3342 acbd 789c 8c3b
000000e0: f82b eebd c1a8 8fbc f98f 08be 2d37 25bc
000000f0: 1323 b63c a54b e5bd bbd1 84bd 40f8 ca3d
