checkpoints/models/single_stock_daily/81to8/000001/model5.pth (torch, 541647 bytes, 20 tensors)

encoder.rnn.weight_ih_l0 f4 [192, 6]
00000000: abcc 3abd eb65 2e3c 1598 9f3d 939b cfbd
00000010: 016a 4cbd c917 24bd d261 82bd bc77 a3bb
00000020: 8ec5 b73d 0b7e d33c 12ff eabd 12ed f33d
00000030: c31f ce3d b9d3 193d 5cbb 733d c5a1 383d
00000040: 7206 ce3d 73a5 ebbd 0976 bfbd 56fe fdbc
00000050: 7e97 1ebd c8b4 c8bd 7713 0abe 4153 d5bd
00000060: 022f dabc f28e c43d 7e6f 923d c80c ce3c
00000070: 2439 b3bd 7907 81bd 0a6a 8b3c b924 c7bd
00000080: 6e22 823c 9c3a 3b3d d530 083e c406 a0bd
00000090: 592d 053e 1963 273d 2003 50bd 0eef 1b3e
000000a0: 4e7b 113e 6a54 b0bd 5879 9cbd dec9 6f3d
000000b0: 3afb 9fbd 37b6 ab3d 54a9 79bd 1811 80bc
000000c0: 466f 19bd ad91 023e 8cc4 06bd f0d4 7bbc
000000d0: 32fd ac3d d977 c9bd abd6 4abc 9f5e d7bd
000000e0: 72bd fcbd 6c05 17bd 9632 b73b 494a a43d
000000f0: 9766 f7bd f77b 15bd 4b49 033d df93 3e3d
00000100: 9b1e 943d 4920 c8bd e023 dfbc ffa3 123d
00000110: 67d0 bbbd 6fb5 903d 6633 e4bd ba2e 8b3d
00000120: b4ba b03d 07c1 703c 22dc c53d 2866 233e
00000130: 9a64 143e e6c8 b63d 2606 90bd 3234 093d
00000140: c1fe b83d 536a 9b3c d677 a33d d266 87bd
00000150: b111 b33d 75b4 0c3c 7920 c7bd f932 96bc
00000160: e39f fe3d 5c55 36bd 2044 753b 3020 3abc
00000170: 5c76 d0bc 0eec 7d3d 558a ee3d 1ea4 8fbc
00000180: f9f3 59bc 9e79 113b 93f6 c9bd 2ef9 90bd
00000190: c39f aa3a 0d10 dabd 06ea 533d 5f4f 043c
000001a0: 1ebb 31bc 85d7 9fbc 933d c03d 69d0 053e
000001b0: ff30 8f3d db60 8b3d c21e 5fbd 2baf 693d
000001c0: c4a4 a0bd d3eb 833d 94c7 b9bd c358 52bc
000001d0: d4fe 9e3d 7011 903d e790 c83d 1645 1b3d
000001e0: d11a 313d 565d ed3c 939e b13d 93c8 793d
000001f0: 209c 043d 96c7 58bd c7cc 62bd 3c56 41bc
00000200: d43e a63d b614 43bd bd29 5f3d 90fd d33d
00000210: f294 da3d fd42 babd 028c 163d 00be a93d
00000220: 9354 e6bd 1664 ae3d b8a5 97bd d6f8 9bbd
00000230: f6ef 16bd d961 01bd 8daa 15bd 7d93 0b3d
00000240: 6ac4 383d 1d76 2f3d c2c1 a43d 78fe adbd
00000250: d4e9 febd ca83 d8bd 0719 84bd 23e0 23bd
00000260: f8a4 963d a148 94bd 676a 96bd 7072 813d
00000270: e830 90bd 7fd9 be3c 734a c4bd 223f 413d
00000280: 7773 9f3d 1f62 e5bd c756 253d e74d 7fbd
00000290: 8f3a a83d a6a3 ec3d c247 d2bd 166c 963d
000002a0: 5b10 b43d ce00 d93d 8f06 b03d f39f 863c
000002b0: e254 51ba 3bba 913c da6f 88bd 9e00 0cbd
000002c0: bcff 63bc 01eb b8bd cee9 86bc d20c 19bd
000002d0: 7236 49bd 4667 2fbd 8b33 04be 89cb ea3d
000002e0: 55ac 693d e183 b73d b407 bbbd 61dd b3bd
000002f0: 109b 073e e795 7d3c 8a7c 673d 65e6 6d3d
00000300: 465e 2e3c 841d 27bb a9ee 993d ef18 cf3d
00000310: 74a5 0abd 6410 c6bd 108e 78bd f24e b03d
00000320: 7638 ca3b 19d5 d23d 0ccd 43bd 1e48 d0bd
00000330: 90cf 1f3d ab50 3abd f228 88bd 9d0d b03d
00000340: bd73 893c 286d fabb 381c 053e d623 be3d
00000350: a1bc f5bd 1a09 07be c6ec a1bd 26eb 98bd
00000360: 083e 85bd 5e82 ad3d c4bb a9bd b790 eb3d
00000370: 7304 213d a6c6 103b 2a65 923c e340 8b3c
00000380: 11d9 f93c 31e1 e3bd 0847 40bc e8c8 863d
00000390: 807c 083e 93ae 99bb b126 b3bd 3739 743d
000003a0: 5802 e7bd 8d8e 183e ecb6 8e3d abdc 323d
000003b0: 1587 593b c4f1 9e3d ba94 82bd 2861 eebd
000003c0: 921b 73bd 7baf df3d c3c6 32bd 2726 a8bd
000003d0: b946 383d 1657 b1bd 6805 57bc 163c 95bd
000003e0: bda9 123d 77a4 48bc 4ff6 c83c cff6 403d
000003f0: ba84 78bd dd72 233c 4ebb c1bc 99cc 243e
-0.045605343 0.010644416 0.07792679 -0.10137095 -0.04990578 -0.040061746 -0.06366314 -0.0049886387
0.089732274 0.025816938 -0.11474432 0.11910452 0.10064652 0.03755543 0.05950485 0.04507615
0.10059823 -0.11506166 -0.09348685 -0.031005066 -0.038718693 -0.09800106 -0.13483988 -0.1041627
-0.026633743 0.09597577 0.07150172 0.025152579 -0.08751133 -0.063002534 0.017018337 -0.09723801
0.015885558 0.04571019 0.13299878 -0.078137904 0.1300558 0.04086599 -0.05078423 0.15227911
0.14207193 -0.08609851 -0.07640332 0.058542125 -0.078115895 0.08384364 -0.0609525 -0.015633151
-0.037459634 0.12750883 -0.032902285 -0.0153705925 0.08446731 -0.09837312 -0.012380282 -0.105160944
-0.12340821 -0.036870405 0.005590747 0.08021981 -0.12080114 -0.036495175 0.03205232 0.04652774
0.072324 -0.09771783 -0.027238786 0.03580093 -0.09170609 0.07065856 -0.11142616 0.06796022
0.08629361 0.014694459 0.096611276 0.15956938 0.14491501 0.08925037 -0.07032423 0.033497043
0.090329655 0.018971598 0.07981841 -0.06611408 0.08743609 0.008587946 -0.097229905 -0.018334853
0.1243284 -0.044515 0.003742464 -0.011360213 -0.025447063 0.061992697 0.116474785 -0.017534312
-0.0133027965 0.0022197734 -0.098614834 -0.07078777 0.0013017583 -0.10647593 0.051736854 0.008075564
-0.010847835 -0.019511947 0.09386744 0.13067783 0.06991767 0.06805583 -0.054472692 0.05705182
-0.078439265 0.06441464 -0.0907127 -0.012838545 0.07763448 0.07034576 0.09793263 0.037907682
0.043238465 0.02897517 0.08672824 0.060982298 0.032375455 -0.052924715 -0.055371072 -0.011800345
0.08117452 -0.047627173 0.054483164 0.103510976 0.1067294 -0.09094808 0.036754616 0.08288193
-0.112466 0.08515184 -0.07404655 -0.07615821 -0.03684994 -0.031587455 -0.036539603 0.034076203
0.04510919 0.04283725 0.08044769 -0.08495802 -0.12446943 -0.10572012 -0.06450086 -0.040008675
0.07355684 -0.07240415 -0.073445134 0.06320655 -0.07040578 0.02329707 -0.095845126 0.04717935
0.07785695 -0.11200356 0.04036596 -0.062330153 0.08214294 0.11554651 -0.10267593 0.073448345
0.08792182 0.105958566 0.08595001 0.016433692 -0.0007985366 0.017788997 -0.06661959 -0.034180276
-0.013915952 -0.090291984 -0.016468909 -0.037365742 -0.04912419 -0.0428231 -0.12910287 0.114646025
0.057049114 0.08960701 -0.09132329 -0.08782459 0.13242745 0.015477634 0.056515254 0.05808105
0.010642594 -0.002549977 0.07516224 0.101121776 -0.033849195 -0.09671095 -0.060682356 0.086088076
0.0061712814 0.102945514 -0.04780297 -0.10170005 0.039016306 -0.045487087 -0.06648435 0.085963465
0.016778821 -0.007642407 0.12999046 0.09284179 -0.11998869 -0.13187066 -0.07906489 -0.07466726
-0.06505972 0.08472131 -0.082877666 0.115022115 0.039310884 0.002209106 0.017870504 0.016998714
0.030499013 -0.11126936 -0.011735685 0.065812886 0.13328743 -0.0046900003 -0.08747614 0.059624877
-0.11279744 0.14898129 0.06968483 0.043667477 0.0033192087 0.07760957 -0.063760236 -0.11639625
-0.059352465 0.10922142 -0.043646585 -0.08210402 0.04498932 -0.086591884 -0.013123848 -0.07286851
0.035806406 -0.012246243 0.024531512 0.047110375 -0.060673453 0.009976116 -0.023648884 0.16093673

encoder.rnn.weight_hh_l0 f4 [192, 64]
00000000: 57be 333d ad74 46bd 9d37 bcbd ebf7 3dbd
00000010: 37f5 cebd b5b5 09be 9d90 0c3d 3a48 1ebd
00000020: 22b2 d0bd 248e bc3d 5683 a73d ecf2 f33d
00000030: 743e 993c 95db 803b d058 6e3d 15e0 a6bd
00000040: da28 d6bb 0af4 f83d c7a8 a23d 6f33 b23c
00000050: 94ab 70bc 34a0 0a3d 493b 163d fb9c 03bd
00000060: 739a a23d 5fae f43d ed90 40bd 1b01 d63d
00000070: 14a5 11bd a3f9 313d 4fae ca3d 9e2b b5bd
00000080: 0002 8c3d e3cc afba fc45 a5bd 78a4 80bc
00000090: dca0 f23d d843 ac3d 0df0 5abd 7fbb 9c3d
000000a0: 8bf4 7a3d 0683 c43d 5682 b13d b8f2 f0bc
000000b0: d24c ae3d 258c b7bc 174c b73b 50a0 813c
000000c0: 90b5 e2bb 803f 683b 3f35 07be f070 b43c
000000d0: 0689 cb3d ab1a 133d 074d e0bd 1977 de3b
000000e0: f839 083b 5dfe 393c e421 edbd 2275 a13c
000000f0: da56 bcbd a022 ba3c 98b7 8b3d 608c d33d
00000100: fd52 39bc fef5 ce3d c8c9 86bc d9c8 75bd
00000110: 6c48 833d 3771 d6bb e885 d6bd d22d 8c3d
00000120: 321d e73d 92ba 963d 7c80 0dbc 9fe3 e0bd
00000130: a5f9 f13d e696 7abd b225 9e3c e07c cdbd
00000140: cbb0 a93d f6a8 153d 286f 033e 2c0b 5b3d
00000150: caee e0bd abc6 dd3d d3f2 debd 71a3 93bd
00000160: 062f 9b3d 308f 9bbd 1165 1d3d 774b 473b
00000170: 3d72 993c 2d0b 96bd bd26 9c3d 630a d73b
00000180: a52c 6b3d 036b cf3c 7442 58bd 5d4d 59bd
00000190: 288f 963d d657 f0bd 45d8 53bd 63c4 00be
000001a0: 2781 82bd e51f cd3c e477 28bd 82c6 0b3d
000001b0: a30f d03d 1029 153d fd8c 023e f72c e8bb
000001c0: f9ec 033e c7bd 3b3c effa 933b 2d89 d93c
000001d0: e37a babd 0d5b db3d a584 d63d fba1 f1bd
000001e0: d2ef 7dbd d53e b13d e294 253d 8ea2 0fbd
000001f0: fd69 6abd 8776 1bbd 417a 0abd fc14 e03d
00000200: 18f9 9bbd 8834 803c 62d0 0f3d aade 7ebd
00000210: f5cf d8bb 1976 b5bc 9fd7 c23d 114e ba3d
00000220: c4e8 cabb 685a 9ebd e73f 93bd e10a 5cbd
00000230: e5cd da3d f3a3 d13d efcc d23c 8a6c f9bd
00000240: d408 2d3d 858e d4bc bc3d 8f3d 49c8 883d
00000250: 9321 d73d 8a88 243c 36ba 0a3c fe61 713a
00000260: 2e08 ba3d e217 c23d 4cfe 643d 2b8a c2bc
00000270: 985a 14bd f355 eb3d b604 86bd 14a8 d83c
00000280: 0ea4 213d ba4d 833d 2b50 9bbd 0325 88bc
00000290: 95ba 94bb f4ed 5fbc 0375 dcbd a01c 5f3d
000002a0: 96cd c6bd be22 00bd 18ba 323d 9137 cb3d
000002b0: f0df a5bc 952c 8ebd ffba 60bd f194 c8b9
000002c0: fc45 8cbd a103 f13c f268 6f3d 6ab8 ef3d
000002d0: 7908 d93d ef87 f7bc 3e64 593d 2281 8d3c
000002e0: 7aed 7a3d 7369 68bd 28fc ef3d 9c0d 9f3a
000002f0: 3f6f 9d3d f01c be3d 92e1 b8bc d775 c33d
00000300: 6b52 82bc 9476 973d de45 0dbd 26d1 dcbd
00000310: 20a8 72bc 8137 4f3d a8b6 a73d 9684 dfbd
00000320: 6017 b5bd 0950 843d 3c99 67bd c3c3 30bc
00000330: c193 aabd 9afb 64bb 293d 38bd 9ce5 523c
00000340: 9e64 6a3d c6dd 193c 74bf a8bd bd31 9f3d
00000350: 510b f63d ce88 c3bd bace b13d e3df c3bd
00000360: 16ec 8e3d b077 d1bc 555e 44bc 83e1 96bd
00000370: 32cd e93d c2b5 683b 1846 a8bc 68a5 433c
00000380: 664d d43d 906b e83d 9c4d 5dbd f816 f8bd
00000390: 941d d0bd 075b a2bd c6ee f0bd 57bd 40bd
000003a0: 1d5e 45bd 1656 823c 26fa 693d 10be 853d
000003b0: 915c 8bbd 243d 97bd 86ca 23bd 9cdf debd
000003c0: 183c bb3c 62e0 dfbd 9577 213c e5a4 03bd
000003d0: 36ac a2bd a770 2ebd 09fa 1b3d bddc 98bc
000003e0: 04c9 ffbd 12d7 e73d 6af5 c8bc c884 e93c
000003f0: 47f5 de3d ed11 3e3d f037 cabd 416f bf3d
0.043882694 -0.048451114 -0.09190295 -0.04637901 -0.10105365 -0.13448222 0.0343176 -0.0386431
-0.10190226 0.09206799 0.08179347 0.11911568 0.018706538 0.003932426 0.058190167 -0.08148209
-0.0065356316 0.12155922 0.07942348 0.021753041 -0.014689345 0.033844188 0.036677632 -0.03213213
0.07939615 0.11947321 -0.047013212 0.104494296 -0.03555782 0.043450963 0.09896528 -0.0884621
0.06836319 -0.0013412501 -0.08069989 -0.015703425 0.11847088 0.08411378 -0.053451587 0.076529495
0.06126837 0.09595303 0.08667438 -0.029412612 0.08510746 -0.022405693 0.0055937874 0.015823513
-0.0069186166 0.003543824 -0.13203906 0.022026509 0.099382445 0.035914104 -0.10952192 0.0067891
0.0020786505 0.011352149 -0.1157873 0.019709174 -0.09196253 0.022721589 0.06822127 0.10329509
-0.01131129 0.10105513 -0.016453639 -0.060005996 0.06410298 -0.006544258 -0.10474759 0.06844677
0.112848654 0.07359804 -0.00863659 -0.10980915 0.11815194 -0.061179064 0.019305084 -0.10033584
0.08285674 0.036538087 0.12835371 0.05347745 -0.109830454 0.108289085 -0.10886159 -0.07208908
0.075773284 -0.0759567 0.038426463 0.003040997 0.01873123 -0.0732635 0.07624576 0.0065625175
0.057415623 0.025319582 -0.05279775 -0.053052295 0.07351524 -0.117355034 -0.051719923 -0.12574916
-0.0637229 0.025039623 -0.04112996 0.03412486 0.101592325 0.036416113 0.12749095 -0.0070854384
0.12883367 0.011458821 0.0045159976 0.026554668 -0.0910547 0.10710726 0.10474519 -0.117984734
-0.06199629 0.086545624 0.04042519 -0.035067134 -0.057229985 -0.037954833 -0.033807997 0.109415025
-0.0761587 0.015650049 0.03511084 -0.062224068 -0.0066165873 -0.02215104 0.09513783 0.09096921
-0.0061922986 -0.077320874 -0.07189923 -0.053721312 0.106838025 0.10236349 0.025732486 -0.12178905
0.042244747 -0.025946865 0.06994197 0.06678826 0.10504451 0.010042319 0.008467248 0.00092080224
0.090835914 0.094772115 0.05590658 -0.023747524 -0.03621921 0.11491003 -0.06543867 0.026447333
0.039463095 0.064113095 -0.0758365 -0.016619211 -0.004538844 -0.013667572 -0.10764506 0.05447066
-0.09707181 -0.031283133 0.043634504 0.09922708 -0.020248383 -0.06942097 -0.054865833 -0.00038257943
-0.06849286 0.029420676 0.058449693 0.11705096 0.10597319 -0.030216185 0.053074114 0.01727349
0.06126163 -0.05674119 0.11718017 0.0012134793 0.07687234 0.09282863 -0.022568498 0.095439605
-0.01590844 0.07395664 -0.03449046 -0.107820794 -0.014810592 0.050590042 0.08189136 -0.10913961
-0.08842349 0.06460578 -0.05654262 -0.010788861 -0.08328963 -0.0034940005 -0.044980202 0.012872126
0.057224862 0.009391254 -0.08239642 0.07773159 0.12013877 -0.09547578 0.08682008 -0.095641874
0.069786236 -0.025569767 -0.011985381 -0.07367232 0.11416091 0.0035508727 -0.020541236 0.011941291
0.10366325 0.11348641 -0.054029092 -0.12113756 -0.101618916 -0.07927518 -0.117642924 -0.04705557
-0.048185457 0.01591019 0.057123326 0.06530392 -0.06804765 -0.073847085 -0.039988063 -0.10882494
0.022855803 -0.109314695 0.009855171 -0.032139678 -0.07943003 -0.042587902 0.03808025 -0.018659944
-0.124895126 0.11320318 -0.024531085 0.028505698 0.10886627 0.046403814 -0.098739505 0.09347392

encoder.rnn.bias_ih_l0 f4 [192]
00000000: 137f 3cbd 1213 0938 aa17 44bd d24c eebd
00000010: e1c9 f63a a05c 23bd 0002 7ebd 5b5b e2bd
00000020: 17f9 1dbd 4ac9 e83a 4469 cdbd 4cc7 c43c
00000030: fc8f f03a db68 5a3d 96b1 553d 26fc 31ba
00000040: d6e2 ffbd 43b0 1cbd 75c4 c4bd e0e0 0c3c
00000050: b960 fdbd 7d5b cdbd 2e73 973d 6d74 6cbd
00000060: 240f e63c b10a e03d 0a81 b5bd 9f29 ebbd
00000070: de0e bfbd 203b 8a3d c0a6 de3d abf9 1e3d
00000080: 85bd b7bd 8d36 79bd c1ab 54bd 5c3b e8bd
00000090: c275 523d e6df b53d b5a2 e13d 30f7 f6bd
000000a0: 6ca8 5c3d 2f14 ffbc 6e23 d9bd 9215 a63d
000000b0: eef9 893d 2e3d a4bb 4818 2f3c 2ffa a5bd
000000c0: c7ee 9c3d bb93 32bd 62ae 6abb 3e13 c83d
000000d0: 2335 b4bd 56bb ef3d 0d92 993d 8c1f 91bd
000000e0: 37a4 9dbd baea d1bd 50fb ae3d f5f5 0f3c
000000f0: 7016 b8bc 58d6 b93d 0f6e 96bc b61b 733d
00000100: 9028 463c 7a9f 013d ff4e 88bd 3858 4bbe
00000110: 46bf 18be 2e77 373d 11a5 803c 3923 d93d
00000120: 17df c33c 4776 2cbd 69fc b2bd 39db 41be
00000130: b3e5 0dbe c395 19be e37b 05be 1fb2 9ebe
00000140: a0c3 26bd e0cd 8dbd bbf1 adbd 05de c3bc
00000150: 82d3 9cba 87a6 1d3e fedd 943d 1810 d0bd
00000160: 8e97 9ebd d266 b93b 54ad 47bd 1043 933d
00000170: 3106 e03d f6d8 3fbe 59df c53d 3ea1 82be
00000180: 679a 9bbd 52ce 23be 5e60 aa3c 5525 b7bd
00000190: 46fc dfbd 80b6 923d 391a 8abd 84ee f23c
000001a0: b468 50bc df30 893c 1deb 4ebe 2055 a6bd
000001b0: 5ea9 d13d 0ffd 583d deae 07bb 9247 e8bd
000001c0: 4ddf a53d 8c7a 9ebd 89f6 0c3e d30d 0a3e
000001d0: 9b8a 963b 2c3e 263d d86f c7bd 869b 04be
000001e0: 7193 97bd a939 a2bd f469 9bbd 3777 9e3d
000001f0: e03a 92bd a97a f43c 29a5 03bd 8159 f2bc
00000200: 0d29 8bbd 7c4e ac3b 6246 193d 8cd1 72bd
00000210: 2cee 88bd 5434 563c e311 6dbd ab21 083e
00000220: da0b db3c 5484 43bd a1c4 ef3c df36 43bd
00000230: d71c 73bc 88f1 f73c f5c2 4e3d 565e 853c
00000240: 2901 cb3b bc5e 3cbd ffcf f2bd 4d40 c13d
00000250: 5092 c5bc a404 f2bd 646e b73d a53d c43d
00000260: 40bd ddbc 7fb4 c93b b76e 9bbd 6fd0 a53d
00000270: aaed ddbd 98ea b43d b370 193d 0490 e13d
00000280: b118 83bd 03c6 8dbc fdd3 12bb 0fee 6c3d
00000290: 669e 0f3d 0151 ae3c 8faf f33d 09e5 e33c
000002a0: 30c3 89bd 37cd 87bd 411d 9b3d f4ab ea3d
000002b0: b542 ddbd a8d0 dabd 4e72 cebd 2e8f c73d
000002c0: c923 9dbd 8103 873d ef97 23bd 6617 8e3d
000002d0: 1e9d 2ab9 aa68 31bd d235 c53d 6be4 ee3d
000002e0: 764e 4bbd 0ad5 b33d a9e7 bcbd 1d72 b5bd
000002f0: 1594 bc3b 4f19 cf3d d6f0 4f3c a724 b83d
-0.046019625 3.2681106e-05 -0.04787413 -0.11635746 0.0018828475 -0.039883256 -0.062013626 -0.11052581
-0.03856763 0.0017760184 -0.100298434 0.024020813 0.0018353458 0.053322654 0.052171312 -0.0006789587
-0.124944374 -0.038254034 -0.09607784 0.008598536 -0.12371964 -0.10027216 0.07395016 -0.05772822
0.028083391 0.10939539 -0.08862503 -0.11482548 -0.093290076 0.067495584 0.10871649 0.03881232
-0.08971695 -0.06084304 -0.05192161 -0.11339447 0.051381834 0.08880596 0.11017362 -0.12058866
0.053871557 -0.031137554 -0.10602461 0.08109583 0.067371234 -0.005012176 0.010686941 -0.08104359
0.07662731 -0.043597918 -0.0035809507 0.09769295 -0.087991975 0.11705653 0.0749856 -0.07086095
-0.07697337 -0.10249849 0.08544028 0.008786668 -0.022471637 0.09074086 -0.018363027 0.0593526
0.012094632 0.03164623 -0.06655692 -0.19857872 -0.14916715 0.044791393 0.01570371 0.10602421
0.023910088 -0.042104986 -0.0873955 -0.18931283 -0.13857155 -0.14998536 -0.1303554 -0.3099527
-0.040713906 -0.06924033 -0.08493372 -0.023909578 -0.001196489 0.15395556 0.07268904 -0.1015932
-0.077437505 0.005658009 -0.048749283 0.071905255 0.10938681 -0.18735108 0.09661741 -0.25513643
-0.07597809 -0.15996674 0.020797905 -0.089426674 -0.10936789 0.07163715 -0.06743283 0.029654749
-0.012720276 0.016746936 -0.20206876 -0.08121705 0.10237382 0.05297571 -0.0020703594 -0.11341776
0.08099232 -0.07738218 0.1376592 0.13481836 0.00459416 0.040586635 -0.097381294 -0.12949952
-0.07401169 -0.07921154 -0.07588568 0.07737582 -0.07140136 0.029843645 -0.03213993 -0.029583694
-0.06794939 0.0052583795 0.037420638 -0.05928187 -0.06686053 0.013073999 -0.057878386 0.13294093
0.02673905 -0.04773362 0.029268565 -0.04765975 -0.014838419 0.030266538 0.050478894 0.016280334
0.0061952067 -0.045988783 -0.11856078 0.094360925 -0.024117619 -0.118172914 0.08956602 0.0958207
-0.02706778 0.00615555 -0.075894766 0.08096396 -0.108363464 0.08833808 0.037460994 0.11013797
-0.06401194 -0.017306333 -0.0022404187 0.057844218 0.03506317 0.02127886 0.118987195 0.027819173
-0.06726682 -0.066309385 0.07573939 0.11458579 -0.10803739 -0.10684329 -0.10080396 0.09744106
-0.07672841 0.06592465 -0.039939817 0.06938057 -0.00016270994 -0.043312706 0.09629406 0.11664661
-0.049635373 0.08780868 -0.09223873 -0.08859656 0.0057549574 0.10112249 0.012691697 0.08991366

encoder.rnn.bias_hh_l0 f4 [192]
00000000: 7695 a13d d1a2 8c3d 1b8f 323d 8a5d 0bbe
00000010: 3022 d3bd 63ab c8bd 0b0a 083d 974b 793c
00000020: 7e6f 8a3c 246a 03be ce65 043d 6fb2 90bd
00000030: bae3 a3bd 7d10 f83c c346 dcbb 2066 8ebd
00000040: bc21 41bb ad4a 343d e3c3 e6bd 664b d7bb
00000050: 3a8c c23d 77d5 db3d 4a07 4dbd 1298 2abd
00000060: 0334 8ebd 7a1a b9bd 570c 51bd d40b a43d
00000070: 1409 bb3d e32b 02bd 7d9f 323c 225d 81bd
00000080: 64de 87bc 14b0 b33d b0f2 9f3d c916 73bc
00000090: 53bd c8bd ba6d 12bc 140a 61bd 758e bc3c
000000a0: c2b0 f83d ae6e 8bbb 88ad 3bbc 2ccd 69bc
000000b0: a043 8bbb 740a 003d 72a4 c13a 66e1 eabd
000000c0: 7964 ed3d 7f42 9ebd e1c0 f33d c31a 6bbc
000000d0: 25e6 acbc 74a5 733d 6ea6 2fbd 2328 e93b
000000e0: e2a9 21bd 9b1f abbd 66d4 b23d 1d26 c43d
000000f0: 6d5f 563d 3e8e f13d ba77 8e3d 87b4 ef3d
00000100: d355 20bd b71e 0b3e cb66 063d 611f ecbd
00000110: 65d6 6c3d d7a0 19be 925d d1bd 052f 97bd
00000120: 66ac b13d 7b9d ebbc d4e2 013d e30e bb3c
00000130: b5f2 cdbc 32f0 e7bd 423c bebd d661 13be
00000140: 1124 7ebb 1d99 64bd fb87 bbbd 688d 27bc
00000150: 800e b73d 34fa 703d cb10 c13c b9f8 4cbd
00000160: 9a4c 2a3c 5c83 8bbd 8379 f03d 7a27 bebd
00000170: 6dd1 593d 29f0 01bc fc31 4bbc 8501 9abe
00000180: 8af1 033d 4816 23bc 2fc0 07bd b734 d53d
00000190: a7f7 863c c79a a23d 6229 e03d ed8c 05be
000001a0: 3edd 963c aeca 00be d1c9 15be 022d 203d
000001b0: 34bc df3d ecf9 02be 2521 7c3d f0f3 a13d
000001c0: 56c4 8c3d 023c 4cbd 28c1 8cbd c3e6 2abb
000001d0: 5bf9 d73d a289 de3d 4a15 81bc 70f3 4cbe
000001e0: ed0d c2bd 636e ecbd caff 16bd 99cc 463d
000001f0: 0b6e 51ba 8e7a b3bd 078f b3bd be11 13bd
00000200: ce90 cdbd a3e0 e23d 8e2f 373d 308e 7c3d
00000210: 22d3 5c3d a30a ac3d 9fd2 e63d 8fd0 40bd
00000220: da60 f03c bf0a 8d3d 5015 febd 015b a03d
00000230: 0703 febd c5bf adbd 404c 95bd 65dd b5bd
00000240: 0c42 abbd 5049 a43d b27e ecbd c091 73bd
00000250: 4c0c e4bd 06a2 41bd da37 3fbb 260b 1a3d
00000260: 25dc 7cbd 2d07 d63c f387 8f3d ec68 d23d
00000270: 0e88 ebbc e0e1 b9bd 9ecc 923d 73a3 28bd
00000280: 5f30 f2bd 1b45 65bd a0a7 a8bc 84a7 223d
00000290: 9448 c73d 44af 943d edf0 72bd 5a79 c73d
000002a0: 3973 563d c6d0 d23c 09a7 b4bd 44b6 bfbc
000002b0: c07c 4f3d 26d4 2abd a2dd 543d 2946 723d
000002c0: 9422 b4bd 23a9 c63d 3ecb b73c fc91 62bc
000002d0: 9677 92bb 56ff 5bbc 4edf ccbb 8104 3fbd
000002e0: 3958 a33c 9abb 11bd e165 e33d 1ec3 13bd
000002f0: 8f7d e3bd 0d42 f53d bacc a43d 5350 bcbd
0.078898355 0.06866992 0.043593507 -0.13609901 -0.10309255 -0.097983144 0.033212703 0.015215776
0.016898867 -0.12833458 0.03232365 -0.070652835 -0.0800242 0.0302813 -0.0067223026 -0.069530725
-0.002946957 0.04401653 -0.11267831 -0.0065702675 0.09499402 0.107340746 -0.05005578 -0.04164893
-0.06943514 -0.09038253 -0.05103716 0.080100685 0.09132591 -0.031780135 0.010902283 -0.06316592
-0.016585536 0.087738186 0.07809961 -0.014836975 -0.09801736 -0.008937294 -0.054941252 0.023017148
0.12143089 -0.0042551374 -0.011454947 -0.014270108 -0.004250005 0.03125997 0.001477374 -0.114687726
0.11591429 -0.07727527 0.11902023 -0.014349642 -0.021105835 0.05948396 -0.04288333 0.0071153804
-0.039468654 -0.08355638 0.08731918 0.09577582 0.0523371 0.11794709 0.0695643 0.11704355
-0.03914435 0.13585936 0.032812875 -0.115294226 0.05782165 -0.15002762 -0.10222925 -0.07382015
0.086754605 -0.028761616 0.03171046 0.022834247 -0.025140146 -0.113251105 -0.09288837 -0.1439279
-0.0038778821 -0.055810083 -0.091567956 -0.010226585 0.089383125 0.058832362 0.023567578 -0.050041888
0.01039424 -0.06812164 0.117419265 -0.09284873 0.05317824 -0.007930794 -0.012402054 -0.30079284
0.03221277 -0.009954043 -0.033142265 0.10410445 0.016475512 0.07939678 0.10945393 -0.1304204
0.018416043 -0.12577316 -0.14627768 0.039105423 0.10924569 -0.1279065 0.061555047 0.079078555
0.068733856 -0.049861915 -0.06872779 -0.0026077486 0.10545608 0.10866095 -0.015757222 -0.20014739
-0.094753124 -0.11544492 -0.036865033 0.048534963 -0.0007989115 -0.0876361 -0.08767515 -0.035905592
-0.10037385 0.11078002 0.044723086 0.061659038 0.05391229 0.08400466 0.112706415 -0.047073897
0.029343057 0.06886815 -0.12406409 0.078298576 -0.12402921 -0.08483843 -0.07289934 -0.08880118
-0.08362207 0.08021796 -0.11547603 -0.05946517 -0.11135158 -0.04727366 -0.0029177577 0.03760829
-0.061733384 0.026126469 0.07008352 0.102739185 -0.0287514 -0.09076285 0.07167934 -0.041171502
-0.11825632 -0.055974107 -0.020587742 0.039710537 0.0973064 0.07259992 -0.059311796 0.09739943
0.05235598 0.025734317 -0.08820922 -0.02340234 0.05065608 -0.041706227 0.051969178 0.05914894
-0.08795658 0.09700229 0.02243578 -0.013828751 -0.004469822 -0.013427576 -0.006252206 -0.046635155
0.019939529 -0.0355793 0.11103416 -0.03607475 -0.11107933 0.11975489 0.08046861 -0.09195008

encoder.rnn.weight_ih_l1 f4 [192, 64]
00000000: 8c08 d43d 0794 e1bd b627 8abd 37a4 44bd
00000010: 3e58 b53c 98bf a23c 8a25 5bbd fab7 61bd
00000020: fc74 90bd 39f4 c83d b099 843d a15d 143c
00000030: 2a42 773c f2fe ba3b adb4 debc b667 70bd
00000040: bd45 ef3d 6920 f5bc bc02 95bd 1556 89bc
00000050: 1706 343d b06c d0bd 5f17 f53c e135 77bc
00000060: 14be 58bd c40e 643c c9f3 bb3c 390d 04be
00000070: 91e2 833d 4436 3b3d c7bf a6bd da01 133d
00000080: 938f 69bd a03b ba3d 724c 55bd 4299 153d
00000090: 78a2 193d d677 2dbc 8e33 93bd bfda 373d
000000a0: d9e4 3b3d ae66 60bd 9dea acbc ca9e 413d
000000b0: 5950 d1bd e589 be3c 9640 e33c f139 00be
000000c0: 33ad b43c 5e28 d0bd 999f debd f8e3 d83d
000000d0: 3f01 8a3d 97fa bb3d 1382 da3d 7c54 8abd
000000e0: 2e1c 16bd 60d3 fbbb 7393 673d 51b3 9c3c
000000f0: 62e5 c8bb 5e09 f53d c81d 62bd 9968 603d
00000100: 3da0 633d 13b4 4bbd 317e 8b3d 4956 913d
00000110: 1bd7 74bc d551 8ebd dbb2 843d 1e52 cd3d
00000120: 9a6f 253d c398 4f3c 5a0a 6c3d 71cc e33c
00000130: 8f9f 5bbd eb95 ccbd dab9 33bd 08ea 6d3c
00000140: 4dee 41bd d130 cb3c a4a4 78bd ba30 cebd
00000150: 042d b93d fc50 97bd 8d68 003d aac4 fb3d
00000160: 0727 bc3b 14b2 8c3d 2217 53bd 72a9 d6bd
00000170: fb4a 6ebd 9968 46bd febb 86bd 33d2 69bd
00000180: c666 4d3d efc9 d83d dfc6 ac3d aaf9 283d
00000190: d08f d3bd 7fc7 c2bc 1853 2b3d f4dc fd3d
000001a0: 1791 9fbd 5719 a63d e2e9 ca3d 68d0 04bd
000001b0: d45b dbbd a00e 703d 0f5d 873d 5021 dfbd
000001c0: 8834 d33d 2d9f 38bc c16f b0bd 1c0f cd3b
000001d0: 3ed0 a13d 9c3a 143c fb9a cdbd 28c4 51bd
000001e0: 2bdf 253d 55d6 8e3d 9c07 a83d 72da 323d
000001f0: a149 a73d a272 f8bc 67ed 7c3d 3b13 cb3c
00000200: c1e9 e83c 4898 ec3d dd15 62bd b886 da3d
00000210: f108 3abd b211 c13d d8eb e1bc 1f83 993d
00000220: a18c 3ebd 3d06 863c 15cd db3d e8c3 8abc
00000230: afc3 a4bc aec9 6abd b2dd c03d 881a 493d
00000240: 6202 d2bc 0286 a4bc 4b16 ef3d be05 883d
00000250: 6153 db3d 457d 75bd ddc9 5abd a3f3 b0bd
00000260: 59cb c0bd 0b99 9abc 987e 053c 04f5 94bd
00000270: 8aeb 07bd a330 d13b 1c84 f0bc b3e5 c1bd
00000280: 7031 df3d 329d 45bd 8ed2 d93c 0909 513d
00000290: eeab ebbd b905 86bc 6440 cbbd 27ad cb3d
000002a0: d9bc 4abd 620b ba3d 455c 6c3c bfb1 77bd
000002b0: 7af5 5c3d e2e1 c3bd 89f8 44bd 02ed b2bc
000002c0: f4df 013e 00a0 e3bd 76d3 4c3d 2594 f53d
000002d0: 1dbd b0bc 39d8 7cbd 3239 b4bd f067 9fbc
000002e0: d3b8 d73d 2190 a0bd 1be7 023e 8a2d c2bd
000002f0: 6930 e03d cdd9 0e3a a8c2 dcbc b62d dbbd
00000300: 3f87 94bd 9611 91bd ebe3 cfbd fcca 2dbd
00000310: 901d a93d b0e0 dcbd f887 e03d 0964 2a3d
00000320: 1aed a13d 5256 20bc b08b 8cbd 0529 853d
00000330: a116 be3d 88bb 2e3d 03d2 543d 84e4 0e3e
00000340: 7763 823c 59df 7dbd cc9c 673d ee65 69bd
00000350: 6203 c63d 3535 0a3c cf04 893d f702 a73c
00000360: 4e52 c83d d7a3 9f3d 073f a23d 6ba5 4dbd
00000370: 7f50 583c 4fdf c43d 122d c63d e367 3ebd
00000380: c65a b13d 3e5a d9bd 728f ae3d ea59 47bd
00000390: 9faa 9cbd 036e e43d 496f ed3b 7073 3abd
000003a0: 0f40 7b3d 4c19 a33d 6bcf cdba d53d a3bd
000003b0: e7c7 84bd 788d a0bd 6d83 173d 78eb dabd
000003c0: 1d56 9dbd b4fe e4bd 33a5 4cbc 0a07 fa3d
000003d0: fa93 e93c 4ac0 c83b 3403 8a3d e1bf b2bd
000003e0: 7e69 97bc 88d7 c93d 4c9b eabd fee6 04be
000003f0: 6804 4abd a3ef d1bd dbc0 cdbc ff67 c13d
0.10353193 -0.11014562 -0.067458555 -0.04800817 0.022136804 0.01986675 -0.053502597 -0.055107094
-0.07053563 0.09812207 0.06474626 0.009055526 0.015091458 0.0057066614 -0.027185762 -0.058692656
0.116832234 -0.02992268 -0.07275912 -0.01676468 0.04395112 -0.101769805 0.02991837 -0.015088529
-0.052915648 0.013919536 0.022943394 -0.12895669 0.064396985 0.04570605 -0.081420474 0.035890438
-0.05702169 0.09093404 -0.052074857 0.03652311 0.037508458 -0.010587653 -0.07187568 0.044886347
0.045872543 -0.054785423 -0.021107966 0.047270574 -0.10220403 0.023259113 0.027740758 -0.12522103
0.022055244 -0.101639494 -0.108702846 0.105903566 0.06738519 0.091786556 0.10669341 -0.06754395
-0.036647968 -0.00768511 0.056537103 0.019128473 -0.00613086 0.11964677 -0.055204183 0.054787252
0.055572737 -0.04973228 0.068111785 0.07096536 -0.014943863 -0.06949202 0.064794265 0.10025428
0.040389635 0.012670699 0.05762706 0.027807446 -0.053618964 -0.09989532 -0.043878414 0.014521129
-0.047346402 0.02480355 -0.06070389 -0.100678876 0.09041789 -0.073884934 0.031349707 0.1229337
0.005741957 0.06869903 -0.051535733 -0.10481538 -0.058176976 -0.048439596 -0.065788254 -0.057085227
0.05014684 0.10585391 0.08436369 0.041253723 -0.103301644 -0.023776768 0.04182729 0.12395659
-0.077913456 0.08110302 0.09907891 -0.032425314 -0.10710874 0.058607697 0.066095464 -0.10895026
0.10312754 -0.011268419 -0.08615065 0.0062579047 0.07901047 0.009047177 -0.10039326 -0.05121246
0.040496033 0.06974474 0.082045764 0.043665357 0.081683405 -0.030328099 0.061749842 0.024789443
0.028431775 0.11552483 -0.05519663 0.10670227 -0.045418683 0.09427203 -0.02757828 0.074957125
-0.046520833 0.016360397 0.10732476 -0.016939119 -0.02011284 -0.057321243 0.09417285 0.049097568
-0.025635902 -0.020083431 0.11674174 0.0664172 0.10709263 -0.05993392 -0.053415168 -0.0864022
-0.094137855 -0.018871805 0.008147858 -0.072732955 -0.033183612 0.006383972 -0.02935987 -0.0946764
0.10898101 -0.048245616 0.026589658 0.051034007 -0.11507402 -0.01636015 -0.09924391 0.099451356
-0.049496505 0.09084202 0.014426296 -0.060472246 0.053945042 -0.09564568 -0.048088584 -0.02184153
0.12683088 -0.11114502 0.050006352 0.11991147 -0.021574551 -0.061729643 -0.08799972 -0.019458741
0.10533299 -0.078399904 0.12783472 -0.09481342 0.109467335 0.0005449325 -0.026948288 -0.10702078
-0.07252359 -0.070834324 -0.10150894 -0.04242991 0.08257592 -0.10785043 0.10963434 0.041599307
0.07906552 -0.009786205 -0.06862581 0.065019645 0.0928166 0.042659312 0.051958095 0.1395436
0.01591657 -0.06198058 0.056546018 -0.056981973 0.09668614 0.008435537 0.0669037 0.020387156
0.097813234 0.07794922 0.07922178 -0.050206583 0.0132027855 0.09612905 0.09676565 -0.046485793
0.08659892 -0.106129155 0.08523454 -0.048669733 -0.07649731 0.111537956 0.0072459322 -0.045520246
0.061340388 0.07963809 -0.0015702074 -0.07970778 -0.06483441 -0.07839483 0.03699057 -0.10689443
-0.076824404 -0.11181393 -0.012490558 0.12208374 0.028512944 0.0061264383 0.06738892 -0.08728004
-0.01848292 0.098555624 -0.11455402 -0.12978742 -0.04932061 -0.10250785 -0.025116375 0.09443664

encoder.rnn.weight_hh_l1 f4 [192, 64]
00000000: 291f ad3c 90f2 3cbd 12ed b3bd ff2b aebd
00000010: 0d7e 83bd 61d7 cd3d 4cb4 bb3d edd1 fa3d
00000020: 0867 5bbd 93af 0c3d 374f a0bd cf10 1abd
00000030: f2ee d73d c5f8 b6bd c40a e7bd 9f69 7fbb
00000040: e766 953c 182c d23d e3a2 2d3d 9237 d13c
00000050: 1053 083e 9bc3 db3d cf91 89bd 4542 e5bd
00000060: eb43 dbbd 5e6c ca3c f261 143d ee8f 14bd
00000070: 0f9b c53d da4b 9f3c 6c81 8b3c 1df2 b3bc
00000080: f6f3 a83d d33d 123d a47a c4bd b3c5 16bd
00000090: bb63 723d 6a6b 523d 645e 18bd 22ee ff3d
000000a0: 6df7 d73d 8d65 57bd b423 de3d 34a1 c93d
000000b0: 4273 aa3d 3558 0abd 2669 5c3d 40be 9cbd
000000c0: 500a 9a3d b889 eb3b 5d6f 813d 9abb 913d
000000d0: b80c 3b3d ea70 0d3d 3bab 6bbd 9efb cebd
000000e0: 9d9d d3bd b1d0 a4bc fe73 e8bd ade5 0cbd
000000f0: f245 f8ba 4313 03be 3641 e83d 20d2 353c
00000100: b6f2 9c3d 5392 cdbd 3a13 833d 54aa a6bd
00000110: 9e90 013d 9ed5 ea3d abce b83d 01d3 e1bd
00000120: 1a1b 50bd be78 67bd 7123 3f3d 33aa a8bd
00000130: 6c16 bf3d 5866 cfbd a75e 09bd e051 ef3b
00000140: bbbe 86bd d312 40bc 635f cdbd 405f b0bd
00000150: 623d 0dbe f1cd 223d 1fb6 61bd 01ca 09bd
00000160: 5a8d 623d 9b75 7a3d f118 8a3d 3b62 3e3d
00000170: 1072 f13d cb94 c0bc e196 c93d 2dd3 92bd
00000180: e1f4 10be ace0 393b 1531 58bd 8a27 b0bd
00000190: eb6e 7dbd 3961 bcbc 9100 e33c 68d9 c639
000001a0: f110 c7bc f23e d23d 566b 433d 0464 7ebd
000001b0: b15f c0bd 25a4 bf3b fb2a 773d a7d3 c63d
000001c0: 547f 8c3d c68c a93d 1cc8 ae3b f5cc 9dbd
000001d0: fe72 a53d 9725 e23c 317f 703d c3fd 8fbd
000001e0: 8d31 eabd 5b0f 8a3d d850 33bc b30f 78bd
000001f0: 5018 003e ca75 9e3d 4584 c23d 91fd b03d
00000200: 2d86 b3bd eeb9 e73d ec0b 8a3d 68f4 d9bd
00000210: a407 623b cec4 9d3d 4f89 133d f33f 8fbd
00000220: 79f5 a8bd ab2a b8bd 6c80 8a3d 4478 d3bd
00000230: 8c9e bd3c bd38 92bd cd64 74bd 9251 d33d
00000240: 7e76 c4bd eb4d 263c 21eb af3d 9fd9 99bd
00000250: ddbf 14bd 4bcf d6bc 71f3 d63d 3365 1c3d
00000260: c27e 973d e6e5 91bd a5f4 f6bd 4e6c aa3d
00000270: 9d50 a43d 8c55 a83d f11c 443d bd92 253d
00000280: 023b 193d f25e 7abd d2ba 1ebd 319d ef3d
00000290: 0302 563c 3841 f63b b68b bbbd 83d6 e13d
000002a0: 26c0 b4ba f4a1 b63c 9e27 d638 4fa7 be3d
000002b0: 1dce e23d 5d5c fc3d 7848 a4bd 3ebd 1bbd
000002c0: 06b3 4dbd f2a0 763d 4288 383d 385b f8bd
000002d0: 1b91 c6bd 1a4b 1dbd 47c5 8ebc 176b a53d
000002e0: b741 d83c 0382 c43d bb2e c8bd 704f e13d
000002f0: 7ac2 eb3d de9f 903d a426 4538 6bc6 e63d
00000300: aa89 79bc ef76 98bc 0f49 81bc e2e3 3f3d
00000310: 3154 5b3d b337 d03d 690e d53d 5233 443d
00000320: 79c5 273d 21c8 313d 459a a83d 7867 04bd
00000330: 7d5f b63d 4a73 5ebd a011 57bd 5bb5 673d
00000340: 1dbd 92bd 5913 71bd 5cb2 2b3d 0c4e e63b
00000350: c2bb a03d 19dc b1bd 95a1 b0bd 8e4a ab3c
00000360: 6d44 383d 8870 9c3c 067b bfbd d950 b9bd
00000370: ad85 163d 7ed3 e93c 04e4 a43d 01c0 63bd
00000380: 1f6f c93d 34e4 a43b c71e 233d 44f8 88bd
00000390: e4b9 d7bc 6fae 15bd ad11 c6bd 21ef 8a3d
000003a0: 16df 003d 8987 b7bd 5c91 023d 3755 1abd
000003b0: af8d e7bd 1e69 833c 2d3a 8fbc d02f af3d
000003c0: 290d 52bc a53b 9fbd 34ea fdbc 31a3 4d3d
000003d0: d834 cbbd 4f89 b33c e830 b1bd 78b0 b1bd
000003e0: f7e2 5abc 5559 a83d 0d08 65bd e0cc afbd
000003f0: f344 78bd bc0b b3bd 74fc d1ba 1cf8 c7bd
0.021133022 -0.046129763 -0.08785452 -0.08504485 -0.06420527 0.10050846 0.09165248 0.122470714
-0.053565055 0.034347128 -0.07827609 -0.037613686 0.10543622 -0.08934168 -0.1128135 -0.0038972867
0.018237544 0.102623165 0.04239167 0.025539193 0.13312936 0.10730668 -0.06717264 -0.111942805
-0.10706314 0.024709877 0.03622622 -0.036270075 0.09648716 0.019445349 0.017029487 -0.021966035
0.08249657 0.03570349 -0.09593704 -0.036809634 0.05917714 0.05137197 -0.037199393 0.12496592
0.105452396 -0.05258708 0.108466536 0.098452 0.08322765 -0.033775527 0.053811215 -0.07653475
0.07521498 0.007188048 0.06320069 0.0711586 0.045666426 0.03453151 -0.057536345 -0.10106586
-0.10332797 -0.020119043 -0.11350249 -0.034398723 -0.0018941744 -0.12800317 0.11340563 0.011097461
0.07663481 -0.10037675 0.064001516 -0.08137956 0.03163206 0.114665255 0.09023794 -0.11026574
-0.050807096 -0.056511633 0.04666466 -0.08235588 0.093304485 -0.101269424 -0.033537533 0.0073034614
-0.06579348 -0.011723238 -0.10027959 -0.086119175 -0.13792947 0.039747182 -0.055105325 -0.03363991
0.055310585 0.061147314 0.067430384 0.0464804 0.11789334 -0.02350845 0.09843231 -0.07169185
-0.14155914 0.0028362675 -0.052781183 -0.086012915 -0.061873358 -0.022995578 0.027710231 0.00037927483
-0.02430007 0.10265912 0.047709785 -0.0621071 -0.09393252 0.005848425 0.060343724 0.09708338
0.068602234 0.082788035 0.0053339135 -0.07705108 0.08078574 0.027605815 0.05871505 -0.07030823
-0.11435232 0.0674121 -0.010944568 -0.060561847 0.12509274 0.0773731 0.09497885 0.08642114
-0.087658264 0.1131476 0.06740555 -0.1064232 0.0034489417 0.07703553 0.03601962 -0.06994619
-0.08249945 -0.08992513 0.06762776 -0.10325673 0.02314689 -0.07139728 -0.059666444 0.10318293
-0.09592913 0.010150413 0.08589769 -0.07512211 -0.036315788 -0.026221892 0.104956515 0.03818245
0.07397224 -0.07123928 -0.12058381 0.08321439 0.08023188 0.08219442 0.047879163 0.040423144
0.03740979 -0.061125703 -0.038752384 0.11699904 0.013062003 0.007515099 -0.09157507 0.11027243
-0.0013790175 0.022294022 0.000102116945 0.09309255 0.11074469 0.123223044 -0.08021635 -0.038022272
-0.05021956 0.060212083 0.04505182 -0.121267736 -0.096956454 -0.0384017 -0.017428054 0.080770664
0.026398523 0.0959511 -0.09774538 0.110014796 0.11511703 0.07061742 4.7004447e-05 0.11268314
-0.015230576 -0.0186114 -0.015781907 0.046848185 0.053547088 0.10166874 0.10403139 0.047900505
0.04095981 0.04340375 0.082325496 -0.032325238 0.08904932 -0.054309167 -0.052507043 0.05656944
-0.07164977 -0.058856342 0.041918144 0.007028347 0.07848312 -0.086845584 -0.08624569 0.020909574
0.04498713 0.019096628 -0.09349637 -0.090486236 0.036748577 0.02854323 0.08051303 -0.05560303
0.09835648 0.0050320867 0.039824273 -0.06687978 -0.026333757 -0.036543306 -0.0967134 0.067838915
0.03146275 -0.08961398 0.031876907 -0.037678923 -0.11306321 0.016041335 -0.017483795 0.085540414
-0.01282052 -0.07775048 -0.030995466 0.05020446 -0.099221885 0.02191606 -0.08651906 -0.08676237
-0.013359777 0.08220164 -0.05591588 -0.08583999 -0.06061263 -0.087424725 -0.0016020671 -0.0976412

encoder.rnn.bias_ih_l1 f4 [192]
00000000: f629 53bc 6a9d a9bc e09e 31bc f6db 263b
00000010: 8f6e 943c 07f0 4f3d a546 813d 4440 fd3d
00000020: 6e7a 8f3d 644d 9cbb b072 913c aca4 91bc
00000030: 4e94 ec3d 0d21 e23c bbc0 fdbd 69f3 38bc
00000040: e805 3abd d114 7cbd 96f8 8f3d ac1e e63c
00000050: 5592 c73d 7ef7 dabd 9cfd 893d 1e2b e73c
00000060: e17d 2c3d 24af 88bd 3dc4 763d 336c 883c
00000070: 92b6 50bd b7c4 a53d ec3e 033d f306 b83d
00000080: 49cc 38bc 66d0 883d 3ba3 a13d bd5c ba3d
00000090: 9af9 22bd 09a5 c93d 0969 4c3d 2a78 0fbd
000000a0: 3d5b 273d 1079 b83d beb4 59bd a34f 8f3d
000000b0: d1ca 95bd de19 77bd 4f03 383d caeb db3b
000000c0: 6151 fc3d 9a8b 15bd 857a e23b 1a82 8fbc
000000d0: 0a08 06bc 864c 89bd 507b 093d 39d9 073d
000000e0: 56c5 df3c 230b 55bd 606d 8d3d 5c43 593d
000000f0: a110 8c3d 181a bbbc 18a4 c93c 8678 853d
00000100: 93a0 12bd 0bc6 fabc 1d75 01bc 3a10 abbd
00000110: e5d8 b33c 53d4 3cbd 4c27 08be 7419 363d
00000120: a9a0 d63b 4e07 61bd 2d36 babd df77 09be
00000130: 6078 e4bd c4a5 03be 11cb 003d 30f8 cabd
00000140: 1b33 b3bc b92a b2bd ad93 9a3d 156e 5c3c
00000150: 4fd3 2f3d 4f08 ff3d c4b4 3b3d 8137 873c
00000160: fbcc 0fbd edf5 df3d 134a 293d 4f69 d63b
00000170: 6a20 3fbd 73d2 c9bd 4d81 da3c a494 443d
00000180: 6953 04bd da1c 08bc 8eea ff3d 4f18 c53d
00000190: 9867 75bc c5b5 febc cc9c ac3c 3438 0f3d
000001a0: 08bf 723d 340c 00be a4e1 ae3d ad15 f53c
000001b0: d57e b4bd 78ff bc3d a321 d23d f71f c93d
000001c0: 7ac0 783d 76e8 47bd 01f6 68bd b724 d73d
000001d0: d834 16bd a819 87bb d20e 32be 21de 59bd
000001e0: d09f 253d 3ea8 593d 40c4 b2ba 5e9c 063d
000001f0: 02d1 e6bd fa7d 14be ab4c d7bd d058 4a3c
00000200: a7ab b7bd 005c 653c 2041 d1bb eb74 92bb
00000210: 0b2d fb3d 5ba8 a13d 8696 d6bd 8eec 02be
00000220: 7828 923d e7eb a83d f4ab cabd b978 153d
00000230: 1310 e93c f0a3 603d a524 cc3c 4aef c03d
00000240: 4877 be3d a788 643d 76e0 df3d cf7a 163d
00000250: 67f9 06bd 6ee4 45bc e19c 5a3d 5d23 acbd
00000260: 81c2 42bd 7ec1 1ebd 8da2 21bc a687 83bc
00000270: 4240 d2bd e73a 5a3d 72ab 373d e799 b23d
00000280: 5f6b 893c 706d 743c 5468 ec3d fbeb 0b3e
00000290: 2da2 d0bd 68c8 033d 0d74 f4bd 30a2 d0bd
000002a0: 2a47 8a3d d175 81bd 0f4b de3b d3f0 7fbc
000002b0: 9b60 873d 5716 1ebd 31dc 52bd c181 ec3d
000002c0: e7c5 9abd 681e d1bd 72b6 543d 8d35 043c
000002d0: 0ecf f1bd 1435 ce3d 1409 efbd be45 4a3d
000002e0: 40aa 513d e358 8bbd e2db ce3c bbf4 053d
000002f0: 01d7 01be 92e5 b23b 6ed9 763d c17e 403c
-0.012888422 -0.020704944 -0.010841101 0.0025460697 0.018119125 0.050766017 0.063123025 0.12365773
0.070057735 -0.004769968 0.017754883 -0.017778717 0.115517244 0.02760365 -0.12390276 -0.011288502
-0.04541579 -0.06154329 0.07029836 0.028090797 0.097447075 -0.10691737 0.06737825 0.028218802
0.042112235 -0.066740304 0.06024574 0.016653156 -0.050955363 0.08094161 0.03204243 0.089857005
-0.011279174 0.06680374 0.07892462 0.0909972 -0.03978882 0.09845931 0.049904857 -0.035026707
0.040858496 0.09007466 -0.053150885 0.069976114 -0.07314075 -0.060327403 0.04492503 0.006711458
0.12320209 -0.036510088 0.006911578 -0.017518092 -0.008180628 -0.06704049 0.033564866 0.033166144
0.027315777 -0.052012574 0.06905627 0.053042755 0.06839109 -0.02283959 0.024614379 0.06517129
-0.035797667 -0.030612012 -0.007901457 -0.08352704 0.02195401 -0.046100926 -0.1329624 0.044457868
0.006549914 -0.054938607 -0.090923645 -0.13424633 -0.11155772 -0.12856203 0.03144366 -0.09910619
-0.021874955 -0.08699555 0.07547698 0.01345398 0.04292613 0.124527566 0.04582669 0.016505959
-0.035107594 0.109355785 0.04133041 0.0065433155 -0.04666177 -0.09854593 0.026672984 0.047993317
-0.03230611 -0.00830766 0.1249591 0.09623777 -0.014978312 -0.031092534 0.02107086 0.03496571
0.059264213 -0.12504655 0.08539131 0.029917562 -0.08813254 0.09228414 0.10260322 0.0982055
0.060730435 -0.048805676 -0.056875233 0.1050505 -0.03667149 -0.0041229315 -0.17388466 -0.053190354
0.040435612 0.053138964 -0.0013638809 0.032863967 -0.11270334 -0.14501181 -0.1051267 0.012350276
-0.08968287 0.013998985 -0.0063859373 -0.004469504 0.12264451 0.078934394 -0.10477929 -0.12785551
0.07136625 0.0824812 -0.09896079 0.036492083 0.028450048 0.054843843 0.024919817 0.09420641
0.09300095 0.055794384 0.109314844 0.036738213 -0.032952692 -0.012078388 0.053372268 -0.084051825
-0.047548775 -0.038758747 -0.009865415 -0.016055893 -0.102661625 0.05327883 0.044841237 0.08720761
0.016774831 0.01491867 0.115433365 0.13664238 -0.101871826 0.032173544 -0.119361974 -0.10187185
0.06751855 -0.063213 0.00678385 -0.015621382 0.06610223 -0.038595524 -0.051479522 0.11548186
-0.07557278 -0.10210878 0.051931806 0.008069408 -0.11807071 0.100687176 -0.116716534 0.049382918
0.051187754 -0.06804063 0.025251333 0.032704096 -0.12679674 0.005459496 0.06026595 0.0117489705

encoder.rnn.bias_hh_l1 f4 [192]
00000000: a5ce d33c 1c87 1f3d bf6f f13d 53e2 843d
00000010: 4ab1 023b d18d 76bd 9b80 2f3c 13c8 d63d
00000020: 0d8c bcbd a31c b43d d47c 303d dd14 c4bd
00000030: e09e b2bc 92d6 9dbd 5f78 d9bd f590 9d3d
00000040: 18a8 66bd 137a 223d e0d1 da3d 8dca bebd
00000050: 8f4e 3c3c 144f febd 90ea 2ebd 1d70 ab3d
00000060: 2912 c7bd cd7a 023d dd43 eb3d 1c6d a23d
00000070: 7c78 9abd 3c79 c9bd b85c 1dbd 640d 443d
00000080: 2f7e 393d 87a7 c6bc c538 a73d 66fd 943d
00000090: a0dd 9d3d c4dc e33b 93e9 df3d 5489 dabd
000000a0: 08a1 cc3c 3edf cf3d f9c8 ebbd 1ffb b43c
000000b0: 1934 a9bd 3deb 453c 8d29 f3ba f8f6 ecbd
000000c0: c477 77bd 56f5 29bd 0b6f 20bc 35c5 e5bd
000000d0: 4934 d7bc c141 2bbd 3d27 f8bd 85d0 9ebd
000000e0: 450e abbd 038e d13d 9fb6 4a3c d2ee bcbd
000000f0: 7f57 023e ba79 0dbd f2b1 2dbd 8ae3 b33d
00000100: b353 2f3a f0ae 673d 086d ccbc 9180 6dbc
00000110: 9261 b93d 1ce2 74bd 8176 f43b 7c0a c73d
00000120: e1b3 03be b642 c5bc 9346 e4bd 94c4 c73c
00000130: bbaa 17be 5593 82bc 9b89 afbd ae35 973d
00000140: 6657 8f3d b93b e33c 59dc e93c 7d6b eabc
00000150: 786c d0bd 8170 b8bd 1598 10be 7cb2 6a3d
00000160: 1511 85bd df95 aabd 15b4 7a3d 27ce 16be
00000170: 007b ca3d 4123 e3bd 7825 a5bd 14c7 c1bc
00000180: dd5b 3ebd 3a25 de3d 15d3 503a b0fc ed3c
00000190: 17a0 053d 0990 bcbd b430 653d c099 cbbd
000001a0: 4989 bdbd c51c e53b 4797 d0bc 9429 bebb
000001b0: ce77 a73d 14a4 743c 0bb5 1cbd 9741 ef3d
000001c0: da3f c2bd 6e7b 333c b1ed e23d 649b 273d
000001d0: c8fd 9f3c f61c dabd 97a6 34bd f622 41bd
000001e0: 1e5a 9dbd 489b 903d 15a9 e23d 76e1 ab3d
000001f0: caa3 ad3c 1532 e9ba c525 96bd 8b37 4e3d
00000200: e353 a6bb 490e 6cbd 5ce8 4d3d 7352 fa3d
00000210: b0c7 99bc 3c13 21bc 4364 52bb 80f3 f6bd
00000220: 2d83 a4bd 6c49 1e3d e972 01be 898f c73b
00000230: 1d72 e63c ad50 a83d 9130 21bd a61f 17bd
00000240: 1648 e9bc 2528 23bd 82d7 edbb 0c51 073b
00000250: 3836 e13d 5703 c9bd 0fed e239 d385 a83d
00000260: abe5 b4bb d615 6ebd 362c b43c 2366 d83d
00000270: f898 b1bd eb27 8e3d c958 75bd ab93 e7bb
00000280: 1eff e4bd 67ad d0bd a472 a03d 85a8 903b
00000290: 88ce 07bc 82b4 1b3d d7ee d33d eac0 c03b
000002a0: 7a76 dfbd 72bf c03d 1415 adbd f536 91bd
000002b0: bc91 d83b fd46 7cbd a156 d63d 2071 b33d
000002c0: 8db4 d23d e138 993c e728 963d 895d a4bd
000002d0: e667 00be 4e67 f23d f330 c63d ce0c ba3d
000002e0: be63 c5bb 1885 b23c 69a0 bf3d 8c35 c5bd
000002f0: f286 6fbd ece2 203d bc9c de3d cd0b a0bd
0.025855372 0.03894721 0.11788892 0.064884804 0.0019942098 -0.06019384 0.010711814 0.1048738
-0.092064 0.087945245 0.043087795 -0.09574292 -0.021804273 -0.07706942 -0.10618662 0.07693664
-0.05631265 0.0396672 0.10684562 -0.09315977 0.011493339 -0.12417427 -0.042704165 0.08370993
-0.09720261 0.031855393 0.11487553 0.07930967 -0.07542512 -0.09837577 -0.0384185 0.047864333
0.045286354 -0.024249805 0.08165125 0.072748944 0.07708287 0.0069538075 0.109332226 -0.106707245
0.02497913 0.10150002 -0.11512942 0.0220924 -0.0826189 0.012080011 -0.0018551812 -0.11570543
-0.06041695 -0.041493736 -0.0097921 -0.11219255 -0.026270049 -0.041810755 -0.12116859 -0.07754616
-0.08352331 0.10232165 0.012372642 -0.09225239 0.1272869 -0.034539916 -0.04240603 0.08783634
0.00066881924 0.056563318 -0.024954334 -0.014495985 0.09051813 -0.059785947 0.007460416 0.097187966
-0.12861587 -0.024079662 -0.111462735 0.024385728 -0.14811222 -0.015939394 -0.08571168 0.073832855
0.06999092 0.027738439 0.028547453 -0.028615708 -0.10176939 -0.090058334 -0.14120515 0.057299122
-0.06497399 -0.08329367 0.061206896 -0.14727078 0.09886742 -0.110907085 -0.08063787 -0.023654498
-0.046474326 0.10846944 0.0007966024 0.029051155 0.032623377 -0.0920716 0.05595465 -0.09941435
-0.09254701 0.006991955 -0.02546276 -0.0058032963 0.08177148 0.014931697 -0.038258594 0.11682432
-0.09484835 0.010954721 0.11080492 0.040919676 0.019530192 -0.10650055 -0.044104185 -0.047152482
-0.07683204 0.070608675 0.11067406 0.08392613 0.021196265 -0.0017791415 -0.07331423 0.05034594
-0.005075918 -0.05763081 0.050270423 0.12222757 -0.018771976 -0.009831246 -0.0032103218 -0.12058163
-0.08032832 0.03864424 -0.12641491 0.006090109 0.028130585 0.08218513 -0.039352957 -0.036895417
-0.028476756 -0.039833207 -0.0072583565 0.0020647673 0.109966695 -0.0981509 0.00043282702 0.0822865
-0.0055205426 -0.058126293 0.021993738 0.10566356 -0.086717546 0.069412075 -0.059899125 -0.007067164
-0.11181472 -0.10189324 0.07834366 0.0044146203 -0.008288987 0.038013943 0.103482895 0.005882372
-0.109112695 0.09411515 -0.08451286 -0.0709056 0.0066091698 -0.061591137 0.10465742 0.08761811
0.102883436 0.01870388 0.0733202 -0.08025653 -0.12539634 0.1183611 0.09677305 0.090844736
-0.006023853 0.02179198 0.09356768 -0.09629354 -0.058478303 0.03927891 0.108697385 -0.07814751

decoder.attn.v f4 [64]
00000000: cbbc 133c 3096 c53d b093 61bd 4ee5 edbd
00000010: bfad a4bc 4523 e33d 4cc0 7ebd 3ac1 60bd
00000020: dc80 b03d 112b f5bc b7a2 7d3d 2168 bebd
00000030: 4f46 9bbd 08f3 a53d f182 e1bd 0b47 8ebc
00000040: 0db0 91bc 2b18 fdbd dbf8 053d 2b4b 98bd
00000050: 20fc 883d bae8 c6bd 8331 983c 8216 963d
00000060: db0c 87bd 319f a2bd d2d0 c83d a52f 82bd
00000070: c805 f6bd 35c0 023d 7e98 2fbc 16d6 d73c
00000080: e794 f1bd 15cc d23b 2fae 2bbd 7088 7f3d
00000090: 1af8 aa3d 8823 f3bd b787 2a3d 6347 e93d
000000a0: d81c 803d 30bb 99bd 058a 7e3d d21a 37bb
000000b0: aeb1 c9bd c823 43bd 2b29 ca3d 657b 3c3d
000000c0: c703 ff3d cd78 fb3d 2a28 cfbd a92f 023e
000000d0: 9cd6 373d a108 113d 55ef adbd 0cd8 073c
000000e0: ff8c e9bd d2d4 23bc e6d3 a2bd ef63 20bc
000000f0: 176e bd3c db05 e0bd 9407 89bd 252a c03d
0.00901718 0.096477866 -0.055072486 -0.11616002 -0.02010238 0.110907115 -0.062195107 -0.054871775
0.08618328 -0.029927762 0.061922755 -0.09297205 -0.0758177 0.08102995 -0.11011303 -0.01736786
-0.017784143 -0.12358125 0.03270803 -0.07436212 0.06688714 -0.09712358 0.018578297 0.07328512
-0.06594249 -0.079405196 0.09805454 -0.06356744 -0.120128214 0.031921584 -0.010717509 0.026347201
-0.11795979 0.00643302 -0.04191416 0.062385976 0.08348103 -0.118720114 0.041633334 0.11390569
0.062555015 -0.07506406 0.062143344 -0.002793957 -0.09848343 -0.047641546 0.098711334 0.046016116
0.12451892 0.122789 -0.101150826 0.12713493 0.0448824 0.03540862 -0.084929146 0.008291256
-0.11403846 -0.009999471 -0.07950573 -0.009789451 0.023123784 -0.10938617 -0.066908985 0.093830384
