checkpoints/models/single_stock_daily/81to8/model20.pth (torch, 895106 bytes, 33 tensors)

encoder.conv1.weight f4 [4, 11, 3]
00000000: 6080 83bb 25d1 6d3d 779d 65bd 78c1 51be
00000010: e71e 18be 9bbf 9abc 0a2f abbd 945f 4a3d
00000020: 84fc b2bd 128c 04bd 3408 0dbe 957f d5bd
00000030: e8de 7bbe a7fb 4cbe deab 0fbe 0044 093d
00000040: 64d1 0a3d f74f af3d 5d88 7dbd b588 b5bd
00000050: ef50 843d 1d36 173e e875 45bd 49f4 9b3d
00000060: e203 12bd 9ee8 a6bc e822 e63d 6336 1ebe
00000070: 9723 17be 2bab 80bd b35e 5cbd 424a 053e
00000080: 34f0 16be 6499 99bd 7b00 fdbd 2dce 28bd
00000090: 20b8 20bd 8e96 703e caf0 d23d 3433 2a3e
000000a0: 2559 f23d d272 16bd 5c71 d23d c98c 75bd
000000b0: 94ba aabd 5826 8ebc d305 563e 3c83 163e
000000c0: 58d5 e2bd 203c 373d 776a db3c ea38 f73d
000000d0: 36a2 ec3d d79e 47bd 0836 d33d dde2 513c
000000e0: 3382 c8bc 5c54 6f3b e12d 653d 1b29 163d
000000f0: 0a76 433e ec94 563e 6e0d b23c 070a 84bc
00000100: 4485 183e af02 40bd 1aef 723b e4b5 203c
00000110: 000a 823d 3688 723e 51fe 69bd b05e ac3b
00000120: 9b49 123e 942d 6a3e 4ea8 643e fc03 683e
00000130: dd71 ea3d b410 a7bd 71e6 b63d 5a09 d7bc
00000140: 117c bcbd 63f3 0d3e 5268 de3d aea5 30be
00000150: 6f52 a2bc ed52 c0bd 2ff7 69bd 7b01 76bd
00000160: af9b 5c3d 4673 edbd 7167 8c3d 4d27 073e
00000170: 3bbd df3d 1d44 883d e461 16be 5215 08be
00000180: 369d 5a3d 1982 283d 9120 08be 9c0e d0bd
00000190: 3ec0 283e 616b 303e f4ac 0dbe 9658 e5bd
000001a0: 4a89 5abe c5a4 90bd ca8f 4fbe ae3b 3cbe
000001b0: 86b9 98bd 9484 32bd fedf f3bd 75a5 1c3d
000001c0: 6275 35be dec7 e03d 8e5a f53d ff6e edbd
000001d0: 27ce 02bd 46ce 393d 434c c73d 5d71 c03d
000001e0: cf22 e73c 6504 4f3c a05f 9abd 82ea 8a3d
000001f0: d281 21be fc53 a8bd 4066 2dbd 718b 90bd
00000200: 3530 0abd 2f78 24be e37f dbbc a811 433d
-0.004013106 0.058060784 -0.056058373 -0.20483959 -0.14855538 -0.018890193 -0.08358581 0.049407557
-0.0873957 -0.032360144 -0.1377266 -0.10424725 -0.2459675 -0.20017873 -0.14030406 0.033512115
0.033891097 0.08560174 -0.061897624 -0.088639654 0.06460749 0.14766736 -0.048208147 0.07614953
-0.035648234 -0.020374592 0.112371266 -0.15450434 -0.1475967 -0.06282648 -0.05380125 0.13016608
-0.14740068 -0.0749996 -0.12353607 -0.04121225 -0.039238095 0.23494932 0.10299833 0.16621095
0.11833409 -0.036730595 0.10275528 -0.059948716 -0.08336368 -0.017352268 0.2090066 0.146985
-0.11075848 0.044735074 0.026784165 0.12071402 0.11554377 -0.048735466 0.1031304 0.012810436
-0.024476146 0.0036518788 0.055951957 0.036660295 0.19087997 0.20955247 0.02173492 -0.016118063
0.14894587 -0.04687756 0.0037068785 0.009808991 0.063495636 0.23684773 -0.0571273 0.005260311
0.14285891 0.22868949 0.22329828 0.2265777 0.11447499 -0.08157483 0.08930672 -0.026249576
-0.09203351 0.13862376 0.10859741 -0.17250702 -0.019814698 -0.09390817 -0.0571205 -0.060060006
0.05385941 -0.11594252 0.068556674 0.13198586 0.10924765 0.066536166 -0.1468578 -0.13289383
0.053372584 0.041139696 -0.13293673 -0.101590365 0.16479585 0.17228462 -0.13835508 -0.11198537
-0.21341434 -0.07062677 -0.20269695 -0.18382141 -0.07457261 -0.043583468 -0.119079575 0.03824373
-0.17720559 0.10975622 0.119801626 -0.115934364 -0.031934883 0.045362733 0.09731343 0.09396622
0.02821484 0.012635325 -0.0753777 0.0678301 -0.15772179 -0.08219144 -0.04233384 -0.07057846
-0.03373738 -0.16061471 -0.02679438 0.04762426

encoder.conv1.bias f4 [4]
00000000: 064d a4bd e333 4fbd ae7f ae3d 57b8 c73c
-0.080225036 -0.050586592 0.08520447 0.024379892

encoder.conv2.weight f4 [8, 4, 3]
00000000: 6d64 a13d 876d 96bd d6dc d53d 5b25 253e
00000010: a532 d93e e087 3c3e b61d 593e 7a52 793d
00000020: 5061 99be dfba 7dbe 70e9 303e a0b0 343d
00000030: 82e5 35be 9b82 8dbe 7816 99be 2efc 78be
00000040: 624c e1bc 16f0 413e 22f2 353e b263 7dbe
00000050: 9dd9 5b3e 8756 8fbe a6ca 0dbe 5704 6abe
00000060: bb2c 35bd ca36 3c3a f6df 69be 6ea0 68be
00000070: d557 9bbd be60 86bc 6a01 14be 0b3f 933d
00000080: 2c65 91be c181 113d c78d ac3e ec81 8abc
00000090: 4b50 8e3e 9466 213e 79df 74be 4aec 3c3e
000000a0: 7b52 97bd 329c 32be 996e 683e 0cca 83be
000000b0: 3c2f 063c 921c ab3c c428 933e ad1d 163e
000000c0: 1c25 123e 8311 b13d 4113 94bd 53f9 7bbd
000000d0: 3635 57be 90e5 2c3e 941d 5b3e 8dc1 4f3e
000000e0: acbd 4ebe c4cd 91bc 6ede 76be 85ee 5fbe
000000f0: c75c 15be a8db 283e 9059 19be fb65 1abd
00000100: fe70 3ebd d87b 423e 1232 6dbe a9e5 78be
00000110: 02f7 4bbe d857 9b3e a8ce 0ebc e435 963e
00000120: 2914 f53d a0a8 d63d 7ef5 f9bb 636a 58bd
00000130: 9207 19bd 93ac 9cbd 4086 71bb 9981 efbc
00000140: 0c7d 5abe ebee cfbc fcba a63e 3b02 5dbe
00000150: e1ad 843a 933f b33e b980 e93d c155 18bc
00000160: e9f2 a3be e501 d63d a390 5bbe e14d 00be
00000170: f155 bfbd 7d17 6b3d 6c8a b73d 9f8f 913e
0.07880483 -0.073451094 0.10442512 0.16127531 0.4242145 0.18411207 0.2120274 0.06086967
-0.29957056 -0.24778317 0.1727655 0.044113755 -0.17763332 -0.27638707 -0.29899955 -0.24314949
-0.027502242 0.18939242 0.17768148 -0.24745062 0.21469732 -0.27995703 -0.13846835 -0.22853218
-0.04423211 0.0007179795 -0.2283934 -0.22717449 -0.07585112 -0.016403552 -0.14453664 0.07189759
-0.283975 0.035524134 0.33701918 -0.016907655 0.27795634 0.15761787 -0.23913373 0.18449512
-0.07388779 -0.17442396 0.2269844 -0.25740087 0.0081899725 0.020887647 0.2874204 0.14659758
0.14271969 0.08645918 -0.07230235 -0.06151707 -0.21016392 0.16884446 0.21398002 0.20288678
-0.20189542 -0.017798312 -0.24108288 -0.21868332 -0.14586173 0.16490042 -0.14975572 -0.037694912
-0.046494476 0.18992555 -0.23163632 -0.24306358 -0.19918445 0.30340457 -0.008716263 0.2933799
0.11966736 0.104813814 -0.007628142 -0.052835833 -0.037360735 -0.076501034 -0.00368537 -0.029236602
-0.21336764 -0.02538248 0.32564533 -0.21582882 0.0010122621 0.3500944 0.11401505 -0.009297789
-0.32021263 0.1044958 -0.21441893 -0.12529708 -0.09342564 0.057395447 0.08961949 0.28429887

encoder.conv2.bias f4 [8]
00000000: 906f e8bc b451 6b3e e0e3 413e 6778 16be
00000010: 5588 ba3d 132e 2abe 0295 b6bd f8f2 f83d
-0.02837351 0.22980386 0.18934584 -0.14694367 0.091080345 -0.16619138 -0.0891514 0.121557176

encoder.rnn.weight_ih_l0 f4 [192, 8]
00000000: 54ba fc3c da03 113e 0568 9fbd 13cb 103b
00000010: 488c b13d 64b1 f2bd d353 c73c 7e95 12be
00000020: 8c0b 4fbd 14bd 7bbd 10b9 c7bc 3f4e 943d
00000030: 9da7 913d 2df4 563c fafa 39bd 9a1f 653d
00000040: 3d4c bebd 6c0f f43c 62ab 4cbd 8fcc 44bd
00000050: 7b11 bebd 1215 d83d 6015 c03d ee1a 1d3e
00000060: 9a39 d7bc 4ec2 2abd 4226 26bd 991d 4a3d
00000070: 2c8d c73d 42df 453d b754 27bd c3f4 a2bd
00000080: 36e0 15be 7618 3bbc 0388 4abd 47f9 80bd
00000090: e170 9f3d b4b0 15bd 9dfa 853c 5f84 f83d
000000a0: 22a4 90bd 9bae 7cbd 29be b9bd c5cd a93d
000000b0: 9b8d 073d fa7c c13d be89 3cbd a199 5bbb
000000c0: 0b4f 42bd 7c63 5fbd 36e5 28bd 5a61 cb3d
000000d0: 8c2d 82b9 35f7 473d a31f 1c3c cb0d 4e3c
000000e0: 5223 053e 6aa8 8bbd fd91 0a3d 3331 a0bd
000000f0: 8773 3abd 1b81 ebb9 a48c 9bbd 01f4 0dbd
00000100: e687 c2bc b24f 9cbd 6684 e03c d866 253d
00000110: b8d8 7d3d ebe0 d0bc 172d debd 09fc 64bd
00000120: c4b0 b23c 6b3b b5bd e5e2 8c3d 02dc 073e
00000130: 3732 c9bd 2b83 323d ac09 a73d e25f c83d
00000140: a5bb 39bd bceb cebb 243a 8bbd 6d23 4a3d
00000150: 14c8 833d cb37 1b3e 7600 be3d 9c75 873d
00000160: 8716 933d 41fd 4abd a657 d4bd 8da9 f8bd
00000170: 7e38 043e 6d4f 983d b510 adbd 4898 483c
00000180: 3b11 c23d f4d7 103e 50f4 b83d 2dce ab3d
00000190: 293f c7bc c8d7 44bd 63f6 d43d e39c 8f3c
000001a0: 07d0 c2bd 8f82 f43d ac92 493d 50b9 8e3d
000001b0: 2c20 aebd ff7e 3b3d f1c0 4dbd 1625 b73d
000001c0: 5ca9 14bc 1d42 a83d 80a3 b1bb aea3 6d3c
000001d0: ec99 b9bc cf50 073d 7068 d7bd 8281 38bd
000001e0: 96e7 03be f7de 15be d599 dabd 3e00 103e
000001f0: 0b15 3d3d c80b 213e a610 073e 679b 2abd
00000200: 4c02 bcbd 062b 86bd 78de 55bd 8271 0f3e
00000210: 4f87 05be e3ed 55bc 1990 b3bd ed3b 8a3c
00000220: 9d11 5d3e fa7d 183e d436 ad3d 5c40 bb3c
00000230: 4e28 1f3e be9c bdbd 7a10 d1bb 9378 9c3d
00000240: f96f 1cbd 7a9e ee3d cb90 973d a494 b53d
00000250: b111 40bd 7f39 8e3d 3c92 fe3c 7109 6ebc
00000260: ef19 e2bd e427 75bd 16fe ebbd c45d b93d
00000270: 3cec b33d 8462 54bb 0ebe a6bd 0e8c fc3d
00000280: 149e b93d c744 05bc 4019 a4bd ec91 093e
00000290: a107 113d dcd3 a0bd 1426 0d3e 07ef fe3d
000002a0: 4869 7dbd 541a e03d cb23 afbd 48f7 76bd
000002b0: 4c54 083e f0a1 e3bc d74f e7bd c903 e7bd
000002c0: 17a7 8fbc 5a70 c3bc 884b 1f3c 4594 e13d
000002d0: 8a11 fd3b d5d2 a4bd 7504 dd3a 602b 7b3d
000002e0: 932b 3ebd 1f35 07be 2ae4 943d ff9e 83bd
000002f0: bf82 93bd 6366 aa3d 40bd bcbd 25e3 503e
00000300: 97c2 e83d 88e6 81bc efa6 c8bd b7e2 c4bc
00000310: 3db5 623b bac1 9abd b7d5 c53d 4f9d f6bd
00000320: b768 e6bd a50d 28be fe31 d8ba 262f 093e
00000330: e48a 1dbe ed1e 193e bd25 98bc 5d16 ee3d
00000340: 13e8 363d ee55 d9bd 32df be3d 5ba0 783d
00000350: 3673 043e d1ed 6f3d 23ee a2bd 4a4f db3d
00000360: c4ba 46bd ec51 283d 49b8 debd 09f3 6cbc
00000370: 4a59 11be 19db dbbc 6dac 623d a378 c1bd
00000380: 53e6 cc39 23e2 1f3d bce7 0f3c e908 5ebd
00000390: d64b fbbd 249e 16bc c8eb a83d 2cf4 243e
000003a0: 0e21 803d ada8 8cbc 8d00 423d 30d9 e6bd
000003b0: 9f01 efbd 9912 943d da91 6ebd 5f3a 463d
000003c0: 5b87 01be 9494 57bd c5c7 dcbd c356 6e3d
000003d0: cea3 78bc fb13 c83d de3b b43d 546d fd3c
000003e0: 5f2d 2abe 202d 82bd 797e 743d 8f65 083e
000003f0: 10a8 973c 6e71 0d3d 5fa3 d53d feee 143e
0.030850567 0.14161626 -0.07783512 0.0022093698 0.08669335 -0.11850241 0.024331963 -0.14314839
-0.05054812 -0.061459616 -0.024380237 0.07241487 0.07112048 0.0131197395 -0.045405366 0.05593834
-0.09291885 0.02979251 -0.04996813 -0.048046645 -0.09280678 0.10550894 0.09379077 0.15342304
-0.026272584 -0.04168921 -0.04056383 0.049344633 0.09743723 0.04830862 -0.040852275 -0.07956841
-0.14636311 -0.011419406 -0.049446117 -0.06297546 0.07785202 -0.03654547 0.016354853 0.12134623
-0.07062556 -0.061689954 -0.09069473 0.082912005 0.03309403 0.094476655 -0.0460298 -0.0033508318
-0.047438662 -0.054538235 -0.041234218 0.09930678 -0.00024829467 0.04881974 0.009529027 0.012576531
0.13001755 -0.06819232 0.03383063 -0.07821884 -0.04552033 -0.00044918884 -0.075951844 -0.03465653
-0.023746442 -0.07632388 0.027406882 0.040381283 0.061974257 -0.025497874 -0.10848444 -0.055904422
0.021812804 -0.08849224 0.06879214 0.1326752 -0.09824031 0.043582123 0.08156142 0.09783913
-0.045344967 -0.006314723 -0.06798199 0.04935019 0.06434646 0.15158002 0.09277432 0.06614229
0.07182031 -0.049557928 -0.1036828 -0.12141714 0.12912175 0.07437024 -0.08450452 0.012243338
0.09475943 0.1414488 0.09030974 0.08388934 -0.02432211 -0.048057348 0.10398557 0.017530864
-0.09512334 0.119389646 0.049212143 0.06968939 -0.0850223 0.04577541 -0.05023283 0.089426205
-0.009073582 0.08215735 -0.005421102 0.014504356 -0.022656403 0.03303605 -0.10517967 -0.045045383
-0.12881312 -0.14635836 -0.106738724 0.14062592 0.046162646 0.1572715 0.13189945 -0.04165211
-0.091801256 -0.06551175 -0.052214116 0.14008144 -0.13039897 -0.013057205 -0.08767719 0.016874278
0.2158875 0.14891806 0.08457723 0.022857837 0.15542719 -0.09258412 -0.006380138 0.07640185
-0.038192723 0.11651321 0.07400664 0.088662416 -0.04689187 0.0694456 0.03107559 -0.014528618
-0.11040103 -0.059852496 -0.115230724 0.090510875 0.087852925 -0.0032407353 -0.08141719 0.12331401
0.09063354 -0.008134074 -0.080126286 0.13434571 0.035407666 -0.07852909 0.13784057 0.124479346
-0.061867982 0.10942522 -0.08551749 -0.06029442 0.13313407 -0.027787179 -0.11294525 -0.11280019
-0.01753573 -0.023857284 0.009722598 0.11014608 0.007723038 -0.080480255 0.001686229 0.061320662
-0.046428274 -0.13203858 0.07270081 -0.064268105 -0.07202672 0.0832031 -0.09215784 0.20399149
0.1136524 -0.015856996 -0.09797465 -0.024033887 0.003459289 -0.07556482 0.096599035 -0.12041723
-0.112504415 -0.16411455 -0.0016494391 0.13396892 -0.15385014 0.14953203 -0.018572683 0.11625359
0.044654917 -0.10612093 0.09319915 0.060699802 0.12934574 0.05857641 -0.07955577 0.107084826
-0.048517957 0.04109375 -0.10874993 -0.014462241 -0.14194217 -0.026837872 0.05534022 -0.09446838
0.00039081517 0.03903402 0.008783277 -0.054207716 -0.12270324 -0.009192977 0.08248097 0.16108769
0.06256305 -0.017170275 0.047363807 -0.11271894 -0.11670231 0.0723011 -0.058244564 0.04839551
-0.1264929 -0.05263193 -0.107802905 0.05818821 -0.015175773 0.09769436 0.08800481 0.03093592
-0.1661887 -0.06356263 0.059690926 0.13319992 0.018512756 0.034532003 0.10431551 0.14544293

encoder.rnn.weight_hh_l0 f4 [192, 64]
00000000: 3090 a3bd 208e dfbd 811c cc3c 1522 c03c
00000010: 8a34 9b3d fb3f 5e3d f4c0 c2bd e806 23bd
00000020: 6d18 e83d 5b2a e9bd 1683 99bd a7f7 d8bd
00000030: 3201 aebd 7380 f73d 35b8 1e3d 5f2f bb3d
00000040: cfb8 203e e9b6 5f3d 24e1 ad3c d425 68bd
00000050: bc2c 8d3d 4d81 503c 0ca0 603d 3d15 b0bc
00000060: 12c3 1b3c 04b0 83bd e428 9ebd a27a 383d
00000070: a472 cdbd 8359 513d 5da6 c0bd 5d67 e2bd
00000080: b551 a13c f762 fd3d a2f0 6fbd 3d98 ad3d
00000090: 70df c73d 2c69 e33d 8e66 813d 1b48 b7bb
000000a0: 5dc6 b03d 832f b43c 473f 523d 8da9 ecbd
000000b0: b05c 05bd 02e9 313c e1fc 463b 480f a5bd
000000c0: 524d 1fbe df75 98bd 4527 203d 4bbf 0b3e
000000d0: dc2e aabd 11f5 753d d53c a6bd 7643 0dbe
000000e0: 9be1 a3bd 9a6c a6bc 8112 f7bb b754 dabd
000000f0: c267 903d 7f0b cd3c 1927 9ebc 99c5 ac3d
00000100: fd0e 71bd d6a8 e3bc 2651 51bd 942b 6e3c
00000110: 7f37 74bd ad95 dbbd 9c51 af3d 9f48 503d
00000120: 0034 e03d 6442 1bbd d22e fa3c 54a5 69bd
00000130: 4f3d 723d f37a 0abd 2e53 a13d 7530 683d
00000140: 3b51 c23d 8f7c 873d b533 273d f758 e03d
00000150: d60c 9dbd dca6 183e c99d c73d 1f69 f43d
00000160: 5bf2 88bd b936 26bd dc41 f939 b2bf 223d
00000170: 59c4 7c3d 627a 573d 6dc4 d43d 9d4a 55bd
00000180: d5fc efbc be08 4f3d 1330 643d 0c2b 8cbd
00000190: 3a23 31bb 4824 dcbd 5cdb 58bd 69d4 0dbd
000001a0: edb6 133e edd9 01be 949c 95bd ce4c 02be
000001b0: cead 173d afe6 d3bd 9cb0 273d ec7e 85bd
000001c0: 3e42 92bd 2cd7 2cbd 34a5 9e3c ecbd cc3d
000001d0: a6fb c13d 9601 3abc ba81 04be 5a72 26bd
000001e0: 7dc7 38bd c49f afbc 1107 973d 0629 a83d
000001f0: eab3 643d 4e49 9e3d e3ff 6fbd 1ab3 8aba
00000200: 158b 0f3d ddb0 46bd 5aae 8fbc 6eda 0ebb
00000210: 2bc7 ccbd 012f 643d cbb8 c33c 576d 00be
00000220: 9544 9a3d 969b 16bd 3bb8 913d ab15 103e
00000230: 8cc7 7dbc 6af2 9fbb 6874 b03c c3b4 de3d
00000240: b98c 8bbd a3cd 3abd 0b52 243c c21f d33d
00000250: fcd7 06bc d69f e33d 8a4b 2ebd 9e3e 6f3d
00000260: acce 0cbc a6c0 5a3d e127 06be f286 fdbd
00000270: 0f37 783c 3062 a43d 535e d83d 605c f73c
00000280: 9ad0 da3c 3a4d 0c3d 19fa 1cbe 029e 01be
00000290: 9d45 febd cb6a b5bc 8d9c f2bd 8715 333d
000002a0: 7ae9 bf3c 1e32 353d 0b42 253c a385 123e
000002b0: 9d21 ca3d 660c 6cbd 417e a43c b7b5 763d
000002c0: df14 073e 914f bebb d6b3 0bbd 148b e5bd
000002d0: 1b96 603d 9860 1dbd 9247 91bd 6433 d13d
000002e0: 8be4 073e 5d6d 863c bc60 57bd f672 ea3d
000002f0: 285a c8bc 7f3d 66ba 1ad5 97bd 0f49 27bd
00000300: 2134 98bd 9c2d 57bd d363 c2bd 914c 4abc
00000310: b47f 5f3d 83ee eabd 4e1b 21bc cff2 b4bd
00000320: 6b2c 673d 4875 053e 600b 01bd 0401 9cbc
00000330: 28a3 f4bd 51dd 86bd b0bb 833c dcbc 8c3d
00000340: 02de 5f3d d67b 473c 4f62 8c3d fd83 29be
00000350: 0d3b 263c f078 073e d632 15be feb0 dabc
00000360: 596e 883d 412c 5fbc 3ac6 9cbd 73b3 373d
00000370: 6381 d8bb f886 0c3d c349 ddbb caca fa3d
00000380: fbba b43d f5d8 ed39 a367 4c3d 784b 113d
00000390: 7ce5 633d 1cb0 99bd a137 b6bc b03c 4a3b
000003a0: 543e 90bd fd93 263e 7426 f0bd 33a8 b73d
000003b0: 3c67 0bbe 8da7 a63d 9c8a fb3d 1ec0 cb3c
000003c0: ec70 1f3c 22ef bb3d 1982 87bd 42eb cfbd
000003d0: 7767 f6bd a307 e9bc fd4b 98bc 34d5 c8bc
000003e0: 9df8 863d b86b fc3c d4a6 ed3d 7d2f e3bd
000003f0: 38c1 cfbb 74dd 903b dbcf 81bc eb92 143e
-0.07986486 -0.1091578 0.024915935 0.023453752 0.075783804 0.054260235 -0.09509459 -0.03980151
0.11332784 -0.11385032 -0.07495706 -0.10594111 -0.08496322 0.120850466 0.038749892 0.09139895
0.15695499 0.054617796 0.02122552 -0.0566767 0.06893298 0.01272614 0.054840133 -0.021494502
0.009506958 -0.06430057 -0.07722643 0.045038827 -0.100316316 0.051110756 -0.09406731 -0.11054871
0.019692281 0.12372392 -0.058579095 0.08476303 0.09759414 0.11104044 0.06318389 -0.0055933124
0.08631585 0.021995312 0.051329877 -0.11555777 -0.032559097 0.010858776 0.003036313 -0.08059555
-0.15556839 -0.07444357 0.03909995 0.13647191 -0.08309719 0.060048167 -0.081170715 -0.13795266
-0.08002015 -0.020315457 -0.0075400476 -0.10660689 0.0705104 0.025029896 -0.019305753 0.08436126
-0.058852185 -0.027790468 -0.05110278 0.014536757 -0.059623238 -0.10721908 0.08560488 0.050850507
0.10947418 -0.037905112 0.030539904 -0.057042435 0.0591405 -0.03380866 0.078771934 0.056686837
0.0948815 0.066155545 0.040820796 0.10954469 -0.07668464 0.14907402 0.09746892 0.11934113
-0.06686851 -0.04057953 0.0004754205 0.039733596 0.06171069 0.052606948 0.10389028 -0.05207311
-0.029295364 0.050545447 0.05570991 -0.06844148 -0.0027029053 -0.107491076 -0.052943572 -0.0346264
0.1442525 -0.12680788 -0.073052555 -0.12724611 0.037030987 -0.10346734 0.040939912 -0.06518349
-0.07141541 -0.04219739 0.019365884 0.09997162 0.09471826 -0.011352917 -0.12940112 -0.040636398
-0.04511212 -0.021438487 0.07374395 0.082109496 0.055835642 0.077288255 -0.058593642 -0.0010581941
0.03504475 -0.048508514 -0.017539192 -0.0021797675 -0.09998926 0.05570889 0.023891827 -0.1254171
0.07532612 -0.036769472 0.07115217 0.14070766 -0.01548947 -0.004881193 0.021539882 0.10874321
-0.0681395 -0.045606267 0.010029326 0.10308792 -0.008230206 0.11114471 -0.04255251 0.058409326
-0.008594196 0.05340638 -0.1310115 -0.123792544 0.015149846 0.0802654 0.10564866 0.030195415
0.026710797 0.034253336 -0.1532978 -0.12657931 -0.124156214 -0.02214565 -0.11846266 0.043721702
0.02342676 0.04423725 0.010086547 0.14308791 0.098696925 -0.05762901 0.020079734 0.06023189
0.13191555 -0.005807825 -0.03410705 -0.11208168 0.05483065 -0.038422197 -0.07093729 0.1021488
0.13270776 0.01640957 -0.052582487 0.11447708 -0.024457052 -0.00087829673 -0.07413693 -0.04084116
-0.07431818 -0.05253373 -0.09491696 -0.012347356 0.054565147 -0.11471274 -0.00983317 -0.088353746
0.056438845 0.1303302 -0.03150499 -0.019043453 -0.11945182 -0.065851815 0.016080707 0.068719596
0.054655083 0.012175521 0.068546884 -0.16554256 0.010145915 0.13229728 -0.14570174 -0.026695725
0.06661672 -0.013621391 -0.07654996 0.04484887 -0.006607221 0.034308404 -0.006753178 0.1224571
0.08824726 0.00045365808 0.049903523 0.035472363 0.055638775 -0.07504293 -0.022243323 0.0030858926
-0.07043138 0.1626739 -0.11726084 0.08967628 -0.136136 0.081374265 0.12282297 0.024871882
0.0097315125 0.0917647 -0.06616611 -0.10152294 -0.12031453 -0.028446024 -0.018590922 -0.024515726
0.06590388 0.030813083 0.116040856 -0.11093042 -0.006340172 0.0044209305 -0.015846184 0.1450917

encoder.rnn.bias_ih_l0 f4 [192]
00000000: c34b cb3d b60c 4e3d 1674 6cbc 433d 1ebe
00000010: 8feb d9bd 2ff1 e3bd ef1c 8dbb be1b 9b3d
00000020: 8a0b e63c eee5 93bc 7caa 9b3d f9c3 3a3d
00000030: e5b1 e2bd 2984 983c 8cf5 93bc d27d 133d
00000040: fcfa c03c 673b 493c b988 93bd 9d42 c03d
00000050: 46d1 b43c 55d2 863d 283f ca3d 8813 b53d
00000060: 3b20 0cbe 84b7 a93c 41bd a73d c7c4 74bd
00000070: 146f 953d 3004 98bd d89d 21be 42d7 233e
00000080: bdaf 813d f93f 0a3e 1bf3 ab3d 5035 0cbe
00000090: 0b80 98b9 aa65 d53d 2a67 89bd 57d0 943c
000000a0: 8b18 d03c 5171 03be 610b b2bb 59ac bdbb
000000b0: 266e 00bc d7e6 d6bd 63b5 7b3d cac2 d6bd
000000c0: 38ec 8c3c e829 7b3b bb13 7abc d664 c8bd
000000d0: 2770 b5bd 0834 05bd 6b3c 0dbd 6171 7fbd
000000e0: b4b4 a83c 4a67 d03d 343e a3bd 48a9 d8bd
000000f0: 976d 6f3c 1bc2 ed3d d9d4 ddbd 7c13 a23d
00000100: 0e21 133c 25f3 4dbe c566 8a3d 804c 39be
00000110: ce20 7abe 3572 253d 37d7 93bd ecfe 10be
00000120: 9174 15be c3c2 48bd c160 d2bc 195f db3d
00000130: ebcd e2bc 5c7e 563d eccd 80bd d62f e73c
00000140: b0b0 08be 7d3b d2bd 087f 833d 763b b0bd
00000150: 8c35 bbbd 0186 c3bd b9c8 c73b 4c87 e9bd
00000160: 7d37 c3bd acd5 253a c223 98bd 8829 7f3d
00000170: bc3c 4dbd 22a8 c1bd 1da5 6cbc dcf4 92be
00000180: b991 06be b0f1 72bd 736e c1bd 8bbf cf3d
00000190: 72f6 6cbe 55c3 08be e002 06be 0b35 02be
000001a0: e941 87bd 18f0 a13c da80 c73a 2fd5 273c
000001b0: be43 cf3c a6f4 963d 609d f4bd 0738 c13d
000001c0: 994a d0bd 20b0 d2bd ef40 a4bd 738f d6bd
000001d0: a2ab b7bd c339 20bd c2bd 1e3c b8e7 03be
000001e0: 048f 9d3d 215e ae3d fa2f 6bbd 29e8 963c
000001f0: 5d2e e53c b900 753d 1d8b 843d e007 3dbc
00000200: 09c2 81bd 4bbb cc3c 9c57 42bd c33c 003e
00000210: 9a35 d7bc 9548 d4bb 618a ae3d 9434 213c
00000220: 0dc5 cfbd f760 67bd d92f 1c3d e114 afbd
00000230: 74f6 a23c 0595 fc3c c7ec 9fbd 1001 8dbd
00000240: e08f 84bc 8bb0 1abd 21ee fc3d 7d90 963d
00000250: 0d6b 9b3d c97d 993d 51e8 183d 87a9 8ebd
00000260: 9703 d13d 9175 ff3a a704 653d ae9c ba3d
00000270: ee00 b33c 32f4 a7bd d932 903c 911d 1bbd
00000280: 7b93 01be d3ca 833d 5f70 8bbd 9136 993d
00000290: f74a c0bd d699 083d 1158 27bd dee9 bf3c
000002a0: 3514 8b3d f18d f1bd 5f97 9e3d 81ca 43bc
000002b0: 74ea 513d 7cf6 8dbd ce33 4cbd dfe4 0d3c
000002c0: 853d 72bc 1e49 0dbd 8ecc 983d fd2f 18bd
000002d0: 79e9 88bd e606 caba 5c31 a93d 99c3 a9bd
000002e0: d712 00bd ab49 19bc 4842 9c3d 86d5 ea3d
000002f0: d4d8 52bd 5224 30bc 38e6 bebd 32fa 83bd
0.0992656 0.05030509 -0.014431974 -0.15453057 -0.10640632 -0.111299865 -0.0043064277 0.07573651
0.028081674 -0.018053975 0.07600877 0.04559705 -0.11069087 0.018617706 -0.018061422 0.036008663
0.023557179 0.012282229 -0.07203812 0.093877055 0.022072446 0.065830864 0.09875327 0.08841616
-0.1368417 0.02071739 0.08190394 -0.059757974 0.07296577 -0.07422674 -0.15782869 0.16000083
0.063323475 0.13500966 0.08395978 -0.13692212 -0.000290871 0.104197815 -0.0670913 0.01816575
0.025402328 -0.12836196 -0.0054334854 -0.0057883677 -0.007838761 -0.10493248 0.06145228 -0.10486372
0.017202482 0.0038324539 -0.015263493 -0.09784858 -0.08859282 -0.032520324 -0.034481447 -0.062363986
0.020593978 0.10175951 -0.07970849 -0.10579163 0.014613531 0.11609288 -0.10831613 0.079138726
0.008980049 -0.20112284 0.06757883 -0.18095589 -0.24426576 0.04039212 -0.07218783 -0.14159745
-0.14595248 -0.049013864 -0.025680901 0.10711498 -0.02768608 0.0523666 -0.062892765 0.028221052
-0.13348651 -0.10265253 0.06420714 -0.08605091 -0.09141073 -0.095470436 0.006096926 -0.11402759
-0.09532068 0.000632609 -0.07428695 0.062295467 -0.05010675 -0.09455897 -0.014443663 -0.28702438
-0.13141526 -0.059312522 -0.09444895 0.10143956 -0.23140886 -0.13355763 -0.13087034 -0.12715547
-0.06604368 0.019767806 0.0015220896 0.010243698 0.025300857 0.07370882 -0.119440794 0.094345145
-0.101704784 -0.102874994 -0.080201976 -0.104765795 -0.08968283 -0.039117586 0.0096887965 -0.12881362
0.07693294 0.085140474 -0.0574188 0.01842125 0.02797621 0.059815142 0.06471846 -0.011537522
-0.063358374 0.024991652 -0.047446832 0.12523179 -0.026270676 -0.006478379 0.085224874 0.009839196
-0.10145006 -0.056488957 0.03813157 -0.08548904 0.019892909 0.030832777 -0.078088336 -0.06884968
-0.016181886 -0.03776602 0.12350107 0.07351778 0.07588778 0.07494695 0.03733093 -0.069659285
0.10205763 0.0019489994 0.05591264 0.091119155 0.02185103 -0.082008734 0.017602371 -0.037869994
-0.12653916 0.0643517 -0.068085425 0.07481111 -0.093892984 0.033349834 -0.04085547 0.023426946
0.067909636 -0.11794651 0.077437155 -0.011950136 0.051248983 -0.06931779 -0.049854092 0.008660524
-0.014785175 -0.034493558 0.07460891 -0.03715514 -0.066851564 -0.0015413433 0.08261368 -0.082892604
-0.031267967 -0.009355943 0.0762983 0.114665076 -0.051476315 -0.010750847 -0.093212545 -0.06444205

encoder.rnn.bias_hh_l0 f4 [192]
00000000: 7f53 5b3d 4207 37ba a815 b63d 82ea 2fbd
00000010: d84a 6bbd bbf4 6abd ae33 873c d9ec 773d
00000020: d2dc c53b 901c fc3c 3d1b 37bd c998 193d
00000030: 614a dfbd 4b2e 8c3d c882 02bd 6baa b83d
00000040: 1423 59bd 292a 303e ab86 833d 925b d5bd
00000050: 14eb 5fbd 339d c13d 708b 333d 1eb8 103e
00000060: 21a9 81bd dce5 42bd 6ae4 b73d f576 7dbd
00000070: 4bb1 b93d ae45 6c3d f997 aa3d 5fdc 043e
00000080: 4fee 5ebd ff40 0d3e df0c b8bd 0fc9 bb3d
00000090: b9dd 1fbd a36c 8bbd 741f 253d ba6b 833d
000000a0: b8ac 5ebb e241 923d 3cc7 dcbc 9dde 32be
000000b0: bb4d 9b3d fe41 c7b8 e913 8b3d 09e7 80bd
000000c0: c475 743d 4418 393d fdeb bfbd ef7f ffbd
000000d0: 4847 36bd 1217 e13c 9a39 54bd 71c4 44bd
000000e0: 91b1 abbc 9d62 02be e0b1 a4bd 058e 81bd
000000f0: c9bc 61bc 6d24 033e c84b b93d 9fc2 053d
00000100: 3728 de3c 8bd5 6abe b36a a03c c946 2fbe
00000110: df01 79bd 95b6 06bc 7075 d3bd a093 0bbe
00000120: 91c0 d8bc f660 89bd df04 07bd ca94 67bc
00000130: 9aae 8c3d 1014 2ebd 0c14 1cbd c3ae 113c
00000140: ccfe 2bbe 2aa8 103d f045 2dbe a2a9 5fbe
00000150: ee88 ee3d 9871 01be 6f59 b4bd a1a6 2bbe
00000160: ca1f cf3d eaa1 723c 3862 11bc 0a03 8cbd
00000170: a910 90bd 502a 85bd 988a 41be 39cd a0be
00000180: 7bf5 59bd 6648 abbd 2158 2ebe b355 fcbc
00000190: 63eb 113a 7c89 81bd 57f3 96bd cef6 40be
000001a0: c0a4 afbd e399 a2bd 8399 19bd f94a abbd
000001b0: e600 8ebd 1dee fc3c 0f36 473d 1269 29bd
000001c0: 6a6c 28be 18bb 1bbe 80f9 94bc 1610 39be
000001d0: c097 cfbd d384 2ebd b8c8 dfbd d4e9 8f3d
000001e0: 7c8d 07bd 91de bb3d cbc6 2bbd d0b3 0abe
000001f0: 405c a63d 8149 0cbe 75ba 653d 1544 c1bd
00000200: 74ab dbbc 4692 9e3d acd6 c23a 495b 90bd
00000210: a310 c33d 2030 9e3c a584 053d 3167 8e3d
00000220: cf44 4b3d 74c2 0e3e d852 843c 06c8 cdbd
00000230: 675e 3c3d fdab d1bd 1290 893c b275 e73c
00000240: b7fb 2abd 5bfa b9bc ad25 91bd beb4 eebd
00000250: 8eb7 d33c d807 ccbb 96cb b0bd 60cd 0b3e
00000260: 5053 8f3d d54a 6f3d 924c 953c c2c1 21bd
00000270: f714 b93d e2fd e4bd 5b5f 4dbd 5a34 033e
00000280: b725 733d 61e1 02bd c8b8 70bd a021 073d
00000290: 3e3b 893d afcb 86bd 0a2c 023d dc6b ca3d
000002a0: 9d4f 233c 7aa1 a2bd f168 b0bb abf6 c9bb
000002b0: b7a5 ea3c 3429 afbd 7768 7f3d eeaa f83d
000002c0: cec0 39bd fb00 da3d 4398 823d 6233 1bbd
000002d0: d97b b6bd 0abc 9a3d 592c fabd 308c b83d
000002e0: e947 e3bd 8c0a 61bd 74b7 de3c 3141 983d
000002f0: 8ceb b8bd 26ca 3c3d 9aa6 a63c 0e29 41bd
0.053546425 -0.00069819775 0.08890849 -0.042948253 -0.057444423 -0.0573623 0.016504135 0.06052861
0.0060382867 0.030775338 -0.04470371 0.037499223 -0.109028585 0.06844767 -0.031863004 0.0901688
-0.05301197 0.17203583 0.0642217 -0.10417856 -0.054667547 0.094538115 0.04383415 0.14132735
-0.06331087 -0.047582492 0.089791134 -0.061881024 0.09067019 0.05768364 0.08329768 0.1297469
-0.054426488 0.13794325 -0.0898683 0.09169208 -0.03902981 -0.0680783 0.0403132 0.064170316
-0.003397746 0.071414724 -0.026950471 -0.17467733 0.07583185 -9.5013515e-05 0.06790907 -0.062940665
0.059682623 0.045189157 -0.09371183 -0.12475573 -0.044501573 0.027476821 -0.051812746 -0.048038904
-0.020958694 -0.1273293 -0.080417395 -0.06325916 -0.01377792 0.12806864 0.09047657 0.03265631
0.027118785 -0.22933023 0.019582128 -0.17116846 -0.0607928 -0.008222242 -0.10325134 -0.13630533
-0.02645901 -0.06707947 -0.03296363 -0.014134595 0.0686924 -0.0424996 -0.038105056 0.008891764
-0.16796416 0.035316624 -0.1692121 -0.21842054 0.11647211 -0.12640989 -0.088061206 -0.16762783
0.10113485 0.014809111 -0.008873515 -0.06836517 -0.07034428 -0.06502211 -0.18900526 -0.31406572
-0.053212624 -0.08363418 -0.17025806 -0.030802583 0.00055663864 -0.06325051 -0.07370632 -0.18844149
-0.085763454 -0.07939508 -0.037499916 -0.08363909 -0.06933765 0.03087526 0.04863554 -0.04135997
-0.16447607 -0.1520809 -0.018185377 -0.18072543 -0.10136366 -0.04260714 -0.10926956 0.07027021
-0.033093914 0.091733105 -0.04193763 -0.13545156 0.08123064 -0.13699915 0.056086022 -0.09436814
-0.026815154 0.07742743 0.0014865003 -0.07048661 0.095246576 0.019310057 0.032597203 0.06953276
0.049626168 0.13941365 0.016152784 -0.10047917 0.045988467 -0.10237882 0.01679233 0.028254364
-0.04174396 -0.022702387 -0.07087264 -0.116555676 0.025844362 -0.006226521 -0.08632581 0.13652563
0.069983125 0.058420975 0.018224988 -0.039491422 0.09037202 -0.11181237 -0.050139766 0.1281294
0.05936214 -0.03195322 -0.05876997 0.03299105 0.06700753 -0.06581818 0.03178028 0.09883854
0.009967712 -0.079409555 -0.0053836037 -0.0061634383 0.028643472 -0.08552781 0.062355485 0.12141977
-0.04534989 0.10644718 0.06376698 -0.0378908 -0.08910341 0.07555397 -0.1221549 0.09011114
-0.110977 -0.0549417 0.027187087 0.07434309 -0.09029302 0.04609122 0.020343114 -0.047158293

encoder.rnn.weight_ih_l1 f4 [192, 64]
00000000: 031e debc d2bf 043e a8aa b2bd 82e8 2cbd
00000010: 6125 283d 067b ebbd 7f83 bc3c 8951 173d
00000020: bf17 cf3c 9aac 673d 8b8d e73d cd9d 443c
00000030: 55bd dd3d 5a1d 87bd bce3 193c 8bef aabd
00000040: 41b2 03be c7d6 8a3c cf08 7b3c 3073 c9bd
00000050: 002e 7abd e27c 9fbd 8776 f93c 620b c23d
00000060: dcf0 76bd 8bba f03d 3aa6 d3bd 6202 d2bd
00000070: bcbf fa3d fc55 413d a36c 73bd c881 95bd
00000080: 8353 953b 6019 cebd 72bc c73d 4a69 27bd
00000090: 4cfe d03d 6d31 a83d 5854 c33d f002 03be
000000a0: 4b6d 973d 8ca3 a2bd 39be 7bbd 585f c03d
000000b0: ad2a e6bd 87e5 16bd 3234 683d 6257 73bd
000000c0: 7ea9 ed3d a6ec be3d 481d a3bd 6538 903c
000000d0: ba2e 02be c0c2 ae3d fd1c 0bbd c2ab 153d
000000e0: 1693 17bd b7ce d03d 0a2a e13c 8d1d b8bd
000000f0: b73b eebd b318 6dbd 6e46 87bb 6d66 f1bc
00000100: 92db 3e3c 5ff6 0e3c ee96 793c 616f d73d
00000110: a70d 38bc f6d8 8cbd 42cf 823d 6664 813d
00000120: 8afd 0dbd 8376 083c 572c 033e 5492 1c3d
00000130: 3b6e 6c3c 9ca1 abbd 37f6 d1bd e631 a03d
00000140: f8cb 6d3c dfd8 993d 255a 963d cd99 a1bc
00000150: e120 f6bd e087 5d3d 045c e33c a0d1 d93d
00000160: 309b d4ba ed65 483e 7d1c 43bd 10c3 403d
00000170: 8350 e2bd 9e36 053c 3a0a 45bd 240c 153d
00000180: 854b 22be 4dda a5bd b082 bc3d f076 e23c
00000190: 73bc 363d e456 b73b 51a4 453c 3022 a33c
000001a0: 341c 6f3d ef80 e2bd 5c14 f0bd 0aab a7bd
000001b0: cd1d 4e3d daeb 6a3d 74a9 4bbd 9b6a 713d
000001c0: b8a7 1a3e 435d 90bc a498 50bd 5f22 13be
000001d0: 07c5 88bd 31cb 0f3e 7503 c4bc 1fe9 a43c
000001e0: 77c7 c03b a803 f1bb b603 9e3a c5c4 ff3d
000001f0: 0fa0 9abc 4825 593b f3bf d0bc fdfb 0b3e
00000200: b5ee 9cbd 4ee4 7c3d c0c2 59bb fc44 d1bd
00000210: c4c5 0c3d 7d5e fa3d 9a1b d6bd a578 9a3d
00000220: c0bc 08bd 7725 89bd 7dab ce3c e669 093e
00000230: be69 ccbd 249e 60bd 2684 8bbd 19de f13b
00000240: 9d37 063c 41d6 9f3d c22c 02bc bf6f adbd
00000250: 2857 bcbc 0502 e7bd cc96 463d 205c 1e3d
00000260: 0ba0 01be 9be6 ac3d ab3c 8a3d 5a9a fabd
00000270: 2451 bcbd e37c ed3d 9bc3 f83b 5a74 d5bd
00000280: 32ba 41bb cc9c eebd 8cbc 853d 106d 8ebd
00000290: d7f1 0a3e 0c55 4e3d 1fc8 d6bc 3d8c d63a
000002a0: cd73 8ebd 3b57 34bd 5609 e0bd 23c7 76bd
000002b0: 4636 193d de54 293d 8b06 0abd 0b78 91bd
000002c0: 4b04 2cbd 3072 debd f589 903d 8722 bfbd
000002d0: c189 123c bf20 adbc dbac 9d3c 6f84 8cbb
000002e0: 5547 adbd 0abf 48bd 9783 c2bd 9059 7f3d
000002f0: 6c82 04bd 3478 15be 84d8 94bd f8c7 b3bd
00000300: 88b8 7939 5b16 29bd 0202 8dbd b06b 0bbd
00000310: 61f3 c13d 032b f9bd db80 bebc eb63 b63d
00000320: 91cb a13d db0c 2f3d 6514 443d 9fb5 83bc
00000330: 3434 e4bd 8dd3 60bd 0968 aebd dd63 e53d
00000340: 8ab5 6bbc dad6 9fbd 2512 d1bd f6c5 8abd
00000350: c654 6a3d 265e 133b 9528 013d cef5 e6bb
00000360: 1d5e 50bc 3bbc 9f3d 77f7 ef3c c7b2 79bd
00000370: 65aa e23d 18eb db3d 503f 7e3d d65b dc3d
00000380: 39eb af3d 4fc5 0ebd a742 193d f695 5abd
00000390: d30c 63bd 0fcf 1abc 7e49 bcbd 173a c63d
000003a0: 5225 e8bd efeb 54bd 6d0f 10bd e2df d73d
000003b0: c191 c3bd fa60 813c b4b0 bc3d f88a debd
000003c0: e9ff 043e 121d 913d ab98 873d 3cfb 1bbc
000003d0: fbbe 8f3d 3681 4cbb 90dc cdbb a13d e53d
000003e0: 7627 31bd b49e b63c 953b c23d 59c4 babc
000003f0: 01f5 5fbd 81f0 1fbd 8f89 3abc 87a7 c1bd
-0.02711392 0.12963799 -0.08723956 -0.042213924 0.041051272 -0.11498074 0.023011921 0.036942992
0.025279878 0.05656109 0.11306294 0.012000513 0.10827128 -0.06597395 0.009392675 -0.083464704
-0.12860967 0.016948117 0.015321924 -0.098364234 -0.061079025 -0.077874914 0.030452026 0.09474827
-0.060288295 0.1175433 -0.103344396 -0.10254361 0.12243602 0.04720114 -0.059429776 -0.073001444
0.0045570745 -0.10063434 0.0975274 -0.040871896 0.10204753 0.08212552 0.09537572 -0.1279409
0.07393893 -0.0794135 -0.061460707 0.093931854 -0.112386085 -0.036839988 0.056690402 -0.059409507
0.11604594 0.09322481 -0.07964569 0.017605016 -0.12713137 0.08533239 -0.033963192 0.036540754
-0.037005506 0.10195678 0.027485866 -0.08990011 -0.116324835 -0.057884883 -0.004128269 -0.029467786
0.011649029 0.008725732 0.015233738 0.10519291 -0.011233724 -0.068773195 0.063871875 0.063179776
-0.03466562 0.008329037 0.12809883 0.038225487 0.014430578 -0.08380434 -0.1025204 0.07822017
0.014513962 0.07512068 0.073414125 -0.019726658 -0.1201799 0.05408466 0.027753837 0.10635686
-0.0016220566 0.19570132 -0.04763459 0.047061026 -0.11050513 0.0081306975 -0.048105456 0.03638853
-0.15849121 -0.08098278 0.09204614 0.027644604 0.044613313 0.005595075 0.012063102 0.019913763
0.058376506 -0.110597484 -0.11722633 -0.0818692 0.05032139 0.05735383 -0.04972215 0.058939558
0.15103042 -0.017622596 -0.05092682 -0.1436858 -0.06678205 0.14042355 -0.02392743 0.020130692
0.005883153 -0.007355172 0.0012055549 0.12488703 -0.01887515 0.0033133794 -0.025482154 0.13670345
-0.07662717 0.061741166 -0.0033227652 -0.10218236 0.03436829 0.122250535 -0.10454483 0.07542542
-0.03338313 -0.06696599 0.025228256 0.13419303 -0.09981106 -0.054838315 -0.06812315 0.0073812124
0.00819197 0.078045376 -0.007945241 -0.084685795 -0.022990778 -0.11279682 0.048483655 0.038662076
-0.12658708 0.08442422 0.06749853 -0.122364715 -0.09195164 0.11596086 0.0075916774 -0.10422583
-0.0029560444 -0.116510004 0.06530103 -0.06954396 0.13568817 0.050374076 -0.026218472 0.0016368699
-0.06955681 -0.044028502 -0.10939281 -0.060248505 0.037405275 0.0413407 -0.033697646 -0.071029745
-0.04199628 -0.10861623 0.07057563 -0.093327574 0.008943976 -0.021133779 0.019247463 -0.0042882483
-0.08460871 -0.049010314 -0.09497755 0.062341273 -0.032350942 -0.14596635 -0.072678596 -0.087783754
0.00023815234 -0.041281085 -0.068851486 -0.034038246 0.09470249 -0.12166407 -0.023254802 0.089057766
0.07900155 0.04273687 0.047871012 -0.016077815 -0.111427695 -0.05488925 -0.08515937 0.11200688
-0.014386544 -0.078046516 -0.10208539 -0.06776039 0.057209753 0.0022486537 0.031532843 -0.007048345
-0.012717751 0.07799574 0.029292805 -0.06096151 0.110676564 0.107382 0.0620721 0.10759704
0.08589787 -0.034856137 0.03741708 -0.05336567 -0.055432152 -0.009448781 -0.09193705 0.096790485
-0.11335243 -0.051982816 -0.03517096 0.10540749 -0.09549285 0.015793312 0.09213391 -0.1086635
0.12988247 0.07085623 0.06620916 -0.009520348 0.070188485 -0.0031204945 -0.0062823966 0.111933954
-0.043250524 0.022292472 0.094840206 -0.022798704 -0.054677013 -0.03904772 -0.011385336 -0.094557814

encoder.rnn.weight_hh_l1 f4 [192, 64]
00000000: 7ca5 5d3d db7f 8a3c 1115 013e 1568 11bd
00000010: e125 863d 51f9 e53c a907 9cbd a6d3 babd
00000020: 259b 8f3d de99 93bd 3d2b dfbc 7f81 30bc
00000030: 0572 f5bd 7893 b63d 0b67 1abd ee94 72bd
00000040: a762 d3bd 7df6 023d b177 70ba 2cc0 e5bc
00000050: f636 41bd b53e 423d c74d 0abd 6385 2f3c
00000060: 0bfd c43d 5c99 2f3d c712 8fbd ece6 86bc
00000070: 52e9 3abd 9f90 713b f3a8 913d 7382 80bb
00000080: 4f19 5fbd 8d32 a6bd bb2f 7d3d 259e 7dbd
00000090: 3a5b 36bb 7a03 45bd 9ed8 c1bd fcda 4e3d
000000a0: a935 bb3d c4d5 91bd 53c7 b73b 87e3 613d
000000b0: 7c9e 1bbd 57e8 dbbc 3e3f 533c b9d4 513d
000000c0: 0752 fcbb 1ab8 fcbd af93 23bd 598b 17bd
000000d0: 1a96 d93b 4691 88bd 533e 2c3d fd96 a4bc
000000e0: 9db4 84bd ea5f 21bc 2dfa 9bbd 413a 81bd
000000f0: 6c7f 963d 06b3 0d3d cc59 893d 2a1b 1d3d
00000100: 6df2 9c3d fbdd 9f3d bd2a bf3d f56d 44bc
00000110: 5fdd 0cbd 4922 9d3d 75e1 5c3d b144 073e
00000120: 1176 013e a6fb ac3d 6d53 cc3c 1b82 f9bb
00000130: 59c6 a7bd c0d4 d43d 7668 a5bd e582 a33d
00000140: d4b0 52bc 8cf2 91bd 111b a7bd ff8f 793c
00000150: f355 c2bc ce6f 593d 9b6e 92bd b51a 3bbc
00000160: 4a8d 323d 00ad e03d e309 ecbd 2bfc 9ebd
00000170: 0221 70bd 3218 473d edc3 e33d 0101 3fbc
00000180: 81ce cf3b 282e 873d 77c2 b3bd 2ac9 a83d
00000190: a991 e13d 2d84 01be e8e3 a6bc 5158 303d
000001a0: c250 7cbd ef6f 33bd 50ef cd3d 5b8e cd3d
000001b0: e4c8 a0bd 75a9 863d 8d9d 85bd 30f6 903a
000001c0: eea9 0fbe a722 e0bd afb9 163b abe0 bfbd
000001d0: 6860 7fbd 4fe4 7e3d 78af 963d 39d5 9fbd
000001e0: 9d1a db3d ee6b eb3d f154 91bc 5691 023d
000001f0: 7c2b ecbc 9aa3 1c3c ac29 7ebd 2973 bd3c
00000200: a353 163e 2529 45bd 5b55 5dbd eeb0 e03d
00000210: 8134 cf3d 4cfe 82bd b943 c83d 494f 10bc
00000220: 23c2 3f3d b950 853b 5eb6 08bd 8211 9bbd
00000230: 56ca 1b3b 192f 47bd de51 10bd c6f7 ad3d
00000240: 129a 703d c2b0 cbbd d2bc 983d 1a04 67bb
00000250: f461 d23d 84ae ac3d 7440 4abd 89ed b23d
00000260: 5b7e 0c3d 8348 333d 194a 93bd bef3 543c
00000270: 63a4 bcbd 7a60 b73d e6b9 68bc 5a82 943d
00000280: 49e8 003e cb95 bdbb ff6a b0bd a467 bfbd
00000290: 7887 603c 9411 f5bd 5c59 823d daec 39bd
000002a0: b8ca f8bd ee86 ab3d 6ee7 553d 429f e33d
000002b0: 831e 2a3c de31 823d 0233 823d 3f45 223d
000002c0: ad56 4ebd da50 a5bd 3b7b 1a3c 49f2 f63d
000002d0: 4128 943d c6b1 28bd 7b9d 33bd 631c cd3d
000002e0: c941 9d3d cddc 0d3d d156 eebd caf8 f8bd
000002f0: 968b c03d 885c 0e3e 87f7 f23d 294e 393d
00000300: 90e9 ecbc 9d09 42bd 729f c23d 0773 273b
00000310: d0f6 44bd a96b 603d 189b ccbd b551 8e3d
00000320: b7be 1ebd 3db6 0fbc b1dc 7d3d 416c 5cbd
00000330: 81ec 88bc a056 e4bd 06a3 84ba 7b79 3cbd
00000340: b900 e33c 1a93 973d fa58 74bd ca35 e33d
00000350: c163 993d 17b9 c33d 96a8 f2bb 52f9 6bbd
00000360: 3425 aebd 51d7 e33d 43b6 aebd 8dc7 9cbd
00000370: 0bf1 c1bc 6920 d0bd 8806 993c b9dc 2fbc
00000380: 0080 ac3c a6a9 e0bc 09b5 74bd 88b4 ae3d
00000390: b5c1 9ebd 4539 2cbe e63f 9f3d cb03 04be
000003a0: 06e2 b4bd e41a c8bd 70fc b93d bef0 0b3d
000003b0: 19c6 e63d f097 c63d 781a a2bd bbac 123d
000003c0: 3526 813c ed53 a83d ac89 0abd eb82 c33d
000003d0: 06a4 bbbc 35a9 26bd 1ee1 90bc 098d 9a3d
000003e0: 9e82 f33c 26f5 993d cbf7 433d c219 c13d
000003f0: dc96 2a3d d42f d8bd 656f c1bc c698 77bd
0.054112896 0.01690667 0.12605692 -0.03549965 0.065501936 0.028072985 -0.076186486 -0.091224
0.07012013 -0.07207082 -0.027242297 -0.010773062 -0.11984638 0.08914846 -0.037695926 -0.05922406
-0.10321551 0.03197335 -0.0009173109 -0.028045736 -0.047171555 0.047423083 -0.03376558 0.010712954
0.096185766 0.042870864 -0.06986003 -0.016467534 -0.045632668 0.0036859883 0.07112303 -0.0039218008
-0.054467496 -0.081151105 0.061813097 -0.061918397 -0.0027825371 -0.04809902 -0.094651446 0.05050181
0.09141094 -0.07120851 0.005608478 0.055148628 -0.03799294 -0.026844187 0.012893496 0.05122826
-0.007700208 -0.12339802 -0.039935764 -0.036998127 0.006640208 -0.06668334 0.042051625 -0.020091528
-0.06479762 -0.009849528 -0.076160766 -0.06309939 0.073485225 0.03459456 0.067065805 0.038355984
0.076634265 0.07806011 0.093343236 -0.011989106 -0.034390803 0.07672555 0.05392595 0.13209797
0.12642695 0.08446436 0.024942124 -0.0076143867 -0.08192129 0.10392141 -0.08076565 0.079839505
-0.012859542 -0.0712634 -0.081594594 0.015232085 -0.023722624 0.05308514 -0.071500026 -0.011419942
0.043591775 0.10970497 -0.11525323 -0.07762941 -0.05862523 0.04860706 0.11121354 -0.011657954
0.006341756 0.066006005 -0.087773256 0.08241494 0.110141106 -0.12648077 -0.020372346 0.043052975
-0.061600454 -0.04380792 0.10055411 0.10036918 -0.07850817 0.0657529 -0.06524191 0.0011059698
-0.14029667 -0.109441094 0.002299886 -0.09369024 -0.0623478 0.06222945 0.07357687 -0.07804341
0.106984355 0.11495195 -0.017740699 0.031876884 -0.028829329 0.00956049 -0.06205146 0.023126202
0.14680342 -0.04813494 -0.05403648 0.10971247 0.10117436 -0.063961595 0.09778542 -0.008807966
0.046816003 0.004068461 -0.033377044 -0.07571699 0.0023771725 -0.0486289 -0.035234325 0.08494525
0.058740683 -0.09945823 0.074578896 -0.0035250247 0.10272589 0.08431724 -0.049377874 0.087367125
0.03430019 0.043770324 -0.071918674 0.012997566 -0.09211042 0.08953948 -0.014204478 0.07251425
0.1258861 -0.005785679 -0.08614158 -0.0934594 0.013704173 -0.119662434 0.063647 -0.045391895
-0.121480405 0.08375345 0.05222266 0.111143604 0.010383251 0.06357168 0.06357385 0.03961682
-0.05037563 -0.08072062 0.0094287945 0.12057931 0.0723424 -0.041185163 -0.043851357 0.1001518
0.07678563 0.0346344 -0.11637653 -0.12156828 0.09401624 0.13902485 0.11863618 0.045240555
-0.028919965 -0.04737245 0.09503068 0.002555074 -0.04808694 0.054790173 -0.09990519 0.06949178
-0.0387561 -0.008771476 0.061978046 -0.053814176 -0.016714336 -0.11149335 -0.0010119386 -0.04601429
0.027710306 0.07401104 -0.059655167 0.11094244 0.0748973 0.095567875 -0.007405351 -0.057610817
-0.0850319 0.11125053 -0.085308574 -0.07655249 -0.023674509 -0.10162432 0.018679872 -0.010733777
0.021057129 -0.027424645 -0.05974296 0.08530527 -0.077517904 -0.16818722 0.077758595 -0.12892072
-0.08832173 -0.09770754 0.09081352 0.034165137 0.11268253 0.096969485 -0.07915205 0.03580926
0.015765289 0.082191326 -0.0338227 0.09546455 -0.02290536 -0.040688712 -0.01768547 0.075464316
0.029725369 0.075174615 0.047843736 0.09428741 0.041647777 -0.105559975 -0.023612687 -0.06044843

encoder.rnn.bias_ih_l1 f4 [192]
00000000: c3e6 f53d 6730 9b3d cb7d 39bd 789d 943c
00000010: 246f a2bd beda d53d 99e6 fabd aaad 333d
00000020: f98a ca3c 3cff a43d 6b00 b3bd de22 e8bd
00000030: 9a62 ee3d 50a5 eabd 24d9 90bd 2412 6e3c
00000040: 3d05 e2bd b40c ed3c c6c0 98bd 7389 f6bd
00000050: d37d f2bd 389e a7bd 24df 05be 32df 8dbc
00000060: e47b 24bd fbea 62bc d277 7fbd 186d 05be
00000070: 3ed3 8b3d 3e63 3b3d 9226 873c 3ec9 96bc
00000080: ec97 f53d 4599 e6bc edb1 5ebc 8fe1 21bd
00000090: b578 713d b774 733d c261 973d 87a0 c6bc
000000a0: 92fe 3bbd fc56 66bd d7da 09be 4ee2 bebd
000000b0: 092a acbc f56b 973d 7554 383b bd88 26bd
000000c0: d5db cb3c f515 f4bc c8a7 a6bd 8cc5 17bd
000000d0: f848 9fbd 9eaa 9c3c 67e9 a23d 01bc 943d
000000e0: bbf3 bfbc d815 15bb d588 cebc ee96 f53d
000000f0: 2016 d83d a790 43bd 2702 e9bd 6611 07be
00000100: 98b2 853d e5ac 6a3d 2ce1 adbd 2016 97bd
00000110: 09e1 213d 1b67 b7bd 3cdc cb3d e5b4 07be
00000120: f131 72bb ff52 d1bd 871c 12be 711f a03d
00000130: c178 a43c 6900 babd 9b1a 113d b325 bfbc
00000140: 0dd3 3a3c 5b0c 87bd 91e3 b0bd f9e5 fb3d
00000150: f875 08be 1ee8 bcbd aca8 a43d 02d4 94bd
00000160: 81f4 1cbd eb52 0dbd 8290 ec3d 593e ce3d
00000170: 1cfe d3bc d383 7a3d 36c0 6f3d 1b1d 3dbe
00000180: 3da0 88bd 92ad d23d 2880 8a3d 9a1b 223c
00000190: a35c 013e d1db 99bd a91a c73d 4e76 62bc
000001a0: d6b2 0abc 2ac8 83be 5e84 a93c ca74 eebd
000001b0: 65f0 83bd b7c6 c0bc 1d25 a73d 6a01 c4bd
000001c0: 02d6 9dbd 294c b53d b62f eb3d a90d 93bb
000001d0: 4852 d5bb f671 1dbe 8b69 953d 1d42 07bd
000001e0: 9080 c2bd ea68 b7bc b5c2 e7bc ef08 25be
000001f0: 5c2c b4bc 5df4 3a3c e359 20bd fb9d 833d
00000200: 2b69 2a3d 7f29 acbd 3905 1d3d b0f1 2c3c
00000210: 3abb 303d ecc7 d0bd cd27 da3d b4f9 463d
00000220: 2caa c53b b5b8 9e3d 16c4 ac3c 59f5 3a3c
00000230: c41e d33d 9e28 c0bd eee9 933d d851 37bb
00000240: d7f4 e93d 7ac6 aa3b b48e 98bd a701 4e3b
00000250: 1747 253d 3525 833c 13a1 f43c d0eb cfbd
00000260: 313f 053d 1731 b83d 5ff6 8c3d 5bba 863d
00000270: 7820 80bd 005a 33bd a556 7bbd 7d49 50bc
00000280: 3a03 d4bd b504 e23c 1306 66bd 410e 15bd
00000290: 160e 6fbd 85ff 8d3b 1ab3 df3c 4aa8 a73c
000002a0: df69 e63d 74ec 873c a907 e2bd df55 353d
000002b0: 7350 263d 2cfc 85bd def3 ad3c f77d 713d
000002c0: e894 f4bd eb4a 54bd b01c e3bd a4a8 76bd
000002d0: b946 af3d e7c8 fe3c 9b3c 183c f0f7 d2bd
000002e0: fdaf 743d 2278 c93d b72b 663c b504 803d
000002f0: 0adb 3e3d 7893 31bd 4e9b 96bd a3d9 9d3d
0.12006905 0.075775914 -0.04528598 0.018141493 -0.07931355 0.104421124 -0.12251014 0.04386679
0.02472447 0.080564946 -0.08740314 -0.113347754 0.116399005 -0.11457312 -0.07072666 0.014530692
-0.110361554 0.028936721 -0.074586436 -0.12037935 -0.11840405 -0.08184475 -0.13073403 -0.017318342
-0.040157214 -0.013849969 -0.06237013 -0.13029897 0.068274006 0.04574894 0.016497884 -0.018406507
0.119918674 -0.028149256 -0.0135922255 -0.03952175 0.058953006 0.05943748 0.07391693 -0.024246467
-0.045897074 -0.0562353 -0.13462387 -0.09320508 -0.021016138 0.07393638 0.0028126512 -0.040657748
0.024885098 -0.029795626 -0.081374705 -0.03705363 -0.077775896 0.019124325 0.07954674 0.072624214
-0.02343165 -0.0022748616 -0.025211731 0.11991678 0.10551095 -0.047745373 -0.11377364 -0.1319023
0.06528205 0.05729379 -0.08490214 -0.07377267 0.03952125 -0.08955213 0.09954116 -0.132526
-0.0036956037 -0.102209084 -0.14268695 0.07818497 0.020077111 -0.090821095 0.035425764 -0.023333406
0.0114028575 -0.065941535 -0.08637155 0.12299723 -0.13326252 -0.0922396 0.08039984 -0.07267
-0.038319115 -0.034502905 0.11551 0.100704856 -0.025878005 0.061160874 0.058532916 -0.18468134
-0.06671188 0.10287012 0.06762725 0.009894276 0.12632994 -0.0751263 0.09721882 -0.013822151
-0.008465489 -0.2573865 0.020693 -0.116433695 -0.06442336 -0.023532255 0.08161376 -0.09570582
-0.077068344 0.08852417 0.114837095 -0.0044877124 -0.006510053 -0.15375504 0.07295521 -0.033022035
-0.094971776 -0.022388894 -0.028291086 -0.16116689 -0.021993808 0.0114108 -0.039148223 0.06426617
0.041604202 -0.08406352 0.03833506 0.01055567 0.043147303 -0.10194382 0.10652123 0.04857798
0.006032249 0.07750074 0.021089595 0.0114110345 0.103086025 -0.09382747 0.07222353 -0.0027972367
0.114236526 0.0052116485 -0.074490935 0.003143409 0.040351 0.016008953 0.029861962 -0.101523995
0.032530967 0.08993738 0.06882929 0.06578513 -0.06256193 -0.043787003 -0.061361928 -0.0127128335
-0.10352178 0.027590135 -0.056158137 -0.036390547 -0.058363043 0.004333439 0.027307082 0.020465989
0.11250662 0.016592242 -0.11036617 0.044271346 0.040604066 -0.065422386 0.021234449 0.05895802
-0.11942464 -0.05182926 -0.11089456 -0.060219422 0.08558411 0.031101657 0.009291793 -0.103011966
0.059738148 0.09837367 0.014048508 0.06250898 0.04659561 -0.043353528 -0.07353841 0.077075265

encoder.rnn.bias_hh_l1 f4 [192]
00000000: cfc5 86bd bf8a acbd f071 02be 1a78 62bd
00000010: 4aeb 47bd 4d7d 073d 5d9f a0bd 06c3 0b3e
00000020: fbb3 bdbc 36c9 ad3d eb6d 7abd 480a a63d
00000030: 8033 a8bc 9776 92bd 91e0 adbd b083 853d
00000040: 7226 253d 2dac b53d e8dc a8bd bd48 86bd
00000050: 0001 dbbd 2915 493d 3bbc 163d 6186 0bbe
00000060: c3ff 3c3d 0bec 0cbd 514b e93c 070d ee3c
00000070: fd53 f0bd f495 aa3d ea7f b6bd ccf5 e1bd
00000080: d67c 7fbb ee3f 29bd b00d 1cbc c752 a4bd
00000090: 6b33 703c c862 b63b 1eee 82bd 2cca ecbd
000000a0: fdc3 be3d c691 dbbd d16b 543d 9a4f d83d
000000b0: 6a9c 5dbc 2b81 b0bc 570c 5e3c f126 92bb
000000c0: 6571 c53d 9a7a 4aba 641f 233d 5dbf d93c
000000d0: a00e 833d 27e6 2c3d 6cf3 94bd f50f 9e3d
000000e0: f374 dfbd 0e82 aebd 1551 15bd 8866 dc3b
000000f0: 3190 9d3c ac3d 943d 2947 9fbd 6765 f4bd
00000100: 1dac 11bd d160 5a3d 89d7 fc3c 8e9c 7dbc
00000110: 6c6c 9fbd 5591 20bd 1f38 933d 4aa3 f7bd
00000120: 2978 da3c 79ee 863d 08c3 28bd 6a47 5cbd
00000130: b7f0 abbc dd7b d1bd 3846 ac3d 3152 1cbe
00000140: 4351 e43d f11f dcbd 2e1e 90bc 54ea 63bc
00000150: 7030 f0bd d552 943c 28a9 01be 1428 1b3d
00000160: b3fc dfbd 7a4e 58bc 9345 82bd d4ac c33d
00000170: 17d3 6a3d bca1 f43c 6639 1d3c 961c 44be
00000180: 237e 133b 87eb b03d aa15 d8bc a567 ae3d
00000190: 2bc4 4dbc 3918 9e3d e6b2 f93c bccc 763d
000001a0: 1c3d d5bd ee59 2abe 8240 923d dd9e 8abd
000001b0: 0539 533d d4c1 c4bd 1d96 3bbd 24ed 783c
000001c0: acc5 5ebe 161a 28bd 7616 abbd 6af4 13be
000001d0: 58a5 7bbd 7cd3 0fbe 0f00 b4bc aa52 2dbe
000001e0: ddb1 edbd d888 25bd a3c0 143c 65c4 d3bb
000001f0: 2df0 3dbe 32cc d73c ce46 c93d bfb4 0e3d
00000200: 2531 dcbd 0ca9 0b3c 1061 833d 3aee 36bd
00000210: 4d9e 93bd 88e4 60bd 9ef6 1e3d c1b8 cebd
00000220: 200f f0bd f2aa 27bd ba27 8f3c 9a01 a63c
00000230: 114c f6bc 0ce1 1b3c c47e f4bd 077d 2abd
00000240: f0d8 303b b933 bc3d 3361 f7bd 6000 a73d
00000250: 7608 b0bd d0e6 debd ae89 543d 459a 51bd
00000260: 582b 88bd c939 dd3d 09c3 e6bd 69f3 dd3d
00000270: 3f65 adbd 66ca a4bc a9a6 563b e002 bcbd
00000280: f690 b93d 6a78 e73d 7886 c5bc 5427 803d
00000290: 84f0 aa3d c579 e0bd a922 273d fda5 1fbc
000002a0: dcab b6bc 1306 04bc 29e0 92bd 6001 e5bc
000002b0: a1c7 d6bd e4e8 9fbd 262e 42bc f693 0c3d
000002c0: 1057 c23d e2ea 8fbd df00 a3bd 5851 a53d
000002d0: 3f38 7abd 25ea dc3d 4c2f 8abc 8826 e63d
000002e0: 4623 b6bd 0404 a73d 416d cc3d 835d bebd
000002f0: da67 7ebd c5fe 17bd 8e93 363d c84f cebc
-0.06580698 -0.08424901 -0.12738776 -0.05529032 -0.048808374 0.03307848 -0.07842896 0.13648614
-0.02315711 0.084856436 -0.061139982 0.0810743 -0.02053237 -0.071515255 -0.08490098 0.06519258
0.040319867 0.088707305 -0.082452595 -0.065568425 -0.1069355 0.049092446 0.036800604 -0.1362548
0.04614235 -0.034404796 0.028478296 0.029058946 -0.117347695 0.083293825 -0.089111164 -0.1103321
-0.003898432 -0.041320734 -0.009524748 -0.08023601 0.0146606965 0.005565975 -0.063930735 -0.11561999
0.093147255 -0.107211635 0.051860634 0.10562058 -0.013526062 -0.021545967 0.013552747 -0.0044602086
0.09640769 -0.00077239575 0.03982486 0.026580507 0.06399274 0.042211678 -0.072729915 0.07717887
-0.10910978 -0.085209 -0.03645428 0.00672609 0.019233795 0.072383255 -0.077772446 -0.119334035
-0.03556453 0.053314988 0.030864494 -0.01547922 -0.07784352 -0.0392011 0.071884386 -0.12091692
0.026668625 0.06588454 -0.04120162 -0.053779043 -0.020988805 -0.10228703 0.08411831 -0.15265729
0.11148312 -0.1074828 -0.017592516 -0.013910849 -0.11727989 0.018105904 -0.12662184 0.03788002
-0.109368704 -0.013202304 -0.063609265 0.09554449 0.057330217 0.029862277 0.009596204 -0.1915153
0.0022505603 0.08638673 -0.026377518 0.085158624 -0.012558977 0.07719464 0.030480813 0.060253844
-0.10412046 -0.16635868 0.0714121 -0.06768582 0.05156805 -0.09607282 -0.045797456 0.0151932575
-0.21755093 -0.041040502 -0.083538935 -0.14448705 -0.06143698 -0.14045519 -0.021972684 -0.16926065
-0.1160619 -0.040413707 0.009079131 -0.006462621 -0.18548651 0.026342485 0.09827958 0.03484034
-0.10751561 0.008524191 0.064149976 -0.044660784 -0.07207928 -0.054905444 0.03880941 -0.10093833
-0.11721635 -0.04093451 0.017474998 0.020264436 -0.030065568 0.009514105 -0.11938241 -0.04162314
0.0026984774 0.09189553 -0.12079086 0.081543684 -0.08595364 -0.10883868 0.051889114 -0.051172514
-0.06648892 0.10802037 -0.11267669 0.108374424 -0.08466577 -0.020116042 0.0032753146 -0.09180236
0.09060852 0.11302264 -0.024111971 0.06257501 0.08346656 -0.10960726 0.04080454 -0.0097441645
-0.022298746 -0.008058089 -0.071716614 -0.027954757 -0.10487295 -0.07808092 -0.011851823 0.034320794
0.09489262 -0.07027222 -0.079591505 0.08072156 -0.061088797 0.10786847 -0.016868256 0.11237818
-0.088934466 0.08155063 0.09981776 -0.0929518 -0.06211076 -0.0371082 0.044574313 -0.025184527
