checkpoints/models/single_stock_daily/81to8/model20.pth (torch, 846466 bytes, 32 tensors)

encoder.conv1.weight f4 [4, 11, 3]
0.012447949 0.081061095 -0.037055988 -0.20777482 -0.15168725 0.018407682 -0.08640607 0.046673734
-0.054069955 -0.035183713 -0.14072855 -0.07024369 -0.24892022 -0.20362738 -0.10444698 0.038636126
0.049413767 0.076501235 -0.06207987 -0.08010564 0.045885265 0.14595781 -0.038426954 0.051040825
-0.033091065 -0.015118423 0.10082002 -0.15183951 -0.136682 -0.07046336 -0.037432663 0.1536975
-0.17253345 -0.035469756 0.06412361 -0.13983688 -0.090177834 0.16621958 -0.026546985 0.099510215
0.038930062 -0.19928466 0.042848714 -0.13628927 -0.23279387 -0.07721579 0.13604978 -0.0045731445
-0.12392672 -0.03308419 0.07937907 0.2181084 0.15325783 0.03999186 0.07374649 -0.11240266
-0.034884896 -0.07704096 0.001772708 -0.14981495 0.13883357 0.18319684 -0.14651623 0.011607821
0.1180546 -0.041748423 -0.040462777 0.029957896 0.04270209 0.23286815 -0.061546985 -0.050763033
0.13834944 0.22612284 0.16600057 0.22180398 0.11206339 -0.13765402 0.08494805 -0.030078866
-0.14959024 0.14375612 0.13395055 -0.17075013 -0.019054998 -0.055751372 -0.061056245 -0.08194404
0.07244506 -0.080750056 0.07229414 0.13024704 0.08073407 0.06250698 -0.14708354 -0.16132641
0.046263974 0.03597448 -0.114459835 -0.09307221 0.15581158 0.15073642 -0.1478363 -0.12082552
-0.2181313 -0.07947 -0.21139266 -0.18972325 -0.08410876 -0.052689623 -0.124656215 0.029053008
-0.1855849 0.10450643 0.0902148 -0.13965853 -0.047267254 0.013283249 0.067127846 0.070022576
0.020305809 -0.0056090597 -0.08923447 0.06294048 -0.16549432 -0.10698142 -0.04494151 -0.07728225
-0.056034938 -0.16700697 -0.026300738 0.041836854
00000000: 7bf2 4b3c 5c03 a63d 05c8 17bd ecc2 54be
00000010: e753 1bbe b5cb 963c aaf5 b0bd f52c 3f3d
00000020: 7578 5dbd cc1c 10bd 251b 10be ecdb 8fbd
00000030: f1e4 7ebe b283 50be 4ce8 d5bd ea40 1e3d
00000040: 1766 4a3d aeac 9c3d 7647 7ebd 6d0e a4bd
00000050: 30f2 3b3d f775 153e 9565 1dbd 2f10 513d
00000060: 7f8a 07bd 43b3 77bc ba7a ce3d d17b 1bbe
00000070: 5ef6 0bbe 184f 90bd fe52 19bd e162 1d3e
00000080: 9cac 30be bc48 11bd 3d53 833d 6631 0fbe
00000090: 28af b8bd 7735 2a3e 1079 d9bc 03cc cb3d
000000a0: 2175 1f3d 4711 4cbe 2282 2f3d 6a8f 0bbe
000000b0: 8461 6ebe 5023 9ebd a250 0b3e 51da 95bb
000000c0: 4bcd fdbd 4a83 07bd 7e91 a23d cf57 5f3e
000000d0: 9fef 1c3e 81ce 233d 6608 973d 5e33 e6bd
000000e0: 77e3 0ebd a7c7 9dbd 365a e83a 1769 19be
000000f0: 632a 0e3e f497 3b3e 5a08 16be bb2e 3e3c
00000100: 9cc6 f13d 6500 2bbd 4cbc 25bd 436a f53c
00000110: 63e8 2e3d fd74 6e3e b118 7cbd e6ec 4fbd
00000120: 7aab 0d3e bf8c 673e 0efc 293e 9520 633e
00000130: 7e81 e53d 2df5 0cbe 3ef9 ad3d f467 f6bc
00000140: 2f2e 19be ce34 133e 552a 093e 1fd9 2ebe
00000150: 3a19 9cbc 8d5b 64bd 1d16 7abd 47d2 a7bd
00000160: 135e 943d 4960 a5bd f30e 943d 7b5f 053e
00000170: e757 a53d a903 803d 119d 16be c032 25be
00000180: 4b7f 3d3d fa59 133d eb69 eabd a59c bebd
00000190: 128d 1f3e a65a 1a3e 6662 17be 5f73 f7bd
000001a0: d05d 5fbe 2bc1 a2bd 5177 58be d046 42be
000001b0: 3741 acbd 13d1 57bd c24b ffbd 9300 ee3c
000001c0: f809 3ebe 7807 d63d 89c2 b83d a502 0fbe
000001d0: 4f9b 41bd fca1 593c 537a 893d ff67 8f3d
000001e0: 5e58 a63c 34cc b7bb 90c0 b6bd f0e6 803d
000001f0: 5877 29be 1319 dbbd 9714 38bd 2846 9ebd
00000200: e484 65bd e003 2bbe a574 d7bc 1f5d 2b3d

encoder.conv1.bias f4 [4]
-0.08492784 0.025680846 0.08646482 0.011190502
00000000: a6ee adbd a360 d23c 7814 b13d 5e58 373c

encoder.conv2.weight f4 [8, 4, 3]
0.00679607 -0.008499577 0.03970328 0.22518218 0.28051075 0.1737643 0.26799807 -0.042188704
-0.24039851 -0.104895435 0.23207857 -0.00085741584 -0.17439523 -0.250552 -0.31084824 -0.25545794
-0.084995456 0.24552873 0.15535966 -0.25204375 0.24413244 -0.2945248 -0.13540533 -0.17876802
-0.058372658 -0.077117234 -0.27036515 -0.24670248 -0.042625923 0.039092246 -0.14477791 0.09685121
-0.2640881 -0.035448976 0.22033937 -0.15299968 0.2691322 0.125697 -0.22934167 0.2135918
0.015203644 -0.13228738 0.24329224 -0.2192424 -0.013188028 -0.039967164 0.26380202 0.1600183
0.1049271 0.07384177 -0.10038466 -0.08525648 -0.25047824 0.16713831 0.2285906 0.21329094
-0.15215641 -0.046111327 -0.28331956 -0.22204271 -0.16283412 0.15074508 -0.17310075 0.02594506
0.0062123826 0.15285851 -0.23570794 -0.25055122 -0.17021309 0.27034134 -0.038517572 0.29797888
0.0748002 -0.0016274671 -0.0402867 -0.112510115 -0.009420491 -0.14548121 0.013126989 0.040684495
-0.18150544 -0.18939273 0.14057669 -0.31154752 0.007509101 0.34788626 0.11818012 0.051886044
-0.27399564 0.13116057 -0.23354742 -0.13051476 -0.097690366 0.028169123 0.084460385 0.28517634
00000000: 91b1 de3b cf41 0bbc e89f 223d 2896 663e
00000010: 1b9f 8f3e 45ef 313e 0b37 893e 10ce 2cbd
00000020: 072b 76be 6bd3 d6bd 01a6 6d3e 34c4 60ba
00000030: aa94 32be 5a48 80be 8027 9fbe 62cb 82be
00000040: 1912 aebd e26b 7b3e 9a16 1f3e e10b 81be
00000050: dbfd 793e f4cb 96be b2a7 0abe f70e 37be
00000060: 2b18 6fbd a4ef 9dbd 4d6d 8abe 939f 7cbe
00000070: 8598 2ebd 311f 203d a940 14be ed59 c63d
00000080: 8e36 87be f232 11bd a5a0 613e f3ab 1cbe
00000090: b2cb 893e b7b6 003e 8bd8 6abe cfb7 5a3e
000000a0: b418 793c 5876 07be 9a21 793e 1481 60be
000000b0: 9912 58bc 9cb4 23bd 0f11 873e d6db 233e
000000c0: 05e4 d63d 5b3a 973d 7996 cdbd f39a aebd
000000d0: af3e 80be 4e26 2b3e a713 6a3e f168 5a3e
000000e0: e4ce 1bbe 3bdf 3cbd 430f 91be 2a5f 63be
000000f0: fdbd 26be eb5c 1a3e 5341 31be bc8a d43c
00000100: 3e91 cb3b f186 1c3e 6c5d 71be 4048 80be
00000110: 574c 2ebe 2e6a 8a3e 9ac4 1dbd b090 983e
00000120: d930 993d bc50 d5ba ab03 25bd b46b e6bd
00000130: 6758 1abc 07f9 14be 9512 573c c9a4 263d
00000140: 90dc 39be 2bf0 41be 56f3 0f3e 2883 9fbe
00000150: e80e f63b 261e b23e 6b08 f23d 7686 543d
00000160: 2849 8cbe f54e 063e 0e27 6fbe a9a5 05be
00000170: e311 c8bd efc2 e63c 91f9 ac3d a202 923e

encoder.conv2.bias f4 [8]
0.051488865 0.23251331 0.14204551 -0.149894 0.10494026 -0.17167865 -0.13529277 0.11130595
00000000: fde5 523d f817 6e3e 6174 113e d07d 19be
00000010: ebea d63d 87cc 2fbe 308a 0abe 60f4 e33d

encoder.rnn.weight_ih_l0 f4 [192, 8]
0.104065895 0.041965075 -0.074165694 0.04518087 0.015750412 -0.077621475 0.024266167 -0.02590496
-0.008302948 -0.07576059 -0.069840044 0.060651377 0.06831886 0.014762417 -0.09123599 0.09743498
-0.16810599 0.07985631 -0.060951017 -0.09537681 -0.056351453 0.057561826 0.10357233 0.036213133
0.06081428 -0.03895336 -0.0316143 0.034302298 0.11516 0.023094617 -0.057577543 -0.04347709
-0.09821356 0.071891494 -0.07237761 -0.15428448 0.12551992 -0.113898195 0.0016744734 -0.047269803
-0.03458786 -0.10052438 -0.112009026 0.124010645 0.009653657 0.12610358 -0.022675756 0.049954467
0.05277947 -0.08252572 -0.12748078 0.11219888 -0.02721789 0.070363715 -0.0839725 0.031493958
0.07331246 -0.09877574 0.044003233 -0.030015353 -0.06736219 0.03590011 -0.040725555 0.015265338
0.054448843 -0.084509306 0.016161893 0.044599544 0.05287398 -0.02743439 -0.11595123 -0.022815667
0.06245844 -0.07955422 0.040810697 0.11010354 -0.08787621 0.028274799 -0.010384122 0.08153873
-0.05329402 0.011595543 -0.10441743 0.018700073 0.07481599 0.1263649 0.1256091 -0.0010155177
0.07712808 -0.037545614 -0.09890201 -0.12701407 0.14139764 0.06540647 -0.12230617 0.012290233
0.060873482 0.12513353 0.093948424 0.10759762 -0.031524695 -0.03359336 0.14820386 0.032786664
-0.06425254 0.10807119 0.054889567 0.07428206 -0.087495476 0.048405714 -0.04945962 0.09331848
-0.056171197 0.08897942 0.033357788 0.021927781 -0.014226883 0.033252902 -0.020808745 -0.047322385
-0.15590166 -0.12901874 -0.10424213 0.11556348 0.0729744 0.12246858 0.1390123 -0.15457207
-0.068265416 -0.07788352 -0.09793975 0.1363513 -0.1360865 -0.00934059 -0.14534587 0.039026905
0.10363178 0.2084062 0.1389274 -0.046437502 0.17806019 -0.121482395 -0.017998997 -0.001095511
0.015373543 0.11080772 0.061469406 0.09214015 -0.04889583 0.06157851 0.02925151 0.00044764744
-0.058497008 -0.1196162 -0.13872504 0.1381503 0.049391117 0.039481662 -0.05240718 0.14232564
0.12500308 0.04035744 -0.06136209 0.08550848 0.063184574 -0.119768396 0.09904282 0.041705046
-0.06447608 0.045618102 -0.09802447 0.01677216 0.08061109 0.03419994 -0.074928984 -0.03447115
-0.06833626 -1.249513e-05 0.011249174 0.101845644 0.020818751 -0.09402804 0.043259088 -0.009947625
0.10638962 -0.13690776 -0.038589858 -0.073142804 -0.074254036 0.06608866 -0.11151929 0.09285309
0.106047064 0.03520231 -0.0723432 -0.07051064 0.05743027 -0.11565301 0.08384822 -0.1726558
-0.09546085 -0.157323 -0.030791147 0.11148644 -0.14116931 0.13279966 -0.09101102 0.11434073
0.035780642 -0.13364704 0.07378431 0.091586106 0.11714986 0.08605581 0.017645385 0.13357458
-0.035219613 0.081196226 -0.097261414 -0.048081752 -0.10930803 -0.05885406 0.07240161 -0.15009314
0.07187806 0.04406292 0.0071294345 -0.06491974 -0.120907225 -0.016466567 0.011938288 0.16473198
0.013873323 -0.014215237 0.051003065 -0.12038815 -0.11271837 0.0680645 -0.05637863 0.0372302
-0.015884949 -0.1140117 -0.14330687 0.109605834 -0.05756988 0.1404427 0.011851641 0.13978636
0.05183646 -0.08952555 -0.034099665 0.059784055 0.032302666 -0.039677173 0.041550815 0.111591525
00000000: 8020 d53d 92e3 2b3d 2fe4 97bd 930f 393d
00000010: 0207 813c 02f8 9ebd d7c9 c63c a436 d4bc
00000020: 1709 08bc 5e28 9bbd 4c08 8fbd 946d 783d
00000030: c2ea 8b3d 11de 713c efd9 babd fe8b c73d
00000040: fa23 2cbe b48b a33d c6a7 79bd eb54 c3bd
00000050: c8d0 66bd f3c5 6b3d bb1d d43d 3954 143d
00000060: 6518 793d 8f8d 1fbd ff7d 01bd 9180 0c3d
00000070: 02d9 eb3d ec30 bd3c 6ed6 6bbd 0815 32bd
00000080: 3124 c9bd d93b 933d b63a 94bd c0fc 1dbe
00000090: 4b88 003e 7543 e9bd 017a db3a fb9d 41bd
000000a0: 00ac 0dbd badf cdbd fd64 e5bd 4bf9 fd3d
000000b0: 5f2a 1e3c 4c21 013e 82c2 b9bc 0e9d 4c3d
000000c0: 492f 583d 3f03 a9bd 528a 02be 87c8 e53d
000000d0: 0df8 debc da1a 903d c6f9 abbd cfff 003d
000000e0: d824 963d ef4a cabd bc3c 343d c2e2 f5bc
000000f0: 30f5 89bd fe0b 133d d7cf 26bd 781b 7a3c
00000100: c005 5f3d 3713 adbd f265 843c 03ae 363d
00000110: 6392 583d 16be e0bc d777 edbd ece7 babc
00000120: 6cd4 7f3d 53ed a2bd 1e29 273d f77d e13d
00000130: 71f8 b3bd 8da0 e73c 2a22 2abc c7fd a63d
00000140: d54a 5abd 3bfb 3d3c ced8 d5bd e530 993c
00000150: 2039 993d cd65 013e ac9f 003e 1f1b 85ba
00000160: 54f5 9d3d 6ec9 19bd 238d cabd fa0f 02be
00000170: 8bca 103e d4f3 853d a87b fabd f95c 493c
00000180: 7956 793d 0123 003e 0868 c03d 245c dc3d
00000190: 0a20 01bd 3199 09bd c1c2 173e 4f4b 063d
000001a0: d696 83bd 6e54 dd3d e2d3 603d 3121 983d
000001b0: d430 b3bd 1245 463d 2c96 4abd c21d bf3d
000001c0: c513 66bd d83a b63d 2da2 083d e4a1 b33c
000001d0: df17 69bc 3234 083d 1a77 aabc 1ed5 41bd
000001e0: afa4 1fbe 7d1d 04be e67c d5bd 8cac ec3d
000001f0: 9a73 953d cfd0 fa3d 3e59 0e3e 2448 1ebe
00000200: bdce 8bbd 6581 9fbd a394 c8bd ad9f 0b3e
00000210: 425a 0bbe 4609 19bc 8cd5 14be adda 1f3d
00000220: e63c d43d 6f68 553e fc42 0e3e 4035 3ebd
00000230: 6955 363e c3cb f8bd a272 93bc 4097 8fba
00000240: 50e1 7b3c 28ef e23d 58c7 7b3d fab3 bc3d
00000250: fe46 48bd bf39 7c3d dda0 ef3c 39b2 ea39
00000260: 8f9a 6fbd 57f9 f4bd f00d 0ebe 4677 0d3e
00000270: 574e 4a3d 86b7 213d e9a8 56bd d0bd 113e
00000280: cf00 003e d84d 253d d156 7bbd 121f af3d
00000290: ea66 813d 2249 f5bd f6d6 ca3d e9d2 2a3d
000002a0: 090c 84bd 0cda 3a3d 0ec1 c8bd c565 893c
000002b0: 6d17 a53d 3c15 0c3d 5e74 99bd 9f31 0dbd
000002c0: e2f3 8bbd 2da2 51b7 754e 383c 7394 d03d
000002d0: 168c aa3c c691 c0bd 7130 313d 5dfb 22bc
000002e0: cde2 d93d 8c31 0cbe 6610 1ebd e5cb 95bd
000002f0: 8012 98bd 7e59 873d 3a64 e4bd c329 be3d
00000300: 342f d93d 4c30 103d ac28 94bd e267 90bd
00000310: 013c 6b3d 7cdb ecbd 9eb8 ab3d afcc 30be
00000320: fa80 c3bd 4819 21be b73d fcbc 0153 e43d
00000330: b08e 10be a2fc 073e fc63 babd 792b ea3d
00000340: b98e 123d c5da 08be 3a1c 973d 7f91 bb3d
00000350: 44ec ef3d 073e b03d 0e8d 903c c6c7 083e
00000360: 7142 10bd 354a a63d fe30 c7bd 5ff1 44bd
00000370: e3dc dfbd f410 71bd 4c47 943d 04b2 19be
00000380: ce34 933d 527b 343d 089e e93b a4f4 84bd
00000390: 359e f7bd e5e4 86bc cf98 433c 80af 283e
000003a0: ef4c 633c 07e7 68bc 97e8 503d 108e f6bd
000003b0: e4d8 e6bd 6765 8b3d 47ed 66bd b27e 183d
000003c0: 2721 82bc f77e e9bd 09bf 12be 0679 e03d
000003d0: 65ce 6bbd 36d0 0f3e 632d 423c 2824 0f3e
000003e0: 7852 543d 2c59 b7bd 17ac 0bbd 20e0 743d
000003f0: cd4f 043d 8884 22bd 3031 2a3d 198a e43d

encoder.rnn.weight_hh_l0 f4 [192, 64]
-0.038028434 -0.0049872855 0.069291994 0.07637534 0.10231791 -0.0033091789 0.05099012 -0.07145875
0.061431505 -0.052251276 -0.0054584667 -0.07841157 -0.14834143 0.04550127 -0.027545199 0.124362364
0.062364865 0.09629322 0.030878844 0.019452518 0.10586869 0.10030953 0.054294553 0.02645612
-0.0078059863 0.014373423 -0.12104011 0.0005851556 -0.116571955 0.03038631 -0.052163508 -0.06605983
-0.07565038 0.07948646 -0.12600774 0.038746834 0.03880362 0.05984969 -0.0028284027 0.10659487
0.12094742 0.049274866 0.016388033 -0.10354679 -0.056252267 -0.014662662 0.050232578 -0.005287525
-0.090354785 0.0065752342 0.03321043 0.07495193 -0.1508227 0.033086278 -0.15020819 -0.087009385
-0.110783905 -0.002262275 0.07577891 -0.061499473 0.12713729 0.15064934 0.038301505 0.13331951
-0.047567565 -0.038615502 -0.021947429 0.018639175 -0.071050696 -0.085523315 0.08342851 0.050136082
0.11487183 -0.029480742 0.051659543 -0.054304488 0.059849292 -0.01614443 0.08078948 0.070526354
0.08964143 0.060985073 0.016618835 0.14099924 -0.08225589 0.14525369 0.10847499 0.119963825
-0.054166153 -0.07956451 -0.00091992505 0.03710226 0.05569156 0.048878387 0.105802596 -0.030229641
-0.041064613 0.04389577 0.013933682 -0.06930459 0.00791411 -0.107488945 -0.053166963 -0.03543955
0.11312761 -0.114609905 -0.072840326 -0.1087764 0.031751327 -0.09270877 0.04251209 -0.0735063
-0.07263987 -0.04403298 0.009415278 0.102111354 0.09979631 -0.00934807 -0.13022114 -0.03047645
-0.052643694 -0.027567333 0.067307 0.08088904 0.059048854 0.05711855 -0.054009125 0.003236979
0.026475867 -0.06414589 0.007241747 -0.025862006 -0.14129074 0.078622684 -0.025494887 -0.12648697
0.104476854 -0.08103552 0.047011137 0.14699286 -0.00055976195 0.042404793 0.051609904 0.11022061
-0.036123436 -0.054687303 -0.03920652 0.068596646 0.01962532 0.07273885 0.018601585 0.05680446
-0.01151473 -0.004710558 -0.12500298 -0.119024 0.00042078958 0.060788687 0.092853144 0.03793755
0.056691464 0.047583967 -0.10336275 -0.12496123 -0.09576406 0.0062905797 -0.07821348 -0.040850975
-0.020541426 0.07703128 0.015919268 0.12354193 0.09266358 -0.08437371 0.015215847 0.017226296
0.11313548 -0.043684527 -0.05516114 -0.06590062 0.09703512 -0.047508623 -0.05391065 0.09243979
0.11065105 1.5810532e-05 -0.0945556 0.097988226 -0.030602617 -0.06538733 -0.07121341 -0.05146259
-0.09925621 -0.057154674 -0.120237745 -0.024170605 0.049834635 -0.08886047 0.001903924 -0.047285266
0.039549455 0.10834642 -0.01919161 -0.070823506 -0.09811979 -0.13233751 0.030079782 0.02621958
0.06510246 -0.014210496 0.07844658 -0.08461268 0.056132417 0.14953727 -0.14343664 -0.05870725
0.080421396 0.01091548 -0.057147015 0.07756166 0.01942188 -0.01755593 -0.03936612 0.07839297
0.038776465 0.027470794 0.016564917 0.06604486 0.067193404 -0.05423773 -0.015630037 0.06044242
-0.046979547 0.105672136 -0.08448222 0.04743274 -0.073442206 0.016315036 0.09751769 0.024285708
-0.00842035 0.08367108 -0.0843521 -0.10225694 -0.11116498 -0.07564761 0.0030506945 -0.06151565
-0.006608244 -0.0023235446 0.11163166 -0.033416416 -0.034901183 0.08788167 -0.035004802 0.12139927
00000000: b4c3 1bbd 626c a3bb f6e8 8d3d ad6a 9c3d
00000010: 0d8c d13d cfde 58bb 04db 503d f758 92bd
00000020: 9a9f 7b3d 6f05 56bd f0dc b2bb 3f96 a0bd
00000030: d1e6 17be 8a5f 3a3d 78a6 e1bc b2b1 fe3d
00000040: 4d72 7f3d 6135 c53d a1f5 fc3c e35a 9f3c
00000050: afd1 d83d 156f cd3d f763 5e3d 81ba d83c
00000060: 5cc9 ffbb 817e 6b3c e1e3 f7bd 2165 193a
00000070: 47bd eebd b6ec f83c 67a9 55bd 604a 87bd
00000080: 96ee 9abd ccc9 a23d 2c08 01be 00b5 1e3d
00000090: 8bf0 1e3d f324 753d b95c 39bb 694e da3d
000000a0: 48b3 f73d 71d4 493d 3240 863c 5710 d4bd
000000b0: c768 66bd a93b 70bc adc0 4d3d f942 adbb
000000c0: ee0b b9bd 1075 d73b a907 083d 6680 993d
000000d0: 4471 1abe 7a85 073d 2dd0 19be fa31 b2bd
000000e0: ace2 e2bd ad42 14bb f931 9b3d dfe6 7bbd
000000f0: 4730 023e d243 1a3e 0ae2 1c3d e984 083e
00000100: 35d6 42bd 4a2b 1ebd 18cb b3bc 2fb1 983c
00000110: 0783 91bd d926 afbd 91dc aa3d 7e5b 4d3d
00000120: ec41 eb3d 9981 f1bc f598 533d 626e 5ebd
00000130: 8824 753d 5341 84bc f474 a53d 1f70 903d
00000140: ed95 b73d 7ccb 793d 3924 883c 1b62 103e
00000150: c775 a8bd 62bd 143e 2328 de3d 98af f53d
00000160: 54dd 5dbd b8f2 a2bd 2027 71ba 8af8 173d
00000170: d51c 643d b434 483d 08af d83d 27a4 f7bc
00000180: 5e33 28bd 0dcc 333d 194a 643c 91ef 8dbd
00000190: 2faa 013c 2a23 dcbd 9ac5 59bd 1029 11bd
000001a0: 73af e73d 99b8 eabd 4f2d 95bd 29c6 debd
000001b0: ae0d 023d 18de bdbd 2821 2e3d 798a 96bd
000001c0: 36c4 94bd ed5b 34bd 8a42 1a3c c21f d13d
000001d0: 0262 cc3d a628 19bc b158 05be c0a9 f9bc
000001e0: eaa0 57bd e3d4 e1bc 41d8 893d 27a9 a53d
000001f0: 36dd 713d 24f5 693d ac38 5dbd 7f23 543b
00000200: ebe3 d83c ec5e 83bd 2d4c ed3b 8fdc d3bc
00000210: 85ae 10be ee04 a13d a7da d0bc cd85 01be
00000220: f6f7 d53d f3f5 a5bd c08e 403d 4c85 163e
00000230: fdbc 12ba a6b0 2d3d e864 533d 58bb e13d
00000240: 2bf6 13bd cbff 5fbd 0497 20bd 667c 8c3d
00000250: 47c5 a03c 1bf8 943d 5a62 983c cbab 683d
00000260: 47a8 3cbc 065b 9abb c800 00be dbc2 f3bd
00000270: 6c9d dc39 8ffd 783d ca29 be3d 6864 1b3d
00000280: 4f35 683d 68e7 423d d9af d3bd aceb ffbd
00000290: f31f c4bd 3521 ce3b 642e a0bd 5a53 27bd
000002a0: 7e46 a8bc 93c2 9d3d 2069 823c 8d03 fd3d
000002b0: 67c6 bd3d 20cc acbd e34b 793c 291e 8d3c
000002c0: 93b3 e73d 8cee 32bd a6f0 61bd e7f6 86bd
000002d0: 59ba c63d 6798 42bd 6ad1 5cbd 1351 bd3d
000002e0: 059d e23d dca0 8437 5ea6 c1bd 0dae c83d
000002f0: 57b2 fabc cbe9 85bd 56d8 91bd 70ca 52bd
00000300: d746 cbbd 051b 6abd 353f f6bd 6f01 c6bc
00000310: 671f 4c3d 7afc b5bd 178d f93a 32ae 41bd
00000320: 9cfe 213d bae4 dd3d b937 9dbc ea0b 91bd
00000330: 07f3 c8bd 7c83 07be e069 f63c 72ca d63c
00000340: 7054 853d 24d3 68bc 9aa8 a03d 6a49 adbd
00000350: 1beb 653d 4c20 193e 0ee1 12be 0377 70bd
00000360: f9b3 a43d d7d6 323c fd12 6abd a6d8 9e3d
00000370: a21a 9f3c 74d1 8fbc 5e3e 21bd 7e8c a03d
00000380: 12d4 1e3d 6e0a e13c 26b3 873c 8742 873d
00000390: b29c 893d 6228 5ebd 900a 80bc 7992 773d
000003a0: a06d 40bd a26a d83d 0405 adbd d548 423d
000003b0: de68 96bd 1ca7 853c 5bb7 c73d d2f2 c63c
000003c0: 82f5 09bc be5b ab3d cbc0 acbd 166c d1bd
000003d0: 77aa e3bd 22ed 9abd 29ee 473b d6f7 7bbd
000003e0: f889 d8bb 9c46 18bb 249f e43d a7df 08bd
000003f0: 8bf4 0ebd 4efb b33d 3261 0fbd 2ea0 f83d

encoder.rnn.bias_ih_l0 f4 [192]
0.07609003 0.043871153 -0.03131895 -0.10794639 -0.1235005 -0.11567401 -0.033041958 0.07697214
0.035572637 -0.00391802 0.028705757 0.05620195 -0.11809225 0.017681561 -0.012570185 0.03771069
0.019625869 0.00372536 -0.05386228 0.06443284 0.036949012 0.043560028 0.076665275 0.045262884
-0.10576152 0.029753791 0.040146187 -0.058735028 0.092772715 -0.07946536 -0.12934361 0.14343625
0.05961785 0.120193295 0.07813675 -0.124857165 0.010158925 0.13096653 -0.13131626 -0.0017963683
0.026273573 -0.120727845 -0.02438957 0.04488134 0.0004785689 -0.122592844 0.096620925 -0.108348645
-0.013720055 0.004573826 -0.015229874 -0.07969678 -0.0820782 -0.065121874 -0.052424528 -0.10064619
0.013076794 0.117117666 -0.075641796 -0.11543414 0.011882431 0.11261196 -0.14557514 0.07350922
0.10012626 -0.15116116 0.035420388 -0.078462124 -0.14869177 0.048167966 -0.067583665 -0.06528803
-0.08142942 -0.09939792 -0.07160602 0.103824094 -0.020241432 0.08203235 -0.03597396 0.013672601
-0.1335987 -0.15433615 0.1155845 -0.14379473 -0.113232955 -0.17818771 -0.082063206 0.023033211
-0.13094075 -0.022791708 -0.09632255 0.04269545 -0.053567126 -0.14465506 0.0315107 -0.30148888
-0.10630839 -0.028666219 -0.19103092 0.11427438 -0.22677733 -0.08208452 -0.13164663 -0.12998147
-0.14110956 0.002410917 -0.016873568 0.07995895 0.017486963 -0.057788305 -0.117039025 0.023957023
-0.13386248 -0.08743743 0.042670634 -0.13735539 -0.11498351 0.039610453 0.0025811 -0.0754379
-0.0018712404 0.08285189 -0.039697632 -0.080658846 0.030927151 0.036942713 0.05250722 -0.027035141
-0.085702114 0.0145306345 -0.06272591 0.099723965 -0.05617625 -0.0076332293 0.07039909 0.02583951
-0.093672946 -0.057153188 0.037650954 -0.097553425 0.02392588 0.030114513 -0.075443126 -0.08204949
-0.012973915 -0.034091406 0.10866993 0.09816966 0.07738746 0.07433735 0.058889896 -0.088189855
0.08853394 -0.0028775858 0.062686 0.09095384 0.031708196 -0.099490546 0.015419413 -0.04570657
-0.12596968 0.07163309 -0.07465128 0.08188843 -0.093689166 0.034497406 -0.028496338 0.006990646
0.07671619 -0.11143133 0.07103786 -0.0206172 0.07307961 -0.085691825 -0.056487046 0.013706403
-0.0054998435 -0.037071966 0.05672104 -0.04262452 -0.06569522 -0.03366198 0.09670486 -0.10999015
-0.032318756 -0.0039663217 0.0779039 0.11369318 -0.05427519 -0.010376183 -0.09237641 -0.061634153
00000000: 17d5 9b3d 3db2 333d 4d48 00bd ff12 ddbd
00000010: d5ed fcbd 7fe6 ecbd 0157 07bd 92a3 9d3d
00000020: 9db4 113d bc62 80bb 5628 eb3c 0434 663d
00000030: 59da f1bd ecd8 903c 2df3 4dbc 8676 1a3d
00000040: 6ec6 a03c 2b25 743b b29e 5cbd 5df5 833d
00000050: d957 173d 006c 323d af02 9d3d 9365 393d
00000060: 7f99 d8bd 39be f33c 5470 243d 2494 70bd
00000070: 9fff bd3d bcbe a2bd a772 04be f4e0 123e
00000080: d931 743d e727 f63d 2906 a03d 1db5 ffbd
00000090: 9f71 263c 171c 063e c577 06be 1e74 ebba
000000a0: ad3b d73c 2940 f7bd a3cc c7bc 7fd5 373d
000000b0: 6ee8 fa39 f511 fbbd 31e1 c53d e5e5 ddbd
000000c0: 15ca 60bc 09e0 953b b986 79bc 1138 a3bd
000000d0: 9e18 a8bd 9e5e 85bd 1abb 56bd 971f cebd
000000e0: 0d40 563c 63db ef3d 16ea 9abd bc68 ecbd
000000f0: 87ae 423c 19a1 e63d a611 15be 008c 963d
00000100: ff0e cd3d fec9 1abe f814 113d c0b0 a0bd
00000110: a842 18be c64b 453d 4e69 8abd bbb5 85bd
00000120: 78c4 a6bd 2391 cbbd 2da6 92bd baa1 d43d
00000130: 5cd1 a5bc 9400 a83d 6e59 13bd 0c03 603c
00000140: 19ce 08be 4c0a 1ebe 91b7 ec3d ed3e 13be
00000150: aee6 e7bd d776 36be c110 a8bd 25b0 bc3c
00000160: 5515 06be adb5 babc c244 c5bd 6de1 2e3d
00000170: 3469 5bbd 7520 14be 5d11 013d c05c 9abe
00000180: 37b8 d9bd 6bd5 eabc 9c9d 43be b008 ea3d
00000190: 5138 68be ee1b a8bd 60ce 06be dd19 05be
000001a0: 067f 10be 7a00 1e3b 703a 8abc 85c1 a33d
000001b0: d240 8f3c 6eb3 6cbd 28b2 efbd 8541 c43c
000001c0: 3f13 09be 6512 b3bd 67c7 2e3d e4a6 0cbe
000001d0: 797c ebbd 923e 223d ac27 293b 307f 9abd
000001e0: 6944 f5ba 40ae a93d fc99 22bd 7730 a5bd
000001f0: f05a fd3c 3e51 173d d011 573d cd78 ddbc
00000200: 9784 afbd e611 6e3c 7176 80bd 143c cc3d
00000210: 1119 66bd 2b20 fabb 662d 903d 61ad d33c
00000220: 9ad7 bfbd 7619 6abd e337 1a3d 17ca c7bd
00000230: 3500 c43c b6b2 f63c ed81 9abd 9009 a8bd
00000240: 8b90 54bc 6ea3 0bbd 578e de3d 2d0d c93d
00000250: 517d 9e3d 2e3e 983d 8836 713d e29c b4bd
00000260: 4851 b53d e195 3cbb 8461 803d 0246 ba3d
00000270: 74e0 013d b3c1 cbbd b5a1 7c3c d036 3bbd
00000280: 32fe 00be 5fb4 923d c5e2 98bd 1fb5 a73d
00000290: 1be0 bfbd 274d 0d3d 2771 e9bc ca11 e53b
000002a0: 611d 9d3d 1c36 e4bd 4c7c 913d 67e5 a8bc
000002b0: c3aa 953d 327f afbd f65e 67bd d290 603c
000002c0: 0838 b4bb c6d8 17bd 5254 683d 0c97 2ebd
000002d0: 378b 86bd 25e1 09bd 330d c63d 8442 e1bd
000002e0: ac60 04bd ebf7 81bb 148c 9f3d f8d7 e83d
000002f0: a94f 5ebd de00 2abc d82f bdbd 1874 7cbd

encoder.rnn.bias_hh_l0 f4 [192]
0.030370688 -0.0071320455 0.07202159 0.0036362049 -0.074538864 -0.061736364 -0.01223159 0.06176429
0.013529279 0.044911265 -0.09200706 0.048104115 -0.11642999 0.067511424 -0.026371706 0.091871105
-0.056943256 0.16347921 0.08239771 -0.13362268 -0.039790943 0.07226725 0.02174599 0.09817399
-0.032230604 -0.038546015 0.048033483 -0.06085808 0.11047714 0.052445073 0.11178219 0.11318199
-0.05813231 0.12312693 -0.095691375 0.1037572 -0.028580014 -0.041309576 -0.023911662 0.044208072
-0.002526466 0.07904863 -0.045906547 -0.124008 0.08414923 -0.017755516 0.10307764 -0.06642584
0.02876009 0.045930445 -0.09367817 -0.106603876 -0.037986822 -0.0051245918 -0.06975584 -0.08632114
-0.028475879 -0.11197137 -0.07635072 -0.07290168 -0.016509028 0.12458802 0.053217556 0.027026784
0.11826484 -0.17936864 -0.012576348 -0.06867465 0.03478161 -0.0004463009 -0.09864722 -0.05999568
0.03806429 -0.11746361 -0.07888871 -0.01742543 0.076137215 -0.012833912 -0.011186134 -0.0056568575
-0.16807602 -0.016366722 -0.11783483 -0.2761648 0.09464979 -0.20912746 -0.17622064 -0.030566843
0.0655146 -0.008615238 -0.030908931 -0.08796519 -0.07380453 -0.11511832 -0.1430506 -0.32852992
-0.028105674 -0.052987978 -0.26684052 -0.01796748 0.005188142 -0.011777145 -0.07448265 -0.19126767
-0.16082913 -0.096751854 -0.05589567 -0.013924006 -0.07715147 -0.10062186 0.05103696 -0.11174819
-0.19663341 -0.13664353 0.10468749 -0.2133155 -0.12666443 0.036120933 -0.11637731 0.12364603
-0.11189802 0.08944454 -0.02421644 -0.23453115 0.08418151 -0.159872 0.043874845 -0.109865546
-0.04484698 0.067926414 -0.013407485 -0.09518549 0.06984237 0.018924356 0.01902119 0.0851732
0.05776086 0.13768856 0.016219838 -0.11199788 0.049049173 -0.10292053 0.01884573 0.015280909
-0.040281463 -0.023415739 -0.08483013 -0.089941815 0.026418747 -0.0064713745 -0.06444383 0.114171535
0.06270642 0.05305515 0.026358655 -0.038695592 0.099487305 -0.13038781 -0.053788688 0.11501696
0.06092645 -0.023924874 -0.065431766 0.039308477 0.065974854 -0.063100636 0.04499141 0.081809804
0.019522237 -0.0728929 -0.01260112 -0.015034493 0.050118756 -0.10239255 0.05514225 0.12481565
-0.035521835 0.10475161 0.04445335 -0.044310976 -0.086549334 0.045552146 -0.10796763 0.06297261
-0.11101908 -0.050306108 0.03010769 0.07537586 -0.091168225 0.04937786 0.021997327 -0.04378108
00000000: f3cb f83c efb3 e9bb 0e80 933d 654d 6e3b
00000010: d5a7 98bd 45df 7cbd 0267 48bc 8dfc 7c3d
00000020: e9a9 5d3c e0f4 373d 336e bcbd d208 453d
00000030: d972 eebd 6e43 8a3d 7a09 d8bc eb26 bc3d
00000040: 553d 69bd 1867 273e 21c0 a83d 62d4 08be
00000050: d4fb 22bd da00 943d a524 b23c 720f c93d
00000060: 3d04 04bd 6de2 1dbd c2be 443d 5246 79bd
00000070: d741 e23d a5d0 563d 10ee e43d f6cb e73d
00000080: 251c 6ebd f929 fc3d d7f9 c3bd a87e d43d
00000090: a220 eabc 3b34 29bd 64e2 c3bc 8613 353d
000000a0: 1193 25bb 40e4 a13d 8108 3cbd e8f7 fdbd
000000b0: 6e56 ac3d 0474 91bc 5f1a d33d 450a 88bd
000000c0: 489a eb3c 9021 3c3d 57da bfbd 2253 dabd
000000d0: 1298 1bbd 31ec a7bb 26dc 8ebd 23c9 b0bd
000000e0: 3f46 e9bc 3f51 e5bd c45d 9cbd 7a4d 95bd
000000f0: f13d 87bc 0128 ff3d a7fa 593d 4667 dd3c
00000100: d634 f23d 6aac 37be 070d 4ebc 4ba5 8cbd
00000110: 2977 0e3d 7efd e9b9 8e07 cabd 08be 75bd
00000120: 4de9 1b3d c390 f0bd 6790 a1bd c6bf 8ebc
00000130: d4ed 9b3d 5445 52bc 0c46 37bc 295d b9bb
00000140: 1f1c 2cbe 8113 86bc 6353 f1bd 7965 8dbe
00000150: c0d7 c13d 8225 56be 2f73 34be 5167 fabc
00000160: 852c 863d ed26 0dbc ba34 fdbc 1827 b4bd
00000170: d426 97bd 27c3 ebbd db7b 12be 1335 a8be
00000180: df3d e6bc ec09 59bd 529f 88be 8930 93bc
00000190: 4a01 aa3b edf4 40bc 5c8a 98bd acdb 43be
000001a0: 64b0 24be d625 c6bd dcf2 64bd 8421 64bc
000001b0: 9701 9ebd d512 cebd 220c 513d 3cdc e4bd
000001c0: 455a 49be 48ec 0bbe 6566 d63d 616f 5abe
000001d0: 52b4 01be 8bf3 133d 3a57 eebd 213a fd3d
000001e0: ca2a e5bd b32e b73d 8e61 c6bc ef28 70be
000001f0: 5b67 ac3d 7cb5 23be 1cb6 333d 3001 e1bd
00000200: 78b1 37bd 011d 8b3d 11ab 5bbc 9cf0 c2bd
00000210: 8409 8f3d 4007 9b3c 54d2 9b3c 496f ae3d
00000220: a796 6c3d 3bfe 0c3e 77df 843c 255f e5bd
00000230: c9e7 483d 00c8 d2bd 5c62 9a3c c75c 7a3c
00000240: 2dfe 24bd 5dd2 bfbc 6bbb adbd 6a33 b8bd
00000250: 216c d83c d30d d4bb 20fb 83bd c4d2 e93d
00000260: 396c 803d 5b50 593d 1bee d73c 457f 1ebd
00000270: 00c0 cb3d 6284 05be 8751 5cbd 038e eb3d
00000280: 038e 793d 19fe c3bc 1701 86bd ed01 213d
00000290: d31d 873d e83a 81bd ea48 383d e68b a73d
000002a0: 19ed 9f3c df48 95bd ee74 4ebc 3c53 76bc
000002b0: 5349 4d3d 2fb3 d1bd d7dc 613d 599f ff3d
000002c0: 587f 11bd 0388 d63d b714 363d 6d7f 35bd
000002d0: c740 b1bd e394 3a3d 221e ddbd c9f7 803d
000002e0: f95d e3bd c70d 4ebd 67a4 f63c a95e 9a3d
000002f0: 68b6 babd 7040 4a3d bd33 b43c ca53 33bd

encoder.rnn.weight_ih_l1 f4 [192, 64]
-0.0007810614 0.16686854 -0.066931106 -0.07575122 0.003433453 -0.1296628 0.08494652 0.026666215
0.028233012 0.19994383 0.14153656 0.034080792 0.08268056 -0.07638742 -0.021129008 -0.054922312
-0.182237 0.045547493 -0.01907573 0.037117433 -0.050220996 -0.023855882 0.040785912 0.1183589
-0.08240487 0.2564228 -0.13356167 -0.12895072 0.0968285 0.015190868 -0.019923868 0.057305615
-0.055924233 -0.12518379 0.012979362 -0.061353736 0.061391063 0.033130348 0.040390387 -0.071775004
0.08034273 -0.06927471 -0.08527672 0.09334932 -0.12512682 -0.0841164 0.086695895 -0.030326042
0.15379027 0.12750119 -0.10121958 -0.037804764 -0.16127594 0.04521378 -0.07033161 0.062470246
-0.08508151 0.11220854 0.0617174 -0.01074223 -0.0882245 0.0009101421 0.015011123 -0.001473612
0.012611944 -0.0361756 0.01901414 0.033592988 -0.092954196 -0.03247375 -0.0025726815 0.07615047
-0.019278899 -0.04361071 0.09109235 0.06328093 0.03791014 -0.04837481 -0.062201537 0.08202126
0.05054567 0.06323437 -0.006693336 0.0039850734 -0.0709508 0.014140775 0.05358842 0.10187523
-0.010846359 0.16853683 -0.038127273 0.06253753 -0.1347959 -0.031270117 -0.056175087 0.048794776
-0.13730146 -0.056806076 0.08221354 0.0317347 0.07311071 0.039189737 0.06099695 -0.05421483
0.046155326 -0.08666069 -0.109575436 -0.11916852 0.045281976 0.018491618 -0.04278812 0.016702283
0.1262971 -0.064013086 -0.09063126 -0.09526031 -0.02642224 0.09285031 0.0065226317 0.009258802
-0.031631432 -0.030154023 -0.04098713 0.14786428 -0.0249735 -0.037035357 -0.008151798 0.12775439
-0.069964424 0.2338586 0.028212497 -0.079522714 0.045749728 0.027358077 0.04689763 0.06302161
-0.07291437 -0.030649664 0.15509436 0.13622856 -0.13518187 -0.09909436 -0.15271604 0.0043619955
-0.054842062 0.11669074 0.0038938147 -0.023122419 0.0033218516 -0.017797513 0.09542784 0.048888512
-0.1357556 0.19183862 0.054915454 -0.1487818 -0.060127653 0.07494241 0.026841827 -0.060353145
-0.08799054 -0.12679309 -0.03844502 -0.08158087 0.06533257 0.009282116 -0.11674289 0.14424697
0.015897749 -0.082475446 -0.11871986 -0.06224095 0.0542146 -0.013500244 -0.00049121433 0.023414848
0.0073517743 -0.015326037 0.11724304 -0.16662416 -0.08214583 -0.010569651 -0.04041812 0.0037628976
-0.146287 -0.049545016 -0.00469312 0.16417193 -0.013804208 -0.03002729 -0.063127264 -0.06423152
-0.02371404 -0.1464228 -0.09811315 -0.041449856 0.10095043 -0.057470355 -0.09048661 0.11597364
0.07839891 -0.08472823 -0.001382675 -0.031504568 -0.07519034 -0.046097882 -0.040419776 0.09097476
0.051744916 -0.11281002 -0.12520596 -0.106570184 0.081915 -0.061368506 0.002828008 -0.0255751
0.0025179733 -0.09549176 0.053531982 -0.028155226 0.12557352 0.12323409 0.00508925 -0.030651128
0.14707305 0.0077136755 0.076578304 -0.03424706 0.021798488 0.060734317 -0.033580866 0.07719991
-0.12157043 -0.04371922 -0.009614563 0.0995377 -0.08251954 0.05387336 0.06453949 -0.13975209
0.08183474 0.025919028 0.04081041 0.06842315 0.114391714 -0.025034143 0.036761604 0.08683322
-0.02463969 -0.0045220335 0.0428586 -0.081347026 -0.089560434 -0.025810225 -0.028839318 -0.12194622
00000000: 25c0 4cba 96df 2a3e 2d13 89bd 7523 9bbd
00000010: c803 613b 53c6 04be 71f8 ad3d 1b73 da3c
00000020: eb48 e73c 13be 4c3e f6ee 103e 4d98 0b3d
00000030: 6d54 a93d 0271 9cbd be16 adbc 38f6 60bd
00000040: 569c 3abe 0290 3a3d b544 9cbc 7308 183d
00000050: 88b4 4dbd 696d c3bc 210f 273d 2766 f23d
00000060: e2c3 a8bd d949 833e 64c4 08be a80b 04be
00000070: 054e c63d 1ee3 783c 6137 a3bc 4bb9 6a3d
00000080: cf10 65bd 2e30 00be 64a7 543c 0e4e 7bbd
00000090: 3275 7b3d b0b3 073d 6470 253d c6fe 92bd
000000a0: bb8a a43d e6df 8dbd 90a5 aebd ee2d bf3d
000000b0: 3f21 00be 3845 acbd 9e8d b13d 526e f8bc
000000c0: 327b 1d3e ac8f 023e 364c cfbd 2bd9 1abd
000000d0: 8525 25be 1632 393d 050a 90bd cde0 7f3d
000000e0: 373f aebd 97cd e53d 62cb 7c3d 2e00 30bc
000000f0: 0caf b4bd 9a96 6e3a 37f1 753c 3726 c1ba
00000100: 54a2 4e3c de2c 14bd 8bc3 9b3c cd98 093d
00000110: c55e bebd 3203 05bd 6f9a 28bb c7f4 9b3d
00000120: c8ee 9dbc 25a1 32bd a08e ba3d 6f99 813d
00000130: aa47 1b3d aa24 46bd 0ac7 7ebd c3fa a73d
00000140: fa08 4f3d 0581 813d c653 dbbb 3895 823b
00000150: a74e 91bd b6ae 673c 887f 5b3d f6a3 d03d
00000160: edb4 31bc eb94 2c3e 582b 1cbd ad13 803d
00000170: f007 0abe 1815 00bd d917 66bd 08dd 473d
00000180: c198 0cbe 7dad 68bd 935f a83d 3ffc 013d
00000190: 11bb 953d 6b85 203d f0d7 793d 5f10 5ebd
000001a0: 5e0d 3d3d 297b b1bd 1669 e0bd a00e f4bd
000001b0: 9879 393d bc7b 973c 9942 2fbd 3ad3 883c
000001c0: 0754 013e 4b19 83bd e29c b9bd d617 c3bd
000001d0: 7473 d8bc 4e28 be3d cdbb d53b 3bb2 173c
000001e0: f68f 01bd 9205 f7bc 1fe2 27bd bc69 173e
000001f0: 3a95 ccbc 63b2 17bd 1e8f 05bc 0cd2 023e
00000200: 8249 8fbd a178 6f3e e51d e73c cedc a2bd
00000210: 1164 3b3d 0c1e e03c bb17 403d 7911 813d
00000220: 2154 95bd 0115 fbbc 0ed1 1e3e 807f 0b3e
00000230: 1e6d 0abe fcf1 cabd 9861 1cbe 12ef 8e3b
00000240: 12a2 60bd 8efb ee3d 5f2f 7f3b 3a6b bdbc
00000250: 6cb3 593b 17cc 91bc ac6f c33d 523f 483d
00000260: 8403 0bbe 5871 443e 07ef 603d 425a 18be
00000270: 6a48 76bd 687b 993d 64e3 db3c dc34 77bd
00000280: 6234 b4bd 0cd6 01be 8678 1dbd df13 a7bd
00000290: 15cd 853d 0414 183c e516 efbd 7ab5 133e
000002a0: ff3b 823c e3e8 a8bd 6623 f3bd 5ef0 7ebd
000002b0: 2110 5e3d 2130 5dbc d6c4 00ba 7fd0 bf3c
000002c0: 27e7 f03b 0f1a 7bbc 1e1d f03d 869f 2abe
000002d0: 133c a8bd 542c 2dbc 788d 25bd f29a 763b
000002e0: 42cc 15be b7ef 4abd bec8 99bb b01c 283e
000002f0: 0b2b 62bc cbfb f5bc de48 81bd d18b 83bd
00000300: f243 c2bc dcef 15be 8cef c8bd 53c7 29bd
00000310: 19bf ce3d 0966 6bbd 0b51 b9bd 9683 ed3d
00000320: 9c8f a03d ff85 adbd e03a b5ba ef0a 01bd
00000330: 65fd 99bd 22d1 3cbd 358f 25bd fa50 ba3d
00000340: 7af2 533d f108 e7bd fe35 00be 7841 dabd
00000350: 0dc3 a73d 8b5d 7bbd 1a56 393b df82 d1bc
00000360: 9504 253b 2f91 c3bd 5a44 5b3d caa5 e6bc
00000370: 5896 003e 2862 fc3d b9c3 a63b 1318 fbbc
00000380: 519a 163e 00c3 fc3b 16d5 9c3d a546 0cbd
00000390: be92 b23c 8cc4 783d 178c 09bd fd1a 9e3d
000003a0: ebf9 f8bd ed12 33bd 6686 1dbc 6cda cb3d
000003b0: 0100 a9bd 50aa 5c3d 482d 843d 2c1b 0fbe
000003c0: f998 a73d 2454 d43c d128 273d 7021 8c3d
000003d0: 3446 ea3d 6714 cdbc 5693 163d 9ed5 b13d
000003e0: 2dd9 c9bc 912d 94bb 808c 2f3d 4599 a6bd
000003f0: 766b b7bd f76f d3bc 6f40 ecbc f1be f9bd

encoder.rnn.weight_hh_l1 f4 [192, 64]
0.09682632 0.026736697 0.12163167 -0.039777074 0.025131298 0.038771737 -0.07012875 -0.105387956
0.057650678 -0.09355033 -0.067842335 -0.027255468 -0.118441716 0.12639204 -0.085125655 -0.07620658
-0.11889959 -0.0088534495 0.0379271 0.0067869606 -0.036099248 0.04020752 -0.053610668 0.0550921
0.12143546 0.035090484 -0.098703414 -0.022113934 -0.03623161 -0.0019228549 0.077706754 0.023492884
-0.046168264 -0.096181616 0.0645119 -0.07549839 -0.010843093 -0.07939671 -0.08025435 0.053264156
0.07037226 -0.09733025 0.034671485 0.0051437914 -0.03893852 0.027121866 -0.05585929 0.032723717
0.026078973 -0.071198866 -0.025489954 -0.005102382 -0.009099796 -0.06481775 0.020701155 0.030470412
-0.09875966 -0.030893326 -0.082420476 -0.072581366 0.090205744 0.014693211 0.07195558 0.024211869
0.06481615 0.122707866 0.110451564 -0.020882824 -0.08400218 0.112940975 0.047464356 0.11291017
0.123968735 0.03172121 -0.015964765 -0.014690096 -0.08928343 0.1770788 -0.055794943 0.08732528
-0.023241075 -0.10126753 -0.09845585 0.032268245 -0.02076082 0.08343645 -0.05325749 -0.013760883
0.03956703 0.107873656 -0.070863366 -0.08282673 -0.06280848 0.028971087 0.08519521 0.016549572
0.025263935 0.052676912 -0.084128566 0.05604095 0.14038633 -0.14234565 -0.0058556898 0.03667431
-0.059789393 -0.10906602 0.11304115 0.104908064 -0.08489763 0.077833176 -0.050968837 -0.05953489
-0.12428118 -0.10693683 0.023280652 -0.019455288 -0.087372504 0.048999667 0.046392057 -0.057962377
0.081950516 0.08868623 -0.029375775 0.1029188 -0.0053156945 0.02761045 -0.021010747 0.012845404
0.070779495 -0.0075347666 -0.03263395 0.17132032 0.07698977 -0.052146297 0.087801 -0.09896136
0.043225307 -0.023095854 -0.011900211 -0.107943684 -0.029421762 -0.10605187 0.050004236 0.1139279
0.10479357 -0.09848605 -0.012889727 -0.07476818 0.11905013 0.10848454 0.028463906 0.033881903
-0.051157102 0.021391295 -0.074388176 -0.013789714 -0.10083059 0.07307022 -0.048455026 -0.00077839725
0.110406235 0.021010576 -0.06871002 -0.089096844 0.051179834 -0.09826325 0.048636213 -0.078253984
-0.04380008 0.085523956 0.032269582 0.13531539 0.053172275 0.022524036 0.11380345 0.12564403
-0.1267669 -0.16037603 0.015694417 0.081583396 0.049803272 -0.098545924 -0.09364017 0.08319036
0.13952419 0.044707272 -0.13834101 -0.06761828 0.020923033 0.021631971 0.14180374 0.051738683
-0.05547866 -0.0063256295 0.115839146 0.0034082197 -0.09029657 0.06264971 -0.09242075 0.04542165
-0.025502464 -0.04398062 0.044168662 -0.06571455 -0.013754016 -0.10879924 0.02748671 -0.03242476
0.038536374 0.09238908 -0.08333377 0.11631914 0.06037989 0.11938536 0.015606647 -0.08660703
-0.10360527 0.092439085 -0.029463511 -0.084926166 -0.036500406 -0.12185082 -0.015049743 -0.0024436752
0.03297882 -0.011611741 -0.058181617 0.084086925 -0.04437587 -0.108690724 0.09666804 -0.113963515
-0.08096998 -0.12965094 0.07584119 0.039061956 0.09879918 0.056853436 -0.061676394 0.035472393
0.009387712 0.06985359 -0.035205036 0.1201177 -0.036150884 -0.081574574 -0.022023723 0.049631156
0.016683893 0.07955304 0.03361863 0.13750577 0.04136333 -0.11129969 -0.0075230272 -0.044957493
00000000: e14c c63d eb06 db3c 061a f93d 49ed 22bd
00000010: 27e0 cd3c 1dcf 1e3d a99f 8fbd a4d5 d7bd
00000020: 1e23 6c3d 5197 bfbd ecf0 8abd dc46 dfbc
00000030: 9291 f2bd ea6c 013e 5c56 aebd 3212 9cbd
00000040: a181 f3bd 0f0e 11bc 7259 1b3d 2765 de3b
00000050: cedc 13bd a4b0 243d dc96 5bbd 41a8 613d
00000060: 28b3 f83d 0abb 0f3d 0425 cabd 4828 b5bc
00000070: 9967 14bd 4e08 fcba b824 9f3d 2674 c03c
00000080: ef1a 3dbd defa c4bd d11e 843d e69e 9abd
00000090: 3aa7 31bc be9a a2bd 655c a4bd 842b 5a3d
000000a0: 551f 903d 1555 c7bd b003 0e3d 408d a83b
000000b0: ff7d 1fbd ad2e de3c b6cc 64bd 4e09 063d
000000c0: 92a3 d53c b6d0 91bd 4fd0 d0bc e231 a7bb
000000d0: 5017 15bc 2bbf 84bd 7895 a93c 169d f93c
000000e0: 8142 cabd 0014 fdbc 11cc a8bd 8aa5 94bd
000000f0: cabd b83d cbbb 703c 725d 933d f857 c63c
00000100: 54be 843d 434e fb3d 6e34 e23d 7512 abbc
00000110: 5609 acbd 994d e73d fc69 423d 723d e73d
00000120: 52e3 fd3d 19ee 013d 8ac8 82bc baae 70bc
00000130: 3bda b6bd 2554 353e 3d89 64bd 99d7 b23d
00000140: 1164 bebc 5a65 cfbd 38a3 c9bd b52b 043d
00000150: 9812 aabc bbe0 aa3d 8724 5abd 5475 61bc
00000160: 0a11 223d ddec dc3d d020 91bd 10a1 a9bd
00000170: bba1 80bd c654 ed3c d47a ae3d f892 873c
00000180: 50f6 ce3c bfc3 573d 994b acbd 328b 653d
00000190: 6fc1 0f3e 0fc3 11be 16e1 bfbb cd37 163d
000001a0: b9e5 74bd 015e dfbd 1e82 e73d 0ada d63d
000001b0: cfde adbd 0067 9f3d b3c4 50bd dbda 73bd
000001c0: 2287 febd b201 dbbd 11b7 be3c b260 9fbc
000001d0: 5bf0 b2bd e0b3 483d 9905 3e3d f569 6dbd
000001e0: acd5 a73d 20a1 b53d 77a5 f0bc 18c7 d23d
000001f0: 472f aebb 4f2f e23c bb1e acbc 8875 523c
00000200: d7f4 903d 34e6 f6bb 2dab 05bd 986e 2f3e
00000210: d0ac 9d3d 5b97 55bd 03d1 b33d 41ac cabd
00000220: 050d 313d 8433 bdbc 1af9 42bc 9411 ddbd
00000230: e805 f1bc b931 d9bd 3ed1 4c3d 0853 e93d
00000240: 039e d63d 0eb3 c9bd 6f2f 53bc 0f20 99bd
00000250: 8ed0 f33d 242d de3d 232d e93c c0c7 0a3d
00000260: 1c8a 51bd cc3c af3c d458 98bd 41ee 61bc
00000270: 4580 cebd d7a5 953d c778 46bd 5b0d 4cba
00000280: aa1c e23d 5f1e ac3c d7b7 8cbd 6878 b6bd
00000290: f2a1 513d 3e3e c9bd c436 473d a043 a0bd
000002a0: b667 33bd 2f27 af3d 1c2d 043d 1e90 0a3e
000002b0: 2ccb 593d 5484 b83c c811 e93d d4a8 003e
000002c0: 2fcf 01be 9d39 24be 9491 803c 3215 a73d
000002d0: 84fe 4b3d 72d2 c9bd 6bc6 bfbd b55f aa3d
000002e0: 6edf 0e3e f91e 373d 44a9 0dbe 747b 8abd
000002f0: c866 ab3c 8835 b13c 0035 113e f1eb 533d
00000300: 973d 63bd 3a47 cfbb 133d ed3d 705c 5f3b
00000310: 68ed b8bd 7e4e 803d 1747 bdbd 0d0c 3a3d
00000320: 8bea d0bc 0625 34bd 33ea 343d 5a95 86bd
00000330: 8658 61bc 23d2 debd cf2b e13c d3cf 04bd
00000340: 51d8 1d3d 7c36 bd3d e5aa aabd bb38 ee3d
00000350: e750 773d 5080 f43d 06b3 7f3c 075f b1bd
00000360: 002f d4bd b450 bd3d 765d f1bc c5ed adbd
00000370: 7381 15bd ec8c f9bd 3293 76bc 1126 20bb
00000380: cd14 073d 2c3f 3ebc d94f 6ebd c435 ac3d
00000390: 79c3 35bd 3e99 debd e5f9 c53d b465 e9bd
000003a0: 97d3 a5bd 37c3 04be a052 9b3d 6eff 1f3d
000003b0: 3957 ca3d 26df 683d 63a0 7cbd 804b 113d
000003c0: ebce 193c 660f 8f3d 2833 10bd 4500 f63d
000003d0: f312 14bd 9210 a7bd 186b b4bc 0a4a 4b3d
000003e0: a9ac 883c b4ec a23d b0b3 093d 50ce 0c3e
000003f0: 986c 293d 18f1 e3bd ba83 f6bb 5925 38bd

encoder.rnn.bias_ih_l1 f4 [192]
0.11277698 0.05959008 -0.019151283 0.018435104 -0.09431567 0.09334494 -0.1353485 0.01994902
0.042413943 0.09889251 -0.042025536 -0.09269791 0.09018836 -0.08586097 -0.075183176 -0.004347598
-0.096693784 0.03929106 -0.09591141 -0.13422754 -0.106468566 -0.03621537 -0.15318368 0.0047355727
-0.023313755 -0.03900782 -0.065652736 -0.13041894 0.060881037 0.06464806 0.04886596 -0.039834708
0.111588016 -0.022825312 -0.029219585 -0.031897064 0.06917401 0.048830528 0.08133898 -0.0349256
-0.051122006 -0.029268665 -0.1324624 -0.089376144 -0.042307146 0.080980234 -0.027002074 -0.017911289
0.035278827 -0.04560296 -0.08705329 -0.02689473 -0.07776686 0.006643343 0.07797007 0.07086437
-0.017617602 0.0163203 -0.028344536 0.13214329 0.10464038 -0.020213611 -0.13762349 -0.12283877
-0.002200397 0.05575171 -0.08233801 -0.10906184 0.08638037 -0.14401682 0.09668843 -0.12591131
-0.02085007 -0.05986594 -0.045546856 0.072961666 0.06506355 0.016703362 -0.07185382 -0.0060249004
0.01961915 -0.023853919 -0.16925734 -0.028152319 -0.13288297 -0.049387187 -0.010232464 -0.17887893
-0.15455171 -0.015447454 0.053736173 0.04602946 -0.0050045233 0.030084655 0.069276325 -0.060643006
-0.09811384 0.09546806 0.08613745 -0.024197359 0.1114835 -0.1500557 0.107752934 -0.0754162
0.057808407 -0.16202922 0.030132221 -0.12405085 -0.08869134 -0.026858605 0.0024426153 -0.059765253
-0.05943935 0.034522302 0.1095245 0.027610186 0.11874234 -0.23865455 0.07386297 0.050171867
-0.09515145 0.012137239 -0.057961818 -0.108694516 -0.03554666 -0.015434018 -0.054643624 0.06416883
0.03723393 -0.088363625 0.056594823 0.004374539 0.07126814 -0.10634519 0.10520964 0.04842358
0.015486228 0.07699466 0.027006011 0.01523415 0.11085759 -0.08207251 0.08316584 0.012818378
0.12161437 0.022359377 -0.08671368 -0.0062950803 0.036111787 0.024457354 0.033222843 -0.11833491
0.015359444 0.07213553 0.069713354 0.07120228 -0.0633211 -0.04057054 -0.066102624 -0.0053575323
-0.109051265 0.03420641 -0.06555475 -0.033644676 -0.057827715 0.0062958887 0.021051556 0.01043319
0.10993321 0.017509405 -0.11250896 0.046507478 0.0567722 -0.075228624 0.03371677 0.061559387
-0.11873957 -0.06769795 -0.10281003 -0.05744574 0.08017263 0.024383245 0.013215907 -0.10695521
0.058594014 0.10915518 0.016004853 0.06512371 0.050379954 -0.04869433 -0.07187782 0.0826005
00000000: 9ef7 e63d ba14 743d 27e3 9cbc 3705 973c
00000010: 9328 c1bd a22b bf3d cc98 0abe 216c a33c
00000020: 3eba 2d3d 2888 ca3d f822 2cbd 67d8 bdbd
00000030: adb4 b83d e0d7 afbd a3f9 99bd 4c76 8ebb
00000040: 6407 c6bd aaef 203d 346d c4bd f272 09be
00000050: 310c dabd 9156 14bd 2fdc 1cbe dd2c 9b3b
00000060: 7dfc bebc aac6 1fbd f174 86bd 8b8c 05be
00000070: 655e 793d 3466 843d ac27 483d b829 23bd
00000080: 4288 e43d 26fc babc e95d efbc 7fa6 02bd
00000090: 1aab 8d3d 8502 483d 0d95 a63d 250e 0fbd
000000a0: 4f65 51bd d7c4 efbc 39a4 07be d70a b7bd
000000b0: 424a 2dbd f7d8 a53d 7433 ddbc b2ba 92bc
000000c0: 8880 103d 2bca 3abd ff48 b2bd 5652 dcbc
000000d0: 3b44 9fbd 66b0 d93b c6ae 9f3d 5721 913d
000000e0: ca52 90bc 26b2 853c cd32 e8bc 9250 073e
000000f0: b24d d63d 0497 a5bc 2ced 0cbe e592 fbbd
00000100: 8934 10bb e85b 643d d5a0 a8bd d05b dfbd
00000110: 31e8 b03d 2579 13be 9504 c63d e5ee 00be
00000120: c4cd aabc fd35 75bd 578f 3abd ed6c 953d
00000130: 0a40 853d 7dd5 883c 1828 93bd 876c c5bb
00000140: 57b8 a03c 4b69 c3bc cc51 2dbe b19f e6bc
00000150: 7912 08be 384a 4abd 11a6 27bc 0a2c 37be
00000160: ce42 1ebe 5117 7dbc 761a 5c3d 6389 3c3d
00000170: fcfc a3bb 1874 f63c bfe0 8d3d cd64 78bd
00000180: e9ef c8bd c284 c33d d568 b03d 8a39 c6bc
00000190: 7651 e43d 34a8 19be 92ad dc3d cf73 9abd
000001a0: 82c8 6c3d fdea 25be d9d7 f63c 5f0e febd
000001b0: cea3 b5bd 9406 dcbc 4914 203b 69cc 74bd
000001c0: ad76 73bd 4267 0d3d 624e e03d c22e e23c
000001d0: 2f2f f33d dc61 74be 7845 973d 0481 4d3d
000001e0: c3de c2bd 45db 463c 5f69 6dbd 3b9b debd
000001f0: 6099 11bd f7de 7cbc fed1 5fbd f36a 833d
00000200: 9b82 183d fdf7 b4bd f9cf 673d 4b58 8f3b
00000210: 08f5 913d 82cb d9bd 2778 d73d ce57 463d
00000220: f3b9 7d3c 60af 9d3d b63b dd3c a898 793c
00000230: 4e09 e33d a215 a8bd da52 aa3d 2d04 523c
00000240: f410 f93d 032b b73c f196 b1bd f646 cebb
00000250: f4e9 133d ca5a c83c ad14 083d 9359 f2bd
00000260: 2da6 7b3c cbbb 933d e0c5 8e3d 80d2 913d
00000270: 7eae 81bd 4b2d 26bd d060 87bd 3d8e afbb
00000280: 4556 dfbd 051c 0c3d 9241 86bd 00cf 09bd
00000290: c1dc 6cbd be4d ce3b 5074 ac3c f8ef 2a3c
000002a0: aa24 e13d e26f 8f3c 196b e6bd a07e 3e3d
000002b0: f789 683d 7711 9abd 991a 0a3d b225 7c3d
000002c0: bb2d f3bd 39a5 8abd 118e d2bd 394c 6bbd
000002d0: 8c31 a43d 5fbf c73c 8887 583c 550b dbbd
000002e0: 4700 703d c08c df3d 9c1c 833c 945f 853d
000002f0: 365b 4e3d b573 47bd ae34 93bd 732a a93d

encoder.rnn.bias_hh_l1 f4 [192]
-0.07309908 -0.10043494 -0.10125337 -0.054996755 -0.063810475 0.02200244 -0.09126735 0.112568386
-0.0054675066 0.103184 -0.01576251 0.10172415 -0.046742894 -0.042803176 -0.08935745 0.04631397
0.053987727 0.09906184 -0.10377747 -0.07941602 -0.095000006 0.0947218 0.014350651 -0.11420047
0.06298571 -0.05956251 0.02519556 0.028939204 -0.124740876 0.10219277 -0.056742977 -0.13175987
-0.012228714 -0.03599677 -0.02515211 -0.07261113 0.02488177 -0.005040936 -0.056508556 -0.1262992
0.08792199 -0.08024494 0.054021496 0.109449476 -0.034817018 -0.014502091 -0.016262002 0.018286332
0.10680157 -0.016579615 0.034145948 0.03673947 0.06400172 0.029730447 -0.07430662 0.075419046
-0.10329594 -0.066613995 -0.03958718 0.018952886 0.018362908 0.099914886 -0.10162234 -0.11027094
-0.10304691 0.051772997 0.033428784 -0.050768495 -0.03098448 -0.09366629 0.06903162 -0.11430225
0.009514233 0.108227655 0.055938467 -0.059002344 0.02399744 0.005237356 -0.02316127 -0.135349
0.11969935 -0.065395415 -0.10047813 -0.16506015 -0.1169002 0.060958415 -0.21725407 -0.06832848
-0.22560163 0.0058532264 -0.1253832 0.04086909 0.07820387 -0.0012141031 0.020339742 -0.0674772
-0.029151354 0.07898464 -0.007867116 0.051067047 -0.027405491 0.0022652259 0.041014306 -0.001340222
-0.037846807 -0.071001366 0.08085144 -0.07530299 0.027299926 -0.09939933 -0.124968715 0.05113407
-0.19992231 -0.0950423 -0.08885152 -0.11238931 0.063815385 -0.22535485 -0.021065008 -0.08606687
-0.11624168 -0.0058876434 -0.020591944 0.04600971 -0.19903898 -0.00050230115 0.08278406 0.034742918
-0.111815706 0.0029655464 0.085310265 -0.05173703 -0.045731615 -0.06093352 0.037764188 -0.1001615
-0.10714522 -0.04120224 0.023363324 0.025717774 -0.024261765 0.02410891 -0.111686066 -0.029827416
0.008316625 0.10742419 -0.13141073 0.07318053 -0.09008076 -0.1023522 0.05667884 -0.066790335
-0.08540517 0.09366208 -0.11155397 0.11227841 -0.08351172 -0.019369492 -0.00023803543 -0.085350275
0.08448622 0.11941611 -0.032197904 0.06524712 0.08432729 -0.10602868 0.03615002 -0.016157659
-0.023480276 -0.0047557685 -0.07487219 -0.025691371 -0.089996114 -0.08871094 0.0002516913 0.039113056
0.09558735 -0.08470396 -0.07131193 0.08332079 -0.06629298 0.10659785 -0.014421416 0.11000263
-0.09009089 0.09192697 0.10236116 -0.091200456 -0.05917798 -0.042652633 0.045669824 -0.019654498
00000000: f8b4 95bd d5b0 cdbd ed5d cfbd 4744 61bd
00000010: 11af 82bd 763e b43c 60ea babd 418a e63d
00000020: c528 b3bb 2252 d33d 6120 81bc c054 d03d
00000030: 7a75 3fbd 6252 2fbd 0a01 b7bd b8b3 3d3d
00000040: 3c22 5d3d efe0 ca3d 4889 d4bd dea4 a2bd
00000050: 5d8f c2bd 81fd c13d fe1e 6b3c f0e1 e9bd
00000060: a7fe 803d d2f7 73bd eb66 ce3c e911 ed3c
00000070: 2578 ffbd 714a d13d 536b 68bd 0fec 06be
00000080: f25a 48bc 5971 13bd cc0b cebc 25b5 94bd
00000090: dbd4 cb3c 702e a5bb 8475 67bd 9454 01be
000000a0: 7210 b43d 7657 a4bd a545 5d3d 0c27 e03d
000000b0: 4a9c 0ebd 2e9a 6dbc e437 85bc 38cd 953c
000000c0: c8ba da3d f9d1 87bc 9fdc 0b3d 207c 163d
000000d0: 5513 833d 448d f33c 122e 98bd 4d75 9a3d
000000e0: d28c d3bd eb6c 88bd 2b26 22bd 1543 9b3c
000000f0: cf6d 963c 2da0 cc3d 601f d0bd bbd5 e1bd
00000100: 420a d3bd ec0f 543d 9fec 083d a0f2 4fbd
00000110: 2ad3 fdbc 1dd4 bfbd 7360 8d3d 4c17 eabd
00000120: 96e1 1b3c 76a6 dd3d bc1f 653d 71ac 71bd
00000130: 4796 c43c 209e ab3b b4bc bdbc ee98 0abe
00000140: ef24 f53d 08ee 85bd 7ac7 cdbd 8705 29be
00000150: 5f69 efbd 88af 793d da77 5ebe cdef 8bbd
00000160: 1d04 67be 6ccc bf3b 7464 00be 5966 273d
00000170: 5a29 a03d 8a22 9fba 889f a63c 7c31 8abd
00000180: d2ce eebc b3c2 a13d 13e5 00bc ae2b 513d
00000190: 7b81 e0bc 2f74 143b 9efe 273d 63aa afba
000001a0: 4105 1bbd 2a69 91bd 7195 a53d 7438 9abd
000001b0: 18a4 df3c e091 cbbd 99ef ffbd f571 513d
000001c0: 6fb8 4cbe 8aa5 c2bd c9f7 b5bd 5e2c e6bd
000001d0: a4b1 823d 6cc3 66be 8690 acbc d443 b0bd
000001e0: 1e10 eebd 22ed c0bb 70b0 a8bc ad74 3c3d
000001f0: e0d0 4bbe dcac 03ba b08a a93d 974e 0e3d
00000200: a2ff e4bd 9d59 423b 26b7 ae3d 35ea 53bd
00000210: 1351 3bbd 6d95 79bd 9fae 1a3d 7921 cdbd
00000220: f46e dbbd aec3 28bd 7164 bf3c 15ae d23c
00000230: 9cc0 c6bc 0c80 c53c aabb e4bd a058 f4bc
00000240: 7442 083c 3701 dc3d 8990 06be acdf 953d
00000250: 437c b8bd 089e d1bd 1228 683d 5fc9 88bd
00000260: e8e8 aebd e8d1 bf3d 6876 e4bd 39f2 e53d
00000270: 3108 abbd c5ac 9ebc 2699 79b9 20cc aebd
00000280: 1c07 ad3d 6f90 f43d f3e1 03bd 48a0 853d
00000290: c9b3 ac3d 9125 d9bd 0b12 143d 115d 84bc
000002a0: b559 c0bc 47d6 9bbb 9756 99bd b676 d2bc
000002b0: e24f b8bd 15ae b5bd 6ff5 8339 0335 203d
000002c0: 4dc3 c33d 4579 adbd fd0b 92bd 17a4 aa3d
000002d0: 9dc4 87bd f94f da3d ce47 6cbc 0f49 e13d
000002e0: 9381 b8bd 3544 bc3d baa2 d13d 4ec7 babd
000002f0: 9c64 72bd 87b4 2ebd 4810 3b3d 7802 a1bc
