checkpoints/models/single_stock_daily/81to8/model10.pth (torch, 846466 bytes, 32 tensors)

encoder.conv1.weight f4 [4, 11, 3]
000000 d4 74 93 3c 98 a8 cf 3d 93 c4 9b bd dc f1 4e be
       0.018000044 0.101395786 -0.07605853 -0.2020945
000010 a3 b0 14 be c6 f5 78 3c 39 24 a5 bd b8 de 61 3d
       -0.14520507 0.015195316 -0.080635495 0.05514404
000020 f0 38 5c bd d2 64 f2 bc f5 87 08 be f0 01 91 bd
       -0.053765237 -0.02958909 -0.13333113 -0.07080448
000030 4f b5 78 be 1c b6 48 be 25 00 da bd 29 8e 9a 3c
       -0.24287914 -0.19600719 -0.10644559 0.018866615
000040 b1 0d 43 3d 3c 15 b8 3d 42 77 c9 bd fb ec c3 bd
       0.04762048 0.08988425 -0.098372 -0.09566685
000050 21 e9 4a 3d 6b c9 18 3e 9c 56 1f bd 17 2b c8 3d
       0.049538735 0.14920585 -0.038900957 0.09773844
000060 ac 94 07 bd 96 54 37 b9 ac ed 0a 3e d6 98 1e be
       -0.03310077 -0.0001748375 0.13567227 -0.1548799
000070 a4 1e fe bd 6f 34 3d bd 0c 87 82 bd 63 db 0c 3e
       -0.12408188 -0.046192583 -0.063734144 0.13755564
000080 72 27 19 be 65 8a 11 bd b8 e0 04 3d ac 70 2b be
       -0.14956453 -0.035532374 0.03244087 -0.167422
000090 b0 77 d2 bd a1 ef 18 3e 53 cb 86 bc 8b 01 ac 3d
       -0.10276735 0.14935161 -0.016454374 0.08398732
0000a0 eb 23 74 3c eb ac 40 be 35 78 eb 3c af 3e 22 be
       0.014901142 -0.18815963 0.028743843 -0.15844224
0000b0 f6 97 63 be 91 f7 b9 bd 81 34 e9 3d 41 77 b8 3b
       -0.22225937 -0.09080423 0.113869675 0.0056294505
0000c0 97 5d aa bd dd 1d 14 3c 10 db d1 3d 0b ad 6f 3e
       -0.08318632 0.009040323 0.10246861 0.23405854
0000d0 5c 80 1f 3e 00 21 24 3d df c0 a4 3d 23 35 eb bd
       0.15576309 0.040070534 0.080446 -0.114847444
0000e0 b3 c0 8e bc 90 f4 de bd 85 54 63 bd 88 9e 09 be
       -0.01742587 -0.1088649 -0.055500526 -0.13439381
0000f0 1a b9 ea 3d 82 c1 08 3e 11 a7 0a be aa 77 0a 3d
       0.114610866 0.13355067 -0.13540293 0.033805527
000100 e9 b5 e2 3d 83 75 43 bd c5 a6 39 bd 4f dc a0 3c
       0.11069853 -0.04771949 -0.04532506 0.019636301
000110 fe 9c 42 3d 63 90 68 3e 78 87 8d bd f4 00 3b bd
       0.047513 0.22711329 -0.06910604 -0.045655206
000120 c4 d2 06 3e 53 03 5d 3e 03 0e 2f 3e 71 bd 5c 3e
       0.13166338 0.215833 0.17095189 0.21556641
000130 89 f4 d2 3d 33 17 08 be ba 48 a0 3d 3b 5c 21 bd
       0.10300548 -0.132901 0.078263715 -0.0393946
000140 2f 77 13 be fb 3f 1e 3e 6f 67 04 3e f3 5a 45 be
       -0.14400934 0.15454094 0.12930082 -0.19272976
000150 d3 ce 72 3c 44 b0 31 bd dd 76 81 bd 4d 3c a7 bd
       0.014819819 -0.04338099 -0.063214995 -0.08165798
000160 f8 18 7d 3d 8e 21 eb bd e7 d6 86 3d c1 82 e2 3d
       0.06179139 -0.114810094 0.06583958 0.110600956
000170 4b 8c a8 3d 1d a6 7a 3d 07 ed 26 be 12 40 23 be
       0.08229884 0.061193574 -0.16301356 -0.1594241
000180 ec 23 94 3d 47 17 24 3d aa 82 05 be 9e 52 a8 bd
       0.07233414 0.04006126 -0.13038126 -0.08218883
000190 85 d0 31 3e 6b 15 1b 3e e7 fd 12 be a6 35 ec bd
       0.173647 0.15144889 -0.14354669 -0.1153367
0001a0 3e 1d 5f be 98 05 98 bd 05 e5 52 be 7e ad 41 be
       -0.21788499 -0.07422942 -0.20595177 -0.18913838
0001b0 56 79 a2 bd d0 a4 41 bd 4a 13 ff bd 3f 3b 0a 3d
       -0.07933299 -0.047276318 -0.12454851 0.033747908
0001c0 7a 0c 38 be fa 11 d6 3d 4d 57 d4 3d 7e 75 11 be
       -0.1797351 0.104526475 0.10368214 -0.14204976
0001d0 eb 35 1a bd 30 ec e1 3b 0e 63 37 3d 96 fe 6e 3d
       -0.037649076 0.006894611 0.0447722 0.05834826
0001e0 49 46 19 3d 31 fa 4a ba 7a 4f a1 bd e8 47 93 3d
       0.037420545 -0.000774297 -0.07876487 0.071914494
0001f0 dc 52 2b be df 67 cc bd 69 f6 29 bd a9 d4 a1 bd
       -0.16730827 -0.09980749 -0.04149476 -0.0790189
000200 93 ee 4e bd 13 78 2f be 76 ea 26 bd ae 7b 07 3d
       -0.05052049 -0.17135648 -0.040750943 0.033076935

encoder.conv1.bias f4 [4]
000000 6f f0 b5 bd 7b 57 bd 3c 00 5e bb 3d 56 17 09 3c
       -0.0888375 0.023113003 0.091487885 0.00836738

encoder.conv2.weight f4 [8, 4, 3]
000000 70 60 9c 3b 2a 41 61 bc 9f b4 31 3d 7c 86 5d 3e
       0.0047722384 -0.0137484465 0.043385144 0.21633333
000010 23 64 92 3e 86 3a 3b 3e 6d f7 8b 3e 7a cf 14 bd
       0.28592023 0.18284044 0.27337208 -0.036330678
000020 2f 6a 77 be 48 38 de bd 57 f1 66 3e 7a e9 3b ba
       -0.241616 -0.108505785 0.22553001 -0.00071682746
000030 a0 c0 36 be 01 4e 83 be 76 de 9e be d2 c4 80 be
       -0.17846918 -0.2564545 -0.310291 -0.25150162
000040 a5 f4 9e bd db d9 5b 3e 86 ad 26 3e a6 d9 82 be
       -0.07761506 0.21469824 0.16277131 -0.25556678
000050 a3 7d 6e 3e f2 06 97 be bd 10 0b be f2 75 3c be
       0.23290114 -0.29497486 -0.13580604 -0.18404368
000060 66 78 74 bd 6a e0 96 bd 19 37 8a be a0 29 81 be
       -0.059685133 -0.07367022 -0.2699516 -0.2522707
000070 32 f6 42 bd 5c ad 76 3b 5e c1 12 be fc 34 be 3d
       -0.04759807 0.0037639951 -0.14331576 0.0928745
000080 24 d4 82 be 57 5b 08 bd 36 c5 59 3e 6e 64 21 be
       -0.25552475 -0.033290233 0.21266636 -0.15760967
000090 15 01 8b 3e b4 b5 03 3e 89 d2 75 be e7 4d 4f 3e
       0.27149263 0.12862283 -0.24006094 0.20244561
0000a0 ca d8 68 bc 6b d9 f7 bd 5c a2 72 3e 3e 68 69 be
       -0.014211843 -0.12102016 0.23694748 -0.22793671
0000b0 06 02 e2 3b 96 34 12 bd 8a 4c 85 3e af 3c 14 3e
       0.006897214 -0.03569468 0.26034957 0.14476274
0000c0 7d 43 d7 3d 12 f5 8e 3d 2d f1 d7 bd f2 95 a2 bd
       0.10510919 0.06980337 -0.105440475 -0.07938756
0000d0 55 46 80 be 74 3d 17 3e 0f f1 6d 3e cf be 5a 3e
       -0.2505366 0.14769536 0.23236488 0.2136185
0000e0 91 ce 24 be b0 16 35 bd e4 da 90 be 91 00 69 be
       -0.16094424 -0.04421109 -0.28292 -0.22754122
0000f0 1e 29 1e be b5 79 16 3e e8 3b 2d be ee 4e a8 3c
       -0.15445372 0.14694865 -0.16917384 0.02054545
000100 ca 2d 8a 3c 7f 4d 27 3e 08 c2 70 be 3e 0b 77 be
       0.016867537 0.16338156 -0.23511517 -0.24125382
000110 ab c2 2b be 21 be 8b 3e a3 7d 25 bd 2b 13 92 3e
       -0.16773479 0.27293494 -0.04040302 0.2853025
000120 81 cb 99 3d c4 c6 45 bb f4 04 31 bd 8e 46 d0 bd
       0.075095184 -0.0030178288 -0.043217614 -0.10169707
000130 43 e8 91 3a 77 02 fe bd f0 fa 5d 3c 85 52 3b 3d
       0.0011131841 -0.12402814 0.013548598 0.045732994
000140 a2 5d 3d be e2 d3 45 be 7e d7 13 3e 2c 41 9f be
       -0.1849275 -0.19319108 0.14437672 -0.3110441
000150 f0 48 3d 3c 06 97 b0 3e a4 b5 f6 3d b9 9d 0f 3d
       0.011553034 0.34490222 0.12046364 0.035062525
000160 9e 76 84 be b7 2c 0b 3e ab 52 6c be 53 52 fb bd
       -0.25871748 0.13591276 -0.2307841 -0.122715615
000170 4e 6a c4 bd b9 19 f1 3c ad a6 a6 3d 68 a7 91 3e
       -0.095905885 0.02943121 0.0813726 0.28448033

encoder.conv2.bias f4 [8]
000000 90 07 55 3d 1d 15 71 3e 66 31 12 3e ff 69 1d be
       0.052009165 0.2354321 0.14276657 -0.15372466
000010 12 98 dc 3d c7 86 34 be 3c 63 08 be 5c 18 de 3d
       0.107711926 -0.17629538 -0.13319105 0.1084449

encoder.rnn.weight_ih_l0 f4 [192, 8]
000000 6b e3 d1 3d e6 a0 43 3d 15 1d 92 bd e6 ac 21 3d
       0.10248455 0.047760867 -0.07134453 0.03947153
000010 de db ad 3c 6c 55 ab bd a4 93 04 3d 82 43 09 bd
       0.021223005 -0.08365902 0.032367364 -0.033511646
000020 21 a9 a1 ba 98 e8 94 bd a6 60 99 bd cc 08 6f 3d
       -0.001233373 -0.07270926 -0.07489137 0.058358
000030 80 77 80 3d 9a 67 fd 3b f3 56 d8 bd 66 9d 98 3d
       0.06272793 0.0077332975 -0.10563459 0.07451896
000040 80 b1 23 be df 6d aa 3d d5 82 6c bd 5f 43 cc bd
       -0.1598568 0.083217375 -0.05774196 -0.099737875
000050 eb 73 57 bd 51 0a 65 3d e2 d5 d2 3d 6a 1c 11 3d
       -0.052600782 0.05591804 0.10294701 0.03542749
000060 af d5 87 3d 69 ec 28 bd ff 10 03 bd 0b e3 09 3d
       0.06632554 -0.041241083 -0.03199863 0.03366379
000070 eb 85 e4 3d eb 62 db 3c e2 00 86 bd d3 a1 25 bd
       0.11158355 0.026780566 -0.06543137 -0.04043753
000080 96 77 ce bd 7e c1 9a 3d 99 34 8c bd 85 e5 20 be
       -0.10081403 0.07556437 -0.0684597 -0.15712555
000090 52 95 10 3e ed cf ed bd 7b 52 cd 3b 6c 70 38 bd
       0.14119461 -0.11611924 0.006265936 -0.04502909
0000a0 50 b9 6b bc 02 d4 c3 bd 73 40 e7 bd f5 a4 f1 3d
       -0.014387444 -0.09561922 -0.112915896 0.11799041
0000b0 2d 1b 0b 3c 4c c9 f7 3d 13 64 0a bd bf ee 24 3d
       0.008490366 0.12098941 -0.033786844 0.04026675
0000c0 e2 a4 8c 3d 64 99 9f bd bd ad 03 be 67 a7 db 3d
       0.068673864 -0.07792929 -0.12859245 0.10725289
0000d0 5f 53 e2 bc fb e4 82 3d 81 a2 c6 bd 05 5a a3 3c
       -0.027627645 0.06391331 -0.09698964 0.019940386
0000e0 59 b1 97 3d ab 95 c4 bd 9a 09 36 3d 94 3b 07 bd
       0.07406873 -0.095988594 0.04444275 -0.033015803
0000f0 89 4f 86 bd 4b ef 05 3d e0 ff 34 bd 98 b1 34 3c
       -0.06558139 0.03269891 -0.044189334 0.01102867
000100 0f df 53 3d 3e 8d a8 bd 29 7a aa 3c 18 02 2a 3d
       0.051726397 -0.08230065 0.020810204 0.041505903
000110 9e 7a 6e 3d bb 26 e1 bc f2 1e de bd f2 56 b8 bc
       0.058222406 -0.027484288 -0.10845746 -0.022502396
000120 eb ff 9c 3d c0 ca 9c bd 44 6a 1e 3d 10 cb da 3d
       0.07666 -0.07655859 0.03867556 0.10683262
000130 5e 51 b8 bd 5e be c2 3c de 9d ad bc f7 8b 93 3d
       -0.089998946 0.023772415 -0.021193441 0.072044306
000140 30 3f 66 bd a4 02 93 3c 3d fd cb bd f3 9e 5e 3c
       -0.056212604 0.017945595 -0.09960411 0.013587701
000150 b3 09 ab 3d 75 45 f4 3d 8c 55 0c 3e 00 80 a9 bb
       0.08351459 0.119273104 0.13704509 -0.0051727295
000160 fd e3 94 3d 9e 89 0a bd 1a 93 c4 bd 26 af 05 be
       0.07270048 -0.03382265 -0.0959837 -0.13055095
000170 83 ee 15 3e 68 85 7c 3d a2 c2 e0 bd 1e e6 0b 3c
       0.14641766 0.061650664 -0.10974623 0.008538751
000180 c9 8a 97 3d 2c 51 05 3e 2a 6a c4 3d a5 02 d0 3d
       0.07399518 0.13019246 0.09590562 0.101567544
000190 80 fd ef bc b1 47 1c bd 79 4e 13 3e 6b 7d d6 3c
       -0.029295683 -0.038154308 0.14385404 0.02618285
0001a0 82 ab 90 bd 74 b7 e4 3d ac 77 66 3d cd 76 94 3d
       -0.070639625 0.111678034 0.05626647 0.07249222
0001b0 27 ec ac bd 05 47 35 3d 7a 51 37 bd a1 8f aa 3d
       -0.0844348 0.044257183 -0.044755436 0.08328176
0001c0 e6 41 81 bd 06 c4 b4 3d df 11 12 3d 47 84 ba 3c
       -0.06311397 0.08826451 0.035661574 0.022768153
0001d0 cf 57 44 bc dd 85 0f 3d e7 f1 81 bc 3b f2 2b bd
       -0.011983826 0.03503977 -0.015862418 -0.041979056
0001e0 00 0d 07 be 70 94 f9 bd c8 60 d7 bd 7c 59 d9 3d
       -0.13188553 -0.12186515 -0.105165064 0.10612771
0001f0 ab 5d 8f 3d 13 2a f2 3d 0c 1d fb 3d b4 68 25 be
       0.070002876 0.11824431 0.122613996 -0.16153222
000200 90 00 70 bd a3 db 9c bd f6 a8 d2 bd 66 e9 09 3e
       -0.058594286 -0.0765908 -0.10286133 0.1346794
000210 af c3 10 be fe b4 57 bc f1 6f 2d be 9c 8c de 3c
       -0.14137147 -0.0131657105 -0.16937234 0.027166657
000220 27 94 cd 3d a7 0e 5c 3e 4b c1 12 3e 0b 20 1b bd
       0.100380234 0.21489964 0.14331548 -0.037872355
000230 e5 54 53 3e eb 21 05 be 84 e3 32 3d 41 3a ff 3a
       0.20637853 -0.1300122 0.043674007 0.0019472317
000240 f3 c2 2a 3d 6b 51 ee 3d 61 ad 85 3d 64 ee a9 3d
       0.041689824 0.11636623 0.0652721 0.082974225
000250 18 f5 39 bd aa 70 70 3d 0e 52 23 3c 91 4a e3 3a
       -0.045399755 0.058701195 0.009968294 0.0017340948
000260 01 70 25 bd c9 99 ea bd fc c2 0d be 2e 17 07 3e
       -0.04039002 -0.114551134 -0.13843912 0.13192436
000270 bc e5 47 3d 13 de 06 3d e3 fd 8b bd 06 3e 06 3e
       0.048803076 0.03292663 -0.068355344 0.13109598
000280 7b 0e f8 3d 40 37 2b 3d 3b 1b 6d bd af 52 ad 3d
       0.12112137 0.041800737 -0.057887297 0.08463036
000290 d7 87 95 3d 97 3a f6 bd 4f b6 c7 3d c9 a3 3a 3d
       0.073013 -0.12022894 0.097515695 0.045566354
0002a0 d0 70 5e bd 6b f9 67 3d 8d eb bb bd 93 6d 7c 3b
       -0.054306805 0.056634348 -0.09175787 0.003851746
0002b0 77 bc b6 3d 13 50 cb 3c 36 18 9c bd 1a 24 42 bd
       0.089226656 0.024818456 -0.07621805 -0.04739771
0002c0 9c 03 74 bd f2 72 8e 3b 43 7f 74 3c 66 37 c5 3d
       -0.059573755 0.0043471986 0.01492292 0.09629707
0002d0 d2 8a db 3c 36 85 c4 bd 2a 52 2a 3d 51 df 06 bc
       0.026799593 -0.095957205 0.041582264 -0.008231954
0002e0 8f b8 bb 3d fe 61 04 be 5e 95 09 bd 8d c5 a1 bd
       0.09166061 -0.12928006 -0.033589713 -0.07899008
0002f0 3b ed 87 bd 19 0c 70 3d 06 c1 d1 bd 33 d2 a4 3d
       -0.06637045 0.058605287 -0.102418944 0.08047905
000300 48 cc ea 3d a7 a4 20 3d 5c 44 9b bd aa d4 96 bd
       0.11464745 0.039219525 -0.07581398 -0.07364781
000310 62 88 55 3d 81 9a f3 bd 76 4f 98 3d cd 50 34 be
       0.052132018 -0.11894704 0.07437031 -0.17608948
000320 6a bc ac bd 7b e9 1e be 76 51 0b bd ea 59 df 3d
       -0.08434375 -0.15518753 -0.034013234 0.109058216
000330 5d 5a 14 be 85 9e 03 3e 58 9d dd bd 6d f7 d4 3d
       -0.14487596 0.12853439 -0.108210266 0.10398755
000340 c3 f2 25 3d 00 e5 14 be 4f 56 85 3d fd e1 d0 3d
       0.04051472 -0.14540482 0.06510603 0.10199354
000350 76 84 c7 3d aa d6 c2 3d ef c5 b2 bc 60 b4 10 3e
       0.09742062 0.095136 -0.021822898 0.14131308
000360 bc 29 13 bd 7f 4c a9 3d 04 67 c3 bd 46 61 4b bd
       -0.035928473 0.082665436 -0.09541133 -0.049653314
000370 28 89 da bd 64 d9 74 bd 01 1b 98 3d 91 71 19 be
       -0.10670692 -0.059777632 0.074270256 -0.14984728
000380 28 b6 90 3d 75 23 44 3d d2 0c 09 3c cf d9 8b bd
       0.070659935 0.047885377 0.008364873 -0.06828653
000390 e5 6b f0 bd a8 e2 ac bc 35 15 8a 3c e8 81 22 3e
       -0.11739329 -0.021104172 0.016855815 0.15869868
0003a0 72 54 26 3c 55 7f 49 bc 84 a1 51 3d 4a fa f7 bd
       0.010151969 -0.012298425 0.051179424 -0.12108286
0003b0 1a 3c e0 bd 9f 95 83 3d 61 0a 59 bd 8a 6d 12 3d
       -0.109489635 0.06425022 -0.052988414 0.035748996
0003c0 35 b0 81 3a c0 6e e4 bd 36 ec 13 be 9a 04 db 3d
       0.0009894433 -0.111539364 -0.14445576 0.10694237
0003d0 38 45 6f bd de 6a 0c 3e 20 d1 ca 3b 5e 3e 09 3e
       -0.05841562 0.13712642 0.0061894804 0.13402697
0003e0 29 9b 78 3d ad 01 b2 bd 2e de 24 bd cf 92 68 3d
       0.060694847 -0.08691726 -0.04025095 0.056780633
0003f0 da e3 b7 3c 5b 3c 3b bd 11 e8 8c 3c 78 eb a8 3d
       0.022447515 -0.045711856 0.017200502 0.08248037

encoder.rnn.weight_hh_l0 f4 [192, 64]
000000 29 27 26 bd b7 25 4d bc c9 72 84 3d c1 ed a2 3d
       -0.04056469 -0.012521199 0.06467206 0.07955504
000010 21 98 d9 3d 29 29 1d 3b 99 8e 34 3d f6 c8 8c bd
       0.106247194 0.0023980832 0.044081304 -0.06874268
000020 87 ff 80 3d b7 2c 6f bd 88 f4 4a bc 75 2d aa bd
       0.06298738 -0.058392253 -0.012387402 -0.083094515
000030 c1 ff 13 be 53 c7 4e 3d b3 fc af bc 7a 3f f7 3d
       -0.14453031 0.05048306 -0.021482801 0.12072654
000040 b1 3f 8c 3d 04 16 ba 3d c0 af 10 3d b3 84 3d 3c
       0.06848086 0.090862304 0.03532386 0.0115672825
000050 0e 69 cb 3d 97 6a be 3d 58 67 48 3d 98 83 c3 3c
       0.09932147 0.09297674 0.04892668 0.02386646
000060 d2 48 8a bb 4f b6 2f 3b 09 42 f2 bd 56 dd a9 3b
       -0.0042201066 0.0026811545 -0.118290015 0.005183856
000070 b1 c1 e9 bd a2 fb 17 3d 54 04 6a bd 8f 69 a0 bd
       -0.11413897 0.03710521 -0.057133034 -0.07832634
000080 59 4b 89 bd a4 3f a9 3d ef a2 f3 bd bf 81 2f 3d
       -0.067038245 0.082640916 -0.118963115 0.042848345
000090 60 9a 36 3d 61 94 83 3d da 02 74 3b ab 60 ce 3d
       0.044580817 0.064247854 0.0037233145 0.10077032
0000a0 e6 98 ee 3d 25 01 3c 3d 92 9e a7 3c c4 83 d0 bd
       0.11650257 0.04589953 0.020461354 -0.10181382
0000b0 fe d7 5d bd 4f 8c d9 bb f2 01 37 3d fb 10 33 bc
       -0.054161064 -0.0066390405 0.04467959 -0.010929341
0000c0 b9 00 c5 bd a3 98 2b 3a da b2 07 3d ed 2c a7 3d
       -0.096192785 0.0006545877 0.03312955 0.08162866
0000d0 5f d8 14 be cf 31 1a 3d 36 1c 14 be 2c 89 ba bd
       -0.14535664 0.037645157 -0.14463887 -0.09108195
0000e0 4a e1 d2 bd 5c 8a 40 bb bf b9 8f 3d 92 93 92 bd
       -0.10296877 -0.0029379344 0.0701785 -0.07157053
0000f0 70 39 fa 3d 96 42 14 3e 4d c5 0c 3d 36 96 03 3e
       0.122179866 0.14478526 0.03436785 0.1285027
000100 a5 93 4b bd 21 3a 25 bd 8e ed ae bc 76 a4 9a 3c
       -0.04970135 -0.04033864 -0.02135351 0.01887725
000110 23 3d 8e bd e4 13 b7 bd d2 ac a5 3d 05 f8 50 3d
       -0.06945255 -0.08939341 0.080896035 0.05101778
000120 39 96 f3 3d 3a f6 e3 bc 40 1f 4b 3d c6 59 65 bd
       0.11893887 -0.02782737 0.04959035 -0.055993818
000130 66 be 71 3d 69 18 8e bc 92 bb a8 3d 13 92 90 3d
       0.05901947 -0.017345624 0.08238901 0.070591114
000140 60 de b8 3d 31 f3 73 3d 7b b8 97 3c 44 e8 16 3e
       0.0902679 0.059558097 0.018520584 0.1473704
000150 e2 12 ac bd d6 77 16 3e 32 30 de 3d 15 42 f0 3d
       -0.08402039 0.14694151 0.10849036 0.11731354
000160 a5 92 5f bd 21 0e a3 bd 8a 90 9c 39 7d 22 19 3d
       -0.05458321 -0.07961679 0.0002986233 0.037386406
000170 31 d8 6c 3d 1d 68 50 3d 36 2b d8 3d 38 11 aa bc
       0.057823364 0.05088054 0.10555117 -0.020760164
000180 3a 1e 14 bd 5b 8c 2c 3d bd 07 7f 3c af 51 8e bd
       -0.03616164 0.04212604 0.01556581 -0.06949174
000190 be ab 2b 3c 67 c9 d9 bd a4 d4 4d bd 0b 39 14 bd
       0.010477958 -0.106341176 -0.050251618 -0.036187213
0001a0 a7 e1 e9 3d 5f 12 f2 bd 18 f9 95 bd d3 93 d3 bd
       0.11419993 -0.1181991 -0.073229015 -0.103309296
0001b0 e3 5c 0b 3d 5a 73 bc bd 64 1b 24 3d 17 68 97 bd
       0.03402413 -0.09201689 0.040065184 -0.073929004
0001c0 ef f9 96 bd 56 cb 39 bd 7e 73 3b 3c 8f 04 d6 3d
       -0.0737189 -0.045359932 0.01144111 0.10450088
0001d0 62 36 cf 3d de 09 17 bc 5d 41 04 be 2e 8e 05 bd
       0.101177946 -0.009218661 -0.12915559 -0.032606296
0001e0 e9 eb 55 bd df 65 dd bc 42 f1 85 3d e7 42 99 3d
       -0.052226935 -0.027026115 0.06540157 0.07483464
0001f0 2c 45 6e 3d ba fc 66 3d e9 09 5f bd 52 19 3b 3b
       0.058171436 0.056393363 -0.05445281 0.0028549028
000200 0c e4 cb 3c 96 34 8e bd 5c 78 69 3b a8 d1 c1 bc
       0.024889015 -0.06943624 0.0035624718 -0.023659542
000210 2f 94 0e be e4 75 a7 3d 3b 29 f6 bc 86 39 00 be
       -0.13923715 0.08176783 -0.030048957 -0.12521943
000220 f0 9a d5 3d 16 ac b0 bd 4e 30 2d 3d 57 68 13 3e
       0.104299426 -0.08626573 0.042282395 0.14395271
000230 59 e7 2d 3b 55 3b 3d 3d 76 b5 64 3d 9a 8a db 3d
       0.00265356 0.04619916 0.055837117 0.107197955
000240 84 09 04 bd c9 eb 6f bd 48 69 19 bd 8b 18 79 3d
       -0.032235637 -0.05857447 -0.03745392 0.06081442
000250 12 e4 97 3c 14 0a 89 3d eb 78 71 3c 4b ff 60 3d
       0.01854137 0.066913754 0.014738302 0.054930966
000260 25 9b 10 bc bb 0a 2c bc 88 d5 fe bd b0 22 ed bd
       -0.008826052 -0.010500605 -0.124430716 -0.11578882
000270 82 0a c7 3a d5 91 84 3d c9 0e b8 3d 5b d7 d2 3c
       0.0015185627 0.06473128 0.08987195 0.025737455
000280 25 d7 6d 3d 11 e4 4b 3d 58 e9 c9 bd 52 3d f9 bd
       0.058066506 0.049778048 -0.0985896 -0.12169899
000290 90 1b bd bd 67 f0 1b 3c e1 21 97 bd db 75 39 bd
       -0.09233773 0.009517766 -0.07379509 -0.04527841
0002a0 fb 50 c6 bc c6 f1 9b 3d a5 c2 9b 3c 02 9d fe 3d
       -0.024208536 0.07614474 0.019013712 0.124322906
0002b0 67 70 c0 3d a7 25 a1 bd 3c 7b 3c 3c f5 94 53 3c
       0.09396439 -0.0786851 0.011503991 0.012913932
0002c0 cd 22 df 3d 70 a7 44 bd fa f1 60 bd a7 1e 77 bd
       0.108953096 -0.048011243 -0.054918267 -0.060331967
0002d0 4e a3 ce 3d 48 79 34 bd 3f 4b 4c bd 7a ab b8 3d
       0.10089742 -0.044060975 -0.049876448 0.090170816
0002e0 b6 54 ef 3d c8 76 1f ba 49 ec c9 bd 29 d4 bd 3d
       0.11686079 -0.00060830684 -0.09859521 0.09268982
0002f0 be 88 0a bd 58 9b 8e bd 3a 8c 96 bd fd 72 61 bd
       -0.033821814 -0.06963223 -0.07350965 -0.055041302
000300 cf 27 c8 bd 6f 3a 62 bd b1 6e f1 bd f6 0b cf bc
       -0.09773218 -0.055231508 -0.11788691 -0.025274258
000310 78 f8 4a 3d 94 15 b9 bd 1a 5b 0b 3b 3b 36 45 bd
       0.049553365 -0.09037319 0.0021264018 -0.04814742
000320 80 2a 28 3d 5e 1d d7 3d de 7e 8c bc 51 aa 8c bd
       0.041056156 0.10503648 -0.017150339 -0.06868423
000330 e3 24 cc bd b3 ba 04 be ae 16 e8 3c 33 51 e1 3c
       -0.09967973 -0.12961845 0.028331127 0.02750454
000340 5c f0 82 3d 02 5e 50 bc ad 35 9c 3d c8 9d b7 bd
       0.06393501 -0.012717726 0.07627425 -0.08965641
000350 b4 99 6a 3d c9 35 17 3e 85 2b 12 be 68 e3 5e bd
       0.05727549 0.14766611 -0.14274414 -0.05441609
000360 73 1d a2 3d c0 ab 19 3c 4c cb 75 bd e1 80 9a 3d
       0.07915773 0.009379327 -0.060008332 0.07544113
000370 cc ce 8a 3c f4 e4 85 bc f5 8f 20 bd f1 0f 96 3d
       0.016944312 -0.016344525 -0.039199788 0.07327259
000380 6f 85 1d 3d 19 69 e6 3c c5 02 86 3c f3 8a 84 3d
       0.03845733 0.028126286 0.016358742 0.06471815
000390 6a 82 85 3d b4 39 65 bd 16 ec 8f bc 24 8e 7d 3d
       0.06519015 -0.055963233 -0.01756863 0.061903134
0003a0 df 1c 47 bd 1f 28 e4 3d 8c 2f af bd 80 1c 4c 3d
       -0.048611518 0.11140465 -0.08553991 0.049831867
0003b0 55 37 9f bd 40 37 8b 3c 5d 8e cb 3d 54 db cb 3c
       -0.077742256 0.016994119 0.09939263 0.024884857
0003c0 eb 5b cc bb 00 a9 ae 3d 95 ff ad bd 08 be d0 bd
       -0.0062365434 0.08528328 -0.08496014 -0.101924956
0003d0 91 23 e5 bd e5 c4 9b bd 1b 5c 27 3a e7 30 70 bd
       -0.111884244 -0.07605914 0.0006384269 -0.058640387
0003e0 a2 95 ad bb 66 87 0e bb 17 06 e6 3d 5e 8e 09 bd
       -0.0052973786 -0.0021748184 0.1123163 -0.033583038
0003f0 a8 90 06 bd 1c 20 b4 3d 71 14 08 bd 17 64 fb 3d
       -0.0328528 0.08795187 -0.03322262 0.1227495

encoder.rnn.bias_ih_l0 f4 [192]
000000 5d ba a1 3d f5 ac 2f 3d d2 16 ea bc 25 a0 e0 bd
       0.07896874 0.042889554 -0.028575335 -0.10968045
000010 3b 9c f8 bd 9c 48 ec bd 05 af 03 bd 7e 30 a0 3d
       -0.121391736 -0.11537287 -0.032149334 0.07821749
000020 ac ab 15 3d 09 42 97 bb 00 ca 1b 3d fd 7f 6c 3d
       0.036540672 -0.0046160263 0.03803444 0.057739247
000030 1e 32 ec bd d1 86 9d 3c b6 c6 24 bc 6a 5d 1d 3d
       -0.115329966 0.019229325 -0.010057142 0.038419165
000040 46 3b 94 3c eb 1d fe 39 cd 17 45 bd 0d 81 88 3d
       0.01809467 0.00048468946 -0.0481184 0.066652395
000050 6d 7e 24 3d 3e 32 4c 3d 7c 3c a5 3d d2 17 43 3d
       0.04015963 0.049852602 0.08068177 0.04763014
000060 a4 a6 d6 bd be 29 ed 3c d4 85 13 3d 8b 6b 66 bd
       -0.10481003 0.028950568 0.0360163 -0.056254905
000070 af a2 c1 3d 40 d9 9b bd 3f 76 05 be 10 78 11 3e
       0.094548576 -0.076097965 -0.13033389 0.14205956
000080 6e 24 7f 3d 1f 06 f2 3d db 58 9e 3d 04 0a fb bd
       0.0622906 0.11817574 0.077317916 -0.1225777
000090 53 09 5e 3c bd 1a 04 3e f8 ef fc bd 22 40 f7 3a
       0.013552028 0.12900825 -0.12350458 0.0018863718
0000a0 2b ae ee 3c af 4f f3 bd d3 fc b1 bc 35 7f 39 3d
       0.029135784 -0.11880433 -0.021727001 0.04528733
0000b0 f4 8e b4 3a 6e a3 f7 bd e9 07 ca 3d 24 24 d8 bd
       0.0013775514 -0.120917186 0.0986479 -0.10553768
0000c0 1a e5 d5 bb 65 2f a9 3b 35 94 6d bc 85 4a a0 bd
       -0.006527555 0.0051631206 -0.014500667 -0.078267135
0000d0 ad 49 9f bd 43 f3 7f bd b9 3b 58 bd 57 ac be bd
       -0.077777244 -0.06248785 -0.05279133 -0.09310215
0000e0 04 23 6c 3c 13 c2 ed 3d d1 93 8f bd 0c 4d ea bd
       0.014412645 0.11609282 -0.070106156 -0.11440477
0000f0 bd 9b 2f 3c 88 96 e6 3d 8e ca 0f be f5 d7 9d 3d
       0.010718283 0.1125918 -0.14042112 0.07707206
000100 2a ec c5 3d e1 89 0d be bd 2b 30 3d 2e 6d a9 bd
       0.09664185 -0.13822128 0.043010462 -0.082727775
000110 19 69 23 be 7a 91 64 3d be 14 8b bd db f8 87 bd
       -0.1595806 0.0558028 -0.06791066 -0.06639262
000120 b2 6b ad bd 80 e6 af bd 2f 29 44 bd c1 65 d8 3d
       -0.08467807 -0.08588886 -0.04789084 0.10566283
000130 76 0c 83 bc be da c7 3d 64 bb c3 bc c8 47 8d 3c
       -0.015997153 0.09758519 -0.023893066 0.017246142
000140 54 a2 02 be 57 98 18 be 23 2d ff 3d f7 59 01 be
       -0.12757236 -0.14901863 0.12459781 -0.12631975
000150 06 95 fa bd ad 97 29 be d2 80 8a bd ad 53 65 3c
       -0.12235455 -0.16561766 -0.06762852 0.013997001
000160 c1 97 f8 bd 4e 39 7d bc 6c d4 c8 bd d3 41 2d 3d
       -0.1213832 -0.015455557 -0.09806141 0.042299103
000170 4a c7 5a bd 99 93 11 be 2e 23 07 3d b4 ae 82 be
       -0.053412713 -0.1421646 0.032992534 -0.25523913
000180 2f 24 ee bd e0 99 e1 bc 3c 8e 2d be b9 57 ea 3d
       -0.11627995 -0.027539194 -0.1694879 0.11442513
000190 7b 87 5b be aa d9 9e bd b6 71 f6 bd 79 b7 f0 bd
       -0.214384 -0.0775636 -0.120334074 -0.11753745
0001a0 60 d2 07 be a9 bb 3c bb 95 cd 4e bc 0c 04 ae 3d
       -0.13263845 -0.0028798378 -0.012622257 0.08496866
0001b0 a1 ce 5a 3c 47 01 60 bd 51 07 e6 bd 4c e6 13 3d
       0.013354928 -0.05468872 -0.11231864 0.0361083
0001c0 e0 59 05 be 41 e3 a7 bd 88 2d 3a 3d 64 9f 03 be
       -0.13022566 -0.08197642 0.04545358 -0.12853771
0001d0 67 5a db bd 58 ce 16 3d c2 fa 67 3c 7b bb 9e bd
       -0.10710602 0.03681788 0.014158906 -0.07750603
0001e0 c5 6b 90 3b 28 5b ac 3d b2 79 ee bc 3d 1b 87 bd
       0.0044073784 0.08415824 -0.029110763 -0.06596992
0001f0 94 5c 1a 3d a3 96 38 3d ea 9b 7f 3d ac 9d a4 bc
       0.037685946 0.045065533 0.06240455 -0.020094715
000200 b0 f8 ae bd 8e 60 3f 3c e8 0f 86 bd 27 a7 ce 3d
       -0.08543527 0.011680735 -0.065460026 0.100904755
000210 1c 44 6a bd 14 6c b7 bb 9b 95 8b 3d 87 be d8 3c
       -0.05719386 -0.0055976007 0.06815644 0.026458038
000220 e4 54 c1 bd db 18 74 bd 8b 43 10 3d fa b7 c7 bd
       -0.0944002 -0.059594017 0.035220664 -0.097518876
000230 2c 01 df 3c 25 4a f3 3c a3 23 96 bd f0 e8 ac bd
       0.027222238 0.02969844 -0.07331016 -0.08442867
000240 72 b6 24 bc 2d 9e 17 bd d8 3d de 3d 50 73 c5 3d
       -0.010053264 -0.037016083 0.108516395 0.09641135
000250 9d 46 9d 3d f7 d1 94 3d f2 5a 6a 3d d8 49 b5 bd
       0.07679484 0.0726661 0.05721564 -0.08851975
000260 59 d6 bc 3d 95 df a5 bb 08 01 84 3d 97 c1 bf 3d
       0.09220571 -0.0050620534 0.06445509 0.09363096
000270 50 90 01 3d 7e fd c8 bd 80 de 56 3c 1d ce 46 bd
       0.031631768 -0.09813975 0.013114572 -0.04853641
000280 7e 58 fc bd 88 da 94 3d 5b 08 93 bd 1a 03 ac 3d
       -0.12321566 0.07268244 -0.07179328 0.08399029
000290 1f 25 bb bd 63 2a 18 3d a8 9d d4 bc 1d 4c a9 3b
       -0.0913794 0.037149798 -0.025954083 0.005166544
0002a0 36 3a 9a 3d ad 54 e2 bd 0f fc 97 3d 3b 1a b7 bc
       0.07530634 -0.11051307 0.07421123 -0.022351375
0002b0 35 f2 92 3d 1c 67 ab bd 26 34 66 bd 92 2e 39 3c
       0.071751036 -0.08369276 -0.056202076 0.011302607
0002c0 63 1a 00 bc ef c5 1f bd c8 06 67 3d 74 08 27 bd
       -0.007818791 -0.039007124 0.05640295 -0.040779546
0002d0 b9 09 81 bd b3 c3 02 bd ee 4c cb 3d b0 7b e1 bd
       -0.063006826 -0.031924915 0.099267825 -0.1100992
0002e0 f6 64 fd bc d6 c6 8e bb d9 1b 9b 3d 4f 93 e4 3d
       -0.030931931 -0.004357199 0.07573671 0.111609094
0002f0 6c b1 67 bd c2 ca 4d bc 03 04 c2 bd ad d8 84 bd
       -0.056565687 -0.012560548 -0.094734214 -0.0648664

encoder.rnn.bias_hh_l0 f4 [192]
000000 87 30 08 3d 57 ef 04 bc 8d 1e 99 3d 14 55 f9 3a
       0.033249404 -0.008113704 0.0747653 0.0019022548
000010 38 56 94 bd 6f a3 7b bd b4 c6 39 bc 34 0b 81 3d
       -0.072430074 -0.06143516 -0.011338878 0.06300965
000020 54 86 6d 3c fa 18 35 3d 4c 53 a9 bd ce 54 4b 3d
       0.014497358 0.044213273 -0.08267841 0.049641423
000030 9e ca e8 bd f2 6e 8d 3d 4c 73 c3 bc 51 9a bd 3d
       -0.11366771 0.06905927 -0.023858689 0.09257949
000040 d9 82 6f bd 94 15 24 3e 8d 83 b4 3d 98 8e 06 be
       -0.058474395 0.16023856 0.08814154 -0.13140333
000050 42 d5 15 bd f8 e3 a0 3d a6 0b d3 3c 95 e8 cd 3d
       -0.03658033 0.078559816 0.02576239 0.10054127
000060 70 1e 00 bd ce 2c 21 bd 42 d4 33 3d b9 1d 6f bd
       -0.031279027 -0.03934937 0.043903597 -0.058377955
000070 e7 e4 e5 3d 70 9b 64 3d 0d e7 e2 3d 5f fa e4 3d
       0.112253 0.0558123 0.11079226 0.11180567
000080 91 29 63 bd 31 08 f8 3d 22 a7 c5 bd c0 29 d9 3d
       -0.055459563 0.121109374 -0.09651019 0.10603666
000090 c1 54 ce bc d4 39 31 bd fc e3 83 bc 29 29 44 3d
       -0.025186898 -0.04326804 -0.016099922 0.047890816
0000a0 ba 0a b0 39 bb d4 a5 3d 96 20 31 bd 02 23 fd bd
       0.00033577328 0.08097216 -0.043243967 -0.12360193
0000b0 cf 2d ae 3d d7 b9 83 bc 19 41 d7 3d 84 48 82 bd
       0.08504831 -0.016079826 0.10510463 -0.063614875
0000c0 14 43 13 3d 82 8b 3e 3d 07 5c be bd 97 65 d7 bd
       0.035952643 0.046519764 -0.092948966 -0.105174236
0000d0 21 fa 09 bd 77 3b 23 bb 70 9c 8f bd e3 55 a1 bd
       -0.033685807 -0.002490727 -0.0701226 -0.0787771
0000e0 bf 54 de bc 8e 6a e7 bd 7f 07 91 bd c9 31 93 bd
       -0.02714002 -0.112996206 -0.07081508 -0.0718723
0000f0 51 c7 90 bc 72 1d ff 3d 50 17 6f 3d d9 96 fa 3c
       -0.017673166 0.12456788 0.058371842 0.030589508
000100 02 12 eb 3d 4d 6c 2a be e1 63 a3 bb bd 61 95 bd
       0.11478044 -0.16642876 -0.0049862717 -0.07294033
000110 eb ba c3 3c fd 8c eb 3b fe b2 ca bd 59 44 7a bd
       0.02389284 0.007188438 -0.09897421 -0.061100338
000120 c3 9a 0e 3d 1f e6 d4 bd a2 fd 61 bd 1e 5f 7f bc
       0.03481556 -0.103954546 -0.055173524 -0.015586643
000130 ff 9e a4 3d f4 31 32 3b 18 8c 6a 3a f2 87 08 bb
       0.080381386 0.002719042 0.0008947267 -0.0020832983
000140 5a f0 25 be 5e 07 35 bc d1 dd de bd ee 72 84 be
       -0.16204968 -0.01104912 -0.10882152 -0.25868934
000150 68 29 af 3d 58 46 49 be 54 ab 25 be cf 36 22 bd
       0.085528195 -0.1965574 -0.16178638 -0.03960305
000160 86 bf 99 3d f8 a7 a7 ba 88 b9 05 bd f4 f6 b4 bd
       0.07507233 -0.0012791147 -0.03264764 -0.08836165
000170 e1 d5 96 bd 63 a9 e6 bd 68 f7 10 be 07 87 90 be
       -0.07365013 -0.11262777 -0.14156878 -0.28228018
000180 01 f7 1b bd 17 6c 54 bd 38 2f 7b be 3e f4 91 bc
       -0.03807736 -0.051860895 -0.24529731 -0.017816659
000190 6d 07 90 3c 9e c5 ed bb 49 5f 81 bd 93 1d 37 be
       0.017581666 -0.007256224 -0.06317002 -0.17882375
0001a0 be 03 1c be bb fb d0 bd 05 89 53 bd 00 0d 12 bc
       -0.15235803 -0.10204264 -0.051644344 -0.008914232
0001b0 03 78 a6 bd d0 b9 c7 bd 07 62 64 3d 77 f9 cb bd
       -0.08128359 -0.09752238 0.05575755 -0.09959691
0001c0 e6 a0 45 be ab 54 06 be 72 19 dc 3d e1 67 51 be
       -0.19299659 -0.13118236 0.10747041 -0.20449783
0001d0 7d 46 f3 bd 52 83 08 3d 1e a1 d6 bd d6 fd f8 3d
       -0.11878679 0.03332836 -0.104799494 0.1215779
0001e0 06 4f d8 bd 9b db b9 3d cc 4e 5f bc 4f 1e 61 be
       -0.105619475 0.090750895 -0.0136296265 -0.21984218
0001f0 08 3f ba 3d 23 64 1b be 30 40 5c 3d 6a ca d2 bd
       0.090940535 -0.15174918 0.05377215 -0.10292514
000200 5c a4 36 bd c4 a5 85 3d a7 e0 83 bc c2 8e c0 bd
       -0.04459034 0.06525758 -0.016098334 -0.09402229
000210 57 1c 8e 3d cb ca a9 3c fd 40 8b 3c a5 ab af 3d
       0.06938999 0.020726582 0.016998762 0.085776605
000220 bb f3 68 3d b1 9f 0a 3e 0e 04 63 3c 17 d3 e5 bd
       0.056873064 0.1353748 0.013855947 -0.11221903
000230 44 75 55 3d cd 87 d3 bd d7 58 ab 3c a8 36 54 3c
       0.052113786 -0.10328636 0.020916386 0.012952484
000240 2f 73 1a bd 4d 8e d7 bc a6 ec ad bd b5 de bb bd
       -0.037707504 -0.026312971 -0.08492403 -0.09173337
000250 89 ca d1 3c 4a 72 01 bc 0a 50 87 bd 7d dd e9 3d
       0.025609272 -0.007900784 -0.06607063 0.11419199
000260 14 6e 86 3d 05 e4 4f 3d e5 c2 e3 3c 3f 41 14 bd
       0.065639645 0.050754566 0.027802894 -0.036195036
000270 8e b5 cb 3d e1 2c 04 be fa fa 65 bd 5d db e5 3d
       0.09946738 -0.12907745 -0.056147553 0.11223481
000280 8a 46 82 3d 4a a9 bb bc b0 16 80 bd b4 6c 29 3d
       0.063611105 -0.022907872 -0.06254327 0.041363433
000290 6c b2 8b 3d 77 67 78 bd d0 78 40 3d aa d5 a3 3d
       0.06821141 -0.060645547 0.046990216 0.079997376
0002a0 d8 9b 94 3c a0 db 93 bd 71 37 1d bc d0 05 89 bc
       0.018140718 -0.072196245 -0.009595738 -0.016726404
0002b0 1a d6 47 3d 14 46 ce bd 8b 6b 61 3d ed 01 fb 3d
       0.048788168 -0.1007196 0.0550342 0.12256227
0002c0 16 e8 19 bd 3b e3 d2 3d f6 6a 34 3d 26 1e 2f bd
       -0.03757485 0.10297247 0.04404732 -0.04275336
0002d0 cc 85 ac bd 40 8e 41 3d 0f 46 d8 bd 95 47 81 3d
       -0.08423957 0.0472548 -0.105602376 0.06312481
0002e0 25 c6 e0 bd 52 29 4f bd e3 f7 e4 3c b7 02 96 3d
       -0.10975293 -0.050576515 0.027950233 0.073247366
0002f0 25 03 bf bd 57 63 41 3d 7e cd a1 3c 7d 9f 3f bd
       -0.09326772 0.04721388 0.019751307 -0.04678296

encoder.rnn.weight_ih_l1 f4 [192, 64]
000000 b7 08 be bb 2d 86 1f 3e 0e 59 90 bd e8 a2 91 bd
       -0.0057993787 0.15578528 -0.07048236 -0.0711115
000010 6a af d3 3b 4a 63 fb bd 6a 2d a5 3d ec 5b 01 3d
       0.00646012 -0.12274797 0.08065303 0.031581804
000020 0d 39 f5 3c 34 d9 47 3e c1 d7 09 3e 39 6d fc 3c
       0.02993443 0.1951645 0.1346121 0.0308138
000030 b1 05 ae 3d 1f 6e 8f bd 44 32 8e bc 28 53 66 bd
       0.08497179 -0.07003426 -0.017357953 -0.056231648
000040 2d 33 36 be 14 02 2d 3d 4f 6b 92 bc a0 5c 14 3d
       -0.1779296 0.04223831 -0.017873434 0.036221147
000050 79 f4 5d bd ed 77 e8 bc 71 2b 1c 3d dc 5e ea 3d
       -0.054188225 -0.028377498 0.038127366 0.11443874
000060 f8 f8 a2 bd 07 3e 73 3e 31 b5 04 be 1f 9f 01 be
       -0.07957643 0.2375413 -0.12959744 -0.12658356
000070 5c 18 cb 3d 44 cf 9a 3c 70 2b c9 bc 15 e6 65 3d
       0.099167556 0.01889766 -0.024556845 0.056127626
000080 c2 b2 36 bd 85 7b 02 be b4 9a 7c 3c 3a 48 71 bd
       -0.04460407 -0.12742431 0.0154177435 -0.05890677
000090 ab 75 91 3d 41 cb 1a 3d 3b a2 39 3d 3c a8 9a bd
       0.071025215 0.037791494 0.04532073 -0.075516194
0000a0 02 66 99 3d 83 50 92 bd 07 8f aa bd 4c 51 c9 3d
       0.074901596 -0.07144263 -0.083280616 0.09829959
0000b0 4b 3a fb bd af a1 a2 bd d4 ae a7 3d ea 70 0d bd
       -0.12266978 -0.07940995 0.08187643 -0.03453151
0000c0 b4 4b 19 3e e5 88 fd 3d 38 27 de bd 36 f9 09 bd
       0.14970285 0.12379626 -0.10847324 -0.03368493
0000d0 e3 db 20 be 2a 1b 3f 3d 92 47 88 bd af fa 70 3d
       -0.1570888 0.046656765 -0.06654276 0.05883282
0000e0 5d 83 a7 bd 57 13 eb 3d e9 fb 65 3d 6e b0 9a bc
       -0.081793524 0.11478298 0.056148443 -0.018882956
0000f0 f0 88 ba bd 44 61 1e bb 29 1c 2c 3c d9 68 95 bb
       -0.0910815 -0.0024166862 0.010504761 -0.004559618
000100 e1 54 d9 3b 43 41 4d bd cc 02 60 3c d3 ae 20 3d
       0.006632433 -0.050111067 0.013672542 0.039229225
000110 88 ab b4 bd a8 db b9 bc 5b da 02 bc 49 30 a9 3d
       -0.088217795 -0.022687748 -0.00798663 0.08261163
000120 5d 58 8b bc 69 44 1b bd 17 69 a9 3d b2 cb 6f 3d
       -0.017009908 -0.037907038 0.082719974 0.05854387
000130 41 dd 29 3d f0 d5 27 bd b9 0c 69 bd 77 f1 a5 3d
       0.04147077 -0.04097551 -0.0568969 0.081026964
000140 46 1a 66 3d ce 89 6e 3d cb 94 83 bb 2a 1a 44 3b
       0.0561774 0.05823689 -0.0040155402 0.0029922822
000150 4b 68 a0 bd c4 21 33 3c 54 10 4c 3d f1 ce c3 3d
       -0.07832392 0.010933343 0.04982026 0.09560955
000160 ae 32 dc bb 77 2b 15 3e 81 40 03 bd 29 15 88 3d
       -0.0067199087 0.14567362 -0.032043938 0.06644661
000170 e2 fd 06 be 92 f1 e1 bc a7 dd 7e bd fb 3b 51 3d
       -0.13182786 -0.02758101 -0.062223103 0.051082592
000180 a8 b8 fd bd 4f cf 77 bd c1 94 ae 3d 02 b5 12 3d
       -0.12388736 -0.06050044 0.08524466 0.035817154
000190 85 48 ae 3d 24 98 36 3d 09 a9 89 3d 52 a9 72 bd
       0.08509926 0.044578686 0.06721694 -0.059243508
0001a0 72 74 23 3d 37 13 bc bd 23 45 da bd 86 4a ea bd
       0.039905973 -0.091833524 -0.10657718 -0.114399955
0001b0 7f bc 49 3d de a1 cb 3c 34 a5 4a bd 58 23 33 3c
       0.04925203 0.024857458 -0.049473956 0.01093372
0001c0 fd e0 f6 3d 94 ae 8d bd 9a ed cc bd 98 68 b9 bd
       0.12054632 -0.06918064 -0.100062564 -0.09053153
0001d0 e0 21 ab bc bb df c2 3d 85 2c 3f 3c c2 b6 8b 3b
       -0.020890176 0.095153295 0.011668329 0.00426373
0001e0 1a e5 e6 bc 6b e1 dd bc 7e 09 45 bd b7 6a 0e 3e
       -0.028185416 -0.027085027 -0.048104756 0.13907896
0001f0 c4 bd eb bc 21 e0 26 bd 3b 84 6c bc 1f 03 fd 3d
       -0.02877701 -0.04074109 -0.014435823 0.12354111
000200 ed 67 8f bd ce 4d 5c 3e 83 f7 a8 3c a1 d7 8e bd
       -0.07002244 0.21514055 0.020625835 -0.06974722
000210 ef 18 63 3d 57 cb 28 3d 4d dc ed 3c b3 22 82 3d
       0.0554437 0.041209545 0.029035712 0.063542746
000220 30 61 8e bd 34 70 1a bd 1b 47 09 3e 84 02 04 3e
       -0.06952131 -0.03770466 0.13406031 0.12891585
000230 51 12 01 be fd 37 ac bd 93 5c 09 be 84 11 11 ba
       -0.12604643 -0.084091164 -0.1341422 -0.0005533921
000240 ae 4b 2b bd a9 76 d3 3d 69 cf 47 3c c5 0c 3b bd
       -0.04182022 0.10325367 0.0121954465 -0.045666475
000250 89 41 99 bb a9 6c 1e bd fa ad 9f 3d 0f 38 4b 3d
       -0.004677002 -0.038677845 0.07796855 0.04961401
000260 ad 9d 04 be 9f 92 31 3e 19 52 62 3d 52 b0 10 be
       -0.12950774 0.17341088 0.055254076 -0.14129761
000270 9f 95 7e bd 55 30 be 3d 33 20 b1 3c ed 1c 99 bd
       -0.06215441 0.09286562 0.0216218 -0.0747622
000280 ca 84 9b bd fc d2 fd bd ab 83 84 bc 6c 2c 9b bd
       -0.07593687 -0.12393758 -0.016176065 -0.07576832
000290 b8 cc a1 3d 35 14 84 3c db 97 cf bd 51 81 02 3e
       0.07900375 0.016122917 -0.10136386 0.12744643
0002a0 76 54 eb 3a 8b 92 a3 bd 46 e6 e7 bd ee 5d 6c bd
       0.0017954248 -0.07986935 -0.11323218 -0.057706766
0002b0 a9 5f 4c 3d 56 dc 8e 3b be f8 68 bc 69 5a 74 3b
       0.049895916 0.004359762 -0.014219461 0.0037285334
0002c0 86 05 96 bb b2 b6 05 bd 9b 49 e9 3d e9 6a 17 be
       -0.004578295 -0.032644935 0.11390992 -0.14786877
0002d0 28 28 84 bd 7e bc 03 ba ae 95 e1 bc ed f0 12 3b
       -0.06452972 -0.0005025341 -0.027537193 0.0022421435
0002e0 7f 08 00 be f5 25 43 bd d7 cd b6 bc ca ca 11 3e
       -0.12503241 -0.04764362 -0.022314949 0.14237514
0002f0 12 ac b0 bc 5c a2 43 bd d1 88 91 bd a6 0d 97 bd
       -0.021566425 -0.04776226 -0.07106174 -0.0737565
000300 c1 8d be bc ff d6 10 be df 40 cc bd 22 1e 2e bd
       -0.023260953 -0.14144515 -0.09973311 -0.042509206
000310 0f 6b d3 3d 62 1e 71 bd d4 5f c0 bd a3 8a ec 3d
       0.10323154 -0.058866866 -0.09393278 0.1154988
000320 0c 5f a2 3d 03 36 a9 bd d6 8c 43 ba c5 70 0b bd
       0.07928285 -0.08262255 -0.0007459646 -0.034043092
000330 62 41 95 bd 56 8a 47 bd af 79 19 bd a4 47 b6 3d
       -0.072878614 -0.04871591 -0.037469562 0.08900383
000340 37 be 5d 3d 17 16 ee bd 62 5a f8 bd 3d 65 e8 bd
       0.05413648 -0.11625307 -0.12126614 -0.11347435
000350 0e 7f a2 3d f2 4c 80 bd a0 97 63 b9 28 d8 e0 bc
       0.0793439 -0.06264676 -0.00021704892 -0.027446821
000360 10 c0 5b 3b 2c b9 aa bd ce 85 5d 3d c1 96 cd bc
       0.0033531226 -0.083361 0.054082684 -0.0250963
000370 86 34 02 3e 8c 53 01 3e 97 4a 80 3b b5 1b 0d bd
       0.12715349 0.12629527 0.003915142 -0.03445025
000380 92 42 15 3e 53 cb 29 3c 6c 07 a7 3d 76 78 01 bd
       0.14576176 0.010363418 0.081557125 -0.03160902
000390 a5 79 97 3c 72 99 79 3d 1f 14 00 bd ed 72 98 3d
       0.018490622 0.060937352 -0.03126919 0.07443795
0003a0 02 68 f8 bd dd f9 3d bd ee 3f e1 bb 4c 8d c9 3d
       -0.12129213 -0.046380866 -0.006874076 0.09841403
0003b0 ec 6b a5 bd 51 f2 6a 3d 10 67 80 3d 67 62 11 be
       -0.08077225 0.057359997 0.062696576 -0.14197694
0003c0 29 c7 a2 3d 4e 11 bc 3c ac 69 33 3d 30 23 94 3d
       0.07948143 0.02295747 0.04380195 0.07233274
0003d0 b9 66 ee 3d 1d 26 ac bc 36 b0 20 3d ec 94 ae 3d
       0.116406865 -0.021014268 0.039230548 0.08524498
0003e0 9e 97 97 bc 6d 5a be bb d0 45 2b 3d 94 78 a9 bd
       -0.018504914 -0.0058091194 0.041814625 -0.082749516
0003f0 56 95 bc bd 15 ee ec bc 63 38 ef bc 58 b3 fe bd
       -0.09208171 -0.02892212 -0.029201692 -0.12436551

encoder.rnn.weight_hh_l1 f4 [192, 64]
000000 28 42 ca 3d 24 7d cf 3c d7 10 ee 3d 3f ac 29 bd
       0.098758996 0.025328226 0.11624306 -0.041424032
000010 de 5b de 3c ca 02 18 3d 5f bd 8b bd 3d b5 d2 bd
       0.027143415 0.037112035 -0.06823229 -0.10288475
000020 4d c4 7f 3d c8 ec b3 bd 75 e2 85 bd e5 60 cd bc
       0.062443066 -0.08785397 -0.06537334 -0.025070617
000030 c2 c8 ed bd 6c d5 00 3e 51 69 b3 bd 50 66 9e bd
       -0.11610557 0.12581414 -0.08760322 -0.07734358
000040 07 82 f6 bd 76 94 59 bb ca c5 26 3d ba c9 05 3c
       -0.120365195 -0.0033200062 0.04071597 0.008165771
000050 5c 3c 1b bd ac d6 0e 3d 7c 48 64 bd 87 b0 62 3d
       -0.03789936 0.034872696 -0.05573319 0.05534413
000060 9b 14 fd 3d 7e cf 16 3d 23 6a c8 bd eb 86 a9 bc
       0.12357446 0.036818974 -0.09785869 -0.020694217
000070 ac 9c 14 bd 23 14 2e ba f8 5d a1 3d 6a d4 cb 3c
       -0.036282226 -0.0006640574 0.07879251 0.02488156
000080 20 06 3e bd 75 bc c0 bd af f5 81 3d a9 7a 8d bd
       -0.04639256 -0.09410945 0.063456886 -0.06908161
000090 72 6c 40 bc 22 fa 9e bd 93 29 9f bd 1e e1 60 3d
       -0.011744605 -0.07762553 -0.077716015 0.05490219
0000a0 f9 f1 87 3d c7 34 be bd 8a c9 04 3d 2b 78 93 3b
       0.066379495 -0.0928741 0.032418765 0.004500409
0000b0 70 40 29 bd ba 5d eb 3c 85 5f 6c bd c8 ee 08 3d
       -0.041321218 0.028731216 -0.057708282 0.033430845
0000c0 1d cd e7 3c 4a 55 8d bd 6f f0 dc bc fc 2f 17 bc
       0.028296048 -0.06901033 -0.026970116 -0.009227749
0000d0 53 81 e4 bb b9 de 80 bd 8a f3 c0 3c 6f 40 ef 3c
       -0.0069734245 -0.06292481 0.023553628 0.029205529
0000e0 eb 91 cd bd 72 df e8 bc 43 f1 a5 bd 95 ff 9d bd
       -0.10037597 -0.02842686 -0.08102658 -0.07714764
0000f0 66 65 bc 3d 9d 72 89 3c 11 61 8e 3d 86 ac d1 3c
       0.09199028 0.016778285 0.06952108 0.02559496
000100 ce e5 8c 3d 21 33 f4 3d b1 23 d6 3d 32 35 ca bc
       0.06879769 0.119238146 0.10456026 -0.024683569
000110 33 7e a3 bd df 68 e0 3d 13 d6 52 3d 0e 76 f1 3d
       -0.07983055 0.109575026 0.05147369 0.11790095
000120 64 9a 01 3e dc a9 20 3d e3 14 51 bc 1f d2 27 bc
       0.12656552 0.03922449 -0.012761327 -0.010242968
000130 90 63 ae bd 52 da 37 3e 82 65 78 bd fe 7f ab 3d
       -0.08515084 0.17954376 -0.06064368 0.08374022
000140 e7 5b cf bc 1d a9 c1 bd 73 b8 be bd 55 c5 13 3d
       -0.025312377 -0.09456084 -0.09312525 0.036076862
000150 e3 8a ca bc d9 fb 99 3d a2 f4 6c bd b9 59 24 bc
       -0.02472443 0.07518739 -0.057850488 -0.010031157
000160 88 c8 35 3d f7 9f e5 3d db 6c 95 bd 0c 8b a2 bd
       0.044380695 0.112121515 -0.07296153 -0.07936677
000170 ff 3e 82 bd 45 fb e2 3c 40 8a b6 3d 2e ae a3 3c
       -0.06359672 0.027707705 0.08913088 0.019980516
000180 9e 61 bd 3c 41 59 5e 3d 0b bb b3 bd 99 0b 89 3d
       0.023117837 0.054284338 -0.0877591 0.06691665
000190 16 5b 0d 3e 95 b4 14 be 7c fd 62 ba 81 00 25 3d
       0.13804278 -0.14522012 -0.0008658988 0.040283684
0001a0 e7 a0 87 bd 10 26 d4 bd ae 8a e0 3d 7d 56 d1 3d
       -0.066224866 -0.10358822 0.10963951 0.102215745
0001b0 63 64 b7 bd f7 c2 ac 3d ee 5e 63 bd 02 ae 80 bd
       -0.08954694 0.08435624 -0.055510454 -0.06283189
0001c0 4d 78 f5 bd fe 27 d1 bd 00 85 a2 3c 38 26 a1 bc
       -0.11985836 -0.10212706 0.01983881 -0.019671544
0001d0 c7 27 ab bd 5d 8d 59 3d aa 8c 52 3d 21 b0 69 bd
       -0.08357196 0.05311333 0.05140368 -0.057052735
0001e0 8a 95 9f 3d 6c e3 be 3d 26 2e d3 bc e4 61 c4 3d
       0.07792194 0.09320721 -0.025778841 0.09588984
0001f0 3f 20 8f ba 69 d1 06 3d 83 1e d1 bc f3 7b 7a 3c
       -0.0010919644 0.032914553 -0.025527244 0.015288341
000200 05 cc b3 3d 5d db a1 bc 0b 1a 27 bd 83 2b 1e 3e
       0.08779148 -0.01975792 -0.04079632 0.15446286
000210 f9 a8 ad 3d 02 98 82 bd b5 21 c7 3d f9 cf 9c bd
       0.084794946 -0.063766494 0.09723226 -0.07656855
000220 1d ca 34 3d 16 0d d6 bb 2a fd 75 bc f5 65 c5 bd
       0.044138063 -0.0065323217 -0.015013972 -0.096385874
000230 1f cc 7f bc e9 11 c7 bd c7 f9 e2 3c 72 be ca 3d
       -0.015612631 -0.09720213 0.027706994 0.09899606
000240 4f bb c6 3d ac 24 bd bd 11 fa 2d 3c 2d cd 5e bd
       0.09703695 -0.0923551 0.0106187025 -0.05439489
000250 57 49 e0 3d ec 8a c8 3d 52 d1 16 3c 6b 6e 52 3d
       0.109514885 0.09792122 0.009205179 0.051374834
000260 15 ad ed bc 18 0f 0d 3d e2 4a ac bd 9a 0e cb ba
       -0.029013196 0.034438223 -0.0841272 -0.0015492023
000270 7f 23 cc bd 3e b6 93 3d e0 ed 1e bd a1 42 6c 3c
       -0.09967708 0.07212494 -0.038801074 0.014420182
000280 3e 75 d5 3d a6 56 90 3c 47 c6 a4 bd 92 66 a8 bd
       0.10422753 0.017619442 -0.08045631 -0.08222689
000290 e2 46 21 3d 22 13 dc bd 1d 83 63 3d ec cc 7c bd
       0.03937424 -0.10745837 0.05554496 -0.061718866
0002a0 a7 53 85 bd 1d a4 a2 3d 22 02 de 3c b5 b5 f8 3d
       -0.06510096 0.079414584 0.027100626 0.12144033
0002b0 f9 41 0e 3d 2e b8 18 3d 12 fa c2 3d 8a f4 d8 3d
       0.034730885 0.037285022 0.095203534 0.10593517
0002c0 89 51 e4 bd 5a cc 0e be b9 9e d0 3b 2d b2 c2 3d
       -0.11148364 -0.13945141 0.0063665775 0.095066406
0002d0 72 cd 79 3d cd 84 a2 bd 41 ac 9b bd c9 59 b0 3d
       0.060986944 -0.07935486 -0.07601214 0.08610875
0002e0 f5 3b f8 3d b8 28 47 3d f3 96 03 be 49 44 b6 bd
       0.12120811 0.048622817 -0.12850551 -0.08899743
0002f0 44 c6 29 3d 8a 2d 34 3d 4e ed 05 3e fb e4 60 3d
       0.041448846 0.043988742 0.13078806 0.054905873
000300 10 1e 50 bd d0 19 30 bc 32 f3 ee 3d d8 32 a4 ba
       -0.05080992 -0.010748342 0.116674796 -0.001252736
000310 c9 98 b3 bd ee 20 6f 3d b8 f4 b6 bd 1e 9c 50 3d
       -0.08769376 0.058381014 -0.08933395 0.050930135
000320 f7 bd 01 bd ff 68 35 bd 80 14 38 3d 59 3a 79 bd
       -0.031675305 -0.044289585 0.044941425 -0.06084666
000330 24 91 2b bc 3d ed c5 bd 77 70 b9 3c 80 c1 18 bd
       -0.010471616 -0.0966439 0.022636635 -0.03729391
000340 74 63 25 3d 20 18 bd 3d 5b 83 a1 bd b5 2b fa 3d
       0.04037805 0.09233117 -0.07886382 0.12215368
000350 d5 d2 67 3d 9a 7a fd 3d f9 a1 3b 3c 61 f1 a3 bd
       0.05659755 0.123769 0.0114521915 -0.08005024
000360 f5 62 c8 bd f2 81 c7 3d d4 e2 14 bd 24 d9 a4 bd
       -0.097844996 0.09741582 -0.036349133 -0.08049229
000370 47 fe 1f bd cf 4b 01 be e7 1f 20 bc 6e 3a c8 3a
       -0.039060857 -0.12626575 -0.009773231 0.0015276202
000380 77 af e5 3c 4b 72 2a bc 1b bf 81 bd 9d 5b 97 3d
       0.02803777 -0.010403226 -0.063352786 0.07390521
000390 35 02 44 bd c2 5d ea bd a0 9d ca 3d a4 88 df bd
       -0.047853667 -0.11443664 0.09893346 -0.10914734
0003a0 4b 98 aa bd dd 01 07 be ab 40 96 3d 79 8f 08 3d
       -0.08329829 -0.13184305 0.07336553 0.03333995
0003b0 b2 6f c1 3d 1d af 84 3d 57 d0 87 bd e4 87 cf 3c
       0.09445132 0.06478713 -0.066315345 0.025333352
0003c0 fb 8a 62 3c 60 60 99 3d bc 96 1d bd ef 04 0a 3e
       0.013827081 0.07489085 -0.03847383 0.13478445
0003d0 59 d3 06 bd de b2 9c bd 76 5d 9c bc ea c5 47 3d
       -0.0329164 -0.07651304 -0.019087534 0.04877273
0003e0 bd 2a 44 3c 2c 83 a2 3d 72 9c 18 3d 97 28 0a 3e
       0.01197308 0.07935175 0.037258573 0.13492046
0003f0 51 d9 43 3d 5e af d5 bd 60 e8 33 bc ca 4e 2d bd
       0.04781467 -0.10433839 -0.0109806955 -0.042311467
