checkpoints/models/single_stock_daily/81to9/000001/model45.pth (torch, 292914 bytes, 16 tensors)

encoder.conv1.weight f4 [18, 6, 3]
00000000: 7f9e 11be 8cf4 cbbd f4cf eabd 5c33 b6bc
00000010: 078c 243e bf40 603d 1fc2 67be 1d56 5b3e
00000020: 1e6c 543e ccdf 763d e99c de3d 60de cb3d
00000030: 163c 363e 2508 70be b963 0bbe ff20 6ebd
00000040: 8538 98bd 0cf1 31be 7bce 64be 5323 39be
00000050: a78e 14bd 4cb5 4d3e 59be 263e bdb6 a53d
00000060: 769d 0fbe 9c71 a2bd 5e8f 533d f043 5cbe
00000070: 5a96 aa3a ff66 8f3d d039 5c3e abec 50bd
00000080: 584f 813e c9fa a33b d226 30be cf91 613e
00000090: 93b1 5a3e 0d03 39be 3d3a 05be 7881 d73d
000000a0: fc5e 2cbe 5f99 143e 7996 06be bd90 f3bd
000000b0: f919 d2bd 4bfb 563e 513f eebd 2800 95bd
000000c0: c71a 053e 3a8d 48be 38e8 d6bc 42ab 41be
000000d0: a80b 7dbe 8552 bfbd 057c d73c 9159 413e
000000e0: 42e8 6abe 21d1 98bd 7b4c 343d 0419 b83d
000000f0: 9ed9 fb3d 70e4 65be b638 4bbd 03e9 2f3d
00000100: 2172 5dbe f8be fc3d 904a 71be 3ba3 f63d
00000110: e61e a73d 9ade 7fbd 909a 813d 6ee4 413e
00000120: 9a62 313e 3a7a 0d3e a32f 0abe 0c95 8f3d
00000130: 7520 413e 3839 823d c0ed 283e 14fd f7bd
00000140: 732b 573e 1ebc 9fba 0d46 44be c3a9 d7bc
00000150: 4d50 5a3e 6c07 83bd 9f2c ebbb 2202 e5bd
00000160: 0158 08be 81f8 633d f7a5 113e 8be4 c43c
00000170: 3872 6bbc f239 af3b a5eb 40be aba9 fdbd
00000180: f28b 4e3a 4350 51be 2d04 fe3d c5ff d53c
00000190: 3259 3abc a108 35bc fba7 413e 9d02 4e3e
000001a0: e706 f43d 52f6 e53d d7e5 fbbd 0a2d b53d
000001b0: d917 25be 208f c53d d571 2bbe ab9b f3b9
000001c0: d765 3b3e 1742 313e 3828 5e3e 03cf df3d
000001d0: 160b 033e 3667 8d3d dcdc 463e 4a68 1b3e
000001e0: 4280 963d de26 7dbd 69e5 b2bd 6b12 99bd
000001f0: 9fe2 e23d 79ca ebbd 3a2e 853d 4016 553e
00000200: 1fe1 493e 27e3 32be 3aff 713d ed1e 103e
00000210: aa07 61be 05fe 063e 903e 34be 1be2 32be
00000220: c2a2 eabd 0bdb e3bd 45bf ccbd eb5e 603d
00000230: 9290 8f3d 628c eb3d 69f7 353e b5ac 18be
00000240: a0ce 60be f7ab 3ebe 7633 01be 3c58 d8bd
00000250: 2a15 c13d ef5c 3abe 81fc 35be e923 cc3d
00000260: 9530 39be d12a 2b3d 48a1 4bbe 529f 8a3d
00000270: a5a8 153e 0f99 5dbe d2e1 6f3d bb9b aabd
00000280: c415 323e 881f 6c3e 9f3f 54be acdd a63d
00000290: f808 1d3e bf54 593e d9aa 343e 00c4 043d
000002a0: 2a60 4f3c 4da9 3d3d 30b9 2dbe d03b 45bd
000002b0: 552c ccbb 76ad 2fbe 0da6 35bc 1fba 06bd
000002c0: 70be d5bd 7e35 8abd a8e6 64be c9ea 6f3e
000002d0: c822 e63d 62ae 2c3e 8c61 4ebe e6c2 72be
000002e0: d70e 3c3e 2671 24bd c59e 293d faaa 173e
000002f0: 571a d33c 1bf9 d7bb 453a 253e 9e64 483e
00000300: 6463 89bd 675e 3abe dbf2 fcbd 2f4c 553e
00000310: 9039 983d 5c23 873e 5a27 8dbd cf61 5bbe
00000320: c46f b03d ad49 c3bd d3c9 18be ff71 173e
00000330: e1b0 483c 4e61 47bd 4e46 613e 608d 513e
00000340: 0a7e 59be 8032 63be 9ff6 ecbd a075 4ebe
00000350: 8955 03be 5308 413e a320 11be 3cf1 683e
00000360: 93c7 843d 60e0 143b a19b f93c 63e4 2f3d
00000370: 48de a03d f4ef 3fbe 8e19 87bb deea 313e
00000380: 67fa 813e 095d 76bc e903 21be 0048 f83d
00000390: 9fbc 60be 4f9b 613e 29fc 203e 3ec1 bf3d
000003a0: 25a5 d43c 3ee1 2b3e f349 babd 50c5 43be
000003b0: 436e 01be 91cb 333e f6b1 eebd e677 45be
000003c0: cce6 583d 654e 13be e06d b1bc b715 18be
000003d0: 7187 543d f8c2 3fbd 82c9 023d 56c1 e23d
000003e0: 465f 24be 06f8 94bd 7dce 16be 070a 513e
000003f0: 5100 97bd c648 c33d b5f5 603d da7f 70be
-0.14220618 -0.09958753 -0.11465445 -0.022241287 0.16069041 0.054749247 -0.22632645 0.21419568
0.20744368 0.060272023 0.10869772 0.09954524 0.17796358 -0.23440607 -0.1361226 -0.058136936
-0.07432655 -0.17377108 -0.22344391 -0.18079881 -0.036268856 0.2008869 0.1628355 0.08091495
-0.1402491 -0.079318255 0.051650397 -0.21510291 0.0013014779 0.07002067 0.21506429 -0.051006954
0.25255847 0.005004261 -0.17202309 0.22028278 0.21356802 -0.1806757 -0.13010497 0.10522741
-0.16833109 0.14511631 -0.13143338 -0.11892841 -0.1025886 0.20994298 -0.116331704 -0.072754204
0.12998496 -0.19585124 -0.026233777 -0.18912986 -0.24711478 -0.09341911 0.026304254 0.18881823
-0.22940162 -0.07461763 0.04401825 0.08989146 0.122973666 -0.22450423 -0.04961463 0.042946827
-0.21625568 0.12341112 -0.235636 0.120428525 0.0816019 -0.06246815 0.063283086 0.18934795
0.1732277 0.13816157 -0.13494734 0.0701085 0.18860038 0.0635857 0.16496944 -0.12108818
0.21012668 -0.0012186801 -0.19167347 -0.026326066 0.21319695 -0.063979 -0.00717695 -0.111820474
-0.13314821 0.055656914 0.14223467 0.024034759 -0.014370494 0.005347484 -0.18839891 -0.12385877
0.000787913 -0.20440774 0.1240314 0.026122937 -0.011373805 -0.011049421 0.18911736 0.20118184
0.11915379 0.112286225 -0.12299698 0.08846481 -0.16122378 0.096464396 -0.16742642 -0.00046464553
0.18300568 0.17310368 0.2169503 0.10928156 0.12797198 0.069044515 0.19420189 0.15176502
0.07348682 -0.061804645 -0.08735163 -0.07474216 0.11078381 -0.11513228 0.06502958 0.20809269
0.19714783 -0.17469464 0.059081294 0.14074297 -0.2197558 0.13182838 -0.1760199 -0.17469065
-0.11456825 -0.111257635 -0.09997419 0.05477802 0.070099965 0.11501385 0.1777016 -0.14909633
-0.21953821 -0.18620287 -0.12617287 -0.10563704 0.09427865 -0.18199514 -0.17772104 0.09967787
-0.18084939 0.04178888 -0.19885743 0.06768669 0.14615114 -0.21640418 0.05856497 -0.083304845
0.17391115 0.23058903 -0.20727395 0.08147749 0.15335453 0.21223734 0.17643298 0.032413483
0.012657205 0.046304036 -0.16965175 -0.048152745 -0.0062308707 -0.17156014 -0.011086953 -0.032892343
-0.10436714 -0.06748484 -0.22353613 0.23429407 0.11237103 0.16863397 -0.20154399 -0.2370716
0.18365036 -0.04014697 0.04141118 0.14811316 0.025769396 -0.006590975 0.1613551 0.19569632
-0.067084104 -0.18200074 -0.123510085 0.20829843 0.07432854 0.26394165 -0.06892271 -0.2142403
0.086150676 -0.09535537 -0.1492074 0.1478958 0.0122492025 -0.04867678 0.21999475 0.20464087
-0.21239486 -0.22187233 -0.11570477 -0.20162058 -0.12825598 0.18850832 -0.14172606 0.22748274
0.06483378 0.0022716746 0.030469717 0.042942416 0.07854897 -0.18743879 -0.0041229194 0.17374751
0.25386354 -0.01503683 -0.15724148 0.12123108 -0.21946953 0.22031902 0.15721191 0.0936303
0.025957653 0.16785142 -0.09096136 -0.19118237 -0.12639718 0.17558123 -0.11655037 -0.19284019
0.05295448 -0.14385374 -0.021658838 -0.14852034 0.05188698 -0.046816796 0.031930454 0.11072032
-0.16051969 -0.07273869 -0.14727207 0.20413981 -0.07373107 0.09535365 0.054921824 -0.23486272

encoder.conv1.bias f4 [18]
00000000: 3f40 3f3e c747 543d c23d 23be aecb 273e
00000010: 9d43 3fbd 0b23 5c3c 985a 8c3c 93d5 8fbc
00000020: 90d7 713e e8e5 c83d dedd 293d 237e 8bbd
00000030: f9d2 253d e20b 2abe c1f9 5bbd f9b2 d23d
00000040: 2391 70be c194 7fbb
0.18676852 0.051826265 -0.15941527 0.16386291 -0.04669534 0.013436089 0.017133042 -0.017557895
0.23617387 0.09809476 0.041471355 -0.06811168 0.040484402 -0.16606095 -0.05370498 0.102880426
-0.23492865 -0.0038998576

encoder.conv2.weight f4 [54, 18, 3]
00000000: 20bd 5abd 543e 853d 1d02 b8bd 46cc 8e3b
00000010: 2675 72bd 317e c13d 6160 b6bc 5ed2 cebd
00000020: e095 2bbd 6775 c93d 36a6 603d 335e 0a3d
00000030: 4c27 ac3d 41fe 4b3d 0a9f 84bc 921c 91bd
00000040: 5851 06be eafc 883d 6d4f ca3d 0495 77bd
00000050: 72ad 91bd 0b39 123d 94f7 143b 9a59 f13d
00000060: 6f51 25ba 7816 003a 13dd fabd a17a 323d
00000070: 3b28 023c 128f 173d 2b33 b03d 775c 703d
00000080: 0e13 49ba 8398 2cbc d574 8bbd 7293 fe3d
00000090: 8361 e73d 38eb 6bbb 079b 073e d524 f23d
000000a0: 45db 9e3d c1be 8c3d a0ce 5d3d bf45 b9bc
000000b0: 8dcf 5c3c 6c98 e73d d2d5 a4bc 39de 343d
000000c0: ef54 3dbd 8a3a 9a3c b39f 953d 4cb0 ac3d
000000d0: c8ab 893d ccde 813d 092f 3fbd 1de0 de3d
000000e0: 90e3 ba3d 6223 d53d a2e3 c2bd e601 3dbd
000000f0: fcbb eabd 7e43 c03c 2b71 da3d e6f9 bfbd
00000100: e9ee 523d def2 a03b 87a2 12be 3999 f5bb
00000110: a8dd 6bbc 1bed 9ebd 99a2 a5bd 1218 ab3d
00000120: 7c5c ebbc 79b3 62bd 6c38 36bd d1de 7cbc
00000130: 99f4 17bd fb39 adbd 3d16 bc3d b6ae fd3c
00000140: 56c0 e5bd 29f4 1dbd acd3 1bbd 7424 7cbd
00000150: 9ba0 003d 1238 f53d d3ed c7bd 1069 363b
00000160: 7816 0c3e 2c48 93bd 5c5a ffbd 2982 c33c
00000170: e43d 0cbb e912 c43b 3ab0 b73d 0048 edbd
00000180: 3b21 adbd a9ce ce3d d4b4 c0bd 56ee 34bc
00000190: df4d 643d ebf9 9dbd 1c7d c7bd 001c c4bd
000001a0: 5c65 d5bd 568e eebd cbf7 02bd 08ce 06be
000001b0: 1d69 a0bd dbb9 6f3c 46d4 043e 8d85 0b3e
000001c0: bdfb d73d d2f8 ec3b 290c b03d facf 28bd
000001d0: a452 aebd 357d 8a3d 6e69 523d 8638 373d
000001e0: 8fb0 873d ccdd f9bc cd69 cd3d 6b9a 973d
000001f0: cab6 72bd dae6 c83d 880e 583d 2522 183c
00000200: 894e 673b ac80 ee3d 49a3 3b3b 8daa 3d3d
00000210: 971c bf3d c061 1bba 782a f53d d3e1 a2bd
00000220: 7200 5bbc f13f 5b3c f408 5e3b 4357 cebd
00000230: 021b 013e 6d1e a0bd f555 c13d 4dd4 66bd
00000240: 5cdb 5e3d 3af9 98bd c70b 7abd 2474 0d3d
00000250: d770 bd3d 8b0f 2bbc 6b5e 553d a1ee 9cbd
00000260: 5942 313d 8657 88bc b803 02bd 1f90 863d
00000270: 287a 47bd 1490 aabd d444 1cbd 605e 903d
00000280: ce34 083e 4a20 023e efe7 ee3d f10f 77bd
00000290: 0009 0d3e 17ad c03d cc7c 8f3c 4532 99bd
000002a0: 8cc2 8abd 7a5b d33c b832 c3bb d381 33bd
000002b0: 0adb fbbd b09c cd3d 31a5 803d 9fe1 db3c
000002c0: 9597 993c 218f b33d 0c8e acbd b19d 1ebc
000002d0: 3566 113e 833f 6d3c 8bce c9bd 799e cdbd
000002e0: 990f 8a3d 8a4a 533d 3c6c 563d 5b00 b7bd
000002f0: 22cb acbd 558d 19be 6ef0 c83c 64e0 b8bc
00000300: bf3b fd3d 93e3 69bd 417d cabd 567e 3c3d
00000310: e22f 99bd 4395 c9bc 216d 1f3e 1701 c43d
00000320: fba4 0cbe 1b69 32bb 4060 a5ba b4bf 083e
00000330: 4c3d f5bd 510d 943d d4e0 0cbe 344d 11be
00000340: 0ebf 7dbd 04f7 08be bbbc 7ebc 8bf9 013e
00000350: 997f 01bd 2374 dcbd 8805 42bb d32a d0bd
00000360: ce1a b03d e523 523c 9889 f23d 53c3 213c
00000370: b56d 333d ce00 2b3d 2583 f93d dcc8 a8bd
00000380: 4d94 aebd 5284 dd3d 2c24 843d e36d 0a3e
00000390: 2a81 ec3c 3c29 5c3d ed4e ba3d 9329 b13d
000003a0: 45c0 a33d a93b cebd 9663 003d 3058 ddbd
000003b0: 1b23 413c f4ce bd3d 7d86 f0bc f5c9 053e
000003c0: 03ea 093e 9054 623d cc8d c2bd f031 e13c
000003d0: 3f24 dd3d c7f5 d63c 10be f83d 82ee ec3b
000003e0: 8873 79bd 7399 b13d f399 543d aaea 9b3d
000003f0: 3ce5 b6bd 433a debd 8355 bc3d 1cb8 433d
-0.05340302 0.06506029 -0.08984778 0.0043578474 -0.059193753 0.09447897 -0.022262754 -0.10098718
-0.04189098 0.09836846 0.05484601 0.03378124 0.08405933 0.049803022 -0.016189117 -0.070855275
-0.13116968 0.066888645 0.098784305 -0.060444847 -0.0711316 0.03569893 0.0022730576 0.11784668
-0.0006306385 0.00048861606 -0.12249198 0.04357398 0.007944162 0.037001677 0.086035095 0.05868193
-0.0007670381 -0.0105344085 -0.06809393 0.12430467 0.11297896 -0.0035998356 0.13242732 0.118234314
0.07756666 0.06872321 0.05415213 -0.022616265 0.013477218 0.11308369 -0.020121489 0.04415724
-0.046223577 0.018826742 0.07305851 0.084320635 0.06722218 0.06341323 -0.046675716 0.1088259
0.09125435 0.10407139 -0.09516074 -0.04614439 -0.114616364 0.023469683 0.10666116 -0.09373836
0.051497374 0.0049117645 -0.14319812 -0.007495072 -0.014396109 -0.07760068 -0.08087654 0.083542004
-0.028730623 -0.05534694 -0.0444874 -0.015433983 -0.0370985 -0.084583245 0.09183929 0.030967098
-0.11218326 -0.038562927 -0.038043663 -0.061558202 0.031403165 0.11973585 -0.09762158 0.0027833618
0.13680446 -0.071915 -0.124684066 0.023865776 -0.0021399194 0.0059836996 0.089691594 -0.115859985
-0.08453604 0.10098011 -0.0940949 -0.011043152 0.055738326 -0.07713684 -0.097406596 -0.09575653
-0.104197234 -0.11648242 -0.031974595 -0.13164532 -0.07832549 0.014631714 0.12971601 0.13625164
0.10546062 0.00723181 0.08596069 -0.041213967 -0.08511856 0.067621626 0.051370077 0.04473164
0.06625473 -0.030501269 0.100299455 0.074025 -0.059256352 0.098096564 0.052748233 0.009285484
0.0035294613 0.11645636 0.002863126 0.046305228 0.09331625 -0.00059273466 0.11970991 -0.07953229
-0.013366805 0.013381944 0.0033879848 -0.100752376 0.12607959 -0.07818303 0.09440223 -0.05635481
0.054408416 -0.07469411 -0.061046388 0.03453459 0.09250038 -0.010440717 0.052091997 -0.07662702
0.043276165 -0.016643297 -0.031741828 0.06570458 -0.04870048 -0.08328262 -0.038151577 0.070492506
0.13301393 0.1270763 0.116653316 -0.060317937 0.13772964 0.09408014 0.017515562 -0.07480291
-0.06775388 0.025800455 -0.005956974 -0.043824982 -0.12297638 0.100396514 0.06281508 0.026840983
0.018749038 0.08767534 -0.08425531 -0.009681151 0.14199145 0.014480474 -0.09853848 -0.10039992
0.06741256 0.051584758 0.052349314 -0.08935615 -0.08437182 -0.1499532 0.024528708 -0.022567935
0.12364911 -0.057101797 -0.098871715 0.04601892 -0.07479836 -0.024607306 0.15568973 0.0957052
-0.1373481 -0.0027223292 -0.0012617186 0.13354379 -0.11974582 0.072291024 -0.1375764 -0.14189607
-0.061949782 -0.13375479 -0.015547927 0.1269285 -0.031615827 -0.10764339 -0.0029605348 -0.10164418
0.085988626 0.012825941 0.1184265 0.009873229 0.043805797 0.041748814 0.12183217 -0.08241436
-0.0852438 0.10816254 0.06452212 0.13518481 0.028870184 0.05375026 0.09097085 0.08650508
0.07995657 -0.10069973 0.031344973 -0.10807836 0.011788155 0.09267989 -0.029361004 0.13065322
0.13468175 0.055256426 -0.09499702 0.027489632 0.10797929 0.026240243 0.121456265 0.007230581
-0.060901195 0.08671846 0.05190463 0.07613118 -0.08930442 -0.10850956 0.091959976 0.047783002

encoder.conv2.bias f4 [54]
00000000: 1367 f33d 78cc 94bc cf4e 05be cb9c 78bd
00000010: 5ad8 8ebd 3d8d ca3d 9a4f bebd b2da e63d
00000020: 5638 613d 36a4 65bc 0e9b f4bc 0be4 9f3d
00000030: 9ed1 a1bd cc71 4abd 46e4 023e 1fe6 04bd
00000040: e1c5 303c f4f0 e13d 4703 f7bd aa38 8c3c
00000050: d611 b539 6f3b afbd b323 db3d 6cce d13d
00000060: 8617 4dbc fd74 60bc c162 c63d b00f 22bd
00000070: 9008 8f3d 0e42 bfbd e0ca edbd faa0 c13d
00000080: 59b3 b93d 53fe eabd 6551 24bd bfa6 7d3d
00000090: d477 933d 32ac bc3d b05a d13d 1249 6fbd
000000a0: 207c 9e3c 8bb7 fb3d 9d80 debd 22f1 b53d
000000b0: feae 1f3d 0c70 973a 7660 043e e8ba 61bd
000000c0: 6805 1ebd b1ce c3bd 3015 ef3d 0816 c8bd
000000d0: 556d 033e bd70 c7bd
0.11884894 -0.018163905 -0.13018344 -0.060696404 -0.069748595 0.0989022 -0.092925265 0.112721816
0.054985367 -0.014016202 -0.029859092 0.078071676 -0.079013094 -0.04942493 0.12782392 -0.032446023
0.0107893655 0.11032286 -0.12061172 0.017116863 0.000345363 -0.08556258 0.107001685 0.1024445
-0.012517815 -0.013699767 0.096868046 -0.039565742 0.06984055 -0.09338771 -0.11610961 0.09454532
0.09067411 -0.1147429 -0.040116686 0.0619266 0.0720059 0.09212531 0.102223754 -0.058419295
0.019346297 0.122908674 -0.10864375 0.08883883 0.038985245 0.0011553778 0.12927422 -0.05510989
-0.038579375 -0.09560908 0.11673963 -0.09769827 0.12834676 -0.097383

encoder.rnn.weight_ih_l0 f4 [192, 54]
00000000: f685 9c3d eae2 84bd 46ec d83d bbb9 aebd
00000010: c254 a3bd 339b e8bc ea22 c6bd 9a3a f83d
00000020: d0b3 283d 0a4b a2bd f3a1 c6bd 819a febc
00000030: 33be 003c d00b b6bd 92c9 bf3d caa9 85bd
00000040: f975 af3c 3f8a c43d 6501 c8bd a952 d3bd
00000050: 094f f4bd 2211 8b3c 2a7c dc3d 07dc 97bd
00000060: ee57 8cbc e580 963d a72c eb3d 8fc6 943d
00000070: bc20 4d3d 11e3 a83c 0720 2bbc 1cd0 df3d
00000080: adce d0b8 4f6d 3f3d 41b0 10bc f39b 0f3e
00000090: 0409 04be 3b0e 1ebd 686d e5bd a4c5 e33c
000000a0: d114 e6bc 83b7 a9bd 5e17 cbbd 409c 1c3d
000000b0: 9123 cb3d ef82 e33d df3d b93d b614 d2bd
000000c0: 6065 d53d 1a4d f33d ad60 253c 82c2 fabd
000000d0: 8368 ccbd 7709 d0bd ea5b bfbb e4a5 ce3d
000000e0: fe64 c43d b42d 23bd 2112 8ebd 8d7a b23c
000000f0: 0c84 09bd 289d cabc 214c 163d fc8d d1bc
00000100: 6254 803d 527d 95bc 0aa1 003e 09b9 e2bd
00000110: 4208 963d 380f a43d f55e a4bd b402 c73b
00000120: caa5 21bc ee9c 9b3d d710 143e cb98 5fbd
00000130: 3c22 cbbd 6dbd c3bd 4719 bd3d d65b a7bd
00000140: da5a 82bd 2576 9d3d f107 593d 1c4f b83d
00000150: 7813 f83d 5d57 efbd 5bc7 2ebd ff6d 7d3c
00000160: 0ed1 953d 0796 2fbd 5097 013d 74d0 9f3d
00000170: aaa1 ec3c 98de 99bd 1c8e e1bd 03e1 8bbd
00000180: efa6 543d 0f05 db3d 2205 313d e4da 853d
00000190: b83b c23c 5702 c7bc 4813 53bc c5bc e33d
000001a0: 3f33 113c 93c2 133d 34d0 9c3d 147a 893d
000001b0: 711f cd3c 18bc 9fbc 45a9 41bd 000a 7ebd
000001c0: 2075 95bd 0c2d c03d 48df ae3d f2c9 9dbd
000001d0: 28a8 dd3d b1c2 48bc 7235 a9bc 51b4 d83c
000001e0: 8187 aebd 6cad 5cbd c023 60bd ba92 27bd
000001f0: b9e3 b13d f452 2fbd bc3c acbd 9204 bcbd
00000200: 7632 003e 52aa a13d 20c3 0ebe 3263 f6bd
00000210: 7726 a4bd 4365 ff3d fe6a 163d dad9 173d
00000220: 81b7 633d 0aae c13c cf3d ee3d eb5d debd
00000230: 4903 033e f9f8 913d b7af 1a3d c7ae 1c3d
00000240: 5bcd b0bc 7ad2 78bd 09a3 7bbd 211c babd
00000250: 6415 f639 a5e4 1b3d 3f66 e73c 9058 60bc
00000260: cfcf ec3c 5b07 f4bd fc5c b8bd 50f7 f4bd
00000270: 0b9d 033e e7f9 e0bd 9649 533d ff5f c33d
00000280: 473a 03bd 9691 17bd 1b7a e03d 298e c9bd
00000290: 3aa1 02be 53cd f1bc 1da4 08bc 9f40 4bbd
000002a0: 40ef 303c 8ea1 963d be3a 8c3d b01f d93c
000002b0: e53d a23d 7eaa 4fbd f405 92b8 2d9d 803d
000002c0: ece4 6c3d 5fc0 2cbd 3d00 bb3d 4a38 b8bd
000002d0: 7613 8fbd 53df 08be 1c44 063c 48dc dabd
000002e0: bda9 be3d 6596 93bd 32c8 063d 013d d03d
000002f0: d149 073e b8a5 533d a975 513d 21f4 9e3c
00000300: 179b 643d b617 6abb 05f0 c2bd caaf c63d
00000310: 7d20 bfbd 9d50 053e 0b1d d639 0492 6a3d
00000320: 4bc7 d03c eb79 593d b919 ac3d 3758 ccbd
00000330: 526d 8e3d 75d9 17bd 59a1 cebd 20f9 c6bd
00000340: 1561 523c 39d6 c43d 0e77 fabd 4890 0b3d
00000350: 0584 613d 5ab3 f2bd 1883 073d 00a2 4fbd
00000360: 2b2f 983c 4550 31bd 7d59 d53d 2e45 f4bd
00000370: 4071 843d 521b 4ebd fbd5 393d 0d69 e03b
00000380: 604e fabd 8dbb 8ebd 2a9f caba 42c7 683c
00000390: 311c 93bd 3d72 bd3d 0496 45bd ae44 7bbd
000003a0: ece3 293d 689f 32bc 4e18 043d adf8 8b3d
000003b0: 84e1 51bd 1480 f73c 7ae4 d83d 1354 f13c
000003c0: 42f5 d03d dd8d 513d 4fbf df3d fd9f f53d
000003d0: 8015 993d 7a44 213d e196 393d cf83 933d
000003e0: b1f1 aeba c576 9c3c b51e 53bd cd6f 2139
000003f0: 1071 853d 1103 42bb 8235 b1bc c9de 143d
0.076427385 -0.06488593 0.105919406 -0.08531519 -0.07975151 -0.028394317 -0.09674628 0.12120552
0.041187108 -0.07924469 -0.09698858 -0.031079533 0.007857847 -0.08888972 0.09364618 -0.06526525
0.021418558 0.09596681 -0.09765891 -0.103185005 -0.11929137 0.016975943 0.1076587 -0.07415014
-0.017131772 0.073488034 0.11483126 0.072644345 0.050080046 0.020616086 -0.010444648 0.109283656
-9.956709e-05 0.046735104 -0.008831085 0.14024334 -0.12894064 -0.03858779 -0.11202508 0.027804203
-0.028086098 -0.08286955 -0.09916566 0.03823495 0.09918893 0.11108958 0.09045004 -0.102578565
0.10419726 0.1187994 0.01009385 -0.12244131 -0.099808715 -0.10158055 -0.0058398144 0.10090235
0.09589575 -0.039838508 -0.069370516 0.021786952 -0.033573195 -0.024733141 0.036693696 -0.025580399
0.06266095 -0.018248234 0.12561432 -0.11070449 0.07325794 0.08010715 -0.08025924 0.0060733203
-0.009866187 0.07598291 0.14459549 -0.054589074 -0.09918639 -0.095576145 0.09233337 -0.08171813
-0.06364985 0.0768855 0.05298609 0.08999464 0.12113088 -0.11686585 -0.04267059 0.01546812
0.07315265 -0.042867687 0.031638443 0.07803431 0.028885681 -0.075131595 -0.11013433 -0.06830027
0.051917013 0.10694324 0.043217786 0.06535891 0.023710117 -0.024293108 -0.012883015 0.11119989
0.008862316 0.036074232 0.07656899 0.06712738 0.025039406 -0.01949887 -0.04728057 -0.062021255
-0.072977304 0.09383592 0.08538681 -0.07704534 0.10823089 -0.012253449 -0.020655368 0.026453169
-0.08521939 -0.053876325 -0.054721594 -0.040911414 0.08686013 -0.04280372 -0.08410022 -0.09180559
0.1251925 0.07893814 -0.13941622 -0.12030639 -0.08015149 0.12470486 0.03672313 0.037072994
0.055594925 0.023642559 0.11632883 -0.10857757 0.12794222 0.07127566 0.03776523 0.03825262
-0.021582296 -0.0607476 -0.06143478 -0.090873964 0.00046936714 0.03805985 0.028246997 -0.01369299
0.028907685 -0.119154654 -0.0900211 -0.119612336 0.12852876 -0.10985165 0.05158385 0.09539794
-0.032038 -0.037004076 0.1096079 -0.09841568 -0.12756816 -0.029516852 -0.008339909 -0.049622174
0.010799229 0.07355033 0.06847142 0.026504368 0.07921962 -0.050699703 -6.9629314e-05 0.06279979
0.057835504 -0.042175647 0.09130905 -0.08995111 -0.06986134 -0.13366441 0.0081949495 -0.106865466
0.09309719 -0.0720642 0.032905765 0.101678856 0.13211752 0.051671714 0.0511376 0.01940352
0.055811968 -0.00357197 -0.09518436 0.09701498 -0.093323685 0.13019033 0.000408389 0.057268158
0.025485655 0.053094786 0.08403344 -0.09977763 0.06954445 -0.037072618 -0.100893684 -0.097154856
0.012840529 0.09611172 -0.12229739 0.034073144 0.055057544 -0.11850615 0.033084005 -0.050691605
0.018577179 -0.04328944 0.10417459 -0.119272575 0.06466913 -0.050319023 0.045370083 0.0068484605
-0.1222198 -0.06969366 -0.0015458812 0.014207663 -0.071831115 0.09250305 -0.04823877 -0.061344795
0.04147713 -0.010902263 0.03224974 0.068345405 -0.05124046 0.03021244 0.105904534 0.029459035
0.10203029 0.051160682 0.10925161 0.11993406 0.07474804 0.039371945 0.045309905 0.07202875
-0.0013347176 0.019099602 -0.051542956 0.00015395806 0.065157056 -0.0029603879 -0.02163196 0.036345277

encoder.rnn.weight_hh_l0 f4 [192, 64]
00000000: 6491 48bc 1f76 803d 386f 6ebd cf3a 363b
00000010: 55fa 2fbd b2b2 9ebd 9e2c 8b3d fd43 d23d
00000020: 64fd 503d fa8c 023e dd32 193d ef89 d83d
00000030: baf4 79bc 82b1 ab3d a64a e13c f44f 3abb
00000040: 081f ea3d 50e1 c3bd b02e abba 9e85 58bd
00000050: d6aa d23d 9318 123c 3b33 333d 0434 b43d
00000060: 5692 6d3d 389e 58bd a818 b5b7 9993 b03d
00000070: 84d0 67bd f48b 693c b3f0 b4bd 5976 2d3d
00000080: ce2a bb3d dbea a73c 58b8 8f3c 1107 c93d
00000090: be05 0b3c 80d0 64bd 2d8e b93d 62b6 cebd
000000a0: 7019 7e3d b51d b13d 90f8 9cbb fc68 fbbd
000000b0: f247 773d f740 ac3d f8f1 b93b 6c73 a73d
000000c0: 5bb8 5f3d 9ca8 e63c d3e6 e13d cdc5 68bd
000000d0: 59da e03c 3db3 cabd 16aa e73d 0d54 393d
000000e0: 0b0e fa3d 90fb d9bd cb60 f03d d15a d13d
000000f0: 5368 d73d c83f 44bd 25ca b7bd c014 9bbc
00000100: f522 f43d 5dfd 0f3e e971 7dbc 3bc4 c338
00000110: f217 c0bc 2c51 dbbc dc95 d43c 62c6 683d
00000120: 5f6e a0bc 5304 d9bd b4da 4dbb 5ff0 803d
00000130: 4dba 7bbd b573 dd3d 4a56 603d 02aa 753d
00000140: 2773 0d3d 212f bb3d a008 c13d 0065 7abd
00000150: 98b2 b63c 37f5 b73d 531e 08be bbbe 9a3d
00000160: bbb6 01be 2824 8bbd 2a10 89bd 0d39 d6bd
00000170: d870 83bd 6efe 8c3d 0218 10be a313 91bd
00000180: 1936 09be fe31 b4bd 7f3f cc3c 0f1d 7d3d
00000190: b731 bcbd ba19 4e3d 8343 903d 3f55 d23d
000001a0: 4283 51bd 4498 d0bd 84f7 b03d 378b 19bd
000001b0: 2c45 f5bd e050 31bd 0353 56bd 6f05 cbbb
000001c0: c5f6 aa3d e3a3 8a3d f5a4 2bbd 2895 a83d
000001d0: b261 f03c 5360 4c3d c512 e0bd efa4 09bc
000001e0: 0e7e 6d3c 3d71 2bbd 08fd b23d 8f18 2c3d
000001f0: 6619 8abd bf15 0d3e 184f 0abc 936c c0bc
00000200: 8556 7f3b 0eab 8db9 719f 4cbc e039 41bd
00000210: 52a9 413c 80d1 3dbd 2453 e13d 9b0a 46bd
00000220: 92ae d9bd 63ec e53d 2b75 b83d 359b bcbd
00000230: 9bfd ec3d 47fa a9bd 4db3 64bd 7566 7dbd
00000240: f34b 32bc c9d7 103d 4061 70bd 0d0b 43bd
00000250: 5af5 6dbd 927e bc3d c343 803d c7ea 593c
00000260: f800 823b 31ec 863c a7ea bdbc bb0d 91bd
00000270: 67cb 063e 003e 65bd 5422 bebd 5d8f 03bd
00000280: be71 df3c e260 16be 7784 363d 393d f53b
00000290: f475 83bd ac12 1a3d b732 983c bfc0 f6bd
000002a0: 6a71 333d ca39 173d b5a4 89bd 2250 eb3c
000002b0: 1048 8fbd d4a4 b33d ebf8 a5bd b56f dd3c
000002c0: ae79 083d bc42 57bc 87bb 6ebd 81cd 4f3d
000002d0: 5df3 a43c b0f4 44bd 4309 ddbc 5856 593d
000002e0: 4793 01be 8c26 933c dde6 f23c 37be 12be
000002f0: 40a5 b93c a7a1 a8bd 5679 08be b6c8 d73d
00000300: 3bd6 653d 5fb9 a23d 3ae7 ec3d dba0 88bd
00000310: 6875 51bd a565 ab3b 8324 4b3d d134 463b
00000320: c989 75bc 5010 083e 6432 89bd 297d 723d
00000330: 00a0 433b bae5 8abd e377 943d 029f b43d
00000340: 1bb8 60b9 25ea b4bd ede4 a43d 98fc be3d
00000350: ae6e 7f3d 5760 adbb 3441 903d 549a 1b3d
00000360: edd5 f4bc 83f0 c7bd 7ff2 5fbd d4dd 563d
00000370: 74b4 95bd df17 4d3d 36f9 48bd 1258 b7bd
00000380: 13a7 c23d 7453 68bc b353 dd3c 1e33 c83d
00000390: b99e 323c 5f2e 923d 6956 05bd ecb3 c4bd
000003a0: 8538 46bd ecb0 09bd 08a1 8fbd 3564 91bd
000003b0: 817c 5c3d 9f99 e73d 17d2 bc3d d8a0 9f3d
000003c0: 88d3 c9bd 2933 8fbc 07fa 2d3d 6ff8 ed3d
000003d0: 1db3 5fbd 02cb 8d3d cf12 9f3d 2401 2fbd
000003e0: 98b7 d5bd 5910 743d c884 253d fb24 c1bd
000003f0: 7cd3 b13d 8189 26bd 6593 adbd 44d3 5f3c
-0.012241695 0.0627253 -0.058211535 0.0027806049 -0.042963345 -0.07748927 0.067956194 0.10266874
0.051022902 0.12749091 0.037402023 0.10573184 -0.015256101 0.08383466 0.027501415 -0.0028429003
0.114317 -0.09564459 -0.0013060179 -0.052861802 0.102864906 0.008916992 0.04375003 0.08798984
0.058000885 -0.052885264 -2.1588363e-05 0.08621902 -0.05659534 0.014254559 -0.08834972 0.042349193
0.09139024 0.02049773 0.017543957 0.09815801 0.008485256 -0.055862904 0.09060321 -0.100933805
0.062035978 0.08648244 -0.004790373 -0.122758836 0.060371347 0.084108286 0.005674597 0.08176312
0.054619174 0.028156571 0.11030354 -0.056829263 0.027447866 -0.09897468 0.11311738 0.045246173
0.1220971 -0.10643685 0.11737212 0.102224 0.10517945 -0.04791239 -0.08974103 -0.018930793
0.1192073 0.14061494 -0.015469053 9.334875e-05 -0.023448918 -0.026772104 0.025950365 0.056829818
-0.019583879 -0.10596528 -0.0031410875 0.06295847 -0.061456967 0.10813085 0.05476979 0.059976585
0.034533646 0.091398485 0.09425473 -0.061131477 0.022301957 0.08982318 -0.13292818 0.0755591
-0.12667362 -0.06794006 -0.06692536 -0.104601 -0.064180076 0.06884466 -0.14071658 -0.070838235
-0.13399543 -0.08798598 0.024932621 0.06179529 -0.0918917 0.050317504 0.07044127 0.10270166
-0.051150568 -0.10185292 0.0864096 -0.03748628 -0.11976084 -0.04329002 -0.05232526 -0.006195716
0.08347849 0.0676954 -0.041905362 0.08231574 0.02934346 0.04989655 -0.1094108 -0.00840114
0.014495386 -0.04185604 0.08739668 0.04201561 -0.067431256 0.13777827 -0.008441709 -0.023489272
0.0038961482 -0.0002702106 -0.012489186 -0.047174335 0.011820154 -0.046342373 0.11002186 -0.048349958
-0.10629 0.11226728 0.09006723 -0.09209291 0.11571809 -0.0829969 -0.055835057 -0.06186529
-0.0108823655 0.03536204 -0.058686495 -0.04761796 -0.058095314 0.09203829 0.062629245 0.013300604
0.0039674006 0.016470047 -0.02318318 -0.07082697 0.1316353 -0.05596733 -0.09283891 -0.032119144
0.027275916 -0.14685395 0.044559922 0.007484105 -0.06418982 0.037615463 0.01857887 -0.12048482
0.043809332 0.036920346 -0.067208685 0.028724734 -0.06996167 0.08771673 -0.08104118 0.027030805
0.033319168 -0.013138469 -0.05828431 0.050733093 0.020135576 -0.048084915 -0.026981955 0.05306086
-0.12653838 0.017962717 0.0296511 -0.14330374 0.022661805 -0.08233958 -0.13327536 0.105363294
0.05611251 0.07945513 0.115675405 -0.06671306 -0.051137358 0.005230623 0.049595367 0.0030243883
-0.014986464 0.13287473 -0.066990644 0.059201393 0.0029850006 -0.06782098 0.07249429 0.08819391
-0.0002143089 -0.08833722 0.08051477 0.09325522 0.06236141 -0.0052910256 0.070436865 0.037988976
-0.029887164 -0.09762671 -0.05467462 0.052457646 -0.07309809 0.050071593 -0.04906579 -0.08952345
0.09504523 -0.014180053 0.02701745 0.09775375 0.0109021 0.07137751 -0.03255311 -0.0960463
-0.048393745 -0.03361599 -0.07013136 -0.07099191 0.053829674 0.11308598 0.09219759 0.077943504
-0.098547995 -0.01748045 0.042474773 0.116196506 -0.054614175 0.06923486 0.07767259 -0.042725697
-0.10435408 0.059585903 0.040409833 -0.094308816 0.086829156 -0.040658478 -0.08475379 0.0136612095

encoder.rnn.bias_ih_l0 f4 [192]
00000000: 969e 4ebc 1a42 84bd e505 0a3b ac66 ffbb
00000010: 74e0 34bd 61cf 8b3d 777b 72bd b4b4 04be
00000020: 4b0d dbbd 636e 3a3d 0a54 bcbd c6e8 e5bd
00000030: d7a5 7abd c878 af3d 123d 943d 09b8 d73d
00000040: a526 9fbd 4d40 c1bd 611a 5b3d 14b1 b43d
00000050: 9620 a4bb c420 f4bd 3211 f83d 9a55 b63d
00000060: af61 bf3d 745d 3a3d 25b7 453d 5006 9bbb
00000070: acb5 8f3d 2d0f 903c 7161 cfbd cfeb 39bd
00000080: 44bd debc 13ca 30bc cd13 a13d 90fc b63d
00000090: e139 e1bc 6069 78bd eec8 5fbc 2c2a fb3d
000000a0: 8a01 fc3d 2991 133c 4ddc f3bb a0d1 983d
000000b0: 4499 c9bd d80c 5abd 3cd2 e53d 9051 cd3d
000000c0: ef98 fb3b 5f30 d1bd 7272 c53d 5b2d 273d
000000d0: 5175 a0bb 7ef6 f33d 94ed c5bd 6c6c e5bb
000000e0: aa1a 903d 2ae0 3ebd 6182 9abd a4dc e3ba
000000f0: f8c0 b53d 357e f1ba 93d3 d13c 281f 99bd
00000100: 7b5b a1bd 7266 ebbb effa 933d 02df c03c
00000110: e6c1 853d eef3 3abc cece c33d 9b9b bfbc
00000120: df25 e03d 7cc3 80bd ef20 90bc 65fb 2dbd
00000130: a277 23be 1ed3 83bd 5799 ca3c 82f4 b9ba
00000140: aa58 9ebd e52f 0e3e f33f e43d 81be cbbd
00000150: d320 8fbd 9186 4bbd aa76 0bbd 06ec 18be
00000160: 8023 423d 2dd2 973d 219f d9bd 6db8 fcbd
00000170: 3743 80bd 09a1 64be 50ff bf3d 4c68 b53d
00000180: a534 bc3d 009d 2fbe 0370 0abe 2eda 973c
00000190: 5e7d b9bd c328 2dbe 9664 d6bd 2f31 0fbe
000001a0: 5db9 c73b 0ce9 f73d 65fd 52bb 75dd 70be
000001b0: 97a3 8a3d 5d66 b83d 59c1 c53d a85a 313d
000001c0: ad2a 53bc 6abb 32be e14d 253c c36d 653d
000001d0: dbae b83c 9e93 4f3d ab5b fc3c e257 0bbe
000001e0: 6014 1a3d 40fe ffbc f411 8abe 5809 e93d
000001f0: d761 cbbd ee9e 5fbe 8fb0 093c b16a dbbc
00000200: 0268 ebbd 4372 9dbd ba2f 35bc dc03 86bd
00000210: 2045 b53d 7556 61bc d1cc f4bc 5f19 983d
00000220: 6220 e8bd ec3d 283d b6bb 9cbc 7d88 e93d
00000230: ab09 323c 990c 5cbd eed5 adbd ca33 9ebd
00000240: d5f1 4cbd ee74 e13d e381 b93d d7fd ef3d
00000250: a7de 46bd 08ab 313d da68 a6bd 68db 03bd
00000260: b9fe d63d b84b b1bd 411d f6bd a32e ea3b
00000270: fa50 cc3c c13c ca3d f6f4 533d 40cf 0b3d
00000280: d261 003e ff74 eb3d e5e4 95bd a129 f4bd
00000290: 611a e7bd 436c e23c d6b6 123d 689d 04bd
000002a0: 08a9 bc3d 178a e33c 3523 7b3c b1ef a6bc
000002b0: 8fda 8e3d 177d 143d 732a a4bd e143 e3bc
000002c0: 5bee 723d 443d 553d 43e4 febc 1d94 fc3d
000002d0: 0335 d63d 1e9e 73bd f4d3 c53d 1298 9d3d
000002e0: b798 ba3d 28d2 2cbd eba8 2b3d 8b7b 8dbd
000002f0: eb89 8a3d 6997 26bb 24cc 943d ccfd b03d
-0.012611052 -0.0645792 0.0021060642 -0.007794222 -0.044159368 0.06826664 -0.059199777 -0.12959558
-0.10695895 0.04551543 -0.09195717 -0.11226039 -0.061193313 0.08567959 0.07238211 0.10533149
-0.07771043 -0.094360925 0.053491954 0.088228375 -0.0050087674 -0.11920312 0.12112655 0.08903046
0.093448035 0.04549928 0.048270363 -0.004730977 0.07017073 0.017585361 -0.10126007 -0.0453909
-0.027189858 -0.010790366 0.07865105 0.08934891 -0.02749342 -0.06064737 -0.013658745 0.12263903
0.12304981 0.009006777 -0.0074420334 0.07461858 -0.09843686 -0.053234905 0.1122174 0.100253224
0.007678143 -0.10214304 0.09640969 0.04081474 -0.0048967977 0.11912249 -0.09664455 -0.0070014503
0.07036336 -0.0466005 -0.07544399 -0.0017384482 0.088746965 -0.0018424453 0.025613582 -0.07476646
-0.07878777 -0.0071838433 0.07225596 0.023543838 0.06531124 -0.011410696 0.09560929 -0.023389628
0.10944723 -0.06287286 -0.017593829 -0.042476077 -0.15963605 -0.06436752 0.024731321 -0.0014187249
-0.07731755 0.13885458 0.1114501 -0.09948445 -0.069886826 -0.04968888 -0.034048714 -0.14933786
0.047397137 0.07413135 -0.106260546 -0.12339864 -0.0626282 -0.22327055 0.09374869 0.08857784
0.09189729 -0.17149734 -0.13519292 0.018536653 -0.09057115 -0.1691008 -0.10468404 -0.13983606
0.006095095 0.12104997 -0.0032194492 -0.23521979 0.067694835 0.09003899 0.09656019 0.043299347
-0.012888593 -0.17454305 0.010089369 0.05601288 0.022544315 0.050677888 0.03080543 -0.13607743
0.037617087 -0.031249166 -0.26966822 0.11378735 -0.09930771 -0.2183797 0.008403911 -0.026784273
-0.11494447 -0.07687809 -0.011058742 -0.06543705 0.08851075 -0.013753523 -0.02988282 0.07426714
-0.113343015 0.04107468 -0.019132476 0.11402986 0.010866563 -0.05372295 -0.084880695 -0.07724722
-0.050035316 0.11008631 0.09057977 0.11718338 -0.04855218 0.043376 -0.081254676 -0.032191664
0.10497803 -0.0865702 -0.120172985 0.007146673 0.024940956 0.09874869 0.051747285 0.034133196
0.12537315 0.114969246 -0.07319049 -0.119220026 -0.11284328 0.027639514 0.035818897 -0.032376677
0.09211928 0.027775807 0.015328218 -0.020377966 0.069752805 0.036252107 -0.08015909 -0.027742328
0.059309345 0.05206038 -0.031114703 0.12332938 0.1045933 -0.059476964 0.096595675 0.07695021
0.09111159 -0.042192608 0.04190914 -0.069083296 0.06764587 -0.0025419837 0.07265499 0.08642158

encoder.rnn.bias_hh_l0 f4 [192]
00000000: 70c8 3b3d a926 d83c 9b2b 90bd 9690 bdbd
00000010: b44a c9bd 6d62 62bc c2cf cdbd d6b6 3bbd
00000020: 511c e1bb ad76 efbd b5b7 ed3d 02b9 a3bb
00000030: 4523 693d fa89 dcbd 0f52 8d3d 6afc 8dbd
00000040: 2bb7 1d3d 5f06 b03d 5471 be3d 76e3 11be
00000050: 606c 4abd 6214 62bd 0351 3a3d 4422 91bd
00000060: 6ec3 b13d ffe2 bdbd ae6d a0ba 0544 803c
00000070: a570 abbd 0299 0cbd faa2 03be 45bc 89bd
00000080: f7ef 00be 2aa2 073d 0ba5 5cbd 93d2 8ebc
00000090: e360 463d 4e23 523d 6455 6c3d efde d03c
000000a0: 6f70 f63d 7e55 d8bc 2cab d73d 778e 8abd
000000b0: a0bf 01be af95 9c3b 4558 35bd 496b d2bd
000000c0: 7f61 8cbd 77e9 83bc d678 a83c ea1d b4bc
000000d0: b031 3cbd 2ebf cf3d f573 8d3d a63e 83bd
000000e0: 1500 bebd d43b 163c 3b0c a23d 6237 cd3d
000000f0: 8a87 9f3d 675d 893d 4c2b 103b 76bb b9bd
00000100: 5a18 563d c9f6 353c 75ef 293d d121 cfbd
00000110: 4e79 e4bd f966 143d 26a0 07bd f845 3cbe
00000120: a55e f03d a989 e7bc 5190 c93d 67df 0a3e
00000130: c58a 16be 60a8 b03d 0b10 cf3d c93f cfbd
00000140: 6499 c3bb ce2c 113e af51 263d 0a38 91bd
00000150: 7861 0cbe c258 55be 419a 333d c00c 16be
00000160: d8d3 ad3c f6d8 72bd b7c2 b7bd 7a13 be3d
00000170: 6559 6ebe c771 c9bd cbd9 0a3e 58e6 c3bd
00000180: 1fc3 13bd 419b 50be 9413 c73c 7136 ac3c
00000190: 2aef b83c 9b6b 22be 7008 2ebe c7ba 51bc
000001a0: 27e9 133d 43cc d93d 9a17 0f3d 4f37 cebd
000001b0: 860c 9f3d ca92 6fbd 98b8 cfbb 2c54 463e
000001c0: 5311 ca3b 454b 85bd 09ef c1bd 3198 de3d
000001d0: 2fb5 91bc dd5e f13c d449 0bbb 0656 32bd
000001e0: 825b 483e 2b20 153e 8ff5 a5be ffae 433c
000001f0: e24b 98bd ea45 32bd 689f ab3d 6731 bfbd
00000200: c912 ddbd b6a7 f2bc cd09 08bb 8dcb b23d
00000210: a65e 133d a11b bf3d 11ad c7bd 5fde d13d
00000220: 0671 dc3d 3a44 933d 013c 2b3c 75ff fb3d
00000230: 6b4d 13bc e817 a7bc 62f3 56bc 4e6e 303d
00000240: 0744 543d a32e d03d 0749 a33d e971 673d
00000250: 2af7 ee3c 5c72 113d d8ec c13d 0d82 23bd
00000260: 8069 9f3d 7509 7dbd b79a 4abd 5b78 5a3d
00000270: 16bd 9fbd 9548 50bd 0759 193d 1eec e83b
00000280: bdf4 9d3d 4f04 83bd 842f e8bd a966 c43b
00000290: 8d64 623d bbf5 173c d874 adbd af2b a3bd
000002a0: 9cf2 423d 40d7 b73c 90a7 8e3d 21f3 89bd
000002b0: eac0 b33d d0ec 22bc 8fa0 273d 1ec7 93bd
000002c0: d76f 3fbc 9858 c2bc 7fce d2bd 7e10 a63d
000002d0: 89c8 333d 917e a6bd 54f7 043d 78dd 46bd
000002e0: dd1c f1bd b465 c23c 54c7 26bd 6b75 9e3d
000002f0: 2d29 f8bb 5d85 96bd e46d 18bd c470 4b3d
0.04584545 0.026385622 -0.07039567 -0.09256093 -0.098287016 -0.013817412 -0.10049392 -0.045828663
-0.0068698307 -0.116925575 0.11607305 -0.00499642 0.0569184 -0.107685044 0.06900417 -0.0693291
0.03850476 0.08594965 0.092989594 -0.14246926 -0.04941976 -0.05519522 0.045487415 -0.07086614
0.086798534 -0.09271812 -0.0012239718 0.015657434 -0.083710946 -0.034325607 -0.1285514 -0.06725363
-0.1259154 0.033113636 -0.053868335 -0.017434394 0.048432242 0.0513032 0.057698622 0.025496928
0.12033164 -0.026407953 0.10530695 -0.06765454 -0.12670755 0.004778586 -0.044273634 -0.10274369
-0.068545334 -0.016102536 0.020565432 -0.02198692 -0.045945823 0.101438865 0.06906883 -0.064084336
-0.092773594 0.009169538 0.07912489 0.10020329 0.07789524 0.06707268 0.0021998463 -0.090689585
0.052269317 0.011106201 0.04148813 -0.10113872 -0.111559495 0.036231015 -0.033111714 -0.18386066
0.11736802 -0.028263884 0.09841979 0.13561784 -0.14701374 0.08625865 0.10110482 -0.10119588
-0.0059692133 0.14177248 0.040605243 -0.07090767 -0.13709056 -0.2083464 0.04384828 -0.14653301
0.021219179 -0.05928894 -0.08972686 0.092810586 -0.23276289 -0.098361544 0.13559644 -0.09565419
-0.036074754 -0.20371725 0.024301328 0.021022053 0.02257498 -0.1586136 -0.16995406 -0.012800879
0.036111023 0.10634663 0.034934618 -0.10069143 0.077660605 -0.0584896 -0.006339144 0.19368047
0.006166616 -0.06508497 -0.094694205 0.10868872 -0.01778659 0.02946418 -0.0021253722 -0.04353907
0.19566157 0.14563052 -0.3241391 0.011943578 -0.074363485 -0.043523706 0.08380014 -0.093355946
-0.107945986 -0.029620986 -0.0020757795 0.087302305 0.035978936 0.09331442 -0.09749807 0.10247492
0.10763745 0.071907476 0.010451318 0.12304584 -0.008990626 -0.020397142 -0.01311955 0.043073945
0.05182269 0.10165145 0.07972913 0.056505118 0.029170591 0.035509452 0.094690025 -0.039918948
0.077837944 -0.061776597 -0.049463954 0.053337436 -0.07799737 -0.05085047 0.03743842 0.0071082255
0.07712696 -0.06397306 -0.11337188 0.0059936834 0.055271674 0.009274895 -0.08469552 -0.07967316
0.04759465 0.022441506 0.06965554 -0.06735826 0.0877703 -0.009944156 0.040924605 -0.07215713
-0.01168438 -0.023723885 -0.10293292 0.081086144 0.043892417 -0.081296094 0.032462433 -0.048551053
-0.11773083 0.023730136 -0.040717438 0.077372395 -0.007573268 -0.07349656 -0.037214175 0.04966809

decoder.attn.v f4 [64]
00000000: 48bc e9bc fcec 07bd 0abd babd fe24 ee3d
00000010: 4449 41bd 38ea 823d d422 523d d4be 1e3d
00000020: 2466 77bd 0854 d8bc 606a 273d e88b 9dbc
00000030: c261 90bd ce42 cfbd 648c af3d 566e 91bd
00000040: 7253 dd3d 78e4 03bd 9c1c b83d 523e febd
00000050: 2c65 37bd 5896 aebc 6801 ae3c 189f acbd
00000060: 00bb 363d c496 043d 10d6 0f3d 0091 01ba
00000070: 4cfd d33d 20ac aabd feac 853d 5c2d 673d
00000080: b08b 5a3d 301e 47bd b6ed db3d 2436 9fbd
00000090: a0f6 f83d f89f b1bc 3a75 edbd e891 e0bc
000000a0: 5879 edbd c49a ee3d c81f bdbc 6468 6dbd
000000b0: d834 cd3d 287c 78bd 80e6 803c c4d7 a23d
000000c0: 1ca4 8d3d 0823 053d 5018 243d 2a1f 843d
000000d0: 6cff 76bd 7034 023c cefe a7bd 8065 f8bd
000000e0: 7cac 97bd 9acc fdbd b08e 69bd 5068 d9bd
000000f0: 4c1a e03d 000b 54bc 5c49 f3bd 32da 983d
-0.028532162 -0.03318499 -0.091180876 0.116281494 -0.047189012 0.0639233 0.051302746 0.038756207
-0.060400143 -0.026407257 0.04087293 -0.019231752 -0.07049896 -0.10120164 0.08571699 -0.07101123
0.108069316 -0.032200307 0.08989832 -0.124142304 -0.04477422 -0.021311924 0.021240905 -0.08428782
0.04461193 0.032370344 0.035116255 -0.0004942566 0.10351047 -0.083336115 0.06527136 0.056439742
0.053355873 -0.048612773 0.10738699 -0.077739984 0.12156415 -0.021682724 -0.11594625 -0.027413324
-0.1159541 0.11650613 -0.023086444 -0.057960883 0.10019845 -0.06066528 0.015734911 0.0795131
0.06916067 0.03250411 0.04006225 0.064512566 -0.060302183 0.007947072 -0.08202897 -0.121287346
-0.07405946 -0.1239254 -0.057020843 -0.10615599 0.10942516 -0.012942076 -0.118792266 0.074634925

decoder.attn.attn.weight f4 [64, 128]
00000000: 94c6 82bd 60f2 fb3b 2324 87bd 765b 8abd
00000010: b8db 81bc e5fd 8e3d befa 25bd 1080 4abd
00000020: fe1a 13bd 4252 78bd c0e2 25bc 16a3 9bbd
00000030: e8ea 113d be93 acbd affb aabd fab7 a7bd
00000040: 0a77 58bd c4b2 a93c 4bdc 863d cc51 47bd
00000050: 867a 5a3d eeac 96bd 48ab 86bd 5811 fa3c
00000060: 6051 49bc 5cdd 2cbd 20de 083c 0067 ae3a
00000070: 85bd 8b3d debe 013d f0e7 97bb 9620 95bd
00000080: ec5f f0bc 8f37 8ebd f8ea 8abc 107c acbc
00000090: dcee 99bc 8283 89bd d2d3 0e3d 2e45 0c3d
000000a0: b82d 27bc 33b8 09bd f4a5 b03c b658 583d
000000b0: 62b3 053d 88b4 2b3c 9038 323c 045b 803c
000000c0: 589b 0e3c 341a bebc 0804 7dbd e24b 673d
000000d0: 6ed7 4e3d 8eff aabd 207a 383c d0b3 75bd
000000e0: 5337 a53d 60a0 acbb 25ee 41bd 9717 4abd
000000f0: a215 443d ac04 bbbc 803f 22bc 3fa9 a33d
00000100: ae5d eabc c0fa 5abd e469 ac3c c481 8a3c
00000110: 5e67 75bd 5832 e23c 0f98 6abd fa7a 62bd
00000120: 266f 88bd 30eb d1bc 80e7 773a 19e7 16bd
00000130: 3edb 5abd 87eb 10bd f07c a83c 70af d83b
00000140: faa9 b1bd 5864 96bd 13d1 843d 20a1 203c
00000150: 9253 463d a01e 15bb 071f afbd 4921 abbd
00000160: 4ee2 5c3d 0016 a1bc a87b 13bd 2751 b3bd
00000170: feab 473d 389d 3c3c 8549 81bd c8c4 633c
00000180: e269 6bbd 288f bfbc 421e 4bbd 1cc1 f4bc
00000190: 4417 9bbc 4472 8ebd b091 76bd 88cf a8bd
000001a0: 4eb9 623d 8339 56bd 9106 853d b236 6e3d
000001b0: 8e93 4ebd b242 6b3d 80de 903b b8fc 02bc
000001c0: 3acb 493d 0e19 753d 107b c2bb d32e ae3d
000001d0: f8f7 5cbd 821b 743d 02e2 433d 9d6d 993d
000001e0: 10a4 cabb cfe0 a83d 0f81 923d ec1e 72bd
000001f0: 0351 ad3d a0f1 8ebd 6718 b33d 2419 81bd
00000200: e815 283c c86a 94bd 6e3e 173d 51ea 46bd
00000210: 6ced 1ebd f5f5 10bd 1442 96bd 8c6f 97bc
00000220: 2a93 e3bc 4cfb 8bbd 2232 38bd 1008 01bd
00000230: ebc8 b13d 5678 103d c09f b3bb a0a8 ec3b
00000240: 0019 d03c 809a 5d3b cbf2 3fbd e6fb 92bd
00000250: 9eef 77bd 58bc a53c 5062 dfbb e1d6 60bd
00000260: 7a13 523d 927c 6b3d a823 983c 838f 903d
00000270: 884e 5fbd 65c5 41bd 6e42 0c3d 01d4 a93d
00000280: 1866 4b3c bc02 87bd 2008 2bbc 0490 c0bc
00000290: 41ea 50bd 44b4 f5bc 180b c6bc a02a 583c
000002a0: f874 4ebc 7137 a93d 75e9 4abd b8f4 553c
000002b0: 7778 8e3d 60c7 1bbb 9c26 a1bd e044 53bb
000002c0: 28f2 043d 4cac 79bd a213 483d 40a2 80ba
000002d0: 63c8 61bd 6832 333c b889 2fbd 638e b43d
000002e0: 6c3a 9cbd d91c 72bd e09b 173b 189e 3e3c
000002f0: 9097 75bc 0c26 e0bc 8dff 51bd fd11 8a3d
00000300: 8124 ad3d fbe4 1cbd c067 c73a dc75 a4bd
00000310: a97c 9d3d b613 4abd 01b0 35bd 4dac 39bd
00000320: b0db b93c 1c5a fa3c 6d49 98bd a0d7 b6bc
00000330: 9281 403d 189d 533c 05e5 a0bd 7a95 443d
00000340: 57e4 943d e0df b0bb e19c b13d d643 7a3d
00000350: 86a1 91bd 2e0e 19bd 3d40 a43d 924a dcbc
00000360: db2c 9d3d eabe 83bd 33f6 993d 7074 c73c
00000370: 57bd 96bd 9da1 a8bd dbf5 87bd 9b9d a23d
00000380: b0a4 c73c 507d e33c 0245 dbbc 37be abbd
00000390: 9f1a 933d 4003 39bd 5860 47bc 40ed f1bb
000003a0: 9f4d 983d b841 0d3d e0da d1bb 1175 9a3d
000003b0: 33ea 973d b828 07bc 93de 963d b4e1 30bd
000003c0: 1a85 9fbd d984 9b3d 002a 95bb 604d 20bc
000003d0: 7826 6cbd 8ad2 1abd 8726 3bbd 002a 953a
000003e0: 58dc 98bd 0a1e 313d e8b9 9c3c 9088 25bc
000003f0: 2618 71bd e025 a3bd bf5e 25bd f670 553d
-0.06385532 0.0076888055 -0.065986894 -0.06755726 -0.01585184 0.0698202 -0.04052233 -0.049438536
-0.035914414 -0.060625322 -0.010124862 -0.075994655 0.035624415 -0.08426617 -0.08348786 -0.081893876
-0.0528479 0.020715125 0.06584986 -0.048661992 0.053339504 -0.073572025 -0.06575638 0.030525848
-0.012287468 -0.042203292 0.00835374 0.0013305843 0.06823257 0.031676166 -0.0046358034 -0.07281606
-0.029342614 -0.06944191 -0.016957745 -0.021055251 -0.018790655 -0.06714536 0.034869976 0.034245662
-0.010203771 -0.03362293 0.021563508 0.052818976 0.032641776 0.010480054 0.010877743 0.0156684
0.008704029 -0.023205854 -0.061771423 0.056468852 0.05049842 -0.083495244 0.011259586 -0.059985936
0.08067193 -0.0052681416 -0.047346253 -0.049338903 0.047872193 -0.022829376 -0.009902835 0.079912655
-0.028609123 -0.05346179 0.021046586 0.01690758 -0.05991303 0.027611896 -0.05727392 -0.05529306
-0.06661825 -0.025624841 0.00094567984 -0.036841486 -0.053431742 -0.035380866 0.020567387 0.0066127107
-0.086749986 -0.07343358 0.0648519 0.00980404 0.048419543 -0.002275385 -0.0855084 -0.08355958
0.05392676 -0.01966381 -0.0360066 -0.08755713 0.04874801 0.011512093 -0.06312851 0.013901897
-0.057474025 -0.023383692 -0.049589403 -0.029877238 -0.018931992 -0.06955388 -0.060197532 -0.082427084
0.0553525 -0.05230094 0.06495393 0.05815763 -0.050433688 0.057436652 0.0044210553 -0.007994823
0.049266078 0.059838347 -0.0059350803 0.08505025 -0.05394742 0.059596546 0.04782296 0.0749161
-0.0061841086 0.08246004 0.07153522 -0.05911152 0.084627174 -0.0697968 0.08744889 -0.06303623
0.010259129 -0.072469294 0.036924772 -0.048563305 -0.038800642 -0.035390813 -0.07336822 -0.018485807
-0.027780134 -0.068350405 -0.044969685 -0.03150183 0.086809 0.03527101 -0.00548169 0.00722225
0.025402546 0.0033814013 -0.046862405 -0.07176952 -0.06053125 0.02023141 -0.0068171397 -0.054892424
0.051288106 0.057491846 0.01857169 0.07058623 -0.054518253 -0.04730739 0.03424304 0.0829239
0.012414478 -0.065923184 -0.010438949 -0.023506172 -0.051004652 -0.029993184 -0.024175212 0.013193756
-0.01260113 0.08262528 -0.04953905 0.013058834 0.069565706 -0.002376996 -0.07868692 -0.0032237098
0.0324575 -0.06095533 0.04884685 -0.0009813979 -0.055122744 0.010937311 -0.04285595 0.088162206
-0.076283306 -0.059109543 0.002313368 0.011634372 -0.014989749 -0.027361892 -0.051269103 0.06741712
0.08454228 -0.03830431 0.0015213415 -0.080302924 0.07689793 -0.049335204 -0.044357304 -0.045330334
0.022687763 0.030560546 -0.0743588 -0.022319615 0.046998568 0.012915872 -0.07856182 0.047994114
0.07270115 -0.0053977817 0.086725004 0.06109985 -0.07110886 -0.03736704 0.08020065 -0.026891027
0.07674571 -0.06432898 0.07517662 0.024347514 -0.073603325 -0.0823395 -0.0663869 0.07940217
0.024370521 0.027769715 -0.026766304 -0.0838589 0.07182812 -0.045169115 -0.012168966 -0.0073830187
0.0743668 0.034486502 -0.0064042658 0.0754186 0.07417717 -0.008249454 0.073666714 -0.043183997
-0.07789059 0.07593698 -0.004552126 -0.009784073 -0.057653874 -0.037798442 -0.04569104 0.0011380315
-0.07463902 0.043241538 0.019131616 -0.01010336 -0.05886092 -0.079662085 -0.04037356 0.05210968

decoder.attn.attn.bias f4 [64]
00000000: eab1 aebd 504e 353c 1678 94bd 1945 a9bd
00000010: dab7 393d 96f5 543d 8cdc 983c 6ddf a33d
00000020: 48d6 9bbc af9c ae3d 567d 2b3d 4be3 913d
00000030: 1c12 c7bc 3426 833c 560a 38bd 8ed7 e8bc
00000040: 60da 83bc 2d67 afbd 90a2 adbb 3ab4 703d
00000050: 4651 713d abbf 81bd 565c 81bd 62c9 6b3d
00000060: 72fd 6e3d 0143 953d 2311 72bd 4b1f adbd
00000070: 58b3 6bbd d012 b33c d448 55bd 45de 2bbd
00000080: 2832 b1bc f07c 0bbd ac3d bdbc e01b 9fbd
00000090: fafc e6bc b81b 153d 4a5c 7b3d 8456 8bbc
000000a0: 1e32 643d 9089 5f3c a052 f03b fbb5 07bd
000000b0: 28da 1b3c a884 393c e013 0dbb c025 bc3c
000000c0: 3a55 743d 90ca f3bb 00c2 b639 00ba d8ba
000000d0: 0be2 67bd a04a 48bb f670 163d a4ca 9f3c
000000e0: 2654 1dbd 82d1 86bd a86c 1a3c c281 683d
000000f0: 90a2 583c 006d 75bd 3d62 a53d 83a2 4cbd
-0.08530028 0.011066034 -0.07249467 -0.082651325 0.04534135 0.05199202 0.018659852 0.080015995
-0.019023076 0.08525979 0.041867577 0.07123431 -0.024300627 0.016009428 -0.044931732 -0.028423097
-0.01609534 -0.08564601 -0.00529892 0.058765627 0.0589154 -0.06335386 -0.0631644 0.0575651
0.058347173 0.072881706 -0.059098374 -0.08453234 -0.057544082 0.021859556 -0.052071407 -0.04196002
-0.021630362 -0.034054697 -0.023100697 -0.077689886 -0.0281968 0.036403388 0.06136731 -0.017009027
0.055711858 0.013643637 0.0073340684 -0.033132534 0.009512462 0.011323132 -0.002152674 0.02296722
0.05965159 -0.007439919 0.00034858286 -0.0016534925 -0.056612056 -0.0030562058 0.03672882 0.019505806
-0.03841033 -0.06582929 0.00942532 0.05676437 0.013222352 -0.059918404 0.08075378 -0.04995967
