checkpoints/models/single_stock_daily/81to9/000001/model40.pth (torch, 292914 bytes, 16 tensors)

encoder.conv1.weight f4 [18, 6, 3]
000000 66 0f 11 be 52 23 ca bd 8e e2 e8 bd 62 ff aa bc
       -0.1416603 -0.09870018 -0.11371337 -0.02087373
000010 39 96 25 3e 35 5e 5f 3d 45 84 66 be e5 7d 5b 3e
       0.16170587 0.054533202 -0.22511394 0.21434744
000020 5c 11 52 3e dc 93 7b 3d 93 73 df 3d bc 16 c9 3d
       0.20514435 0.061420307 0.10910716 0.09818789
000030 36 c4 37 3e 1d 5c 6f be 29 a6 0c be d3 c1 67 bd
       0.17945942 -0.23374982 -0.1373526 -0.05658133
000040 d4 15 93 bd 56 c6 2e be f1 0f 65 be 05 71 39 be
       -0.07181898 -0.17067847 -0.22369362 -0.1810952
000050 23 ff 12 bd e3 5f 4e 3e bb 32 27 3e 19 16 a5 3d
       -0.03588785 0.20153765 0.16327946 0.080608554
000060 c0 f9 0e be b5 dd a2 bd 0f 0f 4a 3d a8 bd 5b be
       -0.1396246 -0.079524435 0.049330767 -0.21459067
000070 77 27 a5 3a 65 7b 8c 3d cb 16 5d 3e aa 16 50 bd
       0.0012600262 0.06859473 0.21590726 -0.050802864
000080 2e a7 80 3e cf cc 9b 3b 67 6d 2f be 55 34 63 3e
       0.25127548 0.0047546397 -0.17131577 0.22187932
000090 72 40 5a 3e 60 b9 39 be fd 65 06 be cd 1e d5 3d
       0.21313646 -0.18137121 -0.13124843 0.104062654
0000a0 7a 85 2c be 72 9c 14 3e f1 18 07 be a2 76 ef bd
       -0.16847792 0.14512804 -0.13193108 -0.11692549
0000b0 9b 51 cd bd 1a 5c 56 3e 90 fc eb bd ad 44 92 bd
       -0.10025331 0.20933571 -0.11522782 -0.07142005
0000c0 3d 20 04 3e 30 a3 47 be 02 6a cd bc 00 79 41 be
       0.12902923 -0.19495845 -0.025074963 -0.18893814
0000d0 c2 d3 7d be 5a a3 bc bd c7 1e dc 3c c6 d8 41 3e
       -0.2478781 -0.09210844 0.026870145 0.18930349
0000e0 ff 0f 6a be 13 34 98 bd 2d 05 3b 3d 31 a0 ba 3d
       -0.22857665 -0.07431807 0.045659233 0.09112585
0000f0 51 48 fe 3d 9d 62 61 be 2f a4 50 bd 5c ae 33 3d
       0.12416137 -0.22010274 -0.050937828 0.043867454
000100 03 4b 5a be bb 7f fc 3d bc 88 70 be fe c3 fc 3d
       -0.21317677 0.1232905 -0.2348966 0.1234207
000110 c2 df a6 3d 12 6e 82 bd 75 d9 7c 3d 23 a6 44 3e
       0.08148147 -0.063686505 0.06173082 0.19204001
000120 7e 1e 32 3e 3c fd 0d 3e 3e 96 09 be 26 36 92 3d
       0.17394444 0.13866132 -0.13436219 0.07139234
000130 80 47 42 3e 61 fb 81 3d c2 37 2a 3e b9 a8 f6 bd
       0.18972588 0.06346775 0.16622832 -0.120439
000140 85 b2 54 3e 94 0c 88 b8 5f 86 43 be 55 d3 e2 bc
       0.20771225 -6.487328e-05 -0.19094227 -0.027688662
000150 93 d1 5b 3e ee 1a 81 bd 8b 42 0a bc fc 82 e2 bd
       0.21466665 -0.063039646 -0.008438717 -0.110601395
000160 73 27 06 be f6 90 6f 3d c7 65 12 3e 34 d4 c7 3c
       -0.13100986 0.058487855 0.14296637 0.024393179
000170 35 54 64 bc 6e a4 df 3b 95 b5 3e be 5b d1 fc bd
       -0.013936092 0.0068250215 -0.18623956 -0.12344619
000180 95 9b 38 3b 37 e6 4d be fc 1f fb 3d b8 67 e4 3c
       0.0028168906 -0.20107351 0.1226196 0.027881488
000190 1e c9 0e bc 1a a3 3e bc 1c 9a 43 3e ba db 50 3e
       -0.008714942 -0.011635566 0.19101757 0.20396319
0001a0 52 fe f2 3d 60 5d e4 3d 67 8d fc bd 35 1a b8 3d
       0.11864914 0.11150622 -0.12331658 0.089893736
0001b0 68 da 24 be b2 6d c6 3d 9c cf 2a be 06 4d 1a 3a
       -0.1609894 0.096888915 -0.16680759 0.0005886111
0001c0 eb d4 3b 3e 4a 39 31 3e e3 dd 5e 3e a3 b7 dd 3d
       0.1834294 0.1730701 0.2176433 0.108260415
0001d0 e8 c5 00 3e 17 d9 8e 3d 3e 64 46 3e 7b 23 1a 3e
       0.12575495 0.06975 0.19374177 0.15052597
0001e0 47 9c 98 3d 7d 2b 7e bd c5 2e b5 bd ad 8e 98 bd
       0.074516825 -0.062053192 -0.08846811 -0.07449088
0001f0 df 4c e5 3d c1 e6 e8 bd 6d 0a 85 3d ef 42 55 3e
       0.111963026 -0.11372138 0.06496129 0.20826314
000200 62 c2 49 3e 1e 67 33 be b6 1d 71 3d ac 81 10 3e
       0.19703057 -0.17519805 0.058866225 0.14111966
000210 24 70 61 be a5 97 07 3e c3 33 32 be 20 38 33 be
       -0.22015435 0.13241442 -0.17402558 -0.17501879
000220 32 f9 e9 bd 37 36 e1 bd 3c 08 ce bd ce c7 60 3d
       -0.11424483 -0.10996669 -0.10060164 0.05487805
000230 57 e6 91 3d e6 08 eb 3d 3c dc 34 3e 4b 11 1a be
       0.07124012 0.114763066 0.17662138 -0.15045659
000240 27 fc 60 be 3b 00 3f be 9d ad 01 be 82 55 da bd
       -0.21971188 -0.18652432 -0.12663884 -0.106608406
000250 46 76 c0 3d 76 1d 3a be a1 9a 36 be 68 af ce 3d
       0.09397559 -0.18175301 -0.17832424 0.1009205
000260 46 c5 36 be 62 9e 28 3d d3 fe 4a be 44 7e 8d 3d
       -0.17848691 0.04116667 -0.1982377 0.06908849
000270 6a b1 14 3e 15 2b 5d be 4e 29 75 3d 61 7c ac bd
       0.14520803 -0.21598466 0.059853844 -0.08422161
000280 d0 22 30 3e d8 9a 69 3e 9e 72 53 be 01 53 a9 3d
       0.1720078 0.22812974 -0.20649192 0.08267785
000290 3e 3c 1d 3e f6 50 59 3e 97 6f 34 3e 57 fc 08 3d
       0.15355012 0.2122229 0.17620693 0.033443775
0002a0 ad 30 4a 3c 8d 5e 3c 3d f2 df 29 be 38 5d 45 bd
       0.012340707 0.04598861 -0.16589335 -0.048184603
0002b0 5f 1f cd bb 72 17 2d be 04 89 3d bc a9 36 08 bd
       -0.0062598432 -0.16903475 -0.011568312 -0.033255253
0002c0 73 d9 d0 bd 4f e9 87 bd db 22 65 be fd b4 6d 3e
       -0.10197725 -0.06636297 -0.22376578 0.23213573
0002d0 67 de e7 3d 27 1b 2e 3e f5 d9 4c be db 33 70 be
       0.11321717 0.17002545 -0.20005019 -0.23457281
0002e0 c5 11 3d 3e 1e 51 1f bd 4e 6b 2f 3d b7 a9 15 3e
       0.1846381 -0.03889572 0.042826943 0.14615522
0002f0 31 2c d0 3c d7 7e a2 bb ef 7c 24 3e ed b2 48 3e
       0.025411697 -0.004958968 0.16063283 0.19599505
000300 17 34 85 bd 54 e2 3a be f3 1b fc bd f7 6b 52 3e
       -0.06504076 -0.182504 -0.123100184 0.20548998
000310 1e 91 94 3d d0 ef 83 3e 70 c9 8e bd 47 83 5c be
       0.072542414 0.257689 -0.06972015 -0.21534453
000320 56 06 ad 3d de 23 c6 bd 21 09 19 be 97 c2 16 3e
       0.08448474 -0.0967481 -0.14944889 0.14722668
000330 ee 29 3e 3c 28 49 3e bd d2 7d 61 3e ff b6 50 3e
       0.0116066765 -0.046456486 0.22020653 0.20382307
000340 c2 58 58 be ca 5d 63 be e6 36 ef bd 54 79 4d be
       -0.21127608 -0.22203746 -0.11680393 -0.20065814
000350 9d 93 03 be 4d 36 3f 3e 34 e3 13 be b1 f7 66 3e
       -0.12849279 0.18673058 -0.1444214 0.22555424
000360 87 c4 85 3d 0a 11 41 3b ba ab 00 3d 5a 44 35 3d
       0.06531625 0.002945962 0.03141377 0.04425464
000370 33 0a a2 3d 34 b6 3f be 54 c8 54 bb bf cd 30 3e
       0.079121016 -0.18721849 -0.0032468038 0.17265986
000380 61 fb 80 3e 93 66 67 bc 1b 72 21 be 77 47 f6 3d
       0.25191787 -0.014123577 -0.15766184 0.120253496
000390 cf 74 5f be 75 65 61 3e a3 1d 20 3e 54 b2 c0 3d
       -0.21821903 0.22011359 0.15636306 0.094090134
0003a0 61 d5 e1 3c a5 d3 2d 3e b4 ed bb bd 2f 4f 44 be
       0.027567567 0.16975267 -0.09176198 -0.19170831
0003b0 7e 10 02 be 50 26 33 3e d0 e0 f0 bd 10 8a 45 be
       -0.12701604 0.17495084 -0.117616296 -0.19290948
0003c0 92 9d 54 3d 83 0d 15 be e8 74 a6 bc 09 f5 18 be
       0.051908083 -0.14555936 -0.020319417 -0.14937223
0003d0 0a 12 4f 3d 8a f2 3c bd 09 8d fd 3c ab d1 df 3d
       0.050554313 -0.04612974 0.03095104 0.10928663
0003e0 f5 b7 23 be cd 72 96 bd 2a 42 18 be b5 ca 4e 3e
       -0.15988143 -0.07346115 -0.1486899 0.20194514
0003f0 12 56 99 bd 52 96 c1 3d 9b 21 5e 3d 02 ef 71 be
       -0.0748712 0.094524994 0.054231267 -0.2362633

encoder.conv1.bias f4 [18]
000000 ab 4d 40 3e c6 46 54 3d 30 f0 23 be 67 53 28 3e
       0.18779628 0.051825307 -0.16009593 0.16438065
000010 38 e6 3c bd 33 7f 67 3c 92 36 90 3c 62 31 90 bc
       -0.04611799 0.014129448 0.017604146 -0.017601673
000020 7c 83 71 3e 80 55 ca 3d e3 ed 2e 3d d6 73 8d bd
       0.23585314 0.09879589 0.042707335 -0.069068596
000030 dd c1 28 3d 26 d7 2a be 88 ba 60 bd e8 cc d5 3d
       0.041200507 -0.16683635 -0.05486539 0.104394734
000040 27 9e 70 be 27 f2 99 bb
       -0.2349783 -0.0046980563

encoder.conv2.weight f4 [54, 18, 3]
000000 58 02 59 bd bf c9 86 3d 73 37 b6 bd b0 c3 a5 3b
       -0.05298075 0.06581449 -0.08897295 0.005058728
000010 5f 52 6f bd c7 eb c3 3d 5b 44 b7 bc b4 ce ce bd
       -0.058428165 0.09566455 -0.022371462 -0.10098019
000020 4b 14 2c bd 58 3e c9 3d 09 e3 60 3d 8f 5b 08 3d
       -0.04201154 0.09826344 0.054904018 0.033290442
000030 64 d6 ac 3d 07 c7 4e 3d 8b 8b 84 bc bd 29 91 bd
       0.08439329 0.050482776 -0.01617982 -0.07088039
000040 26 01 06 be 84 b9 88 3d 9b a7 cb 3d e3 ba 74 bd
       -0.13086376 0.06676009 0.099440776 -0.05974854
000050 7f 15 90 bd e7 9f 0e 3d 11 2d 8c 3a 94 6c ef 3d
       -0.0703535 0.034820464 0.0010694583 0.116906315
000060 e8 32 6d ba 81 1b 25 b9 08 61 fc bd 7f 75 35 3d
       -0.0009048418 -0.00015745872 -0.12323195 0.044301506
000070 0a 7c ea 3b 9a 48 16 3d 1e 0c b0 3d 58 50 70 3d
       0.0071559 0.036690332 0.08596061 0.05867037
000080 ed 46 43 ba e2 a5 30 bc ce 0a 8c bd 16 f8 fd 3d
       -0.00074492284 -0.010781737 -0.06837998 0.12400834
000090 ea 64 e7 3d 94 b7 54 bb 94 13 08 3e 70 e8 f1 3d
       0.11298545 -0.0032458054 0.13288718 0.11811912
0000a0 03 6e 9e 3d 28 91 8c 3d 29 67 5b 3d 95 84 bd bc
       0.07735827 0.06863624 0.053565178 -0.02313451
0000b0 9a 66 5a 3c 62 ed e7 3d c7 3b a6 bc 0d 60 34 3d
       0.013330126 0.11324574 -0.020292176 0.044036914
0000c0 83 94 3d bd e9 17 99 3c 6c 3d 96 3d bc dd ab 3d
       -0.04628421 0.018688159 0.07335934 0.08391902
0000d0 85 47 89 3d 86 55 82 3d c7 f8 3b bd c6 68 e0 3d
       0.067030944 0.063639686 -0.04589155 0.10957484
0000e0 56 d6 b9 3d 75 2a d6 3d ae 83 c4 bd f1 af 44 bd
       0.090740845 0.10457317 -0.095954284 -0.048019353
0000f0 2d 23 ea bd e8 df bd 3c 10 ba db 3d 36 c3 be bd
       -0.114324905 0.023178056 0.10728848 -0.09314577
000100 43 dd 4a 3d d6 80 66 3b eb 13 13 be f8 d4 18 bc
       0.049527418 0.0035172007 -0.14363067 -0.009328119
000110 10 83 83 bc a4 7e 9e bd bd 6b a8 bd ba f5 a8 3d
       -0.016053706 -0.077389985 -0.082236744 0.082499936
000120 11 cc ed bc 84 a0 61 bd f9 04 3a bd 19 df 6e bc
       -0.02902797 -0.05508472 -0.0454149 -0.014579558
000130 1f d1 13 bd 01 2d ac bd f4 f8 ba 3d ee a7 f4 3c
       -0.036088105 -0.08407021 0.09129515 0.029865231
000140 74 6d e4 bd 0f 51 31 bd d7 e5 1b bd 5d 04 7a bd
       -0.11153689 -0.043290194 -0.03806099 -0.061039317
000150 90 7a 00 3d f9 cf f5 3d 2a fb c8 bd 29 6d 66 3b
       0.031366885 0.12002558 -0.09813531 0.003516028
000160 24 db 0b 3e ee d0 92 bd 34 ae fd bd 6e 95 ca 3c
       0.13657814 -0.071687564 -0.12386742 0.024729457
000170 d8 8d 44 bb 8a 65 c2 3b a6 71 b8 3d d7 a0 eb bd
       -0.0029991772 0.0059325146 0.09006052 -0.11505287
000180 7f 33 aa bd 66 48 d0 3d e9 80 bf bd e5 12 4b bc
       -0.08310603 0.10170059 -0.093507595 -0.0123946415
000190 7e d2 63 3d 39 9c 9e bd 04 b7 c9 bd 06 ea be bd
       0.055620663 -0.07744641 -0.098493606 -0.0932198
0001a0 a9 00 d3 bd d4 ce eb bd da 43 f4 bc 6c b4 05 be
       -0.1030286 -0.11514059 -0.02981751 -0.13057107
0001b0 3d b2 a2 bd 2c 94 5b 3c 14 d2 03 3e af d3 09 3e
       -0.079441525 0.013402026 0.12873107 0.13459657
0001c0 78 7c d6 3d 3c b1 cf 3b 82 47 b1 3d 04 b6 26 bd
       0.10472959 0.0063382667 0.08656217 -0.040700927
0001d0 22 9c ad bd 26 55 8a 3d e8 4e 53 3d 87 29 39 3d
       -0.084770456 0.06754522 0.051588923 0.04520562
0001e0 c9 3d 85 3d 25 36 02 bd c1 9a cb 3d 5a be 96 3d
       0.06505925 -0.031789917 0.09941626 0.073605254
0001f0 0c 6a 74 bd 21 9f c8 3d dd fb 51 3d 00 d2 fa 3b
       -0.059671447 0.097959764 0.051265586 0.0076544285
000200 40 a0 0b 3b 4f 3a f0 3d e5 12 81 3b 5b d9 42 3d
       0.0021305233 0.117298715 0.00393902 0.047570568
000210 d3 39 c2 3d 36 3a a8 3a 14 fc f7 3d c8 b1 a2 bd
       0.09483685 0.0012834731 0.12108627 -0.07944065
000220 23 99 55 bc fe d6 56 3c 6c d9 4c 3b e8 69 cf bd
       -0.013036999 0.013112782 0.0031257523 -0.10127622
000230 ba ea 00 3e 93 ad 9e bd a9 5c c3 3d e4 a8 63 bd
       0.12589541 -0.077479504 0.09539158 -0.05558099
000240 4f bb 5b 3d 1d b5 9a bd 2b 2a 7c bd 22 eb 0f 3d
       0.05364543 -0.07554076 -0.061563652 0.03513635
000250 1d 99 be 3d f0 22 26 bc c9 68 58 3d 02 e9 9a bd
       0.09306548 -0.010140166 0.052834306 -0.07563974
000260 fd af 34 3d 09 99 8a bc ce 40 03 bd 8d 01 86 3d
       0.044113148 -0.016918676 -0.032044224 0.065432645
000270 8b 91 45 bd a4 c3 aa bd 8d 6f 1d bd b2 dc 90 3d
       -0.048234504 -0.08338097 -0.03843646 0.07073344
000280 c4 5f 08 3e 88 31 02 3e f7 ea ea 3d 23 5d 7f bd
       0.13317782 0.12714207 0.11470597 -0.06234468
000290 18 37 0a 3e 38 b9 be 3d 50 bc 92 3c f5 99 9b bd
       0.13497579 0.093126714 0.01791206 -0.07597724
0002a0 f1 2a 8b bd 9f d7 d5 3c 31 a2 d1 bb de 2a 35 bd
       -0.067953 0.026103793 -0.0063975086 -0.044230334
0002b0 6d 1d f8 bd 81 92 d1 3d a3 1e 7f 3d b8 61 e0 3c
       -0.121149875 0.102330215 0.062285077 0.027390346
0002c0 25 02 8c 3c f0 87 b2 3d ca 06 ab bd 9b 30 1d bc
       0.017090866 0.08717334 -0.08350904 -0.009594108
0002d0 77 e2 10 3e 41 f2 5a 3c de 8c cd bd fe 4b cd bd
       0.1414889 0.013363422 -0.10036634 -0.1002426
0002e0 5f 60 8a 3d 83 8d 61 3d 46 f4 5c 3d 9b 64 b1 bd
       0.067566626 0.055066597 0.053943895 -0.08661767
0002f0 7a 51 a6 bd 75 8e 15 be 09 63 c6 3c 56 cf bf bc
       -0.08121009 -0.14605124 0.024217146 -0.023414295
000300 39 2a fe 3d ba cd 69 bd eb 95 c7 bd 02 41 3d 3d
       0.12410397 -0.05708096 -0.097453915 0.046204574
000310 ba 37 97 bd b4 2e bb bc da 7d 1e 3e b7 d7 c1 3d
       -0.07383676 -0.022849418 0.15477696 0.094649725
000320 ba c8 0c be bb 45 10 bb b3 77 72 ba 67 43 09 3e
       -0.13748446 -0.002201422 -0.0009249404 0.13404618
000330 60 56 f6 bd 43 14 94 3d 97 64 0b be 3d 3a 10 be
       -0.120281935 0.07230427 -0.1361259 -0.14084716
000340 34 d1 7d bd 0c c2 08 be ac 9a 63 bc 11 3c 00 3e
       -0.06196709 -0.13355273 -0.013891857 0.12522914
000350 35 10 03 bd 31 d0 de bd 89 04 99 bb 88 d6 d1 bd
       -0.031997878 -0.10879553 -0.00466973 -0.10245997
000360 09 34 b2 3d a6 d6 63 3c 90 2d f4 3d 32 18 36 3c
       0.08701331 0.013906157 0.11922753 0.011114167
000370 6b 7a 32 3d 3e d6 2c 3d 36 53 f9 3d f5 d9 a9 bd
       0.043573778 0.042196505 0.12174074 -0.08293525
000380 dd 74 af bd 38 b2 de 3d 59 00 81 3d f0 71 09 3e
       -0.08567212 0.10873836 0.062988944 0.1342237
000390 5f eb ec 3c 8f 73 58 3d 04 d0 b9 3d 20 db b1 3d
       0.028920827 0.05284458 0.09072879 0.08684373
0003a0 e2 94 a2 3d fd b2 ce bd cc 03 02 3d 96 a3 db bd
       0.079385534 -0.10092733 0.031741902 -0.10724561
0003b0 58 be 4f 3c 45 9d bd 3d 40 17 f1 bc a2 a9 04 3e
       0.012679659 0.092585124 -0.029430032 0.12955335
0003c0 c9 25 09 3e de 36 5c 3d 34 61 c4 bd 70 66 c4 3c
       0.1339332 0.053763263 -0.095888525 0.023974627
0003d0 46 5a dc 3d 4f 47 d8 3c c5 3e f9 3d 4f 84 fd 3b
       0.10759406 0.02640119 0.121701755 0.0077367197
0003e0 76 f0 77 bd 5f 0e b2 3d e6 92 52 3d 29 d0 9a 3d
       -0.060532056 0.08694147 0.051409625 0.07559235
0003f0 74 04 b5 bd 75 ef db bd 71 74 bd 3d dc 8a 42 3d
       -0.0883874 -0.10739032 0.09250725 0.047495708

encoder.conv2.bias f4 [54]
000000 56 8d f3 3d fb 15 99 bc ee a0 05 be 3b 97 78 bd
       0.11892192 -0.018687239 -0.13049671 -0.0606911
000010 24 52 8f bd 08 e7 ca 3d a5 bb be bd 60 d5 e5 3d
       -0.06998089 0.09907347 -0.09313134 0.11222339
000020 4e 46 62 3d 4e d6 64 bc 12 91 f3 bc d1 bc 9e 3d
       0.05524283 -0.01396711 -0.02973226 0.077508576
000030 83 eb a1 bd 11 a7 4c bd 8b a5 02 3e b0 42 07 bd
       -0.079062484 -0.049964014 0.12758462 -0.033022583
000040 08 da 30 3c e1 06 e2 3d 21 6f f5 bd ec 03 90 3c
       0.01079417 0.11036468 -0.11984087 0.017579995
000050 20 33 ca b9 d0 af ae bd 30 f6 db 3d e4 4c d1 3d
       -0.00038566533 -0.08529627 0.10740316 0.10219744
000060 4f 94 4a bc e6 3f 60 bc 8f fb c5 3d 1c 9b 23 bd
       -0.012364461 -0.01368711 0.096671216 -0.039942846
000070 2d ed 8f 3d 06 7e bf bd 58 8d ed bd f6 fd c0 3d
       0.070276596 -0.09350209 -0.11599225 0.09423439
000080 56 85 ba 3d ed 6c eb bd 73 63 24 bd c5 d3 7e 3d
       0.09107463 -0.11495385 -0.040133905 0.062213678
000090 d0 d5 92 3d 05 4e bc 3d 09 fd d0 3d 5b 16 70 bd
       0.07169688 0.091945685 0.102045126 -0.05861507
0000a0 99 85 a3 3c 2e 56 fb 3d a2 4b df bd 6e 45 b6 3d
       0.019961165 0.12272297 -0.10903098 0.088999614
0000b0 d9 bd 1f 3d ac 91 c2 3a a1 bb 04 3e e2 65 63 bd
       0.038999412 0.0014844439 0.129622 -0.055517085
0000c0 9c 1c 21 bd f8 6c c5 bd 86 cc ef 3d d4 80 c8 bd
       -0.039333925 -0.09639925 0.117089316 -0.09790197
0000d0 a7 f7 02 3e de d9 c6 bd
       0.12789784 -0.097095236

encoder.rnn.weight_ih_l0 f4 [192, 54]
000000 34 2f 9c 3d d1 39 82 bd bd b8 d9 3d b1 f9 af bd
       0.07626191 -0.06358684 0.10630939 -0.08592547
000010 8e a1 a2 bd 93 59 ef bc 05 aa c5 bd 0a 7d f7 3d
       -0.0794097 -0.029217517 -0.09651569 0.12084396
000020 71 36 2a 3d c7 a2 a1 bd 6a 8c c7 bd b3 01 f9 bc
       0.041555826 -0.078923754 -0.09743579 -0.030396318
000030 73 71 04 3c 55 b6 b0 bd 9e d0 bf 3d 38 37 84 bd
       0.008083689 -0.08628527 0.093659624 -0.06455845
000040 ac b5 b7 3c fc f0 c3 3d c8 d7 c8 bd 50 9c d3 bd
       0.022425495 0.095674485 -0.09806782 -0.103325486
000050 9a fc f4 bd fd c7 85 3c 91 68 db 3d 67 4c 95 bd
       -0.119622424 0.016330713 0.10713304 -0.07289963
000060 38 bb 91 bc 19 b9 95 3d 81 8d ed 3d e9 e4 97 3d
       -0.017789468 0.07310695 0.11599255 0.07416708
000070 cc ed 4a 3d cd 2d a9 3c 1e 29 2c bc 5b b0 df 3d
       0.049543187 0.020651722 -0.01050785 0.10922309
000080 01 bf 95 ba 4f 9e 3c 3d d0 3a 16 bc 49 b8 0d 3e
       -0.0011424721 0.046049412 -0.009169295 0.1383983
000090 5e d7 03 be 3e ea 1c bd b3 12 e3 bd 13 07 e7 3c
       -0.12875125 -0.03830933 -0.11087551 0.028201615
0000a0 d8 ae e9 bc ca 49 a9 bd cb d6 c9 bd ff 4d 1c 3d
       -0.028525755 -0.08266027 -0.09855422 0.03816032
0000b0 85 da cc 3d e5 35 e3 3d 98 b1 b8 3d 01 7d d1 bd
       0.10002617 0.11094264 0.09018248 -0.10228921
0000c0 d6 1f d5 3d 42 5f f3 3d de 60 1f 3c 3c 6b fa bd
       0.10406463 0.11883403 0.009727685 -0.122274846
0000d0 8c c8 c9 bd 79 e1 d0 bd 58 33 7a bb f4 db cc 3d
       -0.098527044 -0.101992555 -0.0038177576 0.1000289
0000e0 89 cd c0 3d 6d 8e 29 bd f8 fc 8b bd 77 1b b8 3c
       0.09414203 -0.041395593 -0.06835359 0.022474034
0000f0 a6 00 0b bd bd 77 be bc fa 68 12 3d 1c d4 de bc
       -0.033936165 -0.023250455 0.035744645 -0.027200751
000100 ce ed 7b 3d 02 9e 9b bc 26 eb ff 3d b6 1d e4 bd
       0.061506085 -0.018996242 0.12496023 -0.111384794
000110 f7 1b 9d 3d b0 0e a5 3d 21 2e aa bd 14 3c 07 3c
       0.076713495 0.08059442 -0.0830958 0.00825407
000120 f3 7d 33 bc 96 d0 98 3d 0f c4 0f 3e 62 cf 64 bd
       -0.010955322 0.074616596 0.14039634 -0.05586184
000130 7b 75 c6 bd bf 3f c2 bd c1 f6 bc 3d 19 3c ac bd
       -0.09690376 -0.09484815 0.09226752 -0.084099
000140 ff b2 80 bd c1 67 9f 3d 8f 48 5d 3d 33 80 b7 3d
       -0.06284141 0.07783461 0.054024275 0.08959999
000150 e9 a4 f6 3d e3 e2 ed bd 04 3e 2f bd d6 4e 5c 3c
       0.12043173 -0.11615541 -0.042783752 0.01344653
000160 94 36 98 3d 19 13 27 bd de f3 f8 3c 63 50 9f 3d
       0.07432285 -0.040789697 0.030389722 0.077790044
000170 47 2c fa 3c 2f 35 9b bd 96 79 e1 bd 66 58 88 bd
       0.030538691 -0.07578503 -0.11009519 -0.06657486
000180 2e 73 50 3d 4f 6b dd 3d f4 d1 33 3d e2 f5 85 3d
       0.050891094 0.10811483 0.0439014 0.06541039
000190 a5 4e cb 3c 9b eb c3 bc bd f9 59 bc e0 11 e3 3d
       0.024817774 -0.023916056 -0.013304171 0.11087394
0001a0 14 6a 2e 3c 94 4c 10 3d c3 c8 9b 3d 40 92 90 3d
       0.010645408 0.03522928 0.07606652 0.07059145
0001b0 fb cc d3 3c 3a 6b 9d bc c7 38 44 bd 24 f1 7f bd
       0.025854578 -0.019216169 -0.04790571 -0.06248583
0001c0 17 f5 93 bd 53 f5 c0 3d 65 16 ad 3d cd 93 9c bd
       -0.072244816 0.09421792 0.08451537 -0.07645378
0001d0 bb 86 dd 3d 54 77 52 bc 20 75 ac bc 59 d1 d4 3c
       0.108167134 -0.012845833 -0.021051943 0.025978731
0001e0 39 4f ae bd da dc 60 bd af 79 59 bd ac 64 27 bd
       -0.08511204 -0.05489812 -0.053094562 -0.040867493
0001f0 26 e6 b0 3d 31 3d 2d bd ae a0 ab bd 41 8c bb bd
       0.08637647 -0.042294685 -0.083802566 -0.09157611
000200 e5 5e fe 3d 86 f6 a0 3d ad 05 0e be 46 ff f5 bd
       0.124204434 0.078595206 -0.13869353 -0.1201158
000210 8c b3 a3 bd 42 88 fe 3d 66 8a 16 3d 98 81 18 3d
       -0.0799323 0.12428333 0.03675308 0.037232965
000220 0e b1 65 3d 3d 36 c1 3c f7 a8 ed 3d 57 0f de bd
       0.056077056 0.023585433 0.11604493 -0.108427696
000230 9a 56 03 3e 57 19 8f 3d be 0d 1e 3d 0e ff 1e 3d
       0.12826005 0.06987255 0.038587324 0.038817458
000240 61 71 b5 bc 42 ec 7a bd a2 ab 79 bd 49 f7 ba bd
       -0.02214879 -0.06126047 -0.060954697 -0.09129197
000250 bd 2c 86 3a 46 00 1d 3d 2b f5 e2 3c e1 af 55 bc
       0.0010236722 0.03833034 0.027704796 -0.013042421
000260 55 e7 f0 3c 00 a6 f3 bd 46 1b b7 bd 50 76 f6 bd
       0.029407183 -0.11896896 -0.08940749 -0.12034285
000270 94 24 03 3e df e2 e1 bd 5a 72 55 3d 93 41 c2 3d
       0.12806922 -0.110296 0.052111007 0.094851635
000280 54 47 04 bd 7d 25 0c bd f1 5f df 3d 5c 57 ca bd
       -0.032294586 -0.03421544 0.10906971 -0.09879944
000290 75 40 02 be bf 78 e9 bc 69 34 15 bc 09 ad 4a bd
       -0.12719901 -0.028499959 -0.009106734 -0.049481425
0002a0 58 95 2d 3c 7e 28 95 3d 9b e7 8b 3d b2 61 e0 3c
       0.010594688 0.07283114 0.068312846 0.027390335
0002b0 0d e9 a3 3d 66 ac 50 bd 42 72 04 3a ad 68 80 3d
       0.08003435 -0.050945662 0.0005052426 0.06269965
0002c0 59 ac 60 3d 3d 98 2f bd 8c 65 bd 3d 01 6c b9 bd
       0.054851864 -0.042869795 0.09247884 -0.09053803
0002d0 bf ab 8c bd d3 9a 06 be ba e0 10 3c 95 f8 d7 bd
       -0.068686955 -0.13144998 0.0088426415 -0.1054546
0002e0 3c 00 be 3d c4 38 97 bd 01 af 07 3d 2f 3c d2 3d
       0.092773885 -0.07383874 0.03312588 0.10265385
0002f0 c9 00 05 3e d9 e9 51 3d f1 c6 4f 3d 24 c4 9f 3c
       0.12988581 0.051248405 0.050726835 0.019502707
000300 ee ef 69 3d df dc 89 bb d6 d2 c0 bd 95 1d c9 3d
       0.05711358 -0.004207238 -0.09415214 0.098200954
000310 2b 20 bf bd 83 9a 03 3e 8b ce d4 39 f5 03 6a 3d
       -0.093323074 0.1285191 0.00040589678 0.05713268
000320 01 1f b7 3c 3b 5a 59 3d 9f 8d ac 3d aa 3b d0 bd
       0.022353651 0.053064566 0.084254496 -0.1016763
000330 f7 6e 8e 3d 51 81 19 bd 90 df d0 bd 57 e6 c6 bd
       0.069547586 -0.03747684 -0.10198891 -0.097119026
000340 8f 9b 4c 3c 69 39 c3 3d 9b 19 fa bd 02 1c 0c 3d
       0.01248826 0.095324345 -0.12211915 0.034206398
000350 27 d0 5f 3d b1 6f f2 bd 51 c7 05 3d 6f 43 55 bd
       0.05464187 -0.1183771 0.032660786 -0.052066263
000360 da 9b 9e 3c 7d 4a 33 bd 3a 43 d3 3d 36 cc f3 bd
       0.019361425 -0.04377221 0.10315557 -0.119041845
000370 64 d0 85 3d 52 96 49 bd 1e 0d 31 3d 8a 71 07 3c
       0.06533888 -0.049215622 0.0432254 0.008266816
000380 ac 2b f7 bd c5 a1 8c bd f5 ed 6c ba b6 1c 52 3c
       -0.120688766 -0.068667926 -0.0009038144 0.012824228
000390 99 20 91 bd 14 be b7 3d 64 7e 4b bd 0d 09 80 bd
       -0.07086296 0.089718014 -0.049681082 -0.06251726
0003a0 98 08 30 3d 9b e6 33 bc 90 b2 07 3d 38 df 8e 3d
       0.042976946 -0.010980274 0.033129275 0.06976169
0003b0 b4 3e 54 bd f5 90 ff 3c bc e3 d7 3d cc c0 e7 3c
       -0.05181761 0.03119705 0.10541484 0.028290175
0003c0 a4 86 d3 3d 95 33 50 3d cb 6a db 3d 55 46 f0 3d
       0.10328415 0.050830442 0.107137285 0.11732165
0003d0 99 b2 99 3d e9 6e 1b 3d d7 5d 40 3d 14 13 96 3d
       0.07504768 0.03794757 0.046964493 0.073278576
0003e0 1c 7e 67 3a fa eb 97 3c ac 5e 50 bd 24 fa 13 ba
       0.00088307424 0.01854514 -0.050871536 -0.0005644879
0003f0 52 87 83 3d df 7b 8e bb 31 65 c2 bc 6d 29 10 3d
       0.06422295 -0.0043482627 -0.023729892 0.035195757

encoder.rnn.weight_hh_l0 f4 [192, 64]
000000 96 1b 48 bc 62 bd 7c 3d 0e c8 6b bd 7a de 1e 3b
       -0.012213608 0.061704047 -0.057563834 0.0024241493
000010 19 7a 31 bd 35 2f a0 bd 36 cb 8d 3d bb 7d cf 3d
       -0.043329332 -0.07821504 0.06923525 0.10131403
000020 30 fe 52 3d 15 f2 02 3e bd 95 22 3d 4f fd d7 3d
       0.051511943 0.1278766 0.039693583 0.10546362
000030 2b 31 93 bc 66 1a ab 3d 50 b6 e5 3c 29 05 10 bb
       -0.017967781 0.083546445 0.028041035 -0.0021975732
000040 df cc e9 3d 65 dc c3 bd 9a 53 ad ba f3 c9 5a bd
       0.11416029 -0.09563521 -0.0013223768 -0.05341525
000050 f2 70 d6 3d c8 6c e4 3b 20 f4 36 3d 04 bf b4 3d
       0.10470761 0.0069709755 0.04466641 0.08825496
000060 0f 6f 70 3d f3 c8 57 bd ca d7 0a 3a a2 7e af 3d
       0.058699664 -0.052681874 0.00052964373 0.08569075
000070 2c 2d 6e bd 1f 14 63 3c 21 a6 b4 bd 40 30 2b 3d
       -0.058148548 0.013859778 -0.08820749 0.04179406
000080 c3 84 ba 3d 30 05 b2 3c 3a 8f 8b 3c 93 70 c9 3d
       0.091073535 0.02173099 0.01703607 0.09835925
000090 f9 0c 05 3c a4 3d 67 bd 8f 1e bb 3d c2 70 cb bd
       0.008120769 -0.05645527 0.09136688 -0.09933616
0000a0 5f cd 7f 3d c7 2a b0 3d 69 1b 89 bb a5 cc f9 bd
       0.062451717 0.08601909 -0.0041841757 -0.12197236
0000b0 9a a1 77 3d bd 27 ac 3d ef fd ad 3b 4a 46 aa 3d
       0.06045685 0.08406017 0.0053098123 0.08314188
0000c0 9d d7 5c 3d de dc e5 3c 30 83 e2 3d 63 44 69 bd
       0.053916562 0.02805942 0.11060178 -0.056949984
0000d0 63 54 dc 3c 92 3b ca bd 0a 03 e7 3d eb 65 33 3d
       0.026895707 -0.098746434 0.112798765 0.04379837
0000e0 36 2a f8 3d 76 cc d9 bd 19 11 ed 3d be cd cf 3d
       0.12117426 -0.10634701 0.11575527 0.10146664
0000f0 d8 33 d6 3d 44 bb 4b bd f9 4c b9 bd bd b2 9c bc
       0.10459107 -0.049739137 -0.090478845 -0.019128198
000100 fb 6b f0 3d 43 2d 0f 3e 6e d2 74 bc c3 91 8a 3a
       0.11739346 0.1398211 -0.0149427485 0.0010572005
000110 6e 5a b6 bc 74 8e cd bc a0 6f cf 3c 39 f0 69 3d
       -0.022259917 -0.025092341 0.025321782 0.05711386
000120 ed 7d a7 bc c4 9c d7 bd 9e a3 83 bb 52 05 82 3d
       -0.020445788 -0.105279475 -0.0040173074 0.06348671
000130 68 1c 81 bd 35 cf dd 3d 8a 1e 5b 3d ff 7a 77 3d
       -0.06304246 0.10830537 0.05349592 0.060420033
000140 4c 18 17 3d 65 b4 b8 3d 0d e3 c3 3d 47 89 78 bd
       0.036888406 0.090187825 0.09564791 -0.060677793
000150 11 61 b0 3c a7 50 b6 3d ca 2c 07 be b2 dd 99 3d
       0.02153066 0.08902102 -0.1320068 0.07512988
000160 8b 81 01 be ee e7 8d bd 1d 1f 8a bd 55 b9 d2 bd
       -0.12647073 -0.06929003 -0.06744216 -0.102892555
000170 b1 cd 86 bd 89 70 8e 3d 75 ec 0d be 1f f8 8e bd
       -0.06582201 0.06955058 -0.13859732 -0.06980919
000180 d2 72 07 be 0b d3 ae bd 2c b5 b7 3c 13 00 76 3d
       -0.13227394 -0.08536347 0.022425257 0.060058665
000190 6e 8e b6 bd 84 5e 3a 3d b0 95 8e 3d 1c 53 d2 3d
       -0.08913885 0.045500293 0.069621444 0.10269758
0001a0 d0 3a 48 bd 03 51 cd bd 44 d6 af 3d a4 3b 1a bd
       -0.048884213 -0.100252174 0.0858579 -0.037654534
0001b0 e2 ce f7 bd 36 33 35 bd 5d cc 4d bd 82 da 77 bb
       -0.12100007 -0.04423829 -0.050243724 -0.003781945
0001c0 a7 28 ad 3d 1a ec 8c 3d a8 13 30 bd 1a 24 ac 3d
       0.084550194 0.0688097 -0.042987496 0.08405323
0001d0 54 f2 fc 3c da f0 45 3d c6 9d dc bd e3 c1 15 bc
       0.03087727 0.048325397 -0.107722804 -0.0091404645
0001e0 24 bc 8a 3c 7b 87 2d bd 78 a5 af 3d 45 99 33 3d
       0.016935416 -0.042365532 0.085764825 0.04384734
0001f0 b1 75 8b bd b7 ef 0b 3e 3a f4 ce bb 79 79 b6 bc
       -0.06809557 0.13665663 -0.006315735 -0.02227472
000200 e9 bf 47 3b fe 79 0f b9 10 dc 4e bc 56 4f 3e bd
       0.0030479378 -0.00013682988 -0.012625709 -0.04646238
000210 11 4f 4c 3c 90 35 39 bd c9 6f e0 3d 65 59 43 bd
       0.012470023 -0.045217097 0.10958821 -0.047692675
000220 64 7f da bd 2e fb e6 3d 36 ee b8 3d 5b 4e bb bd
       -0.10668829 0.112783775 0.0902981 -0.091458045
000230 07 f7 eb 3d 31 4a ab bd 6f 8b 67 bd 53 11 7e bd
       0.11521726 -0.0836376 -0.05652946 -0.06202824
000240 86 87 17 bc 35 21 10 3d 31 69 6e bd 21 b1 40 bd
       -0.00924862 0.03518792 -0.058205787 -0.047043923
000250 a6 30 71 bd 45 a9 bc 3d aa 8b 80 3d fd 86 54 3c
       -0.058884285 0.09211973 0.06276639 0.012971637
000260 b4 84 68 3b ce 2e 83 3c 50 e5 c1 bc aa 63 8f bd
       0.0035479488 0.01601353 -0.023668915 -0.07001431
000270 4a 03 06 3e 4f 22 64 bd dd 85 bc bd 08 a7 fd bc
       0.13087192 -0.05569678 -0.0920522 -0.030963436
000280 94 a5 e4 3c eb 39 15 be d1 98 32 3d af 61 d1 3b
       0.027910985 -0.14572875 0.04360277 0.0063898186
000290 70 90 82 bd 0c 23 0b 3d 4b 00 94 3c 8b f0 f7 bd
       -0.063752055 0.03396897 0.018066546 -0.12106427
0002a0 c1 fd 36 3d 4d 9d 1a 3d 91 00 8b bd 2a 1a e7 3c
       0.044675592 0.03774767 -0.067872174 0.028210718
0002b0 8b 78 90 bd 62 4c b3 3d 3b ad a0 bd 96 5f e3 3c
       -0.07054242 0.08754803 -0.07845541 0.02775554
0002c0 84 18 0b 3d 02 7f 50 bc 98 90 71 bd 96 06 52 3d
       0.033958927 -0.0127255935 -0.058975786 0.051275812
0002d0 cb bd a8 3c 72 cb 47 bd e3 b6 d7 bc 61 9c 59 3d
       0.020598313 -0.048778005 -0.026332324 0.05312765
0002e0 dd 26 00 be a8 25 92 3c 14 0f ef 3c 4a 22 11 be
       -0.12514825 0.017840222 0.029181994 -0.14173236
0002f0 9a 57 ba 3c 3f 79 a8 bd fe fb 06 be db 70 d9 3d
       0.02274685 -0.08226251 -0.13182065 0.106172286
000300 5f 22 69 3d db 6b a5 3d e7 88 eb 3d 8f a0 88 bd
       0.056917544 0.080772124 0.115007214 -0.06671249
000310 68 a3 52 bd da 24 98 3b ba c9 4b 3d 19 8c 7a 3b
       -0.051425368 0.004643065 0.04975293 0.0038230477
000320 51 5d 70 bc 16 57 07 3e 2d a3 87 bd 40 11 72 3d
       -0.014670686 0.13216814 -0.0662292 0.059098482
000330 92 cd ef 3b 94 83 8a bd 16 7f 94 3d 4d ed b2 3d
       0.007318207 -0.06763378 0.07250802 0.08736668
000340 1d 6c 2c bb 42 18 b4 bd bb 07 a4 3d 72 71 bf 3d
       -0.0026309558 -0.08793689 0.08009287 0.0934781
000350 c1 af 7e 3d cf 53 50 bb 9d e0 8d 3d cc 5c 1b 3d
       0.06217933 -0.0031788235 0.06927607 0.037930295
000360 9c 0a f9 bc 52 c2 c6 bd 0f 6b 60 bd 2e da 53 3d
       -0.030400567 -0.097050324 -0.0547896 0.051721744
000370 1e b7 91 bd c6 40 4b 3d 72 ba 4e bd 94 77 b8 bd
       -0.07115005 0.04962232 -0.050470777 -0.09007183
000380 fd 56 c1 3d 6b 53 95 bc a7 da e8 3c ec 9b c9 3d
       0.0944042 -0.018228253 0.028424574 0.09844193
000390 db 6f 2b 3c ff 2d 97 3d 0b 98 05 bd e9 1b c7 bd
       0.01046368 0.0738182 -0.032615703 -0.0972212
0003a0 ce ed 4a bd ea 3c 0b bd a5 d3 8f bd 9e 4b 93 bd
       -0.049543194 -0.03399364 -0.0702279 -0.07192157
0003b0 1b 5b 5d 3d a7 7f e7 3d 2a 2d bb 3d be 92 96 3d
       0.054041963 0.113036446 0.09139474 0.073522076
0003c0 c7 3b ca bd a3 1d 91 bc 45 55 2f 3d 53 b8 ec 3d
       -0.09874683 -0.017714327 0.04280593 0.115585946
0003d0 0e ca 62 bd e6 c3 8e 3d 8d e8 9d 3d ab 28 28 bd
       -0.055368476 0.069709584 0.07710371 -0.04105441
0003e0 8d 66 d7 bd a3 c4 78 3d f2 cb 2d 3d a9 b9 c2 bd
       -0.10517607 0.060734402 0.042430826 -0.09508068
0003f0 f0 56 b3 3d 06 7c 19 bd 94 e5 ae bd 53 70 58 3c
       0.087568164 -0.037471794 -0.08539882 0.013210374

encoder.rnn.bias_ih_l0 f4 [192]
000000 00 cd 54 bc 01 94 81 bd a4 d3 31 3b 55 70 05 bc
       -0.012988329 -0.06327058 0.0027134204 -0.008144458
000010 40 96 30 bd 26 33 8b 3d 01 f4 72 bd 3a d9 02 be
       -0.04311204 0.06796865 -0.05931473 -0.12778178
000020 9c 2d db bd 7e 2e 3b 3d 02 5c bd bd 21 86 e4 bd
       -0.10702059 0.045698635 -0.09246065 -0.111583956
000030 2c 37 6c bd 15 21 af 3d 54 a6 95 3d 20 e4 d6 3d
       -0.057669804 0.08551232 0.07307115 0.1049273
000040 38 42 9f bd f9 11 c1 bd 52 65 5d 3d a1 7a b4 3d
       -0.07776302 -0.09427256 0.054051705 0.08812452
000050 d3 d3 a0 bb 9e c7 f1 bd 0b c9 f8 3d 51 a3 b6 3d
       -0.004908064 -0.11805652 0.12147721 0.08917869
000060 48 2e c0 3d 80 28 3a 3d 90 6e 49 3d 5a 8e 9d bb
       0.093838274 0.04544878 0.049177706 -0.0048082294
000070 ad f0 8f 3d 03 f5 90 3c ad 35 c9 bd ca 44 35 bd
       0.07028327 0.017694956 -0.09824691 -0.044255055
000080 86 81 dc bc 27 a2 34 bc 93 18 a3 3d 29 64 b8 3d
       -0.02691723 -0.011024988 0.079636715 0.09003479
000090 14 90 e7 bc 44 08 74 bd cd 9a 5b bc 0b 76 fc 3d
       -0.028266944 -0.059578195 -0.013403607 0.123272024
0000a0 e8 6c fa 3d 48 55 1a 3c 45 26 ba bb 4b 8b 98 3d
       0.122278035 0.009419747 -0.0056808316 0.07448443
0000b0 be 89 ca bd b5 5a 5a bd fd 16 e6 3d a5 c9 cf 3d
       -0.098895535 -0.05330916 0.112348534 0.101458825
0000c0 06 cb fd 3b 21 90 d4 bd 2d d7 c4 3d 4b 2a 27 3d
       0.0077451495 -0.10379053 0.09611354 0.040811818
0000d0 a8 0f a7 bb ac c6 f4 3d 65 a6 c5 bd 57 be e6 bb
       -0.005098302 0.11951956 -0.09650878 -0.0070417332
0000e0 14 38 91 3d f6 a2 3f bd 7a f0 9a bd 45 97 0c bb
       0.07090774 -0.04678627 -0.075653985 -0.0021452468
0000f0 49 f4 b5 3d f2 74 22 ba e7 d1 d3 3c f5 dc 97 bd
       0.08884484 -0.0006197236 0.025856925 -0.07415191
000100 de 31 9c bd 8c 0d d0 bb 10 72 9b 3d 45 bd ce 3c
       -0.07626699 -0.006349271 0.07590115 0.025236735
000110 99 55 84 3d 0a 79 9a bc 47 33 bf 3d 0a 34 72 bc
       0.06461639 -0.018856544 0.09335952 -0.014782915
000120 21 70 e2 3d 45 85 7b bd a7 01 94 bc 4b 67 40 bd
       0.11056543 -0.061406393 -0.018067194 -0.046973508
000130 5c bd 1d be 1a 1a 83 bd a6 78 c0 3c 34 b1 90 b9
       -0.15404266 -0.06401463 0.02349503 -0.00027597847
000140 d2 e7 97 bd de 23 07 3e 9f 4e e5 3d 85 f5 c9 bd
       -0.07417263 0.13197276 0.111966364 -0.09861282
000150 b8 13 8a bd 7e cf 2d bd c9 ae 09 bd 59 f3 15 be
       -0.06742042 -0.042434208 -0.033613954 -0.14643611
000160 a6 75 3e 3d bf 15 96 3d 72 df d3 bd cf 23 fb bd
       0.046498917 0.073283665 -0.10345353 -0.12262689
000170 9b 1a 76 bd f1 2f 60 be 3f 87 bc 3d eb 17 bc 3d
       -0.060083967 -0.21893288 0.09205484 0.091842495
000180 30 02 bc 3d 63 e0 26 be 8f 2b 08 be 93 77 aa 3c
       0.09180105 -0.16296534 -0.13297866 0.02080897
000190 9f b5 bd bd 9c 65 30 be 7b c5 cd bd 11 d9 0c be
       -0.09263157 -0.17226261 -0.10047432 -0.1375468
0001a0 36 ae 12 3c 9d b3 f0 3d 85 85 a8 bb a4 ae 6c be
       0.008952668 0.117530085 -0.00514287 -0.23113495
0001b0 19 15 8c 3d 42 76 bd 3d f0 78 bc 3d e0 9e 44 3d
       0.068399616 0.092510715 0.092027545 0.048003078
0001c0 8f d7 59 bc b9 db 2c be 83 68 6c 3c 71 89 6b 3d
       -0.013296022 -0.16880693 0.014429214 0.05750412
0001d0 03 52 b6 3c c0 37 4a 3d 03 fa 00 3d eb ab 05 be
       0.022255903 0.049369574 0.03148843 -0.13053863
0001e0 1f 61 06 3d a1 ec 1a bd f6 6e 84 be 8b 84 e3 3d
       0.032807466 -0.037823323 -0.25865906 0.11109265
0001f0 35 f8 c8 bd 3f 2f 58 be 78 bd bd ba 1f 7a e1 bc
       -0.09812967 -0.21111773 -0.0014476022 -0.027524052
000200 d8 68 ea bd bb e0 9c bd 05 47 41 bc e3 d4 85 bd
       -0.114457786 -0.076600514 -0.0117967175 -0.065347455
000210 45 2c b6 3d e6 92 63 bc 4e 62 f3 bc 21 73 98 3d
       0.088951625 -0.013890004 -0.029709961 0.07443834
000220 f9 3f e8 bd 9c f3 29 3d 38 aa 9e bc b4 a4 e9 3d
       -0.11340327 0.04149209 -0.019368276 0.11408368
000230 bb 48 34 3c cc 71 5c bd c8 ee ae bd 57 77 9f bd
       0.011003668 -0.053819463 -0.08541638 -0.07786434
000240 6e e6 4c bd 7b b9 e2 3d b0 28 ba 3d 5c 1d f0 3d
       -0.050024442 0.11070534 0.09089792 0.1172435
000250 99 52 46 bd fc aa 32 3d 23 64 a6 bd 98 7e 04 bd
       -0.048418615 0.043620095 -0.08124568 -0.03234729
000260 46 bd d5 3d 7f 26 b1 bd f5 55 f6 bd 5a 03 e6 3b
       0.10436492 -0.08649921 -0.12028114 0.0070194425
000270 7b fd cb 3c 38 c0 ca 3d 66 a0 55 3d 35 76 0c 3d
       0.024901142 0.09899944 0.05215492 0.03429242
000280 1c 59 00 3e 97 0d eb 3d af 76 95 bd c4 14 f5 bd
       0.12533993 0.114772014 -0.07298028 -0.11966851
000290 d7 b6 e6 bd 3e f8 e2 3c 9a 55 12 3d a7 26 05 bd
       -0.11265343 0.027706262 0.035726167 -0.032507565
0002a0 99 88 bc 3d c0 ca e3 3c 12 61 71 3c 72 cb a4 bc
       0.092057414 0.02780664 0.014732616 -0.020116542
0002b0 f0 8a 8d 3d 19 13 15 3d 9b ec a3 bd e0 65 e2 bc
       0.06911266 0.036395166 -0.08004113 -0.027636468
0002c0 fb 7b 71 3d 63 4d 55 3d 9c 0f fc bc 1e e2 fc 3d
       0.058956128 0.052075755 -0.030769162 0.12347816
0002d0 5c 66 d6 3d 76 fd 73 bd 22 04 c6 3d 51 02 9e 3d
       0.10468742 -0.05956789 0.09668757 0.077152856
0002e0 67 e9 b8 3d 39 64 2d bd 1e a1 2c 3d ae de 8c bd
       0.09028893 -0.042331908 0.04214584 -0.0687841
0002f0 18 fb 8a 3d f7 af 1e bb b9 ae 94 3d 44 bb b0 3d
       0.067861736 -0.002421377 0.07259888 0.08629468

encoder.rnn.bias_hh_l0 f4 [192]
000000 d3 3c 3a 3d 22 df e2 3c 34 ed 8e bd 43 48 be bd
       0.045468163 0.027694289 -0.06978837 -0.092911266
000010 94 25 c7 bd 19 44 67 bc 0a 0c ce bd 8a 48 34 bd
       -0.09723964 -0.014115357 -0.1006089 -0.04401449
000020 fc 21 e3 bb 85 16 ef bd bc af ec 3d 94 8e 8d bb
       -0.0069315415 -0.11674217 0.11556956 -0.004319975
000030 ee 91 77 3d ad e1 dc bd 50 bb 8e 3d 53 d0 8e bd
       0.060441904 -0.10785232 0.06969321 -0.069733284
000040 00 80 1d 3d b4 34 b0 3d ba 96 bf 3d b2 fe 11 be
       0.03845215 0.08603802 0.09354921 -0.14257315
000050 bf 02 4a bd e9 61 5d bd c8 c0 3b 3d 8d d4 90 bd
       -0.049319025 -0.054048453 0.045838147 -0.07071791
000060 08 90 b2 3d 7a fd bd bd bc 02 a6 b9 00 44 7f 3c
       0.08718878 -0.092768624 -0.00031664025 0.015580177
000070 a4 35 ab bd 17 26 0c bd 17 8d 00 be b3 68 87 bd
       -0.083598405 -0.034216013 -0.12553822 -0.06611767
000080 83 a8 00 be 1f ac 06 3d 62 9b 58 bd 0e 34 89 bc
       -0.12564282 0.03287899 -0.05288256 -0.016748454
000090 ce 35 43 3d 6a 84 56 3d f7 60 6d 3d 3c 0e d6 3c
       0.047658734 0.052372374 0.0579538 0.026129834
0000a0 cd db f4 3d 71 f3 d4 bc 89 46 db 3d cd d4 8a bd
       0.11955986 -0.025994988 0.10706813 -0.0677887
0000b0 e7 37 02 be 93 26 9a 3b b4 ce 34 bd 34 f3 cf bd
       -0.12716638 0.0047043054 -0.04414244 -0.10153809
0000c0 5f 3e 8c bd c3 68 91 bc e4 0b a6 3c fa 23 b4 bc
       -0.06847834 -0.01775015 0.020269342 -0.021989811
0000d0 fa 04 3d bd 5c 8f d0 3d 24 bb 8d 3d c8 53 83 bd
       -0.046147324 0.10183594 0.0692046 -0.064124644
0000e0 ab e2 bc bd 8e 30 13 3c 22 9e a1 3d 21 62 cc 3d
       -0.09222921 0.008983744 0.078914896 0.09979654
0000f0 db ba 9f 3d 75 de 8b 3d ce 1d 20 3b 42 79 b8 bd
       0.07799312 0.0682954 0.0024431827 -0.09007503
000100 92 6b 60 3d 43 a3 43 3c ea dd 38 3d 37 aa cb bd
       0.054790087 0.01194078 0.04513351 -0.09944575
000110 9b e5 e5 bd da ce eb 3c 56 d7 10 bd bc 75 33 be
       -0.112254344 0.028785158 -0.03536161 -0.17525381
000120 e7 a8 f2 3d 73 86 db bc 16 98 c8 3d 71 44 06 3e
       0.11848622 -0.026797509 0.09794633 0.13112046
000130 7f d0 10 be 66 61 b1 3d e8 87 cc 3d b1 e8 cc bd
       -0.14142035 0.086611554 0.099868596 -0.1000532
000140 ac 16 39 bb c6 20 0a 3e f6 6e 28 3d 0e 6f 8f bd
       -0.0028242273 0.13489065 0.041121446 -0.07003604
000150 fc da 09 be 06 eb 4d be 23 62 35 3d 14 14 13 be
       -0.13462442 -0.20109186 0.044283044 -0.14363128
000160 19 78 a6 3c a1 51 76 bd 09 03 b2 bd 18 a8 bf 3d
       0.020320939 -0.06013644 -0.08691985 0.09358233
000170 67 be 6b be 9a 8f c0 bd ba 1d 09 3e b9 36 bd bd
       -0.23021851 -0.0940239 0.13390246 -0.09238953
000180 08 28 14 bd a5 de 47 be 1b 38 d9 3c d9 d3 be 3c
       -0.03617099 -0.19518526 0.026516011 0.023294376
000190 2d 0e a8 3c 74 a8 25 be e2 b8 29 be 57 39 2c bc
       0.020514572 -0.16177541 -0.16574433 -0.010511718
0001a0 85 9d 1f 3d d3 96 d2 3d bc 36 07 3d a5 d9 c5 bd
       0.03896858 0.10282674 0.033011183 -0.09660653
0001b0 09 7e a0 3d 18 73 65 bd 2b 1f 32 bc 4d 25 4b 3e
       0.07836539 -0.056017965 -0.010871689 0.19838448
0001c0 7e b7 bc 3b fc 17 73 bd b8 0b b9 bd 12 a6 e1 3d
       0.0057591787 -0.059349045 -0.09035438 0.110180035
0001d0 07 12 94 bc 31 a7 e6 3c 89 0e bd ba 00 a6 1b bd
       -0.018075002 0.028155895 -0.0014423887 -0.038000107
0001e0 ad 6e 43 3e ce 64 0e 3e 91 52 a0 be b9 88 17 3c
       0.19085188 0.13905641 -0.31312993 0.009248906
0001f0 3f e2 95 bd 6f 87 14 bd 64 72 97 3d 3a b5 c0 bd
       -0.07318544 -0.036261972 0.07394865 -0.09409566
000200 63 0f dc bd e4 67 f0 bc 17 30 38 bb 5e f8 b2 3d
       -0.10745122 -0.029346414 -0.0028104836 0.087387785
000210 c4 45 15 3d 2b c4 be 3d 23 45 c7 bd 59 81 d2 3d
       0.036443487 0.0931476 -0.09729984 0.10278577
000220 66 57 dc 3d 29 48 94 3d 07 76 27 3c 53 1d fc 3d
       0.107588574 0.07240326 0.010221011 0.12310281
000230 43 69 10 bc 8b e8 a7 bc ae 81 5d bc d1 e3 2d 3d
       -0.008814159 -0.020496627 -0.013519688 0.04245359
000240 60 ba 54 3d d2 66 d1 3d fd f2 a3 3d 8b b0 67 3d
       0.051935554 0.102246895 0.08005331 0.05656485
000250 93 1b f0 3c 31 76 12 3d 5e ed c1 3d 48 47 24 bd
       0.029310023 0.035757247 0.09469102 -0.04010704
000260 4f 15 9e 3d 15 b1 7c bd 1d 62 4b bd a5 2d 5a 3d
       0.07718908 -0.061692316 -0.049654115 0.053266186
000270 21 d8 9f bd f5 fc 4f bd 77 e2 1a 3d a8 10 f0 3b
       -0.07804895 -0.050778348 0.03781363 0.0073262043
000280 b2 ee 9d 3d b7 92 83 bd 9b 90 e7 bd 0b a8 b5 3b
       0.07711543 -0.06424468 -0.11306878 0.005543714
000290 e0 ac 62 3d 5f fc 18 3c d0 b8 ad bd b2 ac a3 bd
       0.055340648 0.009337514 -0.08482516 -0.079919234
0002a0 f2 ff 42 3d 91 f9 b7 3c 63 5e 8d 3d 0d 6c 89 bd
       0.04760737 0.02245787 0.069027685 -0.06710062
0002b0 ce af b2 3d 35 bf 20 bc cb 01 28 3d 9c b0 93 bd
       0.08724938 -0.009811212 0.041017335 -0.0721142
0002c0 9f 25 45 bc 52 28 c2 bc d1 12 d2 bd 25 4c a6 3d
       -0.012032895 -0.023700867 -0.10257495 0.08119992
0002d0 65 63 34 3d 81 a6 a6 bd bd 5e 05 3d 64 b3 45 bd
       0.044040103 -0.08137227 0.032561053 -0.048266783
0002e0 2f a9 f2 bd 42 ed c0 3c c0 90 25 bd 93 04 9f 3d
       -0.118486755 0.023550633 -0.040421247 0.07764544
0002f0 7c 30 f0 bb c7 f7 95 bd 7d a0 18 bd e8 16 4b 3d
       -0.0073299985 -0.073226504 -0.03726243 0.049582392

decoder.attn.v f4 [64]
000000 48 bc e9 bc fc ec 07 bd 0a bd ba bd fe 24 ee 3d
       -0.028532162 -0.03318499 -0.091180876 0.116281494
000010 44 49 41 bd 38 ea 82 3d d4 22 52 3d d4 be 1e 3d
       -0.047189012 0.0639233 0.051302746 0.038756207
000020 24 66 77 bd 08 54 d8 bc 60 6a 27 3d e8 8b 9d bc
       -0.060400143 -0.026407257 0.04087293 -0.019231752
000030 c2 61 90 bd ce 42 cf bd 64 8c af 3d 56 6e 91 bd
       -0.07049896 -0.10120164 0.08571699 -0.07101123
000040 72 53 dd 3d 78 e4 03 bd 9c 1c b8 3d 52 3e fe bd
       0.108069316 -0.032200307 0.08989832 -0.124142304
000050 2c 65 37 bd 58 96 ae bc 68 01 ae 3c 18 9f ac bd
       -0.04477422 -0.021311924 0.021240905 -0.08428782
000060 00 bb 36 3d c4 96 04 3d 10 d6 0f 3d 00 91 01 ba
       0.04461193 0.032370344 0.035116255 -0.0004942566
000070 4c fd d3 3d 20 ac aa bd fe ac 85 3d 5c 2d 67 3d
       0.10351047 -0.083336115 0.06527136 0.056439742
000080 b0 8b 5a 3d 30 1e 47 bd b6 ed db 3d 24 36 9f bd
       0.053355873 -0.048612773 0.10738699 -0.077739984
000090 a0 f6 f8 3d f8 9f b1 bc 3a 75 ed bd e8 91 e0 bc
       0.12156415 -0.021682724 -0.11594625 -0.027413324
0000a0 58 79 ed bd c4 9a ee 3d c8 1f bd bc 64 68 6d bd
       -0.1159541 0.11650613 -0.023086444 -0.057960883
0000b0 d8 34 cd 3d 28 7c 78 bd 80 e6 80 3c c4 d7 a2 3d
       0.10019845 -0.06066528 0.015734911 0.0795131
0000c0 1c a4 8d 3d 08 23 05 3d 50 18 24 3d 2a 1f 84 3d
       0.06916067 0.03250411 0.04006225 0.064512566
0000d0 6c ff 76 bd 70 34 02 3c ce fe a7 bd 80 65 f8 bd
       -0.060302183 0.007947072 -0.08202897 -0.121287346
0000e0 7c ac 97 bd 9a cc fd bd b0 8e 69 bd 50 68 d9 bd
       -0.07405946 -0.1239254 -0.057020843 -0.10615599
0000f0 4c 1a e0 3d 00 0b 54 bc 5c 49 f3 bd 32 da 98 3d
       0.10942516 -0.012942076 -0.118792266 0.074634925

decoder.attn.attn.weight f4 [64, 128]
000000 94 c6 82 bd 60 f2 fb 3b 23 24 87 bd 76 5b 8a bd
       -0.06385532 0.0076888055 -0.065986894 -0.06755726
000010 b8 db 81 bc e5 fd 8e 3d be fa 25 bd 10 80 4a bd
       -0.01585184 0.0698202 -0.04052233 -0.049438536
000020 fe 1a 13 bd 42 52 78 bd c0 e2 25 bc 16 a3 9b bd
       -0.035914414 -0.060625322 -0.010124862 -0.075994655
000030 e8 ea 11 3d be 93 ac bd af fb aa bd fa b7 a7 bd
       0.035624415 -0.08426617 -0.08348786 -0.081893876
000040 0a 77 58 bd c4 b2 a9 3c 4b dc 86 3d cc 51 47 bd
       -0.0528479 0.020715125 0.06584986 -0.048661992
000050 86 7a 5a 3d ee ac 96 bd 48 ab 86 bd 58 11 fa 3c
       0.053339504 -0.073572025 -0.06575638 0.030525848
000060 60 51 49 bc 5c dd 2c bd 20 de 08 3c 00 67 ae 3a
       -0.012287468 -0.042203292 0.00835374 0.0013305843
000070 85 bd 8b 3d de be 01 3d f0 e7 97 bb 96 20 95 bd
       0.06823257 0.031676166 -0.0046358034 -0.07281606
000080 ec 5f f0 bc 8f 37 8e bd f8 ea 8a bc 10 7c ac bc
       -0.029342614 -0.06944191 -0.016957745 -0.021055251
000090 dc ee 99 bc 82 83 89 bd d2 d3 0e 3d 2e 45 0c 3d
       -0.018790655 -0.06714536 0.034869976 0.034245662
0000a0 b8 2d 27 bc 33 b8 09 bd f4 a5 b0 3c b6 58 58 3d
       -0.010203771 -0.03362293 0.021563508 0.052818976
0000b0 62 b3 05 3d 88 b4 2b 3c 90 38 32 3c 04 5b 80 3c
       0.032641776 0.010480054 0.010877743 0.0156684
0000c0 58 9b 0e 3c 34 1a be bc 08 04 7d bd e2 4b 67 3d
       0.008704029 -0.023205854 -0.061771423 0.056468852
0000d0 6e d7 4e 3d 8e ff aa bd 20 7a 38 3c d0 b3 75 bd
       0.05049842 -0.083495244 0.011259586 -0.059985936
0000e0 53 37 a5 3d 60 a0 ac bb 25 ee 41 bd 97 17 4a bd
       0.08067193 -0.0052681416 -0.047346253 -0.049338903
0000f0 a2 15 44 3d ac 04 bb bc 80 3f 22 bc 3f a9 a3 3d
       0.047872193 -0.022829376 -0.009902835 0.079912655
000100 ae 5d ea bc c0 fa 5a bd e4 69 ac 3c c4 81 8a 3c
       -0.028609123 -0.05346179 0.021046586 0.01690758
000110 5e 67 75 bd 58 32 e2 3c 0f 98 6a bd fa 7a 62 bd
       -0.05991303 0.027611896 -0.05727392 -0.05529306
000120 26 6f 88 bd 30 eb d1 bc 80 e7 77 3a 19 e7 16 bd
       -0.06661825 -0.025624841 0.00094567984 -0.036841486
000130 3e db 5a bd 87 eb 10 bd f0 7c a8 3c 70 af d8 3b
       -0.053431742 -0.035380866 0.020567387 0.0066127107
000140 fa a9 b1 bd 58 64 96 bd 13 d1 84 3d 20 a1 20 3c
       -0.086749986 -0.07343358 0.0648519 0.00980404
000150 92 53 46 3d a0 1e 15 bb 07 1f af bd 49 21 ab bd
       0.048419543 -0.002275385 -0.0855084 -0.08355958
000160 4e e2 5c 3d 00 16 a1 bc a8 7b 13 bd 27 51 b3 bd
       0.05392676 -0.01966381 -0.0360066 -0.08755713
000170 fe ab 47 3d 38 9d 3c 3c 85 49 81 bd c8 c4 63 3c
       0.04874801 0.011512093 -0.06312851 0.013901897
000180 e2 69 6b bd 28 8f bf bc 42 1e 4b bd 1c c1 f4 bc
       -0.057474025 -0.023383692 -0.049589403 -0.029877238
000190 44 17 9b bc 44 72 8e bd b0 91 76 bd 88 cf a8 bd
       -0.018931992 -0.06955388 -0.060197532 -0.082427084
0001a0 4e b9 62 3d 83 39 56 bd 91 06 85 3d b2 36 6e 3d
       0.0553525 -0.05230094 0.06495393 0.05815763
0001b0 8e 93 4e bd b2 42 6b 3d 80 de 90 3b b8 fc 02 bc
       -0.050433688 0.057436652 0.0044210553 -0.007994823
0001c0 3a cb 49 3d 0e 19 75 3d 10 7b c2 bb d3 2e ae 3d
       0.049266078 0.059838347 -0.0059350803 0.08505025
0001d0 f8 f7 5c bd 82 1b 74 3d 02 e2 43 3d 9d 6d 99 3d
       -0.05394742 0.059596546 0.04782296 0.0749161
0001e0 10 a4 ca bb cf e0 a8 3d 0f 81 92 3d ec 1e 72 bd
       -0.0061841086 0.08246004 0.07153522 -0.05911152
0001f0 03 51 ad 3d a0 f1 8e bd 67 18 b3 3d 24 19 81 bd
       0.084627174 -0.0697968 0.08744889 -0.06303623
000200 e8 15 28 3c c8 6a 94 bd 6e 3e 17 3d 51 ea 46 bd
       0.010259129 -0.072469294 0.036924772 -0.048563305
000210 6c ed 1e bd f5 f5 10 bd 14 42 96 bd 8c 6f 97 bc
       -0.038800642 -0.035390813 -0.07336822 -0.018485807
000220 2a 93 e3 bc 4c fb 8b bd 22 32 38 bd 10 08 01 bd
       -0.027780134 -0.068350405 -0.044969685 -0.03150183
000230 eb c8 b1 3d 56 78 10 3d c0 9f b3 bb a0 a8 ec 3b
       0.086809 0.03527101 -0.00548169 0.00722225
000240 00 19 d0 3c 80 9a 5d 3b cb f2 3f bd e6 fb 92 bd
       0.025402546 0.0033814013 -0.046862405 -0.07176952
000250 9e ef 77 bd 58 bc a5 3c 50 62 df bb e1 d6 60 bd
       -0.06053125 0.02023141 -0.0068171397 -0.054892424
000260 7a 13 52 3d 92 7c 6b 3d a8 23 98 3c 83 8f 90 3d
       0.051288106 0.057491846 0.01857169 0.07058623
000270 88 4e 5f bd 65 c5 41 bd 6e 42 0c 3d 01 d4 a9 3d
       -0.054518253 -0.04730739 0.03424304 0.0829239
000280 18 66 4b 3c bc 02 87 bd 20 08 2b bc 04 90 c0 bc
       0.012414478 -0.065923184 -0.010438949 -0.023506172
000290 41 ea 50 bd 44 b4 f5 bc 18 0b c6 bc a0 2a 58 3c
       -0.051004652 -0.029993184 -0.024175212 0.013193756
0002a0 f8 74 4e bc 71 37 a9 3d 75 e9 4a bd b8 f4 55 3c
       -0.01260113 0.08262528 -0.04953905 0.013058834
0002b0 77 78 8e 3d 60 c7 1b bb 9c 26 a1 bd e0 44 53 bb
       0.069565706 -0.002376996 -0.07868692 -0.0032237098
0002c0 28 f2 04 3d 4c ac 79 bd a2 13 48 3d 40 a2 80 ba
       0.0324575 -0.06095533 0.04884685 -0.0009813979
0002d0 63 c8 61 bd 68 32 33 3c b8 89 2f bd 63 8e b4 3d
       -0.055122744 0.010937311 -0.04285595 0.088162206
0002e0 6c 3a 9c bd d9 1c 72 bd e0 9b 17 3b 18 9e 3e 3c
       -0.076283306 -0.059109543 0.002313368 0.011634372
0002f0 90 97 75 bc 0c 26 e0 bc 8d ff 51 bd fd 11 8a 3d
       -0.014989749 -0.027361892 -0.051269103 0.06741712
000300 81 24 ad 3d fb e4 1c bd c0 67 c7 3a dc 75 a4 bd
       0.08454228 -0.03830431 0.0015213415 -0.080302924
000310 a9 7c 9d 3d b6 13 4a bd 01 b0 35 bd 4d ac 39 bd
       0.07689793 -0.049335204 -0.044357304 -0.045330334
000320 b0 db b9 3c 1c 5a fa 3c 6d 49 98 bd a0 d7 b6 bc
       0.022687763 0.030560546 -0.0743588 -0.022319615
000330 92 81 40 3d 18 9d 53 3c 05 e5 a0 bd 7a 95 44 3d
       0.046998568 0.012915872 -0.07856182 0.047994114
000340 57 e4 94 3d e0 df b0 bb e1 9c b1 3d d6 43 7a 3d
       0.07270115 -0.0053977817 0.086725004 0.06109985
000350 86 a1 91 bd 2e 0e 19 bd 3d 40 a4 3d 92 4a dc bc
       -0.07110886 -0.03736704 0.08020065 -0.026891027
000360 db 2c 9d 3d ea be 83 bd 33 f6 99 3d 70 74 c7 3c
       0.07674571 -0.06432898 0.07517662 0.024347514
000370 57 bd 96 bd 9d a1 a8 bd db f5 87 bd 9b 9d a2 3d
       -0.073603325 -0.0823395 -0.0663869 0.07940217
000380 b0 a4 c7 3c 50 7d e3 3c 02 45 db bc 37 be ab bd
       0.024370521 0.027769715 -0.026766304 -0.0838589
000390 9f 1a 93 3d 40 03 39 bd 58 60 47 bc 40 ed f1 bb
       0.07182812 -0.045169115 -0.012168966 -0.0073830187
0003a0 9f 4d 98 3d b8 41 0d 3d e0 da d1 bb 11 75 9a 3d
       0.0743668 0.034486502 -0.0064042658 0.0754186
0003b0 33 ea 97 3d b8 28 07 bc 93 de 96 3d b4 e1 30 bd
       0.07417717 -0.008249454 0.073666714 -0.043183997
0003c0 1a 85 9f bd d9 84 9b 3d 00 2a 95 bb 60 4d 20 bc
       -0.07789059 0.07593698 -0.004552126 -0.009784073
0003d0 78 26 6c bd 8a d2 1a bd 87 26 3b bd 00 2a 95 3a
       -0.057653874 -0.037798442 -0.04569104 0.0011380315
0003e0 58 dc 98 bd 0a 1e 31 3d e8 b9 9c 3c 90 88 25 bc
       -0.07463902 0.043241538 0.019131616 -0.01010336
0003f0 26 18 71 bd e0 25 a3 bd bf 5e 25 bd f6 70 55 3d
       -0.05886092 -0.079662085 -0.04037356 0.05210968
