checkpoints/models/single_stock_daily/81to9/000001/model10.pth (torch, 292914 bytes, 16 tensors)

encoder.conv1.weight f4 [18, 6, 3]
00000000: 0005 0ebe 171a b6bd 51d6 debd 7bc9 1dbc
00000010: 42d5 2d3e b739 563d e8ef 5cbe d617 5e3e
00000020: 377a 443e 3770 923d 896e e93d bc17 b83d
00000030: feca 423e 98dc 69be c8d7 14be 98c2 26bd
00000040: e03d 61bd 5f12 26be 52dc 6abe 117e 3bbe
00000050: 0c33 16bd e74f 523e 1e14 273e 50bc 983d
00000060: c060 0dbe 4cf1 b0bd 8b70 fd3c 5137 59be
00000070: a229 32bb db5f 643d 2856 603e 8b2d 5ebd
00000080: 257d 743e 2a08 963c 27eb 24be c32d 673e
00000090: 398d 573e e113 3dbe fb8a 0bbe 6177 c73d
000000a0: 5236 27be 4d5c 173e 7f63 05be b807 c1bd
000000b0: a180 a9bd 79c9 543e 26c5 ccbd ba5d 76bd
000000c0: d828 013e b42e 39be c61c 73bc 4160 52be
000000d0: 0184 7cbe 128f a5bd 598c d83c a392 483e
000000e0: 57e9 67be aded 92bd 94bf 6a3d 015f b83d
000000f0: 8960 083e e6a7 47be 0219 69bd 4a42 4d3d
00000100: 0de2 46be dddc f43d f187 6abe 1e83 113e
00000110: a8d4 9e3d f187 9bbd ec7a 843d 2d84 463e
00000120: fc9e 323e 5cd9 123e 786e 08be ddab a43d
00000130: 80ff 433e 4463 603d 5591 2e3e 3ecd 04be
00000140: 9625 393e eede c53b bd4a 48be baa7 3ebd
00000150: 312e 633e 88f5 88bd 3db2 dabc 6eff a4bd
00000160: 1df9 e2bd 58a5 7a3d 1cfe 123e 39d0 da3c
00000170: e25a 66bc 1ee9 433c 5143 37be bd71 ffbd
00000180: b1f1 1f3c 3d94 43be a179 ed3d d229 0b3d
00000190: c0ea 09b8 49f6 81bc 7afe 493e 97da 593e
000001a0: f269 ea3d 4e4a e43d 64aa f6bd 66ef bb3d
000001b0: 9a6b 26be c3d0 cb3d 5a37 29be 151a fc3b
000001c0: db00 3a3e 5273 2b3e 9318 603e 0747 be3d
000001d0: 6a51 d53d b422 963d d9a3 3c3e 6a35 0b3e
000001e0: 0706 a23d 94e2 90bd acd4 d1bd 476f 5dbd
000001f0: 5e71 f53d 47a6 f0bd 58c9 8b3d e304 563e
00000200: 8222 4b3e d13c 39be a5b8 6f3d 7389 153e
00000210: 7ae8 63be 210e 103e bd0e 20be ccfd 36be
00000220: a881 e0bd 3f5d c8bd 1f86 d7bd b663 703d
00000230: e05b a93d 558c b93d 4023 233e c740 1ebe
00000240: 223e 61be fb8f 40be d2bd 03be c9fa eabd
00000250: deac c33d 84e9 34be 256d 38be f2f4 ef3d
00000260: 07c0 20be b876 163d bef3 40be 6a79 aa3d
00000270: 8a38 0f3e dfd3 53be bda3 963d 7d93 e8bd
00000280: 2a77 203e e11a 603e 657f 4bbe 25be b53d
00000290: fb5f 213e 93bd 583e 47fe 323e aba8 293d
000002a0: c3d7 2c3c 363f 373d 7bb5 15be 32b4 49bd
000002b0: b9d0 eebb fa55 1ebe 0ebd 5bbc 9ecd 0ebd
000002c0: 31e3 b3bd 9796 9cbd 32ca 74be 21d1 5f3e
000002d0: 4401 f43d d7ff 343e f8dc 46be 5540 64be
000002e0: 2fbf 3c3e 575e 10bd cffd 3a3d d08a 033e
000002f0: b39a b53c cbde 653a 5ca7 193e 58e1 473e
00000300: e4a2 6bbd a56d 44be 1f94 fbbd 675b 463e
00000310: 389e 463d d5a4 693e 93b5 9dbd 5977 62be
00000320: e501 9c3d bae0 dcbd 8ed3 18be 8e7b 113e
00000330: 31ab 093c 1730 efbc 638a 653e c637 4a3e
00000340: 8346 4ebe 5941 63be d56f febd e645 44be
00000350: 081e 04be f96f 263e 3783 1fbe 3e98 5f3e
00000360: 4229 893d 7563 b13b 8513 113d 6715 493d
00000370: 8a4f 9d3d 3e75 43be f6c3 51bb 55d3 223e
00000380: 7c4c 723e f068 46bc be48 2abe d3c0 e13d
00000390: 009f 5cbe e70c 593e d714 163e 8244 db3d
000003a0: 77fc 0f3d 17d2 323e 94c1 bfbd f403 47be
000003b0: e3de 03be 75ba 323e 72f3 f3bd da55 42be
000003c0: 7355 4e3d b3b2 17be d862 49bc 6a46 1abe
000003d0: 74ba 453d 3f37 26bd 534d f53c 63d0 db3d
000003e0: 42a1 1dbe 48f9 9fbd a8f9 1ebe ea49 4a3e
000003f0: 0156 a5bd b52d b13d e8ab 483d 9d24 82be
-0.13869095 -0.08891695 -0.10880721 -0.009630556 0.16975883 0.052301135 -0.21575892 0.2168878
0.19187246 0.071503095 0.11398036 0.08988902 0.19022748 -0.22838056 -0.14535439 -0.040712923
-0.05499065 -0.16217946 -0.22935608 -0.1830981 -0.036669776 0.20538293 0.16316268 0.07457793
-0.13806438 -0.08639774 0.030937454 -0.21212508 -0.002718546 0.055755477 0.21907866 -0.054242652
0.23875864 0.01831444 -0.16105329 0.2257605 0.21049966 -0.18464614 -0.13627236 0.097395666
-0.16329315 0.14781304 -0.13026236 -0.094253 -0.08276487 0.2077998 -0.099985406 -0.06014798
0.12613237 -0.18084222 -0.014838403 -0.2054453 -0.2465973 -0.08083929 0.02643411 0.19587187
-0.22647606 -0.07174239 0.05731161 0.090024956 0.13318075 -0.19497642 -0.056908615 0.050112046
-0.19422169 0.11956189 -0.2290342 0.14210173 0.07755405 -0.07594288 0.06468758 0.19386359
0.1744346 0.14340729 -0.1332339 0.08040593 0.19140434 0.054782167 0.17047627 -0.12968919
0.18080744 0.006038538 -0.1955976 -0.046546675 0.2218559 -0.06687456 -0.026696319 -0.08056532
-0.11082671 0.06119284 0.14354748 0.026710616 -0.014059754 0.011957435 -0.17896773 -0.12472866
0.009762214 -0.19099517 0.115954645 0.03397543 -3.2881973e-05 -0.015864508 0.19725981 0.21274792
0.11445989 0.11146985 -0.12044218 0.09176521 -0.16251984 0.099519275 -0.16525021 0.007693539
0.18164389 0.1674321 0.21884374 0.09290891 0.10415919 0.07330838 0.18421878 0.13594595
0.07911306 -0.07074466 -0.10245642 -0.0540612 0.11984514 -0.11750465 0.06825513 0.20900302
0.19837382 -0.18089606 0.0585257 0.14603214 -0.22256652 0.1406789 -0.15630622 -0.17870253
-0.1096223 -0.0978341 -0.105236284 0.05868884 0.08269477 0.09059969 0.15931416 -0.15454398
-0.21996358 -0.18804924 -0.1286538 -0.11473615 0.09554456 -0.17667204 -0.18010385 0.117166415
-0.15698253 0.036734313 -0.1884298 0.08323939 0.13986412 -0.20686291 0.07355449 -0.11356256
0.15670457 0.21885253 -0.19872816 0.08874158 0.1575927 0.21166067 0.17479812 0.04142062
0.0105494885 0.044738017 -0.1462001 -0.049244113 -0.0072880653 -0.15462485 -0.013411773 -0.03486406
-0.08783568 -0.0764591 -0.23905256 0.2185712 0.11914304 0.1767572 -0.1942023 -0.22290166
0.18432306 -0.03524622 0.045652207 0.12845922 0.022168493 0.00087688555 0.15005249 0.19519556
-0.05752839 -0.19182451 -0.12284111 0.19370805 0.048490733 0.22816785 -0.07700648 -0.2211584
0.07617549 -0.10785051 -0.14924452 0.14207289 0.008402632 -0.029197736 0.22416072 0.19747838
-0.20144086 -0.22192897 -0.12423674 -0.19167289 -0.12902081 0.16253652 -0.15577398 0.2183542
0.066973224 0.0054134675 0.035419006 0.049092676 0.076811865 -0.19087693 -0.003200767 0.1590093
0.23661989 -0.01210998 -0.16629311 0.110231064 -0.21545029 0.21196328 0.14656387 0.10706426
0.03515288 0.17462955 -0.09363094 -0.19435102 -0.12877993 0.1745394 -0.11911668 -0.18978062
0.05037446 -0.14814262 -0.012291633 -0.15065923 0.04827352 -0.04058003 0.029944098 0.10733106
-0.15393546 -0.078112185 -0.15524924 0.19754758 -0.080730446 0.08651296 0.048992068 -0.2541856

encoder.conv1.bias f4 [18]
00000000: 0ba0 4c3e c554 5d3d ab06 2dbe 8420 2a3e
00000010: ad28 1fbd 96f8 833c 5fad ce3c 327a b6bc
00000020: cdad 693e 39ca d13d 7867 543d 13ad a3bd
00000030: 3f89 453d bffd 2dbe 2383 8fbd c420 ec3d
00000040: 180e 6ebe acec bcbb
0.19982927 0.05403592 -0.16897075 0.16613966 -0.03885715 0.016109746 0.025229154 -0.022275064
0.22820206 0.10243649 0.051856488 -0.07991996 0.04822659 -0.16991328 -0.07007434 0.11529687
-0.23247564 -0.005765518

encoder.conv2.weight f4 [54, 18, 3]
00000000: a98f 4fbd de70 8d3d 9901 afbd 9021 453c
00000010: 0bc0 49bd 370a d63d 2704 babc 6d1f d0bd
00000020: 7c53 35bd d8de c83d 1f9a 603d 9634 013d
00000030: 0287 b33d 5e80 613d 079c 6fbc a897 8fbd
00000040: 8492 03be 1311 8a3d 7076 d53d da0e 5ebd
00000050: 1ec1 81bd 1998 f53c 8562 b7bb 26ea e23d
00000060: 75f9 95bb ecf8 b8bb 4b78 03be 736e 383d
00000070: 35a7 5d3b 4b0b 0f3d 0803 af3d bbb0 753d
00000080: fac4 fb3a bc27 4bbc cddc 8fbd 3bc8 f83d
00000090: 1402 ea3d 744d bd39 4a1c 0c3e 8f54 f03d
000000a0: aedc 9b3d 45ea 8a3d b6e7 533d 0527 cfbc
000000b0: 330c 413c 4d06 e83d 8eab a9bc 8a8f 363d
000000c0: 188d 3ebd b34d 9d3c b988 9b3d c525 aa3d
000000d0: c644 863d 1db1 813d 6432 35bd 3f6e e93d
000000e0: ad40 b73d 1bfe ee3d 72cf d7bd 1d4e 6abd
000000f0: d7d5 e3bd 1474 773c b69a d53d 5fdf b9bd
00000100: a309 1b3d d8e9 06bb d818 11be 3f75 9dbc
00000110: 2582 c0bc 111c 94bd 80e3 b5bd bf3c a13d
00000120: 55bf fbbc 2f8c 31bd abea 32bd 5c6a 06bc
00000130: 1859 f3bc 4b6d a2bd f08e a03d 7879 783c
00000140: 536d e8bd f196 96bd 99b2 1fbd 02df 73bd
00000150: a9c0 073d e4c1 013e 9f33 c3bd 3b5a e63b
00000160: 484e 043e 7f1d 97bd ce0b e6bd 23b8 0a3d
00000170: 9ea6 caba 39f2 843b 8cd8 b73d c4f6 e8bd
00000180: 137a 8dbd 4923 db3d dc8d b7bd d8ad b0bc
00000190: 2bf5 6c3d 415f 9cbd 4097 d2bd 591c a4bd
000001a0: aa41 c8bd 7568 debd bbc5 9bbc 0125 01be
000001b0: 4584 a4bd 500b 453c 4a29 033e 1fd0 0d3e
000001c0: 6737 e63d dcdc 5e3c 932a ae3d d8bf 2cbd
000001d0: d890 b1bd 44d0 893d 4335 563d 6f1f 403d
000001e0: 4636 853d 70d2 03bd ab27 cf3d 33f1 973d
000001f0: d5aa 72bd 4fe9 cb3d 90a3 563d 1c79 fc3b
00000200: 9d73 523b ea25 e93d e8b2 f13a 437f 3d3d
00000210: cf94 c63d f5c0 963b 2efe f93d e1ae a2bd
00000220: d824 44bc 3a22 463c de84 cb3b 8b53 ccbd
00000230: 2083 033e dba5 9ebd 53d5 c53d 4bda 61bd
00000240: db7b 5e3d 6940 9abd f4fb 75bd 6520 113d
00000250: d90f bf3d d173 33bc 8b34 4c3d 28a8 9dbd
00000260: cc04 2d3d d71b 7dbc af38 fdbc cf66 883d
00000270: 309c 3abd 05bb a9bd 6f07 1fbd 5048 8a3d
00000280: a45f 053e a282 fd3d 8716 e03d f7a9 90bd
00000290: 3614 063e 026e ad3d 11ab 063d c56e 8dbd
000002a0: 0c7f 96bd f498 f93c 3614 3ebc 0a00 3abd
000002b0: c89b e0bd eb42 e53d b1c6 6b3d 47ec 093d
000002c0: 6468 af3c 449d a73d 4dee 9cbd 8570 3ebb
000002d0: 171f 113e 68ef 4b3b 342c d1bd 4c47 d4bd
000002e0: 5ab9 833d eca0 6a3d 7dfa 8b3d 5271 94bd
000002f0: 4f5e 9dbd d587 f3bd 79ae ab3c 9a58 cbbc
00000300: 0253 023e 59a4 70bd ddf0 b4bd 7b01 3a3d
00000310: 1b9d 83bd 1834 a6bc 8093 153e ec98 b93d
00000320: b22f 08be e050 af39 cc67 0cba 3b23 063e
00000330: ff32 05be 55ee 8e3d 205d 0fbe 7591 06be
00000340: 863c 81bd 04e1 03be 8a77 ecbb 1c12 e83d
00000350: 22d8 14bd 453b ecbd dce4 8ebc cc0e e7bd
00000360: 1669 b53d 87e6 893c 21e8 f43d 899d a63c
00000370: 3428 0a3d 29fd 0b3d 1c08 013e 96ef acbd
00000380: e75a acbd 5aa4 df3d 43e3 5d3d efb8 033e
00000390: e09d ea3c 50d2 3b3d f952 ab3d 326d b33d
000003a0: ada5 983d a51e d8bd dcf4 fd3c e0bd d0bd
000003b0: 151d 593c 9258 c23d cbab e3bc 846d 053e
000003c0: f5e7 023e 5221 3d3d 52b1 c4bd e588 a83b
000003d0: 18fc d53d 64a2 cb3c ecbe f43d d886 173c
000003e0: 550a 7ebd 434b b83d 8026 453d 1212 9b3d
000003f0: 8d5d acbd a48e d5bd 2382 bb3d 7080 433d
-0.050674114 0.06906293 -0.085452266 0.012031928 -0.049255412 0.10451167 -0.022707058 -0.10162244
-0.04426907 0.09808129 0.05483448 0.03154429 0.08765985 0.05505406 -0.014624602 -0.07011348
-0.1284886 0.06741538 0.10422981 -0.054213382 -0.06335662 0.029979752 -0.0055964612 0.110798165
-0.0045768567 -0.005644908 -0.12838857 0.045027208 0.0033821587 0.03492288 0.085455 0.059982996
0.0019208484 -0.01239961 -0.07024536 0.12147566 0.114261776 0.00036106596 0.13682666 0.11734878
0.07610451 0.067829646 0.05173465 -0.02528716 0.011782694 0.11329327 -0.020711686 0.044570483
-0.046521276 0.019202089 0.07594437 0.08307985 0.06556086 0.0633261 -0.04423751 0.11397981
0.08947883 0.116695605 -0.10537614 -0.0572034 -0.11124771 0.015103359 0.104298994 -0.09075808
0.037850987 -0.002058616 -0.14169633 -0.019220946 -0.023499558 -0.07231916 -0.08881283 0.078729145
-0.030730883 -0.04334658 -0.043680828 -0.008204069 -0.02970557 -0.07931002 0.07839763 0.015165679
-0.11348977 -0.073530085 -0.038988683 -0.05953885 0.03314272 0.1267162 -0.0953133 0.0070297993
0.12920487 -0.07378673 -0.1123272 0.033867013 -0.0015461033 0.0040571955 0.0897685 -0.11375192
-0.069080494 0.107000895 -0.089626044 -0.02156727 0.057850998 -0.07635356 -0.10282755 -0.080132194
-0.097781494 -0.10859767 -0.019015184 -0.12611772 -0.08033041 0.012026623 0.1280872 0.13848923
0.11241036 0.013602462 0.08504214 -0.042175144 -0.08670205 0.06729177 0.052296888 0.046904977
0.065044925 -0.03218311 0.10114988 0.07419052 -0.05924495 0.099566095 0.05240208 0.007704867
0.0032112368 0.11384185 0.0018440159 0.046263944 0.09696352 0.004600639 0.12206684 -0.07943512
-0.011971675 0.012093121 0.0062109074 -0.09976872 0.12842989 -0.07746478 0.09659829 -0.05513982
0.054317337 -0.075318165 -0.060054734 0.035431284 0.093291946 -0.010952906 0.049854796 -0.07698089
0.042240903 -0.015448532 -0.030910818 0.06660234 -0.04555911 -0.08287624 -0.03882545 0.06752074
0.13024765 0.12378432 0.10941797 -0.07063668 0.13093647 0.08468248 0.032877985 -0.06905893
-0.07348451 0.030468442 -0.011601498 -0.045410194 -0.10967213 0.11194404 0.057562534 0.033672597
0.021412082 0.08184293 -0.0766264 -0.0029058766 0.14172016 0.003111804 -0.10213509 -0.10365161
0.064318374 0.057282373 0.06834886 -0.07248177 -0.076840036 -0.11891142 0.020957218 -0.024822522
0.12726977 -0.058750484 -0.088350035 0.045411568 -0.0642645 -0.020288512 0.14607048 0.09062371
-0.13299444 0.00033438858 -0.0005356043 0.13099377 -0.13007735 0.06979052 -0.14000368 -0.13141425
-0.06310372 -0.12878805 -0.0072163986 0.11331579 -0.036338933 -0.11534742 -0.017443113 -0.11282119
0.08857934 0.016833557 0.119583376 0.02033879 0.033729747 0.03417698 0.1260075 -0.08444135
-0.08415776 0.109200194 0.05417181 0.12863515 0.028639734 0.045854867 0.08365435 0.08761062
0.07453475 -0.1055272 0.031000547 -0.10192466 0.013251563 0.0948955 -0.027791878 0.13030058
0.12783797 0.046174355 -0.09604134 0.005143272 0.10448474 0.024857707 0.11950478 0.009248458
-0.062021572 0.0899873 0.04813242 0.07571806 -0.08416281 -0.10427597 0.09155681 0.04772991

encoder.conv2.bias f4 [54]
00000000: a683 f23d c554 c1bc 8f88 05be e36d 6bbd
00000010: fdc1 98bd 565f d33d 48d3 c7bd 28be db3d
00000020: fff5 5a3d 4931 52bc 0724 ebbc 89e5 993d
00000030: f8c7 a0bd 3e45 5bbd 5178 ff3d 62b1 2abd
00000040: 837c 413c 1ae1 e13d b2bc eabd 1b54 c33c
00000050: 256e bd3a 568e a1bd 79aa dc3d 8119 c73d
00000060: 7b32 30bc 493b 5fbc 98e1 b63d a8ea 30bd
00000070: 6844 9a3d 2dbe bcbd 1e8c e9bd ed4e bd3d
00000080: 2878 bf3d 8c5b e6bd a157 0ebd 15e2 7c3d
00000090: d9a7 933d 089c b13d a395 c83d 10ac 72bd
000000a0: 4011 e93c f38a f43d 0de6 e2bd bd44 b13d
000000b0: c145 143d 95e3 e23b 468d 093e 7e71 66bd
000000c0: e056 1bbd 501b cebd 944f f03d e321 c9bd
000000d0: d9e2 fd3d da9a c6bd
0.11841516 -0.023599992 -0.13040374 -0.057477843 -0.07458875 0.10320918 -0.097570956 0.10729629
0.053457256 -0.012829133 -0.028703703 0.075144835 -0.07850641 -0.05353283 0.124741204 -0.04167307
0.011809471 0.11029263 -0.11461772 0.023843816 0.0014452381 -0.078884766 0.107747026 0.09721661
-0.010754223 -0.0136249745 0.08929747 -0.043192536 0.07532579 -0.09215961 -0.11403678 0.092435695
0.0934909 -0.1124793 -0.03475154 0.061739046 0.07209749 0.08672339 0.09794166 -0.059246123
0.028450608 0.11940565 -0.11079035 0.08655689 0.036199335 0.0069241025 0.13432798 -0.05626058
-0.037924647 -0.10063803 0.11733928 -0.098209165 0.123967834 -0.09697504

encoder.rnn.weight_ih_l0 f4 [192, 54]
00000000: 131f 993d f21e 7ebd 24cf dd3d 0271 b2bd
00000010: 23c5 a2bd cc98 09bd 1cfa c5bd b8c1 f63d
00000020: a272 363d a383 97bd e04d c7bd 2101 febc
00000030: fc52 513c 8b67 8cbd a1fd a83d f5d8 7dbd
00000040: 685b ff3c 9555 bd3d 5ff9 c1bd 7cbb cbbd
00000050: 3877 f5bd 497c 903c bacf d03d e91e 97bd
00000060: 3c8c 8ebc 0a44 963d 9f80 f13d c9de 943d
00000070: cf58 393d cac3 a63c 676e 04bb 1adf e03d
00000080: ab07 ddbb 6c20 3a3d 8568 17bc a67c f93d
00000090: 553d 03be 0a38 20bd ad1d e7bd 1cac ef3c
000000a0: ad89 e9bc 97c2 b3bd 8709 c6bd 2915 1a3d
000000b0: 245b c93d ea60 de3d 21eb b13d 7e20 cdbd
000000c0: b49d d33d 9f87 f23d fb91 033c 68b8 f8bd
000000d0: 2b62 bebd 43bb d9bd 7808 413c c471 d13d
000000e0: fc1f b13d 0349 6cbd d733 71bd cc07 d83c
000000f0: 54b2 27bd 7cee 88bc 7905 fc3c 7b0c 36bd
00000100: e68a 443d b3bc 72bc 743c eb3d 4aeb d7bd
00000110: e63f dd3d 0ffa b13d ff5f e6bd 3332 c83c
00000120: 2113 c4bc 6515 643d 849b d83d 7566 93bd
00000130: 11de 97bd 72c6 aabd f1df ad3d aa69 d2bd
00000140: fca4 28bd 4e78 ec3d 06b1 7f3d 198f b63d
00000150: 7565 d83d 9fe5 e7bd 30d3 30bd 7d7d a2bb
00000160: 2ec3 bd3d 0994 a7bc 6a65 193c d887 a13d
00000170: 2f9c 823d f5dc 9abd c85b ebbd 5212 36bd
00000180: a70e 3e3d 5788 eb3d caee 5f3d 7fa2 8e3d
00000190: 7b1b 023d 2bb4 ddbc d26c 89bc faf7 e13d
000001a0: e26d aa3c 31f6 f43c 89c4 9e3d 34e0 b83d
000001b0: 7eba fe3c 1e23 91bc 9197 52bd 6c3a 8abd
000001c0: ef69 88bd 0540 c93d d460 ae3d 2cd8 93bd
000001d0: d6f2 d83d 5631 b4bc 0e60 cfbc 0046 f23c
000001e0: d9ad babd e861 82bd 5a33 e4bc 3ade 21bd
000001f0: f836 973d 848e 11bd 80d9 b7bd 2a69 c8bd
00000200: e6c8 f73d faa4 8f3d b3b5 05be a817 e9bd
00000210: f6e4 a5bd b7f8 f73d 1b1f 313d f816 313d
00000220: 7550 813d f631 c93c 6ef7 d73d 0cec d8bd
00000230: cb05 013e 83ae 7c3d f716 273d 8bf6 6c3d
00000240: 977b c1bc b18c 79bd 35a1 4cbd 910f bdbd
00000250: 7c2d a33a dc4f 433d 8ce1 cd3c 05db 15bc
00000260: b872 1a3d 16b3 efbd 50ae abbd db4f f9bd
00000270: 0d37 013e a3a5 e4bd d9e5 623d 9219 bd3d
00000280: 6fe5 07bd 4f9c 85bc 2ef0 d33d 6224 cfbd
00000290: 443a ffbd 88d3 9ebc 43af 76bc fbff 51bd
000002a0: 9c42 e63b f4ce 873d c9af 893d 1427 143d
000002b0: 0724 b13d ac77 6dbd 4a71 113c d47a 783d
000002c0: 76fc 283d 2d42 3abd cec9 ce3d 447d c2bd
000002d0: 19bb 6fbd 5b98 f5bd b8d8 4d3c 650c c4bd
000002e0: 0d34 b73d fc63 aabd 1873 063d f047 e23d
000002f0: b7be e13d 13d1 453d bd2e 383d 1f13 b73c
00000300: 85ef 8f3d 8693 1bbc 1fe2 aebd 76d2 dd3d
00000310: aba5 bebd 19bd e33d 1a4f 9d3b e330 683d
00000320: 6d3c 703b f98a 5a3d 2f57 ad3d 797a f4bd
00000330: e43c 913d 03ef 2bbd 559f e3bd a916 cbbd
00000340: 66ce 383c 88c4 bc3d 4bd6 f3bd 5143 133d
00000350: d92e 4e3d 9190 edbd 2b21 fa3c 9e0e 71bd
00000360: 440c bd3c dcbf 3abd f954 cd3d a2ab f0bd
00000370: e658 8b3d 4cfa 37bd 2a2d f93c d68f 513c
00000380: faea ebbd 59db 80bd c34e fd3a bc37 b93b
00000390: 60ae 86bd 7230 9d3d 6139 68bd 3134 8bbd
000003a0: e844 4f3d 4290 33bc ff96 1e3d 2dd4 9f3d
000003b0: dd8e 57bd 2bfb 133d 06f2 d33d 2fd5 a83c
000003c0: f4fd dd3d a741 533d fadf bd3d 0532 d73d
000003d0: 682f 9e3d b2bb 063d e779 6f3d f867 9c3d
000003e0: 775d 723c becf 873c 1f84 3cbd 26c6 e2bb
000003f0: f36a 6d3d 781c 38bc f5e8 14bd 3aae f63c
0.0747663 -0.06204123 0.108305246 -0.08712961 -0.07947757 -0.033592984 -0.09666845 0.12048668
0.044542916 -0.073981546 -0.0973165 -0.031006398 0.012776133 -0.06855687 0.08251501 -0.061974484
0.031171516 0.09244839 -0.09471392 -0.09947869 -0.1198563 0.017637389 0.10195871 -0.073789425
-0.017400853 0.07337196 0.11792111 0.072690554 0.04525071 0.020357031 -0.0020207406 0.10980053
-0.006745299 0.045441076 -0.009241228 0.12181978 -0.12816365 -0.039115943 -0.11284957 0.029256873
-0.028508032 -0.087773494 -0.09669786 0.037617836 0.09831837 0.10858329 0.086874254 -0.10015963
0.10332814 0.11842274 0.00803041 -0.12144548 -0.09296068 -0.106314205 0.011781804 0.10226777
0.08648679 -0.057686817 -0.05888733 0.026370905 -0.04094155 -0.01671528 0.030764328 -0.044445496
0.047984026 -0.014815497 0.1148614 -0.10542925 0.10803203 0.08690273 -0.112487786 0.024438
-0.023934903 0.055684466 0.10576537 -0.071972765 -0.07415403 -0.08338632 0.08489979 -0.1027406
-0.041172966 0.11546384 0.062424682 0.089140125 0.105662264 -0.113230936 -0.043170154 -0.004958807
0.09265743 -0.02045633 0.009362558 0.07887238 0.06377446 -0.075616755 -0.11492115 -0.044451065
0.046400692 0.11500614 0.054671086 0.069645874 0.03176449 -0.02706345 -0.016775522 0.11033626
0.02080435 0.02990255 0.0775233 0.09027138 0.031094786 -0.01771694 -0.051414076 -0.06749424
-0.0666083 0.09826664 0.08514562 -0.07218966 0.10593192 -0.021996181 -0.025314357 0.029574394
-0.0911519 -0.063663304 -0.027856518 -0.039518572 0.07383531 -0.035536304 -0.08977032 -0.097856835
0.12098865 0.07013889 -0.13057594 -0.11381465 -0.081003115 0.121079855 0.043242555 0.043234795
0.06314174 0.024559956 0.1054524 -0.10591897 0.12599866 0.061689865 0.040793385 0.05785231
-0.023618503 -0.06092519 -0.049958427 -0.09231485 0.0012449468 0.04768358 0.025131963 -0.009146457
0.03770706 -0.1170408 -0.08382857 -0.12173434 0.12618656 -0.11164405 0.05539498 0.09233393
-0.03317779 -0.016309885 0.10348545 -0.10114361 -0.12462285 -0.019387975 -0.015056434 -0.051269513
0.0070269834 0.0663127 0.067229815 0.03617008 0.0864945 -0.057975456 0.008877108 0.060664013
0.04125639 -0.045473266 0.10097085 -0.09496549 -0.05852804 -0.1199195 0.012563877 -0.095726766
0.08945475 -0.08319852 0.032824606 0.11048877 0.11022704 0.04829509 0.044966448 0.022347985
0.070281066 -0.009495622 -0.08539223 0.10831158 -0.093089424 0.11120052 0.0048006894 0.056687247
0.003665711 0.05335519 0.084638946 -0.11937422 0.07091692 -0.041975986 -0.111143745 -0.099164315
0.011279678 0.09217173 -0.119061075 0.03595287 0.050337646 -0.115998395 0.030533394 -0.05885183
0.023077138 -0.045593128 0.10025973 -0.11751486 0.068040654 -0.044916436 0.030417044 0.012790641
-0.115194276 -0.06291837 0.0019325841 0.005652396 -0.06576228 0.07675256 -0.056695346 -0.06797064
0.050602823 -0.010959687 0.03871822 0.07804141 -0.05262648 0.036128204 0.10348897 0.020609466
0.10839453 0.051576283 0.09271236 0.10507587 0.07723886 0.032893844 0.058465865 0.07637018
0.014792792 0.016578551 -0.046024438 -0.006920594 0.057963323 -0.011237256 -0.036354978 0.030112375

encoder.rnn.weight_hh_l0 f4 [192, 64]
00000000: 62e0 2cbc 6b00 753d 8f3e 64bd da5e b33a
00000010: ac27 38bd 7c6f aabd 73cc 9a3d 8287 bf3d
00000020: 3d73 5d3d a8bf 013e 8733 423d 643b d83d
00000030: 2adb 0bbd bca0 ad3d 7728 f93c 0aee beba
00000040: ee7a dc3d a75a c5bd 0c10 21bb e8a3 64bd
00000050: f917 ef3d b1ed debb 2f60 383d 2943 b53d
00000060: 7a43 863d b6a0 52bd a1e2 f93a 8e94 a83d
00000070: bd53 71bd 0b58 3e3c 0d1a b8bd 79f3 113d
00000080: 742e b73d 242d d43c f446 843c b467 cf3d
00000090: 5b88 bf3b 1252 51bd eabf c03d e417 babd
000000a0: 1735 7d3d 56b9 aa3d 6f31 90ba 350b f7bd
000000b0: 83b7 723d fda2 a83d fe07 99bb 9875 b23d
000000c0: 584b 4e3d 8a91 e93c 9c74 e63d 07db 6dbd
000000d0: d0e7 c23c d3c8 c5bd 2722 e23d 66e4 203d
000000e0: 331c ed3d 55dc cdbd 86de dd3d 3d94 b73d
000000f0: 53f4 d93d df94 6abd fa67 c5bd 7f0b a8bc
00000100: 34df d23d a4d1 fd3d 2a8a cfbb 9ec5 043c
00000110: 977e 8cbc 23e5 6abc 7d8d c53c ff65 573d
00000120: 9e25 c1bc 1292 c6bd 57b2 f5bb c79e 813d
00000130: 221e e2bd ba9c d53d 5715 513d b48f 853d
00000140: b16c 7a3d 0fcd a93d 737e d73d 3526 78bd
00000150: 9b0c d53c 763e 983d 4e53 ecbd 26f4 9e3d
00000160: 34d7 f4bd 7fcc 9cbd 6404 8bbd 9fa7 b9bd
00000170: 8e1d b4bd 92f3 8e3d b677 e1bd f6f8 80bd
00000180: f741 f9bd c2f2 50bd 087e ba3b 47de 403d
00000190: e6d1 8abd 83b3 ba3c e622 8c3d bb0a e23d
000001a0: 7302 e9bc 9aa1 b7bd 1d6d ac3d b405 1bbd
000001b0: 366e fdbd 4718 4dbd 245b abbc ac09 e83c
000001c0: 3ef3 b43d 55ab 953d 7b81 46bd 5fe2 c33d
000001d0: 6ea3 203d 3e32 1c3d 3b39 c6bd a276 febc
000001e0: e347 1c3d 2642 2fbd 612c 423d 1640 753d
000001f0: 88ea b9bd d9e4 d73d e2fa 2f3c 3dd2 81bc
00000200: 731a 73bb e8f9 07bb cc24 4bbc 52fb 2fbd
00000210: 7d55 803c ebcb 19bd fbb7 d63d c11e 32bd
00000220: ae0c e2bd 4c4e f23d 91c8 b23d 2ebf b8bd
00000230: 5fa2 dd3d b51c bfbd 40bf 73bd 0f4e 7ebd
00000240: 0722 293c a355 063d 4cdc 60bd c237 34bd
00000250: 5d61 80bd c7c0 be3d 0417 823d d304 4f3c
00000260: 659d 54ba 6203 4d3c 1fc4 d4bc e476 80bd
00000270: e3bc fa3d 36d8 55bd b129 acbd dbe1 a0bc
00000280: 73cd 063d 3f92 04be 3707 203d 5ca6 d7ba
00000290: a4b1 7fbd a1d4 123c a9a7 783c 305b fdbd
000002a0: 4810 563d 12a5 323d 4429 92bd c30b ff3c
000002b0: 9a3b 92bd 4882 b23d 3e95 4fbd a5be 183d
000002c0: baa9 1c3d 0bd5 33bc b416 83bd 7bd5 613d
000002d0: 0383 d43c e954 5dbd f726 aebc 8dfc 553d
000002e0: 04b5 e5bd 4422 4c3c 961c d43c 1b67 01be
000002f0: 3198 983c 6306 afbd 555f f4bd dcaa df3d
00000300: baf3 823d d3fa b63d 2741 e43d 90bd 8bbd
00000310: 7528 5dbd 4b15 cbb9 c832 543d 3977 233c
00000320: bd71 36bc ab2a fe3d c567 63bd f22d 673d
00000330: 2f95 323d 763d 71bd 836b 943d 6c22 af3d
00000340: 5c7a cfbc 41be afbd 0467 9d3d d428 c13d
00000350: 5b8a 693d 3e6b 2e3c c7f1 813d e1c5 1c3d
00000360: 79c8 1cbd 9105 bcbd 05ca 5dbd 2839 363d
00000370: 5ffe 59bd 2c92 403d ecc5 82bd 4497 c8bd
00000380: d776 b53d 6de5 95bd 4bfe 1e3d e986 d73d
00000390: 22d0 043c 4ba5 9d3d 9c50 04bd 9f31 dcbd
000003a0: 56dd 70bd 1747 19bd c05b 91bd d166 9bbd
000003b0: b5f2 5c3d d489 e83d d236 a33d e4be 303d
000003c0: 2fe9 ccbd 2a3d afbc cdae 3e3d 9fc9 e13d
000003d0: 0774 7dbd caa8 963d 4f6d 943d affa eebc
000003e0: e9dc e9bd efe9 703d 4cb1 7b3d a0a1 d5bd
000003f0: 94cb bd3d f541 2dbc 95e1 bdbd 5b99 2d3c
-0.010551544 0.05981485 -0.055723723 0.0013684884 -0.04495971 -0.08322045 0.07558527 0.09352018
0.054064978 0.12670767 0.04741242 0.10558203 -0.034144558 0.08477923 0.030414803 -0.0014566791
0.107656345 -0.09636431 -0.0024576215 -0.055820376 0.11674494 -0.0068032374 0.045013603 0.088507004
0.06555839 -0.051422797 0.0019064733 0.082314596 -0.05891775 0.011617671 -0.08989344 0.035632584
0.08944407 0.025900431 0.016147114 0.10127202 0.0058451123 -0.05110366 0.09411605 -0.09086588
0.06181821 0.08336131 -0.001100106 -0.120626844 0.05925704 0.082342125 -0.004670142 0.087138355
0.050364822 0.028511781 0.1125271 -0.05807021 0.023792177 -0.09657445 0.1104167 0.039280318
0.11577644 -0.100517906 0.108334586 0.08963821 0.10642304 -0.05727088 -0.096389726 -0.020513294
0.10296479 0.123935014 -0.006333609 0.008103756 -0.017150206 -0.014336857 0.024115318 0.052587505
-0.023577508 -0.096958295 -0.0074980664 0.063291125 -0.11040904 0.10430284 0.051045742 0.0652155
0.061138812 0.08291065 0.10522165 -0.060583312 0.026006987 0.074337885 -0.115393266 0.07761411
-0.11955109 -0.07656192 -0.06787947 -0.09065174 -0.087946996 0.06980051 -0.11009161 -0.062974855
-0.12170785 -0.051012762 0.0056912936 0.04708698 -0.06778316 0.022790676 0.06842594 0.11037203
-0.02844355 -0.0896637 0.08419249 -0.037847236 -0.12374537 -0.05007198 -0.020917483 0.028324924
0.08835457 0.073080696 -0.048463326 0.09564661 0.03921836 0.038133852 -0.096788846 -0.031062428
0.038154494 -0.042787693 0.047405604 0.05987557 -0.090779364 0.10541696 0.0107409675 -0.01584732
-0.0037094622 -0.002074832 -0.01239891 -0.042964287 0.015665764 -0.037547987 0.1048431 -0.04348636
-0.11037575 0.1183134 0.08729661 -0.0902084 0.108219855 -0.09331647 -0.059508562 -0.06208616
0.010323054 0.032796513 -0.05489759 -0.043998487 -0.062685706 0.09314113 0.06352046 0.0126354275
-0.0008110612 0.012513014 -0.025972424 -0.062726766 0.122430585 -0.052208148 -0.084063895 -0.019638946
0.032910775 -0.12946413 0.03906938 -0.0016452777 -0.06242527 0.0089618275 0.015176692 -0.12370908
0.05226162 0.043614455 -0.07136777 0.031133538 -0.07140274 0.087162554 -0.050679438 0.037291188
0.0382478 -0.010976086 -0.06400815 0.05513523 0.025941378 -0.054036055 -0.021258814 0.052242804
-0.112161666 0.012459341 0.025892537 -0.12636988 0.018627258 -0.0854614 -0.11932246 0.10921261
0.063941434 0.0893456 0.11145239 -0.068232656 -0.05399366 -0.00038735042 0.05180624 0.009977155
-0.011135516 0.12410482 -0.055518884 0.0564403 0.043599304 -0.058896504 0.07247069 0.08551487
-0.0253269 -0.0858121 0.07685664 0.094316155 0.05701671 0.010645686 0.063449435 0.03827465
-0.038277123 -0.09180749 -0.05414774 0.044488102 -0.053221103 0.0470144 -0.06385407 -0.09794477
0.088605575 -0.0731915 0.03881673 0.10523779 0.008106263 0.07697543 -0.032303438 -0.10751652
-0.058804832 -0.037421312 -0.07097578 -0.0758797 0.0539424 0.11354414 0.079694405 0.043150797
-0.10005414 -0.02139147 0.04655342 0.11024784 -0.06187823 0.07356413 0.072474115 -0.02917227
-0.114190884 0.058816846 0.06144838 -0.10431218 0.09267345 -0.010574807 -0.09271542 0.010595645

encoder.rnn.bias_ih_l0 f4 [192]
00000000: ce8e 75bc 2ec3 67bd 950d e73b 2f03 40bc
00000010: d1c1 21bd 5c00 6d3d ab5c 78bd b54e debd
00000020: d0a4 ddbd 9829 333d 43e0 c1bd e67e ccbd
00000030: abff acbc 0242 aa3d fe8d 9c3d 38f4 d23d
00000040: 498d a8bd cf04 afbd 7151 713d 0774 bf3d
00000050: 3b98 41bb b3b2 e7bd 4420 023e f8b9 bc3d
00000060: c3d1 ca3d 751c 3b3d 8369 483d adcc 10bb
00000070: 904d 913d 1151 ef3c 1cc9 9cbd c93f 38bd
00000080: 4a3b ccbc 4906 6fbb 31e4 ae3d 1e1d bc3d
00000090: af18 f3bc 422b 48bd 33d4 47bc 594d 013e
000000a0: 80f7 ee3d e089 523c d635 bfba 414c 983d
000000b0: 856b c1bd bf72 5bbd b7bb de3d 6cec 033e
000000c0: e11b e23b 0702 e5bd f7de b63d 3f19 2c3d
000000d0: 48c4 d73a cb4a f93d 5cf4 c5bd 95fa 1a3a
000000e0: b14c 983d 69f9 2dbd 1a4f 9abd 9a82 86ba
000000f0: fc07 b63d 8138 0a3d bc2b ef3c 8340 95bd
00000100: 7463 77bd 5a3d 1f3c 870f d23d 5497 233d
00000110: 835f 603d b2ab 00bd a5b3 b93d 314a aa3d
00000120: 55cf e13d 631c 86bc 225a a0bc dcbd 7ebd
00000130: f39f 9cbd 14c6 4fbd e382 0a3d 1fef fb3a
00000140: c8e8 2abc 3e7f a53d e463 f23d c99c 5abd
00000150: 0b8a 18bd da46 2f3d 32b1 e4bc 54ac 02be
00000160: 6907 6f3d 905d 8c3d 41b4 adbd 4097 f1bd
00000170: 6d53 0c3b b1f1 0dbe 6ced b63d c811 ea3d
00000180: 04a0 bf3d 03ea a73b 7054 b6bd f8ee 193d
00000190: 3c8b f1bd 2447 18be 92f0 91bd 6132 c5bd
000001a0: 9352 6d3d 9893 d43d d302 c33b 8c60 1dbe
000001b0: 4394 613d 64db c73d 628c 503d 50c8 003e
000001c0: e507 75bc 20dc b4bd b6c7 bd3c 64d3 9a3d
000001d0: d838 843c 9fee 3b3d 2d44 053d b819 23bd
000001e0: cfbf 3ebd 036d 82bd 5fea 09be d6f0 9c3d
000001f0: 9973 c8bd 0bb2 e9bd 797d eebc 8d80 49bd
00000200: dc80 e5bd f327 9ebd e069 73bc c773 87bd
00000210: b42c b63d 7049 a5bc b508 e5bc 8cf1 9f3d
00000220: 70d1 eabd 1899 243d 4e2c a6bc bcfe e73d
00000230: ab47 673c b3ba 57bd 22e1 abbd e31f a5bd
00000240: 368e 5ebd e10e e93d 9b32 bb3d bca3 f03d
00000250: 8e0f 44bd c1fd 343d 3d4b a6bd 69fc 09bd
00000260: 7d91 d43d da08 b2bd 9103 fbbd e230 e93b
00000270: 4a1e cd3c 906b c93d 6c0f 483d 7254 ea3c
00000280: 8df0 fd3d 5618 e13d b88d 92bd 2295 f4bd
00000290: 8f0d e6bd 1da4 e23c 2194 0e3d c755 0abd
000002a0: 5702 bb3d 8f26 c53c 7027 7f3c 9a92 9bbc
000002b0: c903 953d aa8a 1c3d 8aa1 aabd 0834 f3bc
000002c0: 8b02 663d a438 483d abc3 e9bc d9b3 fe3d
000002d0: 821d d63d c716 75bd 9afb c53d 5cbb a93d
000002e0: 46b0 b23d 6690 29bd adf4 493d 7559 8bbd
000002f0: c6af 8a3d 9889 e9b9 1fdc 913d 6c84 ac3d
-0.014987661 -0.056582622 0.0070511797 -0.011719509 -0.03949148 0.05786167 -0.06063525 -0.10854856
-0.10822451 0.04374084 -0.09466603 -0.099851415 -0.021118006 0.08313371 0.0764427 0.10300487
-0.08230073 -0.08545839 0.05891556 0.09348302 -0.00295402 -0.11313381 0.12707621 0.09215158
0.0990329 0.045681436 0.04892875 -0.0022094653 0.07094872 0.02921346 -0.07655546 -0.044982705
-0.024930615 -0.0036472252 0.08539618 0.09185241 -0.029674856 -0.04886938 -0.012196588 0.12627162
0.11668301 0.012850255 -0.0014588188 0.07436419 -0.09444336 -0.053576227 0.108756475 0.12883157
0.006900296 -0.11182027 0.08929246 0.042016264 0.0016461695 0.12172469 -0.096657485 0.00059119734
0.07436503 -0.042474184 -0.07534619 -0.0010262311 0.08888242 0.033745293 0.029195659 -0.07287695
-0.06039758 0.009719217 0.10256868 0.03993924 0.054778587 -0.03141374 0.090674676 0.08314932
0.110258736 -0.016370958 -0.019574229 -0.062192783 -0.076476954 -0.05072601 0.03381623 0.0019221044
-0.010431476 0.0808091 0.11835459 -0.05337218 -0.037241023 0.04279218 -0.027916525 -0.1276105
0.058356676 0.06853783 -0.08481646 -0.11796427 0.002141203 -0.13861729 0.089320034 0.11429173
0.093566924 0.005124332 -0.08902824 0.037581414 -0.11794135 -0.14870888 -0.07125963 -0.0962875
0.057940077 0.10379714 0.0059512644 -0.15368861 0.055073034 0.09758642 0.05091513 0.12576413
-0.0149554955 -0.08831048 0.023166519 0.07559851 0.016140386 0.045881864 0.03253572 -0.03981945
-0.04656964 -0.063684486 -0.13468312 0.07663123 -0.097876735 -0.11410912 -0.029112564 -0.04919486
-0.112062186 -0.077224635 -0.014856786 -0.0661388 0.08895245 -0.02017662 -0.027958253 0.07809743
-0.11465728 0.040185064 -0.020284798 0.113278836 0.014116208 -0.052668285 -0.0839255 -0.080627225
-0.05433484 0.11379791 0.091405116 0.1174998 -0.047866397 0.04418731 -0.08119819 -0.033687983
0.10379312 -0.086930946 -0.122565396 0.007116423 0.025038857 0.09834969 0.048842832 0.02860472
0.12399397 0.1099097 -0.07155937 -0.11942507 -0.11233055 0.027666146 0.034809235 -0.03377321
0.09131306 0.024066238 0.0155733675 -0.018990804 0.072761126 0.038218178 -0.083315924 -0.029687896
0.05615477 0.04888214 -0.028535685 0.12436647 0.10454847 -0.059836175 0.0966713 0.08287689
0.08725028 -0.041397475 0.049305607 -0.06804172 0.067718074 -0.00044543738 0.07122063 0.08423695

encoder.rnn.bias_hh_l0 f4 [192]
00000000: 5e0c 323d 84d4 0c3d db0a 86bd 949a c5bd
00000010: 62bb bfbd ad6d c6bc 72c0 d0bd 7101 cbbc
00000020: 7e4b 05bc f018 f3bd 782b e83d e0e3 f23b
00000030: 9ca4 c63d c0c0 e1bd fba2 953d 3ac0 92bd
00000040: e8e9 0a3d de41 c23d d78c c93d 2382 0cbe
00000050: ce01 42bd db37 49bd c7af 523d e7bd 8abd
00000060: 8c33 bd3d 7783 bdbd c045 14ba ffeb 943c
00000070: c1d8 a9bd f2ef b9bc 97ad d4bd 35e6 88bd
00000080: 7a3f fdbd 4fe4 243d 2904 41bd a0a0 74bc
00000090: 7671 3d3d b930 813d a952 723d aea0 ee3c
000000a0: 6766 e93d ecd8 b8bc 3eec e33d d813 8bbd
000000b0: 8e51 fbbd c966 913b 2785 43bd 0ee4 97bd
000000c0: 4df9 8dbd 8130 d3bc da56 5c3c 2746 aabc
000000d0: d364 21bd 7b13 d53d 2c6d 8d3d 9563 67bd
000000e0: 0dce b5bd 33d7 593c 863f a23d c0ac ce3d
000000f0: 8ece 9f3d b73f d23d 5a76 bd3b d0dc b5bd
00000100: d8b5 903d b573 e53c 6b0c 933d fc8d adbd
00000110: 830b fabd 78f0 843c c6d6 1bbd cd5a 9ebd
00000120: 1a08 f23d 8567 953c fb81 c53d 725d ed3d
00000130: 52c6 82bd 6098 cc3d 28ab e13d 3468 c8bd
00000140: f283 793d 1379 ab3d 5a99 423d 9a1f cbbc
00000150: 4be7 d5bd 054b edbd 4db8 4c3d 1b9a ffbd
00000160: decd 033d 00e1 84bd dad7 8bbd a734 c93d
00000170: 7606 2cbe ea97 60bc c150 063e d83c 8fbd
00000180: 82ec 0cbd cef6 ddbc ab50 903d 231d 243d
00000190: cc1f 9dbb fc89 0dbe 79ce 0bbe 18e2 fb3c
000001a0: 4d22 b43d ce76 b63d bda7 343d edf5 9cbc
000001b0: 0333 853d f5a8 50bd 29ed 54bd 0263 8d3e
000001c0: e956 863b a93d ad3c ee26 a7bd 575a 033e
000001d0: 2b2b c6bc 5d15 ca3c 6d23 cfb9 d5ef 573d
000001e0: ca4c e43d f0d2 e73d b0b1 41be 518a cebc
000001f0: a15d 95bd a3d1 783d f793 3d3d db16 edbd
00000200: a115 d7bd 005f f5bc d318 c1bb c762 b13d
00000210: c1c7 153d 5a52 b23d aac1 c3bd 0f89 db3d
00000220: d0d2 d93d b9ff 913d 1591 1a3c ef7b fa3d
00000230: ce04 99bb 8a09 9cbc aa1e 48bc 85a5 223d
00000240: 9c9e 453d 447a d73d 28ba a53d 1cdc 683d
00000250: ff9f f33c a971 143d 1a75 c23d 083b 2abd
00000260: 17fe 9b3d cce5 7dbd c39b 54bd bf98 593d
00000270: 39d3 9fbd 9f16 53bd e0a6 0f3d a655 083b
00000280: d6ec 9a3d fc85 8ebd ccba e3bd b187 b93b
00000290: b8fc 603d 01c4 193c 46ce afbd 5c74 a7bd
000002a0: 9551 433d 876c 993c cbd5 8e3d ca76 87bd
000002b0: 0a69 b93d e846 05bc 7f46 1a3d 3220 98bd
000002c0: e0ef 70bc 2b49 d3bc 74a1 cdbd 593e a73d
000002d0: 2772 353d 1748 a7bd 637b 053d b90b 2dbd
000002e0: 699a f8bd db25 c73c e55f 08bd 42ca a13d
000002f0: 16ec f1bb 726d 91bd dad1 1dbd 925e 433d
0.043468826 0.03438236 -0.06545039 -0.09648624 -0.09361912 -0.02422222 -0.10192956 -0.02478096
-0.0081356745 -0.11869991 0.11336416 0.0074124187 0.096993655 -0.11023092 0.07306477 -0.071655706
0.033914477 0.094852194 0.09841316 -0.13721518 -0.047365002 -0.049125534 0.051437166 -0.06774502
0.092383474 -0.092535906 -0.00056561455 0.018178938 -0.08293296 -0.022697423 -0.10384672 -0.066845335
-0.12365623 0.040256795 -0.047123108 -0.014930874 0.046250783 0.06308121 0.059160862 0.029129352
0.11396485 -0.022564374 0.11129044 -0.06790894 -0.12271415 0.004437302 -0.047734406 -0.07416545
-0.06932316 -0.025779964 0.013448441 -0.020785404 -0.039402794 0.10404106 0.069055885 -0.056491453
-0.08877192 0.013295936 0.079222724 0.10091543 0.07803069 0.10266059 0.005781931 -0.08880007
0.07065934 0.028009275 0.07180103 -0.08474347 -0.12209227 0.016227946 -0.03804662 -0.077321626
0.118179515 0.018237839 0.096439324 0.11590089 -0.06385483 0.09990001 0.110189736 -0.097855
0.06091685 0.083727024 0.04750953 -0.024795342 -0.10444506 -0.115865745 0.04998045 -0.12480565
0.032178752 -0.06488228 -0.0682828 0.09824496 -0.1679934 -0.013708094 0.13116743 -0.06994027
-0.03440524 -0.027095225 0.07046636 0.04006685 -0.0047950502 -0.13822168 -0.13652982 0.030747458
0.08795605 0.08909379 0.04410528 -0.019160235 0.0650387 -0.05094238 -0.051983986 0.276146
0.004099716 0.021147566 -0.08161722 0.1282743 -0.024190506 0.02466839 -0.0003950851 0.052718956
0.11147459 0.1131953 -0.18915439 -0.025212439 -0.07293249 0.0607468 0.04628369 -0.11576625
-0.10502172 -0.029952526 -0.005892852 0.086614184 0.036567453 0.087071136 -0.09558423 0.10719501
0.106359124 0.07128853 0.009434004 0.1223067 -0.004669762 -0.019047517 -0.012214342 0.039708633
0.048246965 0.10521367 0.08092147 0.056850538 0.029739378 0.036241207 0.094949916 -0.041560203
0.07616823 -0.06198673 -0.05190636 0.053124186 -0.078039594 -0.051535245 0.035071254 0.0020803004
0.07564704 -0.06959149 -0.11119613 0.0056619276 0.05492851 0.00938511 -0.085842654 -0.08176491
0.047685225 0.018728508 0.069743715 -0.06614454 0.09053238 -0.008134581 0.037664887 -0.07428016
-0.014705628 -0.025791725 -0.1004056 0.08166189 0.044298317 -0.08168047 0.032588374 -0.042247508
-0.121388264 0.024310043 -0.033294577 0.07899906 -0.00738288 -0.07100953 -0.03853021 0.04769761

decoder.attn.v f4 [64]
00000000: 48bc e9bc fcec 07bd 0abd babd fe24 ee3d
00000010: 4449 41bd 38ea 823d d422 523d d4be 1e3d
00000020: 2466 77bd 0854 d8bc 606a 273d e88b 9dbc
00000030: c261 90bd ce42 cfbd 648c af3d 566e 91bd
00000040: 7253 dd3d 78e4 03bd 9c1c b83d 523e febd
00000050: 2c65 37bd 5896 aebc 6801 ae3c 189f acbd
00000060: 00bb 363d c496 043d 10d6 0f3d 0091 01ba
00000070: 4cfd d33d 20ac aabd feac 853d 5c2d 673d
00000080: b08b 5a3d 301e 47bd b6ed db3d 2436 9fbd
00000090: a0f6 f83d f89f b1bc 3a75 edbd e891 e0bc
000000a0: 5879 edbd c49a ee3d c81f bdbc 6468 6dbd
000000b0: d834 cd3d 287c 78bd 80e6 803c c4d7 a23d
000000c0: 1ca4 8d3d 0823 053d 5018 243d 2a1f 843d
000000d0: 6cff 76bd 7034 023c cefe a7bd 8065 f8bd
000000e0: 7cac 97bd 9acc fdbd b08e 69bd 5068 d9bd
000000f0: 4c1a e03d 000b 54bc 5c49 f3bd 32da 983d
-0.028532162 -0.03318499 -0.091180876 0.116281494 -0.047189012 0.0639233 0.051302746 0.038756207
-0.060400143 -0.026407257 0.04087293 -0.019231752 -0.07049896 -0.10120164 0.08571699 -0.07101123
0.108069316 -0.032200307 0.08989832 -0.124142304 -0.04477422 -0.021311924 0.021240905 -0.08428782
0.04461193 0.032370344 0.035116255 -0.0004942566 0.10351047 -0.083336115 0.06527136 0.056439742
0.053355873 -0.048612773 0.10738699 -0.077739984 0.12156415 -0.021682724 -0.11594625 -0.027413324
-0.1159541 0.11650613 -0.023086444 -0.057960883 0.10019845 -0.06066528 0.015734911 0.0795131
0.06916067 0.03250411 0.04006225 0.064512566 -0.060302183 0.007947072 -0.08202897 -0.121287346
-0.07405946 -0.1239254 -0.057020843 -0.10615599 0.10942516 -0.012942076 -0.118792266 0.074634925

decoder.attn.attn.weight f4 [64, 128]
00000000: 94c6 82bd 60f2 fb3b 2324 87bd 765b 8abd
00000010: b8db 81bc e5fd 8e3d befa 25bd 1080 4abd
00000020: fe1a 13bd 4252 78bd c0e2 25bc 16a3 9bbd
00000030: e8ea 113d be93 acbd affb aabd fab7 a7bd
00000040: 0a77 58bd c4b2 a93c 4bdc 863d cc51 47bd
00000050: 867a 5a3d eeac 96bd 48ab 86bd 5811 fa3c
00000060: 6051 49bc 5cdd 2cbd 20de 083c 0067 ae3a
00000070: 85bd 8b3d debe 013d f0e7 97bb 9620 95bd
00000080: ec5f f0bc 8f37 8ebd f8ea 8abc 107c acbc
00000090: dcee 99bc 8283 89bd d2d3 0e3d 2e45 0c3d
000000a0: b82d 27bc 33b8 09bd f4a5 b03c b658 583d
000000b0: 62b3 053d 88b4 2b3c 9038 323c 045b 803c
000000c0: 589b 0e3c 341a bebc 0804 7dbd e24b 673d
000000d0: 6ed7 4e3d 8eff aabd 207a 383c d0b3 75bd
000000e0: 5337 a53d 60a0 acbb 25ee 41bd 9717 4abd
000000f0: a215 443d ac04 bbbc 803f 22bc 3fa9 a33d
00000100: ae5d eabc c0fa 5abd e469 ac3c c481 8a3c
00000110: 5e67 75bd 5832 e23c 0f98 6abd fa7a 62bd
00000120: 266f 88bd 30eb d1bc 80e7 773a 19e7 16bd
00000130: 3edb 5abd 87eb 10bd f07c a83c 70af d83b
00000140: faa9 b1bd 5864 96bd 13d1 843d 20a1 203c
00000150: 9253 463d a01e 15bb 071f afbd 4921 abbd
00000160: 4ee2 5c3d 0016 a1bc a87b 13bd 2751 b3bd
00000170: feab 473d 389d 3c3c 8549 81bd c8c4 633c
00000180: e269 6bbd 288f bfbc 421e 4bbd 1cc1 f4bc
00000190: 4417 9bbc 4472 8ebd b091 76bd 88cf a8bd
000001a0: 4eb9 623d 8339 56bd 9106 853d b236 6e3d
000001b0: 8e93 4ebd b242 6b3d 80de 903b b8fc 02bc
000001c0: 3acb 493d 0e19 753d 107b c2bb d32e ae3d
000001d0: f8f7 5cbd 821b 743d 02e2 433d 9d6d 993d
000001e0: 10a4 cabb cfe0 a83d 0f81 923d ec1e 72bd
000001f0: 0351 ad3d a0f1 8ebd 6718 b33d 2419 81bd
00000200: e815 283c c86a 94bd 6e3e 173d 51ea 46bd
00000210: 6ced 1ebd f5f5 10bd 1442 96bd 8c6f 97bc
00000220: 2a93 e3bc 4cfb 8bbd 2232 38bd 1008 01bd
00000230: ebc8 b13d 5678 103d c09f b3bb a0a8 ec3b
00000240: 0019 d03c 809a 5d3b cbf2 3fbd e6fb 92bd
00000250: 9eef 77bd 58bc a53c 5062 dfbb e1d6 60bd
00000260: 7a13 523d 927c 6b3d a823 983c 838f 903d
00000270: 884e 5fbd 65c5 41bd 6e42 0c3d 01d4 a93d
00000280: 1866 4b3c bc02 87bd 2008 2bbc 0490 c0bc
00000290: 41ea 50bd 44b4 f5bc 180b c6bc a02a 583c
000002a0: f874 4ebc 7137 a93d 75e9 4abd b8f4 553c
000002b0: 7778 8e3d 60c7 1bbb 9c26 a1bd e044 53bb
000002c0: 28f2 043d 4cac 79bd a213 483d 40a2 80ba
000002d0: 63c8 61bd 6832 333c b889 2fbd 638e b43d
000002e0: 6c3a 9cbd d91c 72bd e09b 173b 189e 3e3c
000002f0: 9097 75bc 0c26 e0bc 8dff 51bd fd11 8a3d
00000300: 8124 ad3d fbe4 1cbd c067 c73a dc75 a4bd
00000310: a97c 9d3d b613 4abd 01b0 35bd 4dac 39bd
00000320: b0db b93c 1c5a fa3c 6d49 98bd a0d7 b6bc
00000330: 9281 403d 189d 533c 05e5 a0bd 7a95 443d
00000340: 57e4 943d e0df b0bb e19c b13d d643 7a3d
00000350: 86a1 91bd 2e0e 19bd 3d40 a43d 924a dcbc
00000360: db2c 9d3d eabe 83bd 33f6 993d 7074 c73c
00000370: 57bd 96bd 9da1 a8bd dbf5 87bd 9b9d a23d
00000380: b0a4 c73c 507d e33c 0245 dbbc 37be abbd
00000390: 9f1a 933d 4003 39bd 5860 47bc 40ed f1bb
000003a0: 9f4d 983d b841 0d3d e0da d1bb 1175 9a3d
000003b0: 33ea 973d b828 07bc 93de 963d b4e1 30bd
000003c0: 1a85 9fbd d984 9b3d 002a 95bb 604d 20bc
000003d0: 7826 6cbd 8ad2 1abd 8726 3bbd 002a 953a
000003e0: 58dc 98bd 0a1e 313d e8b9 9c3c 9088 25bc
000003f0: 2618 71bd e025 a3bd bf5e 25bd f670 553d
-0.06385532 0.0076888055 -0.065986894 -0.06755726 -0.01585184 0.0698202 -0.04052233 -0.049438536
-0.035914414 -0.060625322 -0.010124862 -0.075994655 0.035624415 -0.08426617 -0.08348786 -0.081893876
-0.0528479 0.020715125 0.06584986 -0.048661992 0.053339504 -0.073572025 -0.06575638 0.030525848
-0.012287468 -0.042203292 0.00835374 0.0013305843 0.06823257 0.031676166 -0.0046358034 -0.07281606
-0.029342614 -0.06944191 -0.016957745 -0.021055251 -0.018790655 -0.06714536 0.034869976 0.034245662
-0.010203771 -0.03362293 0.021563508 0.052818976 0.032641776 0.010480054 0.010877743 0.0156684
0.008704029 -0.023205854 -0.061771423 0.056468852 0.05049842 -0.083495244 0.011259586 -0.059985936
0.08067193 -0.0052681416 -0.047346253 -0.049338903 0.047872193 -0.022829376 -0.009902835 0.079912655
-0.028609123 -0.05346179 0.021046586 0.01690758 -0.05991303 0.027611896 -0.05727392 -0.05529306
-0.06661825 -0.025624841 0.00094567984 -0.036841486 -0.053431742 -0.035380866 0.020567387 0.0066127107
-0.086749986 -0.07343358 0.0648519 0.00980404 0.048419543 -0.002275385 -0.0855084 -0.08355958
0.05392676 -0.01966381 -0.0360066 -0.08755713 0.04874801 0.011512093 -0.06312851 0.013901897
-0.057474025 -0.023383692 -0.049589403 -0.029877238 -0.018931992 -0.06955388 -0.060197532 -0.082427084
0.0553525 -0.05230094 0.06495393 0.05815763 -0.050433688 0.057436652 0.0044210553 -0.007994823
0.049266078 0.059838347 -0.0059350803 0.08505025 -0.05394742 0.059596546 0.04782296 0.0749161
-0.0061841086 0.08246004 0.07153522 -0.05911152 0.084627174 -0.0697968 0.08744889 -0.06303623
0.010259129 -0.072469294 0.036924772 -0.048563305 -0.038800642 -0.035390813 -0.07336822 -0.018485807
-0.027780134 -0.068350405 -0.044969685 -0.03150183 0.086809 0.03527101 -0.00548169 0.00722225
0.025402546 0.0033814013 -0.046862405 -0.07176952 -0.06053125 0.02023141 -0.0068171397 -0.054892424
0.051288106 0.057491846 0.01857169 0.07058623 -0.054518253 -0.04730739 0.03424304 0.0829239
0.012414478 -0.065923184 -0.010438949 -0.023506172 -0.051004652 -0.029993184 -0.024175212 0.013193756
-0.01260113 0.08262528 -0.04953905 0.013058834 0.069565706 -0.002376996 -0.07868692 -0.0032237098
0.0324575 -0.06095533 0.04884685 -0.0009813979 -0.055122744 0.010937311 -0.04285595 0.088162206
-0.076283306 -0.059109543 0.002313368 0.011634372 -0.014989749 -0.027361892 -0.051269103 0.06741712
0.08454228 -0.03830431 0.0015213415 -0.080302924 0.07689793 -0.049335204 -0.044357304 -0.045330334
0.022687763 0.030560546 -0.0743588 -0.022319615 0.046998568 0.012915872 -0.07856182 0.047994114
0.07270115 -0.0053977817 0.086725004 0.06109985 -0.07110886 -0.03736704 0.08020065 -0.026891027
0.07674571 -0.06432898 0.07517662 0.024347514 -0.073603325 -0.0823395 -0.0663869 0.07940217
0.024370521 0.027769715 -0.026766304 -0.0838589 0.07182812 -0.045169115 -0.012168966 -0.0073830187
0.0743668 0.034486502 -0.0064042658 0.0754186 0.07417717 -0.008249454 0.073666714 -0.043183997
-0.07789059 0.07593698 -0.004552126 -0.009784073 -0.057653874 -0.037798442 -0.04569104 0.0011380315
-0.07463902 0.043241538 0.019131616 -0.01010336 -0.05886092 -0.079662085 -0.04037356 0.05210968

decoder.attn.attn.bias f4 [64]
00000000: eab1 aebd 504e 353c 1678 94bd 1945 a9bd
00000010: dab7 393d 96f5 543d 8cdc 983c 6ddf a33d
00000020: 48d6 9bbc af9c ae3d 567d 2b3d 4be3 913d
00000030: 1c12 c7bc 3426 833c 560a 38bd 8ed7 e8bc
00000040: 60da 83bc 2d67 afbd 90a2 adbb 3ab4 703d
00000050: 4651 713d abbf 81bd 565c 81bd 62c9 6b3d
00000060: 72fd 6e3d 0143 953d 2311 72bd 4b1f adbd
00000070: 58b3 6bbd d012 b33c d448 55bd 45de 2bbd
00000080: 2832 b1bc f07c 0bbd ac3d bdbc e01b 9fbd
00000090: fafc e6bc b81b 153d 4a5c 7b3d 8456 8bbc
000000a0: 1e32 643d 9089 5f3c a052 f03b fbb5 07bd
000000b0: 28da 1b3c a884 393c e013 0dbb c025 bc3c
000000c0: 3a55 743d 90ca f3bb 00c2 b639 00ba d8ba
000000d0: 0be2 67bd a04a 48bb f670 163d a4ca 9f3c
000000e0: 2654 1dbd 82d1 86bd a86c 1a3c c281 683d
000000f0: 90a2 583c 006d 75bd 3d62 a53d 83a2 4cbd
-0.08530028 0.011066034 -0.07249467 -0.082651325 0.04534135 0.05199202 0.018659852 0.080015995
-0.019023076 0.08525979 0.041867577 0.07123431 -0.024300627 0.016009428 -0.044931732 -0.028423097
-0.01609534 -0.08564601 -0.00529892 0.058765627 0.0589154 -0.06335386 -0.0631644 0.0575651
0.058347173 0.072881706 -0.059098374 -0.08453234 -0.057544082 0.021859556 -0.052071407 -0.04196002
-0.021630362 -0.034054697 -0.023100697 -0.077689886 -0.0281968 0.036403388 0.06136731 -0.017009027
0.055711858 0.013643637 0.0073340684 -0.033132534 0.009512462 0.011323132 -0.002152674 0.02296722
0.05965159 -0.007439919 0.00034858286 -0.0016534925 -0.056612056 -0.0030562058 0.03672882 0.019505806
-0.03841033 -0.06582929 0.00942532 0.05676437 0.013222352 -0.059918404 0.08075378 -0.04995967
