checkpoints/models/single_stock_daily/81to9/000001/model35.pth (torch, 543834 bytes, 24 tensors)

encoder.conv1.weight f4 [18, 6, 3]
000000 90 b8 19 bc 09 80 e1 3d 58 b2 64 be d1 5f 0b be
       -0.009382382 0.11010749 -0.22333658 -0.1361077
000010 d7 ea 9b bd 43 48 b4 bd 93 57 f8 bb 22 6f 3f 3e
       -0.076131515 -0.08802845 -0.007578799 0.18694738
000020 a7 ba b3 3d 39 03 5e be 0f 1f 68 3e 65 12 5d 3e
       0.087758355 -0.21680917 0.22668098 0.21589048
000030 70 d6 90 3d 2a 1f fe 3d 8a 92 e9 3d 9e 8a 22 3e
       0.07072151 0.12408288 0.11404903 0.15873191
000040 f8 1f 7b be 2e 1d 14 be dd 7d ac bc 1b 19 04 bd
       -0.24523914 -0.14464256 -0.02105611 -0.032250505
000050 65 95 13 be d8 30 65 be 11 ef 2d be b8 ad fb bc
       -0.14412458 -0.22381914 -0.16985728 -0.030722484
000060 c2 a5 54 3e 61 f2 37 3e f7 4e ae 3d 8f d4 0e be
       0.20766357 0.17963554 0.08511155 -0.13948272
000070 bf f1 9e bd c5 91 0d 3d 9f 65 5a be 27 03 d7 3b
       -0.07760953 0.034562845 -0.21327828 0.006561655
000080 f9 1e 75 3d 35 ec 86 3e fa 38 de bb c8 b7 92 3e
       0.05984399 0.26352087 -0.0067816945 0.2865584
000090 96 dd c5 3c 1d ef 20 be 57 89 69 3e 8f e0 4a 3e
       0.024153512 -0.15716214 0.22806297 0.19812225
0000a0 e3 7b 52 be 14 17 19 be 48 60 c8 3d b8 94 3c be
       -0.20555072 -0.1495021 0.09783989 -0.18416107
0000b0 13 f9 fe 3d 8c 31 fd bd 21 d1 d3 bd 86 8f be bd
       0.12449851 -0.12362966 -0.103426225 -0.09304719
0000c0 4c 63 5b 3e 22 c4 df bd 85 45 90 bd 33 9f 05 3e
       0.21424598 -0.10926081 -0.0704451 0.13049011
0000d0 93 a4 4c be 61 02 22 bd f5 66 3e be 91 2b 61 be
       -0.19984655 -0.03955305 -0.18593962 -0.21989276
0000e0 3e 9d 6e bd bd 89 b7 3c 8d 4a 3f 3e a1 d3 78 be
       -0.058255427 0.022404546 0.18680783 -0.2429948
0000f0 dc 4f a0 bd 24 bc fb 3c 2d b7 50 3d bf cf 05 3e
       -0.07827732 0.03072936 0.05095594 0.1306753
000100 ae c5 59 be bd 4c af bd c1 e9 40 3d e6 76 59 be
       -0.21266815 -0.085595585 0.047097925 -0.21236762
000110 02 56 b9 3d 1f 31 7a be 2e b5 d9 3d 7c cd d0 3c
       0.09049608 -0.244328 0.106302604 0.025488608
000120 ba 18 82 bd 4c 7c 99 3d 1d a4 4c 3e bb b0 2d 3e
       -0.063523725 0.07494411 0.19984479 0.16961949
000130 35 22 17 3e 1b 28 04 be 81 1e 8e 3d d0 16 48 3e
       0.14759143 -0.12905924 0.06939412 0.19539952
000140 63 84 8e 3d f5 b9 1e 3e f7 72 09 be 38 88 3c 3e
       0.069588445 0.15500624 -0.13422762 0.18411338
000150 46 40 0d bc f6 08 4c be b7 73 2d bd ed 64 5f 3e
       -0.008621281 -0.19925293 -0.042346682 0.21815844
000160 ef f6 66 bd 82 da 59 bb 0c a4 b6 bd 9a 45 fd bd
       -0.056387838 -0.0033241813 -0.08918008 -0.12366791
000170 9a a7 34 3d f0 f3 0f 3e 49 2c b2 3c 0b e1 b5 bc
       0.04410515 0.14057899 0.021749632 -0.022202035
000180 62 c0 14 3c 5f 71 42 be 57 41 0f be 7c 66 09 3c
       0.009079071 -0.1898856 -0.13989769 0.008386251
000190 fb dd 4a be ba ea d6 3d 2b 15 05 3d f8 23 ef bb
       -0.19811241 0.10493989 0.03249089 -0.007297989
0001a0 a8 14 dd bc ba 25 4e 3e de 5c 57 3e cd a8 de 3d
       -0.026987389 0.20131579 0.2103152 0.1087204
0001b0 9a 47 ed 3d de 24 f7 bd 41 50 c5 3d b6 d2 2c be
       0.115859225 -0.12067579 0.09634448 -0.16877255
0001c0 a4 83 ca 3d 66 2c 23 be db 66 de bb 69 a1 37 3e
       0.0988839 -0.15934905 -0.0067871637 0.17932667
0001d0 09 b0 3d 3e f5 78 4d 3e 46 8a aa 3d 8f 84 e1 3d
       0.18524183 0.20065673 0.08327155 0.11011612
0001e0 bc c6 65 3d 67 ca 33 3e 2b 46 12 3e 24 c9 99 3d
       0.05609773 0.17557679 0.1428458 0.07509068
0001f0 d5 93 75 bd 5f 28 9f bd c5 fa 42 bd a4 50 02 3e
       -0.059955437 -0.07771372 -0.047602434 0.12726074
000200 d2 4e ec bd 5f a6 8f 3d 74 e0 65 3e 63 5b 4c 3e
       -0.11538471 0.07014155 0.22448903 0.19956736
000210 97 b4 23 be f4 e3 d9 3d ca 71 2b 3e 8b fc 50 be
       -0.15986858 0.10639182 0.16742626 -0.20408837
000220 2c 02 38 3e d7 79 0f be e0 62 24 be 67 f6 90 bd
       0.17969579 -0.14011322 -0.16053343 -0.070782475
000230 a3 66 a7 bd 05 43 d9 bd bf 0c 8d 3d d7 d8 90 3d
       -0.08173873 -0.10608486 0.06887197 0.07072609
000240 40 82 bf 3d 8f 12 29 3e cd ec 16 be d5 5f 67 be
       0.09351015 0.16510986 -0.1473877 -0.22595151
000250 7b 6a 4b be 7f fb 11 be 6d a5 ea bd 9e 0f a8 3d
       -0.19864838 -0.14256094 -0.11457334 0.08206104
000260 ce 9f 4b be 83 2a 35 be 04 b2 e1 3d 68 45 2f be
       -0.1988518 -0.17691998 0.11020282 -0.1711632
000270 3c 01 23 3d 2c 2d 48 be e8 6b 8d 3d 25 e4 10 3e
       0.0397961 -0.19548482 0.06905347 0.1414953
000280 c7 e2 61 be 6f 2a 4d 3d b2 2a 0a be 37 6f 09 3e
       -0.22059165 0.050089296 -0.1349285 0.13421331
000290 da c8 4e 3e 47 52 5f be 6f 2d 9d 3d f1 61 13 3e
       0.20193806 -0.2180873 0.076746814 0.1439283
0002a0 8e f2 4c 3e d5 4f 38 3e 87 f7 e7 3c 59 1e 26 bb
       0.20014402 0.17999204 0.028316272 -0.0025347678
0002b0 88 16 34 3d f0 fe 20 be 6e 98 7e bd ab 69 fd bb
       0.0439668 -0.15722251 -0.062157087 -0.007733544
0002c0 9c 92 29 be 7c 56 2f bd 71 75 80 bd 0f 72 e9 bd
       -0.16559833 -0.042807087 -0.062724 -0.11398708
0002d0 54 47 94 bd 14 ad 70 be 7a 2e 64 3e 4b 7d ea 3d
       -0.07240167 -0.23503524 0.22283354 0.11449679
0002e0 e1 6b 33 3e 4a dc 47 be 49 19 6a be a2 73 44 3e
       0.17521621 -0.19517627 -0.22861208 0.19184735
0002f0 5c 3a c2 bc 51 d8 16 3d 12 0c 04 3e 7d 16 db 3c
       -0.023709469 0.03682739 0.1289523 0.026744122
000300 df 76 f5 bb 32 b0 1a 3e 3e f8 4c 3e 51 e2 ad bd
       -0.007490977 0.15106276 0.20016572 -0.08490432
000310 5a fe 54 be 11 7b 0b be 28 63 2b 3e 2e 19 75 3c
       -0.20800152 -0.13621165 0.16737044 0.014959617
000320 3d 98 46 3e 51 3e a5 bd c5 8d 70 be 5f 91 99 3d
       0.19394012 -0.080685265 -0.23491581 0.074984305
000330 2a 03 dc bd 14 96 31 be e0 a6 12 3e cf f7 5a 3c
       -0.10742791 -0.17342407 0.1432147 0.013364746
000340 5a 7d 2e bd f7 8f 69 3e 50 fe 4e 3e b5 69 5c be
       -0.042600013 0.22808824 0.202142 -0.21524699
000350 8b 4e 5f be 0b 36 2a be 64 de 7b be 95 a6 4a be
       -0.21807306 -0.16622178 -0.24596554 -0.19790109
000360 88 9d 19 3e 06 a7 26 be a5 77 54 3e f2 c3 8d 3d
       0.150015 -0.16274652 0.20748766 0.06922139
000370 73 75 8f 3c be e6 23 3d 33 dc 59 3d 51 aa ce 3d
       0.017512059 0.040014975 0.053188514 0.10091079
000380 f3 49 33 be c3 e6 88 bb 14 46 31 3e 71 a4 78 3e
       -0.17508678 -0.0041778996 0.17311889 0.2428148
000390 a9 69 4f bc 19 59 1b be 5a 82 ef 3d 03 3b 41 be
       -0.012659469 -0.15170707 0.116947845 -0.18870167
0003a0 e1 e2 81 3e ba 33 42 3e 75 60 dd 3d 4a 75 0e 3d
       0.25368407 0.18965045 0.10809413 0.034779824
0003b0 41 51 31 3e 91 c1 c3 bd b1 2e 50 be c1 ad 0e be
       0.17316152 -0.09558404 -0.20330311 -0.1393347
0003c0 b2 27 2f 3e b5 d6 0a be 40 0c 58 be dc da 49 3d
       0.17104986 -0.13558467 -0.21098423 0.049280986
0003d0 0f c0 22 be 43 eb d7 bc f4 9f 1b be f9 a0 18 3d
       -0.15893577 -0.026357299 -0.15197736 0.03726289
0003e0 64 b5 60 bd 7c db d9 3c 5e 42 bc 3d ee 3b 32 be
       -0.054860488 0.026593916 0.09192346 -0.17405674
0003f0 d9 0a 94 bd 65 f9 1d be 10 30 4e 3e 97 6c af bd
       -0.072286315 -0.15427168 0.20135522 -0.08565634

encoder.conv1.bias f4 [18]
000000 fe c3 1a be 4d 3e 7a bd eb 25 ad bd ba 42 5f 3e
       -0.15113828 -0.06109457 -0.08454498 0.21802798
000010 5e 35 3d 3d 3b 8e 2c be 2f d6 1a 3e e3 9e f3 bc
       0.046193473 -0.16851132 0.15120767 -0.029738849
000020 6d 34 ec 3c a8 61 a1 3c 0b 69 12 bd 6c 66 69 3e
       0.028833592 0.019699886 -0.035744708 0.22792977
000030 5b d5 ad 3d 65 bc 7c 3d 9f e3 97 bd 59 e7 0f 3d
       0.0848796 0.061703105 -0.07416462 0.03513274
000040 24 30 35 be bb 55 90 bd
       -0.17694145 -0.07047602

encoder.conv2.weight f4 [54, 18, 3]
000000 a7 8e 62 3d 1d 81 1f be 83 29 b7 bc d3 e2 58 bd
       0.055311825 -0.15576597 -0.022358662 -0.05295069
000010 89 e3 86 3d 64 cc b1 bd e5 73 a4 3c cd 48 0e bd
       0.06586368 -0.086815625 0.020074794 -0.034737397
000020 73 d7 fb 3d c9 63 7d bc 1b fb ab bd 5c f0 cd bc
       0.12296953 -0.015465685 -0.08397504 -0.025139026
000030 09 f9 c5 3d b3 63 53 3d 87 2e de 3c 95 ad a2 3d
       0.0966664 0.051608752 0.027121795 0.079432644
000040 34 30 4b 3d ad a5 9f bc 6f 9b 95 bd 5d 77 09 be
       0.049606517 -0.01948818 -0.07305037 -0.1342444
000050 d4 d8 75 3d 97 6c cf 3d af 4a 88 bd 83 af 96 bd
       0.060021237 0.10128134 -0.0665487 -0.07357695
000060 24 4b 08 3d fd c5 ca b9 da 5d f0 3d b8 20 f5 b9
       0.033274785 -0.00038675955 0.11736651 -0.0004675442
000070 65 45 d1 bb ef 15 06 be 9d b5 fb 3c 70 5b a8 bc
       -0.0063864463 -0.13094305 0.030726248 -0.020551413
000080 27 00 10 3c 9a 05 b6 3d 40 58 8c 3d 8f 50 51 3c
       0.008789099 0.08887787 0.0685277 0.012775554
000090 2f 88 1f bc f4 1e 90 bd 0f 08 f6 3d 26 89 07 3e
       -0.009737059 -0.07037154 0.12013256 0.13235912
0000a0 71 aa ce 3c f6 68 25 3e f7 7e eb 3d ce 50 9c 3d
       0.025227757 0.1615332 0.11498826 0.076326
0000b0 e4 26 93 3d be 5a 52 3d b5 8c f6 bc 1a 4b ae 3b
       0.07185152 0.05135607 -0.030096391 0.0053190114
0000c0 28 b5 fb 3d 5c 08 a5 bc fe 89 21 3d 81 89 18 bd
       0.12290412 -0.020145588 0.03943824 -0.03724051
0000d0 95 5d fd 3c 43 47 b4 3d ea e0 f4 3d 61 fd fb 3d
       0.030928412 0.088026546 0.119569615 0.123041876
0000e0 28 ed d5 3d 6b 9d d2 bc 39 85 03 3e 6e 6e d1 3d
       0.104456246 -0.025709828 0.12843789 0.10226141
0000f0 73 fb 07 3e f4 db f3 bd 2c 2e 85 bd 49 8b eb bd
       0.13279514 -0.11907187 -0.06502947 -0.11501176
000100 26 63 52 bb 90 44 c8 3d 5b 87 c8 bd 0f ff 01 3d
       -0.0032102554 0.09778702 -0.09791442 0.031737383
000110 fa 3b 32 bc f3 ed 01 be 47 84 2a bc 5a 1c 84 bc
       -0.010878557 -0.12688427 -0.010407514 -0.0161268
000120 d1 d5 86 bd 8e 88 a7 bd e2 50 9e 3d 2c a4 2a 3a
       -0.06583751 -0.081803426 0.07730271 0.0006509449
000130 10 be d6 3a d1 c1 90 bc 5c 8c 9e bc c1 5b 1d bd
       0.0016383547 -0.017670544 -0.019354038 -0.03841758
000140 cd 7e 9b bd 16 8c 51 3d 48 12 bc 3b 2d 0b f2 bd
       -0.07592545 0.051158987 0.005739484 -0.11818538
000150 3d 65 75 bd 16 9d 71 b9 52 ee 14 bd cb 8d 0a 3d
       -0.059911 -0.0002304207 -0.036360092 0.03382663
000160 5c 31 d1 3d dc 9d f2 bd 6a f4 96 bb 32 cf ea 3d
       0.10214493 -0.118465155 -0.004606773 0.114653006
000170 1b 69 b3 bd e1 b1 ec bd c5 a0 bf 3c 79 13 78 bb
       -0.08760282 -0.11557365 0.02339209 -0.0037853403
000180 29 af 0f 3c a0 7d b2 3d 30 e7 e2 bd 97 38 ac bd
       0.008769789 0.08715367 -0.11079252 -0.08409231
000190 36 f1 cb 3d 4a 76 c5 bd e9 fd 06 bd a4 77 b1 3d
       0.09958117 -0.096417025 -0.03295699 0.08665398
0001a0 63 f7 60 bd a4 83 dc bd bb 8c a5 bd bc 9f c0 bd
       -0.054923426 -0.10767296 -0.08083483 -0.09405467
0001b0 21 2e e4 bd 5e 58 d6 bb b4 86 a5 bd 34 1b c6 bd
       -0.11141611 -0.006541296 -0.08082333 -0.09673157
0001c0 af 26 18 3a 05 8f f5 3d fc 40 04 3e 5d 77 e6 3d
       0.0005804104 0.119901694 0.12915415 0.112532355
0001d0 ce 70 04 bb 47 a0 6d 3d 36 3f 85 bd f9 fb 01 be
       -0.0020208838 0.05801418 -0.06506197 -0.12693776
0001e0 8f 0b 9f 3d ac a8 81 3d f8 2c 62 3d fd c4 6f 3d
       0.077658765 0.06331 0.055218667 0.058537472
0001f0 2a 4d 19 bd e8 8b bb 3d 02 eb a6 3d c4 1a 4e bd
       -0.037427105 0.091575444 0.08150293 -0.050318494
000200 c2 e9 e2 3d 20 c8 1a 3d 74 82 61 bb 19 0b fc 3b
       0.11079742 0.03778851 -0.0034410032 0.0076917526
000210 79 30 d6 3d a0 fd 46 bc 94 5c 0f 3d 07 f3 de 3d
       0.10458464 -0.01214543 0.0350004 0.108861975
000220 57 8e f3 3b 75 5f 0b 3e 23 21 80 bd 63 33 af bb
       0.0074327397 0.13610633 -0.0625632 -0.005346702
000230 33 76 2c 3d 38 24 04 3b 4b e9 c0 bd b3 9d df 3d
       0.04210491 0.002016319 -0.09419497 0.109187506
000240 ff bc 8c bd 65 e4 d9 3d da db 41 bd 41 f9 25 3d
       -0.06871986 0.10639266 -0.047328807 0.04052091
000250 30 d2 c1 bd 45 c6 a7 bd a1 1f c6 3c 76 3e b3 3d
       -0.09463918 -0.08192114 0.024185004 0.08752148
000260 e4 5d ad bc 3b 25 6d 3d e8 33 8e bd 76 01 61 3d
       -0.021162935 0.057896834 -0.06943494 0.054933034
000270 75 72 61 bc 60 16 59 bd 85 e4 9b 3d b0 2b 5f bd
       -0.013760199 -0.052999854 0.07611946 -0.054485023
000280 bc c8 cd bd 71 90 47 bd c0 41 4f 3d cc 35 d5 3d
       -0.10048053 -0.048721734 0.050599813 0.104106516
000290 e2 e5 d4 3d df 01 c0 3d ca a1 ac bd 4c c4 fa 3d
       0.10395409 0.09375357 -0.08429296 0.12244472
0002a0 2f 35 68 3d 35 60 17 3d a0 69 8b bd b6 55 4c bd
       0.056691345 0.036956985 -0.06807256 -0.049886428
0002b0 dc a5 8f 3d 78 61 86 3c 29 4e 21 bd 76 84 da bd
       0.07014057 0.016403899 -0.03938118 -0.10669796
0002c0 7e 04 e8 3d 30 58 29 3d f9 72 9a 3c b9 0f 50 3c
       0.11328982 0.041343868 0.018853651 0.012699061
0002d0 50 6f 8a 3d 98 1a ba bd d6 c8 49 bc f8 e4 e4 3d
       0.067595124 -0.090871036 -0.012315949 0.11176485
0002e0 8e e9 24 bd 0f 1a 04 be 6b d9 88 bd 4a 3c ce 3d
       -0.040261798 -0.12900566 -0.06682094 0.10070093
0002f0 8f 90 af 3d c7 da c3 3d 4a 7e 68 bd 40 83 91 bd
       0.08572494 0.09563213 -0.056761064 -0.07105112
000300 aa ce 0a be 39 43 e2 bc 46 15 72 bd ce 90 06 3e
       -0.13555399 -0.027619945 -0.05910232 0.13141176
000310 fd 98 3e bd b6 c5 99 bd 7c 40 50 3d c6 ad 5f bd
       -0.04653262 -0.075084135 0.050842747 -0.054609083
000320 2f d5 83 bc e8 0f 22 3e 39 84 e6 3d b7 8b ea bd
       -0.016092865 0.1582638 0.11255688 -0.1145243
000330 cc 3b 8d 3b ed 20 02 3c 98 f4 0a 3e 24 22 f6 bd
       0.004310107 0.00794242 0.13569868 -0.120182306
000340 b2 f5 92 3d 94 4d 14 be 0a ef ee bd e9 89 b7 bd
       0.07175769 -0.14482719 -0.11666687 -0.08961851
000350 b5 3c 11 be 01 78 12 3b ad 60 f4 3d 8d f6 f6 bc
       -0.14183314 0.002234936 0.11932502 -0.030146861
000360 7d 7a a1 bd e3 7b e4 3c ad c2 d4 bd 31 de de 3d
       -0.07884691 0.027891105 -0.10388694 0.108822234
000370 17 3f fd 3c 6b fc 09 3e e6 4e 6d 3d 0a f8 06 3d
       0.030913873 0.13475196 0.05793657 0.032951392
000380 e5 1a 1e 3d 57 64 da 3d 3c 33 04 be 8e 63 dd bd
       0.038599867 0.106636696 -0.1291017 -0.10810004
000390 8f c9 ce 3d 66 f9 43 3d ad 75 f7 3d 30 9a 21 3d
       0.10097038 0.047845267 0.12082992 0.039453685
0003a0 2d 7f 58 3d ad 2d c1 3d 5a 5b b7 3d b9 44 a1 3d
       0.05285566 0.0943254 0.08952971 0.07874436
0003b0 49 9b e2 bd 8e b0 77 3d cc ba 6f bd 6d d6 0e 3d
       -0.110647745 0.06047111 -0.058527753 0.03487246
0003c0 6a 58 92 3d e8 95 3e bd 1c 13 00 3e 9f be df 3d
       0.0714577 -0.04652968 0.1250729 0.1092503
0003d0 3d fa 48 3d a3 14 cb bd 60 c0 0d bc a0 dd 03 3e
       0.04906677 -0.099160455 -0.008651823 0.12877512
0003e0 1f 25 11 3c 54 ea e2 3d e6 f5 de bc ca ec ac bd
       0.008858948 0.11079851 -0.027216863 -0.084436014
0003f0 68 74 b9 3d 29 fb 3c 3d 2d 51 96 3d be 36 c6 bd
       0.09055406 0.046137962 0.07339702 -0.0967841

encoder.conv2.bias f4 [54]
000000 c2 19 94 bd 42 e8 b5 bd df 2e 07 bc 3f 73 fa 3d
       -0.072314754 -0.0888219 -0.008250921 0.12229013
000010 aa bf f7 bc 2f da 07 be df 8c 86 bd 8c f7 ba bd
       -0.03024276 -0.13266824 -0.06569838 -0.09129247
000020 bb d8 dc 3d 8e 89 cc bd 1a 86 d5 3d 66 b0 47 3d
       0.107835256 -0.09987174 0.104259685 0.04875221
000030 0d 93 93 bc 7a 97 1a bd f8 1f 92 3d 42 e1 8d bd
       -0.018014455 -0.037742116 0.07135004 -0.0692773
000040 cd 4c 47 bd fc 3c 05 3e 99 e5 1f bd ac 27 ca 3c
       -0.048657227 0.13011545 -0.03903732 0.02467712
000050 09 2f f5 3d a4 31 d3 bd 87 18 ea 3c 7e ac 99 b8
       0.11971862 -0.103122026 0.028576149 -7.327738e-05
000060 41 18 8f bd 5f 79 ee 3d f5 01 d2 3d 28 fd f2 bb
       -0.06987048 0.116442434 0.102542795 -0.0074154325
000070 55 52 90 bc 8f d1 c4 3d af cd 2f bd 48 9a 95 3d
       -0.017617384 0.09610283 -0.042920765 0.073048174
000080 35 a6 a2 bd 6a bc d1 bd e8 55 ab 3d 3b 15 c2 3d
       -0.07941858 -0.10241015 0.08365995 0.09476706
000090 e4 1c d5 bd e4 29 d2 bc 89 45 2a 3d 07 e3 97 3d
       -0.10405901 -0.02565474 0.04157022 0.07416349
0000a0 6d 34 89 3d 05 23 b7 3d 57 a5 88 bd 42 30 ea 3c
       0.066994525 0.08942226 -0.06672161 0.028587464
0000b0 45 73 d5 3d 21 91 f0 bd f5 dd c1 3d 81 ca 2e 3d
       0.104223765 -0.11746431 0.09466163 0.04267359
0000c0 aa 56 6c 3c 47 c6 0b 3e ef 88 4c bd e0 6d 34 bd
       0.014424959 0.13649856 -0.049935278 -0.044050097
0000d0 88 91 bd bd 1a b2 d3 3d
       -0.092562735 0.103367046

encoder.rnn.weight_ih_l0 f4 [192, 54]
000000 58 9b c9 bd dd 39 f5 3d 85 7c a6 bd e7 23 7c 3d
       -0.098440826 0.11973927 -0.08129219 0.061557677
000010 8b 4c a2 bd 1c aa eb 3d a9 95 c4 bd 2e ac 9c bd
       -0.07924756 0.11507055 -0.09598858 -0.07650028
000020 9e 0f 80 bd 98 e7 9d bd b8 da 0b 3e d0 ae 65 3d
       -0.06252979 -0.077101886 0.13657653 0.056074917
000030 e5 71 c3 bd d0 60 9c bd f3 fe 34 bd fb 38 b5 3a
       -0.09543208 -0.07635653 -0.04418845 0.0013826186
000040 03 72 9b bd 52 91 81 3d e8 a1 8f bd 65 28 97 3c
       -0.075901054 0.06326546 -0.07013303 0.018451879
000050 68 c5 b0 3d 78 05 bc bd 36 52 b4 bd 6a ea bd bd
       0.08631402 -0.091807306 -0.08804743 -0.092732266
000060 a1 2b a8 3c 79 6e c9 3d 0a 0c 9e bd 61 65 1a 3c
       0.020528616 0.09835524 -0.0771714 0.009423585
000070 3f 7c a6 3d b0 6c d6 3d fe 60 7c 3d 89 56 41 3d
       0.08129167 0.10469949 0.061615936 0.047201667
000080 36 57 94 3c cb 2a a2 3b bd ef eb 3d 5e 53 2f 3c
       0.018107992 0.004948949 0.11520336 0.010701029
000090 37 c0 80 3d 70 d1 85 3c 52 94 cd 3d 1d 3d 00 be
       0.06286662 0.01633522 0.100380555 -0.12523313
0000a0 82 92 14 bd cf 88 ee bd d0 ff 23 3d 34 f9 27 bd
       -0.036272533 -0.11647188 0.040038884 -0.041009143
0000b0 5e b9 cc bd a6 aa aa bd 7a 9b b4 3c 22 51 b6 3d
       -0.099962935 -0.0833333 0.022046793 0.089021936
0000c0 12 20 e5 3d 29 cb 9a 3d 39 a2 de bd c4 e8 d2 3d
       0.111877576 0.07558281 -0.10870785 0.10298303
0000d0 02 8e ec 3d ec 4d c7 bb 57 ed 14 be e3 60 a5 bd
       0.11550523 -0.006082287 -0.14543663 -0.0807512
0000e0 1c 6d f2 bd 2e 2c 63 bc 74 2c 23 3e 74 7b d9 3d
       -0.11837217 -0.013865514 0.15934926 0.1061925
0000f0 9f 6e 17 bd 2c 1a 04 bd fe 63 26 3d 96 6f 5a bd
       -0.03697073 -0.032251522 0.040622704 -0.053329073
000100 ae d1 be bd 1c fa c6 3c 4e 91 e6 3c 4f a3 7e 3d
       -0.09317337 0.024289183 0.028145459 0.062167462
000110 56 0b 61 bc f7 b2 93 3d 28 01 ca bd d9 08 ac 3d
       -0.013735613 0.07211869 -0.09863502 0.08400125
000120 36 38 8e 3d 6a 3f e6 bd fb da 3b bd 13 20 03 bc
       0.06944315 -0.11242564 -0.045863133 -0.008003253
000130 2b 20 2d 3d 60 2e 02 3e 01 8d 52 bd 09 c5 d8 bd
       0.042267006 0.12713003 -0.051404003 -0.105844565
000140 fc dc 16 be 67 51 c5 3d ad 2e af bd 20 9d dc bd
       -0.14732736 0.09634667 -0.085538246 -0.10772157
000150 d1 d3 8e 3d d4 7e 80 3d 3a 69 72 3d 39 a1 00 3e
       0.069739945 0.062741905 0.059182383 0.12561502
000160 a5 74 c4 bd c6 2d 28 bd 28 af 71 bc 55 4e bd 3d
       -0.09592561 -0.041059278 -0.014751233 0.09243456
000170 37 6c 07 bd f0 92 a6 bc 32 6a eb 3d bb 3e 6c 3d
       -0.033062186 -0.020333737 0.114948645 0.057677012
000180 25 ef 01 bd 44 cb f7 bd a4 83 01 bd 33 75 da 3d
       -0.031722207 -0.12099317 -0.031619683 0.10666885
000190 d6 fa c0 3d 9a 48 0f 3d 96 ce d7 3c 10 57 90 3c
       0.09422843 0.034981348 0.026343625 0.01761964
0001a0 ee 52 51 bd a1 0e 30 3c 5c 12 bb 3d 0d 53 31 3d
       -0.05110448 0.010745675 0.09134361 0.043292094
0001b0 11 fe e9 3c e9 9f be 3d 82 59 a2 3d c4 57 e9 3c
       0.028563531 0.09307844 0.079272285 0.028484233
0001c0 fc 23 95 bc 43 15 05 bd 85 8c 62 bd ed f2 6f bd
       -0.018205635 -0.03249098 -0.05530979 -0.05858128
0001d0 53 f3 ea 3d 68 f6 e8 3d f5 9b e1 bd 7f 8a d8 3d
       0.11472192 0.11375123 -0.110160746 0.10573291
0001e0 c0 60 6e bc bd b1 f1 bc 36 1c 08 3d 03 96 e3 bd
       -0.014549434 -0.029503698 0.03323003 -0.11112597
0001f0 58 9f 80 bd 9e e1 32 bd 33 03 12 bd 40 09 7d 3d
       -0.062803924 -0.043672197 -0.035647582 0.0617764
000200 58 15 2b bd 81 de c8 bd db e7 03 be 70 66 08 3e
       -0.0417684 -0.09808064 -0.12881415 0.13320327
000210 e9 ee 94 3d c9 f7 19 be 85 39 fe bd 04 1a c7 bd
       0.07272131 -0.15035929 -0.12413315 -0.09721759
000220 55 87 df 3d 32 1b 52 3d 4e 7b 1c 3d 1e 2a 84 3d
       0.109144844 0.051295467 0.03820353 0.06453346
000230 d8 8c ba 3c 71 10 cb 3d 4d 32 d7 bd 6c 9b c3 3d
       0.022772238 0.09915245 -0.10507641 0.09551129
000240 cd 4c 80 3d 11 ca 19 3d 51 65 99 3d 40 f2 07 bd
       0.062646486 0.03754622 0.07490028 -0.033190012
000250 4c 72 85 bd 23 59 27 bd f3 ba bd bd 96 43 8e bc
       -0.06515941 -0.04085649 -0.09264173 -0.017366212
000260 55 20 71 3d c0 9a 9f 3d e0 7a ac bc 2b cb 38 3d
       0.058868725 0.07793188 -0.021054685 0.04511563
000270 ad 1c 02 be 21 d7 c2 bd 30 fc d6 bd 64 ea 12 3e
       -0.12706251 -0.09513689 -0.1049732 0.14347225
000280 62 cc df bd 7a 5d 69 3d 8f bd ad 3d 3d 78 dc bc
       -0.10927655 0.05697391 0.08483421 -0.026912803
000290 68 eb 8b bc 70 e7 cd 3d 88 d3 b1 bd 05 41 ed bd
       -0.017080024 0.10053909 -0.086829245 -0.11584667
0002a0 32 6e d0 bc 48 73 9f 3a dc 56 8e bd dd 60 90 3c
       -0.02544317 0.0012165094 -0.06950161 0.017624313
0002b0 df 62 f1 3d e8 4a 72 3d 55 37 02 3d e1 aa b9 3d
       0.11786436 0.059153467 0.03179105 0.09065796
0002c0 85 31 88 bd 20 de 51 3b 20 75 f4 3c 71 fd fd 3c
       -0.0665007 0.0032023266 0.029841006 0.03100464
0002d0 d8 d3 43 bd c7 42 bc 3d 35 42 c6 bd 6c 1e 7e bd
       -0.04780945 0.09192424 -0.09680597 -0.06204073
0002e0 e9 99 fc bd d5 38 ef 3c 16 7c c4 bd 4a 96 c3 3d
       -0.123340435 0.029201904 -0.0959398 0.0955015
0002f0 36 ea b9 bd be f6 86 3d bb 09 e4 3d 3b 19 e9 3d
       -0.09077875 0.06590031 0.111346684 0.113817655
000300 36 00 14 3d 97 5e 3e 3d 62 a7 b2 3c dc 2f 96 3d
       0.036133014 0.046476927 0.02180833 0.07333347
000310 50 3e ff bb 54 7b c4 bd 34 69 05 3e c4 82 a5 bd
       -0.0077894107 -0.095938355 0.13028413 -0.08081582
000320 16 2f f0 3d c7 64 88 39 ca 60 80 3d 33 40 29 39
       0.11727731 0.00026015026 0.06268461 0.00016141012
000330 fb 2b 7c 3d 65 c4 93 3d cd 91 ea bd 24 41 7e 3d
       0.06156538 0.07215194 -0.114535905 0.06207384
000340 5a d9 23 bd 01 b1 e1 bd 29 7f c1 bd 54 aa 01 bc
       -0.040002204 -0.11020089 -0.09448082 -0.007914145
000350 04 c1 a0 3d 3f 2e d6 bd ac f7 14 3d 1a 2d 0f 3d
       0.07849315 -0.104580395 0.03636901 0.03495512
000360 63 b4 e9 bd 27 38 9d 3c 2d 49 98 bd 53 36 d7 3c
       -0.11411359 0.019191815 -0.07435832 0.026271021
000370 bc 0c 87 3c 70 d2 c7 3d ea 78 c0 bd 1d 7e a7 3d
       0.016485564 0.09756935 -0.093980625 0.08178351
000380 98 e7 c3 bc 56 d6 5e 3c 30 b2 0c 3d a0 a4 17 be
       -0.023914143 0.013600906 0.03434962 -0.14808893
000390 34 4c d0 3c bc c2 80 bc 13 1f 0d 3c 90 57 6d bd
       0.025426961 -0.015717857 0.008613366 -0.057944834
0003a0 0f 9f bb 3d ec 35 4a bd ff a3 70 bd bb 4b ae 3d
       0.091611974 -0.04936783 -0.05875015 0.08510538
0003b0 fd 3f 2d bd 33 09 3a 3d 3c 08 53 3d ce 05 68 bd
       -0.042297352 0.04541893 0.051521525 -0.05664616
0003c0 29 c4 1d 3d 95 79 c8 3d 60 4e e6 3b 73 83 c5 3d
       0.03851715 0.09788815 0.007028386 0.096442126
0003d0 d6 a1 72 3d 37 f2 87 3d 19 e3 c0 3d 83 5b 8b 3d
       0.05923637 0.06637996 0.094183154 0.06804564
0003e0 ad 1a 02 3d ce 42 8e 3d 96 cc 95 3d 8b 1e 5d bc
       0.03176372 0.06946336 0.07314412 -0.013496052
0003f0 f1 b1 b3 3b 07 6c e9 bd ae 55 37 bb ea da 7a 3d
       0.0054838588 -0.11397558 -0.0027974653 0.06124393

encoder.rnn.weight_hh_l0 f4 [192, 64]
000000 0f 11 91 bd 59 38 e0 3d 5a ca f5 bc d9 b7 83 bb
       -0.07083332 0.109482475 -0.030003715 -0.004019719
000010 56 75 77 3d 2e e0 81 bd 08 87 59 3c 5e b5 46 bd
       0.060414635 -0.06341587 0.013276823 -0.04851281
000020 e4 e3 95 bd 13 17 9f 3d 96 cf d0 3d 76 25 70 3d
       -0.07318857 0.07768073 0.10195844 0.058629476
000030 df 0e ec 3d 88 a4 53 3d 9b 0f d5 3d a7 b2 0a bd
       0.11526274 0.05167058 0.10403367 -0.033861782
000040 da d2 c0 3d 5f 79 8b 3c 5c 88 78 3c 18 22 e2 3d
       0.09415217 0.017025648 0.015169229 0.11041659
000050 52 fe c1 bd d4 88 cc bb 9f 43 71 bd 2b 01 dd 3d
       -0.09472336 -0.006241897 -0.05890238 0.107912384
000060 0c 0b 72 bc 58 ea 68 3d 46 f0 ae 3d d2 86 88 3d
       -0.014773142 0.056864113 0.08541922 0.0666634
000070 16 7d 49 bd 3d ba a6 3c c0 ff 57 3d 86 84 73 bd
       -0.049191557 0.020352477 0.052734137 -0.059452556
000080 5c 7b 78 3c 63 56 e1 bd 6d 2e a7 3c c9 eb ab 3d
       0.01516613 -0.11002805 0.02040788 0.08394582
000090 14 da 11 3c c5 21 83 3c 42 df e3 3d ec 84 ab 3b
       0.0089020915 0.016007314 0.111265674 0.0052343514
0000a0 69 f0 27 bd 3a 58 d8 3d b1 b8 98 bd 0c 99 73 3d
       -0.041000757 0.10563703 -0.07457102 0.05947213
0000b0 cf 21 86 3d 3f 39 d3 39 90 d4 11 be 9c 88 4e 3d
       0.06549417 0.00040287708 -0.14241242 0.05042325
0000c0 34 f1 c9 3d 17 10 56 bc a1 51 ac 3d c9 13 b5 3d
       0.09860459 -0.01306536 0.08414007 0.08841664
0000d0 29 6e d0 3c 5c 83 f5 3d 5d 98 85 bd 28 89 46 3c
       0.025443153 0.119879454 -0.065232016 0.012117662
0000e0 af 6f b0 bd 5a 25 d4 3d 0b b5 5a 3d a6 91 db 3d
       -0.08615052 0.10358687 0.053395312 0.107211396
0000f0 48 a9 b5 bd da 11 cc 3d 40 ad c4 3d 4f 9f e4 3d
       -0.088701785 0.099643424 0.09603357 0.11163198
000100 d3 77 55 bd 85 ef b3 bd c5 3b aa 3b 14 e9 ca 3d
       -0.052116226 -0.08785919 0.0051951134 0.099077374
000110 f3 53 c8 3d b5 cc de bc 7a ba 85 bc f5 5d 5c bc
       0.09781637 -0.027197221 -0.01632427 -0.0134501355
000120 47 77 e0 bc 24 a7 2c 3d af 46 3d 3c 9d 9e cb ba
       -0.027400626 0.042151585 0.011552497 -0.0015534941
000130 c4 6e bf bd 8b 2d 89 bc 3b e6 96 3d 2f 19 a0 bd
       -0.09347299 -0.01674535 0.07368132 -0.078173034
000140 71 c3 c1 3d 1d 8a 6d 3d c4 a8 f5 3c a4 af 64 3d
       0.094611056 0.057993043 0.0299877 0.055831566
000150 80 06 ab 3d ea fb e3 3d 54 db a6 bd 13 77 4a 3d
       0.08350849 0.11132033 -0.08147302 0.049429964
000160 04 49 95 3d 7c 04 09 be 93 51 a6 3d cf 10 0c be
       0.07289317 -0.13380617 0.08121028 -0.13678287
000170 e4 d6 99 bd 76 9f a3 bd 25 85 96 bd a3 b2 92 bd
       -0.0751169 -0.07989399 -0.07349614 -0.071629785
000180 50 55 3a 3c 5f 78 a6 bd 7d d5 3a bd 59 f6 d1 bd
       0.011372879 -0.08128428 -0.045613755 -0.10252065
000190 29 cd 1c bd 08 3d ba 3c 66 47 2e 3d 26 ee 12 bd
       -0.038281593 0.02273418 0.04254856 -0.035871647
0001a0 31 f9 70 3c af 4f 7f 3d db 06 b9 3d 7d c9 d2 bc
       0.014707849 0.06233185 0.09034511 -0.025730843
0001b0 61 16 9c bd 11 4d a0 3d f2 c0 a1 bd 8e 76 ef bd
       -0.07621456 0.07827199 -0.078981295 -0.116925344
0001c0 33 2e ae bd 09 4a 53 bb a5 ed 09 3d 8c 20 21 3d
       -0.085049056 -0.0032240173 0.0336739 0.03933768
0001d0 ef 41 c0 3d b7 77 28 bd b4 31 c8 3d 35 97 cd 3c
       0.09387576 -0.041129794 0.09775105 0.025096515
0001e0 c7 ee 02 3d 98 c8 cc bd 5b 3f 2d bd 80 3a 88 3d
       0.031965997 -0.09999198 -0.04229675 0.06651783
0001f0 dd e6 21 bd 42 06 87 3d 3a 36 d5 3c 53 5d 5f bd
       -0.03952681 0.065929905 0.026026834 -0.05453236
000200 98 9a e7 3d 45 95 e2 3b 3b c5 b8 3c 22 df e7 b8
       0.11308783 0.006914767 0.022554984 -0.000110565
000210 1e 90 dc bb 2e 58 d8 bb 31 ea 5f bd 70 0b fb 3b
       -0.0067310473 -0.0066023087 -0.0546667 0.0076612756
000220 31 65 2d bd dc b4 03 3e e9 4e a3 bd 6b 91 c3 bd
       -0.04233283 0.12861961 -0.07974035 -0.09549221
000230 ee e7 ef 3d cd b1 76 3d cb 99 b6 bd 52 a5 df 3d
       0.11714159 0.060228158 -0.089160524 0.10920204
000240 4c a8 dc bd b7 2f d1 bc 5d c9 95 bd 93 c4 8a 3c
       -0.107742876 -0.025535448 -0.073137976 0.016939437
000250 a4 e5 ac 3c ab 95 69 bd 0c 46 8c bd 34 2c 5e bd
       0.021105595 -0.0570275 -0.06849298 -0.054241374
000260 a2 6a b3 3d 58 81 74 3d a3 2a d2 3c 27 ef 24 bc
       0.08760573 0.059693664 0.025655096 -0.010066784
000270 ef 6b ab 3c f2 2b d7 bc 7a e4 b1 bc 01 16 ea 3d
       0.02092549 -0.026266072 -0.021715391 0.11429978
000280 95 b8 ac bd 8a f5 80 bd 5e dc ca bb 06 cd 07 3d
       -0.08433644 -0.06296833 -0.0061908206 0.03315451
000290 01 5f c5 bd ac 74 78 3d ac ba c9 3a e3 5c d1 bc
       -0.09637261 0.060658142 0.0015390716 -0.025556987
0002a0 52 dd 34 3b 91 2d f6 3b 93 77 01 be fd 30 4b 3d
       0.0027597737 0.007512756 -0.1264327 0.049607266
0002b0 ed 4b 66 3d 86 21 a2 bd f6 7e 32 3d 25 c3 98 bd
       0.056224752 -0.0791655 0.04357811 -0.07459096
0002c0 aa 4f 61 3d 81 5f 52 bd c1 10 71 3d e1 fd df ba
       0.055007614 -0.05136061 0.05885387 -0.0017089212
0002d0 f8 00 19 3c 07 6a 5f bd fc 43 54 3d 28 79 6f 3c
       0.00933861 -0.054544475 0.051822647 0.014616288
0002e0 59 0a 65 bd fc d9 d8 bc f6 93 8b 3c fa 1d e2 bd
       -0.05591807 -0.02647113 0.017038327 -0.11040874
0002f0 15 b6 94 3c 8c 08 c9 3c a2 f0 17 be 7d fd b2 3c
       0.01815323 0.024540208 -0.14837888 0.021849388
000300 4e 0f c5 bd 20 f5 fd bd be 2a b9 3d d8 eb 87 3d
       -0.0962206 -0.124002695 0.090413556 0.066367805
000310 84 5a b4 3d 9a db e3 3d 41 5b 68 bd 18 02 71 bd
       0.08806327 0.1112587 -0.05672765 -0.058839887
000320 2b 0c 75 3c 40 ca 62 3d e8 23 6a 3c 6d fb 9c bb
       0.014956514 0.055368662 0.014290787 -0.0047907145
000330 a8 63 eb 3d 2c 5f 93 bd d1 5d 55 3d de 8c 48 3d
       0.11493617 -0.07195887 0.052091423 0.048962466
000340 72 11 6f bd 6e 60 05 3d 8a 86 c6 3d 19 1e 90 bb
       -0.058366247 0.032562666 0.0969363 -0.004398119
000350 ac e1 a8 bd c5 f7 96 3d 5b 0d ba 3d 3c 23 19 3d
       -0.082461685 0.07371477 0.090845786 0.037387118
000360 aa 86 6c 3c c2 a1 9f 3d 83 8e 1e 3d 02 67 28 bd
       0.014436403 0.07794525 0.03871013 -0.04111386
000370 ba 49 bc bd ed f0 16 bd ba 06 6a 3c a6 d8 6c bd
       -0.0919375 -0.03685086 0.01428383 -0.0578238
000380 45 ab 69 3d 6b e7 ad bd b7 b1 d4 bd a1 d0 af 3d
       0.0570481 -0.08491405 -0.10385459 0.08584715
000390 87 ea c6 bd f0 15 13 3d 60 f5 e4 3d 64 15 2b 3c
       -0.09712701 0.035909593 0.11179614 0.010442112
0003a0 ee 67 ac 3d 89 64 94 bc 9b b8 b8 bd 05 59 7e bd
       0.084182605 -0.018114345 -0.09019586 -0.062096614
0003b0 44 ca 63 bd 64 5c a8 bd 0d 9d b5 bd d3 a8 4c 3d
       -0.055612817 -0.08220747 -0.08867846 0.04996569
0003c0 42 1d 06 3e 90 72 93 3d 39 3d 31 3d 0d 6c 90 bd
       0.13097098 0.071995854 0.043271277 -0.07051859
0003d0 6a 96 bc bc 98 c5 5a 3d 4c 3e d3 3d 3c 59 95 bd
       -0.023020942 0.053411096 0.103146166 -0.07292411
0003e0 b5 b3 ab 3d a1 c1 83 3d d9 d0 a3 bc a1 81 f3 bd
       0.08383886 0.06433416 -0.019997047 -0.11889959
0003f0 7a fd 96 3d 96 f9 75 3d 23 07 ad bd a0 fc c6 3d
       0.073725656 0.060052477 -0.08448627 0.09716153

encoder.rnn.bias_ih_l0 f4 [192]
000000 49 2c b8 bd 58 a2 fa bb 4c 1f 56 3c 52 54 a3 bc
       -0.08992822 -0.0076487474 0.013068985 -0.019937668
000010 d3 84 4a bd a3 7b 42 3c 3a 49 92 bc 6d 04 0e bd
       -0.049443077 0.011870298 -0.017857183 -0.03467219
000020 9c 6a 8a 3d c2 13 57 bd af 0a f2 bd 4d c3 f0 bd
       0.067586154 -0.052509077 -0.11818444 -0.11756001
000030 c2 11 2a 3d 05 ab a7 bd 8e 33 d2 bd 8e 00 16 bd
       0.04152084 -0.08186916 -0.102637395 -0.036621623
000040 9a 4f 78 3d 3f 80 69 3d e6 ca ae 3d 78 ad b6 bd
       0.06062279 0.05700707 0.085347936 -0.08919805
000050 ad 7b ba bd 1c ef 57 3d e9 dd de 3d 43 16 eb bc
       -0.091056205 0.052718267 0.1088217 -0.028697139
000060 9b 03 f1 bd 07 de d4 3d 00 2a 73 3d 9b c6 ac 3d
       -0.11768266 0.10393911 0.059366226 0.084363185
000070 84 ed 48 3d 26 64 07 3d 37 d0 0e bc 80 c5 9b 3d
       0.049054638 0.033054493 -0.0087166345 0.076060295
000080 a5 34 28 3d 78 6b e7 bd d7 16 50 bd 9d a6 f0 bc
       0.04106583 -0.11299795 -0.05080303 -0.029376322
000090 cc 72 82 3b 68 1b b6 3d ba 70 9e 3d 6a 83 8d bc
       0.00398097 0.08891946 0.07736345 -0.017274577
0000a0 12 d1 83 bd 82 fb 17 bc 06 e3 e5 3d e2 c6 dd 3d
       -0.06436361 -0.009276273 0.11224942 0.108289495
0000b0 dd a9 bd 3b 57 02 7d bc 93 97 8e 3d b2 d7 d1 bd
       0.0057880715 -0.015442452 0.06962504 -0.10246219
0000c0 59 dc 8c bd fe c2 e4 3d 9b 04 04 3e 1a 2e ed bc
       -0.068779655 0.11170004 0.12892382 -0.028952647
0000d0 4d ec d0 bd 02 2d ae 3d b4 73 53 3d e6 f7 31 3c
       -0.10201321 0.08504678 0.051624015 0.010862326
0000e0 cf f8 dc 3d 5e 35 f8 bd 9a 40 8e bc 3f 63 8c 3d
       0.10789644 -0.12119554 -0.017364789 0.06854867
0000f0 d7 06 7d bd f3 13 ff bd 2b 75 53 3b 71 0b c4 3d
       -0.0617741 -0.12454977 0.0032265882 0.09572495
000100 f5 9d 4d bc 04 42 cf bc 89 c6 65 be 00 a8 10 be
       -0.012549867 -0.025300033 -0.22439016 -0.14126587
000110 97 0b a9 bd eb 15 fe 3d 85 d1 e3 3c 1a f6 7a bc
       -0.08254164 0.12406524 0.027809868 -0.015317464
000120 fa 50 5f be 64 b7 f2 3b 12 a5 0c be 02 da 15 3e
       -0.21808234 0.007407116 -0.13734844 0.14633945
000130 f1 8f b7 bd c5 cf 9a bd 1b f9 57 3c 15 4f 3c be
       -0.089630015 -0.0755916 0.01318195 -0.18389542
000140 a0 ad bd bd 3c 40 a0 3d 32 f7 22 be f5 e0 13 be
       -0.09261632 0.07824752 -0.1591461 -0.14441283
000150 b2 2c 0b 3d 47 33 a0 3d 46 27 88 bd 6c fb 76 bd
       0.03397817 0.078222804 -0.06648116 -0.06029837
000160 73 c9 b0 3d 8d 4e a5 bd 35 9d 54 be 90 2b a9 3c
       0.086321734 -0.08071623 -0.20763095 0.020650655
000170 86 31 90 3d e4 5c 4f be 04 b0 0e be fc d2 cb b9
       0.07040696 -0.20250279 -0.13934332 -0.00038876373
000180 db 9e dc bd e0 1d c0 bb 0d ff 01 3e 85 8f d4 3c
       -0.10772487 -0.0058629364 0.1269495 0.025947342
000190 33 8e 79 bc 79 1d 57 bc d7 56 67 bd 41 a7 01 be
       -0.015231657 -0.013129585 -0.0564793 -0.12661459
0001a0 d0 01 12 be e7 3b a0 bd 1d 27 bf bd aa ac 55 3d
       -0.14258504 -0.078239255 -0.09333632 0.05216662
0001b0 ac 3d 9f 3d 79 2e b0 3c 06 85 47 bd fb e9 52 bd
       0.07775435 0.021506535 -0.048710845 -0.051492672
0001c0 54 fc b8 3b ee 1f 84 3d ca 0e 8e bc 07 95 34 be
       0.005645314 0.064514026 -0.017341036 -0.17634974
0001d0 1f 6e 1f be 1d 68 12 3d bb 68 27 bc 8f 41 89 bc
       -0.15569352 0.03574382 -0.010217841 -0.016754894
0001e0 d9 5c b4 3c 3e df d4 3c f2 29 5e bc cd e8 2d be
       0.02201693 0.025985356 -0.013559805 -0.16983338
0001f0 6d f5 0b be 82 11 c1 bd e9 92 c1 bd 34 8d 09 be
       -0.13667841 -0.094271675 -0.09451849 -0.13432771
000200 82 de f8 bd a5 97 8a bc 94 aa 50 bd 42 c8 d5 bd
       -0.12151815 -0.016918013 -0.050943926 -0.10438587
000210 fc 3d 9f bd 7b d4 b7 bc 59 23 78 bd 9a 5e ad 3d
       -0.077754945 -0.022440186 -0.060580585 0.084653094
000220 8f 2d 3b bc c7 ce 06 bd 73 29 b0 3d 80 b9 e6 bd
       -0.011424436 -0.032912042 0.08601656 -0.1126585
000230 75 89 1b 3d 6a b3 19 bc 15 6b bc 3d 45 37 e7 3b
       0.037972886 -0.009381155 0.09200112 0.007056149
000240 41 6a 38 bd 25 b9 a3 bd a3 1c a4 bd 02 15 64 bd
       -0.045023207 -0.07994298 -0.080132745 -0.055684097
000250 17 ed e1 3d 43 5a b3 3d 8c 1b f4 3d ea 13 46 bd
       0.110315494 0.087574504 0.11919317 -0.048358835
000260 f8 76 10 3d 5a 32 a9 bd 37 2b 1c bd bf 2f e4 3d
       0.035269707 -0.08261557 -0.03812715 0.11141919
000270 be 2d af bd cc 40 f0 bd 99 54 b2 ba 5c ac 82 3c
       -0.085536465 -0.11731109 -0.0013605534 0.015951328
000280 86 f3 cd 3d 02 d3 2b 3d 1f 77 bd 3c d2 cc fb 3d
       0.10056214 0.04194928 0.02312809 0.12294926
000290 1b 35 b8 3d 29 ba 94 bd 3c 4d df bd 1b 64 f4 bd
       0.08994504 -0.0726207 -0.10903403 -0.11933156
0002a0 66 6e 06 3d f7 2a fe 3c dd 07 c4 bc ac 32 bd 3d
       0.032820128 0.031026347 -0.02392953 0.092381805
0002b0 cd df b5 3c 0a 83 89 3c 87 e7 8c bc 82 fe 8d 3d
       0.022201443 0.016786117 -0.017200245 0.06933309
0002c0 37 0f 40 3d 1a 7a aa bd 58 73 1e bd 8c 7d 79 3d
       0.04688951 -0.0832407 -0.03868422 0.060910746
0002d0 1d 45 31 3d 9a 07 cb bc 74 07 e7 3d 16 e1 d2 3d
       0.043278802 -0.024783898 0.112807184 0.10296838
0002e0 fa c4 49 bd 37 46 c0 3d c1 b8 c4 3d 1f 36 b1 3d
       -0.049260117 0.093883924 0.096055515 0.08652901
0002f0 6e 2f 2f bd 47 67 5f 3d 24 5d 84 bd f1 fe 81 3d
       -0.04276984 0.054541852 -0.06463078 0.06347454

encoder.rnn.bias_hh_l0 f4 [192]
000000 54 85 b4 ba a9 09 71 3d 3a 2f 89 3d da c5 1d 3d
       -0.0013772645 0.058847103 0.06698461 0.038518764
000010 d8 12 2a 3d 63 58 78 bd 5a 2c d2 bd 8e dc b5 bd
       0.041521877 -0.060631167 -0.10262366 -0.08879958
000020 c6 87 6d bc 27 1c c0 bd a4 f8 0c bd e5 1e 8f bc
       -0.014497703 -0.0938037 -0.03441681 -0.017470786
000030 f1 a4 f7 bd 44 30 01 3e 58 99 97 3b 4b e4 a6 3d
       -0.12092007 0.12616068 0.0046264343 0.08149012
000040 6a ed 07 be 41 aa 5b 3d 92 e9 b6 bd a5 52 dd 3c
       -0.1327416 0.053629164 -0.08931269 0.027016947
000050 ff ca b6 3d cf db bc 3d 76 9a f9 bd 9a b9 95 bd
       0.08925437 0.09221613 -0.12187664 -0.07310791
000060 e7 d9 5b bd 1c d5 e7 3c df e2 cd bd 65 28 9f 3d
       -0.053674605 0.02829986 -0.10053038 0.077713765
000070 f8 9a b6 bd ba ac 86 bc ac 3a 3f 3c d2 60 9f bd
       -0.08916277 -0.016439784 0.011671703 -0.07782139
000080 8e af 31 bc 14 a8 0f be e4 d1 94 bd 24 2d 03 be
       -0.010845078 -0.1402896 -0.07266596 -0.12810189
000090 fe 22 44 3d da 95 32 bd d3 01 f1 bc 01 3c 70 3d
       0.047884934 -0.04359994 -0.029419815 0.058650974
0000a0 c4 ea 42 3d d9 48 7e 3d 51 86 77 3c c7 35 d8 3d
       0.04758717 0.06208119 0.015107707 0.10557132
0000b0 95 b3 f2 bc b3 48 c7 3d 89 c8 94 bd d5 de 05 be
       -0.029626647 0.09730663 -0.072648115 -0.13073285
0000c0 3f 64 30 bc 8e 76 37 bd ed b3 97 bd 7a 66 d7 bd
       -0.010766088 -0.044790797 -0.07407365 -0.10517593
0000d0 1d d9 82 bc 12 c8 16 3c 32 22 37 bc 13 4a f7 bc
       -0.015972668 0.009202974 -0.011177586 -0.030186689
0000e0 7a c1 b8 3d 39 58 36 3d b9 77 98 bd 7f b7 c1 bd
       0.09021278 0.04451773 -0.0744471 -0.09458827
0000f0 66 bd c4 bb c1 ea f5 3c a0 62 d7 3d 01 d2 ad 3d
       -0.0060040234 0.030019166 0.10516858 0.08487321
000100 90 df 66 3d 07 88 47 bd a7 14 76 be 6a 41 27 bc
       0.05636555 -0.04871371 -0.24031316 -0.010208467
000110 5c 96 83 bd e9 12 bf 3d 8b 65 c6 bd 0f cd 44 be
       -0.06425163 0.09329779 -0.096873365 -0.19218849
000120 fc 87 2e be b9 73 f8 bd cd 7b 98 be 63 f6 1d 3e
       -0.17044061 -0.12131447 -0.29781953 0.1542602
000130 d1 5d 61 bd b1 91 25 3d d6 dd 43 3e 4d 62 2f be
       -0.05502111 0.040422145 0.19127592 -0.17127343
000140 a2 9b 6d 3d e7 54 1e 3e b0 91 84 be cb a2 95 bd
       0.05800975 0.15462075 -0.258924 -0.07306441
000150 66 20 17 3d 8f bf f1 3b 51 41 1b bd 15 90 02 be
       0.036896132 0.007377572 -0.037904087 -0.12750275
000160 fd 24 94 bd dc c2 38 bb e4 bd 51 be 9f 1d b5 bb
       -0.072336175 -0.0028192317 -0.20482594 -0.0055272128
000170 f9 0c 81 bd af 6e 3e be ce 6b 9d 3d d0 9d 2e be
       -0.063013025 -0.1859691 0.07686578 -0.17052388
000180 f0 c5 8c 3c 4b 64 13 3d 5f a1 6a bd 79 f2 d0 bd
       0.017184228 0.03598432 -0.0572828 -0.10202498
000190 51 5c 42 bd ba e0 15 3e bb 28 5d bd 1c ab 5c bc
       -0.04745132 0.14636508 -0.05399392 -0.01346853
0001a0 9b 44 07 be 3c f4 12 be 7b 07 0a 3d 94 4f a8 3d
       -0.13209765 -0.1435098 0.03369854 0.08218303
0001b0 db 20 81 3d 9a 5e 74 3d 32 c1 af 3d 22 18 2a bd
       0.06305095 0.05966053 0.08581771 -0.04152692
0001c0 07 50 12 be d0 39 1d bd cb 3b 08 3e b8 11 21 be
       -0.1428834 -0.038385212 0.13304059 -0.15729415
0001d0 67 61 3d bd f3 64 8d bd 86 e8 2d 3d 77 d2 69 bd
       -0.04623547 -0.0690402 0.04245808 -0.05708548
0001e0 ed a3 52 3a 95 95 e3 bb 97 bf a1 3d 92 26 41 bc
       0.0008035291 -0.006945322 0.07897871 -0.011788981
0001f0 2d aa 24 3d e0 4f 18 be 0d 13 49 be 9a 04 e0 bd
       0.040201355 -0.1487422 -0.19636174 -0.10938378
000200 2f a2 5a 3d 00 cc 6c 3d b9 4c f0 bd 0d 00 c7 bd
       0.053377327 0.057811737 -0.11733384 -0.097168066
000210 5a 5b fa bc 6a 71 62 bc e0 53 bd 3d 9d e7 04 3d
       -0.030561138 -0.013820985 0.092445135 0.032447446
000220 b6 7f c3 3d ad 14 ce bd a6 02 e6 3d 34 7c df 3d
       0.09545843 -0.10062537 0.11230974 0.10912362
000230 3b 25 8e 3d 5d 04 a0 3c 82 d7 cf 3d 37 c6 41 bc
       0.06940695 0.01953333 0.10148527 -0.011827043
000240 42 5d 3e bc cc dc 28 bc 17 96 26 3d 51 1b 3b 3d
       -0.011618914 -0.010306548 0.04067048 0.045680348
000250 cb 94 d1 3d fc 6e 9d 3d 2f 21 6e 3d 0d c4 f1 3c
       0.10233458 0.07687184 0.058137115 0.02951243
000260 5f af df 3c 97 bb be 3d f0 25 42 bd 75 93 aa 3d
       0.027305303 0.09313124 -0.04739946 0.083289064
000270 b6 af 77 bd f1 b9 3d bd ab 5f 36 3d 29 df b2 bd
       -0.060470305 -0.046319906 0.04452483 -0.08733971
000280 f5 24 48 bd 32 6b ed 3c 42 9b 68 bb 90 d5 98 3d
       -0.04886337 0.028981779 -0.0035492931 0.07462609
000290 b2 c1 b6 bd 90 7b e4 bd 4b 4a 84 3c 47 42 49 3d
       -0.08923663 -0.1115638 0.016148707 0.049135473
0002a0 2b 2a 6e 3c b8 c6 b6 bd 34 e3 94 bd 4f 3b 47 3d
       0.014536421 -0.08924621 -0.07269898 0.048640545
0002b0 ab ac 84 3c 77 db 91 3d 88 fa 83 bd 1b c2 b1 3d
       0.016195616 0.07121938 -0.064442694 0.08679601
0002c0 38 a9 87 39 6e 6a 1a 3d 6a 33 ab bd 63 20 29 bc
       0.00025875284 0.037699156 -0.08359416 -0.010322663
0002d0 dc 94 fc bc 0c 4f c6 bd d1 1a 91 3d d8 14 2d 3d
       -0.0308327 -0.09683046 0.07085193 0.042256206
0002e0 73 6f 90 bd 21 6c f9 3c 68 0b e1 bc ef 48 fa bd
       -0.07052507 0.030447068 -0.02747126 -0.12220942
0002f0 47 82 b7 3c 28 51 da bc b6 44 a7 3d 75 27 36 bc
       0.022400988 -0.026650026 0.081674024 -0.011117806

encoder.rnn.weight_ih_l1 f4 [192, 64]
000000 f5 c4 95 bd 3e 22 3c bd 80 3d 2c 3d be 8b bc bd
       -0.07312957 -0.045931093 0.04205084 -0.09206341
000010 2c b9 f1 3b 45 09 bd bd 88 4d d2 bd 28 7a bb bc
       0.0073768105 -0.09230284 -0.10268694 -0.022885397
000020 4d c0 c0 3d de 01 6a bd 46 b3 91 bd 0c be 46 bd
       0.094116785 -0.057130687 -0.07114272 -0.048521087
000030 18 7c b1 bd e6 ac c5 bc a6 06 d2 bd a6 f8 4b 3d
       -0.08666247 -0.024130296 -0.10255174 0.049797677
000040 0f e2 f6 bd a0 c5 e7 bd 5d 3e f4 bd 83 c3 9e bd
       -0.12054836 -0.11316991 -0.11925957 -0.07752135
000050 f4 5c f2 3c 9f 91 c2 3d 19 7f 8f bd 67 d6 98 3d
       0.02958534 0.09500431 -0.07006664 0.07462769
000060 3a 77 d3 bd 63 33 c3 bd 5b 2c 25 3d 49 1c 92 bc
       -0.10325475 -0.095312856 0.040325504 -0.017835753
000070 5e 3d 77 bd 94 00 04 3c 39 90 7e 3b 47 72 cc 3d
       -0.06036126 0.008056778 0.0038843288 0.09982734
000080 dc fa 1c 3d d6 a4 24 b9 f0 6d c9 bd d0 c8 23 bd
       0.038325176 -0.00015701665 -0.09835422 -0.03998643
000090 1e cd c7 bd 6e 78 a7 bc a9 0e 02 bd c8 96 e7 bc
       -0.0975592 -0.020443168 -0.031752262 -0.02827014
0000a0 31 dd c5 bd 9a d2 55 3d b4 22 2c 3d 7b 53 5b bc
       -0.096613295 0.0522028 0.042025283 -0.0133866025
0000b0 bd 5f 2e bd 03 1f f7 3c 8d f0 ab 3d 0c ae 3e 3d
       -0.042571772 0.030166155 0.08395491 0.046552703
0000c0 7b 06 27 3c bb a6 77 3c ae d3 b3 3c 95 b2 0d 3c
       0.010194416 0.015115435 0.021951523 0.008648534
0000d0 98 c4 19 bd 9e 4f b6 bd 00 08 a8 3d cf d4 91 3d
       -0.037541002 -0.089019045 0.08204651 0.07120668
0000e0 e3 66 fa bd f9 17 96 3c b9 6b be bd c3 c6 eb 3d
       -0.12226655 0.018321978 -0.0929789 0.1151252
0000f0 29 09 25 bc 72 bf 7c bd 50 f7 9f bd 47 5e 8d 3d
       -0.010072985 -0.061706014 -0.07810843 0.069027476
000100 d5 37 cf bc ef bc 91 bc 59 67 e4 3d 59 c9 0a bd
       -0.025295177 -0.017790286 0.111525245 -0.033883426
000110 88 b4 86 bd ea 04 2f 3d 56 3e 00 3d bd 02 bd bd
       -0.06577402 0.042729296 0.03130945 -0.09229038
000120 d4 13 46 3d 3b 65 9c bd c1 17 94 bd 65 9c b5 bd
       0.048358753 -0.07636496 -0.07231093 -0.088677205
000130 eb 9d 3a bd 68 c7 43 3b 99 dc 6e bd de 7c ab bd
       -0.04556076 0.0029873494 -0.058315847 -0.08373426
000140 0e 99 2b bd a4 32 e8 3c ca e3 af 3c 38 ef de bd
       -0.04189401 0.02834446 0.021470923 -0.10885471
000150 86 47 e0 bd a5 29 ae 3d b9 17 4b 3c 93 d9 91 3d
       -0.10951142 0.08504037 0.012395793 0.07121577
000160 0c 87 1b bc c2 1b cf bd 0b 54 e8 bd 6b a1 91 3d
       -0.009492647 -0.10112716 -0.11344155 0.07110866
000170 5b e2 b3 bc d2 c9 29 bd d4 66 11 be de 0d 7b 3d
       -0.02195852 -0.041452236 -0.14199382 0.06129252
000180 44 9e d3 3c ef 68 d2 bd a7 ae 9f 3b d0 45 b8 bd
       0.025832303 -0.10273921 0.004873115 -0.08997691
000190 1a c6 1d bd 26 53 87 bd ad be 0d bd 4d e9 ac bc
       -0.038519002 -0.06607656 -0.03460567 -0.02110734
0001a0 bc e9 d4 bd 94 b6 b3 bd 8b 2d db bd 8b 12 92 3d
       -0.10396144 -0.087750584 -0.10702046 0.07132443
0001b0 93 84 a7 bd dc dd b3 3d 8c 46 a0 3d 3e 42 a2 bd
       -0.081795834 0.08782551 0.07825956 -0.07922791
0001c0 fb 00 c7 3d 3b 30 ff bb 20 bf a2 bb b9 8f b6 3d
       0.09716984 -0.007787732 -0.0049666315 0.08914132
0001d0 8e df b7 3d 3e c3 17 bb 92 ca e7 3d fa 78 9d bd
       0.089781865 -0.0023157145 0.11317934 -0.0768909
0001e0 46 63 bd 3d d8 26 7e 3d 93 95 dd 3d 2f f0 ac bc
       0.092474505 0.062048763 0.10819545 -0.021110622
0001f0 42 21 05 3e e8 96 bf 3d d2 ab 96 bd ed 1a ea 3d
       0.13000968 0.09354955 -0.07356991 0.11430917
000200 cf 74 a0 bd 11 87 b5 3d 8c 0e 11 be ac 9b 25 3d
       -0.078347795 0.088636525 -0.14165705 0.040431663
000210 cc d6 c3 bd b9 49 b5 3c 7d bd 43 bd 09 44 b3 bd
       -0.09562454 0.02212988 -0.047788132 -0.08753211
000220 8d 41 71 bc 58 70 c2 bd eb 46 3c bc 23 6a 8a bd
       -0.014725101 -0.09494084 -0.011491518 -0.06758525
000230 30 47 09 be 57 db eb bd d1 94 8b bd 8d 7e cc 3d
       -0.13406062 -0.11516445 -0.06815494 0.09985075
000240 13 eb a3 3d 4d 6d 00 3b 7a 08 1c 3d 96 fb 9e 3d
       0.08003821 0.0019596398 0.03809402 0.0776283
000250 c5 c9 91 bc 02 da bd bd 6d 26 03 be b9 ac f9 bd
       -0.017796407 -0.09270097 -0.12807627 -0.12191147
000260 76 a3 8c 3b 29 43 f5 3c 01 b5 e3 bd 17 21 58 3d
       0.004291947 0.029939251 -0.11118508 0.052765932
000270 0c 79 dc 3d cd 41 63 3d 95 c0 70 3d 85 38 da bd
       0.10765275 0.055482674 0.05877741 -0.106553115
000280 56 89 82 bd fe 24 d5 3b 56 37 ba 3d f7 e2 36 bc
       -0.06373851 0.006504654 0.09092586 -0.011162511
000290 df 3e e8 bd aa 2e fd 3a 2f fa 32 bb aa ba 84 bd
       -0.11340117 0.0019316275 -0.0027309766 -0.06480916
0002a0 67 5b 6c bd 4b c4 65 bc 8a e9 55 3d 66 54 2b bd
       -0.057704356 -0.014023851 0.052224673 -0.041828535
0002b0 8d 42 b4 3d fd 5a d9 bd 0a 3c 10 bd 73 74 89 3d
       0.08801756 -0.10613058 -0.035213508 0.06711664
0002c0 00 7f ab 3c 10 0d 1f be 1a 4a a8 3c fb c3 bc 3d
       0.020934582 -0.15532327 0.020543147 0.09217068
0002d0 45 57 ba bd 61 81 c5 3d a1 5d ee bc b0 53 ec bd
       -0.090986766 0.09643818 -0.02909738 -0.115393996
0002e0 6d 5d 38 3d 53 50 96 bd ef b7 17 3e ab f9 0a be
       0.045010973 -0.073395394 0.14816259 -0.13571803
0002f0 0b a8 53 bd 5b 6f 4f bc 5c a1 5a 3d f5 6f 1d bd
       -0.05167393 -0.012660827 0.05337654 -0.03843685
000300 f1 09 18 bd f2 2d 8d bd e2 6d c3 3d d7 4b f8 3d
       -0.037118856 -0.06893529 0.09542443 0.1212384
000310 a2 09 61 bd 02 0a 64 ba de 04 e1 bd 43 6a da 3d
       -0.054940827 -0.0008699001 -0.109872565 0.10664799
000320 84 05 88 bd e3 4a 89 bd 55 6f 84 bd 35 90 01 3d
       -0.06641677 -0.06703737 -0.064665474 0.031631667
000330 9c ba 23 3d db cf d0 bd 9f 43 0b bd 94 d9 83 3d
       0.039972886 -0.10195895 -0.034000035 0.06437984
000340 26 e4 ae 3c f3 8a e3 bd e3 1e 91 3d ef e4 d7 3d
       0.021349024 -0.11110487 0.07085969 0.105417125
000350 50 22 25 bc b9 5a f6 3d 2f 9c af 3d c5 22 c8 bd
       -0.0100789815 0.12029023 0.085747115 -0.09772257
000360 e0 df 60 bd 87 c2 eb 3d 13 00 14 bd cf f3 d9 3d
       -0.054901004 0.115117125 -0.036132883 0.10642206
000370 51 3f b5 bd 27 cd dd 3d 6e 96 30 3d ef 13 d9 bd
       -0.08849967 0.10830145 0.04311221 -0.10599505
000380 91 55 e7 bd 01 94 c6 bd e9 d2 df 3d e8 67 04 3d
       -0.11295617 -0.09696198 0.109289 0.032325655
000390 22 60 14 3d 71 68 15 bd 03 1d ee bd 14 09 cb 3d
       0.036224492 -0.036476556 -0.11626627 0.09913841
0003a0 7f 1d 87 bd 1b 48 a6 bc 43 1e 01 bc bd 0d d3 3d
       -0.06597423 -0.020298054 -0.00788075 0.10305355
0003b0 d3 21 46 3d ea 9a 3d bc 57 7f d4 3d fc 57 d1 3d
       0.0483721 -0.011572579 0.10375851 0.1022186
0003c0 83 f7 65 bb a7 ba c5 3d cc 35 71 bd df 37 d4 bd
       -0.0035090155 0.09654742 -0.058889195 -0.10362219
0003d0 f7 88 de 3d 28 77 9f bb 1f cb 7f bc 25 45 ae bd
       0.10865968 -0.0048664995 -0.015612393 -0.08509282
0003e0 35 96 51 bd 07 9f 87 bd 96 55 74 3a 62 28 dd bd
       -0.05116864 -0.06622129 0.00093206146 -0.10798718
0003f0 70 4c 81 3d 42 e2 ce 3c f4 eb 3c bc 37 ef af bd
       0.063134074 0.025254373 -0.011530865 -0.085905485
