checkpoints/models/single_stock_daily/81to9/000001/model30.pth (torch, 292914 bytes, 16 tensors)

encoder.conv1.weight f4 [18, 6, 3]
0	0xbe0e007d	-0.13867374
1	0xbdc2a994	-0.09505001
2	0xbde2597b	-0.11052223
3	0xbc834b9b	-0.016027262
4	0x3e2961a0	0.16541147
5	0x3d5ede8e	0.054411463
6	0xbe622a76	-0.2208651
7	0x3e5ce7a3	0.21572737
8	0x3e4ccc81	0.19999887
9	0x3d86c02a	0.06579621
10	0x3de41d5e	0.11138414
11	0x3dc34029	0.09533722
12	0x3e3cbd08	0.18431485
13	0xbe6cab14	-0.23112136
14	0xbe0f7021	-0.14007618
15	0xbd511834	-0.051048473
16	0xbd84540b	-0.064613424
17	0xbe259be0	-0.16172743
18	0xbe6624c0	-0.22474957
19	0xbe3a97d2	-0.18221977
20	0xbd10cf97	-0.035354223
21	0x3e4fa9ad	0.2027957
22	0x3e277726	0.16354045
23	0x3da138e5	0.0787218
24	0xbe0e1df9	-0.13878621
25	0xbda6e8f9	-0.08149905
26	0x3d2cda25	0.042200226
27	0xbe5ad412	-0.21369961
28	0x391faaff	0.00015227123
29	0x3d82bfb4	0.06384221
30	0x3e5e7e1b	0.21727793
31	0xbd5326ba	-0.051550604
32	0x3e7c98c8	0.24667656
33	0x3bcd45b9	0.006264415
34	0xbe2c646b	-0.16835181
35	0x3e68f12f	0.22748254
36	0x3e58a5f8	0.21157062
37	0xbe3bd7e4	-0.18344074
38	0xbe09cebf	-0.13457774
39	0x3dce2f7b	0.1006765
40	0xbe2c7124	-0.16840035
41	0x3e13d639	0.14437188
42	0xbe0827d7	-0.13296448
43	0xbde2ba62	-0.11070706
44	0xbdc31adf	-0.0952661
45	0x3e54834f	0.20753215
46	0xbde4b2ee	-0.11166941
47	0xbd8d2bab	-0.06893095
48	0x3e01a449	0.12660326
49	0xbe44590d	-0.19174595
50	0xbcbb5eb4	-0.022872306
51	0xbe42e20e	-0.19031546
52	0xbe8115a4	-0.25211823
53	0xbdbd33cb	-0.09238394
54	0x3cecede9	0.028922038
55	0x3e446be6	0.19181785
56	0xbe684a6c	-0.2268464
57	0xbd945e68	-0.07244569
58	0x3d51bb67	0.05120411
59	0x3dbcf182	0.092257515
60	0x3e03a70c	0.12856692
61	0xbe55371c	-0.20821804
62	0xbd5b5565	-0.053548235
63	0x3d41ab85	0.047282714
64	0xbe512e88	-0.20427907
65	0x3dfab5d4	0.12241712
66	0xbe6d575e	-0.23177859
67	0x3e076d47	0.1322528
68	0x3da4db61	0.08049656
69	0xbd88b8e8	-0.06675893
70	0x3d69513d	0.05696224
71	0x3e49c21f	0.19702958
72	0x3e34d408	0.17659009
73	0x3e10208f	0.1407492
74	0xbe07c0ab	-0.13257091
75	0x3d9bacd5	0.076013245
76	0x3e45beda	0.19311085
77	0x3d81100b	0.06301888
78	0x3e2e4c68	0.17021334
79	0xbdf4c93a	-0.119524434
80	0x3e4dc180	0.20093346
81	0x3b847071	0.0040417244
82	0xbe419cad	-0.18907423
83	0xbd014abb	-0.03156541
84	0x3e608d14	0.21928817
85	0xbd7928fa	-0.060830094
86	0xbc482557	-0.012215934
87	0xbdd5a1df	-0.10431265
88	0xbdfb59b3	-0.12272968
89	0x3d8cf1fd	0.06882093
90	0x3e1463ae	0.1449115
91	0x3cd16ca0	0.025564492
92	0xbc59644b	-0.013268541
93	0x3c2a9859	0.010412299
94	0xbe39e31a	-0.18153039
95	0xbdfb9096	-0.12283437
96	0x3bf1105f	0.007356688
97	0xbe476286	-0.19471177
98	0x3df5cafc	0.12001607
99	0x3d02f304	0.03197004
100	0xbb540e0d	-0.0032357008
101	0xbc5168aa	-0.0127813015
102	0x3e47eb17	0.19523273
103	0x3e569e24	0.20958763
104	0x3df0bfdb	0.117553435
105	0x3de3d7ad	0.11125121
106	0xbdfd782e	-0.12376438
107	0x3dbed0b1	0.093171485
108	0xbe23a640	-0.15981388
109	0x3dc983f7	0.098396234
110	0xbe28bbdb	-0.16477911
111	0x3b6a7adf	0.0035778803
112	0x3e3c8947	0.18411742
113	0x3e30c1b7	0.17261396
114	0x3e6077b6	0.21920666
115	0x3dd63818	0.10459918
116	0x3df4aacc	0.119466394
117	0x3d92f38b	0.071753584
118	0x3e44882b	0.19192569
119	0x3e166671	0.14687516
120	0x3d9dd08d	0.077057935
121	0xbd821e39	-0.06353421
122	0xbdbc5c6f	-0.09197318
123	0xbd935239	-0.07193417
124	0x3def11bf	0.11673307
125	0xbdddf3ed	-0.10837541
126	0x3d83f3f6	0.06443016
127	0x3e5575b3	0.2084568
128	0x3e4967ae	0.19668457
129	0xbe354fbf	-0.17706202
130	0x3d6e7eda	0.058226444
131	0x3e11abc2	0.14225677
132	0xbe62b5ad	-0.22139616
133	0x3e099176	0.13434395
134	0xbe2c7d56	-0.16844687
135	0xbe349fef	-0.17639135
136	0xbde82325	-0.11334828
137	0xbdd9d875	-0.10636989
138	0xbdd1d9b1	-0.102465995
139	0x3d62f0fd	0.055405606
140	0x3d98d3ac	0.07462248
141	0x3de4afe6	0.111663625
142	0x3e300eaf	0.17193101
143	0xbe1f5c66	-0.15562591
144	0xbe620f6f	-0.220762
145	0xbe3ffcf1	-0.18748833
146	0xbe0343af	-0.12818788
147	0xbddf7750	-0.10911429
148	0x3dc04156	0.09387462
149	0xbe38f131	-0.18060757
150	0xbe37b021	-0.17938282
151	0x3dd7d40f	0.10538494
152	0xbe2fa858	-0.17154062
153	0x3d2264f5	0.03964706
154	0xbe4872cf	-0.19575046
155	0x3d964a99	0.07338447
156	0x3e129845	0.14315899
157	0xbe5aeddd	-0.213798
158	0x3d831c6f	0.06401908
159	0xbdb5e6b6	-0.08881895
160	0x3e291643	0.16512398
161	0x3e60dcd2	0.21959236
162	0xbe518da4	-0.20464188
163	0x3db0c49e	0.08631252
164	0x3e1e521d	0.15461011
165	0x3e5848a1	0.21121456
166	0x3e330bdc	0.17484993
167	0x3d143789	0.036185775
168	0x3c2f9694	0.010717053
169	0x3d37a2f9	0.044833157
170	0xbe205aaa	-0.15659586
171	0xbd4a3c7d	-0.049374092
172	0xbbec78be	-0.007216542
173	0xbe269ca7	-0.16270696
174	0xbc5a9b0c	-0.01334263
175	0xbd0e2ca7	-0.034710553
176	0xbdc4379a	-0.09580918
177	0xbd8ad471	-0.06778801
178	0xbe67dbfe	-0.22642514
179	0x3e64de65	0.22350462
180	0x3dee5203	0.11636736
181	0x3e325f7f	0.17419241
182	0xbe488309	-0.19581236
183	0xbe688923	-0.22708564
184	0x3e3ff0b0	0.18744159
185	0xbd0d5668	-0.03450623
186	0x3d40298c	0.046914622
187	0x3e108beb	0.14115874
188	0x3cd8e319	0.026475476
189	0x394f63f7	0.00019778298
190	0x3e22c57e	0.1589565
191	0x3e4b2208	0.198372
192	0xbd722b24	-0.059123173
193	0xbe3c3506	-0.18379602
194	0xbdf6b05c	-0.12045357
195	0x3e4c8c75	0.19975455
196	0x3d8faf8a	0.07015903
197	0x3e7cbcd8	0.24681413
198	0xbd94022e	-0.07226978
199	0xbe5f45c5	-0.21803959
200	0x3da55868	0.08073503
201	0xbdcd048a	-0.100106314
202	0xbe18bb9d	-0.14915319
203	0x3e14c82f	0.14529489
204	0x3c2fa4fc	0.010720488
205	0xbd224327	-0.039614823
206	0x3e6293e3	0.22126727
207	0x3e4eeb66	0.20206985
208	0xbe545634	-0.20736009
209	0xbe639a87	-0.22226916
210	0xbdf3e478	-0.11908811
211	0xbe49b86f	-0.19699262
212	0xbe03ffd0	-0.12890553
213	0x3e399fb6	0.18127331
214	0xbe1c75f1	-0.15279366
215	0x3e61d26b	0.22052924
216	0x3d89e296	0.06732671
217	0x3ba59b36	0.005053903
218	0x3d0c961d	0.034322847
219	0x3d436efd	0.04771327
220	0x3da401e2	0.080081716
221	0xbe3f8278	-0.18702114
222	0xbab1c244	-0.0013561924
223	0x3e2d0273	0.16895466
224	0x3e7cb8da	0.2467989
225	0xbc4000f7	-0.01171898
226	0xbe232af5	-0.15934356
227	0x3df0bfb9	0.11755318
228	0xbe5c771b	-0.2152981
229	0x3e5ff9fb	0.21872704
230	0x3e1d79bf	0.15378474
231	0x3dc81098	0.0976879
232	0x3d0a2cd5	0.03373416
233	0x3e34b0ff	0.17645644
234	0xbdbf52c7	-0.093419604
235	0xbe459bd1	-0.1929772
236	0xbe030106	-0.12793359
237	0x3e32fbf1	0.1747892
238	0xbdf2ba49	-0.11851937
239	0xbe43f0d3	-0.19134836
240	0x3d50f6dc	0.051016673
241	0xbe16df25	-0.1473356
242	0xbc836779	-0.01604055
243	0xbe199af5	-0.15000518
244	0x3d49729b	0.049181562
245	0xbd30cb1e	-0.043162458
246	0x3cf83a9d	0.030301386
247	0x3ddcfa45	0.107899226
248	0xbe209b1d	-0.15684171
249	0xbd9a4c48	-0.07534081
250	0xbe1a9c2e	-0.1509864
251	0x3e4a520c	0.19757861
252	0xbda3a237	-0.079899244
253	0x3db9249b	0.09040185
254	0x3d4ba9bd	0.049722422
255	0xbe7a3fe2	-0.24438432

encoder.conv1.bias f4 [18]
0	0x3e453a8f	0.1926062
1	0x3d551b8f	0.052028235
2	0xbe26d489	-0.16292013
3	0x3e2a2ea7	0.16619359
4	0xbd31b1c6	-0.04338243
5	0x3c81673d	0.015796298
6	0x3ca35b9d	0.019941146
7	0xbc97990f	-0.018505601
8	0x3e6fa623	0.2340322
9	0x3dcd7a60	0.10033107
10	0x3d41e5b1	0.04733819
11	0xbd945239	-0.07242245
12	0x3d35df97	0.044402685
13	0xbe2c7440	-0.16841221
14	0xbd77605d	-0.060394634
15	0x3de105fb	0.10987469
16	0xbe70eb47	-0.23527251
17	0xbb95094a	-0.0045482265

encoder.conv2.weight f4 [54, 18, 3]
0	0xbd510966	-0.051034354
1	0x3d8bfc62	0.068352476
2	0xbdb0fc97	-0.08641928
3	0x3c136a89	0.008997568
4	0xbd5f1f99	-0.054473493
5	0x3dcccc70	0.09999931
6	0xbcc01cd6	-0.02345125
7	0xbdd0d630	-0.10197103
8	0xbd3172ec	-0.04332249
9	0x3dca0eca	0.09866102
10	0x3d6301e0	0.05542171
11	0x3d05d798	0.03267631
12	0x3db1801d	0.08667014
13	0x3d5abee0	0.05340469
14	0xbc712d21	-0.014720232
15	0xbd8f6824	-0.07002285
16	0xbe046e0f	-0.12932609
17	0x3d8a2da1	0.06746984
18	0x3dd2482e	0.102676734
19	0xbd669e17	-0.05630311
20	0xbd887e89	-0.0666476
21	0x3d01a0d9	0.031647537
22	0xbb26e33a	-0.0025465027
23	0x3de87b80	0.11351681
24	0xbb376b09	-0.0027987382
25	0xbb47111d	-0.003037519
26	0xbe015aee	-0.12632343
27	0x3d3c85a2	0.04602588
28	0x3bc5303c	0.006017713
29	0x3d161bdd	0.036647666
30	0x3db0f6cb	0.08640822
31	0x3d741bb6	0.05959674
32	0x39dd2923	0.00042183054
33	0xbc48df3e	-0.012260256
34	0xbd8f68f3	-0.07002439
35	0x3dfa872b	0.122328125
36	0x3de9a52f	0.114084594
37	0xbaaa0f3e	-0.0012974513
38	0x3e0a2e25	0.13494165
39	0x3defe342	0.11713268
40	0x3d9be278	0.07611555
41	0x3d8acb6f	0.06777083
42	0x3d517f9c	0.05114709
43	0xbcd1934f	-0.025582938
44	0x3c3dd170	0.011585578
45	0x3de9cb76	0.1141576
46	0xbca2eaf4	-0.019887425
47	0x3d36e1ac	0.04464881
48	0xbd3f8c9f	-0.046764966
49	0x3c95d678	0.018290743
50	0x3d97b0d2	0.07406773
51	0x3da8c288	0.08240229
52	0x3d8697da	0.06571932
53	0x3d8143e6	0.06311779
54	0xbd35f911	-0.04442698
55	0x3de30807	0.110855155
56	0x3db67de5	0.08910731
57	0x3dda2f02	0.10653497
58	0xbdcb22ae	-0.09918724
59	0xbd5729d7	-0.052530136
60	0xbde90d9f	-0.11379551
61	0x3cb42665	0.021990964
62	0x3ddca82f	0.10774266
63	0xbdbcb41a	-0.09214039
64	0x3d364234	0.04449673
65	0x3a47c137	0.0007620039
66	0xbe149338	-0.14509284
67	0xbc5e7965	-0.013578747
68	0xbca6ce21	-0.020361962
69	0xbd9db1b8	-0.07699913
70	0xbdad8daf	-0.084742896
71	0x3da4e3be	0.08051251
72	0xbcefe52b	-0.02928408
73	0xbd5b3d03	-0.053524982
74	0xbd41a96e	-0.04728072
75	0xbc2f0765	-0.010682915
76	0xbd09fc79	-0.033688042
77	0xbda803f6	-0.082038805
78	0x3db67227	0.089084916
79	0x3cd0b1ef	0.02547547
80	0xbde1e318	-0.11029643
81	0xbd62b71c	-0.055350408
82	0xbd1995b8	-0.0374963
83	0xbd76c054	-0.060242012
84	0x3cfde7c7	0.03099431
85	0x3df87ab0	0.12132776
86	0xbdc8cd30	-0.098047614
87	0x3ba98b22	0.0051740566
88	0x3e0aba6b	0.13547675
89	0xbd917353	-0.071020745
90	0xbdf8829f	-0.12134289
91	0x3cddb8ae	0.027065601
92	0xbb8167f7	-0.003949161
93	0x3bb2b36b	0.005453517
94	0x3dba23ab	0.090888344
95	0xbde85ba9	-0.11345608
96	0xbda237d9	-0.07920808
97	0x3dd39434	0.10331002
98	0xbdbb5f46	-0.09149031
99	0xbc831850	-0.016002804
100	0x3d643f7f	0.055724617
101	0xbd9f4bf6	-0.0777816
102	0xbdcfb1ee	-0.10141359
103	0xbdb24b44	-0.08705762
104	0xbdcd830e	-0.10034762
105	0xbde4d5e5	-0.1117361
106	0xbccdb090	-0.025108606
107	0xbe039866	-0.12851104
108	0xbda3773e	-0.07981728
109	0x3c525c96	0.012839457
110	0x3e03d53b	0.1287431
111	0x3e0ab2e2	0.13544801
112	0x3dde12bc	0.10843417
113	0x3c18ecb5	0.009333779
114	0x3db04390	0.086066365
115	0xbd29b03b	-0.041427832
116	0xbdb026a1	-0.08601118
117	0x3d8a4344	0.06751111
118	0x3d551686	0.052023433
119	0x3d3d8025	0.046264786
120	0x3d8642f6	0.065557405
121	0xbd01cc2e	-0.03168886
122	0x3dce5b1a	0.1007597
123	0x3d979e8a	0.07403286
124	0xbd732bed	-0.059368063
125	0x3dca991a	0.09892483
126	0x3d533402	0.05156327
127	0x3bf9f25e	0.0076277694
128	0x3b44a2af	0.0030004194
129	0x3ded57ef	0.115890376
130	0x3b51109e	0.0031900774
131	0x3d41a8e7	0.04728022
132	0x3dc33b04	0.09532741
133	0x3b2621c9	0.0025349727
134	0x3df7ddac	0.121028274
135	0xbda2baf3	-0.07945814
136	0xbc4b2fd5	-0.012401541
137	0x3c513800	0.012769699
138	0x3b924944	0.0044643003
139	0xbdce6e2a	-0.10079606
140	0x3e023c51	0.12718321
141	0xbd9f2137	-0.07770007
142	0x3dc447fe	0.09584044
143	0xbd648c92	-0.05579812
144	0x3d5d1e2e	0.05398386
145	0xbd9a3346	-0.07529311
146	0xbd781699	-0.060568426
147	0x3d100228	0.035158306
148	0x3dbe6f47	0.09298568
149	0xbc329715	-0.010900279
150	0x3d537308	0.051623374
151	0xbd9bc126	-0.076051995
152	0x3d307d5b	0.0430883
153	0xbc85043a	-0.016237367
154	0xbd00e561	-0.031468753
155	0x3d879f0a	0.06622131
156	0xbd40bd20	-0.047055364
157	0xbdaae6b8	-0.08344787
158	0xbd1fccbf	-0.03901362
159	0x3d8e5b90	0.06951058
160	0x3e0704d3	0.13185434
161	0x3e009074	0.12555104
162	0x3ddedefd	0.108823754
163	0xbd8be465	-0.06830672
164	0x3e03caab	0.1287028
165	0x3db62266	0.0889328
166	0x3ca03db2	0.019560669
167	0xbda11754	-0.078657776
168	0xbd89deb3	-0.0673193
169	0x3ce7a823	0.028278416
170	0xbbbd073c	-0.0057686847
171	0xbd3ad9c4	-0.045617834
172	0xbdeff8f3	-0.11717405
173	0x3dd7a507	0.10529523
174	0x3d73ae97	0.059492674
175	0x3cdb898d	0.026798988
176	0x3c4d8833	0.012544679
177	0x3dad76ed	0.08469949
178	0xbdab1474	-0.083535105
179	0xbc2e11ce	-0.010624362
180	0x3e0d71b9	0.13812913
181	0x3c0536ac	0.008130711
182	0xbdd8e0b6	-0.10589735
183	0xbdcd4a9b	-0.100239955
184	0x3d8e9da9	0.06963665
185	0x3d7f36f9	0.062308285
186	0x3d787301	0.06065655
187	0xbd9d486b	-0.07679828
188	0xbd95ae2c	-0.07308611
189	0xbe0c51f3	-0.13703136
190	0x3cafbb7a	0.0214517
191	0xbcd8ad0c	-0.026449703
192	0x3dff25c4	0.12458375
193	0xbd6e93d8	-0.058246464
194	0xbdc4f5cb	-0.09617194
195	0x3d45e2bb	0.04831193
196	0xbd8e43d8	-0.06946534
197	0xbc92d977	-0.017925961
198	0x3e1a86a7	0.15090428
199	0x3db9ee81	0.09078694
200	0xbe0e7d4d	-0.13914986
201	0x3a2b58ea	0.00065363816
202	0x3a947aa4	0.0011328054
203	0x3e0b6306	0.13611993
204	0xbdf675a0	-0.12034154
205	0x3d97a952	0.07405342
206	0xbe071b9d	-0.13194127
207	0xbe0e6b2c	-0.1390807
208	0xbd81ee50	-0.063442826
209	0xbe09ba47	-0.13449965
210	0xbc0fdb6c	-0.008780342
211	0x3df8d393	0.121497296
212	0xbd05150f	-0.032490786
213	0xbde2621a	-0.11053868
214	0xbbf02624	-0.0073287655
215	0xbdd2f836	-0.10301249
216	0x3db60e9f	0.088895075
217	0x3c812ce7	0.015768481
218	0x3df5636b	0.11981853
219	0x3c6cfe81	0.014464975
220	0x3d28949c	0.04115735
221	0x3d25d38e	0.040484957
222	0x3dfa548a	0.12223156
223	0xbdaaf754	-0.08347955
224	0xbdae45ca	-0.08509405
225	0x3ddfec82	0.10933782
226	0x3d717b2d	0.05895536
227	0x3e06e683	0.1317387
228	0x3cea2bdc	0.028585367
229	0x3d4ef4ac	0.050526306
230	0x3db5496d	0.088518955
231	0x3db24f16	0.08706491
232	0x3d9fac1e	0.077965006
233	0xbdd192d5	-0.10233084
234	0x3d05c6ef	0.03266042
235	0xbdd76747	-0.105177455
236	0x3c57a869	0.013162711
237	0x3dbf3d20	0.093378305
238	0xbcf54f65	-0.029945085
239	0x3e03657e	0.12831685
240	0x3e06e4d4	0.13173229
241	0x3d4c4164	0.04986705
242	0xbdc58357	-0.09644192
243	0x3c82c295	0.015961925
244	0x3ddba076	0.10723965
245	0x3cd87fbc	0.026428096
246	0x3df7ec70	0.12105644
247	0x3c0a6c53	0.008448678
248	0xbd7982c0	-0.06091571
249	0x3db38520	0.08765626
250	0x3d4d4102	0.050110824
251	0x3d9a9ef7	0.075498514
252	0xbdb16e25	-0.086635865
253	0xbdd8b50e	-0.105814084
254	0x3dbcfc79	0.09227843
255	0x3d40cb8c	0.047069117

encoder.conv2.bias f4 [54]
0	0x3df4d8ad	0.1195539
1	0xbca75b2a	-0.020429213
2	0xbe056f93	-0.13030843
3	0xbd7b6645	-0.06137683
4	0xbd921269	-0.07132418
5	0x3dcfa763	0.10139348
6	0xbdbff345	-0.09372572
7	0x3de58827	0.112076096
8	0x3d5de877	0.054176774
9	0xbc65994a	-0.014013598
10	0xbcef5399	-0.029214667
11	0x3d9d542b	0.076820694
12	0xbda22abc	-0.07918307
13	0xbd532793	-0.051551413
14	0x3e0214d9	0.12703265
15	0xbd0f8265	-0.035036463
16	0x3c171264	0.009220693
17	0x3de37f46	0.1110826
18	0xbdf41a5d	-0.11919091
19	0x3ca1ab01	0.019734861
20	0x3a57d256	0.00082329416
21	0xbdab855d	-0.083750464
22	0x3ddcace3	0.10775163
23	0x3dce0426	0.10059385
24	0xbc472b89	-0.012156376
25	0xbc510fb7	-0.012760094
26	0x3dc47a4b	0.09593638
27	0xbd276c11	-0.040874545
28	0x3d93ea24	0.07222393
29	0xbdbe357d	-0.09287546
30	0xbded2b0c	-0.11580476
31	0x3dbf586a	0.093430355
32	0x3dbbdc09	0.09172828
33	0xbdeb9bf2	-0.115043536
34	0xbd1306bd	-0.035895098
35	0x3d7d7317	0.061877336
36	0x3d92bf99	0.071654506
37	0x3db7215d	0.089419104
38	0x3dcfcc6f	0.101464145
39	0xbd6fd83c	-0.058555827
40	0x3cc3fa09	0.023922937
41	0x3df7dd0c	0.12102708
42	0xbde0d43a	-0.10977979
43	0x3db79297	0.08963507
44	0x3d19d6d9	0.03755841
45	0x3b1a2f3e	0.0023526694
46	0x3e0718a5	0.13192995
47	0xbd6600f1	-0.05615324
48	0xbd2c1a63	-0.04201735
49	0xbdc94fab	-0.098296486
50	0x3df120ef	0.1177386
51	0xbdc7be17	-0.09753054
52	0x3e01ce11	0.12676264
53	0xbdc84fea	-0.097808674

encoder.rnn.weight_ih_l0 f4 [192, 54]
0	0x3d9c57bd	0.07633922
1	0xbd7d1c43	-0.06179453
2	0x3dda579f	0.10661244
3	0xbdb1e2e3	-0.08685853
4	0xbda10d0d	-0.07863817
5	0xbcf8acd3	-0.030355847
6	0xbdc7010b	-0.09716996
7	0x3df8202e	0.12115513
8	0x3d3192b5	0.0433528
9	0xbd9ecceb	-0.07753929
10	0xbdc81fc8	-0.09771687
11	0xbcefc79b	-0.029269984
12	0x3c12d73b	0.008962448
13	0xbda38201	-0.07983781
14	0x3dbaaaf5	0.09114639
15	0xbd83089b	-0.06398126
16	0x3cd2444b	0.02566733
17	0x3dc27dc3	0.094966434
18	0xbdc8fc9a	-0.09813805
19	0xbdd25e3b	-0.10271879
20	0xbdf68518	-0.12037104
21	0x3c854f24	0.016273089
22	0x3dd863a8	0.10565883
23	0xbd93173a	-0.071821645
24	0xbc924e78	-0.017859682
25	0x3d946ab1	0.07246912
26	0x3def1d99	0.11675567
27	0x3d98c260	0.07458949
28	0x3d465db9	0.048429225
29	0x3ca2a5b4	0.019854404
30	0xbc154a72	-0.009111987
31	0x3de126fd	0.109937645
32	0xbb26138e	-0.0025341245
33	0x3d36ec61	0.044659022
34	0xbc191d95	-0.009345432
35	0x3e085acb	0.13315885
36	0xbe043c8e	-0.12913725
37	0xbd1f16e5	-0.038840193
38	0xbde2385a	-0.110459045
39	0x3ce781a0	0.028260052
40	0xbce6f342	-0.028192166
41	0xbdab7ca3	-0.08373382
42	0xbdc8d8c3	-0.09806969
43	0x3d1d8644	0.038458124
44	0x3dce5884	0.10075477
45	0x3de2775d	0.11057923
46	0x3db7fe61	0.08984066
47	0xbdd07734	-0.10178986
48	0x3dd33d42	0.103144184
49	0x3df1b8fd	0.11802862
50	0x3c1b2edf	0.009471624
51	0xbdfad0c4	-0.1224685
52	0xbdc5c226	-0.096561715
53	0xbdd53875	-0.10411159
54	0x3a6e3138	0.00090863137
55	0x3dd2655a	0.102732375
56	0x3dbe2d64	0.09286001
57	0xbd536d93	-0.05161817
58	0xbd83a09d	-0.06427119
59	0x3cbbcbb7	0.022924287
60	0xbce74d83	-0.028235203
61	0xbcaae834	-0.020862676
62	0x3d024440	0.03180337
63	0xbd1caec9	-0.038252626
64	0x3d59895e	0.05310952
65	0xbc46dca8	-0.0121375695
66	0x3df00ed1	0.11721576
67	0xbddbc2b0	-0.10730493
68	0x3dc78e8b	0.09743985
69	0x3db20c0e	0.086937055
70	0xbdd17ba6	-0.10228662
71	0x3c8e361d	0.017359788
72	0xbcd7edde	-0.026358541
73	0x3d6919ef	0.056909498
74	0x3e0048f1	0.12527825
75	0xbd8f8a75	-0.070088305
76	0xbdab591f	-0.08366608
77	0xbda865ee	-0.082225665
78	0x3dadc7ed	0.084853984
79	0xbdc52f2e	-0.096281394
80	0xbd3be030	-0.0458681
81	0x3dc5a118	0.09649867
82	0x3d6ecd77	0.058301415
83	0x3db9e193	0.09076228
84	0x3ddd79e2	0.10814263
85	0xbdea6235	-0.11444513
86	0xbd4f3dc0	-0.050596
87	0x3baaa178	0.005207237
88	0x3d94f178	0.07272619
89	0xbcd74938	-0.02628003
90	0x3cf0304f	0.02931991
91	0x3dac5a42	0.08415653
92	0x3d54dbdf	0.051967498
93	0xbd94d46d	-0.072670795
94	0xbdf0078a	-0.11720188
95	0xbd523632	-0.051321216
96	0x3d541a87	0.05178311
97	0x3de1936d	0.11014447
98	0x3d55083e	0.052009813
99	0x3d8a0ea8	0.06741077
100	0x3cd64e0b	0.02616026
101	0xbca6b0b5	-0.020347932
102	0xbc573d0d	-0.013137114
103	0x3de9030f	0.113775365
104	0x3c6b5076	0.014362445
105	0x3d0f332f	0.03496092
106	0x3da8fbf5	0.08251182
107	0x3da33d60	0.07970691
108	0x3ce9f7b7	0.028560502
109	0xbca7015b	-0.020386389
110	0xbd4bd382	-0.049762256
111	0xbd82ac9d	-0.063805796
112	0xbd8e1799	-0.06938095
113	0x3dc5cd62	0.09658314
114	0x3da631a3	0.08114936
115	0xbd9806b6	-0.07423155
116	0x3dde8449	0.10865075
117	0xbc6ff237	-0.014645151
118	0xbcb6a2c9	-0.022294419
119	0x3cca3a4c	0.024686001
120	0xbdaf47ca	-0.085586146
121	0xbd6e9cfb	-0.058255177
122	0xbd43c831	-0.04779834
123	0xbd2b8c9b	-0.04188214
124	0x3dabbf7c	0.08386132
125	0xbd247a90	-0.040155947
126	0xbdaa179d	-0.08305285
127	0xbdb92ff1	-0.09042347
128	0x3df9b522	0.121927515
129	0x3da19d57	0.07891338
130	0xbe0bcee0	-0.13653135
131	0xbdf84ddf	-0.12124228
132	0xbda1d9b2	-0.0790285
133	0x3dfcfd41	0.12352992
134	0x3d12dd27	0.03585544
135	0x3d1840e8	0.037171274
136	0x3d6f7dd4	0.05846961
137	0x3cba47e0	0.02273935
138	0x3ded55b6	0.11588614
139	0xbddb44de	-0.10706495
140	0x3e0654d1	0.13118292
141	0x3d86c9c9	0.06581456
142	0x3d28fc13	0.04125602
143	0x3d28edc5	0.04124238
144	0xbcc9dab3	-0.024640417
145	0xbd820920	-0.06349397
146	0xbd76e124	-0.060273305
147	0xbdbe829e	-0.09302257
148	0x3b5cde8b	0.0033701982
149	0x3d210aeb	0.039317053
150	0x3cd0300a	0.025413532
151	0xbc2f7a7e	-0.010710357
152	0x3cfc0b21	0.030767025
153	0xbdf1e545	-0.11811308
154	0xbdb18e67	-0.08669739
155	0xbdfd29ae	-0.123614654
156	0x3e00f696	0.12594065
157	0xbde5fcf7	-0.1122989
158	0x3d5db54a	0.05412797
159	0x3dbe115f	0.09280657
160	0xbd0d77cd	-0.03453808
161	0xbcde4456	-0.027132194
162	0x3ddabacf	0.10680162
163	0xbdccbaa2	-0.09996535
164	0xbe011fb6	-0.12609753
165	0xbccecf84	-0.025245436
166	0xbc3f13c4	-0.011662427
167	0xbd4cfa9c	-0.050043687
168	0x3c2e09ed	0.010622484
169	0x3d905395	0.07047192
170	0x3d8a4b1b	0.067526065
171	0x3cf8ec1b	0.030386021
172	0x3da8c4e9	0.08240683
173	0xbd58c533	-0.05292244
174	0x3b515a9d	0.003194488
175	0x3d79d77a	0.06099651
176	0x3d412f3b	0.047164183
177	0xbd34076e	-0.043952398
178	0x3dc3dac2	0.09563209
179	0xbdbd6862	-0.09248425
180	0xbd84ee0d	-0.06490717
181	0xbe016275	-0.12635215
182	0x3c3192b3	0.0108381985
183	0xbdd0db6f	-0.10198104
184	0x3dbad740	0.09123087
185	0xbd9fb0f8	-0.07797426
186	0x3d091557	0.033467617
187	0x3dd80961	0.10548664
188	0x3dfd44dc	0.123666495
189	0x3d48c383	0.04901458
190	0x3d47ea64	0.048807517
191	0x3ca77144	0.020439751
192	0x3d7c1cb2	0.061550803
193	0xbbc84f86	-0.0061129956
194	0xbdbcf751	-0.09226859
195	0x3dd18eaf	0.10232293
196	0xbdbfa1c7	-0.093570285
197	0x3dfcdaaa	0.12346394
198	0x3b0c1369	0.0021373874
199	0x3d6a5507	0.057209995
200	0x3c758bb1	0.014986918
201	0x3d5a667b	0.05332039
202	0x3dace0a8	0.08441287
203	0xbddc5e18	-0.107601345
204	0x3d8fa5f2	0.070140734
205	0xbd205361	-0.039142016
206	0xbdd80017	-0.10546892
207	0xbdc7d711	-0.097578175
208	0x3c39c0fd	0.011337516
209	0x3dc27d5a	0.09496565
210	0xbdf752dc	-0.12076351
211	0x3d0fb315	0.035082895
212	0x3d59138d	0.05299716
213	0xbdf06dcf	-0.11739694
214	0x3d030c26	0.031994008
215	0xbd6292f9	-0.055315945
216	0x3ca37b1b	0.019956162
217	0xbd33766f	-0.04381412
218	0x3dd2349c	0.10263941
219	0xbdf4cb54	-0.11952844
220	0x3d87ea36	0.06636469
221	0xbd45ad15	-0.048260767
222	0x3d2d8a0e	0.042367987
223	0x3c29609c	0.010337975
224	0xbdf2be5f	-0.11852717
225	0xbd8ab886	-0.06773476
226	0xb94f81de	-0.00019789438
227	0x3c582535	0.013192465
228	0xbd919aa4	-0.071095735
229	0x3db20b6a	0.08693583
230	0xbd4db763	-0.05022372
231	0xbd819c30	-0.063286185
232	0x3d32cd72	0.04365296
233	0xbc2a78c6	-0.010404771
234	0x3d015c2e	0.03158205
235	0x3d8c8f80	0.06863308
236	0xbd540285	-0.051760215
237	0x3cfa9c88	0.030592218
238	0x3dd6c534	0.10486832
239	0x3ce97fa1	0.028503241
240	0x3dd54162	0.104128614
241	0x3d4c8ddf	0.049939986
242	0x3dd984c3	0.106210254
243	0x3de87a98	0.11351508
244	0x3d9abb05	0.075552024
245	0x3d14d571	0.036336366
246	0x3d409ac4	0.047022596
247	0x3d9a22ea	0.075261906
248	0x3abc2a46	0.001435586
249	0x3c92ec25	0.017934868
250	0xbd50570a	-0.050864257
251	0xb8a1793b	-7.699659e-05
252	0x3d852ce9	0.065027066
253	0xbba5d623	-0.0050609275
254	0xbcc3ea08	-0.023915306
255	0x3d0bca12	0.034128256

encoder.rnn.weight_hh_l0 f4 [192, 64]
0	0xbc4b6878	-0.012415044
1	0x3d75fa2a	0.06005303
2	0xbd681a92	-0.056665964
3	0x3b236bf4	0.0024936171
4	0xbd31afca	-0.043380536
5	0xbda29e37	-0.07940333
6	0x3d919bb5	0.07109777
7	0x3dca1109	0.098665304
8	0x3d54e963	0.051980387
9	0x3e040d65	0.12895735
10	0x3d32a922	0.04361833
11	0x3dd938d8	0.10606545
12	0xbcc9a961	-0.024616899
13	0x3da78b63	0.08180883
14	0x3cec217a	0.028824557
15	0xbae11745	-0.0017173073
16	0x3dea4a87	0.11439996
17	0xbdc35b62	-0.09538914
18	0xbaa4b8fd	-0.0012567338
19	0xbd5ceaea	-0.05393497
20	0x3ddeaad3	0.10872426
21	0x3b2d65e8	0.0026458446
22	0x3d396268	0.045259863
23	0x3db467f3	0.08808889
24	0x3d7aa3e9	0.061191473
25	0xbd586316	-0.05282887
26	0x3a4e1c6a	0.00078625104
27	0x3dae96fe	0.08524893
28	0xbd7748f9	-0.060372327
29	0x3c5e52f4	0.013569582
30	0xbdb3b98d	-0.087756254
31	0x3d286b33	0.04111786
32	0x3dba9116	0.09109704
33	0x3cd7a080	0.02632165
34	0x3c7aea06	0.015314585
35	0x3dc98e74	0.09841624
36	0x3be9b771	0.0071324636
37	0xbd5d8d03	-0.054089557
38	0x3dbcd5ec	0.0922049
39	0xbdc46b05	-0.09590725
40	0x3d8186fc	0.06324574
41	0x3daefec3	0.08544686
42	0xbb6c8dd7	-0.0036095285
43	0xbdf94a09	-0.12172324
44	0x3d78919b	0.060685735
45	0x3dac0644	0.083996326
46	0x3ba1ed0f	0.0049415897
47	0x3dafcb36	0.08583681
48	0x3d59501a	0.053054906
49	0x3cede0a7	0.029037787
50	0x3de2bfbf	0.11071729
51	0xbd685d5a	-0.056729652
52	0x3cd7bd98	0.026335523
53	0xbdc9d074	-0.098542124
54	0x3de59eaa	0.112119034
55	0x3d2990e5	0.041397948
56	0x3df4cca2	0.11953093
57	0xbdd5cc85	-0.104394
58	0x3de429af	0.11140763
59	0x3dce632a	0.10077508
60	0x3dd7d9ee	0.10539614
61	0xbd5d0bd7	-0.05396637
62	0xbdbc877b	-0.09205528
63	0xbc976f31	-0.018485637
64	0x3de0b888	0.109726965
65	0x3e02a007	0.12756358
66	0xbbc36b18	-0.0059636943
67	0x3a939ede	0.0011262556
68	0xbcb6ef2e	-0.022330847
69	0xbcb30459	-0.021852659
70	0x3cc8cc28	0.024511412
71	0x3d4d6b98	0.050151438
72	0xbc9febb7	-0.019521577
73	0xbdcbe628	-0.09956008
74	0xbc45e406	-0.012078291
75	0x3d74be3d	0.059751738
76	0xbdaec469	-0.08533556
77	0x3de2c123	0.11071994
78	0x3d65b760	0.056083083
79	0x3d88aeeb	0.06673988
80	0x3d52e59b	0.0514885
81	0x3dae7d46	0.08519988
82	0x3dcccd56	0.10000102
83	0xbd851944	-0.0649896
84	0x3cc9e46e	0.024645057
85	0x3d9ec506	0.07752423
86	0xbdf30a68	-0.11867219
87	0x3da2e38f	0.079535596
88	0xbdedcc80	-0.11611271
89	0xbd9367f0	-0.07197559
90	0xbd8349f0	-0.06410587
91	0xbdc847b2	-0.097793
92	0xbda0e06b	-0.07855304
93	0x3d8d2b39	0.0689301
94	0xbdf82ce6	-0.12117939
95	0xbd8f701a	-0.070038036
96	0xbe02e414	-0.12782317
97	0xbd890eef	-0.066923015
98	0x3c539740	0.012914479
99	0x3d614f04	0.055006996
100	0xbd99e64d	-0.075146295
101	0x3d0c2009	0.03421024
102	0x3d958052	0.07299866
103	0x3de4cfc8	0.11172444
104	0xbd17f4ec	-0.03709881
105	0xbdc6fde1	-0.09716392
106	0x3db7d449	0.08976037
107	0xbd04275d	-0.032264102
108	0xbdfa7564	-0.12229422
109	0xbd3a014e	-0.0454114
110	0xbd3277aa	-0.04357115
111	0x3c8805e2	0.016604368
112	0x3daad261	0.08340908
113	0x3d8c6426	0.06855039
114	0xbd313d22	-0.04327119
115	0x3db87cdf	0.09008192
116	0x3d0a429d	0.033754934
117	0x3d36a7b2	0.04459352
118	0xbdd1d5d8	-0.102458656
119	0xbcc8ed95	-0.02452735
120	0x3cc1dce1	0.023664894
121	0xbd3c8efd	-0.0460348
122	0x3d8952cb	0.06705245
123	0x3d428445	0.047489423
124	0xbda6e86c	-0.081498
125	0x3df387e5	0.11891154
126	0x3a7d59d6	0.00096645707
127	0xbcb89cae	-0.022535648
128	0x3991afd1	0.0002778755
129	0x3a243347	0.00062637444
130	0xbc5e6759	-0.013574445
131	0xbd325447	-0.043537404
132	0x3c73a4fc	0.014870878
133	0xbd286a62	-0.04111708
134	0x3dda8b16	0.1067106
135	0xbd37cd6c	-0.04487364
136	0xbddf0ad9	-0.10890741
137	0x3deb5cbe	0.114922985
138	0x3dbb2ec9	0.09139783
139	0xbdb511e0	-0.088413
140	0x3deb2b51	0.11482871
141	0xbdb2d1f6	-0.08731453
142	0xbd710e22	-0.05885137
143	0xbd807938	-0.06273121
144	0xbb5ddc43	-0.003385321
145	0x3d0f1b33	0.03493805
146	0xbd6782d9	-0.05652127
147	0xbd375791	-0.044761244
148	0xbd7ec71b	-0.0622016
149	0x3dc08ee4	0.09402254
150	0x3d7a8c58	0.061169
151	0x3c3d68bf	0.011560618
152	0x3a49f249	0.0007703645
153	0x3c637dc9	0.01388497
154	0xbcd2c833	-0.025730228
155	0xbd89160a	-0.06693657
156	0x3e045af1	0.12925316
157	0xbd5b8273	-0.053591203
158	0xbdb7d881	-0.08976842
159	0xbcce0a45	-0.025151381
160	0x3cf87fee	0.03033444
161	0xbe118cf4	-0.14213926
162	0x3d27dbf9	0.040981267
163	0x3b284c62	0.0025680293
164	0xbd81ada1	-0.06331945
165	0x3cc94cf0	0.02457282
166	0x3c8261e0	0.015915811
167	0xbdfd8e0a	-0.123806074
168	0x3d41961e	0.047262304
169	0x3d26fe34	0.04076977
170	0xbd9091b9	-0.070590444
171	0x3cd7d56b	0.026346883
172	0xbd926fde	-0.07150243
173	0x3db1c26a	0.0867966
174	0xbd8d03d4	-0.06885496
175	0x3ceb7dc1	0.028746488
176	0x3d16f116	0.03685101
177	0xbc3458de	-0.011007516
178	0xbd7d4d14	-0.061841086
179	0x3d59847e	0.05310487
180	0x3cbafac3	0.02282465
181	0xbd5242f3	-0.05133338
182	0xbcc1be26	-0.02365024
183	0x3d5d62e1	0.054049376
184	0xbdf50925	-0.11964635
185	0x3c83f9f8	0.016110405
186	0x3ce7c359	0.028291391
187	0xbe0b7dda	-0.13622227
188	0x3cc2802d	0.02374276
189	0xbda6da76	-0.08147137
190	0xbe020b69	-0.12699665
191	0x3ddf1c21	0.10894037
192	0x3d74a89b	0.059731107
193	0x3dad0f08	0.084501326
194	0x3de8902b	0.11355623
195	0xbd8a90cf	-0.06765901
196	0xbd5794d5	-0.05263217
197	0x3b1b89c8	0.0023733247
198	0x3d4f2f8a	0.050582446
199	0x3bbfa26d	0.00584822
200	0xbc5a0e02	-0.013309004
201	0x3e043ad9	0.12913074
202	0xbd8438af	-0.06456124
203	0x3d6de7fa	0.05808256
204	0x3cae2f03	0.021262651
205	0xbd85c58a	-0.06531818
206	0x3d94ebad	0.07271514
207	0x3db0628e	0.08612548
208	0xbc35875a	-0.011079634
209	0xbdb21f75	-0.08697406
210	0x3da0f198	0.0785858
211	0x3dbfb1e1	0.093600996
212	0x3d7a2e06	0.061079048
213	0x3b25c20a	0.0025292658
214	0x3d88b487	0.06675058
215	0x3d1c2fa6	0.03813138
216	0xbd04c6e2	-0.032416232
217	0xbdc2a96b	-0.0950497
218	0xbd5f7386	-0.05455353
219	0x3d494835	0.049141128
220	0xbd84197d	-0.06450174
221	0x3d46065f	0.04834592
222	0xbd63e761	-0.055640582
223	0xbdbe60d6	-0.09295814
224	0x3dbcdcd7	0.09221809
225	0xbd0c7137	-0.034287658
226	0x3d069512	0.03285701
227	0x3dcf5add	0.10124753
228	0x3c201e7a	0.009772891
229	0x3da13a49	0.07872445
230	0xbd051820	-0.03249371
231	0xbdce5fc2	-0.10076858
232	0xbd59f03e	-0.05320763
233	0xbd1166ff	-0.035498615
234	0xbd8f6f0c	-0.070036024
235	0xbd96095f	-0.07326006
236	0x3d5dd473	0.054157685
237	0x3de805f3	0.1132926
238	0x3db11577	0.08646672
239	0x3d7bf0db	0.061508995
240	0xbdcbc629	-0.099499054
241	0xbc9bca17	-0.019017262
242	0x3d355636	0.04427167
243	0x3de86ceb	0.113488995
244	0xbd6d69f7	-0.057962384
245	0x3d922c37	0.071373396
246	0x3d99eb8d	0.07515631
247	0xbd158a35	-0.036508758
248	0xbddec139	-0.10876698
249	0x3d7d673c	0.06186603
250	0x3d4bba67	0.049738314
251	0xbdcbda6f	-0.09953772
252	0x3db6aa16	0.0891916
253	0xbce00437	-0.02734576
254	0xbdb425ac	-0.08796248
255	0x3c3e170b	0.011602174

encoder.rnn.bias_ih_l0 f4 [192]
0	0xbc596b06	-0.013270145
1	0xbd79eff2	-0.061019845
2	0x3ba46275	0.00501662
3	0xbc1c5619	-0.009542012
4	0xbd2c18ab	-0.042015713
5	0x3d821560	0.06351733
6	0xbd763def	-0.06011766
7	0xbdf7564e	-0.12077008
8	0xbddca3db	-0.107734405
9	0x3d321a02	0.043481834
10	0xbdb7272f	-0.089430206
11	0xbde0e4c0	-0.109811306
12	0xbd23d185	-0.039994735
13	0x3dacc419	0.0843584
14	0x3d97ecb5	0.07418195
15	0x3dd57fb3	0.10424747
16	0xbda449d8	-0.08021897
17	0xbdc32d5d	-0.09530137
18	0x3d5fbf03	0.054625522
19	0x3db965d6	0.09052627
20	0xbbac4d3d	-0.005258231
21	0xbdebc271	-0.11511696
22	0x3df3b882	0.119004264
23	0x3dbaeb35	0.091268934
24	0x3dcc2dea	0.09969695
25	0x3d3a8f03	0.045546543
26	0x3d483de5	0.048887152
27	0xbb6ca6f6	-0.0036110259
28	0x3d90a06d	0.07061849
29	0x3cbb2d81	0.022848846
30	0xbdb82624	-0.0899165
31	0xbd2edfa9	-0.042693768
32	0xbcd7da83	-0.026349312
33	0xbc1d5574	-0.009602893
34	0x3da8c63c	0.08240935
35	0x3db9a87e	0.090653405
36	0xbcd124bc	-0.025530212
37	0xbd61f896	-0.05516871
38	0xbc54bcfd	-0.012984511
39	0x3e00185e	0.12509295
40	0x3df9cc04	0.12197116
41	0x3c389cdc	0.011267867
42	0xbbe12802	-0.0068712244
43	0x3d983b83	0.07433226
44	0xbdc65b57	-0.096853904
45	0xbd4e81ec	-0.050416872
46	0x3de2913f	0.1106286
47	0x3ddc7289	0.10764033
48	0x3c06d140	0.0082286
49	0xbddf9288	-0.109166205
50	0x3dc4c23d	0.096073605
51	0x3d2d85a8	0.042363793
52	0xbb80f406	-0.00393534
53	0x3df734a8	0.1207059
54	0xbdc42ad6	-0.09578483
55	0xbbc95db3	-0.006145203
56	0x3d941f5f	0.07232546
57	0xbd433a44	-0.04766299
58	0xbd9c7053	-0.07638612
59	0xbaa0d948	-0.0012271786
60	0x3db3772c	0.087629646
61	0x3c1b57d9	0.009481394
62	0x3ce0ed8e	0.027457025
63	0xbd96403c	-0.073364705
64	0xbd9141cb	-0.07092627
65	0xbb34d04e	-0.002758998
66	0x3dac0885	0.084000625
67	0x3ceee51c	0.029161982
68	0x3d8d38f0	0.068956256
69	0xbcd8b8de	-0.026455339
70	0x3db95ac5	0.09050516
71	0x3c2493bb	0.010044987
72	0x3de4fcaf	0.11181008
73	0xbd591e56	-0.053007446
74	0xbc912c28	-0.01772125
75	0xbd708ec1	-0.05872989
76	0xbe0e6c09	-0.139084
77	0xbd81fd48	-0.06347138
78	0x3cca4dde	0.024695333
79	0x3a7b149f	0.0009577963
80	0xbd7c76d7	-0.061636772
81	0x3e02d0c9	0.12774958
82	0x3de7cc62	0.1131828
83	0xbdc5010f	-0.096193425
84	0xbd7138ab	-0.058891933
85	0xbca4da9d	-0.020123774
86	0xbd21cb9e	-0.039500825
87	0xbe0d7865	-0.13815458
88	0x3d1f14d1	0.03883821
89	0x3d92110e	0.07132159
90	0xbdc4cc2b	-0.096092544
91	0xbdf8d408	-0.12149817
92	0xbd479911	-0.04872996
93	0xbe4f56d7	-0.2024797
94	0x3db41316	0.08792703
95	0x3dc9112d	0.09817729
96	0x3dbcac4e	0.09212552
97	0xbe0b9c9a	-0.13633958
98	0xbdff0aa3	-0.12453201
99	0x3cea4219	0.028595971
100	0xbdc4d284	-0.09610465
101	0xbe373e89	-0.17894949
102	0xbdb5f5e1	-0.08884788
103	0xbe04343f	-0.12910555
104	0x3c8bc862	0.017063323
105	0x3deeae90	0.11654389
106	0xbb92a56c	-0.004475286
107	0xbe5ef73c	-0.21774
108	0x3d912193	0.07086482
109	0x3dc88e98	0.097928226
110	0x3dcca554	0.09992471
111	0x3d7b31a9	0.061326656
112	0xbc7106ce	-0.014711095
113	0xbe1cbc15	-0.15306123
114	0x3c98efe1	0.01866907
115	0x3d7cda1a	0.061731435
116	0x3c8a804c	0.01690688
117	0x3d42ddcb	0.0475748
118	0x3cfd4230	0.03091535
119	0xbdeacfd6	-0.11465423
120	0x3bf6ed57	0.0075356173
121	0xbd708e9e	-0.05872976
122	0xbe657c42	-0.22410682
123	0x3de907aa	0.11378415
124	0xbdc184f9	-0.09449191
125	0xbe414ea9	-0.18877663
126	0xbc8a2c82	-0.016866926
127	0xbcc944bd	-0.02456891
128	0xbde90ff2	-0.113799945
129	0xbd9d9adf	-0.07695555
130	0xbc4bbd25	-0.012435232
131	0xbd85bdaf	-0.0653032
132	0x3db3b8ae	0.08775459
133	0xbc88d88b	-0.016704818
134	0xbceace34	-0.028662778
135	0x3d9a4600	0.07532883
136	0xbde9743c	-0.11399123
137	0x3d246300	0.040133476
138	0xbc9b294f	-0.018940596
139	0x3deb304e	0.11483823
140	0x3c43bb7a	0.011946553
141	0xbd5aeac7	-0.053446557
142	0xbdac9e0a	-0.08428581
143	0xbda1e400	-0.07904816
144	0xbd55a8cc	-0.05216293
145	0x3de09da6	0.10967569
146	0x3dba4b10	0.09096348
147	0x3defcd0e	0.11709033
148	0xbd411b5e	-0.04714524
149	0x3d333b94	0.04375799
150	0xbdad2848	-0.08454949
151	0xbd090b16	-0.033457838
152	0x3dd21251	0.102574
153	0xbdb23d94	-0.08703151
154	0xbdf79601	-0.12089158
155	0x3bf8b103	0.007589461
156	0x3ccc277f	0.024921177
157	0x3dcd9a3f	0.10039186
158	0x3d51bd00	0.051205635
159	0x3d0a27be	0.033729307
160	0x3dfff646	0.12498145
161	0x3de984ea	0.114023045
162	0xbd9513cb	-0.07279166
163	0xbdf4b730	-0.11949003
164	0xbde8c61d	-0.11365912
165	0x3ce2b395	0.027673522
166	0x3d11b529	0.03557316
167	0xbd06c6de	-0.0329045
168	0x3dbe247a	0.09284301
169	0x3cd49569	0.02595015
170	0x3c7e8ab3	0.015535998
171	0xbca094ed	-0.019602263
172	0x3d912fac	0.07089171
173	0x3d112391	0.03543431
174	0xbda750be	-0.08169697
175	0xbcead4e7	-0.028665973
176	0x3d6ea81d	0.058265794
177	0x3d52b3ec	0.051441118
178	0xbcfdff1f	-0.03100544
179	0x3dfe0b1c	0.12404463
180	0x3dd74121	0.10510469
181	0xbd7502c2	-0.059817083
182	0x3dc8106a	0.09768756
183	0x3da0d2b6	0.0785269
184	0x3db94994	0.09047237
185	0xbd2c517f	-0.04206991
186	0x3d342b18	0.04398641
187	0xbd8aade1	-0.06771446
188	0x3d89860f	0.06715023
189	0xbb08e296	-0.002088701
190	0x3d9476a7	0.07249194
191	0x3dad9b87	0.0847693

encoder.rnn.bias_hh_l0 f4 [192]
0	0x3d39154a	0.04518632
1	0x3cf54f5f	0.029945074
2	0xbd8a35a3	-0.06748512
3	0xbdc124f3	-0.09430876
4	0xbdc4e6ce	-0.09614335
5	0xbc981907	-0.018566621
6	0xbdcfb0fd	-0.1014118
7	0xbd179016	-0.037002645
8	0xbbfa867f	-0.0076454277
9	0xbdf3a0c3	-0.11895897
10	0x3df2e48c	0.11859998
11	0xbb26efea	-0.002547259
12	0x3d9ffbc8	0.07811695
13	0xbddf3ea9	-0.10900623
14	0x3d9101b2	0.070804015
15	0xbd9034bf	-0.070413105
16	0x3d1370ae	0.03599613
17	0x3dae1950	0.08500922
18	0x3dc0c38f	0.094123
19	0xbe0f891b	-0.14017145
20	0xbd4b71e7	-0.049669173
21	0xbd5157ab	-0.051108997
22	0x3d319fd8	0.04336533
23	0xbd8c8ca9	-0.06862766
24	0x3dbe8fac	0.09304747
25	0xbdbdca45	-0.092670955
26	0xba1f2ee2	-0.0006072355
27	0x3c8970ac	0.016777359
28	0xbdaa85e4	-0.08326319
29	0xbcee1394	-0.02906207
30	0xbdf00a9d	-0.11720774
31	0xbd84360b	-0.064556204
32	0xbe00139c	-0.1250748
33	0x3d0c7f3f	0.03430104
34	0xbd4d402b	-0.050110023
35	0xbc8422cc	-0.016129874
36	0x3d4e6b66	0.050395392
37	0x3d689417	0.056781854
38	0x3d6f185d	0.058372844
39	0x3ce4f912	0.027950797
40	0x3df43aeb	0.119253
41	0xbcc5cf94	-0.024146833
42	0x3dd8d670	0.10587776
43	0xbd8b2496	-0.067940876
44	0xbe0020b5	-0.12512477
45	0x3bf8ecba	0.0075965794
46	0xbd3bda13	-0.04586227
47	0xbdc34a52	-0.0953566
48	0xbd8b40f7	-0.067995004
49	0xbcbd725b	-0.023125818
50	0x3ca5b828	0.020229414
51	0xbca76d5f	-0.020437894
52	0xbd384179	-0.044984315
53	0x3dd2fd59	0.103022285
54	0x3d8f36b2	0.06992854
55	0xbd817dba	-0.063228086
56	0xbdb9fb60	-0.09081149
57	0x3c04d3a1	0.008107097
58	0x3da01e4e	0.0781828
59	0x3dce436d	0.10071454
60	0x3d9d3dbe	0.07677792
61	0x3da08e5b	0.07839652
62	0x3b847d8c	0.0040432867
63	0xbdb6dc89	-0.089287825
64	0x3d764bbd	0.060130823
65	0x3c7e75fb	0.015531058
66	0x3d5a0ae2	0.053233035
67	0xbdc3a038	-0.09552044
68	0xbddd0244	-0.10791448
69	0x3cad8f06	0.021186363
70	0xbd1c886d	-0.038216043
71	0xbe1a0946	-0.150426
72	0x3df53574	0.11973086
73	0xbc96b8c6	-0.018398654
74	0x3dc94d6c	0.0982922
75	0x3df4751a	0.11936398
76	0xbe017f2e	-0.12646171
77	0x3db27e25	0.087154664
78	0x3dcefd30	0.101068854
79	0xbdca61d7	-0.09881943
80	0x3c1f1dbb	0.009711678
81	0x3e05cdb4	0.13066751
82	0x3d2d6a7f	0.04233789
83	0xbd8a7a99	-0.06761665
84	0xbe011f53	-0.12609605
85	0xbe371283	-0.17878155
86	0x3d1d454c	0.038396165
87	0xbe0a9920	-0.13534975
88	0x3c4f6cd9	0.012660229
89	0xbd7e5b0c	-0.062098548
90	0xbda2efc1	-0.07955886
91	0x3dc1f7df	0.09471106
92	0xbe601e12	-0.21886471
93	0xbd9edd33	-0.07757034
94	0x3e04e398	0.12977445
95	0xbdb03d75	-0.08605472
96	0xbd12d3bb	-0.035846453
97	0xbe2c9adc	-0.16855949
98	0x3d0f34d4	0.03496249
99	0x3cfe9e5f	0.031081377
100	0x3c8b9adc	0.017041616
101	0xbe2c8163	-0.16846232
102	0xbe1dd119	-0.15411796
103	0xbb07b1c1	-0.0020705315
104	0x3d40d633	0.047079276
105	0x3dd091c6	0.10184054
106	0x3d09f2c7	0.033678796
107	0xbdaa6ac5	-0.08321146
108	0x3da58a83	0.0808306
109	0xbd4f426d	-0.050600458
110	0xbb42f08e	-0.0029745433
111	0x3e58c9f7	0.21170793
112	0x3b8e5923	0.004344122
113	0xbd329996	-0.043603502
114	0xbdb05cd5	-0.08611456
115	0x3dea4e62	0.114407316
116	0xbcbfe3ba	-0.023424018
117	0x3cd7f36e	0.026361194
118	0xbb0415a7	-0.0020154507
119	0xbcb52c14	-0.022115745
120	0x3e298dd8	0.16558015
121	0x3df1f89e	0.11814998
122	0xbe8ea1bb	-0.27857766
123	0x3c43a213	0.011940497
124	0xbd8e6f01	-0.06954766
125	0xbc6413d0	-0.013920739
126	0x3d6fbc6e	0.05852931
127	0xbdbaa7e3	-0.09114053
128	0xbddab553	-0.10679116
129	0xbcf2ffe4	-0.029663034
130	0xbb6345a5	-0.0034678963
131	0x3db30c1d	0.08742545
132	0x3d10f504	0.035389915
133	0x3db91578	0.09037298
134	0xbdc51f93	-0.09625163
135	0x3dd558ac	0.104173034
136	0x3ddb2abe	0.10701512
137	0x3d91e1b1	0.07123125
138	0x3c2ee11c	0.010673787
139	0x3dfd64a9	0.12372715
140	0xbbf7cd77	-0.007562335
141	0xbca423d4	-0.020036615
142	0xbc4c9187	-0.012485868
143	0x3d290fcb	0.041274827
144	0x3d4d8c91	0.050182883
145	0x3dcfd9a4	0.101489335
146	0x3da41917	0.08012598
147	0x3d670660	0.056402564
148	0x3cfb253a	0.0306574
149	0x3d138ab0	0.036020935
150	0x3dbbe0f1	0.091737635
151	0xbd28f845	-0.041252393
152	0x3d9991e9	0.07498533
153	0xbd7e7575	-0.062123735
154	0xbd4dc591	-0.050237242
155	0x3d5c7bb3	0.053828906
156	0xbd9fe2f1	-0.078069575
157	0xbd4bddb1	-0.04977197
158	0x3d1883db	0.037235122
159	0x3be46d19	0.0069710133
160	0x3d9d3a62	0.07677151
161	0xbd854bb8	-0.06508583
162	0xbde6fa8d	-0.112782575
163	0x3bb9fb14	0.005675683
164	0x3d5e38bf	0.054253336
165	0x3c1990ed	0.009372932
166	0xbdae3328	-0.08505851
167	0xbda5320e	-0.08066188
168	0x3d478de2	0.048719294
169	0x3ca93177	0.02065347
170	0x3d8eeeda	0.06979151
171	0xbd888330	-0.06665647
172	0x3db5e1d5	0.08880965
173	0xbc3335ca	-0.010938117
174	0x3d20cabc	0.039255843
175	0xbd95f29a	-0.07321663
176	0xbc5018d3	-0.012701231
177	0xbcc54973	-0.024082875
178	0xbdd29f8a	-0.10284336
179	0x3da6e6b7	0.08149474
180	0x3d36b06a	0.044601835
181	0xbda72be9	-0.08162672
182	0x3d09a3be	0.033603422
183	0xbd3fc464	-0.046818152
184	0xbdf267f6	-0.11836235
185	0x3cc2b7d4	0.023769297
186	0xbd1de34e	-0.038546853
187	0x3da18a4a	0.07887705
188	0xbc01a61e	-0.007913141
189	0xbd94d95f	-0.07268023
190	0xbd191545	-0.0373738
191	0x3d4581c2	0.04821945

decoder.attn.v f4 [64]
0	0xbce9bc48	-0.028532162
1	0xbd07ecfc	-0.03318499
2	0xbdbabd0a	-0.091180876
3	0x3dee24fe	0.116281494
4	0xbd414944	-0.047189012
5	0x3d82ea38	0.0639233
6	0x3d5222d4	0.051302746
7	0x3d1ebed4	0.038756207
8	0xbd776624	-0.060400143
9	0xbcd85408	-0.026407257
10	0x3d276a60	0.04087293
11	0xbc9d8be8	-0.019231752
12	0xbd9061c2	-0.07049896
13	0xbdcf42ce	-0.10120164
14	0x3daf8c64	0.08571699
15	0xbd916e56	-0.07101123
16	0x3ddd5372	0.108069316
17	0xbd03e478	-0.032200307
18	0x3db81c9c	0.08989832
19	0xbdfe3e52	-0.124142304
20	0xbd37652c	-0.04477422
21	0xbcae9658	-0.021311924
22	0x3cae0168	0.021240905
23	0xbdac9f18	-0.08428782
24	0x3d36bb00	0.04461193
25	0x3d0496c4	0.032370344
26	0x3d0fd610	0.035116255
27	0xba019100	-0.0004942566
28	0x3dd3fd4c	0.10351047
29	0xbdaaac20	-0.083336115
30	0x3d85acfe	0.06527136
31	0x3d672d5c	0.056439742
32	0x3d5a8bb0	0.053355873
33	0xbd471e30	-0.048612773
34	0x3ddbedb6	0.10738699
35	0xbd9f3624	-0.077739984
36	0x3df8f6a0	0.12156415
37	0xbcb19ff8	-0.021682724
38	0xbded753a	-0.11594625
39	0xbce091e8	-0.027413324
40	0xbded7958	-0.1159541
41	0x3dee9ac4	0.11650613
42	0xbcbd1fc8	-0.023086444
43	0xbd6d6864	-0.057960883
44	0x3dcd34d8	0.10019845
45	0xbd787c28	-0.06066528
46	0x3c80e680	0.015734911
47	0x3da2d7c4	0.0795131
48	0x3d8da41c	0.06916067
49	0x3d052308	0.03250411
50	0x3d241850	0.04006225
51	0x3d841f2a	0.064512566
52	0xbd76ff6c	-0.060302183
53	0x3c023470	0.007947072
54	0xbda7fece	-0.08202897
55	0xbdf86580	-0.121287346
56	0xbd97ac7c	-0.07405946
57	0xbdfdcc9a	-0.1239254
58	0xbd698eb0	-0.057020843
59	0xbdd96850	-0.10615599
60	0x3de01a4c	0.10942516
61	0xbc540b00	-0.012942076
62	0xbdf3495c	-0.118792266
63	0x3d98da32	0.074634925

decoder.attn.attn.weight f4 [64, 128]
0	0xbd82c694	-0.06385532
1	0x3bfbf260	0.0076888055
2	0xbd872423	-0.065986894
3	0xbd8a5b76	-0.06755726
4	0xbc81dbb8	-0.01585184
5	0x3d8efde5	0.0698202
6	0xbd25fabe	-0.04052233
7	0xbd4a8010	-0.049438536
8	0xbd131afe	-0.035914414
9	0xbd785242	-0.060625322
10	0xbc25e2c0	-0.010124862
11	0xbd9ba316	-0.075994655
12	0x3d11eae8	0.035624415
13	0xbdac93be	-0.08426617
14	0xbdaafbaf	-0.08348786
15	0xbda7b7fa	-0.081893876
16	0xbd58770a	-0.0528479
17	0x3ca9b2c4	0.020715125
18	0x3d86dc4b	0.06584986
19	0xbd4751cc	-0.048661992
20	0x3d5a7a86	0.053339504
21	0xbd96acee	-0.073572025
22	0xbd86ab48	-0.06575638
23	0x3cfa1158	0.030525848
24	0xbc495160	-0.012287468
25	0xbd2cdd5c	-0.042203292
26	0x3c08de20	0.00835374
27	0x3aae6700	0.0013305843
28	0x3d8bbd85	0.06823257
29	0x3d01bede	0.031676166
30	0xbb97e7f0	-0.0046358034
31	0xbd952096	-0.07281606
32	0xbcf05fec	-0.029342614
33	0xbd8e378f	-0.06944191
34	0xbc8aeaf8	-0.016957745
35	0xbcac7c10	-0.021055251
36	0xbc99eedc	-0.018790655
37	0xbd898382	-0.06714536
38	0x3d0ed3d2	0.034869976
39	0x3d0c452e	0.034245662
40	0xbc272db8	-0.010203771
41	0xbd09b833	-0.03362293
42	0x3cb0a5f4	0.021563508
43	0x3d5858b6	0.052818976
44	0x3d05b362	0.032641776
45	0x3c2bb488	0.010480054
46	0x3c323890	0.010877743
47	0x3c805b04	0.0156684
48	0x3c0e9b58	0.008704029
49	0xbcbe1a34	-0.023205854
50	0xbd7d0408	-0.061771423
51	0x3d674be2	0.056468852
52	0x3d4ed76e	0.05049842
53	0xbdaaff8e	-0.083495244
54	0x3c387a20	0.011259586
55	0xbd75b3d0	-0.059985936
56	0x3da53753	0.08067193
57	0xbbaca060	-0.0052681416
58	0xbd41ee25	-0.047346253
59	0xbd4a1797	-0.049338903
60	0x3d4415a2	0.047872193
61	0xbcbb04ac	-0.022829376
62	0xbc223f80	-0.009902835
63	0x3da3a93f	0.079912655
64	0xbcea5dae	-0.028609123
65	0xbd5afac0	-0.05346179
66	0x3cac69e4	0.021046586
67	0x3c8a81c4	0.01690758
68	0xbd75675e	-0.05991303
69	0x3ce23258	0.027611896
70	0xbd6a980f	-0.05727392
71	0xbd627afa	-0.05529306
72	0xbd886f26	-0.06661825
73	0xbcd1eb30	-0.025624841
74	0x3a77e780	0.00094567984
75	0xbd16e719	-0.036841486
76	0xbd5adb3e	-0.053431742
77	0xbd10eb87	-0.035380866
78	0x3ca87cf0	0.020567387
79	0x3bd8af70	0.0066127107
80	0xbdb1a9fa	-0.086749986
81	0xbd966458	-0.07343358
82	0x3d84d113	0.0648519
83	0x3c20a120	0.00980404
84	0x3d465392	0.048419543
85	0xbb151ea0	-0.002275385
86	0xbdaf1f07	-0.0855084
87	0xbdab2149	-0.08355958
88	0x3d5ce24e	0.05392676
89	0xbca11600	-0.01966381
90	0xbd137ba8	-0.0360066
91	0xbdb35127	-0.08755713
92	0x3d47abfe	0.04874801
93	0x3c3c9d38	0.011512093
94	0xbd814985	-0.06312851
95	0x3c63c4c8	0.013901897
96	0xbd6b69e2	-0.057474025
97	0xbcbf8f28	-0.023383692
98	0xbd4b1e42	-0.049589403
99	0xbcf4c11c	-0.029877238
100	0xbc9b1744	-0.018931992
101	0xbd8e7244	-0.06955388
102	0xbd7691b0	-0.060197532
103	0xbda8cf88	-0.082427084
104	0x3d62b94e	0.0553525
105	0xbd563983	-0.05230094
106	0x3d850691	0.06495393
107	0x3d6e36b2	0.05815763
108	0xbd4e938e	-0.050433688
109	0x3d6b42b2	0.057436652
110	0x3b90de80	0.0044210553
111	0xbc02fcb8	-0.007994823
112	0x3d49cb3a	0.049266078
113	0x3d75190e	0.059838347
114	0xbbc27b10	-0.0059350803
115	0x3dae2ed3	0.08505025
116	0xbd5cf7f8	-0.05394742
117	0x3d741b82	0.059596546
118	0x3d43e202	0.04782296
119	0x3d996d9d	0.0749161
120	0xbbcaa410	-0.0061841086
121	0x3da8e0cf	0.08246004
122	0x3d92810f	0.07153522
123	0xbd721eec	-0.05911152
124	0x3dad5103	0.084627174
125	0xbd8ef1a0	-0.0697968
126	0x3db31867	0.08744889
127	0xbd811924	-0.06303623
128	0x3c2815e8	0.010259129
129	0xbd946ac8	-0.072469294
130	0x3d173e6e	0.036924772
131	0xbd46ea51	-0.048563305
132	0xbd1eed6c	-0.038800642
133	0xbd10f5f5	-0.035390813
134	0xbd964214	-0.07336822
135	0xbc976f8c	-0.018485807
136	0xbce3932a	-0.027780134
137	0xbd8bfb4c	-0.068350405
138	0xbd383222	-0.044969685
139	0xbd010810	-0.03150183
140	0x3db1c8eb	0.086809
141	0x3d107856	0.03527101
142	0xbbb39fc0	-0.00548169
143	0x3beca8a0	0.00722225
144	0x3cd01900	0.025402546
145	0x3b5d9a80	0.0033814013
146	0xbd3ff2cb	-0.046862405
147	0xbd92fbe6	-0.07176952
148	0xbd77ef9e	-0.06053125
149	0x3ca5bc58	0.02023141
150	0xbbdf6250	-0.0068171397
151	0xbd60d6e1	-0.054892424
152	0x3d52137a	0.051288106
153	0x3d6b7c92	0.057491846
154	0x3c9823a8	0.01857169
155	0x3d908f83	0.07058623
156	0xbd5f4e88	-0.054518253
157	0xbd41c565	-0.04730739
158	0x3d0c426e	0.03424304
159	0x3da9d401	0.0829239
160	0x3c4b6618	0.012414478
161	0xbd8702bc	-0.065923184
162	0xbc2b0820	-0.010438949
163	0xbcc09004	-0.023506172
164	0xbd50ea41	-0.051004652
165	0xbcf5b444	-0.029993184
166	0xbcc60b18	-0.024175212
167	0x3c582aa0	0.013193756
168	0xbc4e74f8	-0.01260113
169	0x3da93771	0.08262528
170	0xbd4ae975	-0.04953905
171	0x3c55f4b8	0.013058834
172	0x3d8e7877	0.069565706
173	0xbb1bc760	-0.002376996
174	0xbda1269c	-0.07868692
175	0xbb5344e0	-0.0032237098
176	0x3d04f228	0.0324575
177	0xbd79ac4c	-0.06095533
178	0x3d4813a2	0.04884685
179	0xba80a240	-0.0009813979
180	0xbd61c863	-0.055122744
181	0x3c333268	0.010937311
182	0xbd2f89b8	-0.04285595
183	0x3db48e63	0.088162206
184	0xbd9c3a6c	-0.076283306
185	0xbd721cd9	-0.059109543
186	0x3b179be0	0.002313368
187	0x3c3e9e18	0.011634372
188	0xbc759790	-0.014989749
189	0xbce0260c	-0.027361892
190	0xbd51ff8d	-0.051269103
191	0x3d8a11fd	0.06741712
192	0x3dad2481	0.08454228
193	0xbd1ce4fb	-0.03830431
194	0x3ac767c0	0.0015213415
195	0xbda475dc	-0.080302924
196	0x3d9d7ca9	0.07689793
197	0xbd4a13b6	-0.049335204
198	0xbd35b001	-0.044357304
199	0xbd39ac4d	-0.045330334
200	0x3cb9dbb0	0.022687763
201	0x3cfa5a1c	0.030560546
202	0xbd98496d	-0.0743588
203	0xbcb6d7a0	-0.022319615
204	0x3d408192	0.046998568
205	0x3c539d18	0.012915872
206	0xbda0e505	-0.07856182
207	0x3d44957a	0.047994114
208	0x3d94e457	0.07270115
209	0xbbb0dfe0	-0.0053977817
210	0x3db19ce1	0.086725004
211	0x3d7a43d6	0.06109985
212	0xbd91a186	-0.07110886
213	0xbd190e2e	-0.03736704
214	0x3da4403d	0.08020065
215	0xbcdc4a92	-0.026891027
216	0x3d9d2cdb	0.07674571
217	0xbd83beea	-0.06432898
218	0x3d99f633	0.07517662
219	0x3cc77470	0.024347514
220	0xbd96bd57	-0.073603325
221	0xbda8a19d	-0.0823395
222	0xbd87f5db	-0.0663869
223	0x3da29d9b	0.07940217
224	0x3cc7a4b0	0.024370521
225	0x3ce37d50	0.027769715
226	0xbcdb4502	-0.026766304
227	0xbdabbe37	-0.0838589
228	0x3d931a9f	0.07182812
229	0xbd390340	-0.045169115
230	0xbc476058	-0.012168966
231	0xbbf1ed40	-0.0073830187
232	0x3d984d9f	0.0743668
233	0x3d0d41b8	0.034486502
234	0xbbd1dae0	-0.0064042658
235	0x3d9a7511	0.0754186
236	0x3d97ea33	0.07417717
237	0xbc0728b8	-0.008249454
238	0x3d96de93	0.073666714
239	0xbd30e1b4	-0.043183997
240	0xbd9f851a	-0.07789059
241	0x3d9b84d9	0.07593698
242	0xbb952a00	-0.004552126
243	0xbc204d60	-0.009784073
244	0xbd6c2678	-0.057653874
245	0xbd1ad28a	-0.037798442
246	0xbd3b2687	-0.04569104
247	0x3a952a00	0.0011380315
248	0xbd98dc58	-0.07463902
249	0x3d311e0a	0.043241538
250	0x3c9cb9e8	0.019131616
251	0xbc258890	-0.01010336
252	0xbd711826	-0.05886092
253	0xbda325e0	-0.079662085
254	0xbd255ebf	-0.04037356
255	0x3d5570f6	0.05210968

decoder.attn.attn.bias f4 [64]
0	0xbdaeb1ea	-0.08530028
1	0x3c354e50	0.011066034
2	0xbd947816	-0.07249467
3	0xbda94519	-0.082651325
4	0x3d39b7da	0.04534135
5	0x3d54f596	0.05199202
6	0x3c98dc8c	0.018659852
7	0x3da3df6d	0.080015995
8	0xbc9bd648	-0.019023076
9	0x3dae9caf	0.08525979
10	0x3d2b7d56	0.041867577
11	0x3d91e34b	0.07123431
12	0xbcc7121c	-0.024300627
13	0x3c832634	0.016009428
14	0xbd380a56	-0.044931732
15	0xbce8d78e	-0.028423097
16	0xbc83da60	-0.01609534
17	0xbdaf672d	-0.08564601
18	0xbbada290	-0.00529892
19	0x3d70b43a	0.058765627
20	0x3d715146	0.0589154
21	0xbd81bfab	-0.06335386
22	0xbd815c56	-0.0631644
23	0x3d6bc962	0.0575651
24	0x3d6efd72	0.058347173
25	0x3d954301	0.072881706
26	0xbd721123	-0.059098374
27	0xbdad1f4b	-0.08453234
28	0xbd6bb358	-0.057544082
29	0x3cb312d0	0.021859556
30	0xbd5548d4	-0.052071407
31	0xbd2bde45	-0.04196002
32	0xbcb13228	-0.021630362
33	0xbd0b7cf0	-0.034054697
34	0xbcbd3dac	-0.023100697
35	0xbd9f1be0	-0.077689886
36	0xbce6fcfa	-0.0281968
37	0x3d151bb8	0.036403388
38	0x3d7b5c4a	0.06136731
39	0xbc8b5684	-0.017009027
40	0x3d64321e	0.055711858
41	0x3c5f8990	0.013643637
42	0x3bf052a0	0.0073340684
43	0xbd07b5fb	-0.033132534
44	0x3c1bda28	0.009512462
45	0x3c3984a8	0.011323132
46	0xbb0d13e0	-0.002152674
47	0x3cbc25c0	0.02296722
48	0x3d74553a	0.05965159
49	0xbbf3ca90	-0.007439919
50	0x39b6c200	0.00034858286
51	0xbad8ba00	-0.0016534925
52	0xbd67e20b	-0.056612056
53	0xbb484aa0	-0.0030562058
54	0x3d1670f6	0.03672882
55	0x3c9fcaa4	0.019505806
56	0xbd1d5426	-0.03841033
57	0xbd86d182	-0.06582929
58	0x3c1a6ca8	0.00942532
59	0x3d6881c2	0.05676437
60	0x3c58a290	0.013222352
61	0xbd756d00	-0.059918404
62	0x3da5623d	0.08075378
63	0xbd4ca283	-0.04995967
