checkpoints/models/single_stock_daily/81to9/000001/model35.pth (torch, 292914 bytes, 16 tensors)

encoder.conv1.weight f4 [18, 6, 3]
000000 94 56 0e be 73 df c5 bd 00 b9 e4 bd df 49 94 bc
       -0.13900214 -0.0966176 -0.111680984 -0.01810163
000010 c5 e7 27 3e ac 6d 61 3d 8d ec 63 be 9f ba 5c 3e
       0.16397007 0.055036232 -0.22258206 0.21555565
000020 8e 23 50 3e 3d 04 83 3d 71 b3 e2 3d 4b 68 c7 3d
       0.20326063 0.06397293 0.11069382 0.09736689
000030 0a a9 3a 3e c1 8a 6d be 10 65 0d be 05 85 5d bd
       0.18228546 -0.23197462 -0.13808084 -0.054081935
000040 84 63 8b bd 1a 3a 2a be 6c e4 64 be 0b 08 3a be
       -0.068060905 -0.16623726 -0.22352761 -0.1816713
000050 d9 a8 11 bd 60 cb 4e 3e 8f 38 27 3e e1 5c a3 3d
       -0.035561416 0.20194769 0.16330169 0.079766996
000060 24 ae 0e be fe b5 a4 bd 05 ba 3c 3d d5 79 5b be
       -0.13933617 -0.08042525 0.04607584 -0.21433194
000070 de 6c 32 3a 85 fd 87 3d b0 a1 5d 3e 8c a7 51 bd
       0.00068063836 0.06640152 0.2164371 -0.051185176
000080 80 2c 7f 3e b2 1b 87 3b a1 e7 2e be c3 06 65 3e
       0.24919319 0.0041231746 -0.17080547 0.2236586
000090 9c 55 59 3e 1b ba 3a be f2 15 08 be 10 b0 d2 3d
       0.21224064 -0.18235056 -0.13289621 0.102874875
0000a0 46 41 2c be 3c 71 14 3e 8f 56 07 be b1 70 e9 bd
       -0.16821775 0.1449632 -0.13216613 -0.11398447
0000b0 37 2e c8 bd 00 d9 55 3e 0d 41 e8 bd 0b 70 8f bd
       -0.0977444 0.2088356 -0.113405325 -0.070037924
0000c0 f3 49 03 3e f7 f9 45 be e7 88 c3 bc bb 74 41 be
       0.12821178 -0.19333635 -0.023868991 -0.18892185
0000d0 a1 31 7f be ab 88 bb bd e4 e5 ea 3c aa 3d 43 3e
       -0.24921276 -0.09156927 0.028674074 0.19066492
0000e0 83 b6 68 be 16 18 95 bd 85 07 48 3d b8 b7 bc 3d
       -0.22725873 -0.07279985 0.048835296 0.09214729
0000f0 27 da 01 3e 28 05 5b be 0f 69 55 bd 9e de 3c 3d
       0.12680875 -0.21388686 -0.052102145 0.04611074
000100 42 5c 55 be e3 29 fc 3d fe 65 6e be 7a 3a 03 3e
       -0.20835975 0.12312677 -0.23281094 0.12815276
000110 fa 74 a6 3d fc 90 84 bd b5 5d 77 3d 33 fe 47 3e
       0.0812778 -0.06472966 0.0603921 0.19530563
000120 98 04 34 3e c2 dd 0e 3e a2 cc 08 be 01 eb 95 3d
       0.17579877 0.13951781 -0.13359311 0.07320214
000130 2f ad 43 3e 75 10 81 3d f8 e2 2b 3e 6b bd f5 bd
       0.19109033 0.06301967 0.167858 -0.11999019
000140 4d 58 51 3e 10 ab cb 3a 14 bf 42 be d2 4a f3 bc
       0.2044384 0.0015538651 -0.19018203 -0.029698763
000150 e5 c1 5d 3e 34 62 7e bd 45 d2 29 bc 70 e1 de bd
       0.21655996 -0.062105373 -0.010365074 -0.108828425
000160 55 ec 02 be 15 82 7f 3d 17 06 14 3e 4d cd cc 3c
       -0.12785466 0.062379915 0.14455448 0.025000239
000170 5e 42 5d bc 0c 63 12 3c 70 f6 3b be bf ea fb bd
       -0.013504593 0.008934747 -0.18355727 -0.12300634
000180 ba d9 b1 3b 6f 35 4a be f4 7b f8 3d 83 dd f7 3c
       0.0054275664 -0.19746946 0.12133017 0.030256992
000190 95 7f b7 bb b3 33 47 bc 2a 20 46 3e 2f 1f 54 3e
       -0.0055999258 -0.012158322 0.19348207 0.2071502
0001a0 62 06 f2 3d 99 c2 e3 3d 9b a8 fc bd 98 9e bb 3d
       0.11817624 0.11121101 -0.123368464 0.09161109
0001b0 1b d0 23 be dd f3 c7 3d 3f ba 29 be 9f 06 ea 3a
       -0.15997355 0.0976331 -0.16574953 0.0017854756
0001c0 e7 16 3c 3e d4 0f 31 3e 95 86 5f 3e 7a 6b da 3d
       0.18368112 0.17291194 0.21828683 0.10665031
0001d0 e8 d6 fb 3d 76 70 90 3d 35 84 45 3e 25 79 18 3e
       0.122968495 0.070527 0.19288714 0.14889963
0001e0 5e c5 9a 3d ab 77 80 bd 0f 51 b8 bd 5f ba 97 bd
       0.07557176 -0.06272825 -0.08999836 -0.07408594
0001f0 60 c5 e8 3d 29 c7 e4 bd 63 3f 83 3d 0d 20 55 3e
       0.11365771 -0.11170799 0.064085744 0.20813008
000200 4c 6f 49 3e 43 6c 34 be 6a 0a 6f 3d 4b b9 10 3e
       0.19671363 -0.17619424 0.05835954 0.14133184
000210 47 3c 62 be da 2e 08 3e d4 f5 2f be 48 06 34 be
       -0.22093306 0.13299122 -0.1718362 -0.17580521
000220 a6 9e e9 bd d5 79 de bd 2d 2f d0 bd 07 ae 60 3d
       -0.11407213 -0.10863081 -0.10165248 0.054853465
000230 29 5d 94 3d 61 dd e9 3d 3c 30 33 3e 12 ff 1b be
       0.072443314 0.11419178 0.17498869 -0.1523402
000240 62 e5 61 be 3b 79 3f be 37 81 02 be 57 89 dc bd
       -0.22060159 -0.1869859 -0.12744604 -0.10768383
000250 6c 49 c0 3d 33 e1 39 be 75 20 37 be 74 89 d2 3d
       0.09389004 -0.18152313 -0.17883475 0.10280123
000260 ae e3 33 be 24 f2 25 3d 1e e8 49 be 7c e5 90 3d
       -0.17567322 0.040514126 -0.19717452 0.07075021
000270 2b be 13 3e 07 40 5c be 13 9c 7b 3d 79 f5 ae bd
       0.14428012 -0.215088 0.06142814 -0.08542914
000280 ed 93 2d 3e f7 29 66 3e a1 96 53 be 90 5a ad 3d
       0.1695096 0.22476946 -0.20662929 0.08464539
000290 4e 9d 1d 3e 67 9e 58 3e b8 92 33 3e db 59 0d 3d
       0.15392038 0.21154176 0.17536438 0.03450952
0002a0 3e f5 39 3c 57 1b 39 3d a7 8d 25 be 99 71 48 bd
       0.011349974 0.04519209 -0.16167317 -0.04893646
0002b0 62 57 e2 bb bc 31 2a be e4 b3 4f bc 78 ef 0b bd
       -0.0069073895 -0.16620535 -0.012677167 -0.034163922
0002c0 35 4d cb bd cd 8c 85 bd be 77 65 be 6a 8b 6a 3e
       -0.099268354 -0.06520996 -0.2240896 0.22904745
0002d0 0b d1 ea 3d 50 f0 2f 3e b5 a5 4a be d5 66 6d be
       0.11465653 0.17181516 -0.19789775 -0.23183759
0002e0 6d c2 3d 3e 54 26 19 bd 2e 9b 34 3d c0 b1 12 3e
       0.18531199 -0.03739007 0.044093303 0.14325619
0002f0 21 79 ce 3c 12 43 57 bb cc 06 23 3e 33 29 49 3e
       0.025204243 -0.0032846374 0.15920562 0.19644623
000300 53 fa 80 bd 28 1c 3c be 18 db fa bd 40 70 4f 3e
       -0.062977456 -0.18370116 -0.1224882 0.20257664
000310 11 a5 91 3d 3f f9 80 3e 3c 7c 91 bd 3a 13 5e be
       0.07111562 0.2519016 -0.07103774 -0.21687022
000320 5d 8d a8 3d c3 af c9 bd 8d 33 19 be 4c cb 14 3e
       0.08230088 -0.09847977 -0.14961071 0.14530677
000330 9b cb 32 3c 78 d6 32 bd 7f d7 60 3e b1 ab 4f 3e
       0.010912801 -0.043661565 0.21957205 0.20280339
000340 9a cd 56 be 50 91 64 be 08 d8 f1 bd 4f 16 4c be
       -0.20976868 -0.22321057 -0.11808783 -0.19930385
000350 85 df 04 be 28 c2 3c 3e 69 9e 17 be 68 28 64 3e
       -0.12975891 0.1843344 -0.14806522 0.22281039
000360 40 49 88 3d 6c fb 7f 3b 7b 64 06 3d 7b c9 39 3d
       0.06654596 0.0039059771 0.03281067 0.045358162
000370 5c 1d a2 3d 63 12 40 be 07 fa 35 bb 13 ba 2e 3e
       0.07915756 -0.18757014 -0.0027767436 0.17063169
000380 3a 0c 7f 3e d9 e8 5c bc 25 a4 22 be 39 b7 f2 3d
       0.24907008 -0.01348325 -0.15882929 0.11851353
000390 f3 84 5e be d6 5f 60 3e 51 6c 1e 3e b9 d4 c1 3d
       -0.21730404 0.21911559 0.15471007 0.09464402
0003a0 b2 f9 f1 3c 36 1d 30 3e 2b 40 be bd 19 f1 44 be
       0.02953801 0.17198643 -0.09289583 -0.19232596
0003b0 80 6d 02 be c3 aa 33 3e 04 a5 f0 bd f1 05 44 be
       -0.12737083 0.17545609 -0.11750224 -0.19142891
0003c0 77 11 55 3d 44 75 15 be 09 bb 8e bc 24 b1 18 be
       0.05201861 -0.14595515 -0.01742317 -0.14911324
0003d0 90 75 4e 3d 1b cb 33 bd 63 51 ff 3c 70 77 df 3d
       0.050405085 -0.04389487 0.031166738 0.10911453
0003e0 88 6c 21 be bb f9 95 bd a4 96 18 be 65 7c 4d 3e
       -0.15764058 -0.07323023 -0.14901215 0.20066984
0003f0 f2 f3 9f bd f6 22 bc 3d f4 5d 52 3d 76 fa 76 be
       -0.07810201 0.09186356 0.051359132 -0.24118981

encoder.conv1.bias f4 [18]
000000 b3 40 43 3e 43 e6 54 3d 3b 77 25 be 35 6c 29 3e
       0.1906765 0.051977407 -0.16158764 0.16545184
000010 1d 72 37 bd 93 b8 77 3c a7 a6 9a 3c 90 5a 95 bc
       -0.04478656 0.0151196895 0.018878294 -0.01823166
000020 a6 82 70 3e 3f da cb 3d c0 d0 38 3d da 51 91 bd
       0.23487338 0.099537365 0.045120955 -0.0709569
000030 cb 23 2f 3d ae 9d 2b be 95 fc 6e bd d0 40 db 3d
       0.042758744 -0.16759369 -0.05834635 0.107057214
000040 ed d7 70 be e8 86 85 bb
       -0.23519869 -0.00407492

encoder.conv2.weight f4 [54, 18, 3]
000000 be 0d 54 bd 48 e7 89 3d 45 38 b3 bd 2f 64 00 3c
       -0.051770918 0.067335665 -0.08750967 0.007836386
000010 22 01 64 bd 32 ae c9 3d e7 5c be bc 14 84 d0 bd
       -0.055665143 0.09847678 -0.023237659 -0.10181442
000020 b4 c9 2f bd 76 b5 c9 3d fd 78 62 3d 14 1d 07 3d
       -0.04291697 0.09849064 0.055291165 0.032986715
000030 82 5f af 3d e1 57 55 3d fa 50 7a bc 90 02 90 bd
       0.085631385 0.05208576 -0.015278095 -0.07031739
000040 a5 16 05 be 3a b5 89 3d d0 d1 cf 3d c4 e9 6b bd
       -0.1299692 0.06724019 0.101474404 -0.057595983
000050 67 91 8b bd 37 a9 05 3d e2 25 a8 ba 69 e9 ea 3d
       -0.06814843 0.03263208 -0.0012828673 0.11470301
000060 20 3d ef ba 92 45 ce ba 57 b9 ff bd f5 65 39 3d
       -0.001825247 -0.0015737286 -0.12486523 0.04526325
000070 5e d7 db 3b 84 9f 16 3d e7 30 b1 3d 13 86 73 3d
       0.0067090234 0.03677322 0.086519055 0.059454035
000080 57 78 8f 38 2d ee 3e bc fd 08 8e bd a5 f3 fb 3d
       6.8411864e-05 -0.011653465 -0.06935308 0.12302331
000090 87 11 e9 3d 1c 69 05 bb d4 58 09 3e bf a1 f0 3d
       0.11380296 -0.002035684 0.13412791 0.117496006
0000a0 cb e1 9c 3d 1a 75 8b 3d b3 b5 54 3d ed 75 ca bc
       0.07660254 0.06809445 0.051931094 -0.024714435
0000b0 a8 a8 46 3c 92 54 e9 3d ca b4 a2 bc 18 64 36 3d
       0.012125172 0.11393084 -0.019861598 0.04452905
0000c0 d3 10 3e bd d6 8f 97 3c d7 31 97 3d 1f 6a a9 3d
       -0.046402764 0.018501204 0.07382553 0.08272194
0000d0 c7 4f 87 3d f9 28 81 3d e7 ae 38 bd f3 09 e1 3d
       0.06607013 0.06306643 -0.045088675 0.10988226
0000e0 c3 5d b7 3d d2 fe d8 3d 28 f7 c8 bd a1 5c 52 bd
       0.089534305 0.10595478 -0.09812766 -0.05135787
0000f0 bd f0 e9 bd 16 a3 bb 3c bb 79 dd 3d 39 02 be bd
       -0.1142287 0.022904914 0.10814234 -0.09277768
000100 50 22 40 3d 0d d3 fe 3a c4 fc 13 be 2a 6d 38 bc
       0.046907723 0.001944156 -0.14451891 -0.0112564955
000110 49 15 96 bc bc b2 9e bd 93 06 ab bd 85 83 a6 3d
       -0.018320696 -0.077489346 -0.08350863 0.08130554
000120 f1 45 ed bc 2c 8c 5f bd 20 0a 41 bd ce a5 53 bc
       -0.028964015 -0.054577038 -0.047128797 -0.012917949
000130 91 5e 0e bd 45 c7 a8 bd f6 45 b9 3d aa d2 e1 3c
       -0.034758154 -0.08241133 0.09046547 0.027566273
000140 8d 34 e3 bd 5e 3f 44 bd b1 c4 19 bd ca 19 78 bd
       -0.11094008 -0.047911994 -0.037541095 -0.06057147
000150 f9 27 fd 3c ae 7f f6 3d 2b 73 ca bd b5 15 8e 3b
       0.03090285 0.12036072 -0.09885248 0.004336084
000160 3d 51 0b 3e 37 cc 91 bd b0 bd fb bd 19 8d d0 3c
       0.13605209 -0.07119029 -0.122920394 0.025457906
000170 65 3b 86 bb 41 9c be 3b 4f 82 b9 3d 33 97 e9 bd
       -0.004096436 0.0058169668 0.090580575 -0.11405792
000180 76 7e a6 bd 31 ad d1 3d 1e d8 bc bd a9 f5 64 bc
       -0.08129589 0.10238112 -0.092209086 -0.013974586
000190 92 bf 63 3d af a2 9f bd 8f 28 cd bd d4 23 b8 bd
       0.055602618 -0.07794701 -0.100175016 -0.08991209
0001a0 72 98 d0 bd ba 22 e8 bd 57 30 e1 bc cc 2c 04 be
       -0.10185327 -0.113347486 -0.02748887 -0.12907714
0001b0 90 e6 a0 bd 8e 55 69 3c a8 07 05 3e 90 7f 0c 3e
       -0.07856476 0.014241589 0.12991202 0.13720536
0001c0 ff f9 df 3d bb eb 2b 3c 3c 5d af 3d e5 3e 2b bd
       0.10936355 0.010493214 0.08562705 -0.041808028
0001d0 a0 b1 b0 bd dd 80 8a 3d a9 47 54 3d 87 98 3b 3d
       -0.08627629 0.0676286 0.051826153 0.04579976
0001e0 22 c0 89 3d 5c 12 f5 bc ee e1 d0 3d 95 9e 98 3d
       0.067260996 -0.029915981 0.10199343 0.07452122
0001f0 f5 fb 70 bd 7d 11 cb 3d 72 9d 5a 3d 7f de 1d 3c
       -0.058834035 0.09915445 0.053372808 0.009635567
000200 d0 0d 9c 3b 52 65 eb 3d 48 d2 fb 3a 24 33 3b 3d
       0.0047623888 0.11493935 0.0019212449 0.04570307
000210 16 3b bf 3d 91 c3 81 39 82 54 f4 3d b3 e6 a2 bd
       0.093374416 0.00024750506 0.11930181 -0.07954159
000220 88 a4 51 bc 01 86 55 3c d1 bd 95 3b 07 9d cd bd
       -0.012795575 0.013032437 0.004569747 -0.10039716
000230 fa 57 02 3e 96 e3 a0 bd 2b 01 c2 3d 84 27 68 bd
       0.12728873 -0.078559086 0.09472879 -0.05667831
000240 61 14 60 3d b0 82 98 bd 26 08 76 bd 1e 7e 0d 3d
       0.054706935 -0.07446802 -0.060066365 0.034544103
000250 14 3c bd 3d 16 8f 37 bc 89 9a 4f 3d 13 81 9e bd
       0.092399746 -0.011203548 0.050684486 -0.07739463
000260 bb de 2b 3d 7d 50 83 bc 44 cf ff bc 05 1f 88 3d
       0.04196046 -0.01602959 -0.031226762 0.066465415
000270 28 c1 42 bd 04 cc aa bd 73 b6 1e bd e2 37 8e 3d
       -0.04754749 -0.08339694 -0.038748216 0.069442526
000280 d7 e1 06 3e 2d 8c 00 3e 4e 07 e5 3d b1 f7 84 bd
       0.13172089 0.12553473 0.11183034 -0.06492556
000290 02 1f 07 3e 6e 2d b9 3d 2a 29 9d 3c d6 9d 9d bd
       0.13195422 0.09041868 0.019184668 -0.076961204
0002a0 88 99 89 bd c8 9d df 3c e3 ba be bb a8 51 38 bd
       -0.06718737 0.027296916 -0.0058206185 -0.04499975
0002b0 ca 3f f4 bd 03 3a d4 3d 00 64 7a 3d d0 58 dd 3c
       -0.11926229 0.10362627 0.061130524 0.027019888
0002c0 3c cb 6f 3c d0 4a b0 3d 0d 54 ab bd 69 d7 28 bc
       0.014635857 0.08608019 -0.08365641 -0.010305264
0002d0 ad eb 0e 3e d6 7f 31 3c 4d 54 d3 bd 12 02 cd bd
       0.1395709 0.010833701 -0.103188135 -0.100101605
0002e0 a9 f8 8b 3d 14 74 6f 3d db 02 69 3d af 3b a7 bd
       0.068345375 0.05846031 0.05688749 -0.081656806
0002f0 8e a9 9d bd e7 44 12 be 70 c4 b9 3c 66 e8 cd bc
       -0.076983556 -0.14284097 0.022676677 -0.02513523
000300 7a 3d fe 3d 21 d7 6c bd ec f9 c6 bd ea 67 41 3d
       0.124140695 -0.05782235 -0.097156376 0.04721824
000310 9f db 92 bd 56 c4 a5 bc 64 83 1c 3e b2 c3 bd 3d
       -0.07170796 -0.020235222 0.15284497 0.092658415
000320 fe d1 0d be e8 21 4f ba c9 75 38 39 48 8a 0a 3e
       -0.13849637 -0.0007901476 0.00017591486 0.13529313
000330 96 3b f6 bd 7b 02 96 3d 0e 2d 09 be 33 bd 0f be
       -0.12023084 0.07324692 -0.13396093 -0.14037018
000340 4d c2 80 bd 2e 86 09 be ef b6 37 bc 90 19 fc 3d
       -0.0628706 -0.13430092 -0.011213048 0.12309563
000350 73 d8 03 bd 48 12 e0 bd 83 3f b5 bb ab c9 d1 bd
       -0.032188844 -0.10940987 -0.005531253 -0.10243543
000360 7a 52 b3 3d a6 a5 68 3c 47 52 f3 3d e9 42 4f 3c
       0.087559655 0.01419965 0.118809275 0.01265023
000370 f2 1d 29 3d 05 dc 21 3d 23 db f9 3d 1c b5 a9 bd
       0.041288324 0.039516468 0.122 -0.08286497
000380 fd b1 ad bd a0 0e df 3d f1 3e 79 3d 47 01 08 3e
       -0.08481214 0.10891461 0.06085104 0.13281737
000390 ce a0 e5 3c a0 c2 51 3d 30 a1 b5 3d 73 2a b1 3d
       0.02803078 0.051211 0.08868635 0.08650675
0003a0 7b 7d a0 3d 84 12 d1 bd 1c 78 02 3d cb cc da bd
       0.078364335 -0.1020861 0.031852826 -0.106835924
0003b0 c1 aa 43 3c 78 41 bf 3d b8 e9 ec bc c2 4c 05 3e
       0.011942566 0.09338659 -0.02892004 0.13017562
0003c0 2b df 08 3e 60 fd 56 3d 42 f3 c2 bd 82 1e a9 3c
       0.13366382 0.05248773 -0.09519054 0.02064443
0003d0 bd 26 dc 3d 98 98 d7 3c d6 1d f8 3d 1c 0f 01 3c
       0.10749576 0.02631788 0.12115066 0.0078771375
0003e0 7c 6f 7a bd e4 ae b3 3d de 77 51 3d 65 f1 9b 3d
       -0.061141476 0.08773592 0.051139705 0.07614402
0003f0 1d 08 b4 bd a9 54 db bd 68 ec bb 3d 1e 12 43 3d
       -0.0879061 -0.10709507 0.0917595 0.0476247

encoder.conv2.bias f4 [54]
000000 6b 7c f4 3d 24 64 a0 bc eb 2b 05 be 8e 38 7a bd
       0.11937793 -0.019579 -0.13005035 -0.06108909
000010 fb 2e 91 bd 19 3f cd 3d 2c 83 bf bd 2c 22 e5 3d
       -0.07089039 0.100218005 -0.09351191 0.111881584
000020 b7 0e 5f 3d 53 69 64 bc c0 fa ed bc 0e 28 9e 3d
       0.054457393 -0.013941127 -0.029050231 0.077224836
000030 c4 45 a2 bd 44 1d 50 bd aa 50 02 3e 0d b9 0c bd
       -0.07923463 -0.05080916 0.12726083 -0.034356166
000040 70 c7 24 3c d0 5f e3 3d c8 0a f6 bd d1 57 98 3c
       0.010057315 0.11102259 -0.12013775 0.018596562
000050 57 d6 8e 3a b6 76 ad bd cd 8e dc 3d 82 9c cf 3d
       0.0010897618 -0.08469908 0.107694246 0.10137273
000060 09 7f 49 bc 63 df 58 bc 3c 08 c5 3d c7 aa 25 bd
       -0.012298354 -0.013236853 0.09620711 -0.04044607
000070 d6 8d 92 3d 04 7e be bd f8 99 ed bd 96 ba bf 3d
       0.07155959 -0.09301379 -0.11601633 0.0936176
000080 37 5d bb 3d a0 66 eb bd 2c a3 18 bd 73 c3 7e 3d
       0.09148639 -0.114941835 -0.037264988 0.062198114
000090 49 0e 93 3d 3a a6 b9 3d a0 59 d0 3d d8 36 70 bd
       0.07180459 0.09064908 0.101733446 -0.058646053
0000a0 24 26 b6 3c 57 11 f9 3d 13 05 e0 bd 56 4a b6 3d
       0.022234984 0.121615104 -0.10938468 0.08900897
0000b0 b9 60 1c 3d e0 a4 0e 3b ff 87 06 3e c6 6a 65 bd
       0.03817818 0.0021765754 0.13137816 -0.05601003
0000c0 83 97 27 bd 7f eb c8 bd e7 c2 f0 3d 9e f3 c7 bd
       -0.040915977 -0.09810542 0.11755925 -0.09763263
0000d0 00 66 02 3e 59 59 c8 bd
       0.12734222 -0.09782667

encoder.rnn.weight_ih_l0 f4 [192, 54]
000000 05 65 9d 3d 11 0f 81 bd 00 17 d9 3d 5f 6f b0 bd
       0.076852836 -0.06301702 0.1060009 -0.08614992
000010 d7 18 a1 bd 95 db ee bc 50 c6 ca bd 95 0c f8 3d
       -0.07866066 -0.02915744 -0.09901106 0.12111775
000020 3d 8e 2f 3d 56 52 9f bd ad 50 c7 bd 35 69 00 bd
       0.04286026 -0.07779376 -0.097321846 -0.031350333
000030 b3 00 15 3c 9e 95 ac bd f5 54 bc 3d be 18 85 bd
       0.009094405 -0.08426975 0.09195892 -0.0649886
000040 d5 f3 c8 3c da 58 c3 3d b8 dd c5 bd cb b1 cf bd
       0.02453033 0.095384315 -0.0966143 -0.10141333
000050 30 96 f6 bd 5c c4 90 3c 71 22 da 3d 47 4f 97 bd
       -0.12040365 0.017671756 0.106511004 -0.07388168
000060 72 b0 8e bc 9d 95 95 3d a2 b8 e9 3d 38 90 98 3d
       -0.01741812 0.07303927 0.11412169 0.074493825
000070 29 0c 49 3d 6c da a2 3c 38 11 08 bc 1e 8f e0 3d
       0.049083862 0.019879542 -0.0083048865 0.109647974
000080 02 9c 14 3a ab 2f 38 3d e5 c7 08 bc f6 bc 09 3e
       0.0005668999 0.044967335 -0.00834844 0.13450989
000090 95 86 05 be 67 47 22 bd 85 3d e6 bd 58 f6 e2 3c
       -0.1303962 -0.039618876 -0.11242203 0.027705356
0000a0 d7 d2 df bc 67 39 ad bd dd 9d ca bd 98 5f 1e 3d
       -0.027322216 -0.08458214 -0.09893391 0.038665384
0000b0 92 77 cc 3d d9 00 e3 3d f0 bb b9 3d 69 49 d4 bd
       0.09983744 0.11084146 0.09069049 -0.103655644
0000c0 f2 e5 d2 3d 04 11 f1 3d 20 8e 22 3c 5b ad fb bd
       0.10297765 0.117708236 0.009921581 -0.12288924
0000d0 18 b1 ca bd a6 41 d2 bd cc 4e 70 bb 5d 00 d2 3d
       -0.09897059 -0.10266428 -0.003666806 0.102539755
0000e0 32 8f c3 3d 66 ec 3e bd ae 37 89 bd 91 b6 ac 3c
       0.09548797 -0.046612166 -0.06700073 0.021083148
0000f0 43 92 ee bc 7e 43 c0 bc 3d 89 07 3d fe fb 06 bd
       -0.029122477 -0.023469683 0.033089865 -0.032955162
000100 32 68 68 3d 04 de 69 bc 04 ba f6 3d 8d 4a dc bd
       0.056739993 -0.014274124 0.120471984 -0.10756407
000110 49 3e b3 3d bb 29 af 3d f0 94 bc bd e2 b7 47 3c
       0.08752114 0.08552881 -0.09208095 0.012189837
000120 a5 ad 98 bc 32 62 87 3d 9c 24 09 3e 87 71 82 bd
       -0.018637488 0.06610526 0.13392872 -0.0636931
000130 a6 3f b9 bd 1d 49 b3 bd de a6 b1 3d 6c df b8 bd
       -0.09045343 -0.087541796 0.086744055 -0.09026989
000140 2d 54 61 bd af ad b2 3d 26 0c 63 3d 02 85 bb 3d
       -0.055011917 0.08724534 0.055431508 0.091562286
000150 59 af e8 3d 85 cd ec bd a6 54 46 bd 65 8f 28 3c
       0.1136157 -0.11562637 -0.04842057 0.010288094
000160 62 4a 91 3d 94 c0 09 bd 76 5f 05 3d b6 02 aa 3d
       0.070942655 -0.033630922 0.03256174 0.08301298
000170 60 f3 23 3d 11 d2 93 bd 50 d8 ec bd b2 72 70 bd
       0.040027022 -0.07217801 -0.11564696 -0.058703132
000180 55 77 5b 3d 37 a1 dc 3d 69 d4 46 3d 50 18 87 3d
       0.0535806 0.10772937 0.048542414 0.06596434
000190 95 eb be 3c bb 4c a3 bc 82 ae 40 bc 20 f6 e9 3d
       0.023305694 -0.019934049 -0.011760356 0.11423898
0001a0 73 65 32 3c 25 8a 16 3d 3e 34 a6 3d a2 75 98 3d
       0.010888445 0.03675284 0.08115433 0.07444312
0001b0 a4 59 df 3c ef 08 a6 bc a5 af 48 bd a4 15 81 bd
       0.027264424 -0.020267932 -0.048995633 -0.06302956
0001c0 59 1f 91 bd b6 dc c3 3d 26 e4 a8 3d 15 41 9a bd
       -0.07086057 0.09563582 0.08246641 -0.07531945
0001d0 4c 98 de 3d f4 58 5d bc d8 22 b0 bc 43 1a cc 3c
       0.10868892 -0.013509978 -0.02150099 0.024914866
0001e0 0c c2 ae bd 81 de 67 bd 0f 14 51 bd da 00 2b bd
       -0.08533105 -0.05660868 -0.05104452 -0.04174886
0001f0 99 dd ae 3d a9 1d 29 bd 9d f0 aa bd 39 bb b9 bd
       0.0853836 -0.04128805 -0.083466746 -0.09068913
000200 a0 b0 fb 3d 51 61 a2 3d fb f4 0c be e9 e8 f7 bd
       0.12289548 0.07928718 -0.13765328 -0.12104971
000210 f5 85 a2 bd b7 98 fd 3d 01 7f 13 3d 6b 21 17 3d
       -0.079357065 0.12382644 0.036009792 0.036897104
000220 c5 92 6a 3d ec a7 ba 3c 3f 76 ee 3d 2b 6d dc bd
       0.057268877 0.02278515 0.116436474 -0.1076301
000230 6b 4b 05 3e d2 e2 8a 3d 9e d5 23 3d 9c b8 22 3d
       0.13017051 0.06781544 0.039998643 0.03972684
000240 8b a5 c2 bc af 43 80 bd c2 58 7a bd 14 31 bd bd
       -0.023760578 -0.062629096 -0.061119802 -0.092378765
000250 5d 37 21 3b 01 32 1e 3d 6a a2 d7 3c f0 01 40 bc
       0.002459965 0.038621906 0.026322562 -0.011719212
000260 fb 14 f4 3c f6 bf f2 bd 6e 22 b4 bd b5 08 fa bd
       0.02979516 -0.1185302 -0.087956294 -0.12208692
000270 8c c0 01 3e 35 68 e4 bd 65 53 5a 3d 91 c8 bf 3d
       0.12671107 -0.111526884 0.053302187 0.09364427
000280 79 3d 0a bd 55 c7 fb bc d5 f1 dc 3d 66 48 cb bd
       -0.03375003 -0.030734697 0.10788313 -0.09925918
000290 61 9d 01 be 8b b8 dd bc 47 4e 2b bc 8c 22 4c bd
       -0.12657692 -0.027065536 -0.0104556745 -0.049837634
0002a0 27 d5 38 3c cc fd 92 3d 94 d9 8a 3d 56 a9 ea 3c
       0.011281288 0.07177314 0.06779781 0.028645199
0002b0 07 0f a6 3d f4 f1 52 bd da 3e cc 3a dc e7 7d 3d
       0.08108335 -0.051500276 0.0015582696 0.061988696
0002c0 b3 3b 4f 3d 73 58 31 bd 96 71 c0 3d 17 89 bb bd
       0.050594043 -0.043297242 0.09396665 -0.09157007
0002d0 e9 8c 89 bd a6 50 04 be f2 fc 22 3c 7f 69 d5 bd
       -0.067163296 -0.1292139 0.009948002 -0.104205124
0002e0 78 4b bc 3d 43 9d 9a bd ff 87 08 3d 32 da d4 3d
       0.09194082 -0.075495265 0.03333282 0.1039318
0002f0 67 c8 02 3e 17 c7 4b 3d 9d 50 4c 3d 6e 37 a3 3c
       0.1277176 0.049750414 0.049881566 0.019923892
000300 c0 87 70 3d af 6a a7 bb 93 8e c0 bd 61 43 cd 3d
       0.05872321 -0.005109153 -0.09402194 0.10022617
000310 cd ea bf bd 43 a6 01 3e c3 78 c4 3a d5 24 6b 3d
       -0.093709566 0.1266108 0.0014989603 0.057408173
000320 2f 4f 9d 3c de 3c 5a 3d 8b 65 ac 3d 52 21 d5 bd
       0.019202797 0.053280704 0.08417805 -0.10406746
000330 6a 43 8f 3d f6 c3 1c bd f0 e1 d3 bd e9 33 c7 bd
       0.0699528 -0.03827282 -0.103458285 -0.09726698
000340 0c 3c 3e 3c 98 c8 c3 3d 18 88 f8 bd 6f 85 0e 3d
       0.011610996 0.095597446 -0.12135333 0.03479522
000350 39 6e 5c 3d 2d 50 f1 bd 8f 9e 05 3d 59 ae 5c bd
       0.053816054 -0.117828704 0.032621916 -0.05387721
000360 93 63 9d 3c af 5e 33 bd 46 1f d3 3d 51 b0 f3 bd
       0.01921252 -0.04379147 0.10308699 -0.11898864
000370 b8 0d 86 3d 5e cc 48 bd c2 dd 30 3d 26 58 16 3c
       0.065455854 -0.049023025 0.043180235 0.00917629
000380 7d db f4 bd da d6 8a bd 21 a7 94 b9 67 49 59 3c
       -0.119559266 -0.06779261 -0.0002835328 0.013262129
000390 5e ee 90 bd c4 fa b4 3d c0 53 4e bd ab b9 80 bd
       -0.07076715 0.08836892 -0.05037284 -0.06285413
0003a0 f0 47 33 3d b1 2e 33 bc 26 f9 03 3d 8a 72 8d 3d
       0.043769777 -0.010936425 0.03222003 0.06906612
0003b0 00 f2 52 bd 3d b4 fc 3c 07 81 d6 3d b0 d3 e9 3c
       -0.05150032 0.030847663 0.10473829 0.028543323
0003c0 32 40 d4 3d 5e 17 4f 3d 62 69 da 3d a7 29 eb 3d
       0.10363807 0.050559394 0.106646314 0.11482554
0003d0 e4 74 99 3d 51 ac 18 3d 37 a7 40 3d ef 19 98 3d
       0.07492998 0.03727371 0.04703447 0.074268214
0003e0 f2 ff 26 3a c5 8d 9a 3c cc 30 51 bd 9f b6 38 ba
       0.0006370536 0.01886643 -0.051071927 -0.00070462556
0003f0 8c fb 85 3d 10 fc 93 bb b8 5a c3 bc 44 3f 0e 3d
       0.065421194 -0.004516132 -0.023846969 0.034728304

encoder.rnn.weight_hh_l0 f4 [192, 64]
000000 ad a3 4c bc 9f 02 7d 3d 11 cd 6b bd 3e 9c 54 3b
       -0.012490195 0.061770078 -0.057568613 0.003244176
000010 c1 35 2f bd 2d c9 9f bd ac dc 8e 3d d5 c6 cf 3d
       -0.042775873 -0.07802043 0.069756836 0.10145346
000020 ad b9 51 3d 13 5d 03 3e 6f 92 34 3d 68 b1 da 3d
       0.051202465 0.12828474 0.044084962 0.10678369
000030 53 4f a0 bc 65 c8 a5 3d d5 3a e3 3c fa 26 19 bb
       -0.019569075 0.08094863 0.027738014 -0.002336918
000040 e7 18 e9 3d 0b c1 c3 bd 45 c6 91 ba 9c 84 58 bd
       0.11381703 -0.095583044 -0.0011121711 -0.05286084
000050 ae fc d8 3d 24 0a d8 3b b1 52 32 3d 13 83 b3 3d
       0.1059507 0.0065930057 0.043535892 0.08765235
000060 94 3c 6d 3d d0 17 59 bd 26 46 55 37 b5 da af 3d
       0.0579191 -0.053001225 1.2712122e-05 0.08586637
000070 60 05 71 bd 73 ce 66 3c 23 d9 b4 bd c8 7f 30 3d
       -0.058843017 0.014087307 -0.08830478 0.04309061
000080 90 25 bb 3d 5e e2 ba 3c 4f 18 85 3c 90 35 c8 3d
       0.09138024 0.022813018 0.016246943 0.09775841
000090 e5 e4 e8 3b 9c 6b 66 bd 46 98 ba 3d 43 f0 ca bd
       0.0071073645 -0.056254968 0.09111075 -0.099091075
0000a0 21 db 80 3d 08 ca b0 3d 5a c3 a2 bb 5b 2c fc bd
       0.062917955 0.086322844 -0.0049671354 -0.12313148
0000b0 5c a2 76 3d bb cd ab 3d 57 8e f4 3b 2b d5 a9 3d
       0.06021343 0.08388849 0.0074632573 0.08292612
0000c0 a3 25 5e 3d a8 27 ed 3c cc 33 e1 3d c3 12 68 bd
       0.054235112 0.028949574 0.109962076 -0.056658518
0000d0 f3 23 db 3c 1f df ca bd 08 bd e6 3d 5f 4c 33 3d
       0.02675054 -0.09905838 0.112665236 0.043774005
0000e0 d2 50 f8 3d a0 24 d8 bd e9 8e e9 3d 22 a3 d2 3d
       0.1212479 -0.10553861 0.11404211 0.10285021
0000f0 08 7d d8 3d 59 34 4e bd 5e 96 b9 bd e8 9b 92 bc
       0.10570723 -0.05034289 -0.090618834 -0.017896608
000100 fa d2 ea 3d 6a 5f 08 3e b5 6e 19 bc b1 86 8a ba
       0.11466022 0.13317648 -0.0093647735 -0.0010568706
000110 3e a9 c7 bc b3 4f d3 bc 61 49 d4 3c 3c fa 52 3d
       -0.024372693 -0.02579484 0.025913896 0.051508173
000120 32 73 93 bc 5d f4 d1 bd a3 ca 21 bc 66 ec 72 3d
       -0.017999265 -0.10251687 -0.0098749725 0.05930748
000130 71 cd 94 bd d7 33 e7 3d f6 ce 67 3d b9 54 87 3d
       -0.07265747 0.112891845 0.056593858 0.066079564
000140 d7 c5 32 3d 20 cb b1 3d 1f 5a c6 3d e0 33 85 bd
       0.043645706 0.08681321 0.09685158 -0.06504035
000150 e0 2d d0 3c 85 36 a7 3d a9 8d fe bd 37 14 a2 3d
       0.0254125 0.08164696 -0.12429363 0.07914012
000160 dd d6 f6 bd f1 95 8d bd d5 48 82 bd 5c dd d0 bd
       -0.12052701 -0.06913365 -0.06361548 -0.10198471
000170 27 28 94 bd f9 df 8b 3d ba 44 05 be 71 c1 94 bd
       -0.07234221 0.06829829 -0.13014498 -0.072634585
000180 a0 be 06 be ea bf 9d bd 04 ac 99 3c c9 3c 73 3d
       -0.13158655 -0.0770262 0.018758781 0.05938414
000190 d0 c1 a4 bd e1 49 22 3d 0e 0a 97 3d 82 74 de 3d
       -0.08044779 0.039621238 0.07374965 0.10862066
0001a0 97 4a 33 bd f4 0c ce bd 8e 89 b8 3d 28 c4 05 bd
       -0.043772306 -0.10061064 0.090106115 -0.032657772
0001b0 73 3c fa bd c3 b0 32 bd a0 65 4f bd 90 da d9 3b
       -0.12218561 -0.043625604 -0.050634027 0.006648369
0001c0 d3 2c a7 3d d4 ea 88 3d 37 49 27 bd cc 10 b0 3d
       0.081628464 0.06685415 -0.040841307 0.08596954
0001d0 a1 d5 f7 3c f9 41 46 3d 3c e7 d9 bd 55 39 8c bc
       0.030253233 0.04840276 -0.106398076 -0.017117182
0001e0 48 eb 92 3c 0b 42 37 bd 81 19 9e 3d 0e 9f 2e 3d
       0.017934456 -0.044740718 0.07719708 0.042632155
0001f0 4b 5b 9a bd df 4c 03 3e e6 78 7f bb 16 6d ca bc
       -0.07536944 0.12822293 -0.0038981973 -0.02471022
000200 70 9f d0 3a ea 3f 30 3a 6e c5 58 bc 8f af 37 bd
       0.0015916657 0.0006723391 -0.013230665 -0.04484516
000210 b1 b4 63 3c b5 b4 2f bd 23 97 dc 3d e3 c2 3c bd
       0.013898061 -0.042896945 0.107710145 -0.046084296
000220 f6 f3 dc bd c8 1b e9 3d 7d 1e ba 3d 88 5b b7 bd
       -0.10788719 0.11382252 0.090878464 -0.08953005
000230 78 df eb 3d f8 bc b0 bd 4f 3b 6d bd 20 55 80 bd
       0.11517233 -0.08629793 -0.05791789 -0.06266236
000240 ec b3 d8 bb bd 01 10 3d b9 01 6b bd 38 21 3b bd
       -0.0066132452 0.035157908 -0.05737469 -0.045685977
000250 ba c6 79 bd c9 45 bf 3d a6 dc 7c 3d 26 36 45 3c
       -0.060980536 0.09339482 0.061733864 0.012036836
000260 1d 68 0f 3b 83 92 73 3c d9 5c cc bc fc fb 8b bd
       0.0021882125 0.014866474 -0.024946617 -0.068351716
000270 c3 79 05 3e 3d 9a 5f bd 64 22 ba bd ba 2c e3 bc
       0.1303473 -0.054590452 -0.09088591 -0.027731288
000280 4a d3 ef 3c fc 7c 13 be 5b 48 2c 3d 0c 2d 8c 3b
       0.029275555 -0.14403147 0.04206119 0.004277831
000290 9f fb 81 bd 64 1a f3 3c e3 b3 89 3c d4 29 fb bd
       -0.06346821 0.02967567 0.01680941 -0.122638375
0002a0 f2 11 3c 3d 4d 46 21 3d 3e 66 8e bd 25 9e db 3c
       0.04591555 0.039373685 -0.06953095 0.026808808
0002b0 30 13 92 bd a0 69 b2 3d 05 1c 96 bd 14 52 e5 3c
       -0.07132566 0.087115526 -0.07329563 0.02799324
0002c0 51 d9 11 3d 38 a8 3f bc e1 28 78 bd b9 3d 56 3d
       0.03560764 -0.011697821 -0.06058586 0.052304957
0002d0 22 90 b0 3c 6c 89 4d bd d3 ed cc bc 2b 25 5c 3d
       0.021553103 -0.050179884 -0.025015747 0.053746384
0002e0 c1 20 fb bd 4b a4 8f 3c 98 0b ea 3c b4 48 0e be
       -0.12262107 0.017534396 0.028569981 -0.13894922
0002f0 39 18 c3 3c bd f2 a6 bd e3 7a 04 be 62 02 dd 3d
       0.023815261 -0.081517674 -0.12937503 0.1079147
000300 80 b3 6e 3d 19 a9 a8 3d a3 29 ea 3d bb e1 89 bd
       0.058276653 0.08235378 0.11433723 -0.06732508
000310 7f 6f 55 bd e6 89 61 3b 6f 35 4d 3d be a6 92 3b
       -0.052108284 0.003441447 0.050099786 0.0044754436
000320 63 d0 64 bc e4 21 06 3e ea 34 88 bd 9a 6c 6f 3d
       -0.013965699 0.13098866 -0.066507176 0.05845318
000330 c9 48 61 3c 3d 92 87 bd f6 fb 94 3d 6f b3 b1 3d
       0.0137502635 -0.066196896 0.0727462 0.08676802
000340 76 67 ce bb b6 b4 b2 bd 84 89 a2 3d d7 32 bf 3d
       -0.0062989546 -0.08725874 0.07936385 0.09335869
000350 a6 81 7c 3d a5 88 4f ba a1 ff 8b 3d ff 0f 1c 3d
       0.06164708 -0.0007916785 0.06835867 0.038101193
000360 c4 3f fb bc 41 cd c4 bd 96 8f 5f bd 48 b0 4e 3d
       -0.030670054 -0.096094616 -0.054580294 0.050461084
000370 f5 c2 8b bd e1 5d 48 3d 4f 90 58 bd ff cf bb bd
       -0.068242945 0.048917655 -0.052872 -0.091705315
000380 9b 28 bf 3d 6e 98 ca bc 38 74 f9 3c b6 9b cc 3d
       0.09333917 -0.024730887 0.030450925 0.09990637
000390 8d 30 2a 3c 00 e8 9d 3d de ea 04 bd 55 b1 c9 bd
       0.010387552 0.07710266 -0.03245055 -0.098482765
0003a0 06 48 52 bd 26 dd 0e bd 9e 07 8f bd ba 54 94 bd
       -0.05133822 -0.034878872 -0.06983875 -0.07242723
0003b0 cd 5c 5e 3d fa f5 e7 3d 51 02 b5 3d 03 48 8b 3d
       0.05428772 0.11326213 0.088383324 0.068008445
0003c0 d4 42 cb bd b9 2c 96 bc e1 b4 32 3d fa 95 ea 3d
       -0.09924856 -0.018331872 0.04362953 0.11454387
0003d0 3c bf 67 bd 80 9d 90 3d 2d f4 9b 3d c8 37 20 bd
       -0.05657886 0.07061291 0.07614932 -0.039115697
0003e0 ce 4b db bd 33 d1 7b 3d f2 7a 3b 3d bf 00 c8 bd
       -0.10707818 0.061478805 0.045771547 -0.09765767
0003f0 bb fe b4 3d a7 7c 07 bd e1 9c b1 bd aa 63 48 3c
       0.088376485 -0.033077862 -0.086725004 0.012230793

encoder.rnn.bias_ih_l0 f4 [192]
000000 6b 83 51 bc 86 9c 82 bd ef 2a 83 3b 3d 08 11 bc
       -0.01278768 -0.06377511 0.004002921 -0.008852062
000010 c3 24 2f bd 3a 9f 85 3d 68 05 76 bd 89 36 ff bd
       -0.042759668 0.06524511 -0.06006375 -0.12461574
000020 9b d8 db bd 9a 04 33 3d 50 d5 b8 bd 0c 51 e3 bd
       -0.107346736 0.04370556 -0.09025061 -0.11099443
000030 d5 3b 44 bd 48 f7 ad 3d 40 5c 96 3d 13 45 d5 3d
       -0.047908623 0.08494431 0.07341814 0.104135655
000040 ba 17 a3 bd ac c3 c2 bd 44 6d 5e 3d 2c b9 b9 3d
       -0.0796351 -0.09509978 0.054303423 0.09068522
000050 85 be a9 bb eb 63 ed bd 5e 31 f4 3d dd d7 b8 3d
       -0.0051801824 -0.115913235 0.119234785 0.09025548
000060 f9 22 c3 3d a1 53 3a 3d 15 81 46 3d 7f 27 8a bb
       0.09528155 0.04548991 0.048462946 -0.004216134
000070 80 6a 90 3d d5 ac 95 3c 6a c2 c0 bd 94 cb 2f bd
       0.07051563 0.01827089 -0.094120815 -0.042918757
000080 ec bb da bc 65 c2 28 bc a5 ca a4 3d eb a6 b9 3d
       -0.026700936 -0.0103002535 0.08046464 0.0906504
000090 1d 5a ce bc ac 34 6f bd 5c 54 5a bc 3a 6b fe 3d
       -0.025189454 -0.05839984 -0.013325777 0.124227956
0000a0 5a 93 fb 3d 4e 6b 24 3c 7d e4 97 bb 84 63 98 3d
       0.122839645 0.010035349 -0.004635392 0.07440856
0000b0 3a 5c c7 bd fc b3 50 bd fa 85 e3 3d f8 be d4 3d
       -0.09734388 -0.050952896 0.111095384 0.10387987
0000c0 6f 4c 00 3c ee 2c da bd ca 6b c4 3d c2 dd 2d 3d
       0.007830723 -0.10653101 0.09590872 0.042447813
0000d0 7d a5 a5 b8 17 5b f8 3d f6 d9 c4 bd 82 a2 da bb
       -7.898638e-05 0.12126749 -0.09611885 -0.0066722045
0000e0 b1 a2 92 3d c8 d8 44 bd e3 96 9b bd f4 60 b1 ba
       0.07159937 -0.0480583 -0.07597139 -0.0013532923
0000f0 fc 9d b4 3d e6 04 7c 3b dd 93 db 3c 71 52 97 bd
       0.08819196 0.0038455068 0.026803905 -0.07388771
000100 aa 93 97 bd cd d3 ae bb 0f 48 a3 3d 6b 31 e0 3c
       -0.074012116 -0.005335307 0.079727285 0.027367314
000110 9d 69 89 3d 17 88 a2 bc 0f 20 be 3d 5a 5a 4e bb
       0.06709597 -0.019840283 0.092834584 -0.003148696
000120 85 0f e4 3d 25 07 71 bd 53 81 91 bc 95 9e 59 bd
       0.111357726 -0.058844704 -0.017761862 -0.05312975
000130 c8 02 17 be dc a1 7d bd 06 c9 c9 3c f5 b3 a6 39
       -0.14747155 -0.06192194 0.024631988 0.00031796066
000140 cf 8d 8e bd b4 d1 06 3e 8f ee e5 3d 13 d6 c9 bd
       -0.069606416 0.13165933 0.11227142 -0.098552845
000150 36 c5 81 bd f9 7d 07 bd 7e 76 1c bd 9c 10 11 be
       -0.06336443 -0.03307912 -0.03819894 -0.14166492
000160 08 83 3e 3d 50 b7 94 3d 57 11 ce bd 71 6f fa bd
       0.04651168 0.072615266 -0.10061901 -0.12228287
000170 43 24 65 bd 06 1b 5a be c1 fd b7 3d 46 7d c1 3d
       -0.055942785 -0.21299371 0.089839466 0.09447722
000180 81 59 bc 3d 59 5d 1d be 8d 22 05 be da 0c c9 3c
       0.09196759 -0.1536764 -0.13001461 0.02454226
000190 8b 40 bb bd 09 65 34 be 76 e2 c0 bd ed 10 09 be
       -0.0914317 -0.17616667 -0.09418194 -0.13385363
0001a0 64 77 47 3c 9d 53 f8 3d 3e cc b8 bb 66 de 66 be
       0.012174461 0.12125323 -0.005639582 -0.22545776
0001b0 dc 9a 8c 3d 44 aa c1 3d 7e d7 cc 3d 94 44 55 3d
       0.068654746 0.09456304 0.100020394 0.052067354
0001c0 b2 f8 61 bc 07 c4 28 be 20 74 8b 3c c1 97 71 3d
       -0.013792204 -0.16481028 0.017023146 0.058982614
0001d0 77 1f 99 3c 06 db 41 3d c6 56 00 3d 8c bc fc bd
       0.018691761 0.047328018 0.031332754 -0.1234065
0001e0 97 0f b8 3c 01 a2 4a bd 17 12 78 be 76 b9 e5 3d
       0.022468371 -0.049470905 -0.2422565 0.112170145
0001f0 b3 2c c5 bd a5 0e 4e be 29 3e 0f bc ac 80 cd bc
       -0.09627666 -0.20122774 -0.0087428475 -0.02508577
000200 95 8d ea bd 83 9e 9d bd f2 89 42 bc 0b 14 86 bd
       -0.11452786 -0.07696249 -0.011873709 -0.06546792
000210 3c ad b4 3d 1c 4b 80 bc 32 ca ea bc dc 7b 99 3d
       0.08822104 -0.015660815 -0.028660867 0.074943274
000220 6b fb e8 bd 04 e7 24 3d a8 23 9c bc 4e b8 ea 3d
       -0.11376079 0.040259376 -0.019059971 0.114609346
000230 98 f4 3c 3c c8 9b 5b bd 71 45 ac bd 1f a7 a1 bd
       0.011532925 -0.05361536 -0.084116824 -0.07893204
000240 1b 47 53 bd 50 32 e1 3d 31 32 ba 3d 89 a6 ef 3d
       -0.051581483 0.109959245 0.090916045 0.11701686
000250 12 c5 42 bd 71 5e 34 3d 6b 65 ab bd c8 87 06 bd
       -0.047551222 0.04403538 -0.08368953 -0.032844335
000260 94 b2 d4 3d 2b e8 b1 bd 28 ca f6 bd 44 db ee 3b
       0.103856236 -0.08686861 -0.12050277 0.007289322
000270 ce 4e cd 3c 65 25 cb 3d 26 7b 52 3d fa 30 0c 3d
       0.025061991 0.09919242 0.051386975 0.034226395
000280 b8 14 00 3e ff 2e ea 3d 94 e9 95 bd 59 07 f5 bd
       0.12507904 0.11434745 -0.07319942 -0.11964292
000290 18 8b e8 bd 2c 70 e3 3c a8 2d 12 3d 0c 1b 06 bd
       -0.11354655 0.027763449 0.035688072 -0.032740638
0002a0 67 a8 bd 3d 16 df d6 3c 45 d2 75 3c 5c ed 9f bc
       0.09260636 0.026229423 0.015003745 -0.019522361
0002b0 76 52 90 3d 6f 12 11 3d e6 fb a5 bd 75 1d e9 bc
       0.07046978 0.03541797 -0.081046864 -0.028456429
0002c0 ad a0 6f 3d 4d 83 52 3d df 81 fc bc 44 13 fd 3d
       0.05850284 0.05139475 -0.030823646 0.1235719
0002d0 90 6d d8 3d eb a9 77 bd 54 56 c7 3d 14 9f 9f 3d
       0.105677724 -0.06046478 0.09733263 0.077940136
0002e0 32 ee b8 3d 43 db 2b bd 22 71 30 3d 80 65 8b bd
       0.09029807 -0.04195715 0.04307664 -0.06806469
0002f0 d0 13 8a 3d bf 9a 19 bb 98 8a 92 3d d1 a0 ae 3d
       0.0674206 -0.0023438183 0.07155341 0.08526767

encoder.rnn.bias_hh_l0 f4 [192]
000000 26 0f 3b 3d 33 bd de 3c 1c 49 8c bd 39 bb bf bd
       0.045668744 0.027189827 -0.06849882 -0.09361882
000010 ce 6c c6 bd ac f1 89 bc bc 94 cf bd 8e 50 27 bd
       -0.096887216 -0.016838871 -0.10135791 -0.040848307
000020 21 d2 ed bb 72 2b f3 bd 6c 36 f1 3d d9 78 74 bb
       -0.0072577153 -0.11873521 0.11777958 -0.0037303476
000030 9d c6 8f 3d 7a 0b de bd 3d 71 8f 3d 60 6f 90 bd
       0.07020304 -0.10842033 0.0700402 -0.07052493
000040 ef d4 15 3d 01 83 ae 3d b3 1a c0 3d 78 5f 0f be
       0.036580022 0.08521081 0.093800925 -0.14001262
000050 12 20 4b bd 93 9a 54 bd 8a 91 32 3d 01 a0 8e bd
       -0.04959113 -0.051905226 0.043595828 -0.06964112
000060 b9 84 b5 3d dd e7 bd bd d6 30 87 ba ae 7b 84 3c
       0.088632055 -0.0927274 -0.0010314237 0.016172256
000070 d1 bb aa bd 1e ca 09 bd e3 a6 f8 bd 12 ac 84 bd
       -0.083366044 -0.03364002 -0.12141206 -0.06478132
000080 c7 6f 00 be 07 a4 09 3d 45 37 55 bd 26 29 84 bc
       -0.1254264 0.033603694 -0.052054662 -0.016132902
000090 c4 d0 4f 3d 02 58 5b 3d 90 b2 6d 3d 19 e3 dd 3c
       0.050736204 0.053550728 0.05803162 0.027085828
0000a0 41 02 f6 3d 64 e8 cf bc ab 6a dd 3d 95 fc 8a bd
       0.12012149 -0.025379367 0.10811361 -0.067864574
0000b0 26 a1 00 be 22 5c e7 3b 96 f0 39 bd e2 fd ca bd
       -0.12561473 0.0070605436 -0.045395456 -0.099117056
0000c0 90 11 8c bd f3 db a7 bc 62 5e a4 3c 0a bd a6 bc
       -0.06839287 -0.020490622 0.020064536 -0.020353813
0000d0 de 75 28 bd c7 23 d4 3d 93 87 8e 3d 00 92 82 bd
       -0.041128032 0.103583865 0.069594525 -0.063755035
0000e0 0e 78 bb bd d3 b2 fc 3b ba f7 a0 3d 58 01 ce 3d
       -0.09153758 0.007711747 0.0785975 0.1005885
0000f0 8e 64 9e 3d 7f 03 95 3d 78 2d 5e 3b be ee b7 bd
       0.07734023 0.072760575 0.0033901613 -0.08981083
000100 f9 a7 69 3d 25 40 54 3c fb 89 48 3d 2c 4d c7 bd
       0.057044957 0.012954746 0.048959713 -0.09731516
000110 97 d1 e0 bd ce bf e3 3c d8 fd 12 bd e7 8b 27 be
       -0.10977476 0.02780142 -0.035886616 -0.16361962
000120 4a 48 f4 3d 5e 8a c6 bc 30 38 c9 3d 34 ed ff 3d
       0.119278505 -0.0242359 0.0982517 0.12496415
000130 ed 15 0a be 88 aa b5 3d fa db ce 3d 46 b1 cb bd
       -0.13484927 0.08870417 0.10100551 -0.099459216
000140 80 50 e4 3a 9d ce 09 3e da ae 29 3d 9f 4f 8f bd
       0.001741901 0.13457723 0.041426517 -0.069976084
000150 c7 b3 05 be aa 56 44 be 6d 9a 22 3d 56 31 0e be
       -0.13056861 -0.19173685 0.039698053 -0.13886008
000160 d0 92 a6 3c 9c 0e 79 bd ee 34 ac bd 76 5c c0 3d
       0.020333678 -0.06080495 -0.08408533 0.093926355
000170 de 80 67 be ae 65 b4 bd f5 d8 06 3e 5d d1 b7 bd
       -0.22607753 -0.08808456 0.131687 -0.0897548
000180 56 79 13 bd 9b 5b 3e be 3e 80 f1 3c 1f 69 dd 3c
       -0.036004387 -0.18589632 0.029480096 0.027027665
000190 97 e2 b1 3c e3 a7 29 be 62 47 23 be bf 6e df bb
       0.021714492 -0.1656795 -0.15945199 -0.006818622
0001a0 d1 cf 2c 3d d3 36 da 3d e7 2d 05 3d 2c 39 ba bd
       0.042190377 0.10654988 0.03251448 -0.09092936
0001b0 cc 03 a1 3d f7 0a 5d bd 7d ab 3c bb be 4e 4f 3e
       0.07862052 -0.053965535 -0.0028788738 0.20244882
0001c0 71 75 ac 3b 64 b9 62 bd c7 bb b3 bd 2c ad e4 3d
       0.0052630235 -0.055352584 -0.0877605 0.111658424
0001d0 92 44 b1 bc c0 ed d5 3c 43 75 d1 ba e4 de fc bc
       -0.021639142 0.026114345 -0.0015980381 -0.030868001
0001e0 65 d8 38 3e 80 77 02 3e a4 ec 97 be 95 30 29 3c
       0.18051298 0.12740898 -0.2967273 0.010326524
0001f0 bc 16 92 bd f4 09 d8 bc 8d 81 88 3d e3 b6 bb bd
       -0.071332425 -0.026371934 0.06665335 -0.09165742
000200 8a 3d dc bd ff 25 f3 bc cb 7f 3c bb 31 ba b2 3d
       -0.10753925 -0.029681204 -0.0028762694 0.087269194
000210 7c 71 12 3d 73 47 bb 3d 74 24 c5 bd 5c dd d3 3d
       0.03575276 0.09144487 -0.096260935 0.10344955
000220 5f 9f db 3d 10 1e 92 3d b7 b3 2c 3c d9 ef fc 3d
       0.10723757 0.0713464 0.010540894 0.12350435
000230 04 a2 05 bc 56 ed a5 bc 46 d1 4c bc 89 7e 29 3d
       -0.008156303 -0.020254772 -0.012501067 0.04138044
000240 b8 47 4f 3d a2 56 d0 3d 61 fb a3 3d 4c 08 67 3d
       0.050605506 0.10172774 0.08006931 0.056404397
000250 d0 a8 f7 3c 6d d4 14 3d dd 90 bd 3d b8 6a 26 bd
       0.030231863 0.036335398 0.09256146 -0.04062912
000260 e7 c6 9c 3d b5 f1 7d bd da f2 4b bd 3c 2f 5b 3d
       0.07655125 -0.061998088 -0.04979215 0.053511843
000270 5d 95 9f bd 79 ca 4f bd a3 ef 18 3d 94 82 f1 3b
       -0.07792161 -0.050730202 0.03733791 0.0073703025
000280 3b 69 9d 3d e9 85 84 bd 0d c9 e7 bd c0 90 b5 3b
       0.07686087 -0.06470854 -0.11317644 0.005540937
000290 c6 30 5f 3d 82 1f 1a 3c 6d e0 ad bd ea 83 a4 bd
       0.054489873 0.009406926 -0.084900714 -0.08032973
0002a0 0f e8 45 3d 38 9a ab 3c c3 de 8d 3d 9d 5e 88 bd
       0.04831701 0.02094756 0.06927254 -0.06658671
0002b0 2f 1e b5 3d 90 99 32 bc 94 83 23 3d 3c 89 95 bd
       0.08843648 -0.01090087 0.039920405 -0.07301566
0002c0 77 5c 4c bc de 1d c6 bc 2f 3b d2 bd 5e 19 a6 3d
       -0.012473217 -0.024184164 -0.102651946 0.08110307
0002d0 86 d1 37 3d 6e 83 a8 bd 27 1c 08 3d 8b 59 42 bd
       0.04487755 -0.08228193 0.033229973 -0.047448676
0002e0 f1 ac f2 bd 3e 9a c3 3c a2 97 21 bd a9 b1 a0 3d
       -0.11849392 0.02387726 -0.03945125 0.07846386
0002f0 2f 78 fc bb f9 b4 95 bd 64 5e 1c bd 1a 50 47 3d
       -0.0077047567 -0.073099084 -0.038175955 0.048660375

decoder.attn.v f4 [64]
000000 48 bc e9 bc fc ec 07 bd 0a bd ba bd fe 24 ee 3d
       -0.028532162 -0.03318499 -0.091180876 0.116281494
000010 44 49 41 bd 38 ea 82 3d d4 22 52 3d d4 be 1e 3d
       -0.047189012 0.0639233 0.051302746 0.038756207
000020 24 66 77 bd 08 54 d8 bc 60 6a 27 3d e8 8b 9d bc
       -0.060400143 -0.026407257 0.04087293 -0.019231752
000030 c2 61 90 bd ce 42 cf bd 64 8c af 3d 56 6e 91 bd
       -0.07049896 -0.10120164 0.08571699 -0.07101123
000040 72 53 dd 3d 78 e4 03 bd 9c 1c b8 3d 52 3e fe bd
       0.108069316 -0.032200307 0.08989832 -0.124142304
000050 2c 65 37 bd 58 96 ae bc 68 01 ae 3c 18 9f ac bd
       -0.04477422 -0.021311924 0.021240905 -0.08428782
000060 00 bb 36 3d c4 96 04 3d 10 d6 0f 3d 00 91 01 ba
       0.04461193 0.032370344 0.035116255 -0.0004942566
000070 4c fd d3 3d 20 ac aa bd fe ac 85 3d 5c 2d 67 3d
       0.10351047 -0.083336115 0.06527136 0.056439742
000080 b0 8b 5a 3d 30 1e 47 bd b6 ed db 3d 24 36 9f bd
       0.053355873 -0.048612773 0.10738699 -0.077739984
000090 a0 f6 f8 3d f8 9f b1 bc 3a 75 ed bd e8 91 e0 bc
       0.12156415 -0.021682724 -0.11594625 -0.027413324
0000a0 58 79 ed bd c4 9a ee 3d c8 1f bd bc 64 68 6d bd
       -0.1159541 0.11650613 -0.023086444 -0.057960883
0000b0 d8 34 cd 3d 28 7c 78 bd 80 e6 80 3c c4 d7 a2 3d
       0.10019845 -0.06066528 0.015734911 0.0795131
0000c0 1c a4 8d 3d 08 23 05 3d 50 18 24 3d 2a 1f 84 3d
       0.06916067 0.03250411 0.04006225 0.064512566
0000d0 6c ff 76 bd 70 34 02 3c ce fe a7 bd 80 65 f8 bd
       -0.060302183 0.007947072 -0.08202897 -0.121287346
0000e0 7c ac 97 bd 9a cc fd bd b0 8e 69 bd 50 68 d9 bd
       -0.07405946 -0.1239254 -0.057020843 -0.10615599
0000f0 4c 1a e0 3d 00 0b 54 bc 5c 49 f3 bd 32 da 98 3d
       0.10942516 -0.012942076 -0.118792266 0.074634925

decoder.attn.attn.weight f4 [64, 128]
000000 94 c6 82 bd 60 f2 fb 3b 23 24 87 bd 76 5b 8a bd
       -0.06385532 0.0076888055 -0.065986894 -0.06755726
000010 b8 db 81 bc e5 fd 8e 3d be fa 25 bd 10 80 4a bd
       -0.01585184 0.0698202 -0.04052233 -0.049438536
000020 fe 1a 13 bd 42 52 78 bd c0 e2 25 bc 16 a3 9b bd
       -0.035914414 -0.060625322 -0.010124862 -0.075994655
000030 e8 ea 11 3d be 93 ac bd af fb aa bd fa b7 a7 bd
       0.035624415 -0.08426617 -0.08348786 -0.081893876
000040 0a 77 58 bd c4 b2 a9 3c 4b dc 86 3d cc 51 47 bd
       -0.0528479 0.020715125 0.06584986 -0.048661992
000050 86 7a 5a 3d ee ac 96 bd 48 ab 86 bd 58 11 fa 3c
       0.053339504 -0.073572025 -0.06575638 0.030525848
000060 60 51 49 bc 5c dd 2c bd 20 de 08 3c 00 67 ae 3a
       -0.012287468 -0.042203292 0.00835374 0.0013305843
000070 85 bd 8b 3d de be 01 3d f0 e7 97 bb 96 20 95 bd
       0.06823257 0.031676166 -0.0046358034 -0.07281606
000080 ec 5f f0 bc 8f 37 8e bd f8 ea 8a bc 10 7c ac bc
       -0.029342614 -0.06944191 -0.016957745 -0.021055251
000090 dc ee 99 bc 82 83 89 bd d2 d3 0e 3d 2e 45 0c 3d
       -0.018790655 -0.06714536 0.034869976 0.034245662
0000a0 b8 2d 27 bc 33 b8 09 bd f4 a5 b0 3c b6 58 58 3d
       -0.010203771 -0.03362293 0.021563508 0.052818976
0000b0 62 b3 05 3d 88 b4 2b 3c 90 38 32 3c 04 5b 80 3c
       0.032641776 0.010480054 0.010877743 0.0156684
0000c0 58 9b 0e 3c 34 1a be bc 08 04 7d bd e2 4b 67 3d
       0.008704029 -0.023205854 -0.061771423 0.056468852
0000d0 6e d7 4e 3d 8e ff aa bd 20 7a 38 3c d0 b3 75 bd
       0.05049842 -0.083495244 0.011259586 -0.059985936
0000e0 53 37 a5 3d 60 a0 ac bb 25 ee 41 bd 97 17 4a bd
       0.08067193 -0.0052681416 -0.047346253 -0.049338903
0000f0 a2 15 44 3d ac 04 bb bc 80 3f 22 bc 3f a9 a3 3d
       0.047872193 -0.022829376 -0.009902835 0.079912655
000100 ae 5d ea bc c0 fa 5a bd e4 69 ac 3c c4 81 8a 3c
       -0.028609123 -0.05346179 0.021046586 0.01690758
000110 5e 67 75 bd 58 32 e2 3c 0f 98 6a bd fa 7a 62 bd
       -0.05991303 0.027611896 -0.05727392 -0.05529306
000120 26 6f 88 bd 30 eb d1 bc 80 e7 77 3a 19 e7 16 bd
       -0.06661825 -0.025624841 0.00094567984 -0.036841486
000130 3e db 5a bd 87 eb 10 bd f0 7c a8 3c 70 af d8 3b
       -0.053431742 -0.035380866 0.020567387 0.0066127107
000140 fa a9 b1 bd 58 64 96 bd 13 d1 84 3d 20 a1 20 3c
       -0.086749986 -0.07343358 0.0648519 0.00980404
000150 92 53 46 3d a0 1e 15 bb 07 1f af bd 49 21 ab bd
       0.048419543 -0.002275385 -0.0855084 -0.08355958
000160 4e e2 5c 3d 00 16 a1 bc a8 7b 13 bd 27 51 b3 bd
       0.05392676 -0.01966381 -0.0360066 -0.08755713
000170 fe ab 47 3d 38 9d 3c 3c 85 49 81 bd c8 c4 63 3c
       0.04874801 0.011512093 -0.06312851 0.013901897
000180 e2 69 6b bd 28 8f bf bc 42 1e 4b bd 1c c1 f4 bc
       -0.057474025 -0.023383692 -0.049589403 -0.029877238
000190 44 17 9b bc 44 72 8e bd b0 91 76 bd 88 cf a8 bd
       -0.018931992 -0.06955388 -0.060197532 -0.082427084
0001a0 4e b9 62 3d 83 39 56 bd 91 06 85 3d b2 36 6e 3d
       0.0553525 -0.05230094 0.06495393 0.05815763
0001b0 8e 93 4e bd b2 42 6b 3d 80 de 90 3b b8 fc 02 bc
       -0.050433688 0.057436652 0.0044210553 -0.007994823
0001c0 3a cb 49 3d 0e 19 75 3d 10 7b c2 bb d3 2e ae 3d
       0.049266078 0.059838347 -0.0059350803 0.08505025
0001d0 f8 f7 5c bd 82 1b 74 3d 02 e2 43 3d 9d 6d 99 3d
       -0.05394742 0.059596546 0.04782296 0.0749161
0001e0 10 a4 ca bb cf e0 a8 3d 0f 81 92 3d ec 1e 72 bd
       -0.0061841086 0.08246004 0.07153522 -0.05911152
0001f0 03 51 ad 3d a0 f1 8e bd 67 18 b3 3d 24 19 81 bd
       0.084627174 -0.0697968 0.08744889 -0.06303623
000200 e8 15 28 3c c8 6a 94 bd 6e 3e 17 3d 51 ea 46 bd
       0.010259129 -0.072469294 0.036924772 -0.048563305
000210 6c ed 1e bd f5 f5 10 bd 14 42 96 bd 8c 6f 97 bc
       -0.038800642 -0.035390813 -0.07336822 -0.018485807
000220 2a 93 e3 bc 4c fb 8b bd 22 32 38 bd 10 08 01 bd
       -0.027780134 -0.068350405 -0.044969685 -0.03150183
000230 eb c8 b1 3d 56 78 10 3d c0 9f b3 bb a0 a8 ec 3b
       0.086809 0.03527101 -0.00548169 0.00722225
000240 00 19 d0 3c 80 9a 5d 3b cb f2 3f bd e6 fb 92 bd
       0.025402546 0.0033814013 -0.046862405 -0.07176952
000250 9e ef 77 bd 58 bc a5 3c 50 62 df bb e1 d6 60 bd
       -0.06053125 0.02023141 -0.0068171397 -0.054892424
000260 7a 13 52 3d 92 7c 6b 3d a8 23 98 3c 83 8f 90 3d
       0.051288106 0.057491846 0.01857169 0.07058623
000270 88 4e 5f bd 65 c5 41 bd 6e 42 0c 3d 01 d4 a9 3d
       -0.054518253 -0.04730739 0.03424304 0.0829239
000280 18 66 4b 3c bc 02 87 bd 20 08 2b bc 04 90 c0 bc
       0.012414478 -0.065923184 -0.010438949 -0.023506172
000290 41 ea 50 bd 44 b4 f5 bc 18 0b c6 bc a0 2a 58 3c
       -0.051004652 -0.029993184 -0.024175212 0.013193756
0002a0 f8 74 4e bc 71 37 a9 3d 75 e9 4a bd b8 f4 55 3c
       -0.01260113 0.08262528 -0.04953905 0.013058834
0002b0 77 78 8e 3d 60 c7 1b bb 9c 26 a1 bd e0 44 53 bb
       0.069565706 -0.002376996 -0.07868692 -0.0032237098
0002c0 28 f2 04 3d 4c ac 79 bd a2 13 48 3d 40 a2 80 ba
       0.0324575 -0.06095533 0.04884685 -0.0009813979
0002d0 63 c8 61 bd 68 32 33 3c b8 89 2f bd 63 8e b4 3d
       -0.055122744 0.010937311 -0.04285595 0.088162206
0002e0 6c 3a 9c bd d9 1c 72 bd e0 9b 17 3b 18 9e 3e 3c
       -0.076283306 -0.059109543 0.002313368 0.011634372
0002f0 90 97 75 bc 0c 26 e0 bc 8d ff 51 bd fd 11 8a 3d
       -0.014989749 -0.027361892 -0.051269103 0.06741712
000300 81 24 ad 3d fb e4 1c bd c0 67 c7 3a dc 75 a4 bd
       0.08454228 -0.03830431 0.0015213415 -0.080302924
000310 a9 7c 9d 3d b6 13 4a bd 01 b0 35 bd 4d ac 39 bd
       0.07689793 -0.049335204 -0.044357304 -0.045330334
000320 b0 db b9 3c 1c 5a fa 3c 6d 49 98 bd a0 d7 b6 bc
       0.022687763 0.030560546 -0.0743588 -0.022319615
000330 92 81 40 3d 18 9d 53 3c 05 e5 a0 bd 7a 95 44 3d
       0.046998568 0.012915872 -0.07856182 0.047994114
000340 57 e4 94 3d e0 df b0 bb e1 9c b1 3d d6 43 7a 3d
       0.07270115 -0.0053977817 0.086725004 0.06109985
000350 86 a1 91 bd 2e 0e 19 bd 3d 40 a4 3d 92 4a dc bc
       -0.07110886 -0.03736704 0.08020065 -0.026891027
000360 db 2c 9d 3d ea be 83 bd 33 f6 99 3d 70 74 c7 3c
       0.07674571 -0.06432898 0.07517662 0.024347514
000370 57 bd 96 bd 9d a1 a8 bd db f5 87 bd 9b 9d a2 3d
       -0.073603325 -0.0823395 -0.0663869 0.07940217
000380 b0 a4 c7 3c 50 7d e3 3c 02 45 db bc 37 be ab bd
       0.024370521 0.027769715 -0.026766304 -0.0838589
000390 9f 1a 93 3d 40 03 39 bd 58 60 47 bc 40 ed f1 bb
       0.07182812 -0.045169115 -0.012168966 -0.0073830187
0003a0 9f 4d 98 3d b8 41 0d 3d e0 da d1 bb 11 75 9a 3d
       0.0743668 0.034486502 -0.0064042658 0.0754186
0003b0 33 ea 97 3d b8 28 07 bc 93 de 96 3d b4 e1 30 bd
       0.07417717 -0.008249454 0.073666714 -0.043183997
0003c0 1a 85 9f bd d9 84 9b 3d 00 2a 95 bb 60 4d 20 bc
       -0.07789059 0.07593698 -0.004552126 -0.009784073
0003d0 78 26 6c bd 8a d2 1a bd 87 26 3b bd 00 2a 95 3a
       -0.057653874 -0.037798442 -0.04569104 0.0011380315
0003e0 58 dc 98 bd 0a 1e 31 3d e8 b9 9c 3c 90 88 25 bc
       -0.07463902 0.043241538 0.019131616 -0.01010336
0003f0 26 18 71 bd e0 25 a3 bd bf 5e 25 bd f6 70 55 3d
       -0.05886092 -0.079662085 -0.04037356 0.05210968
