checkpoints/models/single_stock_daily/81to9/000001/model20.pth (torch, 543834 bytes, 24 tensors)

encoder.conv1.weight f4 [18, 6, 3]
000000 cc 95 45 bc 61 f1 de 3d 46 d7 65 be 71 ed 09 be
       -0.01205964 0.10885883 -0.22445402 -0.13469483
000010 3e 4c 9e bd dd 95 b9 bd 67 c8 f2 bb cf e2 37 3e
       -0.07729386 -0.09061787 -0.0074091437 0.17957614
000020 90 9b 99 3d 6f 13 5d be 33 bd 63 3e b3 38 55 3e
       0.07500374 -0.21589445 0.22240143 0.2082241
000030 e6 a0 92 3d 88 f9 f4 3d da 4d d9 3d d5 1b 25 3e
       0.07159595 0.11961657 0.10610552 0.16123898
000040 21 aa 7a be e2 d1 13 be 60 76 e1 bc 02 74 1f bd
       -0.24478962 -0.14435533 -0.027522266 -0.038928993
000050 f7 23 1b be 51 d6 66 be e8 f5 33 be 19 fc 0c bd
       -0.15150438 -0.22542693 -0.17574275 -0.034420107
000060 cf 56 50 3e 08 29 29 3e ae 73 94 3d 7f e1 11 be
       0.20345615 0.16519558 0.07248627 -0.14246176
000070 e9 ff b3 bd a2 c5 d7 3c 64 9a 5d be 4c 51 84 bb
       -0.08789045 0.026339356 -0.21640927 -0.0040380117
000080 b2 1e 52 3d 8e a7 77 3e 3f be 00 bd 4e 57 84 3e
       0.051298805 0.24185011 -0.031431433 0.25847858
000090 dc c4 b2 3c 57 36 24 be ab 14 66 3e 05 8c 45 3e
       0.021822385 -0.16036354 0.22468822 0.19291694
0000a0 e3 23 54 be e5 8a 1c be 14 b5 c1 3d 66 7a 36 be
       -0.20716815 -0.15287359 0.09458366 -0.17820129
0000b0 0c 38 06 3e a0 eb 02 be 37 40 cf bd 29 1d bb bd
       0.13107318 -0.12785196 -0.1011967 -0.09136421
0000c0 a8 1a 57 3e c2 d9 da bd 61 7d 8c bd de 90 01 3e
       0.21006262 -0.10686065 -0.06859852 0.12652919
0000d0 e8 6c 4d be 3f a6 24 bd 55 c3 3e be fe 6a 62 be
       -0.20061076 -0.040197607 -0.18629201 -0.22111127
0000e0 28 ae 72 bd fd bb a1 3c dc 9d 3f 3e 94 e2 77 be
       -0.05924812 0.01974296 0.18712562 -0.24207526
0000f0 4d a4 a2 bd 80 8f 1a 3d 8a d0 7a 3d 43 cb 03 3e
       -0.07941494 0.03773451 0.061234035 0.12870507
000100 9f 03 56 be 4b d3 a3 bd 58 31 39 3d df 7d 55 be
       -0.20899819 -0.07999285 0.045213073 -0.20848797
000110 6a 67 c5 3d 26 eb 78 be 88 26 e1 3d b2 41 01 3d
       0.09638865 -0.24308452 0.109936774 0.031556793
000120 62 fc 7f bd 77 6a a0 3d 84 07 50 3e db d0 33 3e
       -0.06249655 0.078328066 0.20315367 0.17560141
000130 fd 92 1a 3e 16 97 02 be 8d 7a 97 3d 5e 76 45 3e
       0.15095134 -0.12752947 0.073964216 0.19283435
000140 60 f1 76 3d cb 34 24 3e e1 1c 09 be 9a 88 38 3e
       0.060288787 0.16035764 -0.13389923 0.1802086
000150 28 6f 5b bb dc ea 4b be d5 b7 3e bd 84 82 60 3e
       -0.0033483002 -0.1991381 -0.046562035 0.21924788
000160 95 4a 6d bd 89 d3 17 bc 82 b9 bb bd 87 32 01 be
       -0.057932455 -0.0092667425 -0.09166242 -0.12616931
000170 3e 5b 2d 3d 43 bc 0e 3e 3d ae b2 3c aa 63 b0 bc
       0.042323343 0.13939004 0.021811599 -0.021531899
000180 e2 a4 08 3c 39 db 3e be ca 35 0a be c2 8b ef 3b
       0.008340092 -0.18638314 -0.13497081 0.0073103616
000190 49 1a 49 be 40 84 dc 3d 86 bb 00 3d 70 72 b3 bb
       -0.19638933 0.10767412 0.031428836 -0.0054762885
0001a0 85 a1 c5 bc aa 5f 49 3e 2a cc 53 3e 89 a0 d6 3d
       -0.02412487 0.19665399 0.20683351 0.104798384
0001b0 6b 32 f3 3d 21 01 ec bd a0 1d ce 3d eb 90 25 be
       0.11874851 -0.11523653 0.10064244 -0.16168563
0001c0 60 ae d4 3d e4 12 22 be d9 e5 45 ba f7 93 37 3e
       0.10384822 -0.15827519 -0.00075492036 0.17927538
0001d0 08 ff 33 3e c5 4c 54 3e 5d 69 af 3d 48 d9 d8 3d
       0.17577755 0.2073241 0.08565018 0.10588318
0001e0 e0 69 80 3d 1c 0d 36 3e fc ac 0d 3e f9 84 a4 3d
       0.06270194 0.17778438 0.1383552 0.08033175
0001f0 cd ae 6c bd 7b 51 a1 bd eb 79 4a bd 9c ea 00 3e
       -0.05778389 -0.07876869 -0.049432676 0.12589496
000200 c3 0d f2 bd 8a 83 91 3d 01 0e 61 3e af cd 4f 3e
       -0.11819031 0.07105167 0.21977998 0.20293306
000210 dd 04 26 be 1b 15 b9 3d 05 d1 23 3e 42 b4 51 be
       -0.16212793 0.09037229 0.15997703 -0.20478919
000220 b9 6e 2d 3e f3 8a 11 be 30 46 25 be 00 c6 a6 bd
       0.16936769 -0.14213161 -0.16140056 -0.08143234
000230 a7 58 ac bd fc f1 d8 bd 9e 12 87 3d fa 1c 93 3d
       -0.084153466 -0.1059303 0.06595348 0.07183261
000240 d8 f8 bf 3d 2b 62 28 3e 53 30 18 be 2a d1 69 be
       0.09373635 0.16443698 -0.14862184 -0.22833696
000250 ca e9 4b be 89 8a 11 be cd cb ed bd ec 74 b0 3d
       -0.19913402 -0.14213003 -0.116111375 0.08616051
000260 ae 2e 44 be 08 4b 37 be 71 5a e5 3d ac 62 2b be
       -0.19158432 -0.17899716 0.11198891 -0.16736859
000270 02 ae 1a 3d 0f 34 46 be d5 96 95 3d 7f 0b 0e 3e
       0.037763603 -0.19355796 0.073041596 0.13871573
000280 8a 9b 62 be da 0f 4d 3d 02 dc ff bd 5b 41 16 3e
       -0.22129646 0.050063945 -0.12493135 0.14673369
000290 a6 c9 56 3e 6a ec 53 be 47 d2 a5 3d c4 cd 19 3e
       0.2097536 -0.20695654 0.08096748 0.150199
0002a0 18 c6 53 3e 62 28 30 3e 2e bb 12 3d 79 94 c1 3b
       0.20681036 0.17202905 0.03582304 0.005907592
0002b0 21 7a 2b 3d 20 1c 1a be 4e 0b 5c bd 78 b6 23 bc
       0.041864518 -0.15049791 -0.05372172 -0.009992234
0002c0 e3 90 22 be c5 42 e6 bc e8 7d 4e bd 1a a3 d7 bd
       -0.15875582 -0.02810801 -0.050413042 -0.10529156
0002d0 11 f9 94 bd 78 02 71 be 1f 11 65 3e 63 e8 ec 3d
       -0.07274068 -0.23536098 0.22369812 0.11567762
0002e0 26 0b 32 3e 00 c8 48 be ed 19 6a be d0 f8 3c 3e
       0.17387065 -0.19607544 -0.22861452 0.1845429
0002f0 fc 0b fc bc dd a3 19 3d 0d 5a ff 3d 6f 0e bb 3c
       -0.030767433 0.037509788 0.12468348 0.02283403
000300 60 c9 df bb d3 2a 16 3e 51 d3 48 3e ed f1 a0 bd
       -0.0068294257 0.14664774 0.19611861 -0.07858644
000310 00 b5 50 be 8f ec 04 be dd 67 2d 3e 33 04 95 3c
       -0.20381546 -0.12980865 0.16934152 0.018190479
000320 4d fd 4c 3e 41 f2 a9 bd 15 e2 6c be 80 db 8f 3d
       0.20018502 -0.082981594 -0.23133118 0.07024288
000330 14 aa d9 bd 10 0c 22 be 9e e6 0e 3e ae b7 53 3c
       -0.10628143 -0.15824914 0.13955161 0.012922211
000340 15 26 08 bd 75 5e 65 3e 8e bb 4e 3e 6e 77 52 be
       -0.033239443 0.22399314 0.20188734 -0.20553371
000350 2c 56 63 be c7 3b 1f be 5d 3e 6f be 1f d8 33 be
       -0.2220084 -0.15550147 -0.23363633 -0.17562912
000360 1f 49 1b 3e 36 2a 25 be d8 71 57 3e 85 42 94 3d
       0.15164612 -0.16129383 0.21039522 0.0723925
000370 b4 db 8a 3c 62 5b 2d 3d e3 4b 5e 3d bd e5 bd 3d
       0.016950466 0.042323478 0.05427159 0.09272335
000380 c0 bb 39 be d2 85 06 bb b2 c8 2c 3e b5 99 76 3e
       -0.18138027 -0.002052654 0.16873434 0.24082072
000390 88 07 2e bc 8d 14 20 be b5 db ea 3d 7e f8 43 be
       -0.010621913 -0.1563284 0.11467687 -0.19137761
0003a0 8d 02 7f 3e 15 12 3a 3e fc 89 de 3d 63 73 0d 3d
       0.24903317 0.1817096 0.10866162 0.03453387
0003b0 13 29 31 3e 12 75 c6 bd 4b 95 4f be c0 1a 0d be
       0.17300825 -0.09690298 -0.20271794 -0.13779736
0003c0 3d aa 2e 3e d1 5a 05 be b8 76 4f be 9a b1 45 3d
       0.17057128 -0.13022925 -0.20260131 0.048265077
0003d0 31 be 1f be e3 9e af bc 44 9f 1c be 92 3f 25 3d
       -0.15599896 -0.021438068 -0.1529513 0.04034383
0003e0 e3 c2 4b bd 0f c1 d1 3c 4f 7b bd 3d 89 e4 30 be
       -0.049746405 0.025604753 0.09252035 -0.17274679
0003f0 8d 21 9c bd 6e f7 1f be ed 70 4b 3e 84 04 b7 bd
       -0.07623587 -0.1562173 0.19867297 -0.08936408

encoder.conv1.bias f4 [18]
000000 5b 97 18 be 6c 4e 84 bd 49 b1 b9 bd ee 10 5b 3e
       -0.14901488 -0.0646027 -0.090670176 0.21393177
000010 26 4e 55 3d 10 09 31 be 42 79 23 3e 4f 5d e6 bc
       0.05207648 -0.17288613 0.15964225 -0.028120665
000020 6f 2a d0 3c 21 7b f5 3c df 4e 05 bd 4a 61 69 3e
       0.025410859 0.029965939 -0.03254592 0.22791019
000030 04 dc b6 3d bf 71 70 3d f6 ec a0 bd 92 d5 4f 3d
       0.089286834 0.058702227 -0.07857697 0.050740786
000040 20 9b 31 be 52 65 98 bd
       -0.17344332 -0.074412

encoder.conv2.weight f4 [54, 18, 3]
000000 5f 98 78 3d 70 01 15 be 6a 69 79 bc 02 95 57 bd
       0.060692187 -0.1455133 -0.015222887 -0.05263234
000010 a0 92 88 3d 34 fb b0 bd aa 35 bd 3c 4a b3 0f bd
       0.066685915 -0.08641663 0.023096878 -0.035083093
000020 d1 8b f9 3d 8e 9e 7a bc 15 53 b3 bd 67 f6 e5 bc
       0.12184871 -0.015296591 -0.08756081 -0.028071595
000030 cf c7 c3 3d 87 20 4f 3d 02 9f d6 3c 38 fa a5 3d
       0.09559595 0.05056813 0.026198868 0.08104366
000040 17 70 4a 3d 75 fb a3 bc 5f c2 96 bd c6 f2 08 be
       0.049423303 -0.020017365 -0.07361292 -0.1337386
000050 b9 fd 77 3d 4e 41 ca 3d ba 70 7f bd 48 0f 90 bd
       0.060544703 0.09875737 -0.062363364 -0.07034165
000060 7b 0e 05 3d 5a 66 ae ba 2a 74 ef 3d 83 f4 fc ba
       0.032484513 -0.001330565 0.116920784 -0.0019298944
000070 6e 38 a8 bb d5 4d 04 be 49 ed 05 3d 01 35 40 bc
       -0.00513368 -0.12920316 0.032696996 -0.011731387
000080 d6 f5 8d 3c db ee b4 3d 93 82 85 3d 80 48 1f 3c
       0.017329138 0.088346206 0.06519046 0.009721875
000090 09 1c 3b bc 10 79 92 bd 98 65 f4 3d eb d2 04 3e
       -0.011420258 -0.07151997 0.1193344 0.12971084
0000a0 6e d2 a4 3c 5b 7d 21 3e b5 e6 f0 3d 42 2a 9f 3d
       0.020119872 0.15770476 0.11762754 0.07771732
0000b0 c3 71 94 3d dc eb 51 3d 0f 52 eb bc 7b dc db 3b
       0.07248261 0.051250324 -0.028725652 0.006709633
0000c0 65 d9 f1 3d b8 48 89 bc e1 b8 36 3d 98 9a 19 bd
       0.11809043 -0.016758308 0.044609908 -0.037500948
0000d0 27 ec fc 3c a4 1b b5 3d ba 79 dd 3d f1 11 c9 3d
       0.030874325 0.08843163 0.10814233 0.09817875
0000e0 c3 eb b6 3d 0d 62 df bc 01 e0 02 3e dd 7d cd 3d
       0.08931687 -0.027268434 0.12780763 0.10033772
0000f0 f4 df 07 3e 26 1f e7 bd 0d 78 7e bd 00 e6 e5 bd
       0.13269025 -0.11285238 -0.062126208 -0.1122551
000100 01 f3 cb 3b ec f2 d1 3d b7 12 ca bd 7f 10 ff 3c
       0.0062240367 0.10251412 -0.09866851 0.031135796
000110 f4 7b 0e bc 91 e9 00 be 2a 76 c7 bb 68 21 6e bc
       -0.008696545 -0.12589099 -0.0060870843 -0.014534332
000120 9e c8 8b bd 1e 66 af bd cd 37 9e 3d 7c 55 b5 ba
       -0.06825374 -0.08564399 0.07725487 -0.001383468
000130 df 9d 4b bc bb 39 ca bc cc ca 87 bc ee 7a 17 bd
       -0.012427776 -0.024685731 -0.016576193 -0.03698247
000140 2a 91 a0 bd 6c 59 5b 3d 0a 4f 41 ba a4 2e fa bd
       -0.07840188 0.053552076 -0.00073741435 -0.12215927
000150 94 82 7b bd 95 30 6e bc 2c 7a 30 bd 1b b9 fa 3c
       -0.061403826 -0.01453795 -0.043085262 0.030605843
000160 b6 e9 e8 3d d0 7a e2 bd b2 d8 be bb 9b 95 e9 3d
       0.11372702 -0.11058581 -0.005824172 0.11405488
000170 3c e4 ae bd 89 fb e1 bd 39 14 fc 3c 82 9f 4d bb
       -0.08539626 -0.11034305 0.030771362 -0.0031375592
000180 e1 b3 e2 3b 6e b9 b6 3d 70 c2 e3 bd 15 46 af bd
       0.006918416 0.08922087 -0.111210704 -0.08558289
000190 b3 ba bf 3d 71 86 c9 bd 7f 69 b6 bc 5a 69 92 3d
       0.09361782 -0.09840096 -0.022267101 0.071490005
0001a0 24 cb 85 bd 82 d6 d5 bd d5 eb a2 bd 66 97 c6 bd
       -0.065328866 -0.10441305 -0.07955138 -0.09696846
0001b0 14 df d4 bd 57 6c 6c bb 7d 19 d1 bd 48 9c ba bd
       -0.10394111 -0.0036075318 -0.1020994 -0.091118395
0001c0 8f 58 48 3b 46 ca f4 3d a2 1b 03 3e 29 e5 d7 3d
       0.0030570363 0.11952643 0.1280351 0.10541756
0001d0 10 41 46 3a 20 e2 77 3d 9e 80 92 bd 61 eb f5 bd
       0.00075627957 0.060518384 -0.07153438 -0.120077856
0001e0 59 b9 9b 3d 27 9d 7f 3d 35 7e 65 3d fd ad 6b 3d
       0.07603712 0.06240573 0.056028564 0.057538975
0001f0 3b cc 22 bd 8d a8 bd 3d e5 2c a8 3d 41 d3 4d bd
       -0.03974555 0.09260664 0.08211688 -0.050250296
000200 d9 59 e0 3d 51 40 35 3d b5 11 14 3b e3 1b ce 3a
       0.10954637 0.04425079 0.0022593562 0.0015724864
000210 32 8a d8 3d f8 66 0a bc 3f 87 15 3d 74 d9 d9 3d
       0.10573234 -0.008447401 0.036505934 0.10637179
000220 ae a7 63 3c 58 9c 08 3e 53 89 87 bd 47 82 b2 b8
       0.013894958 0.1334089 -0.066179894 -8.5119675e-05
000230 54 b7 f1 3c c5 3c d7 3b b8 98 ce bd 01 be f5 3d
       0.029506363 0.0065685236 -0.100877225 0.11999131
000240 e2 02 8c bd ca 5e da 3d 72 49 3f bd 92 ca 25 3d
       -0.06836487 0.10662611 -0.046700902 0.04047639
000250 5c 8f bb bd d3 2d 9a bd e2 f9 ea 3c c4 72 b1 3d
       -0.09158203 -0.075282715 0.028683607 0.08664468
000260 da dc a9 bc 5d fe 6d 3d 53 37 88 bd cd 5b 59 3d
       -0.020735193 0.058103908 -0.06651177 0.053066064
000270 bb 74 aa bc da 4d 26 bd c3 92 8a 3d 83 e2 5f bd
       -0.020807615 -0.04060159 0.06766274 -0.054659378
000280 24 a0 c2 bd e7 cf 45 bd 68 f1 65 3d 97 a2 eb 3d
       -0.09503201 -0.048293974 0.056138426 0.11505621
000290 e6 41 e4 3d 59 29 c0 3d ba 08 ac bd 0b 4b fa 3d
       0.11145382 0.093828864 -0.08400102 0.122213446
0002a0 b9 d8 6f 3d cb 02 0d 3d 4b 84 8e bd 36 e5 5a bd
       0.058556292 0.03442649 -0.06958827 -0.05344125
0002b0 27 81 7d 3d dd b5 26 3c a5 91 23 bd 53 eb db bd
       0.061890747 0.0101751955 -0.03993382 -0.10738244
0002c0 ca 63 e6 3d 82 b3 29 3d 9f c1 8e 3c e5 c2 44 3c
       0.11249502 0.041430958 0.01742631 0.012009357
0002d0 d5 92 8b 3d a6 ad b6 bd 5a 9e 3b bc 82 14 e3 3d
       0.06815115 -0.089198396 -0.011451328 0.11087896
0002e0 e1 21 04 bd 51 80 ff bd c2 b5 8b bd 6a 6e cb 3d
       -0.032258872 -0.12475646 -0.06821777 0.09933169
0002f0 1c 88 ac 3d 0a 5e c0 3d a7 7b 5c bd 3e a7 8c bd
       0.08424398 0.093929365 -0.05382886 -0.068678364
000300 e4 5c 0a be 01 ae 7f bc a2 c9 47 bd d1 db 07 3e
       -0.13511997 -0.015605451 -0.048776276 0.13267447
000310 ca 04 51 bd 57 a9 9f bd 8b 20 4f 3d 98 a6 5f bd
       -0.051029958 -0.07795971 0.050568145 -0.054602236
000320 0e 55 88 bc c8 51 1e 3e 2d 15 d9 3d 63 e2 f3 bd
       -0.01664212 0.15460885 0.10599742 -0.11908414
000330 61 87 c4 3b 0e 88 ff 3b 56 af 0b 3e fe 93 f7 bd
       0.0059975837 0.0077982014 0.13641104 -0.12088774
000340 18 71 98 3d f1 e1 11 be 90 4d fb bd 0b 7b 9a bd
       0.07443446 -0.14246346 -0.12270653 -0.07543
000350 f9 64 09 be f0 8e a9 3a 65 86 f4 3d 67 07 f5 bc
       -0.13417424 0.0012936275 0.11939696 -0.029910756
000360 ae a0 b6 bd aa 58 00 3c 04 fe d7 bd be 68 d3 3d
       -0.08917366 0.007833639 -0.105464965 0.10322712
000370 55 9b dc 3c ac 1d 04 3e ed 9b 68 3d d5 fe 1f 3d
       0.026929537 0.12901944 0.056789327 0.039061386
000380 30 32 2c 3d 03 cf e5 3d 7d c9 e0 bd 12 99 c3 bd
       0.04204005 0.11221125 -0.10975931 -0.0955068
000390 9c e8 d0 3d 42 3e 47 3d 31 79 fa 3d cb 9a 1c 3d
       0.10200617 0.048643358 0.12230147 0.03823356
0003a0 19 ac 5e 3d 11 c1 bb 3d ba 30 b5 3d d7 7d 9b 3d
       0.054363344 0.09167684 0.088471845 0.075923614
0003b0 dc 12 e0 bd 5e 1a 5e 3d ad b1 9f bd 24 b4 e6 3c
       -0.10941097 0.054224364 -0.07797561 0.02816207
0003c0 5c 6d 94 3d 9b 31 41 bd 22 9e f7 3d 9b 89 ea 3d
       0.07247421 -0.047166448 0.12090708 0.114520274
0003d0 6b 31 2e 3d 62 a6 cd bd 3b 61 5f bb 94 02 e8 3d
       0.042527597 -0.10041501 -0.0034085053 0.11328617
0003e0 e9 d5 75 3c d1 a2 e0 3d 57 e0 5d bc 61 13 9f bd
       0.015004613 0.10968555 -0.013542256 -0.07767368
0003f0 e6 af b8 3d 84 27 39 3d 8e 49 96 3d 5b 14 bb bd
       0.09017925 0.0452037 0.07338248 -0.09134742

encoder.conv2.bias f4 [54]
000000 0c c9 99 bd f1 72 b4 bd 05 49 01 bc 66 2b f6 3d
       -0.0750905 -0.08810986 -0.007890944 0.12019996
000010 c7 57 e2 bc 06 22 07 be 10 ce 83 bd dd d6 b5 bd
       -0.027629746 -0.13196573 -0.06435788 -0.088788725
000020 78 07 dd 3d 09 bb c8 bd 98 62 d4 3d 73 4c 4b 3d
       0.1079244 -0.09801299 0.10370368 0.049633455
000030 1b ef 84 bc 2e f3 11 bd 67 b0 93 3d ef 3b 93 bd
       -0.016227296 -0.035632305 0.072113805 -0.07189166
000040 2d c4 4f bd 62 30 04 3e 0a 86 31 bd 28 52 b0 3c
       -0.050724197 0.12909082 -0.04334072 0.02152355
000050 67 94 ee 3d 55 2c d6 bd 28 18 e8 3c 59 d1 23 3b
       0.11649399 -0.104576744 0.028331831 0.0024996607
000060 64 de 92 bd 53 65 ea 3d 8c d4 cc 3d 9b 00 07 bc
       -0.07171324 0.11445107 0.100014776 -0.00823989
000070 5c 3d 71 bc 8c b0 c1 3d ac 56 29 bd c4 9b 9a 3d
       -0.014724102 0.09457502 -0.041342422 0.07549241
000080 3a 84 ab bd 44 ee db bd 22 15 b0 3d 3f ce c0 3d
       -0.083748296 -0.10738805 0.08597781 0.09414338
000090 3e 68 d9 bd b1 47 ef bc 6d b0 3a 3d ce 7b 99 3d
       -0.10615586 -0.02920899 0.04557841 0.07494317
0000a0 f5 86 95 3d fc 8f be 3d 42 86 81 bd af 09 f4 3c
       0.07301132 0.093048066 -0.06324436 0.029789774
0000b0 bd c1 dd 3d 45 64 ec bd e1 20 be 3d ed df 23 3d
       0.10827968 -0.115425624 0.09283615 0.040008474
0000c0 fc ef 3f 3c 86 f5 0a 3e fd fa 51 bd b2 2d 29 bd
       0.011714932 0.13570222 -0.05126475 -0.041303344
0000d0 9f 34 c4 bd ae 93 dd 3d
       -0.09580349 0.10819183

encoder.rnn.weight_ih_l0 f4 [192, 54]
000000 ff a4 ca bd ff 34 f1 3d 68 3d aa bd 8b f1 7b 3d
       -0.09894752 0.11777686 -0.083124936 0.06150965
000010 f5 17 9b bd 1d fd e7 3d 9d e2 c0 bd cc 71 9b bd
       -0.07572929 0.113275744 -0.09418223 -0.075900644
000020 0c f5 65 bd 67 59 a4 bd a8 73 05 3e ed 34 65 3d
       -0.056141898 -0.08024865 0.130324 0.055958677
000030 9d 39 a7 bd 9c 74 a0 bd 95 d7 2a bd 9c c6 20 3b
       -0.08165286 -0.078347415 -0.0417095 0.0024532443
000040 ef 17 95 bd 13 5f 86 3d 34 73 8e bd 15 34 b6 3c
       -0.072799556 0.06561103 -0.06955567 0.022241632
000050 1e d1 af 3d 1c 1c bd bd 9e b2 b9 bd 5d 9f bd bd
       0.08584808 -0.09233877 -0.09067272 -0.09258912
000060 37 56 a6 3c 45 ce cd 3d 92 51 9b bd f6 66 cd 3b
       0.020304782 0.100491084 -0.07583918 0.0062683774
000070 f8 c0 a9 3d d8 8f d5 3d 58 9c 7c 3d 76 1e 41 3d
       0.08288759 0.10427827 0.06167254 0.04714819
000080 8b 59 8c 3c 09 5e 8f 3b ce 8a ed 3d 29 ec 37 3c
       0.017132541 0.0043752235 0.115987405 0.011225739
000090 3e cd 6e 3d e4 d7 25 3c bb e6 ce 3d ce db fb bd
       0.058301203 0.010122273 0.10102602 -0.12297784
0000a0 6f ca 0d bd 64 a0 ee bd 7f bc 24 3d 0d 34 1e bd
       -0.034616884 -0.11651686 0.040218826 -0.03862386
0000b0 f0 29 ca bd c7 16 a8 bd 0b 43 ad 3c d5 c2 b1 3d
       -0.0987128 -0.082074694 0.021150133 0.086797394
0000c0 2d bc db 3d 93 6e a2 3d 44 f6 dd bd 37 65 d4 3d
       0.10729251 0.079312466 -0.10837987 0.10370868
0000d0 78 68 e9 3d 29 83 e9 ba ad 1a 18 be c9 e8 bb bd
       0.11396879 -0.0017815578 -0.14853926 -0.091752596
0000e0 32 1b dd bd 8b f9 66 bc 10 53 20 3e c1 8c ba 3d
       -0.10796203 -0.014097582 0.15656686 0.09108878
0000f0 71 90 63 bd cc 9b 1c bd 7b d7 36 3d 03 e1 5b bd
       -0.055557672 -0.038234517 0.044639092 -0.053681385
000100 9f 28 a6 bd f6 53 14 3d 8f c8 5a 3c 1d da 80 3d
       -0.081132166 0.036212884 0.013353481 0.06291602
000110 57 98 27 bc 99 83 99 3d df 4a e3 bd 47 f2 c4 3d
       -0.010229192 0.074958034 -0.11098265 0.09616523
000120 ce ba 82 3d e8 7e ee bd bf ce 2a bd 26 f0 a3 bc
       0.063832864 -0.11645299 -0.041701075 -0.020011973
000130 f1 38 69 3d da 27 f8 3d f2 0d 81 bd 8f 82 bb bd
       0.05693907 0.12116976 -0.06301488 -0.091557615
000140 0b 64 fd bd 5e e1 cb 3d dd fb a8 bd 73 a3 b9 bd
       -0.12372597 0.09955095 -0.08251164 -0.090643786
000150 cb 75 ad 3d 99 a0 95 3d 3e aa 67 3d 9c a0 e6 3d
       0.08469733 0.07306022 0.05655884 0.112611026
000160 6d 0a bb bd 70 79 01 bd 62 6f 9d bc 5e a3 bd 3d
       -0.09132848 -0.031609952 -0.01921815 0.092596754
000170 a2 3d ea bc 53 b9 15 bc 00 00 e0 3d 9f 41 90 3d
       -0.028593842 -0.009138423 0.109375 0.07043766
000180 99 4a 0f bd 8f e8 e2 bd 23 1a e2 bc b9 62 b9 3d
       -0.03498325 -0.11079513 -0.027600354 0.09052033
000190 2a 40 c4 3d c7 ab 16 3d ba 84 f3 3c af 8e df 3c
       0.09582551 0.036784913 0.029726375 0.027289717
0001a0 65 9f 3a bd 0e f2 04 3b 7b 1e b2 3d 52 30 32 3d
       -0.045562167 0.0020285877 0.0869722 0.043503113
0001b0 6e 11 e0 3c fc 47 aa 3d c5 c9 a0 3d e1 ac 14 3d
       0.027352061 0.08314511 0.078509845 0.036297683
0001c0 70 8b c1 bc 6e 12 34 bd 1f 16 82 bd b0 14 8f bd
       -0.02362606 -0.04396289 -0.063518755 -0.06986368
0001d0 54 91 e1 3d 6b 15 d4 3d e2 7f c3 bd 47 f3 db 3d
       0.11014047 0.10355648 -0.09545876 0.10739761
0001e0 d4 e9 cc bc ea ba 02 bd 36 50 18 3d 56 13 d9 bd
       -0.025013842 -0.031916536 0.03718587 -0.10599391
0001f0 e9 7d 86 bd 29 80 f1 bc f3 47 17 bd cb 21 85 3d
       -0.06566984 -0.029480057 -0.03693385 0.06500586
000200 89 16 12 bd 56 50 ce bd 70 51 f9 bd 3b 8d f8 3d
       -0.035666022 -0.100739166 -0.12173736 0.121363126
000210 c3 8f 83 3d c6 34 10 be f9 d4 e6 bd 88 5a c3 bd
       0.06423905 -0.14082631 -0.1127109 -0.09538752
000220 81 6a e0 3d 47 d7 72 3d 4b f0 29 3d 7b 96 87 3d
       0.10957814 0.059287336 0.041488927 0.06620499
000230 ed 1b b7 3c e5 a6 c4 3d e5 7e d5 bd 4c 1f c7 3d
       0.022352183 0.09602145 -0.10424594 0.09722766
000240 6b 66 6b 3d d5 31 22 3d 09 f1 9d 3d 09 eb f2 bc
       0.05747072 0.039598305 0.077119894 -0.02965309
000250 40 13 84 bd 53 23 18 bd a1 69 c4 bd 5f 65 1d bc
       -0.06448984 -0.037143063 -0.095904596 -0.009606688
000260 c6 86 74 3d df 38 81 3d 58 69 45 bc f2 65 3f 3d
       0.059698842 0.063096754 -0.012049042 0.046728082
000270 d7 13 f5 bd 7b 24 b3 bd c6 35 d2 bd 30 43 09 3e
       -0.11966675 -0.087471925 -0.10264163 0.13404536
000280 37 54 e2 bd 21 2d 71 3d 14 a3 a2 3d dd 5f c5 bc
       -0.11051219 0.05888093 0.07941261 -0.024093563
000290 27 51 94 bc 5d 5e bf 3d 36 d7 9c bd ed ad e5 bd
       -0.018105103 0.0934417 -0.07658236 -0.11214814
0002a0 5a 2d a6 bc f8 da 33 3c 1b 84 89 bd 4d 95 d1 3c
       -0.020285297 0.010977499 -0.0671465 0.025583887
0002b0 70 3c c7 3d e3 12 82 3d 65 59 44 3d 1a f2 c3 3d
       0.097283244 0.063512586 0.047936816 0.095676616
0002c0 6e 68 86 bd f9 a3 e5 bb 8a 78 e8 3c 8b 86 d4 3c
       -0.06562887 -0.0070080725 0.02837779 0.025943061
0002d0 7f ce 59 bd 41 77 b3 3d f8 46 dc bd 2b 19 81 bd
       -0.053175446 0.0876298 -0.10755724 -0.063036285
0002e0 d0 4c 03 be 71 76 2f 3d 18 a3 bf bd 08 da aa 3d
       -0.1282227 0.042837564 -0.093572795 0.083423674
0002f0 68 c9 cb bd a8 e2 4f 3d 97 ee ed 3d 0f a7 e1 3d
       -0.099505246 0.050753266 0.11617773 0.11018192
000300 60 f4 0f 3d cc 07 51 3d cd 77 61 3c 89 30 93 3d
       0.035145164 0.051032826 0.013761473 0.07186992
000310 e4 62 57 bb b6 09 c2 bd dc 2a 02 3e fe 5a af bd
       -0.003286534 -0.094745085 0.12711662 -0.08562277
000320 da 8e fb 3d bd b4 a3 3a f0 d7 8e 3d 91 74 53 3b
       0.12283106 0.0012489777 0.069747806 0.0032265524
000330 02 d0 8b 3d dc db 91 3d 13 db e2 bd 26 9f a1 3d
       0.06826784 0.07122013 -0.11076941 0.07891683
000340 93 f3 49 bd af ea ea bd 4a 6d d8 bd 77 d5 18 bc
       -0.049304556 -0.114705436 -0.1056772 -0.009328238
000350 f0 04 9a 3d da 5d bb bd 39 ec fa 3c f1 36 26 3d
       0.07520473 -0.0914876 0.030630218 0.04057974
000360 a3 2e e3 bd aa 04 c3 3c b1 19 8b bd 82 5c cd 3c
       -0.110928796 0.023805935 -0.067920096 0.025068525
000370 30 4c 22 bb 61 f4 cc 3d 3d d3 d9 bd 37 ec 8f 3d
       -0.002476465 0.10007549 -0.10635994 0.07027476
000380 53 0c fb bc 73 ed a3 3c bc ca 0c 3c 9d b0 04 be
       -0.030645525 0.020010686 0.0085932575 -0.12957998
000390 c5 c5 ea bc 4d 40 05 bc e0 54 a3 3b e7 ab 65 bd
       -0.028658757 -0.008133006 0.004984483 -0.056072142
0003a0 ce b2 ad 3d 05 08 65 bd d2 45 7b bd 81 b6 90 3d
       0.0848137 -0.05591585 -0.061345883 0.0706606
0003b0 c6 26 f4 bc 9b af 2d 3d e2 af 92 3d 5a a4 70 bd
       -0.029803645 0.0424038 0.07162453 -0.058750488
0003c0 52 31 1f 3d f7 24 c4 3d a2 d0 38 3c f3 88 c3 3d
       0.038865395 0.09577363 0.011280211 0.09547605
0003d0 63 2c 5d 3d 55 40 aa 3d 43 8f d1 3d 60 d5 90 3d
       0.05399741 0.083130516 0.10232403 0.07071948
0003e0 60 eb 13 3d 8d d7 88 3d 96 e9 94 3d a2 b5 50 ba
       0.036113143 0.06681738 0.072711155 -0.0007961636
0003f0 fb d7 53 3c 53 74 a0 bd 61 a1 96 bb 84 b7 7c 3d
       0.012929912 -0.07834687 -0.0045968746 0.06169845

encoder.rnn.weight_hh_l0 f4 [192, 64]
000000 e8 8b 95 bd 2d 05 e6 3d a5 ed b3 bc e2 06 de bb
       -0.073020756 0.11231456 -0.021963904 -0.006775723
000010 9c 05 67 3d 54 bf 8e bd 2e 7d dd 3b 39 8d 38 bd
       0.056401834 -0.06970087 0.0067593073 -0.045056555
000020 b6 c8 a3 bd b9 2b a3 3d 68 ea c6 3d d6 f8 62 3d
       -0.07997267 0.07967324 0.09712678 0.05541309
000030 2d 38 f6 3d 50 9b 56 3d 95 0f da 3d a2 ce e6 bc
       0.120224334 0.05239421 0.10647503 -0.028174702
000040 48 fc ba 3d d0 47 eb 3c b4 cf cb 3b e6 da d5 3d
       0.0913015 0.028720766 0.0062198285 0.10442142
000050 bb e9 c1 bd 28 de 80 bb c3 91 76 bd 1c ae e0 3d
       -0.09468409 -0.003932733 -0.060197603 0.10970709
000060 a5 e6 54 bc e8 5c 55 3d c4 4d aa 3d 7f 21 89 3d
       -0.012994443 0.052090555 0.08315614 0.06695842
000070 fd 18 4f bd 8b 5d 7b 3c 53 aa 75 3d 8a c5 5f bd
       -0.05056094 0.015342127 0.059976887 -0.054631747
000080 a7 01 a5 3b e4 41 d3 bd 0a 4b cf 3c 02 a5 b3 3d
       0.0050355974 -0.10315302 0.025304336 0.08771707
000090 12 62 23 3c f3 c2 8c 3c 4b 51 dc 3d 9d 8e c0 3b
       0.009972112 0.017182803 0.10757693 0.005876376
0000a0 33 3f 28 bd 6c 89 d1 3d 90 a6 a3 bd 34 84 7d 3d
       -0.041075896 0.10231289 -0.07990754 0.061893657
0000b0 c7 f5 88 3d b3 b5 00 3b 7c 04 0d be 69 5e 5e 3d
       0.06687503 0.0019639551 -0.13771242 0.054289255
0000c0 a3 a3 b3 3d 8e 26 1b bc f1 5b a9 3d b4 3b 9a 3d
       0.087714456 -0.009469641 0.082694896 0.07530919
0000d0 38 35 cc 3c 59 a1 f1 3d b2 77 7e bd ca 87 7e 3c
       0.02492772 0.11798353 -0.06212587 0.015535304
0000e0 c6 25 b9 bd f2 70 da 3d 58 ac 42 3d 23 68 e4 3d
       -0.09040408 0.10666074 0.04752764 0.11152675
0000f0 70 bd be bd d0 61 d5 3d f8 c3 b1 3d 16 51 e4 3d
       -0.09313476 0.10419047 0.08679956 0.111482784
000100 57 07 7c bd 3e ac a1 bd 90 6f af 39 a1 eb b6 3d
       -0.061530437 -0.07894181 0.00033461722 0.089316614
000110 09 af c4 3d 21 49 d3 bc f5 e0 99 bc 1c ec a4 bb
       0.09603698 -0.025791707 -0.018784026 -0.0050330292
000120 a8 eb 06 bd 7e 6b f4 3c b8 aa c5 3c 09 a3 7a bc
       -0.032939583 0.029836413 0.024129257 -0.01529766
000130 fe 2e b2 bd a1 1e 0b bc 21 fb 9e 3d b2 1f 9b bd
       -0.08700369 -0.008491189 0.07762743 -0.07574405
000140 8e de b6 3d 7b ae 2a 3d dd 34 d5 3c 11 32 45 3d
       0.08929168 0.041670304 0.026026184 0.04814345
000150 54 08 b6 3d c6 a0 f4 3d b4 1e 8d bd 17 7f 53 3d
       0.08888307 0.119447276 -0.06890622 0.051634874
000160 33 c1 a5 3d f1 41 10 be 01 0d 9f 3d ed 89 00 be
       0.080934905 -0.14087655 0.07766152 -0.12552615
000170 3a 3a aa bd 7c 3e b7 bd e9 d7 94 bd 73 4f 8c bd
       -0.08311887 -0.08947465 -0.07267744 -0.06851091
000180 7d 13 d2 3c 96 84 9c bd ff 93 24 bd b3 a1 c4 bd
       0.025644058 -0.07642476 -0.040180203 -0.09601154
000190 5f 15 55 bd 81 17 06 3c c9 f0 0b 3d d4 96 5c bd
       -0.052022334 0.008184315 0.034165177 -0.05385478
0001a0 b6 8d bb 3c d1 bf 5c 3d 53 cf ab 3d cf 3c 85 bc
       0.022894721 0.053893868 0.08389153 -0.016264347
0001b0 97 50 91 bd f8 71 98 3d a7 a8 95 bd 7c 03 de bd
       -0.070954494 0.07443613 -0.073075585 -0.10840508
0001c0 8d 45 ac bd 13 06 a7 bb 84 69 c7 3c 29 70 1c 3d
       -0.08411703 -0.0050971597 0.024342306 0.0381929
0001d0 fc 9d a3 3d 45 4f 58 bd a5 07 da 3d 44 73 f7 3c
       0.079891175 -0.052809972 0.10645989 0.03020633
0001e0 e6 5e c2 3c 7e e8 bc bd 7c d5 1d bd 1d 10 9c 3d
       0.023726892 -0.09224032 -0.038533673 0.07620261
0001f0 ba b4 3b bd a0 4c 98 3d 61 ac fc 3c d6 16 8a bd
       -0.04582665 0.0743649 0.030843915 -0.06742637
000200 a4 23 dc 3d 3b f3 16 3c 06 bb 31 3c 8c 50 6b bb
       0.107489854 0.009213264 0.0108478125 -0.0035906164
000210 31 68 0e bc ba 92 08 bc 30 63 3d bd fe 96 44 3c
       -0.008691833 -0.008335764 -0.04623717 0.01199889
000220 70 4e 18 bd e2 e3 ed 3d b8 0f 85 bd 61 cf d2 bd
       -0.03718418 0.11615731 -0.06497139 -0.10293461
000230 14 9c f2 3d 16 d7 88 3d ad a2 b7 bd 91 b9 cd 3d
       0.11846176 0.066816494 -0.08966575 0.100451596
000240 61 2b db bd 27 24 2b bd 90 3d 8b bd d1 65 a4 3c
       -0.10701633 -0.041782524 -0.067988515 0.020068081
000250 df 3f df 3c c5 00 61 bd 1a 1e 69 bd 6c b2 74 bd
       0.027252136 -0.054932375 -0.056913473 -0.05974047
000260 f0 51 b9 3d 0f d0 79 3d 60 db a8 3c cf 37 1c bb
       0.090488315 0.060989436 0.020612419 -0.0023836975
000270 d4 24 76 3c 50 66 c8 bc cc 7d 07 bd f8 b6 e6 3d
       0.015023429 -0.024462849 -0.033078954 0.11265367
000280 6d a7 85 bd 32 7a 90 bd 9f 6c 1b bc 11 6e 0f 3d
       -0.065260746 -0.07054557 -0.0094863465 0.035017077
000290 ea 9f d3 bd 68 07 46 3d 81 43 52 ba 2c 47 2c bd
       -0.103332356 0.048346907 -0.0008020923 -0.042060062
0002a0 0f 82 18 3c 5e cc 0c 3c 51 b0 fc bd cd 66 5d 3d
       0.009308352 0.008593647 -0.12338317 0.054053117
0002b0 bc cc 58 3d 7a c6 9b bd 3b bc 2a 3d 73 71 95 bd
       0.052929625 -0.07606216 0.041683417 -0.07297029
0002c0 b4 e8 8b 3d eb c9 58 bd a1 6a 55 3d 47 2c 54 3c
       0.06831494 -0.05292694 0.052103642 0.01295001
0002d0 08 40 9d 3a cb 93 7a bd 5a 66 5e 3d 44 2e ba 3c
       0.0011997232 -0.061176103 0.05429683 0.02272714
0002e0 f0 65 64 bd 00 1d c0 bc ae 53 fc 3c 80 60 df bd
       -0.055761278 -0.023451328 0.03080162 -0.10907078
0002f0 5e dd 99 3c 50 84 c1 3c ea 10 09 be 22 59 9e 3c
       0.018782314 0.023622662 -0.13385358 0.019329611
000300 da 35 ca bd da 23 f0 bd 44 eb e8 3d 85 1f 79 3d
       -0.098735526 -0.11725588 0.11372998 0.060821075
000310 8c 4b ad 3d ac 06 e8 3d e7 4c 94 bd 8a 80 5f bd
       0.08461675 0.113293976 -0.072412305 -0.054565944
000320 7b eb fb 39 18 31 72 3d 72 7f 5b 3a 0f d4 89 bb
       0.00048049897 0.05912885 0.0008373178 -0.0042061876
000330 5b 74 fb 3d 54 07 8f bd 08 77 68 3d 13 5c 8a 3d
       0.122780524 -0.069838196 0.056754142 0.06755843
000340 a3 24 86 bd 4a 70 3f 3d c9 ab ab 3d 1e 3b a7 bc
       -0.06549957 0.046737947 0.08382375 -0.020413931
000350 21 c7 ab bd 5e c4 a1 3d 19 2e b0 3d bb e4 4c 3d
       -0.0838759 0.07898782 0.086025424 0.050022822
000360 98 46 91 3c 68 2e 88 3d 10 b6 32 3d 36 ed 2e bd
       0.017733857 0.06649476 0.04363066 -0.04270669
000370 83 b3 bd bd c4 fd 43 bd cc 6d e6 3c 3a 3f 45 bd
       -0.09262755 -0.04784943 0.028128527 -0.048156
000380 d6 6c 30 3d d1 92 84 bd f4 b6 c1 bd 91 6f bd 3d
       0.043072544 -0.064733155 -0.09458724 0.09249795
000390 f4 65 b4 bd fb d2 26 3d 3f ba d8 3d 05 10 61 3c
       -0.088085085 0.04072855 0.105823986 0.0137367295
0003a0 9a 7e a8 3d 6b 14 03 bd f6 e4 d6 bd 67 0d 72 bd
       0.08227272 -0.032001894 -0.104928896 -0.059094813
0003b0 c0 22 39 bd 28 9a a7 bd e0 f7 9a bd 79 39 6a 3d
       -0.045199156 -0.081837 -0.0756681 0.057183716
0003c0 f7 22 e1 3d e7 05 9a 3d 85 cf 2d 3d b3 9e ca bd
       0.10992997 0.07520657 0.042434234 -0.09893551
0003d0 a7 42 a9 bc fd 9a 50 3d ab 44 de 3d 5b 5f 9a bd
       -0.020661665 0.05092906 0.10852941 -0.07537719
0003e0 d5 ec 99 3d a7 66 89 3d 28 6f 0c bd 7c 1b e0 bd
       0.07515875 0.067090325 -0.034285694 -0.10942742
0003f0 a6 3d 85 3d 09 9d 8e 3d ad c4 e0 bd ce fc cc 3d
       0.06505899 0.06963546 -0.10975013 0.10009156

encoder.rnn.bias_ih_l0 f4 [192]
000000 94 48 b4 bd ff ca 5e 3b 8b 47 9a 3c 5f 7e 98 bc
       -0.08802906 0.0033995507 0.018832942 -0.018614946
000010 3b 08 59 bd 92 21 3d 3c a7 71 67 bc 4d aa 34 bd
       -0.052986365 0.011543648 -0.014126218 -0.044107724
000020 e0 ec 99 3d 22 06 5a bd cd 14 ef bd 5e 62 eb bd
       0.075158834 -0.053228505 -0.11673889 -0.114933714
000030 e6 d5 22 3d 0d 2c a8 bd 96 56 cd bd dc 1f 1a bd
       0.03975477 -0.08211527 -0.100262806 -0.03762804
000040 30 9f 9b 3d 04 fb 83 3d 33 ff cc 3d 33 e3 a4 bd
       0.07598722 0.06444362 0.10009613 -0.08051147
000050 44 bc b0 bd aa 89 62 3d d3 c3 e5 3d d7 45 99 bc
       -0.08629659 0.055307068 0.11218991 -0.01871006
000060 68 b6 f4 bd 3d b5 dd 3d d3 45 ab 3d ed 67 bc 3d
       -0.11948854 0.10825584 0.08362927 0.0919951
000070 1e da 47 3d 5e 86 4f 3d 82 a0 5d bb cb 11 a2 3d
       0.048791997 0.050665252 -0.0033817594 0.0791355
000080 a0 e8 30 3d 27 ef c0 bd 2f 10 48 bd 08 68 dd bc
       0.0431906 -0.09420615 -0.04884356 -0.027027145
000090 37 89 f7 3a 52 68 b9 3d db 1e aa 3d 3b 7a a4 bc
       0.0018885498 0.09053101 0.083066665 -0.020077815
0000a0 a8 1f 5c bd 81 56 12 bc 7a a8 fd 3d a7 bb ec 3d
       -0.053741127 -0.008931757 0.1238565 0.11559229
0000b0 9c 66 19 3c 91 7f 39 bc da b9 93 3d 08 fb bd bd
       0.009362843 -0.011321918 0.07213183 -0.09276396
0000c0 e0 dc 61 bd 83 c9 e2 3d 84 66 05 3e de 84 2d bc
       -0.055142283 0.110735916 0.13027388 -0.01059076
0000d0 6f 2a d1 bd 8b 69 b3 3d f3 94 68 3d c8 75 27 3c
       -0.10213172 0.08760365 0.056782674 0.010220952
0000e0 74 ad ec 3d ca 9e de bd 2a 70 40 bc 77 2b 96 3d
       0.11556521 -0.1087013 -0.011745492 0.07332509
0000f0 6e 0d 3f bd 51 58 e5 bd 3b cc 85 b9 e7 c0 bf 3d
       -0.046643667 -0.11198486 -0.000255199 0.09362965
000100 53 0f 78 bb f1 e5 97 bc 47 1d 31 be 11 86 fb bd
       -0.003785093 -0.018542262 -0.17296325 -0.122814305
000110 e6 92 40 bd d2 d4 0e 3e 43 c3 38 3d ba 3e dd 3c
       -0.047015093 0.13948372 0.04510809 0.02700745
000120 81 be 37 be 6d 99 0a 3d 85 6d c6 bd 66 69 0e 3e
       -0.17943765 0.033837724 -0.09688858 0.13907394
000130 bb 9a 39 bd 59 60 d1 bc 2d 55 95 bc 2c 07 2e be
       -0.045313578 -0.025558637 -0.018229092 -0.16994923
000140 e8 60 a8 bd 3d 8d 79 3d ca f8 e5 bd 40 d5 f9 bd
       -0.082216084 0.06092571 -0.112290934 -0.12198877
000150 cf 17 80 3d 5f 8f ba 3d cf 6c 95 bd 48 bf 5d bd
       0.06254541 0.09109377 -0.07296144 -0.0541375
000160 15 9f 9a 3d 28 f9 83 bd 19 f7 15 be a0 ef df 3c
       0.07549874 -0.06444007 -0.14645042 0.027335942
000170 f0 18 8f 3d 55 a7 31 be 32 2e 0a be bd d1 84 3c
       0.06987178 -0.17348988 -0.13494185 0.016213292
000180 fe bf c1 bd c2 c3 d0 3b fd 5f 00 3e b5 33 3c 3d
       -0.09460448 0.0063709924 0.12536617 0.04594775
000190 fc 1a 24 bb 93 88 c1 bc 96 08 21 bd 45 18 b6 bd
       -0.0025040498 -0.023624694 -0.03931483 -0.08891348
0001a0 80 b5 f5 bd c7 85 93 bd 82 95 aa bd 23 fb 2f 3d
       -0.11997509 -0.072032504 -0.083292976 0.042964112
0001b0 47 0f a3 3d d9 f9 d7 bb 0f d8 5d bd b8 2b 4f bc
       0.07961898 -0.0065910635 -0.054161128 -0.012644701
0001c0 db ee dd 3c c8 99 4e 3d 09 a8 e2 bc 58 41 15 be
       0.027091434 0.050439626 -0.027668016 -0.14575708
0001d0 0c 57 0a be 68 88 a0 3c 36 9d d2 3b 6f e9 ca bc
       -0.13509768 0.019596294 0.0064274324 -0.024769513
0001e0 ec 56 e0 3c 5c 27 fa 3c 75 80 8c bc af f4 ef bd
       0.027385198 0.030536346 -0.017151097 -0.117165916
0001f0 cf 3c e2 bd e5 3a a9 bd 4d 6f 60 bd 40 0e f1 bd
       -0.110467546 -0.08263186 -0.054793645 -0.11770296
000200 84 bc f9 bd c1 39 6e bc 54 d4 4f bd 32 57 d9 bd
       -0.121941596 -0.014540137 -0.0507396 -0.10612334
000210 ec 3f a5 bd 5c 81 c5 bc e9 46 76 bd 12 61 b2 3d
       -0.08068833 -0.024109535 -0.06012622 0.08709921
000220 1f 23 54 bc eb 03 05 bd ef cb ab 3d 76 a0 e7 bd
       -0.012947827 -0.03247444 0.083885066 -0.11309902
000230 45 0a 22 3d 38 e6 2e bc eb b1 ce 3d 39 e4 0f 3c
       0.039560575 -0.010675006 0.10092529 0.00878244
000240 c9 54 3f bd fc dc aa bd 82 3e a8 bd b0 76 6b bd
       -0.046711717 -0.08342931 -0.082150474 -0.057486236
000250 7c fa e4 3d d1 98 b6 3d fa bd f3 3d 4c c3 3f bd
       0.111805886 0.08915866 0.119014695 -0.04681711
000260 27 51 16 3d cf 28 ad bd 07 02 1d bd cc 44 e5 3d
       0.036698487 -0.08455049 -0.03833201 0.111947626
000270 70 b4 b2 bd 8d 02 f6 bd 87 5f 07 3a 1c 4c 95 3c
       -0.08725822 -0.12012205 0.0005164076 0.018224768
000280 dd 7a cb 3d 7f 65 32 3d fd 43 c3 3c 07 fd fd 3d
       0.09935544 0.043553825 0.02383613 0.12401777
000290 10 b0 be 3d 70 74 92 bd 45 1f e3 bd a9 05 f2 bd
       0.09310925 -0.07151115 -0.110899486 -0.11817486
0002a0 af 12 ff 3c 52 f4 fa 3c 89 ef d5 bc 42 ca bc 3d
       0.031136839 0.03063408 -0.026115196 0.09218265
0002b0 9a 94 c9 3c 11 a9 8a 3c 57 90 8d bc 46 c7 96 3d
       0.024606992 0.01692632 -0.01728074 0.07362227
0002c0 33 51 39 3d be 67 ab bd 6e e9 1f bd d6 79 73 3d
       0.045243453 -0.083693966 -0.039040975 0.059442364
0002d0 0d 3a 33 3d 06 ee d7 bc 1f b9 f0 3d 49 8f d1 3d
       0.043756533 -0.026358616 0.11754059 0.102324076
0002e0 b2 8f 53 bd 8f 5f c4 3d 30 4c c3 3d 0e 76 b5 3d
       -0.05165071 0.09588539 0.09536016 0.08860408
0002f0 94 70 34 bd f0 25 68 3d 6c 4d 88 bd e2 3d 84 3d
       -0.044052675 0.056676805 -0.06655392 0.06457116

encoder.rnn.bias_hh_l0 f4 [192]
000000 e5 d5 08 3a 76 25 8f 3d 2c fd 94 3d de 30 23 3d
       0.0005219861 0.06989567 0.07274851 0.039841525
000010 78 8f 1b 3d e3 ae 79 bd 4d 88 ca bd 82 2f c9 bd
       0.03797862 -0.0609578 -0.098892786 -0.098235145
000020 ad ea e2 bb 4c 95 c1 bd c2 0c 07 bd 48 37 73 bc
       -0.006924948 -0.09452304 -0.03297115 -0.014844723
000030 e6 42 fb bd c8 ef 00 3e 4e 69 e5 3b a7 d4 a4 3d
       -0.12268619 0.1259147 0.0070010787 0.08048373
000040 92 63 f0 bd ff 1f 7a 3d 42 b5 98 bd e5 3d 12 3d
       -0.117377415 0.06106567 -0.07456447 0.03570356
000050 6a 8a c0 3d 0d 29 c2 3d 8e b4 f2 bd 99 45 81 bd
       0.094014004 0.09480486 -0.11850844 -0.06312103
000060 59 3f 63 bd 21 99 05 3d 0e 32 9c bd b7 c9 ae 3d
       -0.055480335 0.03261674 -0.07626735 0.08534568
000070 a8 24 b7 bd 97 78 99 3a 69 51 8b 3c 86 14 99 bd
       -0.089425385 0.0011708912 0.017006593 -0.07474618
000080 92 df 0e bc a1 d3 f8 bd a2 ce 90 bd 5e c5 00 be
       -0.0087202955 -0.1214974 -0.07070662 -0.1257529
000090 f9 90 3b 3d f5 fb 2b bd 4f 49 c2 bc b1 c0 64 3d
       0.045792554 -0.04198833 -0.023716597 0.055847827
0000a0 33 6d 6e 3d 08 b2 7f 3d af d8 da 3c 8d 2a e7 3d
       0.05820961 0.062425643 0.02671465 0.11287413
0000b0 9b 6a d5 bc 16 b9 cf 3d 3f a6 8f bd 10 e1 f7 bd
       -0.02605181 0.10142724 -0.07014131 -0.12103474
0000c0 9a 2d 3c 3b c3 69 3b bd 04 f0 94 bd 8b cb b1 bd
       0.0028713704 -0.04575516 -0.07272342 -0.08681401
0000d0 af d1 83 bc f0 ab 40 3c 87 3a c5 bb 2e 8b fc bc
       -0.016091196 0.011759743 -0.00601894 -0.030828085
0000e0 20 76 c8 3d 91 85 69 3d b3 f5 8c bd 47 ef b7 bd
       0.097881556 0.057012144 -0.06882801 -0.089811854
0000f0 0a 87 15 3c b1 6c 2e 3d 27 41 d0 3d 79 87 a9 3d
       0.009126434 0.042584125 0.10168677 0.082777925
000100 fe 62 85 3d 12 da 2b bd 64 6b 41 be 38 0d 07 3c
       0.06513022 -0.041956015 -0.18888623 0.008242898
000110 e1 50 eb bc 98 a6 de 3d 4b f8 a2 bd d9 75 19 be
       -0.02872509 0.10871619 -0.079575144 -0.14986362
000120 84 f5 06 be 72 52 c2 bd a9 c4 83 be c8 85 16 3e
       -0.13179594 -0.094883814 -0.25735977 0.14699471
000130 e5 62 2f bc 83 40 b9 3d 8e b3 23 3e 63 1a 21 be
       -0.010704731 0.09045508 0.15986463 -0.15732722
000140 7f 1a 8c 3d 1a 98 0c 3e 85 28 59 be 63 6c 4f bd
       0.06840991 0.13729897 -0.21206863 -0.050640475
000150 ab 11 86 3d 45 e0 a5 3c 69 cc 35 bd 08 82 f8 bd
       0.06546339 0.020248542 -0.044384394 -0.121341765
000160 5d 4f aa bd ac 7a 5c 3c c7 17 13 be 7a c9 97 3a
       -0.083159186 0.013456982 -0.14364539 0.001158043
000170 a0 25 82 bd 20 b9 20 be 79 6f a6 3d 95 9d 1d be
       -0.06354833 -0.1569562 0.081267305 -0.15392144
000180 6e 41 f8 3c 7a 80 45 3d 86 1d 71 bd 71 fc a7 bd
       0.030304637 0.048218228 -0.058866046 -0.08202446
000190 51 3a 0e bd 7a 21 0b 3e 75 da 16 bd b8 83 c6 3c
       -0.034723584 0.13586989 -0.03682943 0.02423273
0001a0 33 3b e0 bd 11 99 0c be 99 2a 33 3d c4 76 95 3d
       -0.10948791 -0.13730265 0.043741796 0.07298043
0001b0 78 f2 84 3d 15 48 01 3d 95 97 a4 3d 72 91 2f bb
       0.0649156 0.031562883 0.080367245 -0.0026789573
0001c0 0b b4 f8 bd cf df 56 bd 49 51 fb 3d 09 be 01 be
       -0.121437155 -0.052459534 0.12271363 -0.12670149
0001d0 89 0a d2 bc d4 76 ae bd 5e 16 72 3d 3f 53 85 bd
       -0.02563979 -0.085187584 0.059103362 -0.065100186
0001e0 96 3c ca 3b f7 ea 1c bb bd 64 9a 3d 18 70 27 3d
       0.006171773 -0.002394376 0.075387456 0.040878385
0001f0 29 03 88 3d a7 64 0c be 7a 65 20 be 5f f8 bd bd
       0.06641228 -0.13710271 -0.1566371 -0.09275889
000200 7a 18 59 3d 6a 02 77 3d 93 03 f0 bd 17 7e ca bd
       0.05300186 0.060305037 -0.11719432 -0.09887331
000210 a0 30 0a bd 25 23 7b bc 3c 3e be 3d d2 dc 0d 3d
       -0.03373778 -0.015328203 0.09289214 0.03463442
000220 b1 4e c0 3d 6f f5 cc bd e1 1f e2 3d 5d df dd 3d
       0.09390009 -0.1000775 0.11041237 0.10833619
000230 ad a7 90 3d 6d 1f 98 3c f6 a0 e1 3d a0 6f 2b bc
       0.070632316 0.018569672 0.11017029 -0.010463625
000240 07 0f 56 bc 30 b5 4f bc 10 58 1d 3d 75 e6 34 3d
       -0.013065106 -0.012677476 0.03841406 0.044165093
000250 ef 09 d4 3d b2 a0 a0 3d 5b 75 6e 3d 29 5f fe 3c
       0.10353457 0.0784315 0.058217388 0.031051235
000260 d5 4b e9 3c 6d 09 bc 3d ec 10 3d bd 52 63 ac 3d
       0.028478542 0.09181485 -0.046158716 0.08417381
000270 cf 93 7f bd ad 1a 4a bd 9e 0b 3d 3d 2d 34 ae bd
       -0.06239682 -0.049341846 0.046153657 -0.085060455
000280 8a 98 4d bd cc 34 f3 3c 34 fd 36 bb ca 22 9b 3d
       -0.0501943 0.029688261 -0.0027921917 0.07574995
000290 a3 5b b0 bd 7b e6 e2 bd f0 39 66 3c da e1 4a 3d
       -0.08611228 -0.11079117 0.014051899 0.049531795
0002a0 d0 c8 57 3c 87 d2 b7 bd fc d5 98 bd 50 a4 46 3d
       0.013170436 -0.08975702 -0.07462689 0.048496544
0002b0 29 e9 99 3c 3e e7 91 3d bf 00 84 bd 69 1e bb 3d
       0.018787937 0.07124184 -0.06445455 0.0913666
0002c0 af 7b b1 ba 55 86 18 3d 9a c3 ab bd 3f 51 42 bc
       -0.0013540889 0.037237484 -0.083869174 -0.011860191
0002d0 a4 9d f9 bc 7d 66 c9 bd c7 a2 9a 3d c5 65 2b 3d
       -0.030470677 -0.09834001 0.075505786 0.041845102
0002e0 0e c4 95 bd 0c 53 02 3d 5a eb e6 bc ad d9 f5 bd
       -0.07312785 0.03181748 -0.028188396 -0.12004409
0002f0 a8 38 af 3c b5 8f c7 bc c1 7c a4 3d ba 60 25 bc
       0.02138932 -0.024360517 0.080316074 -0.010093862

encoder.rnn.weight_ih_l1 f4 [192, 64]
000000 05 8e 95 bd 67 03 3c bd 26 b5 32 3d 4a ac bd bd
       -0.07302479 -0.045901682 0.043629788 -0.09261377
000010 a0 27 0c 3c 10 ed b8 bd 78 e2 d0 bd 33 c0 af bc
       0.008554369 -0.09029591 -0.101994455 -0.021453952
000020 cd d0 bd 3d 3d 88 64 bd 52 ff 93 bd c2 78 47 bd
       0.09268341 -0.05579399 -0.07226433 -0.048699148
000030 98 65 ae bd a5 c8 b1 bc e3 d5 d3 bd b2 1d 58 3d
       -0.08515471 -0.02170212 -0.1034353 0.052762695
000040 e3 18 f8 bd 61 b3 f0 bd 10 d2 f6 bd f3 fe a1 bd
       -0.12114122 -0.11752964 -0.12051785 -0.07909956
000050 5c 7d f6 3c 78 b5 c3 3d bc f6 8d bd d7 f0 9a 3d
       0.030089073 0.09556097 -0.069318265 0.07565468
000060 ec 53 d1 bd 75 ed c5 bd 24 5c 2e 3d cb cd 8c bc
       -0.10221085 -0.09664432 0.04256834 -0.017187973
000070 1e 53 76 bd e3 d8 db 3b b4 83 8f 3b ff 35 ce 3d
       -0.06013786 0.0067092045 0.004379714 0.10068893
000080 a1 85 1e 3d b5 88 95 3a cd d8 ca bd f9 5c 21 bd
       0.038701657 0.001140854 -0.09904633 -0.039395306
000090 9a 4d bd bd f1 4a b4 bc cf 04 04 bd e2 15 df bc
       -0.09243317 -0.022008391 -0.03223115 -0.027232114
0000a0 9f fb c4 bd 0c ee 53 3d be f2 29 3d 3c 15 57 bc
       -0.096183054 0.05174069 0.041491263 -0.013127621
0000b0 65 3f 28 bd f1 48 fa 3c c4 ea ae 3d 29 79 42 3d
       -0.041076083 0.03055236 0.08540872 0.04747883
0000c0 27 f8 0b 3c 61 99 74 3c aa b4 ae 3c 0a c4 8a 3b
       0.008543051 0.0149291465 0.021326382 0.0042347955
0000d0 ed cc 0e bd e8 19 b7 bd 59 a0 a8 3d 2f 87 91 3d
       -0.0348634 -0.08940488 0.08233709 0.07105862
0000e0 26 4e fa bd 91 61 9a 3c 3b a5 ba bd ab e5 ed 3d
       -0.12221937 0.018845351 -0.091135465 0.11616071
0000f0 51 45 29 bc 0a 30 7c bd bd fd a9 bd 60 fa 94 3d
       -0.010331468 -0.06156925 -0.0830035 0.07274318
000100 c7 2b d8 bc cf 82 83 bc 46 fd e9 3d 00 9f 0d bd
       -0.026388062 -0.016053585 0.11425261 -0.034575462
000110 d2 0a 8c bd 09 94 0d 3d c1 f6 f6 3c 9f 7b b9 bd
       -0.06838001 0.034565005 0.030146958 -0.09056782
000120 76 e5 3d 3d 10 a5 9f bd c5 78 98 bd d2 6e ba bd
       0.04636141 -0.07795155 -0.0744491 -0.091031685
000130 41 4c 30 bd 85 74 6b 3b 1f 56 6a bd 44 16 a8 bd
       -0.04304147 0.0035927605 -0.057211038 -0.08207372
000140 ae c5 30 bd 80 18 0a 3d 54 15 95 3c bc d4 e6 bd
       -0.043157272 0.03371477 0.018198647 -0.112710446
000150 3d fe de bd 9a 02 b0 3d 68 7d 39 3c 4c 8d 91 3d
       -0.10888336 0.08594246 0.011321403 0.07107028
000160 07 f8 0c bc 26 2e da bd 9a 6b ea bd 69 c1 92 3d
       -0.008604056 -0.10653333 -0.114463046 0.07165796
000170 6f e3 b9 bc 15 3a 2e bd a7 f2 05 be be 50 80 3d
       -0.022691457 -0.04253586 -0.13080846 0.062654
000180 e2 ab b9 3c 23 df c8 bd 35 1d 1a 3c 79 b1 b4 bd
       0.022664968 -0.09808185 0.009406378 -0.08822913
000190 66 6e 19 bd 27 a5 86 bd ee 9c 12 bd 8b 4e af bc
       -0.0374588 -0.06574469 -0.03579419 -0.021399757
0001a0 6d d0 d2 bd ac 33 b5 bd e1 d9 df bd ce b4 94 3d
       -0.1029366 -0.08847746 -0.10930229 0.07261048
0001b0 4a e0 a7 bd e6 0d b8 3d a0 22 a4 3d 51 4a a0 bd
       -0.081970766 0.08987026 0.08014417 -0.07826675
0001c0 1e 7d bd 3d 55 00 3e ba cd 24 bf bb a6 11 a2 3d
       0.0925238 -0.0007247974 -0.0058332444 0.079135224
0001d0 d8 f8 b6 3d c9 b3 42 bb e8 4b ea 3d fa 91 9b bd
       0.08934182 -0.002970921 0.11440259 -0.07596202
0001e0 3e fe b9 3d f9 96 80 3d 80 d0 d7 3d 18 30 98 bc
       0.09081696 0.06278796 0.10537815 -0.01857762
0001f0 93 78 00 3e 90 96 c1 3d 98 dc 9c bd 46 7b ea 3d
       0.12545995 0.09452546 -0.076592624 0.11449294
000200 7b 10 bc bd 27 40 dd 3d 3f cc eb bd b5 f9 b0 3c
       -0.09182831 0.10803252 -0.11513566 0.021603445
000210 69 46 bc bd 3b 00 5c 3d 6b df 8a bd 80 f1 8a bd
       -0.09193117 0.053711157 -0.06780895 -0.06784344
000220 61 20 18 bd 5c e6 c7 bd 1a 4a ca bc c0 58 4b bd
       -0.037140254 -0.097607344 -0.024693538 -0.049645185
000230 dd 0c e7 bd 8e 1d bc bd d1 a8 5b bd 75 02 03 3e
       -0.1128175 -0.091853246 -0.053627793 0.12793906
000240 e3 a5 6f 3d c9 13 9a bc 00 ff 96 3c 73 fc 5f 3d
       0.05850781 -0.018808262 0.01843214 0.054684114
000250 2d 47 6a bb 21 da 97 bd 3c 1a eb bd df 9d ca bd
       -0.003574799 -0.07414652 -0.11479613 -0.09893393
000260 82 b4 ab 3c 56 a2 fa 3b 11 bb b3 bd cc c1 86 3d
       0.020960096 0.0076487465 -0.087759145 0.065799326
000270 5c ce bc 3d 24 8a 0d 3d 8f d1 90 3d bf a4 b0 bd
       0.092190474 0.03455557 0.0707122 -0.08625173
000280 0b 40 80 bd 77 cc ee 3c 5e 34 dd 3d 0e 63 0e 3c
       -0.06262215 0.02915023 0.10801004 0.008690609
000290 2e 52 ce bd 57 4f 0b bc 70 de b0 bc 01 e4 8e bd
       -0.10074268 -0.008502803 -0.021590441 -0.06977082
0002a0 0f f9 4f bd fd b4 e0 bc cc 82 04 3d 34 ed d7 bc
       -0.05077463 -0.027430052 0.0323513 -0.026358224
0002b0 ee 2a dd 3d fa 90 bf bd 11 84 4c bc 86 e7 b2 3d
       0.10799204 -0.09353824 -0.012482659 0.08735566
0002c0 83 14 a5 bb 9c 82 0e be e0 e7 b3 3b 8f 4e 87 3d
       -0.0050378456 -0.13917011 0.005490288 0.06606781
0002d0 8f cc ae bd a9 1a a4 3d 50 32 42 bc 22 b6 d1 bd
       -0.0853511 0.080128975 -0.011852816 -0.10239817
0002e0 c9 d7 db 3c 76 bc 84 bd ae 96 08 3e da 09 ec bd
       0.026836293 -0.064812586 0.1333873 -0.115253165
0002f0 3b 3d 8e bd 5d 3a 6e b9 d6 ab ba 3c 4d bf b2 bc
       -0.069452725 -0.00022719191 0.022787016 -0.021819735
000300 ec f4 16 bd 3f 8b 8a bd 02 86 c5 3d 37 10 f9 3d
       -0.03685467 -0.0676484 0.096447006 0.12161296
000310 01 e6 55 bd a2 84 d4 3a f3 37 e2 bd f5 b4 db 3d
       -0.052221302 0.0016213844 -0.11045828 0.10727874
000320 18 ae 88 bd 3b 68 89 bd fb 32 7e bd 4a 6e 07 3d
       -0.06673831 -0.067093335 -0.062060338 0.033064164
000330 f9 be 2a 3d 5a ff cc bd eb 2a 0b bd 9d 6c 80 3d
       0.041686032 -0.10009642 -0.033976477 0.06270716
000340 f4 96 ac 3c 38 a7 e0 bd fc 8d 8f 3d e0 e1 d4 3d
       0.021068074 -0.109693944 0.07009503 0.10394645
000350 a5 70 1e bc 23 60 f6 3d 4f 75 b1 3d 0d 80 c8 bd
       -0.009670411 0.120300554 0.08664953 -0.09790049
000360 88 6a 61 bd e3 9d e9 3d 43 5d 14 bd 3f 43 db 3d
       -0.055033237 0.114070676 -0.036221754 0.107061855
000370 e5 30 b6 bd b0 2d da 3d 52 d4 26 3d 6b 1c da bd
       -0.08896045 0.106532454 0.04072983 -0.106499515
000380 d4 d7 e5 bd 0d 1f c6 bd 1d bd e1 3d e2 05 04 3d
       -0.112228066 -0.09673891 0.110223986 0.032232173
000390 b1 fb 14 3d fb 9e 16 bd a8 98 ee bd 94 fd ce 3d
       0.036372844 -0.03677271 -0.116502106 0.1010696
0003a0 05 5a 87 bd 2a da a3 bc f5 91 07 bc f4 69 d3 3d
       -0.06608967 -0.02000149 -0.008274545 0.10322943
0003b0 ab 19 44 3d 59 0c 25 bc a5 42 d4 3d 9e 02 d3 3d
       0.04787604 -0.010073745 0.10364274 0.103032336
0003c0 fe 49 a2 bb 25 41 d2 3d 0e 34 73 bd 60 8f db bd
       -0.004952668 0.102663316 -0.059375815 -0.10720706
0003d0 0c a7 df 3d 27 a1 ad bb d3 71 7e bc c8 78 a7 bd
       0.109205335 -0.005298752 -0.0155300675 -0.08177334
0003e0 d6 03 52 bd af dc 87 bd 83 06 bd 3a d3 78 dc bd
       -0.05127319 -0.06633889 0.0014421496 -0.10765233
0003f0 3d 36 7b 3d d1 55 c7 3c bc ca 2d bc d7 a1 b0 bd
       0.061331023 0.024332913 -0.010607418 -0.086246185
