checkpoints/models/single_stock_daily/81to9/000001/model60.pth (torch, 543834 bytes, 24 tensors)

encoder.conv1.weight f4 [18, 6, 3]
000000 3f 78 9d bd 75 ac b2 bd 61 fd 5c bc 14 b4 d3 3d
       -0.07688951 -0.087243 -0.013488145 0.103370816
000010 1c 2e 60 be 63 3e 0c be 53 d9 98 bd 3b b0 84 bd
       -0.2189259 -0.13695674 -0.07463326 -0.06478926
000020 1b bc 0a 3c ba 6f 2e 3e 31 c2 99 3d e1 a7 54 be
       0.008467699 0.17034808 0.07507742 -0.20767166
000030 db 81 5e 3e 6f 8d 5b 3e c8 a6 a2 3d 42 8e 31 3e
       0.21729223 0.21440671 0.07941967 0.17339423
000040 b6 2b 18 3e 90 ea 97 3e 19 ca 5d be 41 ca 11 be
       0.14860424 0.29671144 -0.21659125 -0.1423731
000050 99 df ac bc 75 e1 29 bd 10 57 25 be 62 5d 66 be
       -0.021102713 -0.04147478 -0.16146493 -0.2249656
000060 f7 46 39 be ee 58 71 bd 83 73 48 3e a4 e0 21 3e
       -0.18093477 -0.0589227 0.19575314 0.1580835
000070 d6 a2 5f 3d 3d ba 15 be aa 97 c0 bd a4 4f 09 3c
       0.05459865 -0.14621826 -0.094039276 0.008380804
000080 c6 a5 61 be a8 0e 97 bb 59 d9 51 3d c1 6a 70 3e
       -0.22035894 -0.0046099015 0.05123267 0.23478223
000090 8e 4a 7c bd 27 6f 66 3e 64 a5 83 3c 7c 22 2b be
       -0.06159454 0.22503339 0.016070075 -0.16712373
0000a0 6b d3 5d 3e a5 89 4f 3e 68 11 45 be e0 c5 10 be
       0.21662681 0.20267351 -0.19244921 -0.14137983
0000b0 c0 09 02 3e f7 08 1a be 62 d7 1d 3e c6 a4 da bd
       0.12699032 -0.15042482 0.15414193 -0.10675959
0000c0 74 30 a0 bd 15 8b 95 bd 0d 1c 6d 3e a3 bc a5 bd
       -0.07821742 -0.073019184 0.23155232 -0.0809262
0000d0 83 e6 34 bd e3 81 03 3e 0c 52 16 be 70 ca 24 3c
       -0.044165146 0.12842517 -0.14679736 0.0100580305
0000e0 68 4d 33 be cb fa 52 be 36 72 45 bd ee 07 fa 3c
       -0.17509997 -0.20603482 -0.048204623 0.03052136
0000f0 3b 4d 56 3e 09 64 71 be 18 a0 ab bd 50 c8 93 3d
       0.20927899 -0.23573317 -0.08380145 0.07215941
000100 4a 88 b2 3d 0d 02 07 3e 36 47 38 be 62 7d 77 bd
       0.08717401 0.13184376 -0.17995915 -0.06042231
000110 75 50 44 3d 34 19 5f be cd fb b3 3d 98 ef 81 be
       0.047928292 -0.21786958 0.087882616 -0.25378108
000120 ab cb 11 3e d2 6b 83 3d d7 84 81 bd 98 f0 87 3d
       0.1423785 0.064170495 -0.06324165 0.066376865
000130 db 3d 45 3e 4f 90 38 3e 12 2c 09 3e 54 e1 07 be
       0.19261877 0.180238 0.13395718 -0.1326955
000140 84 3f d2 3d d9 d1 2a 3e dd 1e 22 3d f7 f1 34 3e
       0.10266021 0.16681613 0.039580215 0.17670427
000150 d2 45 1f be 0a 37 29 3e 30 40 69 3c 3b 63 4b be
       -0.15553978 0.16524902 0.014236495 -0.19862072
000160 11 1b 3b bd 53 b0 69 3e 75 5b a0 bd 1a bc 4d bd
       -0.04568011 0.22821169 -0.07829944 -0.050228216
000170 68 f6 c3 bd d4 4c fe bd 62 7f 04 3d af 62 15 3e
       -0.09568483 -0.124169976 0.032348044 0.14588426
000180 e0 fb ce 3c 4b 76 45 bd 78 7e 32 3c 05 37 33 be
       0.025266588 -0.048208516 0.01089441 -0.17501457
000190 64 3f 14 be 21 38 47 3c 7d 9e 40 be 33 2d c2 3d
       -0.14477307 0.012159378 -0.18810458 0.09481277
0001a0 c7 35 14 3d e8 6b 76 3c a9 92 cf bb b7 81 61 3e
       0.0361841 0.015040375 -0.006334622 0.22022139
0001b0 0a 71 52 3e 7a 34 de 3d ad 30 f0 3d e8 4c ec bd
       0.20550933 0.10849853 0.11728034 -0.11538106
0001c0 f4 33 d6 3d c7 0b 17 be 78 9e d9 3d 5c 58 0e be
       0.10459128 -0.14750586 0.10625929 -0.13900894
0001d0 4d 89 29 3d 0c 1b 30 3e 06 9e 32 3e fe 3e 71 3e
       0.041390706 0.17197818 0.17443094 0.23559186
0001e0 00 5a a9 3d 1b 44 e3 3d 5c 33 bc 3d a8 ee 59 3e
       0.08269119 0.110969745 0.091894835 0.21282446
0001f0 0a a1 33 3e 28 54 f7 3d 83 d4 a4 bd 00 c9 c2 bd
       0.175419 0.120765984 -0.08048346 -0.09510994
000200 41 87 76 bd 4b 41 e5 3d ff 3b da bd 46 7b 78 3d
       -0.060187582 0.11194094 -0.106559746 0.060664438
000210 d7 b7 5f 3e 3c e7 84 3e 94 ba 48 be 6c 49 94 3d
       0.21847473 0.25957668 -0.19602424 0.072405666
000220 6f eb 47 3e f3 1f 68 be 3d f5 1f 3e 09 3e d9 bd
       0.19523405 -0.22668438 0.15620895 -0.106075354
000230 b4 f9 3c be 24 b2 06 be 34 f5 25 be 2c 26 fb bd
       -0.18454629 -0.13153893 -0.16206819 -0.1226314
000240 d6 86 8b 3d df 27 b2 3d ae b1 b2 3d 4a a3 26 3e
       0.06812827 0.08699011 0.08725296 0.16273227
000250 5d 4d 20 be a8 f0 6b be a9 6d 45 be e5 c0 1e be
       -0.15654512 -0.23041022 -0.19280113 -0.15503271
000260 05 4f 0b be c3 91 d1 3d 25 08 3f be 26 18 42 be
       -0.13604362 0.1023288 -0.1865545 -0.18954524
000270 30 03 fe 3d d7 38 2b be 0f 96 d5 3c b7 e1 53 be
       0.12402952 -0.16720901 0.02607253 -0.20691572
000280 6d 86 80 3d 7a 7b ff 3d 8f a3 58 be bd e7 95 3d
       0.0627564 0.12474723 -0.21156143 0.07319591
000290 e8 6b 02 be 83 da 12 3e 1e da 5b 3e e5 46 48 be
       -0.12736475 0.14341168 0.21469924 -0.19558294
0002a0 a8 82 b1 3d f3 4b 39 3e 59 46 76 3e 9e af 31 3e
       0.08667499 0.18095379 0.24050273 0.17352149
0002b0 88 58 6e 3d f3 ca e7 3c 19 ae 38 3d 16 8a 02 be
       0.0581899 0.028295016 0.045087907 -0.12747988
0002c0 37 12 fb bc fd 1d f2 bb ee 6a 13 be 63 7e 44 bc
       -0.030648334 -0.007388829 -0.14396259 -0.011993024
0002d0 b2 e2 fb bc b8 a2 8b bd 5d 42 94 bd 02 8e 71 be
       -0.030747745 -0.068181455 -0.0723922 -0.23589328
0002e0 f1 92 69 3e 23 cd db 3d ef a1 31 3e 5b cc 4a be
       0.2280996 0.10732486 0.17346929 -0.19804518
0002f0 6f 2a 87 be eb 03 35 3e 4b 97 18 bd a8 c8 86 3c
       -0.26399562 0.17677276 -0.03725366 0.016453102
000300 60 ba f4 3d 5f ef 92 3c 8f 99 f3 bc 67 49 04 3e
       0.11949611 0.017936407 -0.029736308 0.12918626
000310 32 a1 36 3e 77 23 70 bd 4d 23 3d be fd 54 d6 bd
       0.17834929 -0.058627572 -0.18470497 -0.10465429
000320 02 45 28 3e 07 a2 b1 3c fb 69 59 3e 3d 7e b4 bd
       0.16432574 0.021683706 0.21231835 -0.088131405
000330 2c c6 5f be 28 c0 d2 3d 32 69 f6 bd 6b 20 0f be
       -0.2185294 0.10290557 -0.12031783 -0.1397721
000340 4f 92 29 3e 92 59 2e 3b 66 4a 8d bc 3d b8 7f 3e
       0.16559719 0.002660368 -0.01724739 0.24972625
000350 90 79 44 3e 73 94 a0 be a6 0d b9 be 07 30 93 be
       0.19186997 -0.31363258 -0.36143225 -0.2874758
000360 da 3e 41 be e5 47 00 be 1c 8e 1c 3e 0e 91 25 be
       -0.18871632 -0.12527426 0.15288585 -0.16168615
000370 09 ae 60 3e 67 a7 97 3d 6f af 1b 3c 88 e6 7b 3d
       0.21941389 0.07404976 0.009502276 0.06149915
000380 58 e7 88 3d 1b 2c 94 3d 6f 40 38 be 25 91 91 3b
       0.0668475 0.07234975 -0.1799333 0.0044423514
000390 77 89 1d 3e 00 f5 7c 3e e2 b2 54 bb fd a9 26 be
       0.1538447 0.24702835 -0.0032455255 -0.16275783
0003a0 64 5e ed 3d a1 0d 5d be dc bc 4f 3e e0 02 04 3e
       0.11590269 -0.2158723 0.20286888 0.12891722
0003b0 45 47 c3 3d b0 ac e4 3c 0a 47 22 3e f5 0d d7 bd
       0.09535078 0.027914375 0.15847412 -0.10500709
0003c0 e6 36 52 be e5 72 26 be cf 94 1e 3e a3 fa fc bd
       -0.20528755 -0.16254766 0.15486453 -0.12352493
0003d0 a2 02 57 be c7 b2 15 3d da ec 1c be 65 63 08 bd
       -0.20997098 0.03654745 -0.15324727 -0.033297915
0003e0 f0 15 29 be 0b 25 e8 3c f4 d1 53 bd ad 29 54 3c
       -0.16512275 0.028337976 -0.0517139 0.012949389
0003f0 c4 35 dc 3d 5a 07 1b be 71 53 b2 bd e4 47 1f be
       0.107524425 -0.15139523 -0.087073214 -0.15554768

encoder.conv1.bias f4 [18]
000000 af ca e3 3c eb 2b c3 3d fe a0 14 be fd dc 41 bd
       0.027806608 0.09529861 -0.14514539 -0.04732989
000010 d0 3d fc bd ac 10 60 3e b3 bc 20 3d fb 23 2c be
       -0.12316477 0.2188136 0.039242458 -0.168106
000020 f9 e0 30 3e 01 ec 73 bd 37 da c5 3c 46 c3 40 3d
       0.1727332 -0.059551243 0.024151905 0.047061227
000030 11 b3 25 bd 33 14 61 3e 11 55 e9 3d ad 21 0c 3d
       -0.040453974 0.21980362 0.11393178 0.034211803
000040 ec cf 94 bd 06 18 82 3d
       -0.072662205 0.06352238

encoder.conv2.weight f4 [54, 18, 3]
000000 38 95 d1 bd 0d 6c 26 bd 70 d5 98 3d 37 da 04 be
       -0.10233539 -0.04063039 0.07462585 -0.12973867
000010 e0 6b 2b 3a 24 ff 38 bd 27 ec d0 3d f7 f0 88 bd
       0.0006539207 -0.045165196 0.102012925 -0.066865854
000020 27 1f 3c 3d 5e e2 10 bd a0 cc e8 3d ce 93 95 bc
       0.045928147 -0.03537213 0.11367154 -0.018258955
000030 11 ec cc bd c1 76 36 bd 6c 33 c1 3d 4c 8a 53 3d
       -0.100059636 -0.044546846 0.09433636 0.051645562
000040 d9 ef c5 3c 10 82 ac 3d 1d fb 4e 3d b5 6b a5 bc
       0.02416222 0.08423245 0.05053245 -0.02019296
000050 98 62 99 bd 8b 33 09 be 3b fd 94 3d 90 4a df 3d
       -0.074895084 -0.13398568 0.072748624 0.109028935
000060 67 15 88 bd 05 e1 af bd 30 a8 6e 3c 27 75 4c bc
       -0.06644707 -0.08587841 0.014566466 -0.012479103
000070 18 23 ed 3d 5b 02 e8 ba 63 44 52 bc 47 a5 03 be
       0.11578959 -0.0017700897 -0.0128336875 -0.12856017
000080 1f 21 47 3d 32 d6 c6 bc d2 ec 48 3d 70 de 98 3d
       0.04861557 -0.024272058 0.049053974 0.074643016
000090 69 09 81 3d 35 57 fe 3b a2 ac d0 bb 08 b5 92 bd
       0.06300623 0.0077618607 -0.0063682357 -0.07163435
0000a0 a0 01 e7 3d 0d fa dc 3d 4b 7f 07 bd d7 01 09 3e
       0.11279607 0.10789881 -0.03308038 0.13379608
0000b0 c8 e3 f3 3d 5a bd 8a 3d 2f 57 a0 3d 1e 01 65 3d
       0.1190868 0.06774397 0.07829129 0.05590927
0000c0 8a ac e3 bb 78 40 33 3c fd ca f1 3d ff 42 01 bd
       -0.0069480585 0.0109406635 0.11806295 -0.031558033
0000d0 96 7e ef 3c 14 38 3d bd 4b 5c 88 3c 70 ef b1 3d
       0.029235166 -0.04619606 0.016645571 0.08688247
0000e0 3f 4b b0 3d 0e a5 8f 3d b1 f4 8a 3d da 3c c2 bc
       0.08608102 0.070139036 0.067849524 -0.023710657
0000f0 7a 7a 36 3e da d4 e4 3d 8f 2c 14 3e af bf d6 bd
       0.17820159 0.11173411 0.14470123 -0.104857795
000100 e3 a3 77 bd 6d 7b e1 bd 79 ba 75 3c c1 01 d3 3d
       -0.06045903 -0.1100987 0.014998072 0.10303069
000110 a1 dc d4 bd f2 b1 2d 3d 0c 54 91 bc c6 4d 08 be
       -0.10393644 0.04240603 -0.017740272 -0.13310918
000120 8a d6 fc bb 52 02 90 bc 5c ee 93 bd fd b8 b7 bd
       -0.0077160047 -0.017579231 -0.07223198 -0.089708306
000130 50 e0 b2 3d fe 95 7c bb 25 aa 42 bd 63 f3 a4 bd
       0.087341905 -0.003854155 -0.047525544 -0.08054235
000140 e5 77 2c bd d3 13 1d bd 0d ca 8b bd 2c 5b 79 3d
       -0.042106528 -0.038348984 -0.068256475 0.060877964
000150 12 eb 34 bd 91 b7 09 be e6 79 a7 bd 59 84 3c bd
       -0.044169493 -0.13448931 -0.08177547 -0.046024654
000160 2f 16 f9 bc d1 70 5a 3d 43 10 fd 3d c2 47 a5 bd
       -0.030406086 0.053330246 0.12356617 -0.08070327
000170 fa b6 74 39 d6 e5 e8 3d 9b 2b c3 bd e7 91 f0 bd
       0.00023337817 0.11371963 -0.095298015 -0.11746579
000180 21 63 39 bb f3 36 08 bc 07 b8 06 3c cd 76 91 3d
       -0.0028287845 -0.008313882 0.0082225865 0.071027376
000190 53 20 e4 bd 68 2a a3 bd a4 0a dc 3d 2e 71 dc bd
       -0.11138978 -0.07967073 0.10744217 -0.10763775
0001a0 ab 92 e0 bc 31 cd 44 3d 20 32 cb bd 0a ba e6 bd
       -0.027413687 0.04804725 -0.0992167 -0.11265953
0001b0 1f df c0 bd 27 8e db bd e8 f5 06 be 91 5c dd bc
       -0.09417557 -0.10720473 -0.13179743 -0.027021678
0001c0 45 35 08 be d0 98 b4 bd 64 f1 1a 3d 7b bc 0b 3e
       -0.1330157 -0.08818209 0.037827864 0.13646118
0001d0 0e d8 0c 3e 50 b0 e7 3d eb ac 33 3c aa 47 ac 3d
       0.13754293 0.11312926 0.01096652 0.08412106
0001e0 fb d1 10 bd 7e 0f a8 bd ba ab 91 3d 93 d2 6b 3d
       -0.035356503 -0.0820608 0.07112832 0.057573866
0001f0 6c 34 21 3d ca ac 43 3d d9 11 fe bc 3a 01 d4 3d
       0.039356634 0.047772206 -0.03101437 0.103517964
000200 29 9d 96 3d d0 d5 88 bd 80 e1 d0 3d 50 b0 64 3d
       0.07354195 -0.066814065 0.10199261 0.055832207
000210 11 3a 87 bc 01 6c 3c bd 2b e7 a3 3d c4 c9 6f 3c
       -0.01650718 -0.046001438 0.08003076 0.014635507
000220 da 6a 89 3d 0a 42 f0 3d 3a 16 12 bd b2 54 d3 3d
       0.067098334 0.11731346 -0.03566573 0.10318889
000230 07 f2 d1 bd cb e0 00 3c 4d a8 9d 3d 8a 48 ce 3d
       -0.10251241 0.007866095 0.076981165 0.100724295
000240 82 37 ae bd 3f 60 20 3e c0 f3 47 bd 48 2d cf 3d
       -0.08506681 0.15661715 -0.048816442 0.101160586
000250 db f9 71 bd 15 6c 49 3d cc e1 e4 bd 02 db 95 bd
       -0.05907617 0.04917534 -0.1117588 -0.07317163
000260 ce 45 00 3d 45 f5 ad 3d f4 82 b5 bb c7 74 58 3d
       0.03131657 0.08494047 -0.0055392925 0.052845743
000270 d5 f9 9d bd 78 6c c9 3c 9b ec 07 bd b6 41 3e bd
       -0.07713667 0.024587855 -0.03318463 -0.046449386
000280 e3 53 34 3d 27 41 6c bd c1 3e ca bd 29 b1 27 bd
       0.044025313 -0.05767932 -0.098752506 -0.040940437
000290 d2 d2 7b 3d 66 40 06 3e 71 1f fa 3d 02 73 cb 3d
       0.06148035 0.13110504 0.12213028 0.099340454
0002a0 b4 2b 16 bd 21 87 10 3e 9f 40 93 3d 11 ce ec 3c
       -0.036662772 0.14114048 0.0719006 0.028906854
0002b0 e1 b7 a3 bd 3f 75 8b bd f1 aa 17 3d 29 0c 2d bc
       -0.079940565 -0.06809472 0.037028257 -0.010561981
0002c0 a2 7a 32 bd bf 1f ce bd 95 09 d5 3d 1e 66 f9 3c
       -0.043573983 -0.10064649 0.10402218 0.030444201
0002d0 8a 31 88 3c f7 5a 47 3c 1a 3f 89 3d 3a a2 b7 bd
       0.016625185 0.012167684 0.06701489 -0.08966489
0002e0 7c b1 3e 3b cc 4e 0a 3e 26 5f 2e bd 5f d1 28 be
       0.0029097488 0.13506621 -0.04257121 -0.16486119
0002f0 a6 85 eb bd c1 d5 ab 3d ff e7 b3 3d 37 3e d5 3d
       -0.11500101 0.0839038 0.08784484 0.10412257
000300 07 70 d5 bd ab bf ba bd bc 0b 0c be c0 33 2b 3c
       -0.10421758 -0.09118589 -0.13676351 0.01044935
000310 31 24 58 3c 87 31 2c 3e 89 ec 58 bd 81 3f 89 bd
       0.013192222 0.16815768 -0.052959953 -0.067015655
000320 64 29 8c 3d 73 41 4f bd 9c cf d5 bc 4f ee f8 3d
       0.06843832 -0.050599527 -0.026099972 0.12154829
000330 1b f7 21 3d f3 a2 13 be ea a5 71 3c ea c7 91 bc
       0.0395423 -0.14417629 0.01474903 -0.017795522
000340 65 14 0b 3e fd 18 ef bd ad b0 be 3d 6f e8 18 be
       0.13581999 -0.11674688 0.09311042 -0.14932416
000350 ad 48 15 be d6 a1 af bd f3 30 28 be 55 c9 c9 bc
       -0.14578505 -0.0857579 -0.16424923 -0.024632135
000360 03 ba cf 3d 01 98 86 bd be da fe bd 24 22 1a bb
       0.10142901 -0.06571961 -0.124440655 -0.0023518885
000370 64 e1 ce bd 5e ca c0 3d d1 63 27 bd 55 2c db 3d
       -0.101015836 0.094135985 -0.040866677 0.10701815
000380 d1 44 3a 3d 72 e5 60 3d 85 d1 6a 3d 00 c5 05 3e
       0.045475785 0.054906316 0.05732872 0.13063431
000390 78 8d d4 bd 80 74 c7 bd 31 cd cc 3d 21 5a 1b 3d
       -0.103785455 -0.097390175 0.10000075 0.03792775
0003a0 b6 0f 10 3e 28 d0 2b 3d a6 31 1f 3d 90 98 96 3d
       0.14068493 0.04194656 0.038865708 0.07353318
0003b0 af 0a ad 3d 4c fd bf 3d ff d6 e5 bd 27 6a 11 3d
       0.08449303 0.093744844 -0.11222648 0.035501625
0003c0 05 16 69 bd 11 df a4 3d 63 17 d9 3d a1 e3 64 bd
       -0.056905765 0.08050359 0.10600164 -0.055881146
0003d0 9b d4 a3 3d 60 26 d0 3d ed d2 bf 3d a3 1d ca bd
       0.07999536 0.101635695 0.09366403 -0.09868934
0003e0 52 9d a9 ba d3 6b fc 3d 58 94 35 3a fa 32 f0 3d
       -0.0012940562 0.12325253 0.0006926707 0.11728473
0003f0 df e1 f0 bb c7 d5 c6 bd 7a 43 93 3d 3b bb 31 3d
       -0.0073511447 -0.097087435 0.071906045 0.043391448

encoder.conv2.bias f4 [54]
000000 fe 31 99 3d 95 e5 ed 3d 7a 06 a2 bd d8 6f b4 bd
       0.074802384 0.11616055 -0.079113916 -0.08810395
000010 2e d8 b4 bb 4a 3b f0 3d 36 0c b9 bc 6c 29 0f be
       -0.0055189347 0.117300585 -0.02258883 -0.13980645
000020 0e c2 54 bd 70 ff 95 bd c0 c0 b4 3d f1 5b ae bd
       -0.051942877 -0.073241115 0.08825827 -0.0851363
000030 4b 00 db 3d 21 97 69 3d 0b b8 86 bc 8b f9 15 bd
       0.10693415 0.057028893 -0.01644518 -0.036614936
000040 3e 0f 88 3d 13 6f 98 bd 44 9d 78 bd 00 29 ef 3d
       0.06643532 -0.07443061 -0.060696855 0.11677742
000050 c3 19 72 bd 0e e2 a1 3c 91 05 d9 3d 8c e8 c8 bd
       -0.0591066 0.019761112 0.10596765 -0.0980998
000060 8e 1a 00 3d 54 f4 48 ba 41 95 93 bd 3a c6 00 3e
       0.031275325 -0.0007665802 -0.07206202 0.12575617
000070 53 02 be 3d 24 35 0a bc 8e e5 ef bc 6d 6a c5 3d
       0.09277787 -0.008435521 -0.029284265 0.0963944
000080 7b 75 27 bd 58 3b 8a 3d 3e c4 a5 bd 99 9e bf bd
       -0.040883522 0.067496 -0.08094071 -0.09356422
000090 f2 e5 c3 3d 81 43 b2 3d ee bd d5 bd f6 d3 2c bd
       0.09565343 0.087042816 -0.10436617 -0.04219433
0000a0 14 35 95 3d 8d 3f a9 3d 2a c9 85 3d ec 4f b8 3d
       0.072855145 0.082640745 0.065325096 0.08999619
0000b0 80 45 7a bd a2 c4 0a 3d c2 17 d7 3d 7c ca e3 bd
       -0.061101437 0.03387893 0.10502578 -0.11122605
0000c0 8e df 9e 3d 0b 00 b6 3c 71 b2 5a bc 6f a8 06 3e
       0.077574834 0.022216817 -0.013348208 0.1315019
0000d0 c6 9c 68 bd a0 d4 45 bd
       -0.056790136 -0.048298478

encoder.rnn.weight_ih_l0 f4 [192, 54]
000000 6b d0 c6 bd c1 54 ce 3d e3 32 c7 bd fd ea e3 3d
       -0.09707721 0.10074759 -0.09726503 0.11128805
000010 5d dd b7 bd e0 f7 89 3d 71 52 87 bd 6a 1d db 3d
       -0.089777686 0.067367315 -0.06607521 0.1069897
000020 51 e5 a2 bd f9 4c 9d bd 64 44 21 bd 3d 67 c6 bd
       -0.07953895 -0.07680697 -0.039371863 -0.0968766
000030 76 b7 fb 3d d9 3e 51 3d 73 f1 8d bd 82 02 c9 bd
       0.12290852 0.051085327 -0.069308184 -0.098149315
000040 f2 f3 39 bd 13 72 ad 3c 90 55 52 bd 55 0d 8b 3d
       -0.04539866 0.021172559 -0.05135113 0.06789652
000050 f1 e7 6b bd 0e 38 2b 3d 51 cb b0 3d a8 3d a0 bd
       -0.057594243 0.041801505 0.086325295 -0.0782426
000060 8a e6 bb bd 43 80 fc bd 18 bd e4 3c c3 ff d2 3d
       -0.09174831 -0.123291515 0.027922198 0.10302689
000070 c7 c3 ab bd c2 80 59 bc 08 9f 98 3d 24 9c cf 3d
       -0.08386951 -0.013275327 0.07452208 0.10137203
000080 3b 75 95 3d 75 e2 12 3d 10 15 d4 3c f0 e6 5b 3c
       0.072977506 0.035860498 0.02588895 0.013421759
000090 31 79 e8 3d 7b 3e 81 b9 0b 7c 57 3d fd 9c 54 bc
       0.113512404 -0.0002465135 0.05260853 -0.012976882
0000a0 21 26 c2 3d 3b b8 fa bd fd a6 33 bd 8f 1c fe bd
       0.09479929 -0.122421704 -0.043860424 -0.12407791
0000b0 27 6e fc 3c 2b 5a d9 bc b5 ab dc bd 2d 36 c9 bd
       0.030814243 -0.026532253 -0.10774938 -0.09824786
0000c0 75 7e 03 3d 53 65 b7 3d d2 b4 d1 3d 49 20 a8 3d
       0.03210302 0.08954873 0.10239567 0.08209283
0000d0 e0 d6 c5 bd 1a eb cb 3d 34 d7 f4 3d 09 fc cb 3c
       -0.09660125 0.099569514 0.11955109 0.024900453
0000e0 69 3f 3e be 23 7e c8 bd be 45 3e be 6b 77 cc 3c
       -0.18578877 -0.09789684 -0.18581292 0.024959287
0000f0 45 34 00 3e ee c4 dc 3d d5 46 85 bd a9 55 87 bd
       0.12519939 0.10779749 -0.06507651 -0.06608135
000100 a3 40 5c 3d 2f 97 ab bd 10 84 d4 bc c3 28 5e 3c
       0.05377258 -0.08378445 -0.025941879 0.013559523
000110 90 e2 a6 bd 53 5a 64 3d f4 a6 ee bb f5 ee d0 3d
       -0.08148682 0.055750202 -0.007283086 0.102018274
000120 91 82 e9 bd 6a a1 02 3e 83 f4 c9 3d 1c 08 01 be
       -0.11401857 0.12756887 0.0986109 -0.1260075
000130 bc d8 48 3d 05 55 9c 3c d3 52 4a 3d a6 73 ee 3d
       0.04903482 0.01908351 0.049395394 0.11643152
000140 95 4f b3 bd c7 b7 88 bd 31 7f a0 bd 34 01 41 3d
       -0.087554134 -0.06675678 -0.0783676 0.047120288
000150 fc 05 a4 bd 7e b7 ad bd 63 f2 c6 3d 83 5d 9e 3d
       -0.08008954 -0.08482264 0.097142 0.0773268
000160 a1 c9 a5 3d 08 8b cc 3d 66 00 f1 bd 66 f0 a1 bc
       0.08095098 0.099874556 -0.11767654 -0.019767951
000170 5c 4f 6f bc 29 e5 01 3e ec 9b 05 bc cd 05 92 bd
       -0.014606323 0.12685074 -0.00815485 -0.07130013
000180 99 0b 9d 3d bd 24 8c 3d 8f f7 ba bd 06 c2 4a be
       0.07668228 0.06842945 -0.09129249 -0.19800577
000190 0e 6d 66 bd 0a 25 90 3d a8 40 0b 3e 6d 58 82 3d
       -0.056256346 0.07038315 0.13598883 0.06364522
0001a0 fd 99 8f 3d b6 09 65 3d f5 8b 33 bd 44 52 b2 bc
       0.07011793 0.055917464 -0.043834645 -0.021767743
0001b0 7c 76 86 3d 3b 17 b7 bb 5b c6 41 bd 7f 54 07 bd
       0.06565568 -0.005587486 -0.047308307 -0.033039566
0001c0 ff dc ed 3d 30 97 a7 3c df fd 3e bd b5 92 c1 bd
       0.11614417 0.020457834 -0.04662883 -0.0945181
0001d0 e7 37 23 bd ba 1f 18 bd e0 42 8d 3d 51 ac f0 3d
       -0.039848235 -0.03713963 0.06897521 0.11751617
0001e0 44 d1 20 bd 52 64 ec 3d e6 a6 c9 bd 03 5f 66 bd
       -0.03926207 0.11542572 -0.098462865 -0.056242954
0001f0 3b 71 55 3c 74 04 5a be d0 ad a9 bd d3 c4 1a bd
       0.0130274845 -0.21290761 -0.08285105 -0.037785362
000200 e8 9e a6 bd d7 dc d2 3d 6e 66 15 bd 44 b8 94 bd
       -0.08135778 0.10296028 -0.036474638 -0.072617084
000210 1d d6 88 bd 14 04 c6 3d c1 12 92 3d 97 a8 92 bd
       -0.06681464 0.096687466 0.07132483 -0.07161062
000220 d0 82 04 be e1 e7 57 bd 3b 0a 9f 3d 1d 77 99 3d
       -0.12940526 -0.05271137 0.07765623 0.07493422
000230 f5 fd 8b 3d 1e 85 36 3d 11 ec a0 3d 95 ad f5 3d
       0.06835548 0.044560544 0.07857526 0.11995999
000240 57 8b 92 bd c0 28 74 3d 72 fc 82 3d 2a 7b ec 3b
       -0.07155483 0.059609175 0.06395806 0.0072168307
000250 4a 98 da 3d a3 f9 ca bd 20 f6 cc bd 13 eb 5c bd
       0.10673578 -0.09910896 -0.10007882 -0.05393512
000260 ed 97 aa bd e9 17 f7 3c c8 02 e8 3c 94 24 1e 3c
       -0.08329759 0.030162768 0.028321639 0.009652276
000270 65 5a c2 bc 9f 1c 86 3c 43 3a 1b be d6 b3 ae bd
       -0.023724744 0.01637107 -0.15158944 -0.08530395
000280 73 7a ac bd cb da cd 3d cf aa ee bd 09 8f 7c 3d
       -0.08421793 0.10051497 -0.11653673 0.061659846
000290 94 a6 6a 3d c6 3b 23 bd 30 c2 db bc 9a de cf 3d
       0.057287768 -0.039851926 -0.026825994 0.1014988
0002a0 89 dc cf bd dc 4e fb bd 96 75 6f bc b1 dd 81 bc
       -0.101494856 -0.122709006 -0.014615437 -0.015852781
0002b0 7f a9 32 bd 43 00 d9 3b a7 1b 7e 3d cd f1 76 3d
       -0.043618675 0.0066223457 0.06203809 0.060289193
0002c0 fe 17 d5 3c a5 5e b2 3d 98 27 71 bd 81 72 7a 3b
       0.026012417 0.08709458 -0.05887565 0.0038215222
0002d0 21 b8 17 3d 6e 7e 40 3d e6 2f fa bc e2 2c db 3d
       0.037040833 0.046995573 -0.030540418 0.1070192
0002e0 f5 7e ba bd c8 b5 29 bd d8 94 ea bd 70 bd 99 3c
       -0.091062464 -0.041433126 -0.11454171 0.018767089
0002f0 9e 2f d6 bd c5 51 e3 3d 9a 04 ae bd 4b 45 a9 3c
       -0.10458301 0.11099581 -0.084969714 0.020662924
000300 4d 68 e7 3d e9 1b ed 3d 18 df 2b 3d a1 fa 40 3d
       0.11299191 0.11577589 0.041960806 0.04711402
000310 20 23 f6 3c f0 81 9b 3d d4 51 16 bb 6d 8d bf bd
       0.030046046 0.07593143 -0.0022936957 -0.09353147
000320 a3 04 f0 3d 93 98 c7 bd fe 51 09 3e e0 2d 45 bc
       0.117196344 -0.09745898 0.13410184 -0.012034863
000330 16 14 54 3d 02 ea 52 bb 5c c2 68 3d c8 96 92 3d
       0.051776968 -0.0032182937 0.05682598 0.071576655
000340 c8 5f eb bd 9f f0 a8 3d 55 32 1e bd fe f4 ef bd
       -0.11492878 0.0824902 -0.03862222 -0.117166504
000350 08 f1 da bd 27 b7 81 3c 87 c9 c7 3d 27 fb ff bd
       -0.10690504 0.015834404 0.09755235 -0.124990754
000360 42 5f de 3c 93 3f 78 3d 3a b8 e0 bd 49 e9 17 3d
       0.027145032 0.060607504 -0.109726384 0.037087712
000370 db 32 13 be 13 d3 64 3c 86 1a d2 bc 8f a4 1b 3e
       -0.14374869 0.01396634 -0.025647413 0.15199493
000380 38 2c ef bd 48 a0 5c 3d b2 18 cb bc 6c c6 ce 3c
       -0.11678356 0.053863794 -0.02479205 0.0252411
000390 71 09 91 bc b1 d5 17 be 60 6a 31 bd d5 a9 7e 3c
       -0.017704697 -0.1482761 -0.043314338 0.015543421
0003a0 d0 98 ee 3c 7c 5b be bd 19 fa 96 3d 97 23 06 bd
       0.029125601 -0.09294793 0.07371921 -0.032748785
0003b0 e5 a3 2f bd 8a a5 6c 3c 6d 64 19 3c 53 0a ea 3c
       -0.04288091 0.014443764 0.009362322 0.028569376
0003c0 62 78 29 3d 13 b8 1f bc ba a7 cb 3c 3d 7a 95 3d
       0.04137457 -0.009748477 0.024860252 0.07298706
0003d0 6e 08 35 3d 73 df 86 3d ab 92 8a 3d 73 85 36 3d
       0.044197492 0.06585588 0.06766256 0.04456086
0003e0 d4 f2 78 3d cf 40 a1 3d 1b 2d 2d 3d 50 22 83 3d
       0.060778454 0.078736894 0.042279344 0.06403029
0003f0 6b ac 1e 3d 5e e3 f7 3c 2d 1a 8a 3c 6f 27 0e bd
       0.03873865 0.030259784 0.016858185 -0.034705576

encoder.rnn.weight_hh_l0 f4 [192, 64]
000000 d5 51 e1 bd 8e d3 f2 3d 28 ee a7 bd 64 55 f4 3d
       -0.11001936 0.11856757 -0.081997216 0.119303495
000010 b9 3a 70 bb aa 23 5f bb 3c 52 8f 3d 07 a4 63 bd
       -0.0036656095 -0.0034048357 0.06998107 -0.05557635
000020 0c 2e 83 3b 02 fa 4d bd a9 a4 ba bd b5 7a a9 3d
       0.004003292 -0.050287254 -0.09113438 0.08275358
000030 fa 69 b3 3d 52 39 77 3d 20 06 f2 3d 0b ed 6e 3d
       0.08760448 0.0603574 0.118175745 0.05833153
000040 9e a6 ce 3d 72 c8 03 bd bd 43 b6 3d 6f a2 14 3d
       0.100903735 -0.03217358 0.08899639 0.03628772
000050 8e 89 81 3b 79 a7 b5 3d 8f a0 d0 bd 46 61 0e bc
       0.0039531654 0.088698335 -0.10186874 -0.008690184
000060 b7 71 7e bd 0e 0a f7 3d 02 b7 9e bc ed cf 20 3d
       -0.062120166 0.12062465 -0.019374374 0.039260793
000070 da 0c bb 3d a2 ab 79 3d fd 2a 39 bd 94 6c e9 3b
       0.091333106 0.060954697 -0.045207012 0.007123539
000080 02 c3 aa 3d 30 00 48 bd e6 fe 11 3c c2 af b8 bd
       0.08337976 -0.048828304 0.00891087 -0.09017898
000090 0f b5 f2 3c 69 18 a9 3d 4b d7 97 3b dd 01 c5 3c
       0.029627351 0.08256609 0.004633819 0.02404874
0000a0 b7 e2 d0 3d 04 9a 05 3c 2c 7a 3a bd 7f 15 ce 3d
       0.101994924 0.008154396 -0.04552667 0.10062694
0000b0 a9 ca b2 bd 16 2b 6d 3d f4 ba 9d 3d d6 b0 10 3b
       -0.087300606 0.057902418 0.07701674 0.0022078059
0000c0 bf 88 fc bd 5a 74 56 3d 59 b6 b9 3d bf fa 13 bc
       -0.1233077 0.052357055 0.09067983 -0.0090319505
0000d0 6a f4 a3 3d 10 59 35 3d b9 dc bc 3c e8 ce f1 3d
       0.08005603 0.04427439 0.023054468 0.11807042
0000e0 4d 93 81 bd 72 fb 7d 3c 05 9f c9 bd 62 08 d7 3d
       -0.063269235 0.015501844 -0.09844784 0.10499646
0000f0 d8 5c 14 3d db bd eb 3d c0 a5 c1 bd 5a 8d e8 3d
       0.036221355 0.115108214 -0.094554424 0.11355086
000100 03 45 7d 3d f6 5a c1 3d 72 d1 76 bd 61 bb a8 bd
       0.061833393 0.094411775 -0.060258336 -0.08238865
000110 eb 33 f7 bc 80 45 cb 3d 93 75 32 3e 6c b5 08 3d
       -0.030176124 0.099253654 0.17427664 0.033376142
000120 16 ea 32 bc 30 fe 6c bb 24 fd 42 bc 36 e0 92 3c
       -0.010920068 -0.003616225 -0.011901174 0.017929178
000130 5d 8a 76 3d 9c 11 d4 bc eb c9 a6 bd 89 4a 54 ba
       0.060190547 -0.025887303 -0.081439815 -0.0008098265
000140 10 1d 82 3d 75 cb a9 bd 6a 9e fc 3d b9 1c 2c 3d
       0.063531995 -0.082907595 0.123349026 0.04201958
000150 6a e0 54 3d 4b df 6c 3d 57 30 3b 3d 60 e8 f6 3d
       0.05197183 0.057830136 0.045700397 0.12056041
000160 5c 33 8c bd d6 2f 12 3c f9 95 bc 3d 02 5d c6 bd
       -0.068457335 0.008922538 0.092082925 -0.096857086
000170 58 47 67 3d b4 8d ee bd 9f aa b7 bd 3d a1 91 bd
       0.056464523 -0.116481215 -0.0896809 -0.07110832
000180 83 fc b3 bd f3 ae c9 bd 31 81 ab 3d 8d 84 c7 bd
       -0.08788397 -0.09847822 0.08374251 -0.09742079
000190 fc 69 91 bd 91 5b dc bd 8f 65 0a bd e3 bf 3c bb
       -0.07100293 -0.107596524 -0.03378826 -0.0028800897
0001a0 36 32 71 3d c1 a7 9a bd 22 87 3a bc 1a 88 66 3d
       0.058885776 -0.07551528 -0.011384757 0.05628214
0001b0 29 8f a4 3d ed 3a e4 bb 14 1f 8c bd ba d0 83 3d
       0.08035118 -0.0069650323 -0.06841865 0.06436296
0001c0 5d 45 7f bc c4 84 e1 bd 6a fa 95 bc 22 b5 eb bc
       -0.015580502 -0.11011651 -0.018307883 -0.028772894
0001d0 69 9d 14 3d 31 60 e6 3d 68 ce ba 3d 18 ed b6 bd
       0.03628293 0.11248816 0.091214 -0.08931941
0001e0 b0 25 f2 3d 22 73 75 3d 8c 03 de 3c cc 7f aa bd
       0.118235946 0.059924252 0.0271013 -0.083251566
0001f0 81 ab 21 bc 18 db e1 3c ba aa 46 bc eb 98 a2 3d
       -0.00986755 0.027570292 -0.012125665 0.07939323
000200 81 5a 90 3d 33 62 9a bd 19 95 ec 3d ff ed a8 3c
       0.07048512 -0.07538261 0.115518756 0.020621298
000210 0d 85 f9 3b 94 e0 dd bc 5e 9c 58 3d 41 c7 f0 3c
       0.007614738 -0.027084626 0.0528835 0.029391887
000220 a6 86 f9 bc 1f 07 7d 3b 1b c2 29 bd 14 8c 0d 3e
       -0.030459713 0.003860898 -0.04144488 0.13822967
000230 89 f7 75 bd 2e 5d b2 bd 99 17 01 3e e3 d0 85 3d
       -0.06005052 -0.08709179 0.12606658 0.065339826
000240 91 cf ef bd 55 8c e5 3d f9 25 03 be f0 fb 23 bd
       -0.11709512 0.11208407 -0.12807454 -0.04003519
000250 94 5b 39 bd 0e 04 9f 3b 0e 10 f3 bc fa ac 5d bd
       -0.04525335 0.0048527783 -0.029670741 -0.05412004
000260 60 38 eb bd c6 61 96 bd bf e9 a0 3d 72 b8 43 3d
       -0.11485362 -0.073428676 0.078570835 0.047783323
000270 73 62 05 3d 0b 51 0d bd 31 3d e8 3c 42 dd 8a bc
       0.03256459 -0.034501117 0.02834949 -0.016951207
000280 33 f7 4a bd 18 6f 02 3e 34 d6 30 bb c1 40 8a bc
       -0.049552154 0.12737691 -0.0026983144 -0.01687658
000290 ac 5a 3f bb 1f 25 40 3d 86 3e fc bd 9e f5 57 3d
       -0.0029198332 0.0469104 -0.12316613 0.052724473
0002a0 98 73 f0 ba fc 8f 30 bd 68 85 24 bd d8 cd ca bb
       -0.0018344996 -0.043106064 -0.04016629 -0.0061890893
0002b0 5d c7 1b be 77 bb 81 3d fa f2 cc 3c 2e 9b 88 bd
       -0.1521277 0.06334584 0.025018204 -0.06670223
0002c0 8a b7 ae 3d 7e ee a0 bd 49 3f f4 3d 35 a5 52 bd
       0.08531101 -0.07857989 0.11926133 -0.051427085
0002d0 db 32 f9 3c 3e 0f d9 3c f4 17 ca bc 9e 17 bf bd
       0.030419758 0.026496526 -0.024669625 -0.093306765
0002e0 ec e3 aa 3d d4 a5 d1 3c 1a a0 bc bd 3a 7f 12 bd
       0.08344254 0.025591768 -0.092102244 -0.035765864
0002f0 61 6c 2e 3d a2 a1 b1 bd 70 6e 36 3d 61 cb aa 3d
       0.042583827 -0.08673407 0.044538915 0.08339573
000300 66 1a 00 be cb 4f 3c 3c 61 6b 87 bd ea 87 dd bd
       -0.1251007 0.0114936335 -0.06612278 -0.10816939
000310 f4 15 e1 3d 6b c4 9a 3d 64 58 0b 3e 86 09 0c 3e
       0.10990515 0.07556995 0.13607937 0.13675508
000320 32 12 89 bd b2 4e 4f bd 95 ac a5 3b 10 a6 68 3d
       -0.066929236 -0.05061216 0.005055974 0.056798995
000330 6c 75 3d 3c da c7 9d bb 34 e9 00 3e 12 28 42 bd
       0.01156364 -0.004815084 0.1258896 -0.047401495
000340 90 c2 5c 3d 3e c0 5b 3d 26 58 75 bd 32 8f 93 3d
       0.053896487 0.053650133 -0.059898518 0.07205047
000350 af 0b af 3d 56 ca a4 bc 99 88 db bd 36 e3 ab 3d
       0.0854715 -0.020116013 -0.10719413 0.083929464
000360 8a 64 8a 3d 8d 17 81 3d c9 a2 cc 3c 9b 30 89 3d
       0.067574576 0.0630332 0.024979966 0.06698724
000370 0b 25 26 3d e8 5d 4a bd 3c 21 bf bd e8 ba 2c bd
       0.04056267 -0.049405962 -0.09332511 -0.042170435
000380 a5 53 23 3d 34 04 62 bd 64 f1 c2 3d ca 06 98 bd
       0.03987469 -0.05517979 0.09518698 -0.0742317
000390 52 31 d7 bd bb cc a6 3d 98 1f a3 bd b7 3d 22 3d
       -0.10507454 0.08144518 -0.079650104 0.039609637
0003a0 8e 71 e5 3d 98 22 df 3b ed 58 a9 3d d7 92 2a bd
       0.112032995 0.006809544 0.08268914 -0.041643944
0003b0 8f cc e7 bd e2 02 9f bd 51 60 06 bd 1a 10 ad bd
       -0.11318313 -0.07764222 -0.0328067 -0.08450337
0003c0 fc fe a1 bd 12 6d 45 3d 50 f3 57 3e 52 02 94 3d
       -0.079099625 0.04819972 0.2108891 0.07227005
0003d0 f4 6c 5b 3d 06 e3 b4 bd 59 24 94 bc e2 12 1f 3d
       0.053570703 -0.08832364 -0.018083738 0.038836367
0003e0 97 a9 ff 3d 7b 4b 5b bd a1 f4 b3 3d b4 0b 95 3d
       0.124835186 -0.05353878 0.08786894 0.07277623
0003f0 49 92 a8 bc 4b b3 f5 bd 2f 66 85 3d c8 9a 9c 3d
       -0.020577567 -0.11997088 0.065136306 0.0764671

encoder.rnn.bias_ih_l0 f4 [192]
000000 6b 1a f4 3d f5 a9 ba bd c8 21 cf bd 0d 0a 14 3b
       0.11919101 -0.09114448 -0.10113865 0.0022588999
000010 57 a1 d8 3c ee ff b1 bc 78 c3 64 bd 93 a1 94 3c
       0.02644412 -0.021728482 -0.055850476 0.01814345
000020 ee 00 05 bb 4b dd 64 bd fc f0 05 3d 81 0e 87 bd
       -0.0020294744 -0.055875104 0.032700524 -0.06594563
000030 e3 6c 0d be dc 63 dd bd fb 0f 26 3d b5 d2 d1 bd
       -0.13811068 -0.10810062 0.040542584 -0.10245267
000040 22 ac e2 bd 9c 64 2c bd 56 72 a8 3d d3 cd 94 3d
       -0.11067988 -0.042088136 0.08224933 0.0726582
000050 4d c7 b1 3d 51 a6 e9 bd 6c 77 ae bd bc 13 93 3d
       0.08680592 -0.114086755 -0.08518872 0.071814984
000060 37 90 2a 3e 28 bb 91 bc a2 92 ed bd da ac fa 3d
       0.16656576 -0.017789438 -0.116002336 0.1224
000070 83 f7 87 3d 8d 7a c6 3d f8 f4 21 3d ab b2 4b 3d
       0.06639006 0.096913435 0.03954026 0.049730938
000080 ca 92 31 bc cb eb 66 3d 97 1f 97 3c a6 c0 69 bd
       -0.01083822 0.056377213 0.01844768 -0.05706849
000090 cf 44 66 bd ac c7 1d bd 99 e5 8f bc 95 7f b5 3d
       -0.056217965 -0.0385205 -0.017565535 0.08862225
0000a0 b1 11 a8 3d 7c 74 a4 bc 7c 26 d5 bc 85 78 73 bc
       0.08206499 -0.020075075 -0.026019327 -0.014860277
0000b0 41 98 00 3e bf e3 e7 3d bb 02 c2 3c 2f 88 1c bc
       0.1255808 0.11322736 0.023682943 -0.009553953
0000c0 25 75 ba 3d ad b3 bb bd 66 d2 af bd e0 51 8a 3d
       0.09104375 -0.0916513 -0.08585052 0.06753898
0000d0 00 9c ee 3d 13 df 26 bc a3 ae db bd 2e f0 ba 3d
       0.116508484 -0.010185021 -0.10726669 0.09127842
0000e0 a9 60 5d 3d e2 ae a3 bb ff dc fa 3d f2 f5 e8 bd
       0.05404726 -0.004995213 0.12249183 -0.11375035
0000f0 ca af 6b bc fa 86 9c 3d 89 65 b2 bd eb 03 af bd
       -0.014385173 0.07642932 -0.087107725 -0.08545669
000100 9b 77 bb 3c 0c 12 b7 3d cc 78 5a be 86 84 57 3d
       0.02288418 0.08938989 -0.21335143 0.05261662
000110 c9 a7 f9 bd 90 6c bc bd 9b 27 76 3e b6 41 cb 3d
       -0.121902056 -0.09200394 0.24038546 0.09924643
000120 35 61 bf bc 4c b2 47 bb f6 3d f5 bd 34 6f c3 3d
       -0.023361782 -0.0030471263 -0.11974709 0.09542695
000130 c1 d1 ab 3d a4 87 9c 3d 7b d6 88 39 b9 08 66 be
       0.08389617 0.07643059 0.00026099742 -0.22464265
000140 19 2f b9 bd 3b 7b 16 be c6 82 86 bd 2f 1c 79 bb
       -0.09042186 -0.14695446 -0.06567912 -0.0038011183
000150 2d 40 8c bb b0 d1 bd bd ad 22 7e 3d 89 28 49 3d
       -0.0042801113 -0.0926851 0.06204479 0.049110923
000160 29 54 18 bd 15 b4 6d bd e3 c4 ab 3c b8 9a c5 bc
       -0.037189636 -0.058033068 0.020967906 -0.024121627
000170 f5 d1 94 bd 18 04 9d 3c 05 01 8c 39 6e 87 0f be
       -0.072666086 0.019166991 0.0002670364 -0.14016506
000180 84 00 58 be 85 73 36 3d 61 8a 3e be 7a 6d 42 bd
       -0.21093947 0.04454376 -0.18607475 -0.047467686
000190 71 e6 51 3d 6c c3 5a 3d af 00 7c bc c8 05 49 bd
       0.051245157 0.053409025 -0.015381022 -0.04907778
0001a0 51 8a a2 bd ce b1 2b bd 26 9a 1b be a7 79 3e be
       -0.07936538 -0.041917615 -0.15195522 -0.18601094
0001b0 ff 4f 93 bd 69 4f de bd 26 da 6e 3d 3f 55 d5 bd
       -0.071929924 -0.1085499 0.05831351 -0.1041665
0001c0 d2 a5 08 be 9d 8d 30 bc 6e 22 eb 3d 83 a8 81 bd
       -0.13344505 -0.010775951 0.11481176 -0.06330969
0001d0 4e 82 8b bd 73 54 2e be 4e d1 1d be 0a e2 4d 3c
       -0.06811963 -0.17024402 -0.15411875 0.012566099
0001e0 63 2a 03 3e 5f 13 09 3d ab af 90 3c 48 19 0e 3d
       0.12809138 0.03346574 0.01766189 0.03469208
0001f0 ea e2 27 be 0c 7c a5 bd 71 c0 f4 bd 20 95 14 bd
       -0.16395155 -0.08080301 -0.11950768 -0.03627503
000200 62 9c 93 3d 88 11 b3 bd 59 35 09 be 47 f9 ae bc
       0.07207562 -0.08743578 -0.13399257 -0.0213591
000210 e1 a5 56 bd f6 9c dc bd 97 c2 99 bd 93 35 43 bc
       -0.05240429 -0.107721254 -0.07507818 -0.011914629
000220 4e 36 86 bd 57 67 a6 3d 7e 7f 0d bd 3f 20 b1 bc
       -0.065533265 0.08125179 -0.034545414 -0.021621821
000230 5c 52 73 3d 51 69 e6 bd 57 71 0f 3d 64 63 f5 bc
       0.059404716 -0.11250556 0.0350202 -0.02995462
000240 64 b0 bf 3d 76 40 7d 3c 2b 4a 45 bd 6c e8 b6 bd
       0.09359816 0.015457263 -0.048166435 -0.0893105
000250 65 86 a8 bd 56 e1 88 bd c9 91 d7 3d 54 52 d5 3d
       -0.08228759 -0.066836044 0.10525853 0.104160935
000260 a8 6e d9 3d 57 54 5b bd d0 ef 32 3d 5f e6 af bd
       0.10616809 -0.05354723 0.043685734 -0.08588862
000270 7f 4e c7 bc ba 9b e6 3d 65 d9 9a bd fd 56 07 be
       -0.024329422 0.11260171 -0.07560996 -0.13216777
000280 7f 83 7f bb af ff ed 3c b7 95 bb 3d d9 14 5c 3d
       -0.003898829 0.029052584 0.09159415 0.05373082
000290 70 20 d1 3c 4b 13 fa 3d 0b d0 da 3d 37 b5 89 bd
       0.025528163 0.12210711 0.10684212 -0.06724017
0002a0 8c 5a f5 bd 51 b5 f1 bd 3c b3 db 3c 80 de 2f 3d
       -0.11980161 -0.118021615 0.026818864 0.042936802
0002b0 2f 33 08 bd cd a4 d2 3d 9a b1 01 3d a0 b6 9d 3c
       -0.033251937 0.102853395 0.031663515 0.019252121
0002c0 73 8e 48 bc ec 16 ae 3d 11 ca 2e 3d 33 91 b9 bd
       -0.012240994 0.08500466 0.042673174 -0.09060898
0002d0 a5 96 24 bd a7 d5 3d 3d 8b 41 2b 3d ff ed c9 bc
       -0.04018273 0.046346333 0.041810554 -0.024649618
0002e0 46 1e f6 3d d6 ff cf 3d 63 5c 80 bd 33 0a df 3d
       0.12017493 0.10156219 -0.06267621 0.10890617
0002f0 7b 2a b9 3d 26 29 ac 3d 07 66 0b bd 5e f0 8b 3d
       0.09041306 0.08406286 -0.034032848 0.06832956

encoder.rnn.bias_hh_l0 f4 [192]
000000 39 f6 98 bd 4b b3 99 3d 82 3b 4e bc b0 cf 8c 3d
       -0.07468838 0.075049005 -0.01258743 0.06875551
000010 ad 93 a4 3d 53 70 16 3d 3d d4 0f 3d 87 a6 5e bd
       0.080359794 0.036728214 0.035114516 -0.05435803
000020 29 c2 b1 bd f8 48 e1 bd 3a 46 4a bd a7 a0 db bd
       -0.08679611 -0.11000246 -0.04938338 -0.107240014
000030 53 96 5e bd 62 43 03 bc c5 a5 f9 bd 07 39 d8 3d
       -0.05434258 -0.008011671 -0.12189821 0.10557752
000040 ac e0 5f bb 57 b2 9b 3d 6c 90 e3 bd d0 e2 8d 3d
       -0.0034161014 0.07602375 -0.11111531 0.06928027
000050 28 ed b3 bd cf 7a 0b 3b 3f cf c2 3d e4 f7 e3 3d
       -0.08785468 0.0021282916 0.09512185 0.11131266
000060 c1 57 83 bd 18 c6 7e bd 03 f8 54 bd db 87 3f 3d
       -0.06413222 -0.062200636 -0.051994335 0.04676042
000070 5c 80 bf bd 59 dc b8 3d d1 16 ca bd 98 31 78 39
       -0.093506545 0.09026403 -0.09867633 0.00023669598
000080 62 78 1c 3c 6d b0 c7 bd c4 10 09 bd b9 c4 ac bd
       0.009550186 -0.097504474 -0.033463255 -0.08435959
000090 0b e9 9f bd 1a 8a 0c be 7c c3 d7 3c 9e cd 33 bd
       -0.07808121 -0.13724557 0.026338331 -0.043897264
0000a0 e4 7d ca bc 61 c3 64 3d d2 fc af 3d 45 69 67 3d
       -0.024718232 0.05585039 0.085931435 0.056496877
0000b0 c3 f7 e8 3c 9c 52 e2 3d fb 35 40 bc fd 57 d3 3d
       0.028438454 0.11050913 -0.01173162 0.10319517
0000c0 e9 d5 51 bd b9 99 f5 bd 43 0b e4 bc 67 2c b6 bd
       -0.05122939 -0.11992211 -0.027837401 -0.08895188
0000d0 d5 20 b1 bd fc f6 b0 bd 78 e2 ad bc ca e1 7c 3c
       -0.0864884 -0.086408585 -0.021226153 0.015434692
0000e0 28 6e 0f bc dd 98 3c bd ad a5 d6 3d 37 d7 54 3d
       -0.008754291 -0.04604422 0.10480819 0.051963057
0000f0 c4 5d 92 bd c4 93 b1 bd f7 5b 00 bd db 8a 8d 3d
       -0.071467906 -0.08670762 -0.031337705 0.0691125
000100 cb a4 ff 3d a0 d8 a0 3d 00 e7 13 be b6 3a ef 3c
       0.12482604 0.07853818 -0.14443588 0.0292028
000110 14 22 0d be f8 f5 1f 3d 2c 71 84 3e 85 3e 8c 3d
       -0.13782531 0.039052933 0.25867593 0.06847862
000120 df 98 17 be 4d 3c 38 be cf ab 93 bd 3b 60 08 bd
       -0.1480441 -0.17991753 -0.07210504 -0.033294898
000130 33 d3 9c bd 62 c0 ac 3d bc d3 0e 3d de 78 de bd
       -0.076574706 0.084351316 0.034869894 -0.10862897
000140 44 8d b3 3d 8d 8e 09 be a5 f8 ad 3d ed a0 94 3d
       0.08767179 -0.13433285 0.08494691 0.07257257
000150 ef 1b d5 bd 1c ca ae bc 16 0b 85 3d 0b 0c b2 bc
       -0.104057185 -0.021336608 0.06496255 -0.021734258
000160 8e 1c 0d bc 4d 3e 00 be 6a fe 0c be 9a 43 5c 3d
       -0.008612765 -0.12523766 -0.13768926 0.053775407
000170 51 13 8f bd ab bb e5 bb 4f 59 08 be 54 32 fd bd
       -0.06986106 -0.007010897 -0.13315319 -0.12363115
000180 42 a8 ac 3b d7 9a 00 be 5a 88 7a bd e6 2b b8 bb
       0.0052690813 -0.12559067 -0.06116519 -0.0056204675
000190 c2 2d 08 be a4 b4 98 bd d3 f8 42 bd 31 22 e2 3d
       -0.13298705 -0.074563295 -0.04760058 0.11041678
0001a0 33 73 9d bd 82 e0 91 3d 0b dd 10 be ef a7 80 be
       -0.07687988 0.071228996 -0.14146821 -0.25128123
0001b0 01 b6 61 3d 6d d6 a0 bd a2 a0 32 3d 87 31 87 bd
       0.055105213 -0.078533985 0.043610223 -0.066012435
0001c0 2a fc 8d 3a 47 64 54 ba d6 1a 0a bd c5 32 2a be
       0.0010832597 -0.00081021007 -0.033717 -0.1662093
0001d0 29 79 a8 3d 50 d1 1a be a3 ed 36 bd 95 dc bc bd
       0.082262345 -0.15118909 -0.04466022 -0.0922176
0001e0 fe 1a 39 3e 16 f5 e0 bb 38 c2 68 bb b7 da e6 3a
       0.18076703 -0.006865154 -0.0035516154 0.001761279
0001f0 3b 41 92 bd 80 30 9e 3d 44 ff 6a 3d 4d d9 b9 bd
       -0.07141348 0.077240944 0.057372347 -0.0907465
000200 ff f9 f3 bc 20 88 80 bd 36 16 2f 3d 99 91 5e 3d
       -0.029782293 -0.06275964 0.04274579 0.05433807
000210 1d c0 f3 bd 5e d7 cd bd f5 e5 e0 bc e5 be 10 bb
       -0.11901877 -0.10050844 -0.027453402 -0.0022086438
000220 96 59 b3 3d 91 9f e9 3c 81 7f 96 3d 00 a4 b6 bd
       0.087573215 0.02851847 0.07348538 -0.08917999
000230 f4 01 af 3d 03 29 de 3d e8 10 88 3d f7 2c 8a 3a
       0.085452944 0.10847666 0.066438496 0.0010541965
000240 71 7a d2 3d 0e 7c 83 bb c6 bc 66 bc 5e 9e 90 bc
       0.1027726 -0.004012591 -0.014083093 -0.01765364
000250 c5 bb 1b 3d a6 89 12 3d 44 cb c7 3d c8 bd bf 3d
       0.038020868 0.035775803 0.09755567 0.0936237
000260 64 0f 3a 3d eb 62 cd 3c 1e 71 0e 3d b3 b0 ba 3d
       0.045424834 0.025071582 0.034775846 0.09115734
000270 b4 79 05 bd cc 23 ad 3d 1a 63 54 bd eb 2f 7c bd
       -0.03258677 0.08454093 -0.051852323 -0.061569136
000280 35 b1 2b 3d ba 9f 97 bd 4b 88 6f bd 20 c7 1a 3d
       0.041917045 -0.07403512 -0.05847959 0.037787557
000290 fb 03 bf b9 39 75 96 3d 70 ae 94 bd e9 de da bd
       -0.00036433325 0.07346577 -0.07259834 -0.10687048
0002a0 e5 db ab 3b 8d 7c 4a 3d 47 76 14 3c ee 35 a0 bd
       0.0052447193 0.049435187 0.009061403 -0.07822786
0002b0 88 59 a6 bd 65 21 73 3d 40 45 db 3c 40 81 94 3d
       -0.081225455 0.05935802 0.02676642 0.07251215
0002c0 36 1a 72 bd 4c 30 d2 3d b8 fe 7d bb 0c f1 fa 3c
       -0.059107028 0.10263118 -0.003875656 0.030632518
0002d0 30 8c ab bd f7 40 c9 bc e0 3f 07 bd c9 73 c5 bd
       -0.08376348 -0.02456711 -0.0330199 -0.09641225
0002e0 04 13 a1 3d 9d 76 28 3d d6 ea ac bd ab 8c 3e 3d
       0.07864955 0.041128743 -0.08443229 0.04652087
0002f0 72 d7 06 bd 99 dd fe bd e4 4f fd 3c 27 8b 5f bc
       -0.03292031 -0.1244461 0.030921884 -0.013644016

encoder.rnn.weight_ih_l1 f4 [192, 64]
000000 fe 43 b9 3d b5 92 18 3c 38 f1 96 bd b1 6a 42 bd
       0.090461716 0.009312321 -0.073702276 -0.04746503
000010 5f 52 71 3d 8d a7 ca bd 68 89 fa 3c 27 9b cd bd
       0.058916446 -0.09895239 0.030583099 -0.100393586
000020 1a 92 c9 bd 62 c8 1e bd f2 7c a3 3d 2a 9f 38 bd
       -0.0984232 -0.03876532 0.07982816 -0.045073666
000030 bf 1b b2 bd 4e 3a fa bc 55 77 bf bd 54 da 10 bd
       -0.086966984 -0.03054538 -0.09348933 -0.035364464
000040 53 27 e8 bd a8 8f 56 3d 93 c3 11 be 88 2b d1 bd
       -0.113356255 0.052383095 -0.14234762 -0.10213381
000050 f5 22 d4 bd ef 9c c6 bd e3 3d 34 3d 69 fe ab 3d
       -0.1035823 -0.096979015 0.044004332 0.08398134
000060 0d af c8 bd 09 1e 4b 3d b5 cb 02 be ac fe f7 bd
       -0.09799013 0.04958919 -0.1277302 -0.12109122
000070 2f 98 26 3d bb 00 8e bc 20 71 44 bd 6a 90 08 3d
       0.040672477 -0.017334333 -0.047959447 0.03334085
000080 c3 96 a6 3c 68 d2 f0 3d 70 0e b9 3c cd 38 50 bc
       0.02033556 0.11758882 0.022589892 -0.012708855
000090 81 7a a1 bd c5 c7 10 bd 9c 91 f9 bd 1c 28 6a bb
       -0.07884694 -0.035346765 -0.12185976 -0.0035729473
0000a0 86 59 4a bd 30 9c 90 bb 1e fa c2 bd 53 bb 43 3d
       -0.049401782 -0.0044131503 -0.09520362 0.04778607
0000b0 7e 25 20 3d e5 22 94 3a d2 7f 7e bd f5 a9 4f 3d
       0.039098255 0.0011301903 -0.062133618 0.050699193
0000c0 fa 2f a0 3d 92 e0 53 3d 9e 39 07 bc f3 d4 2a 3d
       0.07821651 0.05172784 -0.008253483 0.04170699
0000d0 b1 3a 96 bb 30 ca 6d bc 47 4e 58 bd d1 92 a0 bd
       -0.0045846333 -0.014513537 -0.052809026 -0.07840503
0000e0 80 22 9b 3d 31 0a 64 3d 8a 50 07 be ed 38 8d 3c
       0.0757494 0.05567378 -0.13214317 0.017239058
0000f0 3f 88 d5 bd 4d 72 0d 3e 76 1d 39 3c 1b b9 73 bd
       -0.104263775 0.13813134 0.011298528 -0.059502702
000100 c2 bf a0 bd 78 d9 67 3d 7e 42 8e bd 26 0c bd bb
       -0.07849075 0.05660388 -0.06946276 -0.0057692705
000110 67 80 e7 3d c6 31 61 bd bb ec 29 bd c5 35 4b 3d
       0.11303788 -0.05497911 -0.04148553 0.049611825
000120 bf 89 93 bb e1 6c a9 bd 75 b6 11 3d 56 8d a8 bd
       -0.0045025046 -0.0827272 0.035574395 -0.08230083
000130 c5 bf 9f bd c5 91 cb bd 2a f4 02 bd 61 26 7f bc
       -0.07800249 -0.09939913 -0.031971134 -0.015573115
000140 37 2d 33 bd 7b ad 53 bd 6f 08 2e bd 9c f2 f0 3c
       -0.043744292 -0.051679116 -0.04248851 0.02941256
000150 1a aa 12 3c fd 14 f8 bd c3 d5 dd bd 18 c1 d8 3d
       0.008951688 -0.12113378 -0.108317874 0.10583705
000160 de d8 42 3c 2c eb 4c 3d 4c 5f c1 3c 75 b6 e9 bd
       0.0118925255 0.050028965 0.023605011 -0.11411754
000170 a2 a7 f8 bd c2 8c 9c 3d aa 14 eb bc a4 b4 87 bd
       -0.121413484 0.07644035 -0.028696377 -0.06626251
000180 aa 5d ed bd 1c 6c 82 3d 96 2c 40 3c e0 03 da bd
       -0.115901306 0.063682765 0.01172938 -0.1064527
000190 fc c9 92 3c 5c fd 8f bd b6 e6 d3 bc f6 3d 9a bd
       0.01791858 -0.07030746 -0.025866847 -0.07531349
0001a0 22 c2 2e bd bd 45 08 bd ef 54 f5 bd 6d 38 c7 bd
       -0.04266561 -0.033269633 -0.119790904 -0.09727559
0001b0 5b ff 07 be f3 b0 de 3d b5 df 89 bd 90 42 be 3d
       -0.13281004 0.10873594 -0.06732122 0.092900395
0001c0 6b 6f e9 3d 4b d7 77 bd 30 c2 fd 3d 77 e1 f8 3b
       0.113982044 -0.060508054 0.12390554 0.007595237
0001d0 d5 72 4d bc e1 bf 8a 3d e0 bd ba 3d dc 4d f2 bc
       -0.012539585 0.06774879 0.09118247 -0.029578142
0001e0 f5 21 11 3e 74 76 8a bd 25 64 a8 3d 4b d9 ae 3d
       0.1417311 -0.067608744 0.08222226 0.08537539
0001f0 e1 d7 d3 3d d1 d6 c0 bc f9 c9 06 3e b9 7b 00 3e
       0.1034391 -0.023539932 0.13162984 0.12547196
000200 bc 21 b7 bd ee 96 e9 3d 88 42 ac bd 6e 01 09 3e
       -0.08941981 0.11405741 -0.08411127 0.13379452
000210 be 3b bf bd af ff a9 3c 87 5b ed bd 8d 94 4f 3d
       -0.09337567 0.020751802 -0.11589723 0.05067878
000220 b8 75 8f bd e1 ea 41 bd b5 25 23 bd 62 c4 e1 bd
       -0.07004875 -0.04734314 -0.039830882 -0.11023785
000230 e7 90 b1 bc da 61 40 bd 41 7d bd bd 8b db 1b bd
       -0.02167554 -0.04696832 -0.09252406 -0.03805117
000240 36 71 3b bd f7 7c fc 3d 94 cb 62 3d eb bf 5e bc
       -0.045762263 0.12328523 0.05536993 -0.0135955615
000250 5a b5 90 3b 26 72 4f 3d e2 12 c7 ba 33 e0 82 bd
       0.00441615 0.05064597 -0.0015188123 -0.06390419
000260 e8 cc d1 bd 08 2b a5 bd 60 6e 07 3d 63 02 f5 3a
       -0.10244161 -0.08064848 0.033064246 0.0018692728
000270 ea 32 ad bd b4 02 9a 3d 09 77 9b 3d 5a 4b a2 3c
       -0.08456977 0.07520047 0.075910635 0.019811321
000280 4f e6 b8 3d 55 9d b3 bd 62 67 a9 bd d6 44 4f 3d
       0.09028303 -0.08770243 -0.08271672 0.050602756
000290 66 5d d1 3d 38 12 89 3c 05 29 ad bd 2c 4b a3 bc
       0.102228925 0.01673232 -0.084550895 -0.019933306
0002a0 0f f3 8e bc b4 0a a9 bd f0 fc 30 bd bb 25 0b bd
       -0.017449884 -0.082539946 -0.04320997 -0.03397153
0002b0 58 b5 66 3c bc e9 04 bd b7 77 fc 3d 59 32 bc bd
       0.014081322 -0.03244947 0.12327521 -0.091892906
0002c0 f4 79 de 3c ed fd c8 3d ce 2f eb 39 5a 62 f3 bd
       0.027157761 0.098140575 0.0004485831 -0.118839934
0002d0 9c 35 5a 3c 6d d0 72 3d 26 ff a2 bd e1 d6 7b 3d
       0.0133184455 0.0592808 -0.07958822 0.06148422
0002e0 3c f6 ca ba 85 21 9d bd 36 22 d9 3c 33 bb 6c bd
       -0.001548476 -0.07672409 0.02650557 -0.057795715
0002f0 56 81 0c 3e 96 3b e7 bd 86 b0 b5 bd 53 3d 15 3c
       0.13721213 -0.11290662 -0.0887156 0.009108859
000300 97 5d 81 3c af c4 bd bc 58 c0 0c bd 66 66 8c bd
       0.015791697 -0.023165075 -0.03436312 -0.068554685
000310 b7 b3 b4 3d 3a 03 ee 3d d2 71 fd bd c4 a3 e2 bc
       0.088233404 0.11621709 -0.12375225 -0.02766598
000320 dd 35 be bd 55 95 f1 3d d5 e2 38 bd 67 94 9b bd
       -0.09287617 0.11796061 -0.0451382 -0.07596665
000330 fd 21 4a bd 26 e1 e9 3c 3f 00 1a 3d 2b 23 b2 bd
       -0.04934882 0.028549742 0.03759789 -0.08698114
000340 1f 2e b2 bc 8d db 82 3d 02 11 05 3d 6d 0d fa bd
       -0.021750508 0.06389532 0.032486923 -0.12209592
000350 a2 96 80 3d c3 97 03 3e 0f 50 ae 3c 44 7f 00 3e
       0.06278731 0.12850861 0.02127841 0.12548548
000360 8e 64 00 3e a3 35 b1 bd a3 73 4f bd fe c8 eb 3d
       0.12538359 -0.086528085 -0.05064739 0.115129456
000370 ff 4e 28 bd 12 75 ed 3d c8 73 cd bd 66 93 be 3d
       -0.04109096 0.11594595 -0.10031849 0.09305458
000380 5c 87 cd 3c 82 8f ea bd c3 3c 09 be e4 83 d8 bd
       0.025088958 -0.11453153 -0.13402085 -0.10572031
000390 0a 15 cc 3d 6f 69 f6 3c d6 80 2d 3d f2 9e 4a bd
       0.099649504 0.030079572 0.042359196 -0.04946799
0003a0 c7 14 dc bd 71 fb bf 3d 05 dd 57 bd 4f bd 77 bc
       -0.107461505 0.093741305 -0.052701015 -0.015120818
0003b0 f3 69 2d bc 16 21 b2 3d f1 b4 49 3d 44 c0 9b bc
       -0.010584342 0.08697717 0.049244825 -0.019012578
0003c0 4c e2 00 3e e1 06 dd 3d 97 86 88 bc e5 12 c5 3d
       0.12586325 0.10792328 -0.01666574 0.096227445
0003d0 ea c9 2f bd 6c bf d3 bd fe 7e ec 3d 62 69 d9 3b
       -0.04291717 -0.10339245 0.11547659 0.006634877
0003e0 fb ed ad bc 56 4f a8 bd 9f 07 1c bd e2 ac 80 bd
       -0.021231642 -0.08218257 -0.038093206 -0.06282975
0003f0 fc 24 2e 3c e3 04 dd bd 10 c2 e6 3c 2f 55 9f 3c
       0.010628935 -0.10791948 0.028168708 0.019449798
