checkpoints/models/single_stock_daily/81to9/000001/model5.pth (torch, 292447 bytes, 16 tensors)

encoder.conv1.weight f4 [18, 6, 3]
-0.13677123 -0.08434774 -0.10902635 -0.008813693 0.16979745 0.050781067 -0.21554169 0.21622063
0.1894853 0.07185989 0.113485165 0.08770894 0.19081411 -0.22862168 -0.14721341 -0.033367947
-0.04822932 -0.15826717 -0.22871354 -0.18201776 -0.03875336 0.20220318 0.15924744 0.07007279
-0.1418739 -0.0910595 0.025586788 -0.2158236 -0.0072306935 0.05058256 0.21567348 -0.058437645
0.23393312 0.020489497 -0.1599402 0.225143 0.20922637 -0.18279143 -0.13291019 0.10752143
-0.15156862 0.15635255 -0.11888098 -0.08096635 -0.07279879 0.2188974 -0.08707455 -0.05051871
0.13672656 -0.1685149 -0.005756252 -0.2035108 -0.24057922 -0.07441757 0.024872007 0.19974244
-0.22661112 -0.06973348 0.059784904 0.08842255 0.1355166 -0.19206949 -0.05845402 0.05234727
-0.19144417 0.11798324 -0.22687626 0.14476398 0.0759883 -0.07624619 0.06667984 0.19234677
0.17330584 0.14348467 -0.13642725 0.07385397 0.1838945 0.0489348 0.16306685 -0.13825946
0.17392582 -0.0011265363 -0.20386381 -0.053136967 0.21495132 -0.07482927 -0.03297369 -0.07769082
-0.110710576 0.05908176 0.1424202 0.027249422 -0.014914503 0.011609404 -0.17907652 -0.12604392
0.009569405 -0.19092672 0.11470489 0.0337449 -6.326247e-06 -0.017124886 0.19697395 0.21270761
0.113166116 0.11114032 -0.12033708 0.09088598 -0.16291827 0.099336356 -0.16942006 0.0010852125
0.17391695 0.16035895 0.21137996 0.08409932 0.09597105 0.06605727 0.17569141 0.12804778
0.072161525 -0.07891834 -0.10998764 -0.050261285 0.12100185 -0.1189586 0.06776704 0.20852143
0.20142034 -0.17532316 0.06492835 0.15154009 -0.21631937 0.14793263 -0.14990409 -0.17258394
-0.10255303 -0.091630474 -0.0994224 0.0654153 0.088545375 0.08549255 0.1561822 -0.15600644
-0.22120424 -0.18688217 -0.12733074 -0.10910436 0.10194688 -0.1721071 -0.17389688 0.12432936
-0.15178086 0.042755917 -0.1815093 0.088232085 0.14578055 -0.2000913 0.07843416 -0.122254476
0.15051031 0.2130729 -0.19858353 0.087465286 0.15819168 0.21299356 0.17634962 0.04390015
0.012104299 0.046518307 -0.1433802 -0.047686502 -0.0055096764 -0.15183774 -0.012037945 -0.033264775
-0.08526288 -0.07547427 -0.23820506 0.22038886 0.11970389 0.17432158 -0.196547 -0.2262933
0.18013398 -0.037414577 0.041621346 0.12347138 0.019425336 -0.003066199 0.14519782 0.19252543
-0.061079144 -0.19623925 -0.12513691 0.18534333 0.037845932 0.2180503 -0.07863737 -0.21989426
0.07674418 -0.10249606 -0.14328152 0.14571823 0.014136515 -0.022698173 0.22814229 0.203107
-0.19509225 -0.21804458 -0.11872395 -0.18548256 -0.12523192 0.15707542 -0.1591912 0.21464935
0.067375146 0.00398596 0.034120493 0.04605817 0.073068626 -0.19396003 -0.006886229 0.1545124
0.23282903 -0.015629474 -0.17059135 0.106623024 -0.21875535 0.20790501 0.14318508 0.10782666
0.034696795 0.17395741 -0.09333569 -0.19470665 -0.12846972 0.17525764 -0.11826832 -0.18872012
0.051195018 -0.14718221 -0.011066487 -0.14992158 0.04914618 -0.039456487 0.030771092 0.10829373
-0.15273774 -0.08013261 -0.15725788 0.19590954 -0.079074435 0.092202365 0.058499347 -0.2385771
00000000: c20d 0cbe 82be acbd 3549 dfbd 4f67 10bc
00000010: 62df 2d3e cfff 4f3d f6b6 5cbe f168 5d3e
00000020: 6f08 423e 472b 933d e96a e83d bfa0 b33d
00000030: c664 433e cd1b 6abe 1dbf 16be d4ac 08bd
00000040: 1c8c 45bd ca10 22be e233 6abe dd62 3abe
00000050: d8bb 1ebd 5a0e 4f3e c311 233e 5382 8f3d
00000060: 6447 11be 677d babd 629b d13c dd00 5dbe
00000070: 74ef ecbb a92f 4f3d 82d9 5c3e 505c 6fbd
00000080: 2a8c 6f3e 97d9 a73c 5dc7 23be e38b 663e
00000090: 703f 563e ad2d 3bbe 9c19 08be 3234 dc3d
000000a0: ce34 1bbe e21a 203e df77 f3bd b0d1 a5bd
000000b0: 8817 95bd a426 603e 2454 b2bd b5ec 4ebd
000000c0: 0c02 0c3e 2c8f 2cbe f19e bcbb 2365 50be
000000d0: 665a 76be 3d68 98bd 61c0 cb3c 4889 4c3e
000000e0: bf0c 68be 6dd0 8ebd 04e1 743d e216 b53d
000000f0: ddc4 0a3e ddad 44be 7c6d 6fbd 176a 563d
00000100: f109 44be 32a1 f13d 4052 68be 023d 143e
00000110: c19f 9b3d f626 9cbd 718f 883d 8df6 443e
00000120: 1677 313e a5ed 123e 96b3 0bbe c040 973d
00000130: d74e 3c3e db6f 483d fffa 263e e393 0dbe
00000140: 9c19 323e 49a8 93ba adc1 50be 26a6 59bd
00000150: 331c 5c3e 1740 99bd 6c0f 07bd 5d1c 9fbd
00000160: 3abc e2bd b7ff 713d 9ad6 113e 2e3a df3c
00000170: f65b 74bc 5f35 3e3c d65f 37be a811 01be
00000180: fec8 1c3c 4b82 43be 66ea ea3d 1838 0a3d
00000190: 0c46 d4b6 7d49 8cbc 8ab3 493e 06d0 593e
000001a0: a3c3 e73d 899d e33d 4973 f6bd 6e22 ba3d
000001b0: 0cd4 26be dc70 cb3d 747c 2dbe b03d 8e3a
000001c0: 4917 323e 2335 243e fd73 583e 443c ac3d
000001d0: 788c c43d 0949 873d 73e8 333e f51e 033e
000001e0: 6cc9 933d f09f a1bd 3341 e1bd c7de 4dbd
000001f0: d1cf f73d 91a0 f3bd 72c9 8a3d a486 553e
00000200: 2241 4e3e ea87 33be 28f9 843d 532d 1b3e
00000210: d382 5dbe a77b 173e 7580 19be d8b9 30be
00000220: 5307 d2bd c2a8 bbbd f99d cbbd 75f8 853d
00000230: 4757 b53d b816 af3d 3aee 1f3e 27c0 1fbe
00000240: 5d83 62be 0a5e 3fbe fd62 02be 1b72 dfbd
00000250: 87c9 d03d d83c 30be 0612 32be 64a0 fe3d
00000260: 716c 1bbe d420 2f3d 93dd 39be 06b3 b43d
00000270: 7f47 153e bce4 4cbe 17a2 a03d 8e60 fabd
00000280: 601f 1a3e c82f 5a3e 7b59 4bbe 0021 b33d
00000290: 00fd 213e fc1a 5a3e ff94 343e a5d0 333d
000002a0: 1c51 463c fb89 3e3d 42d2 12be ec52 43bd
000002b0: 848a b4bb 5a7b 1bbe cd3a 45bc a540 08bd
000002c0: 4e9e aebd 4192 9abd 07ec 73be 9ead 613e
000002d0: 5027 f53d 5b81 323e 9e43 49be 6eb9 67be
000002e0: 0b75 383e 0740 19bd 257b 2a3d 90de fc3d
000002f0: e221 9f3c 48f2 48bb bdae 143e 6325 453e
00000300: 202e 7abd f1f2 48be e423 00be a4ca 3d3e
00000310: 5604 1b3d 9448 5f3e a10c a1bd f62b 61be
00000320: 0d2c 9d3d 74e9 d1bd 64b8 12be 2937 153e
00000330: d79c 673c 85f1 b9bc 229e 693e 48fb 4f3e
00000340: 43c6 47be 1447 5fbe 8b25 f3bd 24ef 3dbe
00000350: cc3c 00be 61d8 203e 0503 23be 0acd 5b3e
00000360: fbfb 893d a89c 823b eec1 0b3d 7ea7 3c3d
00000370: 01a5 953d 759d 46be e0a5 e1bb 8038 1e3e
00000380: bc6a 6e3e 6209 80bc 80af 2ebe 2c5d da3d
00000390: 6701 60be 0de5 543e 1c9f 123e 39d4 dc3d
000003a0: 3a1e 0e3d e421 323e c826 bfbd 2e61 47be
000003b0: 918d 03be bd76 333e a936 f2bd d93f 41be
000003c0: deb1 513d efb6 16be 3650 35bc 0b85 19be
000003d0: 814d 493d 209d 21bd a813 fc3c 1ac9 dd3d
000003e0: 4867 1cbe 911c a4bd 3608 21be 839c 483e
000003f0: c7f1 a1bd 98d4 bc3d 039d 6f3d 8e4d 74be

encoder.conv1.bias f4 [18]
0.20380452 0.056179214 -0.17272043 0.16571946 -0.036908697 0.015669005 0.02803017 -0.025269099
0.22531202 0.1017869 0.053658865 -0.08206504 0.048649155 -0.17005679 -0.07540657 0.1154573
-0.23093317 -0.0051947935
00000000: 22b2 503e 2d1c 663d a0dd 30be 5db2 293e
00000010: 932d 17bd 495c 803c 879f e53c 2401 cfbc
00000020: 32b8 663e a675 d03d 66c9 5b3d b711 a8bd
00000030: 5644 473d 5e23 2ebe c36e 9abd e074 ec3d
00000040: bf79 6cbe 1639 aabb

encoder.conv2.weight f4 [54, 18, 3]
-0.05061879 0.06894929 -0.08565028 0.013658526 -0.04822523 0.10432356 -0.021452796 -0.100447394
-0.043339316 0.097109646 0.053564843 0.030451043 0.08634122 0.05389894 -0.015887693 -0.071215145
-0.1294048 0.066372745 0.1039586 -0.054503024 -0.0636482 0.0287246 -0.00679533 0.11013557
-0.0037810497 -0.00532397 -0.12791264 0.04416559 0.0027913852 0.034684844 0.083682224 0.058278523
0.0005612955 -0.011630512 -0.06960627 0.12191532 0.11334298 -0.0004298734 0.13593018 0.11820402
0.076904155 0.06862593 0.053059563 -0.02419766 0.012912986 0.11206269 -0.021762716 0.043741785
-0.046095748 0.019801809 0.07655241 0.08457681 0.06670732 0.06474556 -0.041305944 0.11634021
0.089888245 0.123856045 -0.10761756 -0.059303757 -0.11086567 0.013606749 0.104544014 -0.09424951
0.03538064 -0.0034084313 -0.13563606 -0.013722754 -0.021833071 -0.06973804 -0.088096924 0.07844071
-0.024511779 -0.03576523 -0.042254116 -0.013000031 -0.03320369 -0.07981787 0.0675713 0.0065024844
-0.11636545 -0.073295705 -0.033703327 -0.05688965 0.031114237 0.12668408 -0.09698784 0.004182545
0.12462722 -0.07510531 -0.10965379 0.034364637 -0.0023276678 0.0023724556 0.08882954 -0.1137768
-0.07362766 0.1028553 -0.09023254 -0.021278553 0.060078885 -0.07606071 -0.10219658 -0.079168685
-0.09794426 -0.11253706 -0.019153586 -0.12508842 -0.08090668 0.011534259 0.12753601 0.13610289
0.11068622 0.012411508 0.0848581 -0.042234536 -0.08668651 0.06781807 0.052706994 0.047170956
0.06514957 -0.032322504 0.10102766 0.07438857 -0.059097957 0.09966327 0.05140391 0.0065649943
0.0022051176 0.115369104 0.00308159 0.04743083 0.097195536 0.0051095225 0.12235876 -0.079290226
-0.011945937 0.012025267 0.006558564 -0.099667296 0.12836252 -0.077489145 0.09673359 -0.05493305
0.05424641 -0.07540987 -0.06016603 0.035329018 0.09325306 -0.010949268 0.049994808 -0.076826006
0.04251879 -0.015235527 -0.03083209 0.06659406 -0.045836948 -0.0831219 -0.039047442 0.06770317
0.13035317 0.12391781 0.10423265 -0.075459085 0.12864833 0.07478163 0.035997942 -0.066812456
-0.07514821 0.032256685 -0.0135646565 -0.038336642 -0.104852654 0.11527791 0.049534194 0.025803251
0.018706236 0.07824283 -0.077199645 -0.0017821789 0.13440673 -0.006841752 -0.1050653 -0.0949285
0.070706055 0.05959622 0.08457612 -0.05833853 -0.07082993 -0.11909314 0.011545897 -0.028649949
0.13243465 -0.057258826 -0.08390719 0.04983052 -0.05629933 -0.01740527 0.14246823 0.09042637
-0.131154 0.0030592775 0.0011944307 0.13090907 -0.12458452 0.07514272 -0.13964038 -0.1308541
-0.066073895 -0.12798233 -0.007619666 0.11244286 -0.035761733 -0.11088375 -0.01886247 -0.11618454
0.090486296 0.018409591 0.120413765 0.034351993 0.038692 0.037217565 0.12682135 -0.084921286
-0.08382756 0.10569964 0.0513932 0.1265204 0.031235553 0.04861932 0.0846748 0.088297434
0.07444832 -0.106063746 0.03493161 -0.09711658 0.015750786 0.08534296 -0.03521295 0.12547345
0.122191645 0.040672157 -0.09885433 0.004060977 0.10644804 0.02573818 0.11754522 0.008710584
-0.063099444 0.08896943 0.04588682 0.07476049 -0.08282815 -0.10382641 0.09137727 0.047419224
00000000: a655 4fbd 4935 8d3d 6a69 afbd 03c8 5f3c
00000010: d287 45bd 97a7 d53d c6bd afbc 5db7 cdbd
00000020: 9184 31bd 6ce1 c63d cf66 5b3d 7774 f93c
00000030: aad3 b03d 23c5 5c3d e826 82bc 3fd9 91bd
00000040: b182 04be 6fee 873d 3fe8 d43d 903e 5fbd
00000050: fd59 82bd da4f eb3c 5cab debb c28e e13d
00000060: 7dcb 77bb b374 aebb 88fb 02be fae6 343d
00000070: acef 363b b211 0e3d 9661 ab3d 76b5 6e3d
00000080: e723 133a e78d 3ebc bb8d 8ebd bdae f93d
00000090: 5d20 e83d a260 e1b9 4831 0b3e f314 f23d
000000a0: ed7f 9d3d c08b 8c3d fc54 593d 2c3a c6bc
000000b0: fd90 533c 2081 e53d b947 b2bc 962a 333d
000000c0: e5ce 3cbd 6737 a23c 83c7 9c3d 9b36 ad3d
000000d0: d99d 883d 5299 843d 6c30 29bd c743 ee3d
000000e0: 5417 b83d 3da8 fd3d 9866 dcbd 7fe8 72bd
000000f0: 8a0d e3bd d7ee 5e3c 2c1b d63d e305 c1bd
00000100: 4aeb 103d fd5f 5fbb 2ee4 0abe 67d5 60bc
00000110: 45db b2bc d1d2 8ebd 296c b4bd 86a5 a03d
00000120: edcc c8bc 907e 12bd a712 2dbd 15fe 54bc
00000130: 9800 08bd 8d77 a3bd d262 8a3d cb12 d53b
00000140: 0251 eebd 0f1c 96bd 800c 0abd 1f05 69bd
00000150: 49e3 fe3c 79b9 013e 90a1 c6bd bb0d 893b
00000160: 8e3c ff3d d0d0 99bd 2b92 e0bd efc1 0c3d
00000170: c98b 18bb 337b 1b3b 43ec b53d d003 e9bd
00000180: 19ca 96bd cda5 d23d d7cb b8bd 5c50 aebc
00000190: 4715 763d b8c5 9bbd 714c d1bd 3123 a2bd
000001a0: 0097 c8bd d579 e6bd fbe7 9cbc 2e17 00be
000001b0: 67b2 a5bd 30fa 3c3c cd98 023e 8e5e 0b3e
000001c0: 75af e23d a359 4b3c 15ca ad3d 1ffe 2cbd
000001d0: b288 b1bd 33e4 8a3d 4ae3 573d 5536 413d
000001e0: 236d 853d 9a64 04bd 97e7 ce3d 0959 983d
000001f0: b310 72bd 421c cc3d e88c 523d 2a1f d73b
00000200: bc83 103b a346 ec3d 80f4 493b d446 423d
00000210: 740e c73d c86d a73b 3b97 fa3d ea62 a2bd
00000220: e4b8 43bc a005 453c 39e9 d63b 5e1e ccbd
00000230: 7771 033e a1b2 9ebd 431c c63d 7a01 61bd
00000240: 7c31 5e3d 7d70 9abd a870 76bd 29b5 103d
00000250: 76fb be3d 8f64 33bc 5bc7 4c3d f456 9dbd
00000260: 2f28 2e3d 6f9e 79bc 9493 fcbc 7762 883d
00000270: 86bf 3bbd d13b aabd 36f0 1fbd f6a7 8a3d
00000280: 4d7b 053e 9fc8 fd3d ed77 d53d 4b8a 9abd
00000290: 63bc 033e 1c27 993d 9472 133d f8d4 88bd
000002a0: 4ee7 99bd 961f 043d 4b3e 5ebc e206 1dbd
000002b0: fdbc d6bd d316 ec3d 5ee4 4a3d 5761 d33c
000002c0: d23d 993c c73d a03d d91a 9ebd 0098 e9ba
000002d0: eba1 093e c730 e0bb 7a2c d7bd e069 c2bd
000002e0: 56ce 903d 2a1b 743d 3f36 ad3d 62f4 6ebd
000002f0: 480f 91bd 1be7 f3bd 012b 3d3c 4cb3 eabc
00000300: f39c 073e 3b88 6abd 88d7 abbd 161b 4c3d
00000310: 209a 66bd 7f95 8ebc 31e3 113e 7631 b93d
00000320: 3c4d 06be 297e 483b 728e 9c3a 070d 063e
00000330: 2b26 ffbd 6de4 993d e3fd 0ebe 9efe 05be
00000340: c051 87bd cd0d 03be 64ae f9bb 7148 e63d
00000350: e57a 12bd 0517 e3bd 7785 9abc 29f2 edbd
00000360: e150 b93d b6cf 963c 7e9b f63d adb4 0c3d
00000370: 817b 1e3d 7271 183d 75dd 013e 36eb adbd
00000380: c9ad abbd 0e79 d83d ad81 523d 908e 013e
00000390: b4e1 ff3c 0d25 473d fb69 ad3d 49d5 b43d
000003a0: 5c78 983d f337 d9bd 7314 0f3d 0fe5 c6bd
000003b0: cb07 813c 4ac8 ae3d 743b 10bd 1d7c 003e
000003c0: 9d3f fa3d d997 263d 2474 cabd f211 853b
000003d0: 6e01 da3d e0d8 d23c 8cbb f03d d6b6 0e3c
000003e0: 483a 81bd 9b35 b63d d1f3 3b3d 071c 993d
000003f0: cea1 a9bd f1a2 d4bd 0224 bb3d a93a 423d

encoder.conv2.bias f4 [54]
0.117517814 -0.024214553 -0.13011062 -0.05626915 -0.07625474 0.10435618 -0.10128504 0.10322457
0.052221607 -0.011447925 -0.02801075 0.074094936 -0.077537656 -0.05432105 0.12330743 -0.044583216
0.012635842 0.10957934 -0.11211332 0.025551906 0.0032031008 -0.076762825 0.10717498 0.09532067
-0.009952342 -0.013872417 0.08547313 -0.043746404 0.077238075 -0.09188717 -0.112518184 0.091353826
0.09465409 -0.1096473 -0.03334959 0.060476087 0.07213105 0.08483022 0.09554961 -0.059705954
0.030490225 0.11876429 -0.11143378 0.08514424 0.035405893 0.007410941 0.13453624 -0.056135118
-0.0371129 -0.101347 0.11643752 -0.09871327 0.12214094 -0.097336285
00000000: 2ead f03d 995d c6bc b83b 05be 7b7a 66bd
00000010: 722b 9cbd b1b8 d53d 886e cfbd 6767 d33d
00000020: 53e6 553d 1490 3bbc cd76 e5bc 16bf 973d
00000030: 10cc 9ebd c07f 5ebd 9b88 fc3d e49c 36bd
00000040: 9006 4f3c 226b e03d ab9b e5bd 3b52 d13c
00000050: 1deb 513b d435 9dbd 8e7e db3d 7c37 c33d
00000060: 260f 23bc 2249 63bc 890c af3d 6e2f 33bd
00000070: ff2e 9e3d 572f bcbd ef6f e6bd b717 bb3d
00000080: 01da c13d c38e e0bd 9499 08bd c6b5 773d
00000090: 72b9 933d 77bb ad3d 84af c33d 3b8e 74bd
000000a0: a3c6 f93c b13a f33d 6537 e4bd 1a60 ae3d
000000b0: c505 113d 7bd7 f23b dec3 093e f0ed 65bd
000000c0: b203 18bd 048f cfbd cb76 ee3d 2f2a cabd
000000d0: 0725 fa3d 3f58 c7bd

encoder.rnn.weight_ih_l0 f4 [192, 54]
0.0728932 -0.062481124 0.10902182 -0.0858264 -0.08061326 -0.034752317 -0.09465941 0.120252654
0.04482876 -0.071665026 -0.0960327 -0.033072285 0.014494715 -0.06549555 0.07680293 -0.06176909
0.03351719 0.091259256 -0.09410179 -0.09948142 -0.11853794 0.019078815 0.099624015 -0.075485766
-0.016764095 0.07477377 0.11320133 0.067678005 0.04360956 0.020585211 0.0021821782 0.10984673
-0.0075548626 0.047797605 -0.009829601 0.11607369 -0.124951094 -0.038816206 -0.11575468 0.029414235
-0.028728785 -0.09189928 -0.095975734 0.036773205 0.09649835 0.10773448 0.08572949 -0.09754285
0.10400981 0.119072184 0.007063034 -0.12053767 -0.093247004 -0.109759524 0.014268964 0.10164689
0.08459869 -0.05882439 -0.057654087 0.027408015 -0.04599931 -0.014492712 0.031977523 -0.044998668
0.047242112 -0.015827255 0.114768595 -0.10545097 0.10770999 0.08637093 -0.11310937 0.026065636
-0.023886148 0.056336373 0.103307925 -0.07242339 -0.07415401 -0.08486326 0.08695858 -0.104336254
-0.04992722 0.11125384 0.06341791 0.08779261 0.10659624 -0.11161504 -0.040309075 -0.006374161
0.0985065 -0.020677812 0.005660367 0.07684313 0.06448646 -0.07736264 -0.112961315 -0.04388259
0.044585466 0.116287515 0.055244528 0.07032303 0.033416256 -0.027285261 -0.017523112 0.10889515
0.022757763 0.02863052 0.075525336 0.09023369 0.031288978 -0.016241888 -0.050772257 -0.07054738
-0.06635231 0.09725481 0.09425495 -0.071140125 0.10300512 -0.025987715 -0.02715287 0.036556914
-0.09478615 -0.06210059 -0.019378947 -0.035942234 0.06959667 -0.034224123 -0.09853077 -0.103252135
0.12251346 0.06090075 -0.12911275 -0.105858035 -0.08289558 0.11902971 0.055005524 0.047623977
0.06476702 0.025866687 0.09663667 -0.10556396 0.114284895 0.06066331 0.038618993 0.06751012
-0.021098996 -0.057054695 -0.04137685 -0.09008362 -0.0026454115 0.054997347 0.026921472 -0.008995478
0.041851763 -0.11783288 -0.0854481 -0.11406749 0.12752791 -0.10986737 0.05477206 0.09355878
-0.028974779 -0.014769656 0.10276143 -0.10153781 -0.1246847 -0.018358322 -0.015856564 -0.051551886
0.0067677307 0.06592506 0.067284346 0.03724207 0.08745977 -0.060753226 0.010035607 0.05494557
0.040012907 -0.045598544 0.10160035 -0.09551108 -0.056949332 -0.11983833 0.01299188 -0.09491034
0.08915684 -0.084363505 0.032952104 0.11127564 0.10892622 0.045636315 0.04428931 0.022609096
0.07245855 -0.009601119 -0.08566116 0.10935143 -0.09306312 0.11104543 0.005615287 0.056543835
0.0025152338 0.05312971 0.08510654 -0.1218086 0.07089643 -0.042429756 -0.11258065 -0.09971044
0.011415939 0.09292613 -0.11868039 0.03601663 0.05011787 -0.11565647 0.029588643 -0.060174484
0.021686269 -0.045884747 0.10016767 -0.11626458 0.0671818 -0.0454091 0.030423474 0.0130621465
-0.114542715 -0.060656875 0.0033773757 0.003007039 -0.06388684 0.07350175 -0.060009062 -0.06813501
0.05278068 -0.011919321 0.040123276 0.07800508 -0.051881243 0.037260775 0.10177181 0.018952355
0.10942504 0.05276382 0.08891985 0.10013711 0.07597973 0.032653738 0.06280936 0.07695701
0.015536914 0.018328192 -0.04606545 -0.009143628 0.059790604 -0.011550168 -0.03959383 0.029610878
00000000: 0849 953d 35ec 7fbd d546 df3d c0c5 afbd
00000010: 9118 a5bd 7258 0ebd cbdc c1bd 0647 f63d
00000020: 5d9e 373d 1dc5 92bd cbac c4bd ce76 07bd
00000030: 3e7b 6d3c 8822 86bd db4a 9d3d 9601 7dbd
00000040: 5249 093d 22e6 ba3d 70b8 c0bd eabc cbbd
00000050: 05c4 f2bd 2d4b 9c3c ad07 cc3d 4898 9abd
00000060: db54 89bc fe22 993d 19d6 e73d c49a 8a3d
00000070: f09f 323d 51a2 a83c e002 0f3b 53f7 e03d
00000080: c88e f7bb 6cc7 433d 560c 21bc 0bb8 ed3d
00000090: 5ce6 ffbd befd 1ebd ca10 edbd 1ff6 f03c
000000a0: a158 ebbc b135 bcbd ed8e c4bd 809f 163d
000000b0: eda0 c53d e5a3 dc3d f192 af3d 8cc4 c7bd
000000c0: 1803 d53d 1edc f33d 0671 e73b 74dc f6bd
000000d0: 49f8 bebd 9ac9 e0bd 5fc8 693c 3f2c d03d
000000e0: 1442 ad3d d8f1 70bd b126 6cbd c686 e03c
000000f0: c669 3cbd d772 6dbc ddfa 023d 8650 38bd
00000100: f280 413d 29a8 81bc cc0b eb3d aef6 d7bd
00000110: 0e97 dc3d 3ee3 b03d e3a5 e7bd 9a87 d53c
00000120: e2ac c3bc f8c0 663d 1b93 d33d b752 94bd
00000130: 0fde 97bd cacc adbd 5717 b23d 3fae d5bd
00000140: 7c80 4cbd 0ed9 e33d 40e1 813d 9dcc b33d
00000150: 214f da3d 6d96 e4bd 211b 25bd 57de d0bb
00000160: c7bd c93d 8464 a9bc 9a7a b93b ee5f 9d3d
00000170: 7a11 843d 4e70 9ebd 4358 e7bd 3bbe 33bd
00000180: 409f 363d 2628 ee3d 1648 623d 8505 903d
00000190: 7cdf 083d 5785 dfbc a18c 8fbc 6c04 df3d
000001a0: 7d6e ba3c 8d8a ea3c 07ad 9a3d 71cc b83d
000001b0: df28 003d b50d 85bc 92f6 4fbd 257b 90bd
000001c0: b8e3 87bd 882d c73d bd08 c13d eab1 91bd
000001d0: 59f4 d23d 30e4 d4bc b26f debc b4bc 153d
000001e0: 3e1f c2bd 305d 7ebd 99c0 9ebc 2a38 13bd
000001f0: b388 8e3d 982e 0cbd 80ca c9bd db75 d3bd
00000200: 56e8 fa3d 1173 793d 2236 04be 19cc d8bd
00000210: 28c5 a9bd d9c5 f33d 794d 613d 5c11 433d
00000220: 92a4 843d 60e6 d33c 72e9 c53d eb31 d8bd
00000230: 330e ea3d 177a 783d f32e 1e3d bf42 8a3d
00000240: cdd7 acbc 2fb2 69bd c67a 29bd c37d b8bd
00000250: a45e 2dbb e644 613d 6b8a dc3c c561 13bc
00000260: c16c 2b3d 5d52 f1bd 6aff aebd 379c e9bd
00000270: ad96 023e 2502 e1bd ab58 603d bf9b bf3d
00000280: 845c edbc 6dfc 71bc 9674 d23d 0ef3 cfbd
00000290: b15a ffbd 3164 96bc a0e5 81bc 1228 53bd
000002a0: d7c3 dd3b b803 873d 60cc 893d 248b 183d
000002b0: 1c1e b33d 60d8 78bd 636c 243c 9b0e 613d
000002c0: 93e4 233d 8ac5 3abd d813 d03d 509b c3bd
000002d0: b443 69bd cc6d f5bd e5db 543c 5a60 c2bd
000002e0: dd97 b63d c6c6 acbd c9f8 063d 7ce4 e33d
000002f0: b614 df3d 25ed 3a3d b568 353d b636 b93c
00000300: 2665 943d 034e 1dbc 1e6f afbd a4f3 df3d
00000310: e197 bebd c96b e33d 7100 b83b 829a 673d
00000320: 9fd6 243b 8a9e 593d 564c ae3d ca76 f9bd
00000330: 2632 913d d3ca 2dbd af90 e6bd fd34 ccbd
00000340: eb09 3b3c 0e50 be3d b40e f3bd 2c86 133d
00000350: 6548 4d3d 4ddd ecbd e263 f23c 8579 76bd
00000360: 67a7 b13c a5f1 3bbd b524 cd3d 201c eebd
00000370: 9d96 893d e4fe 39bd a63a f93c 9d02 563c
00000380: 5f95 eabd 5873 78bd f656 5d3b be11 453b
00000390: 1bd7 82bd 1688 963d 10cc 75bd 5e8a 8bbd
000003a0: 8e30 583d 4149 43bc 4e58 243d 21c1 9f3d
000003b0: 6d81 54bd c19e 183d bd6d d03d f841 9b3c
000003c0: 3c1a e03d e01e 583d 9c1b b63d af14 cd3d
000003d0: 439b 9b3d edbf 053d 32a2 803d a39b 9d3d
000003e0: 8a8e 7e3c 0125 963c 20af 3cbd 28cf 15bc
000003f0: fee6 743d ea3c 3dbc 242d 22bd 8392 f23c

encoder.rnn.weight_hh_l0 f4 [192, 64]
-0.009048982 0.060317248 -0.055402618 0.00063573936 -0.045677014 -0.08503595 0.076301344 0.09235812
0.05518857 0.12503424 0.049068503 0.10519502 -0.027748998 0.086995296 0.030908411 -0.0011339652
0.10219898 -0.096526206 -0.003435844 -0.056515522 0.11736367 -0.008480831 0.043957278 0.08855512
0.06642289 -0.050522644 0.002460353 0.080316566 -0.05547192 0.0111952275 -0.09222311 0.032369006
0.08833301 0.018958071 0.017624715 0.10335597 0.0051578223 -0.047228437 0.09472562 -0.08979128
0.060431328 0.08200444 -0.00047591512 -0.11999503 0.058595344 0.08143245 -0.012892121 0.08476376
0.049795978 0.028226938 0.11382442 -0.058975413 0.022473272 -0.09527505 0.109524354 0.039937984
0.11308649 -0.09936875 0.10903944 0.08206665 0.108273156 -0.056288674 -0.099578284 -0.021890638
0.1014359 0.12326287 -0.00749335 0.009561785 -0.015177287 -0.012644634 0.02292244 0.054340083
-0.025683464 -0.09617408 -0.0093121175 0.06535336 -0.104004614 0.105466165 0.048894543 0.06350284
0.06232752 0.08359779 0.10651802 -0.059379086 0.02454536 0.075666696 -0.11822115 0.07636146
-0.11948449 -0.07871008 -0.06945383 -0.08855879 -0.08896702 0.07121781 -0.10995163 -0.060955927
-0.11988234 -0.04759573 0.002778394 0.045291696 -0.06711746 0.023060394 0.06593459 0.107974015
-0.026886469 -0.08835696 0.08261136 -0.039298017 -0.12191094 -0.04901103 -0.020764671 0.02904143
0.090434246 0.07521017 -0.05035266 0.09766829 0.0424351 0.03622968 -0.094671115 -0.028230086
0.04043629 -0.0402983 0.048517004 0.06177653 -0.08932842 0.10344751 0.0111237075 -0.013747599
-0.0045774514 -0.0041745882 -0.010195962 -0.045308303 0.014170215 -0.038169615 0.10697791 -0.04701505
-0.10990722 0.11850579 0.08384925 -0.092890486 0.09709617 -0.0981008 -0.057620637 -0.060472038
0.013512116 0.029848572 -0.055363085 -0.04581229 -0.057404473 0.08888242 0.06592429 0.01458473
0.0021216662 0.012645348 -0.024491342 -0.061663266 0.117483385 -0.053265825 -0.08187586 -0.020101663
0.03343981 -0.11603958 0.039434522 -0.0015189575 -0.062457997 0.009858407 0.016843116 -0.118265964
0.0538732 0.043526515 -0.06864661 0.038400937 -0.07157335 0.08717567 -0.05093873 0.046465933
0.03627632 -0.011958843 -0.0636233 0.054934967 0.027037786 -0.053661708 -0.02145857 0.048151206
-0.11030761 0.014040801 0.022451041 -0.12593776 0.013125074 -0.092743345 -0.11705424 0.106202625
0.06453224 0.08999915 0.11101053 -0.06794552 -0.053883154 -0.00047245092 0.051237747 0.011269008
-0.010970907 0.123543575 -0.055258013 0.056399517 0.047807027 -0.05770509 0.071868636 0.085411765
-0.02671247 -0.08527967 0.076707564 0.094749376 0.05462286 0.0123160845 0.062405713 0.038063437
-0.038777415 -0.091599494 -0.05433294 0.043796655 -0.05075579 0.047395404 -0.06514045 -0.09796249
0.08822024 -0.079148695 0.039297838 0.10590649 0.00797002 0.07502942 -0.032726698 -0.10858103
-0.05977407 -0.037828803 -0.07184809 -0.075999245 0.053988807 0.11424931 0.07898411 0.04041159
-0.099584654 -0.021324564 0.04667079 0.10991268 -0.062318902 0.07381254 0.07215502 -0.027491175
-0.11562756 0.058086015 0.0634504 -0.10403382 0.095055 -0.0077258437 -0.0940035 0.010857089
00000000: 2e42 14bc 380f 773d dbed 62bd bfa7 263a
00000010: d217 3bbd 5427 aebd e143 9c3d 4126 bd3d
00000020: 690d 623d fa08 003e 0efc 483d 7d70 d73d
00000030: de51 e3bc 972a b23d a333 fd3c 8fa1 94ba
00000040: b34d d13d 88af c5bd e62b 61bb d27c 67bd
00000050: 5d5c f03d 2ff3 0abc 8c0c 343d 635c b53d
00000060: b908 883d d5f0 4ebd e03d 213b 037d a43d
00000070: 8636 63bd 306c 373c 78df bcbd 5d95 043d
00000080: f0e7 b43d f54d 9b3c b561 903c 4bac d33d
00000090: f302 a93b 9b72 41bd 81ff c13d 7ee4 b7bd
000000a0: d786 773d f2f1 a73d 3f84 f9b9 f4bf f5bd
000000b0: ac01 703d 0ec6 a63d 7a39 53bc 9f98 ad3d
000000c0: def6 4b3d 2e3c e73c c71c e93d 3490 71bd
000000d0: de19 b83c 911f c3bd 4e4e e03d 0396 233d
000000e0: e499 e73d d881 cbbd 1250 df3d 8f12 a83d
000000f0: 51be dd3d f48e 66bd b3ef cbbd ff53 b3bc
00000100: a0bd cf3d 3e71 fc3d c78a f5bb 08a9 1c3c
00000110: 28aa 78bc 702b 4fbc d7c7 bb3c b593 5e3d
00000120: 2166 d2bc ebf6 c4bd da91 18bc fbd7 853d
00000130: 5f00 d5bd a5fe d73d a545 483d c70d 823d
00000140: 244b 7f3d 5135 ab3d 1f26 da3d 7c37 73bd
00000150: 5a13 c93c 24f7 9a3d ee1d f2bd 6663 9c3d
00000160: 49b4 f4bd c032 a1bd cf3d 8ebd 505e b5bd
00000170: 5734 b6bd a5da 913d 522e e1bd ecac 79bd
00000180: df84 f5bd bdf3 42bd b715 363b c983 393d
00000190: e174 89bd 27e9 bc3c b708 873d 7b21 dd3d
000001a0: 0341 dcbc 7ef4 b4bd 2530 a93d f5f6 20bd
000001b0: 71ac f9bd cabf 48bd ac1a aabc 4be8 ed3c
000001c0: 9735 b93d ca07 9a3d 973e 4ebd 5006 c83d
000001d0: 6dd0 2d3d 9365 143d eee2 c1bd c842 e7bc
000001e0: 86a0 253d d50f 25bd c4b9 463d 6309 7d3d
000001f0: d2f1 b6bd 4adc d33d 3640 363c 9c3d 61bc
00000200: 72fe 95bb fcca 88bb f70c 27bc 3395 39bd
00000210: 312a 683c be57 1cbd 3c17 db3d da92 40bd
00000220: 0917 e1bd 2ab3 f23d 28b9 ab3d 5e3d bebd
00000230: 5bda c63d 12e9 c8bd 9e03 6cbd 87b1 77bd
00000240: ec61 5d3c fe84 f43c 67c4 62bd aba5 3bbd
00000250: f420 6bbd fc07 b63d 5003 873d cbf4 6e3c
00000260: a70b 0b3b 6f2e 4f3c 11a2 c8bc 9f92 7cbd
00000270: 219b f03d 442d 5abd 88ae a7bd 3eac a4bc
00000280: 2ff8 083d 29a6 edbd 1886 213d c217 c7ba
00000290: f5d3 7fbd 2885 213c 93fa 893c 6d35 f2bd
000002a0: 25aa 5c3d dc48 323d 9896 8cbd 4d4a 1d3d
000002b0: 0c95 92bd 2889 b23d 21a5 50bd 1053 3e3d
000002c0: 7b96 143d 06ef 43bc ef4c 82bd 7d03 613d
000002d0: 597e dd3c 61cc 5bbd e2c9 afbc 333a 453d
000002e0: f5e8 e1bd 630b 663c 3feb b73c d4f5 00be
000002f0: 8d0a 573c 39f0 bdbd 22ba efbd c380 d93d
00000300: 7b29 843d 7951 b83d 7d59 e33d 0527 8bbd
00000310: 95b4 5cbd 4ab3 f7b9 acde 513d a5a1 383c
00000320: 52bf 33bc 6a04 fd3d 3a56 62bd 2e03 673d
00000330: 4dd1 433d 2c5c 6cbd dd2f 933d 5dec ae3d
00000340: 1cd4 dabc 1ca7 aebd db18 9d3d f60b c23d
00000350: 38bc 5f3d 67c9 493c 229d 7f3d 68e8 1b3d
00000360: 11d5 1ebd 8498 bbbd 388c 5ebd 1f64 333d
00000370: 4ee5 4fbd af21 423d 5b68 85bd 8fa0 c8bd
00000380: d0ac b43d b618 a2bd c5f6 203d 80e5 d83d
00000390: b094 023c 06a9 993d 6e0c 06bd bb5f debd
000003a0: a8d5 74bd 60f2 1abd 1725 93bd 7ea5 9bbd
000003b0: 5e23 5d3d 8bfb e93d 6cc2 a13d a086 253d
000003c0: 0af3 cbbd dab0 aebc df29 3f3d e619 e13d
000003d0: 1b42 7fbd 072b 973d 03c6 933d 2c35 e1bc
000003e0: 24ce ecbd 9aeb 6d3d 49f2 813d af0f d5bd
000003f0: 32ac c23d 1329 fdbb e884 c0bd efe1 313c

encoder.rnn.bias_ih_l0 f4 [192]
-0.015978841 -0.05502236 0.0068080714 -0.011889982 -0.039795533 0.057491373 -0.060699943 -0.11401505
-0.10791469 0.043524094 -0.09523772 -0.09876226 -0.040127568 0.08410561 0.077585995 0.102219775
-0.08361448 -0.087216705 0.058669478 0.09751517 -0.0034574133 -0.11553643 0.12648351 0.092143424
0.095777124 0.04643259 0.047886394 -0.0025043716 0.070051305 0.02978194 -0.07467456 -0.045309823
-0.02443736 -0.011792022 0.08636513 0.09043584 -0.024153799 -0.045740623 -0.0119052855 0.12447343
0.116716996 0.0142908385 -0.00064102904 0.0741204 -0.093781166 -0.05361459 0.10742225 0.12127045
0.0070590815 -0.10796354 0.08949174 0.045648985 0.0016215998 0.12157677 -0.09726176 -0.008708934
0.0742805 -0.04456839 -0.09080663 -0.0017999695 0.08952426 0.018390574 0.031239932 -0.07232347
-0.058901723 0.01286784 0.10571948 0.045701817 0.055913206 -0.020030752 0.091744065 0.074071415
0.10927209 -0.0080774445 -0.019673912 -0.06857163 -0.075902775 -0.038838714 0.03425373 0.0012053737
-0.02178954 0.07098184 0.12034781 -0.066155046 -0.024731567 0.037639648 -0.027553378 -0.118461646
0.04890522 0.06828179 -0.08418947 -0.11580514 0.012301479 -0.12141222 0.07324875 0.11102145
0.09177967 0.02564135 -0.057375185 0.034025125 -0.07990938 -0.12557118 -0.06426624 -0.09437036
0.06540881 0.10478705 0.009236442 -0.12968785 0.043714236 0.093905434 0.05671198 0.07298987
-0.014690293 -0.09593898 0.01882789 0.06260989 0.018228885 0.04247007 0.03330158 0.004066965
-0.046824824 -0.05844906 -0.10716301 0.063073196 -0.09071889 -0.1406885 -0.024955755 -0.054428555
-0.11119953 -0.0771305 -0.016144283 -0.0665601 0.08762036 -0.020400394 -0.027837709 0.08081729
-0.11391069 0.039571296 -0.020608112 0.11221422 0.016098822 -0.051803347 -0.08461599 -0.08165379
-0.055817984 0.11298493 0.09176809 0.1180312 -0.047977965 0.044446256 -0.08230248 -0.03363191
0.10543626 -0.08714831 -0.12317511 0.006475304 0.025873685 0.09802727 0.04812243 0.027796065
0.124710955 0.10680428 -0.070040554 -0.118282996 -0.113519065 0.027165359 0.034190357 -0.03368441
0.08986561 0.02309638 0.01572017 -0.01837223 0.07341336 0.038688324 -0.08492224 -0.031569995
0.05598069 0.04727092 -0.028253045 0.123471975 0.10371023 -0.059507694 0.09572628 0.087069616
0.08706492 -0.04068351 0.052600484 -0.06858143 0.06799158 0.0010884447 0.07004038 0.08380682
00000000: 0fe6 82bc 205f 61bd 3e16 df3b 33ce 42bc
00000010: a400 23bd 137c 6b3d 81a0 78bd b980 e9bd
00000020: 6102 ddbd 5246 323d fe0b c3bd de43 cabd
00000030: ce5c 24bd 903f ac3d 68e5 9e3d 9a58 d13d
00000040: 123e abbd ac9e b2bd 684f 703d 09b6 c73d
00000050: c595 62bb 5d9e ecbd e584 013e b1b5 bc3d
00000060: cc26 c43d 1930 3e3d 8624 443d 6220 24bb
00000070: 0f77 8f3d 41f9 f33c faee 98bd cb96 39bd
00000080: dc30 c8bc 5333 41bc 34e0 b03d 6d36 b93d
00000090: 30de c5bc 855a 3bbd 630e 43bc edeb fe3d
000000a0: 5209 ef3d 1f24 6a3c bb0a 28ba 70cc 973d
000000b0: 5710 c0bd f99a 5bbd 3200 dc3d a45c f83d
000000c0: de4f e73b fd1b ddbd 7247 b73d 6efa 3a3d
000000d0: dc8b d43a 3efd f83d 2c31 c7bd ebaf 0ebc
000000e0: 6020 983d 588d 36bd d4f8 b9bd f4ec ebba
000000f0: 7f58 b73d d4a7 963c e3ea ff3c 541e 94bd
00000100: ef42 71bd a2d3 523c 7483 d83d d431 3b3d
00000110: 3f05 653d 8817 a4bc 50e4 bb3d c1b2 973d
00000120: 0cca df3d 4257 04bc 2f2b a1bc 486f 8cbd
00000130: ea72 9bbd 5815 1fbd a44d 0c3d a1fd 9d3a
00000140: fa7f b2bc ed5e 913d ea78 f63d 4c7c 87bd
00000150: db99 cabc 082c 1a3d 9fb7 e1bc 059c f2bd
00000160: d750 483d 53d7 8b3d 876b acbd 3f2b edbd
00000170: 248c 493c f8a6 f8bd 7103 963d 375f e33d
00000180: fbf6 bb3d cf0d d23c 3e02 6bbd ee5d 0b3d
00000190: 87a7 a3bd bb95 00be 059e 83bd 3f45 c1bd
000001a0: 0ef5 853d 989a d63d 7254 173c e4cc 04be
000001b0: b30d 333d 7e51 c03d d24a 683d b77b 953d
000001c0: 8eaf 70bc a87b c4bd f23c 9a3c 9d39 803d
000001d0: be54 953c 19f5 2d3d 3d67 083d 2d44 853b
000001e0: 63cb 3fbd 4868 6fbd 4878 dbbd 852c 813d
000001f0: d3ca b9bd a510 10be 0370 ccbc 7af0 5ebd
00000200: 94bc e3bd 98f6 9dbd 0441 84bc a950 88bd
00000210: 4e72 b33d ba1e a7bc e80b e4bc 8983 a53d
00000220: 024a e9bd 8315 223d 58d2 a8bc 92d0 e53d
00000230: ade1 833c bf2f 54bd 264b adbd 1a3a a7bd
00000240: 66a1 64bd a564 e73d e9f0 bb3d 57ba f13d
00000250: 8b84 44bd 470d 363d 348e a8bd 9dc1 09bd
00000260: f7ee d73d d07a b2bd 3b43 fcbd c92e d43b
00000270: 0df5 d33c 85c2 c83d 061c 453d 93b4 e33c
00000280: 7568 ff3d 34bc da3d 6c71 8fbd 5b3e f2bd
00000290: af7c e8bd e389 de3c 300b 0c3d aaf8 09bd
000002a0: 760b b83d 9f34 bd3c 96c7 803c 5c81 96bc
000002b0: be59 963d a677 1e3d b6eb adbd 8a4f 01bd
000002c0: 024c 653d 279f 413d ee72 e7bc e0de fc3d
000002d0: 0766 d43d 57be 73bd 240c c43d 8e51 b23d
000002e0: 184f b23d c1a3 26bd 9b73 573d 6c74 8cbd
000002f0: 2b3f 8b3d 25aa 8e3a 5571 8f3d e9a2 ab3d

encoder.rnn.bias_hh_l0 f4 [192]
0.042477634 0.03594263 -0.06569342 -0.096656695 -0.093923196 -0.024592517 -0.10199432 -0.030247346
-0.0078258235 -0.11891666 0.11279247 0.008501535 0.07798413 -0.109259024 0.07420806 -0.0724408
0.032600608 0.09309387 0.0981672 -0.13318323 -0.047868416 -0.051528182 0.050844364 -0.06775319
0.08912771 -0.09178471 -0.0016079658 0.017884025 -0.08383037 -0.022128943 -0.10196582 -0.06717249
-0.12316306 0.032111987 -0.046154138 -0.016347453 0.051771834 0.06621002 0.05945213 0.02733112
0.11399884 -0.021123793 0.112108275 -0.06815273 -0.122051954 0.004398916 -0.049068663 -0.08172647
-0.069164395 -0.021923197 0.013647626 -0.017152615 -0.03942736 0.103893146 0.06845161 -0.065791585
-0.088856444 0.011201743 0.06376227 0.10014177 0.078672536 0.0873059 0.007826202 -0.08824659
0.07215525 0.031157928 0.07495183 -0.07898093 -0.1209577 0.02761094 -0.036977205 -0.086399555
0.11719288 0.026531361 0.09633968 0.10952206 -0.06328077 0.11178714 0.110627264 -0.098571725
0.049558762 0.07389977 0.049502715 -0.037578236 -0.09193562 -0.12101824 0.05034357 -0.11565664
0.022727314 -0.06513832 -0.0676558 0.100404084 -0.15783308 0.0034969328 0.115095936 -0.07321056
-0.0361924 -0.0065782242 0.102119416 0.036510568 0.033236988 -0.115083985 -0.12953672 0.032664623
0.095424816 0.0900837 0.047390476 0.0048404643 0.053679943 -0.054623384 -0.046187136 0.22337148
0.004364913 0.013518975 -0.08595577 0.11528574 -0.022102015 0.021256573 0.00037080483 0.09660532
0.11121938 0.11843072 -0.16163425 -0.0387705 -0.06577465 0.03416739 0.050440487 -0.12100003
-0.10411638 -0.029874487 -0.007101494 0.08624191 0.03518676 0.08704578 -0.09546471 0.10790422
0.10715645 0.070601925 0.009084635 0.1212723 -0.0032945648 -0.01821975 -0.0130370315 0.038675435
0.046740904 0.104457624 0.081251256 0.05737433 0.029648934 0.036128715 0.093940504 -0.04151419
0.07785577 -0.062254507 -0.052465703 0.052391853 -0.07721146 -0.051763758 0.034434862 0.0013206226
0.076391175 -0.072638914 -0.10967374 0.006836753 0.053803265 0.008897245 -0.0864118 -0.08154098
0.046125498 0.01769341 0.069908 -0.06556682 0.09118442 -0.007662037 0.03604798 -0.07619491
-0.0148773575 -0.027320776 -0.10012005 0.08111298 0.043556273 -0.08136569 0.03163884 -0.03683358
-0.121526755 0.024975913 -0.028475385 0.078498125 -0.0071012774 -0.06924235 -0.039744813 0.047330406
00000000: 07fd 2d3d 9438 133d 468a 86bd f2f3 c5bd
00000010: ce5a c0bd 3f76 c9bc 66e2 d0bd 48c9 f7bc
00000020: e237 00bc 948a f3bd bdff e63d 064a 0b3c
00000030: 25b6 9f3d 32c3 dfbd 65fa 973d d85b 94bd
00000040: 3788 053d 00a8 be3d e30b c93d 2f61 08be
00000050: ac11 44bd 370f 53bd 2e42 503d 2fc2 8abd
00000060: 9788 b63d 9ff9 bbbd 61c2 d2ba 8581 923c
00000070: 42af abbd c247 b5bc 75d3 d0bd bb91 89bd
00000080: ea3c fcbd dc87 033d 1f0c 3dbd 18eb 85bc
00000090: b40e 543d 1e99 873d 1484 733d 83e5 df3c
000000a0: 3978 e93d ce0b adbc 0699 e53d a993 8bbd
000000b0: 60f6 f9bd c824 903b 39fc 48bd 3560 a7bd
000000c0: 10a6 8dbd 4798 b3bc 4b9a 5f3c a483 8cbc
000000d0: 957e 21bd eec5 d43d 5c30 8c3d bdbd 86bd
000000e0: 5efa b5bd 8487 373c cb95 823d 2117 cd3d
000000f0: 111f a13d 70cd b23d 7839 003c a1ba b4bd
00000100: 22c6 933d e93e ff3c 5880 993d c1c0 a1bd
00000110: acb8 f7bd 5730 e23c 6975 17bd 40f2 b0bd
00000120: d202 f03d 4c58 d93c bd4d c53d 1a4d e03d
00000130: 5999 81bd a8f0 e43d 8c90 e23d f9df c9bd
00000140: 21fe 4a3d c358 973d 5cc3 4a3d a3eb 19bd
00000150: be48 bcbd 69d8 f7bd 0f35 4e3d 63dd ecbd
00000160: a22e ba3c 3d67 85bd 208f 8abd a8a0 cd3d
00000170: ff9e 21be cc2c 653b 6bb7 eb3d 6bef 95bd
00000180: 7b3e 14bd 258e d7bb fc23 d13d 1b8c 153d
00000190: 8223 083d 27b1 ebbd 46a5 04be 57cb 053d
000001a0: 166e c33d ce7d b83d 841c 423d c29c 9e3b
000001b0: 80df 5b3d c5bc 5fbd b92e 3dbd 7ebb 643e
000001c0: 8b07 8f3b b17e 5d3c 9409 b0bd ee1a ec3d
000001d0: 490f b5bc 4422 ae3c 9568 c239 03d9 c53d
000001e0: fcc6 e33d ce8b f23d 7383 25be d1cd 1ebd
000001f0: dcb4 86bd 1bf3 0b3d af9a 4e3d ddce f7bd
00000200: f83a d5bd 57bb f4bc a6b3 e8bb 999f b03d
00000210: fe1f 103d 0f45 b23d 0083 c3bd e3fc dc3d
00000220: d774 db3d be97 903d b9d7 143c 9d5d f83d
00000230: a0e9 57bb 9641 95bc 4699 55bc 226a 1e3d
00000240: 6473 3f3d e1ed d53d 0f67 a63d 5801 6b3d
00000250: 52e2 f23c b4fb 133d e163 c03d c90a 2abd
00000260: d972 9f3d 95fe 7ebd 47e6 56bd d798 563d
00000270: 0b21 9ebd 3c06 54bd 920b 0d3d be18 ad3a
00000280: fa72 9c3d b6c3 94bd a09c e0bd d706 e03b
00000290: d060 5c3d c0c5 113c abf8 b0bd f5fe a6bd
000002a0: 17ee 3c3d c5f1 903c ed2b 8f3d e647 86bd
000002b0: e6be ba3d d311 fbbb 0ca7 133d 140c 9cbd
000002c0: 29c0 73bc d2cf dfbc be0b cdbd 901e a63d
000002d0: 1068 323d 0ea3 a6bd ba97 013d cfde 16bd
000002e0: 05e3 f8bd 499a cc3c 3645 e9bc a0c3 a03d
000002f0: d5b1 e8bb efce 8dbd 75cb 22bd 87dd 413d

decoder.attn.v f4 [64]
-0.028532162 -0.03318499 -0.091180876 0.116281494 -0.047189012 0.0639233 0.051302746 0.038756207
-0.060400143 -0.026407257 0.04087293 -0.019231752 -0.07049896 -0.10120164 0.08571699 -0.07101123
0.108069316 -0.032200307 0.08989832 -0.124142304 -0.04477422 -0.021311924 0.021240905 -0.08428782
0.04461193 0.032370344 0.035116255 -0.0004942566 0.10351047 -0.083336115 0.06527136 0.056439742
0.053355873 -0.048612773 0.10738699 -0.077739984 0.12156415 -0.021682724 -0.11594625 -0.027413324
-0.1159541 0.11650613 -0.023086444 -0.057960883 0.10019845 -0.06066528 0.015734911 0.0795131
0.06916067 0.03250411 0.04006225 0.064512566 -0.060302183 0.007947072 -0.08202897 -0.121287346
-0.07405946 -0.1239254 -0.057020843 -0.10615599 0.10942516 -0.012942076 -0.118792266 0.074634925
00000000: 48bc e9bc fcec 07bd 0abd babd fe24 ee3d
00000010: 4449 41bd 38ea 823d d422 523d d4be 1e3d
00000020: 2466 77bd 0854 d8bc 606a 273d e88b 9dbc
00000030: c261 90bd ce42 cfbd 648c af3d 566e 91bd
00000040: 7253 dd3d 78e4 03bd 9c1c b83d 523e febd
00000050: 2c65 37bd 5896 aebc 6801 ae3c 189f acbd
00000060: 00bb 363d c496 043d 10d6 0f3d 0091 01ba
00000070: 4cfd d33d 20ac aabd feac 853d 5c2d 673d
00000080: b08b 5a3d 301e 47bd b6ed db3d 2436 9fbd
00000090: a0f6 f83d f89f b1bc 3a75 edbd e891 e0bc
000000a0: 5879 edbd c49a ee3d c81f bdbc 6468 6dbd
000000b0: d834 cd3d 287c 78bd 80e6 803c c4d7 a23d
000000c0: 1ca4 8d3d 0823 053d 5018 243d 2a1f 843d
000000d0: 6cff 76bd 7034 023c cefe a7bd 8065 f8bd
000000e0: 7cac 97bd 9acc fdbd b08e 69bd 5068 d9bd
000000f0: 4c1a e03d 000b 54bc 5c49 f3bd 32da 983d

decoder.attn.attn.weight f4 [64, 128]
-0.06385532 0.0076888055 -0.065986894 -0.06755726 -0.01585184 0.0698202 -0.04052233 -0.049438536
-0.035914414 -0.060625322 -0.010124862 -0.075994655 0.035624415 -0.08426617 -0.08348786 -0.081893876
-0.0528479 0.020715125 0.06584986 -0.048661992 0.053339504 -0.073572025 -0.06575638 0.030525848
-0.012287468 -0.042203292 0.00835374 0.0013305843 0.06823257 0.031676166 -0.0046358034 -0.07281606
-0.029342614 -0.06944191 -0.016957745 -0.021055251 -0.018790655 -0.06714536 0.034869976 0.034245662
-0.010203771 -0.03362293 0.021563508 0.052818976 0.032641776 0.010480054 0.010877743 0.0156684
0.008704029 -0.023205854 -0.061771423 0.056468852 0.05049842 -0.083495244 0.011259586 -0.059985936
0.08067193 -0.0052681416 -0.047346253 -0.049338903 0.047872193 -0.022829376 -0.009902835 0.079912655
-0.028609123 -0.05346179 0.021046586 0.01690758 -0.05991303 0.027611896 -0.05727392 -0.05529306
-0.06661825 -0.025624841 0.00094567984 -0.036841486 -0.053431742 -0.035380866 0.020567387 0.0066127107
-0.086749986 -0.07343358 0.0648519 0.00980404 0.048419543 -0.002275385 -0.0855084 -0.08355958
0.05392676 -0.01966381 -0.0360066 -0.08755713 0.04874801 0.011512093 -0.06312851 0.013901897
-0.057474025 -0.023383692 -0.049589403 -0.029877238 -0.018931992 -0.06955388 -0.060197532 -0.082427084
0.0553525 -0.05230094 0.06495393 0.05815763 -0.050433688 0.057436652 0.0044210553 -0.007994823
0.049266078 0.059838347 -0.0059350803 0.08505025 -0.05394742 0.059596546 0.04782296 0.0749161
-0.0061841086 0.08246004 0.07153522 -0.05911152 0.084627174 -0.0697968 0.08744889 -0.06303623
0.010259129 -0.072469294 0.036924772 -0.048563305 -0.038800642 -0.035390813 -0.07336822 -0.018485807
-0.027780134 -0.068350405 -0.044969685 -0.03150183 0.086809 0.03527101 -0.00548169 0.00722225
0.025402546 0.0033814013 -0.046862405 -0.07176952 -0.06053125 0.02023141 -0.0068171397 -0.054892424
0.051288106 0.057491846 0.01857169 0.07058623 -0.054518253 -0.04730739 0.03424304 0.0829239
0.012414478 -0.065923184 -0.010438949 -0.023506172 -0.051004652 -0.029993184 -0.024175212 0.013193756
-0.01260113 0.08262528 -0.04953905 0.013058834 0.069565706 -0.002376996 -0.07868692 -0.0032237098
0.0324575 -0.06095533 0.04884685 -0.0009813979 -0.055122744 0.010937311 -0.04285595 0.088162206
-0.076283306 -0.059109543 0.002313368 0.011634372 -0.014989749 -0.027361892 -0.051269103 0.06741712
0.08454228 -0.03830431 0.0015213415 -0.080302924 0.07689793 -0.049335204 -0.044357304 -0.045330334
0.022687763 0.030560546 -0.0743588 -0.022319615 0.046998568 0.012915872 -0.07856182 0.047994114
0.07270115 -0.0053977817 0.086725004 0.06109985 -0.07110886 -0.03736704 0.08020065 -0.026891027
0.07674571 -0.06432898 0.07517662 0.024347514 -0.073603325 -0.0823395 -0.0663869 0.07940217
0.024370521 0.027769715 -0.026766304 -0.0838589 0.07182812 -0.045169115 -0.012168966 -0.0073830187
0.0743668 0.034486502 -0.0064042658 0.0754186 0.07417717 -0.008249454 0.073666714 -0.043183997
-0.07789059 0.07593698 -0.004552126 -0.009784073 -0.057653874 -0.037798442 -0.04569104 0.0011380315
-0.07463902 0.043241538 0.019131616 -0.01010336 -0.05886092 -0.079662085 -0.04037356 0.05210968
00000000: 94c6 82bd 60f2 fb3b 2324 87bd 765b 8abd
00000010: b8db 81bc e5fd 8e3d befa 25bd 1080 4abd
00000020: fe1a 13bd 4252 78bd c0e2 25bc 16a3 9bbd
00000030: e8ea 113d be93 acbd affb aabd fab7 a7bd
00000040: 0a77 58bd c4b2 a93c 4bdc 863d cc51 47bd
00000050: 867a 5a3d eeac 96bd 48ab 86bd 5811 fa3c
00000060: 6051 49bc 5cdd 2cbd 20de 083c 0067 ae3a
00000070: 85bd 8b3d debe 013d f0e7 97bb 9620 95bd
00000080: ec5f f0bc 8f37 8ebd f8ea 8abc 107c acbc
00000090: dcee 99bc 8283 89bd d2d3 0e3d 2e45 0c3d
000000a0: b82d 27bc 33b8 09bd f4a5 b03c b658 583d
000000b0: 62b3 053d 88b4 2b3c 9038 323c 045b 803c
000000c0: 589b 0e3c 341a bebc 0804 7dbd e24b 673d
000000d0: 6ed7 4e3d 8eff aabd 207a 383c d0b3 75bd
000000e0: 5337 a53d 60a0 acbb 25ee 41bd 9717 4abd
000000f0: a215 443d ac04 bbbc 803f 22bc 3fa9 a33d
00000100: ae5d eabc c0fa 5abd e469 ac3c c481 8a3c
00000110: 5e67 75bd 5832 e23c 0f98 6abd fa7a 62bd
00000120: 266f 88bd 30eb d1bc 80e7 773a 19e7 16bd
00000130: 3edb 5abd 87eb 10bd f07c a83c 70af d83b
00000140: faa9 b1bd 5864 96bd 13d1 843d 20a1 203c
00000150: 9253 463d a01e 15bb 071f afbd 4921 abbd
00000160: 4ee2 5c3d 0016 a1bc a87b 13bd 2751 b3bd
00000170: feab 473d 389d 3c3c 8549 81bd c8c4 633c
00000180: e269 6bbd 288f bfbc 421e 4bbd 1cc1 f4bc
00000190: 4417 9bbc 4472 8ebd b091 76bd 88cf a8bd
000001a0: 4eb9 623d 8339 56bd 9106 853d b236 6e3d
000001b0: 8e93 4ebd b242 6b3d 80de 903b b8fc 02bc
000001c0: 3acb 493d 0e19 753d 107b c2bb d32e ae3d
000001d0: f8f7 5cbd 821b 743d 02e2 433d 9d6d 993d
000001e0: 10a4 cabb cfe0 a83d 0f81 923d ec1e 72bd
000001f0: 0351 ad3d a0f1 8ebd 6718 b33d 2419 81bd
00000200: e815 283c c86a 94bd 6e3e 173d 51ea 46bd
00000210: 6ced 1ebd f5f5 10bd 1442 96bd 8c6f 97bc
00000220: 2a93 e3bc 4cfb 8bbd 2232 38bd 1008 01bd
00000230: ebc8 b13d 5678 103d c09f b3bb a0a8 ec3b
00000240: 0019 d03c 809a 5d3b cbf2 3fbd e6fb 92bd
00000250: 9eef 77bd 58bc a53c 5062 dfbb e1d6 60bd
00000260: 7a13 523d 927c 6b3d a823 983c 838f 903d
00000270: 884e 5fbd 65c5 41bd 6e42 0c3d 01d4 a93d
00000280: 1866 4b3c bc02 87bd 2008 2bbc 0490 c0bc
00000290: 41ea 50bd 44b4 f5bc 180b c6bc a02a 583c
000002a0: f874 4ebc 7137 a93d 75e9 4abd b8f4 553c
000002b0: 7778 8e3d 60c7 1bbb 9c26 a1bd e044 53bb
000002c0: 28f2 043d 4cac 79bd a213 483d 40a2 80ba
000002d0: 63c8 61bd 6832 333c b889 2fbd 638e b43d
000002e0: 6c3a 9cbd d91c 72bd e09b 173b 189e 3e3c
000002f0: 9097 75bc 0c26 e0bc 8dff 51bd fd11 8a3d
00000300: 8124 ad3d fbe4 1cbd c067 c73a dc75 a4bd
00000310: a97c 9d3d b613 4abd 01b0 35bd 4dac 39bd
00000320: b0db b93c 1c5a fa3c 6d49 98bd a0d7 b6bc
00000330: 9281 403d 189d 533c 05e5 a0bd 7a95 443d
00000340: 57e4 943d e0df b0bb e19c b13d d643 7a3d
00000350: 86a1 91bd 2e0e 19bd 3d40 a43d 924a dcbc
00000360: db2c 9d3d eabe 83bd 33f6 993d 7074 c73c
00000370: 57bd 96bd 9da1 a8bd dbf5 87bd 9b9d a23d
00000380: b0a4 c73c 507d e33c 0245 dbbc 37be abbd
00000390: 9f1a 933d 4003 39bd 5860 47bc 40ed f1bb
000003a0: 9f4d 983d b841 0d3d e0da d1bb 1175 9a3d
000003b0: 33ea 973d b828 07bc 93de 963d b4e1 30bd
000003c0: 1a85 9fbd d984 9b3d 002a 95bb 604d 20bc
000003d0: 7826 6cbd 8ad2 1abd 8726 3bbd 002a 953a
000003e0: 58dc 98bd 0a1e 313d e8b9 9c3c 9088 25bc
000003f0: 2618 71bd e025 a3bd bf5e 25bd f670 553d

decoder.attn.attn.bias f4 [64]
-0.08530028 0.011066034 -0.07249467 -0.082651325 0.04534135 0.05199202 0.018659852 0.080015995
-0.019023076 0.08525979 0.041867577 0.07123431 -0.024300627 0.016009428 -0.044931732 -0.028423097
-0.01609534 -0.08564601 -0.00529892 0.058765627 0.0589154 -0.06335386 -0.0631644 0.0575651
0.058347173 0.072881706 -0.059098374 -0.08453234 -0.057544082 0.021859556 -0.052071407 -0.04196002
-0.021630362 -0.034054697 -0.023100697 -0.077689886 -0.0281968 0.036403388 0.06136731 -0.017009027
0.055711858 0.013643637 0.0073340684 -0.033132534 0.009512462 0.011323132 -0.002152674 0.02296722
0.05965159 -0.007439919 0.00034858286 -0.0016534925 -0.056612056 -0.0030562058 0.03672882 0.019505806
-0.03841033 -0.06582929 0.00942532 0.05676437 0.013222352 -0.059918404 0.08075378 -0.04995967
00000000: eab1 aebd 504e 353c 1678 94bd 1945 a9bd
00000010: dab7 393d 96f5 543d 8cdc 983c 6ddf a33d
00000020: 48d6 9bbc af9c ae3d 567d 2b3d 4be3 913d
00000030: 1c12 c7bc 3426 833c 560a 38bd 8ed7 e8bc
00000040: 60da 83bc 2d67 afbd 90a2 adbb 3ab4 703d
00000050: 4651 713d abbf 81bd 565c 81bd 62c9 6b3d
00000060: 72fd 6e3d 0143 953d 2311 72bd 4b1f adbd
00000070: 58b3 6bbd d012 b33c d448 55bd 45de 2bbd
00000080: 2832 b1bc f07c 0bbd ac3d bdbc e01b 9fbd
00000090: fafc e6bc b81b 153d 4a5c 7b3d 8456 8bbc
000000a0: 1e32 643d 9089 5f3c a052 f03b fbb5 07bd
000000b0: 28da 1b3c a884 393c e013 0dbb c025 bc3c
000000c0: 3a55 743d 90ca f3bb 00c2 b639 00ba d8ba
000000d0: 0be2 67bd a04a 48bb f670 163d a4ca 9f3c
000000e0: 2654 1dbd 82d1 86bd a86c 1a3c c281 683d
000000f0: 90a2 583c 006d 75bd 3d62 a53d 83a2 4cbd
