checkpoints/models/single_stock_daily/81to9/000001/model55.pth (torch, 292914 bytes, 16 tensors)

encoder.conv1.weight f4 [18, 6, 3]
-0.14331174 -0.10064269 -0.115543306 -0.02375503 0.15950556 0.05476878 -0.22775719 0.21390757
0.21001974 0.05897497 0.10816722 0.10096243 0.17620066 -0.23529631 -0.13491489 -0.06082306
-0.077672124 -0.17768621 -0.22368993 -0.18073672 -0.036648467 0.20002407 0.1620777 0.08086649
-0.1412123 -0.07952792 0.054034133 -0.21585989 0.0010133176 0.07132702 0.2138601 -0.0516554
0.25363618 0.005116789 -0.17273101 0.21870957 0.2141464 -0.18004686 -0.1288455 0.10661765
-0.16786984 0.14536275 -0.13058211 -0.12092508 -0.10525621 0.21079627 -0.11731528 -0.07419461
0.13132176 -0.19650842 -0.02735456 -0.18844958 -0.24574102 -0.09430004 0.025563238 0.18811573
-0.2300768 -0.07482452 0.042444404 0.0876935 0.12194496 -0.22973983 -0.047768075 0.04209525
-0.21974368 0.1233605 -0.2361613 0.11710162 0.081479825 -0.06102624 0.06532634 0.18650977
0.17203288 0.1374906 -0.13543756 0.06836609 0.18684152 0.06320776 0.16308412 -0.122773625
0.21257257 -0.0029052957 -0.19320914 -0.025178144 0.21110749 -0.06582248 -0.0061932113 -0.11404292
-0.13590093 0.05237338 0.14120455 0.023687167 -0.014438055 0.003224169 -0.19169785 -0.12473489
-0.0022601448 -0.21037689 0.12593324 0.023528865 -0.01584679 -0.01040748 0.18629386 0.19645807
0.11962812 0.113773175 -0.12191618 0.086680464 -0.16170046 0.09600767 -0.16801861 -0.001639524
0.18237397 0.17298207 0.21601202 0.1102263 0.13053128 0.0681851 0.19454819 0.15312175
0.07219229 -0.061769087 -0.086194985 -0.07552289 0.10927076 -0.1167407 0.06525556 0.2079642
0.1971289 -0.1741137 0.059473973 0.14047253 -0.21915144 0.131438 -0.17826635 -0.17424865
-0.114735425 -0.11264765 -0.099119246 0.054941133 0.06894821 0.115524344 0.17904368 -0.14755595
-0.21917588 -0.18591088 -0.12570675 -0.1044792 0.09485771 -0.18191142 -0.17679797 0.09852243
-0.18337925 0.042636927 -0.199317 0.06635847 0.14742291 -0.21658161 0.057391956 -0.08204541
0.1760726 0.23328291 -0.20753805 0.08047084 0.15302157 0.21277963 0.17727122 0.031964555
0.01360659 0.04760667 -0.17339534 -0.047581505 -0.0054560644 -0.17381158 -0.009934306 -0.031632897
-0.10640369 -0.067583926 -0.22269055 0.23688468 0.11130458 0.16738509 -0.20353752 -0.23961508
0.18252042 -0.041312475 0.039816715 0.15033764 0.026807 -0.008267103 0.1622078 0.19590715
-0.06934734 -0.18152542 -0.123596735 0.2098662 0.07553953 0.2710208 -0.06831609 -0.21344772
0.08789307 -0.09363281 -0.14861304 0.14911644 0.013317269 -0.051178977 0.22052528 0.20579924
-0.21349548 -0.22101957 -0.11415541 -0.20250142 -0.1274124 0.19054487 -0.1387045 0.22915807
0.064024016 0.0015281604 0.029309543 0.04140159 0.07766018 -0.1880017 -0.005354927 0.17471252
0.2559871 -0.016207708 -0.15701142 0.12215252 -0.22109593 0.22023426 0.15792252 0.092776045
0.024072021 0.16583389 -0.08971137 -0.19020899 -0.12568475 0.17674874 -0.114695705 -0.19224986
0.05476653 -0.1406873 -0.023061713 -0.14701529 0.054313514 -0.0472958 0.03364615 0.11334138
-0.16089123 -0.07255488 -0.14611286 0.2063402 -0.072552204 0.09597782 0.055565324 -0.23306626
00000000: 50c0 12be c11d cebd f8a1 ecbd e999 c2bc
00000010: 6d55 233e 3a55 603d 2e39 69be 960a 5b3e
00000020: 6a0f 573e bd8f 713d c786 dd3d 64c5 ce3d
00000030: f26d 343e 84f1 70be 2127 0abe 9a21 79bd
00000040: 9012 9fbd 60f3 35be f90e 65be 0c13 39be
00000050: b41c 16bd 1cd3 4c3e b2f7 253e 559d a53d
00000060: f599 10be 89df a2bd e552 5d3d 600a 5dbe
00000070: 4cd1 843a e713 923d 24fe 5a3e 9d94 53bd
00000080: 9adc 813e bdaa a73b 66e0 30be 67f5 5f3e
00000090: 3249 5b3e 345e 38be 13f0 03be 5b5a da3d
000000a0: 12e6 2bbe f9d9 143e 51b7 05be 91a7 f7bd
000000b0: 9190 d7bd fada 573e fe42 f0bd 58f3 97bd
000000c0: 3679 063e 8139 49be ac16 e0bc edf8 40be
000000d0: 89a3 7bbe 6120 c1bd ff69 d13c 69a1 403e
000000e0: 4199 6bbe 993d 99bd 2fda 2d3d a698 b33d
000000f0: 47be f93d eb40 6bbe 75a8 43bd 126c 2c3d
00000100: 7d04 61be 6ea4 fc3d 45d4 71be f9d2 ef3d
00000110: e5de a63d a7f6 79bd d1c9 853d 6bfc 3e3e
00000120: 6329 303e 56ca 0c3e 25b0 0abe 8503 8c3d
00000130: 6253 3f3e 1273 813d 86ff 263e bd70 fbbd
00000140: a0ac 593e c666 3ebb 9ed8 45be 6542 cebc
00000150: 902c 583e f0cd 86bd 6cf0 cabb 568f e9bd
00000160: 9d29 0bbe 7885 563d ed97 103e 970b c23c
00000170: 988d 6cbc 944c 533b 714c 44be 0275 ffbd
00000180: f01e 14bb 0a6d 57be a5f4 003e 9bbf c03c
00000190: 21d1 81bc 2384 2abc d1c3 3e3e 4e2c 493e
000001a0: 96ff f43d e901 e93d 31af f9bd 8785 b13d
000001b0: ce94 25be ab9f c43d 120d 2cbe 4ce5 d6ba
000001c0: 3ec0 3a3e 3622 313e 4132 5d3e 54be e13d
000001d0: fea9 053e a1a4 8b3d a437 473e f3cb 1c3e
000001e0: 8dd9 933d 9501 7dbd ff86 b0bd bfab 9abd
000001f0: 59c9 df3d c015 efbd b5a4 853d 91f4 543e
00000200: 29dc 493e dd4a 32be fb9a 733d 08d8 0f3e
00000210: 3c69 60be af97 063e 748b 36be 3d6e 32be
00000220: 68fa eabd d0b3 e6bd 08ff cabd f409 613d
00000230: b834 8d3d 0798 ec3d 3a57 373e e818 17be
00000240: a46f 60be 6c5f 3ebe 45b9 00be 31f9 d5bd
00000250: c244 c23d fd46 3abe 870a 35be 21c6 c93d
00000260: c5c7 3bbe 0fa4 2e3d c119 4cbe f3e6 873d
00000270: 08f6 163e 92c7 5dbe d413 6b3d 6d07 a8bd
00000280: 604c 343e b7e1 6e3e db84 54be e5cd a43d
00000290: b0b1 1c3e e7e2 593e 9686 353e 44ed 023d
000002a0: 2dee 5e3c 36ff 423d 8c8e 31be d3e4 42bd
000002b0: c9c8 b2bb aafb 31be 80c3 22bc 7f91 01bd
000002c0: 2eea d9bd 7169 8abd fe08 64be e691 723e
000002d0: a8f3 e33d ff66 2b3e 246c 50be a85d 75be
000002e0: a2e6 3a3e 4537 29bd da16 233d 1cf2 193e
000002f0: 5b9a db3c be72 07bc cd19 263e e29b 483e
00000300: fa05 8ebd cde1 39be 4920 fdbd 2ae7 563e
00000310: 78b4 9a3d 3dc3 8a3e 4ee9 8bbd 0a92 5abe
00000320: 4801 b43d 8fc2 bfbd 042e 18be fbb1 183e
00000330: ad30 5a3c 0ca1 51bd 61d1 613e 09bd 523e
00000340: 8f9e 5abe f452 62be 50ca e9bd 885c 4fbe
00000350: 6578 02be 321e 433e 8d08 0ebe 6aa8 6a3e
00000360: 061f 833d 8e4c c83a 911a f03c b794 293d
00000370: 4d0c 9f3d 8583 40be 6278 afbb d7e7 323e
00000380: be10 833e 07c6 84bc 9ac7 20be 1a2b fa3d
00000390: f966 62be 1785 613e 71b6 213e 5e01 be3d
000003a0: b032 c53c 5cd0 293e 98ba b7bd 25c6 42be
000003b0: 81b3 00be 9ffd 343e 95e5 eabd 26dd 44be
000003c0: de52 603d 5510 10be ebeb bcbc 2d8b 16be
000003d0: d977 5e3d 3eb9 41bd 8cd0 093d 871f e83d
000003e0: acc0 24be a797 94bd 9c9e 15be d84a 533e
000003f0: 4096 94bd 0590 c43d 7798 633d eca8 6ebe

encoder.conv1.bias f4 [18]
0.18575063 0.051765338 -0.15877917 0.16320275 -0.04734086 0.012757248 0.01667862 -0.017627671
0.23644964 0.09734186 0.04020887 -0.06740929 0.039692897 -0.16492414 -0.05246851 0.1014149
-0.23477946 -0.0030339453
00000000: 6a35 3e3e e407 543d 0297 22be 9f1e 273e
00000010: 7de8 41bd c703 513c 9aa1 883c e867 90bc
00000020: db1f 723e 2b5b c73d 0eb2 243d e20d 8abd
00000030: 0595 223d e0e1 28be 38e9 56bd 9db2 cf3d
00000040: 076a 70be 28d5 46bb

encoder.conv2.weight f4 [54, 18, 3]
-0.054250725 0.06362116 -0.09151545 0.0033297297 -0.06071097 0.09232622 -0.021846645 -0.10066492
-0.04129244 0.09846405 0.054734055 0.03419977 0.08338896 0.048743427 -0.016519787 -0.071049385
-0.13173935 0.06685637 0.09763564 -0.06162443 -0.072465576 0.037309308 0.00434893 0.119187176
-5.3327145e-05 0.001403896 -0.12123953 0.04243928 0.008820515 0.03720451 0.08560706 0.058563042
-0.0011599681 -0.009981359 -0.06755729 0.1249716 0.11271643 -0.004327378 0.13136284 0.11862002
0.07808091 0.06923383 0.055559766 -0.02152284 0.013980036 0.11252224 -0.020129401 0.04399054
-0.046308137 0.019261539 0.07299018 0.08545624 0.06790746 0.06347948 -0.048163444 0.10747773
0.091251336 0.103402466 -0.094214804 -0.044663444 -0.11483803 0.024052909 0.10626162 -0.09457323
0.05331242 0.006829084 -0.14289144 -0.005472677 -0.013457819 -0.077943355 -0.07917061 0.08443918
-0.028383695 -0.055706047 -0.044090822 -0.0162224 -0.038927156 -0.0847138 0.09242196 0.03257811
-0.11199834 -0.03385636 -0.03825291 -0.062959604 0.03183075 0.11922153 -0.09694504 0.002064208
0.13729243 -0.071445726 -0.1256629 0.022314547 -0.0015039704 0.006204331 0.08966939 -0.11631149
-0.08621842 0.100064166 -0.094069526 -0.009507192 0.05571234 -0.077216506 -0.09531178 -0.097861096
-0.10545701 -0.11812855 -0.035148237 -0.13251257 -0.07707447 0.016072944 0.13076858 0.13670935
0.10464053 0.0066026975 0.08579139 -0.041408733 -0.08510576 0.06769221 0.05108834 0.044206668
0.06693298 -0.029786099 0.10068343 0.07430144 -0.059128277 0.09798654 0.053357646 0.010186873
0.004142571 0.116350465 0.0027064448 0.045994155 0.09212335 -0.0023273278 0.11846459 -0.07953706
-0.013549594 0.013992017 0.0027658858 -0.100981414 0.1255737 -0.07864187 0.09345701 -0.057095855
0.054781925 -0.074149854 -0.06087138 0.034005083 0.09196686 -0.010689962 0.051754683 -0.07707061
0.042929787 -0.016738065 -0.031744994 0.06574565 -0.049816843 -0.08371283 -0.03827715 0.07085232
0.13373661 0.12778533 0.11892473 -0.058040895 0.1410772 0.0947165 0.016538328 -0.07431685
-0.06739597 0.02551996 -0.005104849 -0.04320336 -0.124745384 0.0979701 0.063131325 0.02573189
0.020360636 0.088115305 -0.08552033 -0.010051718 0.14203437 0.0152044315 -0.097018495 -0.100185305
0.068612024 0.048387248 0.051164076 -0.09190071 -0.087384425 -0.15394865 0.024988161 -0.020938076
0.12264891 -0.057150815 -0.1012181 0.046089713 -0.075740345 -0.026631767 0.1564711 0.09681202
-0.13768832 -0.0031784892 -0.001635116 0.13308631 -0.11872729 0.07270476 -0.13905905 -0.14330705
-0.062012672 -0.13423268 -0.018222041 0.12805963 -0.031859424 -0.10598696 -0.00012172132 -0.100036375
0.08462026 0.011431806 0.117192335 0.0086512165 0.04426596 0.040644597 0.121901 -0.08175193
-0.08442923 0.107358165 0.066023394 0.1362295 0.029007575 0.05510272 0.09140935 0.08617777
0.08091013 -0.10036414 0.031191079 -0.108759694 0.010626938 0.09272713 -0.03006989 0.13178933
0.13507292 0.056596365 -0.09408469 0.031270586 0.10831542 0.025976093 0.12148019 0.0065805195
-0.061609235 0.08625728 0.05238946 0.07682082 -0.09023293 -0.1099602 0.090973996 0.04804322
00000000: 0236 5ebd d04b 823d 746c bbbd 9837 5a3b
00000010: 11ac 78bd 8715 bd3d bcf7 b2bc 6929 cebd
00000020: 4322 29bd 85a7 c93d d130 603d 0f15 0c3d
00000030: d5c7 aa3d 30a7 473d 8154 87bc 5782 91bd
00000040: aee6 06be feeb 883d 32f5 c73d e669 7cbd
00000050: d568 94bd a5d1 183d 7881 8e3b 6818 f43d
00000060: 96ab 5fb8 ef02 b83a 6e4c f8bd cfd4 2d3d
00000070: ec83 103c c263 183d c152 af3d cddf 6f3d
00000080: 120a 98ba db88 23bc 7a5b 8abd 1cf1 ff3d
00000090: dfd7 e63d adcc 8dbb fb83 063e 0eef f23d
000000a0: e2e8 9f3d 77ca 8d3d a392 633d ab50 b0bc
000000b0: 850c 653c 0f72 e63d 6ae6 a4bc 6d2f 343d
000000c0: 9aad 3dbd 60ca 9d3c e07b 953d ae03 af3d
000000d0: 1113 8b3d 8801 823d 0847 45bd 491d dc3d
000000e0: fbe1 ba3d acc4 d33d b1f3 c0bd 04f1 36bd
000000f0: 3330 ebbd 9b0a c53c b19f d93d 9caf c1bd
00000100: 205e 5a3d 82c6 df3b 2252 12be 2454 b3bb
00000110: 2f7e 5cbc c4a0 9fbd 3324 a2bd 73ee ac3d
00000120: ec84 e8bc 062c 64bd 9498 34bd d7e4 84bc
00000130: 1572 1fbd 6e7e adbd b947 bd3d a070 053d
00000140: 635f e5bd f7ac 0abd 15af 1cbd f7f0 80bd
00000150: f660 023d 6b2a f43d 1f8b c6bd aa47 073b
00000160: 6396 0c3e 2352 92bd c6ad 00be ffcc b63c
00000170: df20 c5ba b34d cb3b 96a4 b73d b834 eebd
00000180: 4893 b0bd 71ee cc3d 86a7 c0bd 0ec4 1bbc
00000190: 9f32 643d b023 9ebd d332 c3bd 666b c8bd
000001a0: d8f9 d7bd 62ed f1bd 99f7 0fbd 60b1 07be
000001b0: 38d9 9dbd 68ab 833c 33e8 053e 89fd 0b3e
000001c0: c64d d63d 715b d83b 65b3 af3d 349c 29bd
000001d0: ee4b aebd 37a2 8a3d 0242 513d 0d12 353d
000001e0: 2914 893d fa01 f4bc 1d33 ce3d 5a2b 983d
000001f0: 7e30 72bd 2bad c83d 8c8d 5a3d d8e6 263c
00000200: 67be 873b 2749 ee3d 9c5e 313b 5e64 3c3d
00000210: 2bab bc3d 1586 18bb 909d f23d 53e4 a2bd
00000220: 1eff 5dbc c63e 653c dd43 353b 58cf cebd
00000230: 6496 003e fd0e a1bd 6466 bf3d 58dd 69bd
00000240: 0363 603d e1db 97bd 4554 79bd ea48 0b3d
00000250: 1f59 bc3d f324 2fbc b8fc 533d 32d7 9dbd
00000260: 25d7 2f3d 441e 89bc 0a07 02bd a8a5 863d
00000270: bf0c 4cbd a271 abbd 80c8 1cbd 051b 913d
00000280: 40f2 083e 28da 023e cf8e f33d 4abc 6dbd
00000290: 8b76 103e b9fa c13d 637b 873c 6f33 98bd
000002a0: e606 8abd 3c0f d13c 9446 a7bb 02f6 30bd
000002b0: 827a ffbd 8ca4 c83d ff4a 813d afcb d23c
000002c0: 59cb a63c cc75 b43d 4825 afbd f6af 24bc
000002d0: 7571 113e 021c 793c a2b1 c6bd f42d cdbd
000002e0: 7684 8c3d b531 463d 6c91 513d 7036 bcbd
000002f0: 9bf6 b2bd b7a4 1dbe f9b3 cc3c 5486 abbc
00000300: 5a2f fb3d f916 6abd 6f4b cfbd 91c8 3c3d
00000310: c11d 9bbd dd2a dabc f639 203e 6145 c63d
00000320: 2bfe 0cbe 334e 50bb 6351 d6ba c747 083e
00000330: 4b27 f3bd 3ce6 943d 7f65 0ebe 15bf 12be
00000340: 0001 7ebd 4b74 09be 6446 95bc 1022 033e
00000350: 077f 02bd b10f d9bd a344 ffb8 dfdf ccbd
00000360: 634d ad3d 784c 3b3c 8902 f03d d5bd 0d3c
00000370: 3950 353d f37a 263d 3ba7 f93d 8e6d a7bd
00000380: 3be9 acbd 99de db3d 4637 873d bf7f 0b3e
00000390: 4ba1 ed3c 64b3 613d d334 bb3d f87d b03d
000003a0: 36b4 a53d b78b cdbd 6f84 ff3c 67bd debd
000003b0: 9c1c 2e3c b9e7 bd3d 2155 f6bc c8f3 063e
000003c0: 8e50 0a3e 97d1 673d 79af c0bd 9615 003d
000003d0: 7ad4 dd3d d1cb d43c 9bca f83d 66a1 d73b
000003e0: f759 7cbd a8a7 b03d 5596 563d 3c54 9d3d
000003f0: 0bcc b8bd d032 e1bd 9350 ba3d f8c8 443d

encoder.conv2.bias f4 [54]
0.11844987 -0.01791391 -0.12973154 -0.060572542 -0.069633216 0.09865931 -0.092704795 0.112536594
0.05461943 -0.013910668 -0.029771313 0.078564644 -0.0790333 -0.049237777 0.12804055 -0.032291193
0.010745163 0.110026 -0.121037 0.016740916 0.0009614423 -0.08588071 0.1061046 0.102361955
-0.012708909 -0.013971574 0.09695976 -0.03916853 0.069781184 -0.093037024 -0.11633361 0.09447177
0.090561934 -0.11443862 -0.04041577 0.061697498 0.07239544 0.09242349 0.10237558 -0.05829089
0.018803842 0.122867525 -0.10819549 0.08774689 0.039255504 0.0009260065 0.12890841 -0.054912835
-0.03666397 -0.095701545 0.11639716 -0.09733418 0.12848426 -0.097628914
00000000: d895 f23d 31c0 92bc 58d8 04be ea1a 78bd
00000010: dc9b 8ebd e40d ca3d 03dc bdbd 9679 e63d
00000020: a0b8 5f3d 92e9 63bc f8e2 f3bc 80e6 a03d
00000030: 36dc a1bd 8dad 49bd 101d 033e c543 04bd
00000040: 7b0c 303c 5055 e13d 3fe2 f7bd 3f24 893c
00000050: 4d09 7c3a 3ae2 afbd 5e4d d93d 25a3 d13d
00000060: 0739 50bc 07e9 64bc d792 c63d 2e6f 20bd
00000070: 70e9 8e3d 328a bebd 5140 eebd 6a7a c13d
00000080: 8978 b93d cc5e eabd 028b 25bd 84b6 7c3d
00000090: 0f44 943d 8748 bd3d 4aaa d13d 6ec2 6ebd
000000a0: 840a 9a3c f8a1 fb3d 9995 ddbd a4b4 b33d
000000b0: 61ca 203d 3fbf 723a 9100 043e 48ec 60bd
000000c0: f62c 16bd 2cff c3bd a261 ee3d 2457 c7bd
000000d0: 6191 033e abf1 c7bd

encoder.rnn.weight_ih_l0 f4 [192, 54]
0.07532247 -0.06665096 0.10628275 -0.083848104 -0.08166729 -0.028382435 -0.095175914 0.121046685
0.039926015 -0.07920657 -0.0957594 -0.031167835 0.007581231 -0.09159667 0.09227317 -0.06555729
0.020576162 0.09559563 -0.09765024 -0.1041382 -0.117806524 0.017057428 0.10758274 -0.07496942
-0.016594024 0.074569546 0.1145055 0.06926774 0.049872518 0.021421297 -0.010918013 0.10890964
-0.00075327075 0.049395885 -0.009371506 0.14216463 -0.1275828 -0.037812628 -0.11275129 0.027998654
-0.028459456 -0.08355856 -0.09893161 0.037312463 0.097114496 0.11054793 0.089883834 -0.100914344
0.10557096 0.11984673 0.009816367 -0.121601135 -0.100248955 -0.10276633 -0.008445088 0.101963565
0.09799335 -0.037717056 -0.07070291 0.020808084 -0.033119287 -0.026782785 0.038033683 -0.0233576
0.06438675 -0.017566102 0.12662344 -0.10973852 0.068530984 0.07952545 -0.07653285 0.0031264583
-0.008179325 0.0778348 0.14931537 -0.052637562 -0.10219489 -0.09666566 0.09250423 -0.07852709
-0.0647009 0.07594174 0.051411144 0.09055485 0.12222914 -0.118049294 -0.042639922 0.018028863
0.071866326 -0.04566896 0.03289072 0.07827304 0.026638893 -0.074231476 -0.11020927 -0.07074503
0.053211045 0.105425715 0.042046785 0.06526435 0.022277813 -0.02484414 -0.012336092 0.111676484
0.0064653773 0.037176367 0.077141404 0.06305444 0.02300354 -0.018964682 -0.045453224 -0.062325854
-0.074156374 0.09214132 0.08948401 -0.07775692 0.10730245 -0.0126030035 -0.020804562 0.028719924
-0.08688415 -0.051523644 -0.05525452 -0.039300613 0.08592242 -0.04319782 -0.086251244 -0.09552675
0.12779732 0.076452896 -0.1403113 -0.118463635 -0.08134097 0.124891914 0.038942005 0.036330823
0.05485356 0.024598481 0.11439092 -0.10849254 0.124576114 0.07357459 0.03478061 0.040423535
-0.018719755 -0.058032688 -0.059255913 -0.089098044 -0.0019894599 0.039366253 0.030414252 -0.015433762
0.029545885 -0.11958066 -0.0917769 -0.11581669 0.13051534 -0.107854344 0.05036525 0.09740448
-0.02987874 -0.042762138 0.110424586 -0.09852695 -0.12818344 -0.030728733 -0.007260124 -0.049695965
0.010527776 0.074534506 0.06886952 0.02541345 0.07813677 -0.051059246 -0.0006849301 0.061994635
0.06312849 -0.04139037 0.08936306 -0.08886097 -0.071768984 -0.13685584 0.0071388553 -0.10858173
0.09363188 -0.069697656 0.03238917 0.10030224 0.13434207 0.051978093 0.051833212 0.019242367
0.05483117 -0.0026535594 -0.09596001 0.09547756 -0.09305948 0.13241899 0.0005231921 0.057288304
0.029856065 0.05294645 0.08391703 -0.09731462 0.06934813 -0.03652979 -0.09958412 -0.097350456
0.013884363 0.09708956 -0.12256644 0.033737723 0.055771522 -0.11871848 0.033181645 -0.048370715
0.018374246 -0.042630605 0.10530506 -0.120423906 0.064641856 -0.05142348 0.04704014 0.0043414617
-0.12483922 -0.07219406 -0.0034088097 0.015286543 -0.07340303 0.09653116 -0.04498048 -0.059664022
0.038739715 -0.010151645 0.03196979 0.067263156 -0.051515307 0.029268537 0.10812298 0.03059509
0.10013252 0.051453725 0.11180056 0.1263182 0.07482937 0.04153129 0.043377373 0.069642745
-0.0028484573 0.018185515 -0.051820274 0.0010873725 0.06453314 -0.0014718394 -0.019329121 0.038081728
00000000: ab42 9a3d 4c80 88bd c5aa d93d 8eb8 abbd
00000010: 2e41 a7bd 4882 e8bc 97eb c2bd 53e7 f73d
00000020: 7689 233d 0e37 a2bd 811d c4bd b053 ffbc
00000030: fa6b f83b 0997 bbbd b7f9 bc3d e742 86bd
00000040: 578f a83c a4c7 c33d d9fc c7bd 6946 d5bd
00000050: 8c44 f1bd 05bc 8b3c 5754 dc3d 9189 99bd
00000060: 31f0 87bc ebb7 983d dc81 ea3d 3fdc 8d3d
00000070: 2047 4c3d b77b af3c 77e1 32bc 040c df3d
00000080: 2577 45ba 5753 4a3d f28a 19bc 9b93 113e
00000090: 11a5 02be 6ae1 1abd 26ea e6bd 6f5d e53c
000000a0: ce23 e9bc c020 abbd a89c cabd f4d4 183d
000000b0: f7e3 c63d f466 e23d 0415 b83d 2eac cebd
000000c0: 9635 d83d 3472 f53d d4d4 203c 040a f9bd
000000d0: 534f cdbd 2777 d2bd 445d 0abc 46d2 d03d
000000e0: bdb0 c83d 337d 1abd b0cc 90bd b775 aa3c
000000f0: 17a8 07bd 9267 dbbc 35c9 1b3d 7058 bfbc
00000100: 33dd 833d c9e6 8fbc 93a9 013e 97be e0bd
00000110: f959 8c3d 3dde a23d 41bd 9cbd 44e5 4c3b
00000120: 9302 06bc da67 9f3d 21e6 183e 7c9a 57bd
00000130: 8e4b d1bd a5f8 c5bd dc72 bd3d d0d2 a0bd
00000140: e881 84bd 5887 9b3d 7e94 523d d274 b93d
00000150: 4553 fa3d d4c3 f1bd 33a7 2ebd 44b1 933c
00000160: a72e 933d 600f 3bbd 6bb8 063d 9e4d a03d
00000170: cf39 da3c ac06 98bd 66b5 e1bd c5e2 90bd
00000180: d3f3 593d 70e9 d73d 4039 2c3d 51a9 853d
00000190: f67f b63c f085 cbbc 521d 4abc a4b6 e43d
000001a0: 84db d33b 3f46 183d 50fc 9d3d b022 813d
000001b0: eb71 bc3c d25b 9bbc 292d 3abd 6549 7fbd
000001c0: 4cdf 97bd 97b4 bc3d 6543 b73d 053f 9fbd
000001d0: 63c1 db3d d47c 4ebc 546e aabc 0c46 eb3c
000001e0: 51f0 b1bd 750a 53bd 9052 62bd aef9 20bd
000001f0: 18f8 af3d 33f0 30bd 7ea4 b0bd 87a3 c3bd
00000200: 4ddd 023e 5693 9c3d c4ad 0fbe 109d f2bd
00000210: 1896 a6bd 55c7 ff3d a781 1f3d a1cf 143d
00000220: 20ae 603d c182 c93c c945 ea3d 5631 debd
00000230: c321 ff3d 46ae 963d 1d76 0e3d 2693 253d
00000240: 2c5a 99bc afb3 6dbd 54b6 72bd 0979 b6bd
00000250: 9961 02bb 823e 213d 4f27 f93c e4dd 7cbc
00000260: 360a f23c b4e6 f4bd 87f5 bbbd 4d31 edbd
00000270: d0a5 053e bde2 dcbd cb4b 4e3d 007c c73d
00000280: 42c4 f4bc 5a27 2fbd 4926 e23d 7fc8 c9bd
00000290: 8542 03be d3ba fbbc 56e6 edbb ff8d 4bbd
000002a0: b17c 2c3c 8ca5 983d 770b 8d3d de2f d03c
000002b0: 2c06 a03d 8023 51bd e28c 33ba 16ee 7d3d
000002c0: 8249 813d f388 29bd fb03 b73d befc b5bd
000002d0: 9efb 92bd f023 0cbe 0fed e93b 1960 debd
000002e0: 12c2 bf3d a5bd 8ebd 82aa 043d 436b cd3d
000002f0: f890 093e fbe6 543d 104f 543d 2ba2 9d3c
00000300: a696 603d 57e7 2dbb af86 c4bd bd89 c33d
00000310: f895 bebd d898 073e d426 093a 24a7 6a3d
00000320: b594 f43c 60de 583d b1dc ab3d e34c c7bd
00000330: 6406 8e3d 43a0 15bd c2f2 cbbd ad5f c7bd
00000340: 3d7b 633c e4d6 c63d 1d04 fbbd 9130 0a3d
00000350: ae70 643d ad22 f3bd 7ae9 073d 5f20 46bd
00000360: 9685 963c 6e9d 2ebd 2eaa d73d cfa0 f6bd
00000370: f362 843d 6da1 52bd 29ad 403d d242 8e3b
00000380: b4ab ffbd 7bda 93bd 5666 5fbb 6974 7a3c
00000390: 5454 96bd 21b2 c53d 743d 38bd 4362 74bd
000003a0: 89ad 1e3d 1653 26bc c1f2 023d 44c1 893d
000003b0: b701 53bd 92c4 ef3c 956f dd3d 8ea2 fa3c
000003c0: 4712 cd3d 24c1 523d b1f7 e43d 8f59 013e
000003d0: 2440 993d b71c 2a3d 79ac 313d dba0 8e3d
000003e0: 2fad 3abb caf9 943c 7f41 54bd 2b86 8e3a
000003f0: f329 843d bcea c0ba 1b58 9ebc 96fb 1b3d

encoder.rnn.weight_hh_l0 f4 [192, 64]
-0.011141535 0.06331322 -0.058696877 0.002092535 -0.04360632 -0.078411736 0.067456566 0.102791816
0.051252484 0.12580152 0.031902485 0.1048163 -0.012175575 0.086347654 0.027999984 -0.003586627
0.11269908 -0.09588808 -0.0021064002 -0.05335837 0.10271654 0.009924996 0.043056037 0.08829077
0.058872208 -0.052566838 0.00013328524 0.08573974 -0.053467125 0.014251633 -0.08921997 0.041190755
0.09083373 0.01774537 0.019263573 0.099441804 0.008913201 -0.052227113 0.09060908 -0.10131832
0.060408354 0.08586267 -0.004115869 -0.12236723 0.060949743 0.08412406 0.0036004088 0.08040671
0.054199617 0.027808605 0.11122537 -0.057371937 0.027478043 -0.09814957 0.11268044 0.046317827
0.12140618 -0.10463423 0.12039679 0.100944266 0.10511673 -0.046789948 -0.09055347 -0.020232499
0.121676765 0.14170648 -0.015923802 -0.001167379 -0.025090609 -0.028947484 0.026526928 0.05633415
-0.018245865 -0.10715773 -0.001231023 0.062141974 -0.059632353 0.10716324 0.056472313 0.058920868
0.031490736 0.09267109 0.09227503 -0.061721686 0.023558022 0.09082351 -0.134403 0.076117024
-0.12707345 -0.06596321 -0.066238135 -0.10692528 -0.06209039 0.0674923 -0.14321782 -0.07236615
-0.13634272 -0.09128936 0.028444035 0.06411108 -0.09492692 0.05763133 0.071518034 0.10273179
-0.05401326 -0.10380767 0.08702727 -0.037386753 -0.118813574 -0.042020865 -0.054554686 -0.009395674
0.08210614 0.066168115 -0.04041536 0.080111325 0.026434075 0.05213515 -0.11190344 -0.0076228394
0.011463401 -0.040368836 0.089474626 0.039526016 -0.06690493 0.1391971 -0.010745119 -0.02504026
0.0051801037 -0.003045201 -0.010949514 -0.04962418 0.009558379 -0.049221676 0.11114685 -0.0512802
-0.10495349 0.11144753 0.08667429 -0.09505852 0.11512742 -0.078535356 -0.053332947 -0.06049094
-0.011938997 0.034890812 -0.059625503 -0.050287735 -0.05516581 0.08968888 0.064363234 0.014934566
0.0072002257 0.017165236 -0.021063862 -0.07228306 0.13129711 -0.056438323 -0.09287724 -0.035862803
0.025823928 -0.14591974 0.045522258 0.01006446 -0.06412156 0.04451359 0.020605523 -0.117546044
0.042868428 0.03465415 -0.06437213 0.03191395 -0.06829912 0.08755011 -0.08799159 0.0286255
0.031362142 -0.014581306 -0.0559136 0.049864538 0.019782428 -0.046518013 -0.027912064 0.05107252
-0.12950481 0.01796422 0.029649157 -0.1477243 0.020544333 -0.0850081 -0.13672327 0.10242926
0.054917917 0.07786397 0.11647969 -0.066657744 -0.050486278 0.0063642333 0.0492401 0.0025346852
-0.015690345 0.13383551 -0.06833643 0.059659656 -0.0019793233 -0.06839486 0.07208471 0.089387245
0.002973142 -0.08879085 0.08125937 0.09320164 0.06174663 -0.0073250663 0.07185464 0.038003236
-0.030103557 -0.098498374 -0.05465264 0.053646434 -0.07530719 0.050936345 -0.047402583 -0.08826502
0.096097134 -0.009625767 0.025028093 0.09662215 0.011464609 0.06703896 -0.032759268 -0.09540828
-0.046745688 -0.032908104 -0.070422955 -0.06966987 0.05347625 0.11338077 0.09365024 0.083770536
-0.09799741 -0.017106213 0.041776028 0.117124125 -0.053107064 0.068363085 0.07864582 -0.044585526
-0.102996826 0.056776363 0.037994903 -0.09272594 0.08624209 -0.044104483 -0.08375162 0.0146284
00000000: fc8a 36bc 5daa 813d 236c 70bd e922 093b
00000010: 8a9c 32bd 5596 a0bd ab26 8a3d 8484 d23d
00000020: 20ee 513d 1dd2 003e 2eac 023d eea9 d63d
00000030: 107c 47bc 0ad7 b03d 3960 e53c 9e0d 6bbb
00000040: c6ce e63d f860 c4bd 880b 0abb 4e8e 5abd
00000050: 0d5d d23d 739c 223c 875b 303d cbd1 b43d
00000060: fc23 713d 5350 57bd 7cc2 0b39 5198 af3d
00000070: 5800 5bbd ae7f 693c f6b8 b6bd a3b7 283d
00000080: 0907 ba3d bd5e 913c a4ce 9d3c 25a8 cb3d
00000090: ad08 123c 19ec 55bd 4191 b93d fb7f cfbd
000000a0: c06e 773d c4d8 af3d 69de 86bb ac9b fabd
000000b0: 70a6 793d 3c49 ac3d d6f4 6b3b 46ac a43d
000000c0: 6b00 5e3d dfce e33c 20ca e33d d6fe 6abd
000000d0: a219 e13c a402 c9bd 01c5 e63d c3b7 3d3d
000000e0: cea3 f83d 794a d6bd 9892 f63d debb ce3d
000000f0: 7147 d73d d1a6 3fbd 1974 b9bd a0be a5bc
00000100: ab31 f93d 811b 113e a272 82bc bd02 99ba
00000110: d28a cdbc 4623 edbc 004f d93c a3be 663d
00000120: 5a78 95bc 8375 dbbd 475a a1ba 9588 7e3d
00000130: 0e41 74bd 6778 db3d 834f 673d 0257 713d
00000140: 6efc 003d 57ca bd3d b1fa bc3d e1cf 7cbd
00000150: c1fc c03c ad01 ba3d f1a0 09be 3ee3 9b3d
00000160: 8b1f 02be b817 87bd dca7 87bd a4fb dabd
00000170: 7e52 7ebd 6739 8a3d b1a7 12be b434 94bd
00000180: 6d9d 0bbe eaf5 babd 7703 e93c ab4c 833d
00000190: 0c69 c2bd d40e 6c3d 0c78 923d 0b65 d23d
000001a0: 023d 5dbd 1e99 d4bd 5a3b b23d da22 19bd
000001b0: 8854 f3bd 121e 2cbd bc74 5fbd 50f0 19bc
000001c0: 4427 a83d 2683 873d 948a 25bd 6811 a43d
000001d0: 468c d83c ab8b 553d a12d e5bd 03c9 f9bb
000001e0: fdd0 3b3c cb59 25bd 793e b73d 08e6 213d
000001f0: 7405 89bd af89 0e3e 4c0c 30bc 3b21 cdbc
00000200: dcbd a93b ff91 47bb 9765 33bc b942 4bbd
00000210: bf9a 1c3c ab9c 49bd f6a0 e33d 300b 52bd
00000220: dbf1 d6bd 9a3e e43d 4a82 b13d 0bae c2bd
00000230: edc7 eb3d 25d7 a0bd a673 5abd 59c5 77bd
00000240: c89b 43bc abe9 0e3d df39 74bd 83fa 4dbd
00000250: 8bf5 61bd ceae b73d dfd0 833d 1cb0 743c
00000260: dfef eb3b 1c9e 8c3c 1f8e acbc 2409 94bd
00000270: c072 063e df2b 67bd 6c36 bebd e0e4 12bd
00000280: b48c d33c fc6b 15be 8c75 3a3d 68e5 243c
00000290: 2a52 83bd e253 363d eacc a83c fbbb f0bd
000002a0: ce96 2f3d 83f1 0d3d 89d5 83bd 34b8 023d
000002b0: 69e0 8bbd 794d b33d ef34 b4bd 0680 ea3c
000002c0: 9775 003d 6ee6 6ebc a905 65bd c23e 4c3d
000002d0: c20e a23c ac89 3ebd d7a7 e4bc 6b31 513d
000002e0: e99c 04be b329 933c cae2 f23c 0a45 17be
000002f0: 974c a83c ba18 aebd 2f01 0cbe 6fc6 d13d
00000300: 9cf1 603d 2577 9f3d e78c ee3d db83 88bd
00000310: b3ca 4ebd 0f8b d03b fdaf 493d f61c 263b
00000320: 0a89 80bc 2d0c 093e f8f3 8bbd af5d 743d
00000330: 89b7 01bb 9b12 8cbd 26a1 933d a910 b73d
00000340: 0cd9 423b fad7 b5bd 506b a63d 80e0 be3d
00000350: 09ea 7c3d 1c07 f0bb 8728 933d 48a9 1b3d
00000360: bc9b f6bc 84b9 c9bd 72db 5fbd 5dbc 5b3d
00000370: a83a 9abd a1a2 503d 3629 42bd 4ac4 b4bd
00000380: 93ce c43d 65b5 1dbc b707 cd3c d5e1 c53d
00000390: 0ed6 3b3c b94b 893d 952e 06bd 6b65 c3bd
000003a0: 6878 3fbd a6ca 06bd e939 90bd 14af 8ebd
000003b0: ea09 5b3d 2d34 e83d b2cb bf3d e38f ab3d
000003c0: deb2 c8bd 5422 8cbc 571d 2b3d c6de ef3d
000003d0: cb86 59bd f201 8c3d 0f11 a13d 509f 36bd
000003e0: 00f0 d2bd 558e 683d 8ba0 1b3d 19e7 bdbd
000003f0: b19f b03d e7a6 34bd f885 abbd f5ab 6f3c

encoder.rnn.bias_ih_l0 f4 [192]
-0.013066039 -0.06641463 0.00048354076 -0.007131687 -0.045496926 0.069512166 -0.059756044 -0.1311451
-0.10706318 0.04560089 -0.093137965 -0.11304307 -0.06607819 0.08593856 0.0715607 0.10554306
-0.07757742 -0.09422396 0.05274017 0.08866149 -0.0050035045 -0.120179065 0.120801605 0.08771234
0.091869265 0.04601631 0.048171524 -0.005052274 0.06965442 0.016078668 -0.104171105 -0.04689887
-0.027756229 -0.010530131 0.07738882 0.08758956 -0.026618812 -0.062497307 -0.013996198 0.12201769
0.12431415 0.008468506 -0.0068985526 0.07418205 -0.09806402 -0.05352959 0.11192117 0.09898158
0.006816408 -0.09998531 0.09753232 0.041500896 -0.004687588 0.118944705 -0.09639465 -0.0069566783
0.06918881 -0.045482654 -0.07512793 -0.0010490163 0.0888437 -0.0031209697 0.025925554 -0.07590385
-0.080552466 -0.0056736907 0.06728399 0.020702394 0.0657291 -0.0030572058 0.09996476 -0.031983253
0.10791663 -0.06347545 -0.017556999 -0.033499587 -0.1672167 -0.06705059 0.026557352 -0.0029879021
-0.08027268 0.14598078 0.11141399 -0.099697575 -0.07320599 -0.058311075 -0.03654179 -0.1533295
0.042385567 0.07415092 -0.10888138 -0.12252708 -0.0648209 -0.22913644 0.09667262 0.08459307
0.09244577 -0.18218201 -0.13848911 0.01719865 -0.088617414 -0.16509102 -0.11032483 -0.14247157
0.002879541 0.12342592 -2.934548e-05 -0.23997691 0.06697806 0.08643559 0.09806897 0.038575787
-0.01145091 -0.1804532 0.00095803005 0.054680705 0.021563213 0.05261577 0.028010445 -0.14330915
0.04273395 -0.025587507 -0.28242415 0.11460453 -0.10258589 -0.22642247 0.025338352 -0.026985541
-0.114881344 -0.077031866 -0.010639782 -0.06581099 0.08772723 -0.012924583 -0.029733095 0.0740924
-0.11323077 0.041144174 -0.01916352 0.11411909 0.011228727 -0.053915486 -0.084186375 -0.0767765
-0.049872357 0.11025524 0.09036548 0.11720448 -0.04869012 0.043517992 -0.08097157 -0.03134992
0.10496289 -0.08690228 -0.11974285 0.0072092763 0.025076555 0.098005526 0.051346388 0.03392547
0.12523593 0.1151154 -0.07290794 -0.11813432 -0.11330285 0.027910145 0.03596813 -0.032513786
0.09210651 0.028213076 0.015229367 -0.020085689 0.07027529 0.03610466 -0.080216095 -0.027956719
0.059191316 0.051700156 -0.031531524 0.12304768 0.105135515 -0.059859257 0.09673276 0.0768864
0.09074492 -0.04262821 0.04170465 -0.06939212 0.06756174 -0.0026799534 0.07219339 0.086131506
00000000: f112 56bc 6504 88bd be83 fd39 edb0 e9bb
00000010: fc5a 3abd 655c 8e3d c1c2 74bd e74a 06be
00000020: f143 dbbd 00c8 3a3d 1ebf bebd 2083 e7bd
00000030: 0154 87bd 8e00 b03d 6b8e 923d f626 d83d
00000040: e9e0 9ebd 7ef8 c0bd 1406 583d 2894 b53d
00000050: 70f4 a3bb 7120 f6bd d566 f73d 87a2 b33d
00000060: f425 bc3d 997b 3c3d 814f 453d 8c8d a5bb
00000070: faa6 8e3d 69b7 833c a957 d5bd 0819 40bd
00000080: 0861 e3bc 9286 2cbc 087e 9e3d 2862 b33d
00000090: b20f dabc 2dfd 7fbd 4f50 65bc 69e4 f93d
000000a0: 6b98 fe3d 7dbf 0a3c 410d e2bb c2ec 973d
000000b0: cad5 c8bd d841 5bbd ed36 e53d dbb6 ca3d
000000c0: 2d5c df3b 19c5 ccbd 06bf c73d d8fc 293d
000000d0: 579a 99bb 4899 f33d 8f6a c5bd d9f4 e3bb
000000e0: ddb2 8d3d 054c 3abd acdc 99bd 257f 89ba
000000f0: b0f3 b53d 2f89 4cbb d461 d43c 7a73 9bbd
00000100: b1f8 a4bd 5eea b9bb 30cc 893d 1198 a93c
00000110: fa9c 863d 675b 48bb 53ba cc3d df00 03bd
00000120: 6503 dd3d 6bff 81bd b2d3 8fbc dd36 09bd
00000130: db3a 2bbe d251 89bd ce8e d93c aed0 43bb
00000140: 0166 a4bd fc7b 153e 052d e43d 3e2e ccbd
00000150: 06ed 95bd 98d7 6ebd d8ac 15bd 6902 1dbe
00000160: 7d9c 2d3d 70dc 973d 33fd debd 7aef fabd
00000170: d2c0 84bd bea2 6abe 4bfc c53d 223f ad3d
00000180: 3554 bd3d ec8d 3abe 17d0 0dbe 2fe4 8c3c
00000190: 0c7d b5bd 9f0d 29be fcf1 e1bd 11e4 11be
000001a0: aeb6 3c3b bbc6 fc3d f02a f6b7 82bc 75be
000001b0: cb2b 893d 2505 b13d 62d8 c83d a501 1e3d
000001c0: 999c 3bbc b9c8 38be 4f24 7b3a e0f8 5f3d
000001d0: 56a5 b03c a283 573d 2976 e53c a2bf 12be
000001e0: cb09 2f3d e49c d1bc e699 90be c8b5 ea3d
000001f0: 8d18 d2bd 4bdb 67be 6092 cf3c c810 ddbc
00000200: e946 ebbd e2c2 9dbd 7b52 2ebc eac7 86bd
00000210: 55aa b33d a1c1 53bc d292 f3bc c2bd 973d
00000220: 89e5 e7bd cb86 283d d0fc 9cbc 45b7 e93d
00000230: b2f8 373c 7cd6 5cbd e869 acbd ff3c 9dbd
00000240: f546 4cbd 80cd e13d 8911 b93d e708 f03d
00000250: 4b6f 47bd ec3f 323d 6cd4 a5bd c668 00bd
00000260: c9f6 d63d d3f9 b1bd bd3b f5bd cb3b ec3b
00000270: 596d cd3c 1fb7 c83d 9750 523d 6ff5 0a3d
00000280: d93d 003e 9fc1 eb3d c250 95bd 68f0 f1bd
00000290: 530b e8bd d1a3 e43c 5153 133d 2d2d 05bd
000002a0: 57a2 bc3d 1c1f e73c 9884 793c be8a a4bc
000002b0: 7eec 8f3d 7be2 133d 5648 a4bd 7d05 e5bc
000002c0: 9872 723d 8bc3 533d 3327 01bd 6c00 fc3d
000002d0: 4a51 d73d fb2e 75bd d31b c63d 9e76 9d3d
000002e0: 79d8 b93d eb9a 2ebd 7fd2 2a3d 751d 8ebd
000002f0: cf5d 8a3d 28a2 2fbb 21da 933d b765 b03d

encoder.rnn.bias_hh_l0 f4 [192]
0.045390487 0.024550105 -0.072018154 -0.091898516 -0.09962455 -0.012571993 -0.101050146 -0.047378365
-0.0069741444 -0.116840094 0.11489225 -0.0057790466 0.052033562 -0.10742608 0.06818277 -0.069117524
0.038637757 0.086086616 0.09223785 -0.14203618 -0.049414437 -0.056171 0.045162577 -0.07218426
0.08521976 -0.09220088 -0.0013227649 0.015336121 -0.08422726 -0.03583237 -0.1314623 -0.06876164
-0.12648158 0.033373926 -0.05513069 -0.019193588 0.049306847 0.049453236 0.05736117 0.024875665
0.121595986 -0.026946241 0.10585042 -0.06809108 -0.12633477 0.0044838986 -0.04456979 -0.10401536
-0.069407016 -0.013944885 0.021687996 -0.021300746 -0.045736674 0.101261094 0.069318734 -0.06403963
-0.09394814 0.010287366 0.07944095 0.1008927 0.07799198 0.06579427 0.0025117935 -0.09182698
0.050504606 0.012616337 0.03651621 -0.10398018 -0.11114164 0.04458453 -0.028756198 -0.19245414
0.11583741 -0.02886658 0.09845662 0.14459422 -0.1545944 0.08357559 0.10293085 -0.10276523
-0.00892428 0.14889868 0.04056919 -0.07112078 -0.14040983 -0.21696854 0.041355204 -0.15052466
0.01620755 -0.0592694 -0.09234768 0.09368215 -0.23495547 -0.10422752 0.1385202 -0.09963895
-0.035526212 -0.21440192 0.021005243 0.01968405 0.024528703 -0.15460381 -0.1755951 -0.015436357
0.03289548 0.10872257 0.038124762 -0.1054487 0.07694384 -0.06209298 -0.004830388 0.18895699
0.007604285 -0.07099474 -0.103825584 0.10735662 -0.018767696 0.03140197 -0.00492035 -0.05077052
0.20077832 0.1512921 -0.33689502 0.012760645 -0.07764166 -0.05156642 0.10073457 -0.09355708
-0.10786176 -0.029797237 -0.0015820625 0.08695713 0.035200603 0.09418848 -0.097425304 0.10224556
0.10772266 0.07193209 0.01039385 0.1231393 -0.008771421 -0.020592274 -0.012518493 0.04353274
0.05189402 0.10192891 0.0794755 0.056527253 0.029007 0.035660673 0.09499589 -0.039050926
0.07792822 -0.062151242 -0.049040943 0.053348895 -0.077843 -0.051320594 0.037171233 0.0068141967
0.07694829 -0.06371275 -0.11320291 0.0070822383 0.054951195 0.009526564 -0.08449156 -0.07966766
0.047467377 0.02288246 0.06954342 -0.067097194 0.08825214 -0.010123145 0.040900707 -0.072255015
-0.01181348 -0.024167936 -0.103351474 0.080901094 0.04439125 -0.081726454 0.03261135 -0.04873438
-0.11803886 0.023323353 -0.04100207 0.07709346 -0.007694566 -0.07386029 -0.037693452 0.049375247
00000000: 60eb 393d 4d1d c93c 417e 93bd 4a35 bcbd
00000010: f507 ccbd c3fa 4dbc 61f3 cebd d10f 42bd
00000020: 5d87 e4bb dc49 efbd a14c eb3d 285e bdbb
00000030: 2521 553d 3402 dcbd 68a3 8b3d 7d8d 8dbd
00000040: a042 1e3d 2e4e b03d 33e7 bc3d ef71 11be
00000050: cb66 4abd 9013 66bd 65fc 383d 57d5 93bd
00000060: b387 ae3d d1d3 bcbd a060 adba 5b44 7b3c
00000070: 577f acbd f7c4 12bd 0e9e 06be e7d2 8cbd
00000080: 6384 01be 19b3 083d b8d0 61bd df3b 9dbc
00000090: faf5 493d 7a8f 4a3d 8cf3 6a3d 0dc8 cb3c
000000a0: 5107 f93d 5dbe dcbc 1bc8 d83d 5673 8bbd
000000b0: e75d 01be abed 923b d08e 36bd 0106 d5bd
000000c0: 4425 8ebd 1679 64bc 06ab b13c e77e aebc
000000d0: 6156 3bbd fa61 cf3d fbf6 8d3d 3627 83bd
000000e0: e267 c0bd 578c 283c f0b1 a23d d5a0 ce3d
000000f0: 42ba 9f3d 25bf 863d e79c 243b c90f bcbd
00000100: ebdd 4e3d c1b4 4e3c 0592 153d 90f3 d4bd
00000110: 3a9e e3bd 459e 363d 1e92 ebbc b312 45be
00000120: 2a3c ed3d 9b79 ecbc a0a3 c93d 8210 143e
00000130: ff4d 1ebe ae29 ab3d 69cd d23d 9476 d2bd
00000140: 2537 12bc e578 183e e12b 263d c6a7 91bd
00000150: 98c7 0fbe 002d 5ebe 1364 293d 2323 1abe
00000160: b2c5 843c 78c4 72bd c820 bdbd 6ddc bf3d
00000170: 2b98 70be 3d75 d5bd 3dd8 0d3e 810f ccbd
00000180: ef83 11bd 2d8c 5bbe 3013 ac3c 7240 a13c
00000190: 6bf0 c83c 7650 1ebe 34cf 33be c6e8 7cbc
000001a0: 69bd 063d f0a9 de3d b628 1c3d 7df5 d7bd
000001b0: bb94 9d3d 3555 7ebd 3b48 9ebb f17d 413e
000001c0: 5e2d f93b b165 91bd 82a2 d4bd cadd db3d
000001d0: b6be 99bc 5a9f 003d e33a a1bb c0f4 4fbd
000001e0: d598 4d3e 51ec 1a3e 817d acbe 0612 513c
000001f0: 9702 9fbd 4f37 53bd ed4d ce3d db9a bfbd
00000200: a0e6 dcbd 5619 f4bc 355d cfba 9416 b23d
00000210: 822e 103d e4e5 c03d eb86 c7bd 1f66 d13d
00000220: b39d dc3d 2251 933d f74a 2a3c 7530 fc3d
00000230: 02b6 0fbc 21b1 a8bc 5e1a 4dbc 634f 323d
00000240: d38e 543d 1bc0 d03d 0dc4 a23d 1f89 673d
00000250: 17a0 ed3c ed10 123d 358d c23d ddf3 1fbd
00000260: d598 9f3d 4d92 7ebd 28df 48bd 5f84 5a3d
00000270: 276c 9fbd 8b35 52bd dd40 183d a049 df3b
00000280: 1197 9d3d d57b 82bd edd6 e7bd 1f12 e83b
00000290: 8114 613d 4e15 1c3c e909 adbd cc28 a3bd
000002a0: 276d 423d ff73 bb3c c86c 8e3d 416a 89bd
000002b0: 8abd b43d 8cdb 25bc 8087 273d 70fa 93bd
000002c0: 548d 41bc d6fb c5bc f0a9 d3bd 79af a53d
000002d0: 99d3 353d 3360 a7bd 7b93 053d b49d 47bd
000002e0: 5cbe f1bd 9e10 bf3c c9f1 27bd 2de3 9d3d
000002f0: b322 fcbb 1044 97bd 7364 1abd b33d 4a3d

decoder.attn.v f4 [64]
-0.028532162 -0.03318499 -0.091180876 0.116281494 -0.047189012 0.0639233 0.051302746 0.038756207
-0.060400143 -0.026407257 0.04087293 -0.019231752 -0.07049896 -0.10120164 0.08571699 -0.07101123
0.108069316 -0.032200307 0.08989832 -0.124142304 -0.04477422 -0.021311924 0.021240905 -0.08428782
0.04461193 0.032370344 0.035116255 -0.0004942566 0.10351047 -0.083336115 0.06527136 0.056439742
0.053355873 -0.048612773 0.10738699 -0.077739984 0.12156415 -0.021682724 -0.11594625 -0.027413324
-0.1159541 0.11650613 -0.023086444 -0.057960883 0.10019845 -0.06066528 0.015734911 0.0795131
0.06916067 0.03250411 0.04006225 0.064512566 -0.060302183 0.007947072 -0.08202897 -0.121287346
-0.07405946 -0.1239254 -0.057020843 -0.10615599 0.10942516 -0.012942076 -0.118792266 0.074634925
00000000: 48bc e9bc fcec 07bd 0abd babd fe24 ee3d
00000010: 4449 41bd 38ea 823d d422 523d d4be 1e3d
00000020: 2466 77bd 0854 d8bc 606a 273d e88b 9dbc
00000030: c261 90bd ce42 cfbd 648c af3d 566e 91bd
00000040: 7253 dd3d 78e4 03bd 9c1c b83d 523e febd
00000050: 2c65 37bd 5896 aebc 6801 ae3c 189f acbd
00000060: 00bb 363d c496 043d 10d6 0f3d 0091 01ba
00000070: 4cfd d33d 20ac aabd feac 853d 5c2d 673d
00000080: b08b 5a3d 301e 47bd b6ed db3d 2436 9fbd
00000090: a0f6 f83d f89f b1bc 3a75 edbd e891 e0bc
000000a0: 5879 edbd c49a ee3d c81f bdbc 6468 6dbd
000000b0: d834 cd3d 287c 78bd 80e6 803c c4d7 a23d
000000c0: 1ca4 8d3d 0823 053d 5018 243d 2a1f 843d
000000d0: 6cff 76bd 7034 023c cefe a7bd 8065 f8bd
000000e0: 7cac 97bd 9acc fdbd b08e 69bd 5068 d9bd
000000f0: 4c1a e03d 000b 54bc 5c49 f3bd 32da 983d

decoder.attn.attn.weight f4 [64, 128]
-0.06385532 0.0076888055 -0.065986894 -0.06755726 -0.01585184 0.0698202 -0.04052233 -0.049438536
-0.035914414 -0.060625322 -0.010124862 -0.075994655 0.035624415 -0.08426617 -0.08348786 -0.081893876
-0.0528479 0.020715125 0.06584986 -0.048661992 0.053339504 -0.073572025 -0.06575638 0.030525848
-0.012287468 -0.042203292 0.00835374 0.0013305843 0.06823257 0.031676166 -0.0046358034 -0.07281606
-0.029342614 -0.06944191 -0.016957745 -0.021055251 -0.018790655 -0.06714536 0.034869976 0.034245662
-0.010203771 -0.03362293 0.021563508 0.052818976 0.032641776 0.010480054 0.010877743 0.0156684
0.008704029 -0.023205854 -0.061771423 0.056468852 0.05049842 -0.083495244 0.011259586 -0.059985936
0.08067193 -0.0052681416 -0.047346253 -0.049338903 0.047872193 -0.022829376 -0.009902835 0.079912655
-0.028609123 -0.05346179 0.021046586 0.01690758 -0.05991303 0.027611896 -0.05727392 -0.05529306
-0.06661825 -0.025624841 0.00094567984 -0.036841486 -0.053431742 -0.035380866 0.020567387 0.0066127107
-0.086749986 -0.07343358 0.0648519 0.00980404 0.048419543 -0.002275385 -0.0855084 -0.08355958
0.05392676 -0.01966381 -0.0360066 -0.08755713 0.04874801 0.011512093 -0.06312851 0.013901897
-0.057474025 -0.023383692 -0.049589403 -0.029877238 -0.018931992 -0.06955388 -0.060197532 -0.082427084
0.0553525 -0.05230094 0.06495393 0.05815763 -0.050433688 0.057436652 0.0044210553 -0.007994823
0.049266078 0.059838347 -0.0059350803 0.08505025 -0.05394742 0.059596546 0.04782296 0.0749161
-0.0061841086 0.08246004 0.07153522 -0.05911152 0.084627174 -0.0697968 0.08744889 -0.06303623
0.010259129 -0.072469294 0.036924772 -0.048563305 -0.038800642 -0.035390813 -0.07336822 -0.018485807
-0.027780134 -0.068350405 -0.044969685 -0.03150183 0.086809 0.03527101 -0.00548169 0.00722225
0.025402546 0.0033814013 -0.046862405 -0.07176952 -0.06053125 0.02023141 -0.0068171397 -0.054892424
0.051288106 0.057491846 0.01857169 0.07058623 -0.054518253 -0.04730739 0.03424304 0.0829239
0.012414478 -0.065923184 -0.010438949 -0.023506172 -0.051004652 -0.029993184 -0.024175212 0.013193756
-0.01260113 0.08262528 -0.04953905 0.013058834 0.069565706 -0.002376996 -0.07868692 -0.0032237098
0.0324575 -0.06095533 0.04884685 -0.0009813979 -0.055122744 0.010937311 -0.04285595 0.088162206
-0.076283306 -0.059109543 0.002313368 0.011634372 -0.014989749 -0.027361892 -0.051269103 0.06741712
0.08454228 -0.03830431 0.0015213415 -0.080302924 0.07689793 -0.049335204 -0.044357304 -0.045330334
0.022687763 0.030560546 -0.0743588 -0.022319615 0.046998568 0.012915872 -0.07856182 0.047994114
0.07270115 -0.0053977817 0.086725004 0.06109985 -0.07110886 -0.03736704 0.08020065 -0.026891027
0.07674571 -0.06432898 0.07517662 0.024347514 -0.073603325 -0.0823395 -0.0663869 0.07940217
0.024370521 0.027769715 -0.026766304 -0.0838589 0.07182812 -0.045169115 -0.012168966 -0.0073830187
0.0743668 0.034486502 -0.0064042658 0.0754186 0.07417717 -0.008249454 0.073666714 -0.043183997
-0.07789059 0.07593698 -0.004552126 -0.009784073 -0.057653874 -0.037798442 -0.04569104 0.0011380315
-0.07463902 0.043241538 0.019131616 -0.01010336 -0.05886092 -0.079662085 -0.04037356 0.05210968
00000000: 94c6 82bd 60f2 fb3b 2324 87bd 765b 8abd
00000010: b8db 81bc e5fd 8e3d befa 25bd 1080 4abd
00000020: fe1a 13bd 4252 78bd c0e2 25bc 16a3 9bbd
00000030: e8ea 113d be93 acbd affb aabd fab7 a7bd
00000040: 0a77 58bd c4b2 a93c 4bdc 863d cc51 47bd
00000050: 867a 5a3d eeac 96bd 48ab 86bd 5811 fa3c
00000060: 6051 49bc 5cdd 2cbd 20de 083c 0067 ae3a
00000070: 85bd 8b3d debe 013d f0e7 97bb 9620 95bd
00000080: ec5f f0bc 8f37 8ebd f8ea 8abc 107c acbc
00000090: dcee 99bc 8283 89bd d2d3 0e3d 2e45 0c3d
000000a0: b82d 27bc 33b8 09bd f4a5 b03c b658 583d
000000b0: 62b3 053d 88b4 2b3c 9038 323c 045b 803c
000000c0: 589b 0e3c 341a bebc 0804 7dbd e24b 673d
000000d0: 6ed7 4e3d 8eff aabd 207a 383c d0b3 75bd
000000e0: 5337 a53d 60a0 acbb 25ee 41bd 9717 4abd
000000f0: a215 443d ac04 bbbc 803f 22bc 3fa9 a33d
00000100: ae5d eabc c0fa 5abd e469 ac3c c481 8a3c
00000110: 5e67 75bd 5832 e23c 0f98 6abd fa7a 62bd
00000120: 266f 88bd 30eb d1bc 80e7 773a 19e7 16bd
00000130: 3edb 5abd 87eb 10bd f07c a83c 70af d83b
00000140: faa9 b1bd 5864 96bd 13d1 843d 20a1 203c
00000150: 9253 463d a01e 15bb 071f afbd 4921 abbd
00000160: 4ee2 5c3d 0016 a1bc a87b 13bd 2751 b3bd
00000170: feab 473d 389d 3c3c 8549 81bd c8c4 633c
00000180: e269 6bbd 288f bfbc 421e 4bbd 1cc1 f4bc
00000190: 4417 9bbc 4472 8ebd b091 76bd 88cf a8bd
000001a0: 4eb9 623d 8339 56bd 9106 853d b236 6e3d
000001b0: 8e93 4ebd b242 6b3d 80de 903b b8fc 02bc
000001c0: 3acb 493d 0e19 753d 107b c2bb d32e ae3d
000001d0: f8f7 5cbd 821b 743d 02e2 433d 9d6d 993d
000001e0: 10a4 cabb cfe0 a83d 0f81 923d ec1e 72bd
000001f0: 0351 ad3d a0f1 8ebd 6718 b33d 2419 81bd
00000200: e815 283c c86a 94bd 6e3e 173d 51ea 46bd
00000210: 6ced 1ebd f5f5 10bd 1442 96bd 8c6f 97bc
00000220: 2a93 e3bc 4cfb 8bbd 2232 38bd 1008 01bd
00000230: ebc8 b13d 5678 103d c09f b3bb a0a8 ec3b
00000240: 0019 d03c 809a 5d3b cbf2 3fbd e6fb 92bd
00000250: 9eef 77bd 58bc a53c 5062 dfbb e1d6 60bd
00000260: 7a13 523d 927c 6b3d a823 983c 838f 903d
00000270: 884e 5fbd 65c5 41bd 6e42 0c3d 01d4 a93d
00000280: 1866 4b3c bc02 87bd 2008 2bbc 0490 c0bc
00000290: 41ea 50bd 44b4 f5bc 180b c6bc a02a 583c
000002a0: f874 4ebc 7137 a93d 75e9 4abd b8f4 553c
000002b0: 7778 8e3d 60c7 1bbb 9c26 a1bd e044 53bb
000002c0: 28f2 043d 4cac 79bd a213 483d 40a2 80ba
000002d0: 63c8 61bd 6832 333c b889 2fbd 638e b43d
000002e0: 6c3a 9cbd d91c 72bd e09b 173b 189e 3e3c
000002f0: 9097 75bc 0c26 e0bc 8dff 51bd fd11 8a3d
00000300: 8124 ad3d fbe4 1cbd c067 c73a dc75 a4bd
00000310: a97c 9d3d b613 4abd 01b0 35bd 4dac 39bd
00000320: b0db b93c 1c5a fa3c 6d49 98bd a0d7 b6bc
00000330: 9281 403d 189d 533c 05e5 a0bd 7a95 443d
00000340: 57e4 943d e0df b0bb e19c b13d d643 7a3d
00000350: 86a1 91bd 2e0e 19bd 3d40 a43d 924a dcbc
00000360: db2c 9d3d eabe 83bd 33f6 993d 7074 c73c
00000370: 57bd 96bd 9da1 a8bd dbf5 87bd 9b9d a23d
00000380: b0a4 c73c 507d e33c 0245 dbbc 37be abbd
00000390: 9f1a 933d 4003 39bd 5860 47bc 40ed f1bb
000003a0: 9f4d 983d b841 0d3d e0da d1bb 1175 9a3d
000003b0: 33ea 973d b828 07bc 93de 963d b4e1 30bd
000003c0: 1a85 9fbd d984 9b3d 002a 95bb 604d 20bc
000003d0: 7826 6cbd 8ad2 1abd 8726 3bbd 002a 953a
000003e0: 58dc 98bd 0a1e 313d e8b9 9c3c 9088 25bc
000003f0: 2618 71bd e025 a3bd bf5e 25bd f670 553d

decoder.attn.attn.bias f4 [64]
-0.08530028 0.011066034 -0.07249467 -0.082651325 0.04534135 0.05199202 0.018659852 0.080015995
-0.019023076 0.08525979 0.041867577 0.07123431 -0.024300627 0.016009428 -0.044931732 -0.028423097
-0.01609534 -0.08564601 -0.00529892 0.058765627 0.0589154 -0.06335386 -0.0631644 0.0575651
0.058347173 0.072881706 -0.059098374 -0.08453234 -0.057544082 0.021859556 -0.052071407 -0.04196002
-0.021630362 -0.034054697 -0.023100697 -0.077689886 -0.0281968 0.036403388 0.06136731 -0.017009027
0.055711858 0.013643637 0.0073340684 -0.033132534 0.009512462 0.011323132 -0.002152674 0.02296722
0.05965159 -0.007439919 0.00034858286 -0.0016534925 -0.056612056 -0.0030562058 0.03672882 0.019505806
-0.03841033 -0.06582929 0.00942532 0.05676437 0.013222352 -0.059918404 0.08075378 -0.04995967
00000000: eab1 aebd 504e 353c 1678 94bd 1945 a9bd
00000010: dab7 393d 96f5 543d 8cdc 983c 6ddf a33d
00000020: 48d6 9bbc af9c ae3d 567d 2b3d 4be3 913d
00000030: 1c12 c7bc 3426 833c 560a 38bd 8ed7 e8bc
00000040: 60da 83bc 2d67 afbd 90a2 adbb 3ab4 703d
00000050: 4651 713d abbf 81bd 565c 81bd 62c9 6b3d
00000060: 72fd 6e3d 0143 953d 2311 72bd 4b1f adbd
00000070: 58b3 6bbd d012 b33c d448 55bd 45de 2bbd
00000080: 2832 b1bc f07c 0bbd ac3d bdbc e01b 9fbd
00000090: fafc e6bc b81b 153d 4a5c 7b3d 8456 8bbc
000000a0: 1e32 643d 9089 5f3c a052 f03b fbb5 07bd
000000b0: 28da 1b3c a884 393c e013 0dbb c025 bc3c
000000c0: 3a55 743d 90ca f3bb 00c2 b639 00ba d8ba
000000d0: 0be2 67bd a04a 48bb f670 163d a4ca 9f3c
000000e0: 2654 1dbd 82d1 86bd a86c 1a3c c281 683d
000000f0: 90a2 583c 006d 75bd 3d62 a53d 83a2 4cbd
