checkpoints/models/single_stock_daily/81to9/000001/model30.pth (torch, 543834 bytes, 24 tensors)

encoder.conv1.weight f4 [18, 6, 3]
00000000: 0764 26bc 3108 e13d 153b 65be 85fe 0abe
00000010: 9272 9cbd 9255 b5bd a446 f4bb e355 3d3e
00000020: 1b84 ac3d 22bb 5dbe 18f2 663e 130b 5b3e
00000030: b56d 913d bdb2 fb3d cc4e e53d 6ae3 233e
00000040: fff8 7abe 7d6a 13be 9de7 bbbc 940c 0cbd
00000050: 173a 16be db04 65be fc03 2fbe 7b08 febc
00000060: 8e1e 543e 11f6 333e a030 a63d 2704 0fbe
00000070: 9406 a4bd f309 053d b5a1 5abe b057 813b
00000080: aab8 6b3d ce63 843e 1a29 53bc bb05 8f3e
00000090: be50 bf3c 1ed7 21be 10ef 683e 474a 493e
000000a0: 682d 53be 488d 1abe 150b c63d ae05 3bbe
000000b0: f41e 013e 99ee ffbd b4f5 d2bd f46a bebd
000000c0: c7ff 593e 82cf debd 7ff8 8fbd 8c1c 043e
000000d0: 0f54 4dbe b1b4 26bd 9198 3ebe f680 61be
000000e0: 56e4 6ebd 6c35 b03c 4f1b 3f3e 3308 79be
000000f0: 7385 a1bd 410a 053d 6162 5b3d 4609 053e
00000100: 1afb 58be 7ee7 acbd 36cc 3d3d 709e 58be
00000110: 0bf3 bb3d eeb3 7abe c656 da3d 4c4e d53c
00000120: c491 81bd 4ad3 9b3d b74a 4d3e ebae 2f3e
00000130: cb87 183e b326 03be dd94 913d f9cf 473e
00000140: 966e 893d 4e9d 203e d2e6 08be 05cd 3b3e
00000150: bf1b debb bc88 4bbe fbe6 30bd f9e4 603e
00000160: d286 66bd 9558 6cbb 6a52 b8bd 1008 ffbd
00000170: 3b7e 323d 7a9e 0f3e 6907 b23c 4874 b4bc
00000180: cc74 103c 1360 41be bdac 0dbe 9618 043c
00000190: d05d 4abe 469a d83d 1bb3 033d 606a debb
000001a0: c8f6 d5bc f855 4c3e ff00 563e 994d db3d
000001b0: 18b4 ee3d 8bab f3bd 8142 c73d ecb8 2abe
000001c0: cfb6 cd3d 2490 22be 4b43 a1bb b6d0 373e
000001d0: 96ed 3a3e 4f81 4f3e 5945 ac3d 7b68 df3d
000001e0: 0af6 6d3d dda4 343e 2721 113e 945d 9f3d
000001f0: 7330 72bd f7ba 9dbd 1c67 43bd 27ed 013e
00000200: 160f eebd 8e42 913d 3543 653e 1c42 4f3e
00000210: 919d 23be 56db d13d 3655 2a3e d68d 50be
00000220: 8bbe 353e c481 0ebe 51f5 23be d0ba 95bd
00000230: bae8 a5bd eea6 d8bd e4ea 8d3d 111c 973d
00000240: 478c bf3d 71c1 283e c225 17be f01b 68be
00000250: a4b8 4bbe 4e0d 12be 20db ebbd b10e aa3d
00000260: 578d 49be 15df 35be 645b e23d 0751 2ebe
00000270: 4429 203d 73d0 47be ca7c 8f3d 7257 0f3e
00000280: 4d8f 62be ad40 493d 324a 06be 25ff 0d3e
00000290: aa45 513e 066d 5bbe 7c23 9f3d 1906 153e
000002a0: 0d0b 4f3e 9683 333e b939 fa3c c780 3339
000002b0: a85a 2c3d 1419 1fbe 993a 73bd a1a4 1fbc
000002c0: 30a2 27be 20a6 24bd ebec 70bd 05d4 e5bd
000002d0: 574b 94bd f5dd 70be a213 643e 3dfb ea3d
000002e0: 9fff 323e 5a27 48be 721c 6abe cb26 423e
000002f0: 63b1 d3bc 0360 173d f8b6 023e 3f7e d13c
00000300: d158 f0bb 8151 193e 60b9 4b3e d07a aabd
00000310: 50ba 53be 9548 09be 6075 2b3e f297 843c
00000320: e313 493e 3a8d a7bd 5901 70be c500 943d
00000330: 927b dcbd 8d1c 2dbe 37a2 0f3e c7cb 503c
00000340: e6ac 24bd 3ab1 663e d95d 4e3e abce 59be
00000350: 561c 62be ba15 27be 32f2 79be bc19 45be
00000360: 9648 1a3e bd2e 26be 0f3e 553e f031 903d
00000370: b49a 913c eed2 293d 92dc 5c3d 1c9f ca3d
00000380: d4a8 34be f841 53bb 886a 303e 5bbc 783e
00000390: e1aa 3fbc 8f47 1cbe 9a73 ef3d ceaa 41be
000003a0: 9389 813e 8af8 403e 689e dd3d 0a0e 0e3d
000003b0: da72 313e 77a5 c4bd a32a 50be 8569 0ebe
000003c0: 09db 2e3e 4365 09be 8e98 55be 673e 483d
000003d0: ed09 22be c056 cdbc 090a 1cbe 8c99 1b3d
000003e0: 2122 5bbd a349 d23c ddb9 bb3d 19a5 32be
000003f0: 5ea3 97bd 5263 1ebe 032f 4d3e 0060 b2bd
-0.010155684 0.109878905 -0.2238582 -0.13573654 -0.0763904 -0.08854212 -0.00745471 0.18489794
0.084236346 -0.21653417 0.22553289 0.21390943 0.07101003 0.12289951 0.1119667 0.1600472
-0.24509047 -0.14396091 -0.02293759 -0.034191683 -0.14670597 -0.22365133 -0.17091364 -0.031009903
0.2071478 0.17574336 0.08114743 -0.13966428 -0.08009067 0.03248019 -0.21350749 0.0039472207
0.057549156 0.25857395 -0.012888217 0.2793406 0.02335393 -0.15804717 0.22747445 0.19657241
-0.2062279 -0.15092957 0.096700825 -0.18263885 0.12609464 -0.12496681 -0.103007704 -0.092977434
0.21288978 -0.10879423 -0.07029819 0.12901515 -0.20051597 -0.040699665 -0.18612887 -0.22021851
-0.058323227 0.021509849 0.18662761 -0.24319534 -0.078867815 0.032480482 0.05356062 0.12991819
-0.21189538 -0.08442591 0.04633733 -0.21154189 0.09177216 -0.244827 0.10661082 0.026038311
-0.06326631 0.076086596 0.20048033 0.1715657 0.14895551 -0.12807731 0.071084715 0.19512929
0.06710546 0.15685007 -0.13369301 0.18339927 -0.00677821 -0.19876379 -0.04318903 0.21962346
-0.05628092 -0.0036063541 -0.09000094 -0.1245271 0.043577414 0.14025298 0.021732049 -0.022028103
0.008816909 -0.18884306 -0.13835426 0.008062502 -0.19762349 0.105763 0.03215323 -0.006787583
-0.026118651 0.1995467 0.20898817 0.1070816 0.11655444 -0.118979536 0.097294815 -0.16672105
0.100446336 -0.15875298 -0.004921352 0.1795071 0.18254694 0.20264171 0.084116645 0.109086
0.05809597 0.17641015 0.14172803 0.077815205 -0.059128236 -0.07701676 -0.047705755 0.12688123
-0.11623971 0.070927724 0.22388919 0.20240062 -0.15978076 0.10246913 0.16634068 -0.20366606
0.17748468 -0.13916689 -0.1601155 -0.07311022 -0.0810103 -0.10578714 0.069295675 0.073784
0.09352928 0.16480042 -0.14760497 -0.22666907 -0.19894654 -0.14262888 -0.11516404 0.083035834
-0.19682823 -0.1776088 0.11052588 -0.17023097 0.039101854 -0.19513111 0.070062235 0.13998201
-0.22124977 0.049133945 -0.13114241 0.13866861 0.20436731 -0.21428308 0.0777044 0.14553107
0.2021906 0.17530665 0.030545102 0.00017118744 0.042078644 -0.1553691 -0.059382055 -0.00974384
-0.16370463 -0.04019749 -0.058819693 -0.1122208 -0.072409324 -0.2352217 0.22273114 0.11473701
0.17480324 -0.19546261 -0.22862414 0.18960111 -0.02584142 0.0369568 0.1276511 0.025572894
-0.0073348065 0.14972498 0.19894934 -0.08324206 -0.20676541 -0.13406594 0.16743994 0.016185734
0.19636492 -0.08181234 -0.23438014 0.07226709 -0.10765757 -0.16905423 0.14026724 0.012743897
-0.04020395 0.22528544 0.20152988 -0.21270244 -0.22081122 -0.16316882 -0.24408796 -0.19248098
0.15066752 -0.16228767 0.20824455 0.07040775 0.017773964 0.041460924 0.05392129 0.09893629
-0.17642528 -0.0032235365 0.17228138 0.24290602 -0.011698456 -0.15261672 0.11691971 -0.18912813
0.25300273 0.1884481 0.10821229 0.034681357 0.17328969 -0.096018724 -0.20328765 -0.1390744
0.17075743 -0.13417535 -0.20858976 0.048887637 -0.15824099 -0.02506578 -0.15238203 0.03798823
-0.053499345 0.025669878 0.0916631 -0.17445792 -0.07404207 -0.15467575 0.20037465 -0.08709717

encoder.conv1.bias f4 [18]
00000000: 0d28 1abe 9d49 7dbd b4dd b0bd 57fd 5d3e
00000010: 5288 443d 4007 2ebe 0c5c 1d3e ef85 edbc
00000020: 4c4e e33c aecb c03c 76c6 0ebd 213d 693e
00000030: 3bba b03d 0cfe 783d 4009 9bbd 1b2d 293d
00000040: 3ed7 33be 72be 92bd
-0.1505434 -0.06183778 -0.086360365 0.21678673 0.047981568 -0.16994953 0.15367144 -0.028994529
0.027747296 0.023534622 -0.034857236 0.22777225 0.08629271 0.060789153 -0.07570124 0.04130278
-0.17562577 -0.07165231

encoder.conv2.weight f4 [54, 18, 3]
00000000: cebd 6a3d 67be 1bbe 26d6 a2bc c10a 59bd
00000010: e650 873d 39a9 b1bd 1874 ac3c c302 0ebd
00000020: c6ab fb3d e05e 77bc f787 adbd eace d2bc
00000030: 76f3 c43d 4d85 513d 910b db3c 32a0 a33d
00000040: f402 4b3d cf99 a0bc 611d 96bd 3e65 09be
00000050: eaf3 753d cfaf cd3d 3e69 85bd 91a4 94bd
00000060: 4491 073d de5c 14ba 0f56 f03d e39e 95ba
00000070: 5133 c5bb 997a 05be b6dd 003d 3e38 8ebc
00000080: abd9 403c 30d7 b53d 4209 8a3d 13e8 413c
00000090: b5db 29bc 9928 91bd 011a f53d 64c5 063e
000000a0: b8d7 c23c 5355 243e 842f ed3d 2868 9d3d
000000b0: 7ee1 933d 032b 513d 65b0 f3bc 65ef ba3b
000000c0: ee4a f73d 4981 99bc 28cf 273d 65b8 18bd
000000d0: bb14 fe3c 2fcc b43d 019d ee3d dd3c eb3d
000000e0: 8623 ca3d 0524 d5bc a649 033e 9f21 d03d
000000f0: 69cc 073e 9750 f0bd 54e5 83bd f438 ebbd
00000100: 52a7 2aba 1348 cb3d 3ba4 c8bd b25b 013d
00000110: 2fde 23bc 6698 01be edd9 15bc f2c1 80bc
00000120: d758 88bd a8d3 a9bd b3cc 9e3d 32d0 7539
00000130: df51 83bb 809a a6bc fed0 96bc b6fd 1bbd
00000140: 55b1 9dbd 5bab 563d 4712 643b 5335 f5bd
00000150: f1b3 78bd 43ba b4bb fc6d 1fbd 8a6b 053d
00000160: b01e d93d 2c61 edbd 3dd9 a5bb f6e2 ea3d
00000170: 4aee b0bd c280 e9bd fd5d d33c b986 71bb
00000180: 5b96 053c 7d85 b33d 27b9 e3bd 2663 acbd
00000190: 7391 c73d 42f1 c6bd f949 ebbc 734e a73d
000001a0: 5bf5 6dbd 916f dabd 03f2 a4bd be15 c3bd
000001b0: 6d58 e2bd 7c96 72bb 9f7c b5bd c2ad bfbd
000001c0: 5f04 4d3b 56b5 f63d 7ed5 053e 2723 e23d
000001d0: f016 75ba 1363 743d 0e8b 8abd b4e6 febd
000001e0: 8ace 9b3d 071e 803d 5e64 613d ee46 753d
000001f0: 7abc 16bd 2517 be3d 045b a63d c742 51bd
00000200: 2411 e13d 2119 1e3d dc10 a9b9 7318 b53b
00000210: 1d12 d83d 8219 25bc f618 133d edbc d93d
00000220: 7aeb 203c cfc3 093e 69fe 84bd cc34 94bb
00000230: ce60 143d bc3a 583b ba74 c9bd d66a e43d
00000240: 4f6c 8cbd ed42 d83d 245e 42bd a6d9 2a3d
00000250: b0bc bfbd 1b85 a2bd 3eb3 de3c d866 b43d
00000260: acc2 aabc d33e 6b3d e470 8bbd 4b29 5d3d
00000270: a762 66bc ee67 47bd c252 973d 41d6 5bbd
00000280: 35e4 c7bd c002 45bd a0d3 543d 067f dc3d
00000290: af7f da3d 4578 bf3d be76 acbd 8a8f fa3d
000002a0: 38e5 6b3d a059 153d cdf8 8bbd 975e 4ebd
000002b0: 936f 8a3d 39b2 683c b859 22bd 200c dbbd
000002c0: 3962 e73d 8af4 293d 64c4 973c 0928 4f3c
000002d0: da7d 8a3d e77f b9bd cf28 49bc 1c06 e33d
000002e0: ae56 18bd ff3f 02be d9bc 89bd 93dc cd3d
000002f0: 43eb ae3d edbb c23d bb9c 64bd 53e0 8fbd
00000300: 9f17 0abe 53f4 c5bc 4dc0 65bd 920b 073e
00000310: 7bf6 43bd e9fa 9bbd c8a4 4f3d 4796 60bd
00000320: b492 87bc e33d 213e c0f4 e23d 8f7a edbd
00000330: fda4 a33b 18e6 033c 0a40 0b3e adec f6bd
00000340: f74e 943d abab 13be e0aa f2bd bdb7 aebd
00000350: 1e3f 0ebe bec5 0d3b 78f4 f43d 2397 f4bc
00000360: 8af1 a5bd 0f0b af3c a270 d5bd c810 dc3d
00000370: 6d13 f23c 3ce8 073e 1e6a 693d a0b7 0c3d
00000380: 4fc9 1f3d b6d2 db3d 2532 fcbd 26bc d4bd
00000390: edfd cf3d e376 453d c624 f93d c5d6 1f3d
000003a0: 5a1f 5a3d 0e32 bf3d f515 b73d ec2e a03d
000003b0: fba4 e0bd 4c53 743d 5f08 87bd 105c 053d
000003c0: 8fb4 923d 73f4 42bd ec92 fb3d 07b6 e33d
000003d0: c763 3f3d 1b79 ccbd d9ec f5bb 4257 fe3d
000003e0: 8316 3c3c b224 e13d 99da bebc e841 a9bd
000003f0: 9541 b93d c533 3e3d 0075 973d 7dbb c4bd
0.057309918 -0.15209351 -0.019877505 -0.05298877 0.06607227 -0.08674855 0.021051452 -0.034670603
0.122886226 -0.015098304 -0.08473199 -0.02573343 0.09616749 0.051152516 0.026738914 0.07989539
0.049563363 -0.019604592 -0.07329822 -0.13417527 0.060047068 0.100432985 -0.06514214 -0.07257951
0.03309752 -0.000565959 0.117351644 -0.001141515 -0.0060180803 -0.13035049 0.03146144 -0.017360803
0.011770646 0.088789344 0.06740047 0.011835116 -0.010367324 -0.070878215 0.119678505 0.13161236
0.023784503 0.16048174 0.115813285 0.07685882 0.072207436 0.05106641 -0.029747197 0.0057048076
0.120748386 -0.018738406 0.040969044 -0.037285227 0.031015744 0.088280074 0.1165104 0.11486218
0.09870057 -0.026018152 0.12821063 0.10162663 0.1326157 -0.11734121 -0.06440225 -0.11485472
-0.0006509918 0.099258564 -0.097969495 0.031581588 -0.010001703 -0.12655792 -0.009146196 -0.01571748
-0.0665757 -0.08292323 0.07753887 0.0002344258 -0.0040075625 -0.020337343 -0.018410202 -0.038083754
-0.07699839 0.05240951 0.0034800933 -0.119730614 -0.06071848 -0.005515368 -0.03892325 0.03257326
0.10601556 -0.115908 -0.005061297 0.114690706 -0.086392 -0.11401512 0.025801653 -0.0036853983
0.008153523 0.08765695 -0.111192994 -0.084173486 0.09744539 -0.09713985 -0.028721796 0.0816926
-0.058095317 -0.10665811 -0.080539726 -0.09525631 -0.11052022 -0.0037015965 -0.0886166 -0.093593135
0.0031283123 0.12046306 0.13069722 0.11041861 -0.0009349426 0.059664797 -0.06764804 -0.12446347
0.076077536 0.06255727 0.05502736 0.059882097 -0.03680084 0.09281758 0.081228286 -0.051089074
0.109895974 0.038598184 -0.00032246753 0.005526596 0.1055033 -0.010076882 0.035912476 0.10631738
0.009821767 0.13453601 -0.064938374 -0.0045228954 0.036225133 0.0032993993 -0.09836717 0.1115319
-0.06856596 0.1055964 -0.04745306 0.041711472 -0.09362161 -0.07935544 0.027185079 0.088086784
-0.02084478 0.05743296 -0.068086416 0.05399446 -0.0140616065 -0.0486831 0.07388832 -0.053671125
-0.09760324 -0.048098326 0.051959634 0.10766415 0.10668885 0.093491115 -0.08421086 0.12234409
0.057591647 0.036462426 -0.06834564 -0.050383177 0.06759562 0.014202648 -0.039636344 -0.10695672
0.11298031 0.041492976 0.018526264 0.0126438225 0.067622855 -0.090575986 -0.012277796 0.1108515
-0.03719204 -0.12719725 -0.06725473 0.10051837 0.08540966 0.095085 -0.055813532 -0.07025208
-0.13485573 -0.024164354 -0.056091595 0.13188007 -0.047842484 -0.07616217 0.050694257 -0.054830816
-0.016549446 0.15746264 0.110818386 -0.11595642 0.0049940334 0.008050464 0.13598648 -0.12056861
0.07241624 -0.14420955 -0.11848998 -0.08531139 -0.13891265 0.0021632756 0.11960691 -0.029857224
-0.081027105 0.021367578 -0.10421874 0.10745388 0.029550279 0.13272184 0.056985967 0.034354806
0.039010342 0.10733549 -0.12314252 -0.10387449 0.101558544 0.048209082 0.12165217 0.03902318
0.053252555 0.09335719 0.08939735 0.0782145 -0.109689675 0.05964975 -0.065933935 0.0325585
0.07163345 -0.047596406 0.122838825 0.11118703 0.046726014 -0.099840365 -0.007505041 0.12418987
0.011479977 0.10993327 -0.023297595 -0.08264524 0.09045712 0.04643609 0.07395363 -0.09606073

encoder.conv2.bias f4 [54]
00000000: 9415 96bd 706d b5bd 8cde 15bc 5fe9 f83d
00000010: e372 f0bc 1fcd 07be 0902 86bd 217a b9bd
00000020: 283a dd3d 6489 cbbd 4f52 d53d 2b00 473d
00000030: 1838 8ebc 06be 17bd dc84 923d a48d 8fbd
00000040: 178b 4abd ebfd 043e 1488 24bd 7628 c23c
00000050: e43f f33d 7912 d3bd bd59 e93c 3aee 503a
00000060: f06b 90bd ed12 ed3d 317a d03d 993c f5bb
00000070: 5b7d 87bc 8b84 c33d 835d 2ebd 5b44 973d
00000080: d252 a5bd 13ef d4bd 56e3 ac3d 8656 c13d
00000090: 0b84 d6bd 5f95 dbbc a2de 2e3d 9a5e 983d
000000a0: c2cd 8c3d ae49 b93d 687d 86bd ede8 ed3c
000000b0: 0e73 d83d 203a efbd 45a2 c03d 48ab 2d3d
000000c0: 3b94 603c 4e4f 0b3e 3a1e 4fbd 5e4f 31bd
000000d0: e0d0 bfbd 5a99 d63d
-0.073283345 -0.08858764 -0.009147298 0.12153887 -0.029351657 -0.13261841 -0.06543357 -0.09056497
0.10802108 -0.099383146 0.1041609 0.048584145 -0.017360732 -0.037046455 0.07154247 -0.07009438
-0.049449053 0.12987487 -0.040168837 0.023700934 0.118774205 -0.10306258 0.028485173 0.0007970069
-0.070518374 0.115758754 0.10179556 -0.0074840304 -0.016539266 0.09546765 -0.04256965 0.07386085
-0.08072437 -0.10397162 0.084417984 0.09440331 -0.10474404 -0.026804624 0.042692788 0.07439919
0.06875183 0.090472564 -0.06566888 0.029041732 0.1056882 -0.11681008 0.094059505 0.042399675
0.013707216 0.13604471 -0.050565936 -0.04328858 -0.093660116 0.10478468

encoder.rnn.weight_ih_l0 f4 [192, 54]
00000000: dee1 c9bd a9ff f33d cfe6 a6bd 5794 7b3d
00000010: d2be a1bd 5e5f ea3d 7899 c4bd 60c9 9cbd
00000020: 7db9 7abd ef45 9fbd e71e 0b3e a0c1 673d
00000030: abc2 bebd e65a 9cbd 0688 32bd 1972 dc3a
00000040: 7d90 9abd 7d00 843d da99 8fbd 66f9 9e3c
00000050: 592d b23d 6358 bcbd 5fbc b5bd 1691 bdbd
00000060: b404 a53c b63b cb3d c542 9cbd 6437 1f3c
00000070: 75c2 a73d 3a38 d73d f223 7e3d 0d8e 423d
00000080: 1ea7 913c 0b35 943b 8db1 ec3d 5e84 363c
00000090: 6d49 7d3d 8efb 7e3c 8e4f ce3d 0c93 febd
000000a0: 4b87 12bd 4d11 eebd a4e3 233d af17 26bd
000000b0: 1df8 cbbd aeac a8bd c335 b13c 7870 b43d
000000c0: 3025 e33d e341 9d3d 59d4 dcbd 6c41 d23d
000000d0: 925d eb3d 4fcb a8bb f49d 18be 4605 abbd
000000e0: b153 e8bd 4491 91bc d3d3 233e a998 d23d
000000f0: 2f29 2fbd f55e efbc bd61 2b3d 4085 46bd
00000100: 1e62 b0bd 8f3e e13c c70b d93c 0180 853d
00000110: b4df 54bc 4d7e 8d3d 6c0d dabd 4e0d b13d
00000120: 39f0 843d c2c2 ebbd bb02 3ebd f4a3 59bc
00000130: 28fb 3e3d 9b9b 063e 1608 5fbd 75be d5bd
00000140: 2e18 13be ff7d cb3d bfe3 a8bd a547 d4bd
00000150: 340e 933d a05f 8b3d 5cbf 653d c394 f53d
00000160: de09 bcbd 535d 17bd 271d 82bc 0f06 bc3d
00000170: 6f78 f0bc 32ca 86bc 401e ec3d 1c20 813d
00000180: 7707 f3bc cacc f0bd d759 e9bc 44e6 d93d
00000190: 8169 b83d 8e08 073d 725e cb3c 5560 993c
000001a0: 0f13 58bd a329 453c f05c b23d c968 353d
000001b0: 7497 e43c bb00 b63d e17f a03d 9c6f 003d
000001c0: 55f5 a7bc c805 16bd f6ac 6dbd 03c8 80bd
000001d0: 944c eb3d cdf5 e13d 71cd d7bd 8b88 da3d
000001e0: 3901 94bc b92f fbbc 2b0c 113d 9c26 e1bd
000001f0: 8233 81bd d970 1dbd d656 14bd ccdb 813d
00000200: 382a 27bd 988a cabd e67d 01be 4065 033e
00000210: 16f9 8e3d 7f29 17be a2d4 f5bd d707 c7bd
00000220: 0079 e03d 0489 5d3d d97d 203d 6ffb 843d
00000230: b168 b73c d6e9 c83d 0a33 d6bd 4771 c53d
00000240: 4f92 753d 4760 1d3d a052 9b3d 0af1 00bd
00000250: ba89 84bd a79d 20bd aaa7 bfbd 5217 6cbc
00000260: e32f 733d 6aec 993d 3b08 96bc adaf 393d
00000270: ef86 00be c32c bcbd 1419 d5bd cea1 0f3e
00000280: b22a e1bd 9675 6f3d 6da6 a83d 1d6a cdbc
00000290: 3f83 92bc 2c5c c83d 19d3 a7bd 0778 e9bd
000002a0: 49ce bdbc 88d7 b83b 5afa 8ebd ba15 ac3c
000002b0: c66e e33d 77a3 763d c0a3 1c3d 8408 be3d
000002c0: 7a3f 88bd 8ec1 e3ba 64bd ea3c e2d0 ed3c
000002d0: 67eb 4dbd f821 b73d 8e38 d0bd 0b0d 7fbd
000002e0: 24de 00be 428f 113d 8766 c2bd 1171 b83d
000002f0: 4307 c2bd fef8 753d 5804 e83d 59b9 e53d
00000300: ab41 123d 9bf6 453d c182 953c 932c 953d
00000310: 7792 c4bb ab58 c4bd 6178 043e d915 a9bd
00000320: c043 f53d fc54 90b8 480a 883d 6485 a83a
00000330: 45db 843d f3be 923d d050 e7bd 8a58 8d3d
00000340: bf33 32bd 3e9c e4bd a722 cbbd 3846 13bc
00000350: 129e 9c3d b489 cabd 7c34 0b3d 0593 183d
00000360: 851a eabd a1f6 b03c c4be 93bd 6333 d13c
00000370: 7adb 4d3c 512d cc3d 500f c9bd 8a01 a23d
00000380: 65bf cfbc a92b 833c 7087 bd3c cb03 12be
00000390: 692e 623c 5a8f 60bc eee9 0e3c a772 70bd
000003a0: 649b b73d 1523 59bd 56a1 76bd ae29 a33d
000003b0: 95eb 31bd ce78 2f3d e123 7b3d 5622 67bd
000003c0: 0289 243d 68e6 c03d 18c7 dc3b 91a9 bc3d
000003d0: 7b14 6e3d 471c 953d 710c c13d b750 8c3d
000003e0: dc14 033d d594 8a3d f03f 973d 4a8a f6bb
000003f0: 6f2c ed3b 857a d8bd c947 2abb f740 763d
-0.09857534 0.11913998 -0.08149492 0.061420765 -0.07897724 0.11443971 -0.09599584 -0.07655597
-0.06121205 -0.07777011 0.13586007 0.05658114 -0.09314474 -0.07634525 -0.043586753 0.0016818672
-0.0754709 0.06445406 -0.07011767 0.019406032 0.08700056 -0.09196546 -0.088738196 -0.092561886
0.020143844 0.09923498 -0.07629923 0.009717796 0.081913866 0.10508771 0.062046 0.04749875
0.017779883 0.004522925 0.115573026 0.011139957 0.061837602 0.015562905 0.100737676 -0.12430391
-0.035773557 -0.116243936 0.040012017 -0.04054993 -0.09959433 -0.08236061 0.02163208 0.08810514
0.11091077 0.076785825 -0.107826896 0.102663845 0.114924565 -0.0051511894 -0.14904004 -0.08350615
-0.11344088 -0.017769463 0.15998773 0.10283024 -0.042763885 -0.029220084 0.041841257 -0.04846692
-0.08612464 0.02749565 0.026494874 0.065185554 -0.012992788 0.069088556 -0.10647091 0.08645116
0.06491131 -0.115117565 -0.046389323 -0.013283718 0.04662624 0.13145296 -0.05445107 -0.104367174
-0.14364693 0.09936141 -0.08246564 -0.103652276 0.071804434 0.068053484 0.056090698 0.11991265
-0.091815695 -0.036954235 -0.015883042 0.09180843 -0.029354302 -0.016453836 0.11529207 0.063049525
-0.029666645 -0.117578104 -0.028485222 0.10639623 0.09004498 0.032967143 0.024825308 0.018722693
-0.05275255 0.012033853 0.08709133 0.044289384 0.02790425 0.08886858 0.07836891 0.03135644
-0.020502726 -0.036626607 -0.058026277 -0.06288149 0.114892155 0.11033211 -0.10537232 0.10670575
-0.01806699 -0.030662404 0.035411995 -0.10993692 -0.063086525 -0.038437698 -0.036215626 0.06340751
-0.040811747 -0.09889716 -0.12645683 0.12831593 0.06981103 -0.14761923 -0.12003447 -0.09718292
0.10960579 0.054085746 0.039182518 0.0649327 0.022388788 0.09810226 -0.10458954 0.096407466
0.059953984 0.038421895 0.07584119 -0.031479873 -0.06471582 -0.03921285 -0.09358151 -0.014409857
0.05937184 0.075157955 -0.018314471 0.045333553 -0.12551473 -0.09188225 -0.10405174 0.14026567
-0.109944716 0.058461748 0.08234868 -0.025075013 -0.017884849 0.097832054 -0.081945606 -0.113998465
-0.023169653 0.0056409277 -0.069813445 0.021006454 0.11105113 0.060214486 0.0382421 0.09278968
-0.06652732 -0.0017376409 0.028654762 0.029030267 -0.050273325 0.08942026 -0.10167037 -0.062268298
-0.1258474 0.035537012 -0.09492212 0.09005941 -0.09474041 0.06005191 0.113289535 0.11216993
0.035707157 0.048330884 0.018250825 0.072838925 -0.0059989053 -0.095872246 0.12936546 -0.0825612
0.11975813 -6.882285e-05 0.06642586 0.0012857136 0.06487135 0.07165327 -0.11294711 0.06901653
-0.04350638 -0.11162613 -0.09918719 -0.008988909 0.07647337 -0.09889546 0.0339856 0.037249584
-0.114308394 0.021601977 -0.0721412 0.025537198 0.012564534 0.09969581 -0.09817374 0.0791045
-0.025359819 0.01601203 0.02313587 -0.1425926 0.01380501 -0.013706053 0.008722765 -0.05870309
0.08965185 -0.053011972 -0.060212456 0.07966934 -0.04343756 0.042839818 0.061313514 -0.05642923
0.040169723 0.094189465 0.006737601 0.0921203 0.058125 0.07280784 0.09426201 0.06851333
0.032002315 0.06766669 0.07385242 -0.0075238096 0.007237963 -0.10570244 -0.0025982729 0.06012055

encoder.rnn.weight_hh_l0 f4 [192, 64]
00000000: e5a1 92bd 6eaf e13d ce93 e5bc 80cd 9fbb
00000010: c6c4 713d 9339 87bd 5e46 423c 04ac 41bd
00000020: ce44 99bd bcb9 9f3d 667f cf3d 2dd1 693d
00000030: 4c43 ef3d 3f84 543d f6b9 d63d bd04 04bd
00000040: ca22 bf3d 4db8 af3c f001 513c a463 df3d
00000050: 1cc3 c1bd ecb5 b6bb f973 72bd 01f2 dc3d
00000060: cbc1 68bc dd90 643d 8395 ac3d 66fb 883d
00000070: d8ea 4bbd 60ea 9d3c 3549 603d 9f50 6ebd
00000080: 4bec 4a3c 931d debd ee38 b23c dd1d ae3d
00000090: 8c3a 153c 9ca8 833c b1d3 e13d 2c6d a73b
000000a0: 420d 26bd 3b54 d63d 9d15 9bbd 6c66 773d
000000b0: f7cc 853d 1287 a43a e517 10be ba85 523d
000000c0: 797d c53d e410 3fbc 2a19 ab3d b5eb af3d
000000d0: b19c cc3c 283d f43d 7689 83bd 7071 5b3c
000000e0: b8b1 b2bd da22 d63d a86b 553d 15f6 dd3d
000000f0: fc16 b8bd 95a0 ce3d 51ef bf3d 5191 e33d
00000100: 8729 66bd e92c abbd a979 c93b 4619 c13d
00000110: 6d6a c43d 9369 bfbc 6d55 99bc a684 18bc
00000120: dde2 febc c8b4 1c3d 31fb 603c 6444 b2bb
00000130: 13d7 b7bd 04cf 51bc ce53 9b3d f0a4 96bd
00000140: 7b41 ba3d 4626 5a3d a0da dd3c 31ce 513d
00000150: 478d af3d dc79 ec3d 92eb 9ebd 4d61 583d
00000160: 0f58 9d3d 3c3e 0dbe 434f a83d cc1b 08be
00000170: 4cb3 a0bd db81 adbd 79a8 93bd 915a 8dbd
00000180: 5d71 733c f7e7 9ebd 9769 2dbd 7231 cabd
00000190: d6e5 27bd de26 953c 6a9f 1d3d 1f28 2bbd
000001a0: 5f38 943c 959c 6a3d 32d1 b03d f5fb aebc
000001b0: a6dd 95bd 9a90 9c3d a92c 9abd fb66 e6bd
000001c0: b292 b2bd 91a4 66bb e2ee f43c 8bb0 143d
000001d0: dc80 b63d d68a 3cbd 9473 d03d 2c69 ce3c
000001e0: 45f5 e23c 72f3 c6bd f1e0 33bd 4139 923d
000001f0: 8237 30bd d862 8f3d ccde c43c ffa0 6bbd
00000200: f418 e33d 1f5c ed3b fc0b 9b3c b8ba b2ba
00000210: c1ed 0cbc 9ff4 07bc 3d20 53bd 3a47 193c
00000220: 0d75 27bd a21d fe3d eecc 99bd 431a c9bd
00000230: 2d73 f03d abbd 7f3d 7d22 b6bd 554a d93d
00000240: fc85 dcbd b867 efbc 3bf0 93bd 384d 933c
00000250: a8b4 c23c d9e6 65bd 6a1b 84bd 533a 67bd
00000260: 4d12 b63d e5e1 743d 7c93 bf3c c494 efbb
00000270: 27e2 983c 3341 d0bc 2479 c5bc 1a39 e93d
00000280: ba92 a1bd a121 85bd 5125 dcbb 1212 0c3d
00000290: b06a c9bd 8727 673d 3ace f939 4f6c 01bd
000002a0: 0372 be3b 08e3 013c d69c 00be d89b 523d
000002b0: b1c3 613d 523e 9fbd dfb0 2e3d 16c4 97bd
000002c0: 3252 703d 75a7 4dbd 2634 663d ff6a 113b
000002d0: d353 d03b a9f7 68bd a958 583d 5ea4 913c
000002e0: 767f 65bd 269b cebc a7ef ab3c e99e e1bd
000002f0: ad89 953c 7d5e c93c ecc8 12be 626d ae3c
00000300: 1eb1 c6bd 43cc f8bd 7362 c93d 996a 833d
00000310: f2ad b33d 4f30 e73d 1d23 80bd 694c 6bbd
00000320: 21b1 203c 92ba 683d 4bde 1d3c 78ed 8dbb
00000330: 31b8 f13d 04ba 91bd d641 5b3d 8653 683d
00000340: 301c 7abd 42bd 163d 16a8 bd3d eaab 27bc
00000350: a0a7 aabd 04ea 9a3d 566d b63d ff0f 2c3d
00000360: 771f 7f3c 694b 973d ccab 263d 6bbb 2abd
00000370: 85a3 bcbd f123 27bd d6aa 993c e9ca 5dbd
00000380: 99f3 573d d481 9fbd cc1f cebd 74b4 b43d
00000390: 5387 c2bd dfc3 193d 41cb e03d 02e5 443c
000003a0: 84d0 aa3d d131 babc f55c c3bd 7cf0 79bd
000003b0: 13f5 53bd 851c a8bd 5260 abbd 2cc1 573d
000003c0: 4dc4 fd3d 82f1 943d f06e 303d 3473 a1bd
000003d0: 865c b4bc 5e2f 573d 9107 d73d bc82 97bd
000003e0: 6e81 a53d 3864 853d 8f42 c8bc 7380 ecbd
000003f0: c568 903d 1226 813d c0e7 bebd 1b98 c73d
-0.07159785 0.11019789 -0.02802458 -0.0048767924 0.05902555 -0.06602778 0.011857597 -0.047283188
-0.074838266 0.07799098 0.10131721 0.05708425 0.11682758 0.051883932 0.10484688 -0.03223108
0.09332807 0.021450186 0.01275681 0.10907677 -0.09461042 -0.005575886 -0.05919263 0.10788346
-0.01420636 0.055802215 0.084269546 0.066885754 -0.04978451 0.019276798 0.054757316 -0.058182355
0.012385438 -0.108454846 0.021755662 0.0850179 0.009108197 0.01607161 0.11026705 0.00510945
-0.040539987 0.104652844 -0.07572482 0.06040041 0.065332346 0.0012552461 -0.14071615 0.051397063
0.09643073 -0.011661742 0.08354409 0.085898794 0.02497706 0.11925727 -0.06422703 0.013393745
-0.087253034 0.10455866 0.052104622 0.10837952 -0.08988759 0.10089222 0.09371818 0.11111701
-0.056191947 -0.08358175 0.006148536 0.09428649 0.095906116 -0.023365771 -0.018717492 -0.00930897
-0.031114036 0.038258344 0.013731764 -0.0054402817 -0.08976569 -0.012805704 0.07584344 -0.07355678
0.09094521 0.053259157 0.027081788 0.05122203 0.085718684 0.1154668 -0.07759775 0.05282717
0.076828115 -0.13793272 0.08218243 -0.13291854 -0.07846698 -0.084720336 -0.07209868 -0.0690204
0.014858571 -0.077590875 -0.042337026 -0.09872712 -0.040990673 0.01820701 0.038482107 -0.04178631
0.018093286 0.057278235 0.08633651 -0.021360377 -0.07317667 0.07644768 -0.075280495 -0.11250111
-0.08719386 -0.0035193304 0.029899064 0.036301177 0.08911297 -0.04603084 0.10178295 0.025196634
0.027704844 -0.09714402 -0.043915693 0.071398266 -0.043021686 0.07001275 0.02403202 -0.057526585
0.11088744 0.0072436477 0.018926613 -0.0013635969 -0.008601607 -0.008298068 -0.051544417 0.009355361
-0.040883113 0.12407996 -0.0750979 -0.09819462 0.11740718 0.06243674 -0.08893297 0.10609881
-0.10767743 -0.029224262 -0.07223555 0.017981157 0.023767784 -0.056128357 -0.06450541 -0.056452107
0.08890209 0.059785742 0.023385756 -0.0073114354 0.018662525 -0.025421714 -0.024105616 0.113878444
-0.07889314 -0.06500555 -0.0067183156 0.03419692 -0.09834802 0.05643418 0.00047646632 -0.03159743
0.005811931 0.007927664 -0.12559828 0.051418155 0.055118266 -0.077755585 0.042649146 -0.07410447
0.058672138 -0.050208528 0.056202076 0.0022189019 0.006357649 -0.056876812 0.052818928 0.017778572
-0.05602976 -0.025220465 0.020988299 -0.11016638 0.018254125 0.024581188 -0.14334458 0.021292392
-0.09701751 -0.12148335 0.09833231 0.06416816 0.08773412 0.11288511 -0.06256697 -0.057445917
0.009807856 0.056818552 0.009635518 -0.004331287 0.1180271 -0.07115558 0.053529583 0.05672028
-0.061062038 0.036801584 0.092605755 -0.010233859 -0.08332753 0.07564166 0.08907573 0.042007443
0.015571467 0.0738743 0.040691182 -0.041682642 -0.092108764 -0.04080576 0.018758219 -0.05414859
0.052722547 -0.077884346 -0.100646585 0.08823481 -0.09498467 0.037540313 0.109762676 0.01201749
0.083405524 -0.022728832 -0.095392145 -0.06102036 -0.051747393 -0.08208565 -0.08367981 0.052674457
0.12390957 0.072726265 0.04307455 -0.078833014 -0.022016775 0.052535407 0.1049949 -0.073979825
0.080813274 0.06513256 -0.0244458 -0.11547937 0.07051233 0.063060895 -0.093215466 0.09745809

encoder.rnn.bias_ih_l0 f4 [192]
00000000: 86b2 b6bd 3d08 49bb 28aa 7b3c aeb3 a0bc
00000010: 6987 4ebd 2dd5 543c 3902 80bc 8fda 26bd
00000020: 8652 8e3d be3f 58bd 493b f1bd 3d47 f0bd
00000030: 6a3f 263d edc1 a7bd e449 d1bd 19d9 18bd
00000040: c4e8 843d 9467 5f3d 8883 b63d 2ed9 b0bd
00000050: 2c72 b6bd 3d46 5c3d e140 e03d 0e1d d5bc
00000060: 4b3e edbd c412 d73d 1e40 8d3d 7166 b23d
00000070: 9e76 463d ed93 203d 7c1e 11bc c526 9d3d
00000080: 572a 2a3d 12b1 ddbd a232 4ebd 5980 e9bc
00000090: e64a 123b b1a4 b63d 1e2c a23d 9121 97bc
000000a0: 8ff3 7dbd e394 14bc c98e ec3d e5ce e43d
000000b0: 6a16 f53b 5b95 6abc 2e7e 923d 65be cbbd
000000c0: af72 84bd 9fed e33d ab6d 043e 2bda c2bc
000000d0: edb6 d0bd 640f b03d c1f2 5a3d ebe8 2e3c
000000e0: 3643 e23d c194 eebd bf11 84bc bf31 8f3d
000000f0: 66cf 6bbd 79ab f9bd e23a f63a 904f c33d
00000100: d323 4ebc ad4f c0bc 9c40 55be 3a04 0bbe
00000110: 2a67 97bd 5344 033e 1994 093d 34c7 bdba
00000120: b3d4 51be 54ec 7f3c 3da5 01be ff0e 113e
00000130: 6d36 93bd 7dc9 74bd 63b4 463c ca51 38be
00000140: 5436 b8bd 7580 953d 1e72 15be 428e 0cbe
00000150: 0b20 343d 8994 a73d 9f91 8bbd 0024 71bd
00000160: 0931 af3d 7989 9cbd e34c 40be 7048 b83c
00000170: 68e4 923d ca06 46be aa84 0dbe c827 763b
00000180: 1b90 d5bd 1f8d 28bb 88a0 023e 179c ff3c
00000190: 62ac 39bc d852 83bc 1507 56bd fd72 e9bd
000001a0: 7d33 07be 6e47 9dbd 96e0 babd aa7c 483d
000001b0: a9c3 9f3d 86fe 423c 8125 50bd 6973 1ebd
000001c0: 8d64 3d3c 9541 7a3d 1258 adbc e20a 2cbe
000001d0: 9b1d 18be 6cde f73c f10f b9bb 17b3 9ebc
000001e0: 92eb bf3c 3593 e33c b76c 6fbc e5fe 1cbe
000001f0: 4694 03be 8ada babd 1c59 acbd 68b6 00be
00000200: 397a f9bd be75 81bc 67e9 4ebd 7c1e d7bd
00000210: bcb3 a0bd 083c b9bc 207a 76bd 5473 b03d
00000220: 64d6 41bc b2dc 06bd a206 af3d 5ef3 e6bd
00000230: 2257 1f3d f93a 22bc 2501 c23d 07d9 fd3b
00000240: 51d2 3abd eaef a7bd 1033 a5bd aca4 66bd
00000250: 698e e33d 78df b43d 8898 f33d 3e8c 44bd
00000260: 9471 113d 1b4a aabd 3dec 15bd 87c5 e43d
00000270: 9e5a b0bd b94a f3bd c27f 8fba 6229 873c
00000280: bd42 cd3d b7dd 2d3d 2bed bf3c 3da8 fc3d
00000290: bb52 bb3d 5585 93bd 99ca e0bd 8c8e f3bd
000002a0: 7ab0 033d 6872 fa3c d9ab c8bc 3c47 be3d
000002b0: e4ec be3c 963f 8a3c 7359 89bc 0a39 903d
000002c0: 3bac 3d3d 38bb abbd 15d2 1ebd 2b8c 773d
000002d0: c2b2 2f3d 37a4 cdbc abf8 ea3d 3676 d23d
000002e0: 4e4e 4dbd 811e c13d c239 c43d 2285 b23d
000002f0: 781d 30bd 6f97 613d 32f9 85bd 5406 823d
-0.089207694 -0.0030675076 0.015360393 -0.019616928 -0.050422106 0.012990278 -0.01562606 -0.040735777
0.06949334 -0.052795164 -0.11778886 -0.117323376 0.04058782 -0.08191285 -0.10219172 -0.037316415
0.06489709 0.05454214 0.08911806 -0.08635174 -0.08908495 0.053777922 0.10949875 -0.02601483
-0.11584147 0.10501626 0.06896995 0.087109454 0.048452966 0.039203573 -0.008857366 0.0767341
0.041544285 -0.10824789 -0.050341256 -0.028503584 0.0022322475 0.08918131 0.07918571 -0.018448623
-0.061999854 -0.0090687005 0.115506716 0.111722745 0.0074794786 -0.014317836 0.07152973 -0.09948424
-0.06467187 0.11129307 0.1293246 -0.023785671 -0.1019114 0.085966855 0.053454164 0.010675649
0.11047976 -0.11649466 -0.016121743 0.0699191 -0.057570837 -0.12190909 0.0018785859 0.0953666
-0.012581783 -0.023475492 -0.20825428 -0.13575831 -0.07392724 0.12819032 0.033588503 -0.0014478923
-0.20491295 0.01562031 -0.1266069 0.14165877 -0.07188115 -0.059762467 0.0121279685 -0.1799995
-0.08994737 0.07299892 -0.14594314 -0.13726142 0.04397587 0.08182628 -0.068148844 -0.058872223
0.085542746 -0.07643408 -0.1877933 0.022495478 0.07172471 -0.19338527 -0.13820139 0.0037560333
-0.104278766 -0.002571888 0.1275655 0.03120236 -0.011332603 -0.016030714 -0.052252848 -0.113988854
-0.13203235 -0.0767964 -0.091248676 0.048947014 0.07800991 0.011901503 -0.050817017 -0.038684282
0.011559618 0.0610977 -0.02116016 -0.16801026 -0.14855044 0.030257426 -0.0056476523 -0.019372506
0.023427758 0.027780155 -0.014613322 -0.1533161 -0.1284953 -0.09123714 -0.08415434 -0.12569582
-0.12181515 -0.015803214 -0.05051556 -0.10503861 -0.078467816 -0.022611633 -0.06017506 0.08615747
-0.0118309 -0.032925315 0.08546187 -0.11276887 0.038901456 -0.0099017555 0.094728746 0.007746819
-0.04561073 -0.08200057 -0.0806638 -0.056309387 0.11111147 0.08831686 0.118943274 -0.047985308
0.035508707 -0.08314916 -0.036602248 0.11170488 -0.08611034 -0.118794866 -0.0010948109 0.016499225
0.10022495 0.042447772 0.02342852 0.123367764 0.09146639 -0.072031654 -0.109761424 -0.11892423
0.032150723 0.030572131 -0.024496006 0.09290931 0.023306318 0.016876023 -0.016766286 0.07042129
0.04630683 -0.083853185 -0.03877457 0.06043641 0.042895086 -0.025102718 0.11473211 0.10276453
-0.050123505 0.09429646 0.09581329 0.08716799 -0.042996854 0.05507606 -0.06541671 0.06348863

encoder.rnn.bias_hh_l0 f4 [192]
00000000: 5b29 2cba c0e6 813d 93e0 8d3d 2f16 1f3d
00000010: 4510 263d fbc1 73bd 9a9a cdbd a247 c2bd
00000020: fb47 4ebc 10b2 c0bd c359 0bbd e02e 8dbc
00000030: 1d8e f9bd de24 013e 4f34 a63b 0978 a53d
00000040: fe8c 03be 9591 513d ef30 afbd d2a3 f43c
00000050: 81d4 ba3d 6a07 bf3d 7f37 f8bd 523b 90bd
00000060: 3c4f 54bd 1da8 f03c c337 babd 3bc8 a43d
00000070: 71d6 b7bd 809a 28bc 68ec 3c3c 8cff 9dbd
00000080: cad8 29bc ceca 0abe d9df 93bd 5a48 02be
00000090: 4cf9 3c3d 3883 31bd 3a14 e2bc ff6c 6b3d
000000a0: 4899 4c3d 7e22 7f3d 1c72 963c ca3d df3d
000000b0: 66d8 e4bc 5d96 c93d ede1 90bd 39d2 02be
000000c0: 0e2e dabb 6f21 39bd cfe1 96bd 7bd1 ccbd
000000d0: 9903 82bc 7adb 253c 0026 19bc 96d1 f8bc
000000e0: e10b be3d 8c99 493d 06ec 95bd ffe8 bebd
000000f0: a407 ecba 64c6 053d e49f d43d 2116 ad3d
00000100: 09be 663d e10e 40bd bb8e 65be 8c0a 9abb
00000110: dde3 63bd 9e85 c73d db8f babd 4299 36be
00000120: b50b 21be a3a1 e7bd f4fb 92be 5f2b 193e
00000130: e5aa 18bd a067 663d 82c9 423e 0265 2bbe
00000140: 2e8a 783d faf4 183e 3f9e 7bbe 71fd 86bd
00000150: c213 403d a8e9 333c 1216 22bd 361a 01be
00000160: 6cbd 95bd 89c1 bf3a 916d 3dbe 7054 71bb
00000170: 4fb4 7cbd 9518 35be 84c2 9f3d 475f 2abe
00000180: ff00 a93c 38df 203d 6d1b 68bd 4b2f c6bd
00000190: d063 32bd 35e8 123e f9d8 4bbd 18eb 5cba
000001a0: 92ec f8bd 057a 11be 6794 123d 8fb7 a13d
000001b0: d8a6 813d fb06 4d3d dc70 ab3d 1543 ebbc
000001c0: 9941 0cbe fa37 2bbd 9b52 043e 9587 18be
000001d0: 791f 20bd 60a1 98bd b5a0 403d 428b 74bd
000001e0: 9a1e 113b e0c5 a8bb 3d97 9f3d 6ef0 9a3b
000001f0: c42e 463d 6a34 15be 2e76 3ebe f256 cebd
00000200: 0179 593d 6758 713d 1161 efbd 5240 c8bd
00000210: d760 00bd 2db2 62bc 51e9 bd3d d74d 0a3d
00000220: efa4 c23d 8a07 cebd befd e43d d4f1 de3d
00000230: d3bd 8f3d 8727 9c3c c43a d53d 887d 38bc
00000240: 30d6 45bc 8257 3ebc c889 243d 65d6 383d
00000250: ffe5 d23d 81db 9e3d 6f68 6d3d 6274 f43c
00000260: e4a8 e03c b602 be3d 33f3 38bd 7780 ab3d
00000270: d35b 7abd 5f7f 44bd efd0 363d 20e0 b1bd
00000280: 319e 49bd 20f0 ed3c e586 55bb 13b0 993d
00000290: 9ffe b3bd 0a84 e3bd 7e30 7c3c b9e6 493d
000002a0: 1474 663c bcc9 b7bd 97d6 95bd ea89 493d
000002b0: d263 8e3c 4ff9 913d 53fb 82bd 1f3a b43d
000002c0: 4736 9cb9 1dd1 173d 3e3e abbd 8e65 30bc
000002d0: da17 00bd 36f8 c6bd dbd7 943d 2090 2c3d
000002e0: 5055 92bd b29f fb3c abf3 e2bc edcb f8bd
000002f0: b5ed b63c 20da d5bc 5b06 a63d b6a2 36bc
-0.0006567442 0.0634284 0.069276 0.038839515 0.04054286 -0.059511166 -0.100392535 -0.09486319
-0.012590404 -0.09408963 -0.03402115 -0.017234266 -0.12185309 0.1261172 0.0050721536 0.080795355
-0.12846753 0.05116423 -0.08554255 0.029863272 0.09122563 0.09327586 -0.1211996 -0.070425645
-0.051833376 0.029377038 -0.09092667 0.080460034 -0.08976448 -0.010290742 0.011530973 -0.07714757
-0.010366628 -0.13553926 -0.0722043 -0.12722912 0.046136186 -0.04333803 -0.027597535 0.057476994
0.049950868 0.062288754 0.018364958 0.10900457 -0.027935218 0.09843133 -0.07074342 -0.12775506
-0.006658322 -0.0451979 -0.07367288 -0.10000893 -0.015870856 0.010123128 -0.009347439 -0.030373376
0.092796095 0.0492187 -0.073204085 -0.09321784 -0.0018007648 0.032659903 0.10382059 0.084514864
0.056333575 -0.04688919 -0.22417729 -0.0047009643 -0.05563723 0.09742282 -0.091094695 -0.178319
-0.15727122 -0.11310127 -0.2870785 0.14957951 -0.037272353 0.05625117 0.19022182 -0.1673775
0.060678653 0.14937201 -0.24572085 -0.06591309 0.046893843 0.010981001 -0.03957183 -0.12607655
-0.0731152 0.0014629822 -0.18498828 -0.003682401 -0.061695393 -0.17685159 0.07800773 -0.16637908
0.020630358 0.039275378 -0.05666678 -0.09676989 -0.04355222 0.14346392 -0.049767468 -0.00084273657
-0.12154497 -0.14206703 0.03578606 0.07896339 0.06330651 0.050055485 0.083711356 -0.02871851
-0.13696899 -0.04180143 0.12922136 -0.1489547 -0.039092515 -0.07452655 0.047028262 -0.05970312
0.0022143484 -0.0051505417 0.07792518 0.0047283685 0.048384443 -0.14570776 -0.1859977 -0.10075177
0.053093914 0.058922198 -0.11688436 -0.09777893 -0.031342354 -0.013836426 0.09273017 0.03376564
0.09504115 -0.10060032 0.1118121 0.10885969 0.07018628 0.019061817 0.10411599 -0.011260398
-0.012074992 -0.011617543 0.04017046 0.045126338 0.102977745 0.07756711 0.057960924 0.029840652
0.027424283 0.09277861 -0.045153808 0.08374112 -0.061122727 -0.047973033 0.04463285 -0.086853266
-0.04922313 0.029045165 -0.0032581624 0.075042866 -0.087887995 -0.11109169 0.015392421 0.0492923
0.014065761 -0.08974025 -0.073163204 0.04920379 0.017381582 0.0712763 -0.063955925 0.08800148
-0.00029795078 0.03706466 -0.08361481 -0.0107664 -0.031272747 -0.09715311 0.07267734 0.042129636
-0.07145178 0.030715797 -0.02770408 -0.12148271 0.022330144 -0.026104987 0.08106681 -0.011147192

encoder.rnn.weight_ih_l1 f4 [192, 64]
00000000: 717d 94bd bb40 3fbd 953f 273d 4b06 bcbd
00000010: 0601 123c 5e2a b9bd 0313 d0bd 0a85 bcbc
00000020: ae1e c23d e9e8 64bd be84 90bd 2aa1 46bd
00000030: d32c b2bd bf5d c6bc 59d8 d4bd 10f6 4d3d
00000040: da3b f5bd 04eb f3bd 3255 f3bd 361b 9dbd
00000050: bbdd ee3c 92a3 c13d 3090 8ebd 13e1 983d
00000060: e9f3 d3bd d303 c1bd f050 2c3d 4631 92bc
00000070: 376f 73bd ab27 013c 59ad 1c3b 0aac cb3d
00000080: a497 253d 0b96 dcba edf0 ccbd 82da 26bd
00000090: 8552 c6bd 7f59 afbc 268b febc e6e8 e2bc
000000a0: 4402 c7bd 7eb3 573d 24be 303d 2c60 62bc
000000b0: b22f 2bbd a35f ef3c ccc5 a83d 501d 3d3d
000000c0: 6470 3a3c ab45 553c 4919 b53c 3774 1b3c
000000d0: a9ab 13bd 47f3 b5bd a9d2 a63d a310 913d
000000e0: 1231 f8bd 8fc6 943c 6718 b9bd 5dd4 ea3d
000000f0: 994e 16bc 8c78 7ebd 042c a2bd 88e8 8f3d
00000100: 49a8 d3bc bb18 8abc be6e e63d db84 0cbd
00000110: 8dbf 88bd 69af 263d 0edd fc3c d63a bbbd
00000120: 43b7 423d edbb 9dbd 2f58 95bd 48d1 b7bd
00000130: a380 35bd 246b 583b f031 6dbd 73a5 a9bd
00000140: 47df 2dbd c701 f43c 1899 a53c ea97 e2bd
00000150: adaa dfbd e904 af3d f94f 463c d8c3 913d
00000160: 2969 15bc bad5 d3bd 72e5 e8bd 5646 923d
00000170: ad27 b7bc 68f4 2cbd 34ee 0dbe 1c6b 7d3d
00000180: 28f3 cb3c ada8 cebd d83d d93b 14a9 b6bd
00000190: c814 1cbd 8271 87bd 33ec 0fbd 0373 afbc
000001a0: 9210 d4bd 8a6a b4bd 9a26 ddbd d352 933d
000001b0: 0bb9 a7bd eb8d b53d 9242 a33d d832 a1bd
000001c0: 1091 c33d 327b bbbb 501b b1bb 349d af3d
000001d0: f253 b73d 6c42 32bb 7cf3 e83d 4cbf 9cbd
000001e0: a5f4 bb3d 60a7 7f3d e2eb db3d 3825 a2bc
000001f0: 8820 033e c677 c03d 4b9a 99bd 8c12 ea3d
00000200: 2882 aabd a4b6 c23d 3d36 09be 89e9 093d
00000210: 6353 b9bd a208 083d 914d 60bd 5230 a7bd
00000220: 18a7 b3bc 0588 c5bd 2274 7ebc 7da8 81bd
00000230: ccce 02be 960c debd 8a78 82bd edc2 e03d
00000240: 8282 953d 00a2 79ba a4ea 023d 4fa9 8f3d
00000250: 3cdf 68bc 0a93 b0bd a96a febd 6601 e9bd
00000260: 8306 243c d968 b83c 7671 d3bd 0a03 6a3d
00000270: bb55 d33d b360 473d d31e 803d 9c4b cbbd
00000280: 93f5 7dbd da81 653c afc9 c63d 187e 8ebb
00000290: bc16 e2bd 9586 33ba 51f4 15bc c96b 8bbd
000002a0: e2fa 63bd 3a6b a3bc 1b64 393d 5fe4 14bd
000002b0: 5b5f c23d 4153 d6bd 5d78 e5bc 8248 973d
000002c0: 3824 533c b1a6 1bbe 37a7 823c e85b ac3d
000002d0: b25e b9bd 47bd b93d a484 bebc af2e e7bd
000002e0: 6ee3 1d3d 992b 90bd ed7c 113e 7db3 03be
000002f0: aff8 6bbd 878c f2bb b0a7 323d 1351 01bd
00000300: 4efe 16bd 9e14 8dbd c180 c33d bd00 f93d
00000310: c060 5abd 2d8c ecba 0f09 e1bd 02b8 da3d
00000320: ce86 87bd b1ab 89bd 0146 80bd b2de 043d
00000330: 8fd1 253d 5674 cfbd 2eb8 0bbd b35c 813d
00000340: 19f0 af3c 65ea e0bd dc35 913d 6da5 d83d
00000350: 51a9 22bc 6d0f f63d 57ad b03d 58a0 c8bd
00000360: f56c 61bd 82c0 ed3d 58e4 14bd 4990 da3d
00000370: 1e8f b5bd c761 dd3d c5fe 293d c2f8 d9bd
00000380: 0a1b e6bd 901d c8bd d352 df3d 2d1f 033d
00000390: 815c 143d 263c 16bd 23e0 edbd 3820 cd3d
000003a0: 9943 87bd 6e12 a4bc 5345 f8bb 09f4 d23d
000003b0: d884 433d 0632 32bc 6091 d23d 13a6 d13d
000003c0: 75fb 20bb 68bb cb3d 64e6 71bd 6a14 d3bd
000003d0: e62e df3d 0a5c a3bb 0e09 81bc 68b6 aabd
000003e0: c98d 50bd 31b6 87bd 3deb d13a 93ef ddbd
000003f0: 14dc 803d c3a3 ca3c 7a12 2fbc 5b5d b0bd
-0.072504885 -0.04669259 0.04083212 -0.09180888 0.008911377 -0.09041284 -0.10159876 -0.023012657
0.09478508 -0.055886183 -0.070565686 -0.04849354 -0.08699956 -0.024214623 -0.103928275 0.05028349
-0.119743064 -0.1191006 -0.11881484 -0.07671206 0.029158464 0.09455027 -0.06961095 0.074648045
-0.103492565 -0.094245575 0.042069376 -0.017845761 -0.059432235 0.007882993 0.0023907034 0.09944923
0.04042782 -0.0016829384 -0.100068904 -0.04073573 -0.09683708 -0.02140498 -0.03107221 -0.027698945
-0.09717229 0.05266141 0.043150082 -0.0138168745 -0.041793533 0.029220408 0.08240852 0.046170533
0.011379335 0.013017098 0.022106783 0.009488157 -0.03605238 -0.08884292 0.08145649 0.07083251
-0.121187344 0.018161086 -0.090378575 0.11466286 -0.009174013 -0.06212668 -0.079185516 0.07026774
-0.02583708 -0.016857496 0.11251591 -0.03430639 -0.066771604 0.040694628 0.030867126 -0.091420814
0.047538053 -0.077018596 -0.0729221 -0.08975464 -0.04431213 0.0033022845 -0.057908952 -0.0828351
-0.042449262 0.029786004 0.020214602 -0.110641316 -0.10921226 0.085458584 0.012104028 0.07117432
-0.00911931 -0.103434995 -0.11371888 0.07142322 -0.022357786 -0.04222527 -0.13860399 0.061869726
0.02489622 -0.10090766 0.006629687 -0.08918968 -0.038105756 -0.06613447 -0.035137367 -0.021417147
-0.10354723 -0.08809383 -0.10798378 0.07193532 -0.08189591 0.08864959 0.07971682 -0.07871026
0.09549153 -0.005721473 -0.005404867 0.08574906 0.08951558 -0.0027200235 0.11374566 -0.076536745
0.091775216 0.06241548 0.107383505 -0.019793138 0.12805378 0.09397845 -0.07500132 0.11429319
-0.083256066 0.09507492 -0.13399597 0.033669982 -0.09049108 0.033211358 -0.054761473 -0.08163513
-0.021930262 -0.09645084 -0.015530618 -0.06330965 -0.12774199 -0.10842244 -0.06370647 0.10974679
0.07300283 -0.0009522736 0.031962052 0.07014715 -0.0142133795 -0.086217955 -0.124226876 -0.1137722
0.010011318 0.022510933 -0.10324375 0.057131805 0.10319086 0.048676204 0.06255879 -0.09926531
-0.062001776 0.01400801 0.09706437 -0.0043485276 -0.110394925 -0.00068483624 -0.009152488 -0.06807668
-0.055659182 -0.01994859 0.045261484 -0.036350604 0.09490844 -0.10465098 -0.028011495 0.07386877
0.012887053 -0.15200306 0.015948875 0.08415967 -0.09051265 0.09069305 -0.023256607 -0.11288201
0.038546972 -0.070395656 0.14207812 -0.12861438 -0.05761021 -0.007402006 0.04361695 -0.03157146
-0.036863618 -0.06888698 0.09546042 0.12158344 -0.053314924 -0.0018047147 -0.10988056 0.10679628
-0.06617509 -0.06722201 -0.06263352 0.03243894 0.040483054 -0.10129611 -0.034111194 0.06316509
0.021476792 -0.10982207 0.07090351 0.105784275 -0.0099280635 0.12014661 0.08626812 -0.09796208
-0.05503555 0.116089836 -0.036350578 0.106720515 -0.08865188 0.10809665 0.041502733 -0.1064315
-0.11235626 -0.097712636 0.10904469 0.032012153 0.03622103 -0.036678456 -0.11615016 0.10015911
-0.0660469 -0.02002832 -0.0075766235 0.10300452 0.04773411 -0.010876184 0.10281634 0.10236754
-0.0024563943 0.09947854 -0.05905761 -0.10306628 0.10897617 -0.004985337 -0.015751388 -0.083355725
-0.050916467 -0.06626547 0.0016015541 -0.10836711 0.062919766 0.02473629 -0.0106855575 -0.08611556

encoder.rnn.weight_hh_l1 f4 [192, 64]
00000000: c71e 2cbd 687f a7bc 53f5 c6bd e847 dfbc
00000010: c9de 40bd 01a2 f8bd f9d8 97bd 17d2 adbd
00000020: 52cb f83d 2805 a93c 412e a7bd d6bf 093e
00000030: 81ac 07bd 8375 27bd b907 b83d dbff d5bb
00000040: bcd9 733d df05 8abc 85db 42bb d1f8 e23d
00000050: 575c 25bd d585 bc3d f1bf e63d a8a4 f1bd
00000060: 43df 35bc 9de4 e2bd e944 2e3d 3122 c0bd
00000070: 8f7b 03bc c2c5 d6bd 67a6 a43d 2e4e 673d
00000080: 7b08 413d 4cf9 163d be43 d2bb c8e4 dfbd
00000090: c411 c8bd 0ed3 c0bd 9b78 7f3d 3853 afbd
000000a0: fb76 9abd bf53 6c3d 30de c5bd 5fcf c63d
000000b0: 9d0d c6bd 85d6 a0bd 9ae2 33bc bc34 a4bc
000000c0: 9d89 d53d 157a 603b 200b 123d a804 853d
000000d0: e114 b7bd 96a8 553d 7f5f cdbd 2317 b0bd
000000e0: 8bca b63c e6da 493c 87e4 cc3b 8a6f c33d
000000f0: 5845 053c 17e7 19bd d6b5 f13d 36da d2bd
00000100: 73cd b5ba 1662 ef3d 9ab6 713c 8a48 813c
00000110: 87f8 debd 134d 9e3d c7b4 30bd 5819 7cbd
00000120: f20a 9c3d 6610 bd3d e5c7 d53d 14b8 9f3c
00000130: 7c90 993c 80ba 88bd 0329 b93d 2a81 66bb
00000140: 4042 3dbd 3ac5 823d aa56 f43d 8b2e d8bc
00000150: 700e b8bb 6d8b 6fbb 09a4 d3bd e354 9abd
00000160: 28c5 2d3d e3ba eabd ef70 e93b 6c60 883c
00000170: cf74 8c3d 19fa 18bd d50e 40bd c7bc bdbc
00000180: 3b1d 5abd f9dc 94bb 7e3a cf3b 1df6 cd3d
00000190: 9b05 e2bd d739 363b fd23 a63d 46d0 4fbc
000001a0: 2c03 8cbd 323e 3d3d 58af d93d 65fa c8bd
000001b0: 6120 923d f614 94bd 631f a9bc 23b1 eabd
000001c0: e228 d6bd 807a a53d 1eee 2eba 87f6 f3bb
000001d0: 411c 273d d0d0 cb3d 1b71 9c39 3251 eabd
000001e0: a11a b43d b1f5 bcbd 9e36 99bd 23ca 103c
000001f0: 7ad3 82bd 567f b63d 8836 b33d e341 da3d
00000200: 089a 0cbc 100a 2f3d 332f 88bd 6072 09be
00000210: 8e06 c73d c773 f83d 87f0 993d e139 f4bc
00000220: cbd8 453d ace9 a03d f2e9 f9bd 0202 64bd
00000230: 27ae 8f3d 9d12 cf3d e169 7abd 69a1 103e
00000240: 9c21 4ebd dc55 c93d 9a5c a5bc dade d53d
00000250: cc16 993d f973 d1bd e39f b3bc af33 d03d
00000260: 0c28 013e df2f 17bd c4be 933d 20cc 14bb
00000270: 0ba6 f23b bebf 963d 7ecc 0dbe 28a1 e7ba
00000280: 2f84 39bc 379b 9bbd 95e2 993d 6768 3dbb
00000290: eb44 d8bd f096 063d e17b 273d 06aa 18be
000002a0: 1f13 08bc 2c6c 41bc 1079 c23d b605 a4bd
000002b0: 6c81 ec3d 18aa 6dbd 13b3 b63d 0237 53bd
000002c0: c6a3 ffbd 60ca 5cbd 9288 d6bd b1fe 973d
000002d0: 32c7 2bbd 6316 c1bb 5315 a8bc 6660 b6bd
000002e0: 336b 8e3d 08f7 063a 3620 b83d a908 6e3d
000002f0: 2557 9d3d 28ff 993d 5b9e 983d a5e2 debc
00000300: e143 a33d ea7a 8cbc dca3 cb3d f5fc 6bbd
00000310: 6049 dabd 85da 92bc 5109 e1bb 7b35 9fbd
00000320: f955 a4bd 1937 24bd 2033 d03a bbfe fcbd
00000330: 106f 1d3d 0688 e2bd 6f1e fb3d f2a7 27bd
00000340: 7c65 8abd e76e 20bd ed6c e23d 4cdf d4bd
00000350: 5725 ef3c 3598 3a3d d527 4abd ef92 01bc
00000360: e292 57bd 7f20 28bd b98b 9c3d 30e1 b83d
00000370: bab5 393d b536 63bd d466 3c3d a1a3 863d
00000380: fb30 67bc 65dc 783c c537 fb3d 76af a1bd
00000390: ef61 b7bd 604a db3d 30d6 6c3b 6924 66bd
000003a0: 8358 b3bd 4cee d8bd 1a1d e3bd c68d f5bd
000003b0: 21d8 70bd 6409 bf3c c956 babd ed41 fd3d
000003c0: 58c0 1f3d e224 dfbc 3238 ee3d 4ac6 423d
000003d0: 8523 a13d 520e 02be f4b0 913c 54d8 e33d
000003e0: eed3 85bd 2cc5 9f3d e604 a0bc 525d c6bd
000003f0: d6b8 1cbc 0ca5 ac3c 5ce5 c53d 4d82 39bd
-0.04202154 -0.020446494 -0.09714761 -0.027255967 -0.047087464 -0.12140275 -0.07414431 -0.08487337
0.12148155 0.020632342 -0.08163119 0.13452086 -0.033123497 -0.040883552 0.08985848 -0.0065307445
0.05953382 -0.016848503 -0.0029732895 0.11082614 -0.040371265 0.09205214 0.11267079 -0.11798984
-0.011100593 -0.11078761 0.042546187 -0.093815215 -0.008025064 -0.10486938 0.08039551 0.056471042
0.04712723 0.03685884 -0.006416767 -0.109323084 -0.097690135 -0.094152555 0.062370878 -0.085607946
-0.07542225 0.057697054 -0.096615195 0.09707522 -0.09670565 -0.07853416 -0.010979319 -0.020044677
0.10426638 0.0034252454 0.03565514 0.06495029 -0.08939529 0.05216273 -0.1002798 -0.08598163
0.022313377 0.012320256 0.0062528285 0.09542759 0.008134209 -0.0375739 0.118022606 -0.10295527
-0.0013870433 0.1168863 0.014753008 0.01578166 -0.108872466 0.077295445 -0.043141153 -0.061547607
0.07619275 0.092316434 0.104385175 0.019496955 0.018745653 -0.06676197 0.090410255 -0.0035172203
-0.04620576 0.06385274 0.11930592 -0.02638938 -0.0056169555 -0.003655161 -0.103340216 -0.07535722
0.04242435 -0.11461427 0.0071240584 0.01664754 0.06858217 -0.037347887 -0.046889145 -0.023161305
-0.053250533 -0.0045429436 0.0063241115 0.10056708 -0.110362254 0.0027805471 0.08112333 -0.012683934
-0.068365425 0.046201892 0.10629147 -0.09813384 0.07135082 -0.072305605 -0.02064485 -0.114595674
-0.104570165 0.08080006 -0.00066730555 -0.00744516 0.04079843 0.09951937 0.0002983891 -0.11441268
0.087941416 -0.092265494 -0.074811205 0.008837256 -0.06387992 0.08911006 0.087506354 0.10657098
-0.008581646 0.042734206 -0.066496275 -0.13422537 0.09718047 0.12131458 0.0751658 -0.029812755
0.048302453 0.078570694 -0.12202825 -0.055665977 0.07015639 0.10110972 -0.06113613 0.14124073
-0.05032502 0.098308295 -0.020185757 0.10442896 0.07475051 -0.10227198 -0.021926826 0.10166108
0.12612933 -0.036910888 0.0721412 -0.0022704676 0.007405048 0.07360791 -0.13847539 -0.001767193
-0.011323019 -0.07597964 0.0751392 -0.002890134 -0.1056002 0.03285879 0.040889625 -0.14908609
-0.00830534 -0.011805575 0.09495747 -0.08008902 0.11548123 -0.058023542 0.089208744 -0.05156613
-0.12482409 -0.053903937 -0.104752675 0.074216254 -0.041938014 -0.0058925613 -0.02051798 -0.08905105
0.069540404 0.0005148505 0.08990519 0.058113728 0.07682637 0.0751937 0.07452079 -0.027207682
0.07971931 -0.017148454 0.09943363 -0.057614285 -0.106585264 -0.017926464 -0.0068675657 -0.077738725
-0.080242105 -0.040091608 0.0015884377 -0.123532735 0.038435996 -0.11061101 0.12261664 -0.04093165
-0.06757638 -0.039168265 0.11055932 -0.10394153 0.02919261 0.045555312 -0.049354393 -0.007908567
-0.052630313 -0.041046616 0.076438375 0.09027326 0.045339324 -0.055472095 0.045996502 0.065741785
-0.014110799 0.015189265 0.122664966 -0.07894795 -0.08954226 0.10707545 0.0036138408 -0.056187067
-0.08757117 -0.105923265 -0.11089535 -0.11989932 -0.058799867 0.023319907 -0.09098584 0.1236609
0.039001793 -0.027239267 0.11631812 0.047552384 0.07868103 -0.12700775 0.017784573 0.11125246
-0.06534563 0.078012794 -0.019533586 -0.09685768 -0.009565553 0.021074794 0.096628875 -0.04529028
