checkpoints/models/single_stock_daily/81to9/000001/model30.pth (torch, 543834 bytes, 24 tensors)

encoder.conv1.weight f4 [18, 6, 3]
00000000: 7644 98bd 2df7 b1bd 5726 25bc e35a e23d
00000010: 1bc2 5bbe bb09 00be dc84 8cbd ac41 91bd
00000020: 3803 683c 4b43 353e f2ed 973d 7571 4cbe
00000030: 141d 653e e244 5a3e 67d3 b33d bb2e 1f3e
00000040: 57c2 0f3e a49b 843e d54a 62be 1787 15be
00000050: d8e2 dfbc ea52 36bd 0261 26be 1339 69be
00000060: 43ea 3bbe 19af 57bd 0f3f 463e 45b5 1e3e
00000070: 5f71 693d b770 18be 1449 c6bd 42a0 363c
00000080: 692d 64be 2a3c 1bbc 8d73 2a3d 46f4 5b3e
00000090: 8748 7fbd a2cf 673e b88f 763c 8a2b 2cbe
000000a0: 8280 5e3e c919 4f3e cf78 44be 41c4 10be
000000b0: ae14 ef3d ce01 1abe 1c91 1e3e 24e7 e4bd
000000c0: 927b a0bd d6bb 94bd 518e 673e d101 a7bd
000000d0: aad4 51bd 5d30 083e d4f8 19be 6ead f33b
000000e0: b5ed 34be 8795 58be 13bc 59bd 1260 d13c
000000f0: ec8a 503e b5a1 70be 6c0d a2bd d538 883d
00000100: 3cdc ad3d 1cda 063e abf0 3dbe f982 7fbd
00000110: 92ca 443d 8133 55be 4fd5 c23d 04e5 7dbe
00000120: de6c 143e 49b3 883d c236 82bd 3043 8c3d
00000130: e470 483e a037 393e 1379 0c3e d708 07be
00000140: 5aa5 be3d 38b9 2d3e 5096 2b3d 7f9e 303e
00000150: 337d 1cbe c631 2b3e 99e7 1c3c cc0a 50be
00000160: 7a9c 56bd 7593 6b3e b6e5 a2bd 26d5 44bd
00000170: 39af c8bd 856c 01be d230 073d 58d9 113e
00000180: 20e9 c13c 49f5 1abd dda3 a03b 66a9 35be
00000190: 2bf6 0ebe 3fea ea3b dfb3 42be 1b9c cd3d
000001a0: 6c7b fd3c 9e61 8b3c 8d33 8abc 37e9 4a3e
000001b0: 2823 563e 7928 e43d eed7 f43d 123e e4bd
000001c0: 24bc dd3d aefe 13be 0986 e23d 1478 0fbe
000001d0: 094d 0a3d 8784 343e 6f31 343e 4e10 6f3e
000001e0: 54c6 b13d 06ac e53d 33f0 b63d 405a 533e
000001f0: b325 2d3e 3701 f63d d135 aebd 5be6 d4bd
00000200: 3b80 76bd 7dde e53d 6e2d f7bd b3fe 733d
00000210: db76 583e 9917 5e3e cc76 3fbe 6b79 8e3d
00000220: 4ad2 2a3e e04d 64be 3504 1d3e 188f 09be
00000230: c38c 38be 3320 03be 8567 eabd f703 ebbd
00000240: 91f7 883d 7498 b23d d879 b13d da74 243e
00000250: 8c6f 21be 2406 6ebe 47be 47be ee17 19be
00000260: 859c 03be dc7e cc3d 1a11 3dbe 5b7e 3fbe
00000270: 9e78 f93d 05db 28be ce0b ed3c 250b 4dbe
00000280: b73e 863d 6de7 fc3d 37cc 56be dc6e 973d
00000290: df4e 01be 4116 153e f53f 5d3e 45b9 46be
000002a0: 617e b63d 9cd6 343e acc7 6f3e 7f68 343e
000002b0: 69b1 693d eecc d63c c73c 423d d325 04be
000002c0: eac3 07bd 1185 bebb 286d 0ebe 4e5b 373a
000002d0: 8d50 04bd 2cee 92bd 2953 94bd b1ec 70be
000002e0: 65d9 673e 021e dd3d 9e37 303e 9f1b 4cbe
000002f0: a1ea 80be 9562 343e 549e 20bd d431 b83c
00000300: e2b9 f33d 3933 863c 1d91 bdbc 7d9b fd3d
00000310: 9722 3a3e 5bb0 8fbd 8a27 43be 250e e7bd
00000320: 3164 2b3e 2293 a53c 68d7 523e 98aa b6bd
00000330: bfe2 62be 9680 ad3d 1f27 e6bd 1661 10be
00000340: 08d1 1d3e 4b1e d83b 1d10 9ebc 8d29 733e
00000350: 2165 483e 1fcc 8bbe 8999 9abe 31c4 5bbe
00000360: 44e5 40be 00fc 00be 8533 1f3e 7588 24be
00000370: 827b 603e fbbe 993d 0c27 2d3c 9f9f 613d
00000380: 1f13 7e3d edf9 963d 9853 3bbe 1e76 373b
00000390: bbac 1e3e 078d 793e f089 a6bb 008c 28be
000003a0: 588f f33d f7cf 53be cd7b 503e b28d 073e
000003b0: 2220 c63d eb49 e43c 4268 243e 9970 d3bd
000003c0: cfce 51be b5cf 1bbe 0ece 233e a54e fdbd
000003d0: 60ec 50be 34ad 233d d9d0 1cbe e5da dcbc
000003e0: afa3 25be cb20 193d b65e 59bd 58fd 753c
000003f0: 749d db3d 23c6 1bbe 634b b1bd 1f89 1fbe
-0.07434933 -0.08689723 -0.010079942 0.110524915 -0.21460764 -0.12503712 -0.068612784 -0.07092604
0.014160924 0.17701451 0.07418431 -0.19965155 0.22374374 0.21315339 0.08780556 0.1554517
0.14038979 0.25899994 -0.22098859 -0.14602314 -0.027329847 -0.044512667 -0.16247943 -0.22775678
-0.18351083 -0.05265722 0.19359992 0.15498836 0.056992885 -0.14886747 -0.09681907 0.011146607
-0.22282948 -0.009474793 0.041614104 0.21479902 -0.062325027 0.226378 0.015048914 -0.16813484
0.2172871 0.2022468 -0.1918671 -0.14137365 0.11673866 -0.15039751 0.15485042 -0.11176899
-0.07836069 -0.07262389 0.22612883 -0.08154643 -0.051228203 0.13299699 -0.15036327 0.007436446
-0.17668803 -0.2115079 -0.053157877 0.025558505 0.20365494 -0.23499186 -0.07912716 0.06651465
0.08489272 0.1316914 -0.18548839 -0.062380765 0.04804475 -0.20820428 0.09513342 -0.24794394
0.14494655 0.06674821 -0.063581005 0.068487525 0.19574314 0.18087626 0.13718061 -0.13186966
0.09308882 0.16965187 0.041891396 0.17247961 -0.15282135 0.16718206 0.009576702 -0.20316619
-0.05239532 0.23005469 -0.0795397 -0.048054837 -0.09799046 -0.12639053 0.033005543 0.14243066
0.023670733 -0.03783158 0.0049023465 -0.17740402 -0.13961093 0.0071690376 -0.19013928 0.100395404
0.030942641 0.017014321 -0.016870284 0.19815527 0.20911849 0.11140532 0.11955248 -0.111446515
0.108269006 -0.14452621 0.110607214 -0.1401065 0.033764873 0.1762868 0.17596982 0.23346063
0.08680406 0.112144515 0.08932533 0.20639896 0.16908912 0.120119505 -0.085063584 -0.10395499
-0.060180884 0.11224077 -0.12069212 0.059569072 0.2113909 0.2168869 -0.18697661 0.069567524
0.16681781 -0.22295332 0.15333636 -0.13433492 -0.18022446 -0.12805252 -0.11445526 -0.114753656
0.066878445 0.087204844 0.08665818 0.160602 -0.15765208 -0.2324453 -0.19506179 -0.14950535
-0.12852676 0.09985134 -0.18463555 -0.18700545 0.12181209 -0.164898 0.028936293 -0.20023783
0.06554931 0.123488285 -0.2097634 0.073941916 -0.12627743 0.1455927 0.21606429 -0.19406612
0.089108236 0.17659992 0.23416013 0.17617987 0.057053957 0.026220765 0.047421243 -0.12905054
-0.033145823 -0.0058142026 -0.13908827 0.00069945015 -0.03230338 -0.07174334 -0.07242424 -0.2352779
0.22641523 0.10796739 0.17208716 -0.19932412 -0.25179008 0.17615731 -0.039213493 0.022484697
0.11900689 0.016381847 -0.023140484 0.12383173 0.18177257 -0.07016059 -0.19058052 -0.11281995
0.16737439 0.02021176 0.20589983 -0.08919257 -0.2215681 0.084717914 -0.112379305 -0.14099535
0.1541177 0.006595408 -0.019294793 0.23746319 0.19569828 -0.2730417 -0.30195263 -0.2146156
-0.18837458 -0.1259613 0.15546997 -0.16067679 0.21922114 0.0750713 0.0105683915 0.055083867
0.062029954 0.07371888 -0.18293607 0.0027993987 0.15495579 0.24370204 -0.0050823614 -0.16459656
0.11892575 -0.20684801 0.20359726 0.13237646 0.096740976 0.027867278 0.16055396 -0.10324211
-0.20489047 -0.15215953 0.15996572 -0.12368516 -0.2040267 0.0399601 -0.15314044 -0.026959846
-0.16175722 0.03738479 -0.05306884 0.015014015 0.10723391 -0.15212302 -0.08656957 -0.15579651

encoder.conv1.bias f4 [18]
00000000: 8e3b 043d a838 b83d 79ad 13be f20c 57bd
00000010: 6c80 f4bd 3efc 5e3e 46a0 353d 93f3 33be
00000020: 6efc 2d3e 20b7 66bd c821 a73c 9009 2c3d
00000030: 714a 1dbd b5fc 603e 2bdb e43d 3211 1c3d
00000040: c96a 9ebd 0c9a 773d
0.03228336 0.08995181 -0.14421643 -0.05250258 -0.11938557 0.2177591 0.0443423 -0.17573385
0.16990826 -0.056326985 0.02040185 0.042001307 -0.03840107 0.219714 0.111746155 0.038102336
-0.077352114 0.060449645

encoder.conv2.weight f4 [54, 18, 3]
00000000: 96b9 c6bd 2d36 22bd 66e2 9c3d db5c 06be
00000010: 2a01 93ba a7af 43bd dd21 bd3d baba 8fbd
00000020: f911 263d deb9 16bd 3a10 eb3d b81c 9fbc
00000030: e127 cabd be8e 27bd b995 c63d 838a 5a3d
00000040: 2740 d33c 80dd ac3d 2ff8 4f3d 3bcf 98bc
00000050: 6094 95bd 0f00 05be f9d3 8c3d a802 dd3d
00000060: 01d5 83bd 9646 9dbd 43ea 533c c2c6 08bc
00000070: 8e26 e93d 71c8 553b 5288 083b 7c79 f6bd
00000080: ce13 523d 6c57 15bc f18c 203d e173 a13d
00000090: f9c7 813d b647 223c adb8 85bb eb39 96bd
000000a0: 6eb8 ed3d b2c1 dd3d cc32 94bc 4d82 063e
000000b0: 06ea ec3d ad7a a13d bcb0 9d3d fc7e 733d
000000c0: cc6f 61bc ed50 743c 3494 e93d 9c0e eabc
000000d0: 4a8d 103d cdf1 45bd 8d4f 933c d922 b53d
000000e0: 0495 b43d a2f8 8a3d 3604 873d f156 eabc
000000f0: a9f5 2f3e 85b4 e13d 6254 133e 78ab d9bd
00000100: 1e8c 76bd b7c0 e1bd ce03 823c a73b d93d
00000110: 1330 c3bd 10e7 1f3d 817c 94bc adad 09be
00000120: 64ad e4bb ce27 88bc db27 8dbd f951 b2bd
00000130: fba5 b13d a354 f5bb 1d72 48bd 0fc0 94bd
00000140: d321 1dbd 00a2 17bd ebfc 8bbd a79f 823d
00000150: 608c 05bd c5ef 00be fde7 97bd 7508 05bd
00000160: f253 0bbd e190 413d 4e7e 023e 9ba5 a2bd
00000170: 44fc c43b fd3f e43d 3892 c0bd e1cc eebd
00000180: 0d3b 983b d432 edbb 0226 363b e0a3 9e3d
00000190: ebbd e1bd 0b84 a1bd 27a0 d43d 4db3 d7bd
000001a0: 1923 d0bc 6291 483d 8bd2 bbbd ac74 e8bd
000001b0: 6a5c b5bd cad0 d1bd 3376 f5bd ca2e dcbc
000001c0: 9cb6 06be 16a3 b1bd d7fa fa3c c650 0c3e
000001d0: 5e93 0e3e 94dd e33d c0e8 3a3c f903 a83d
000001e0: 4e46 15bd 1c28 a7bd 9ee6 943d 9422 713d
000001f0: e357 363d 559b 6e3d b211 fbbc 2c20 d53d
00000200: 7115 9d3d 49ab 84bd 1534 c93d 673b 473d
00000210: 8133 65bc 14cb 03bd 061a b53d a37d 363c
00000220: 2ad1 7f3d 876c e63d 7e85 89bc f923 e93d
00000230: d0c6 b5bd 9a4f 293b e136 513d 8a12 573d
00000240: 8008 b7bd 9bcc 193e e1d4 69bd 7aa3 cd3d
00000250: 6bfd 64bd e648 583d 35a0 ccbd e912 92bd
00000260: f778 ef3c 47b8 bb3d 868e a8bb e354 653d
00000270: 5661 9cbd 8fb4 f93c 32a6 dbbc 43f0 2ebd
00000280: 726a 583d 101f 62bd 04de c3bd 988f 20bd
00000290: 09ac 853d 4fb7 053e af9e fa3d 6665 c73d
000002a0: 9737 38bd fb6a 0f3e e3ca 913d 1093 e13c
000002b0: 1bfe a0bd 0785 8ebd db51 153d eef3 1ebc
000002c0: 666b 23bd 5052 cbbd 6262 db3d e1dc 0f3d
000002d0: 6dc8 863c c3b1 4b3c 1b22 903d bc58 b0bd
000002e0: 7969 82ba 8638 013e 54af 22bd d3a5 18be
000002f0: e922 d3bd bfd0 a83d 9271 ab3d 0e7d cf3d
00000300: 5660 b5bd 5173 a8bd cf1a 05be ba1a 8e3c
00000310: 1f4e 34ba c253 1b3e 7c0a 61bd 325c 8cbd
00000320: 6dcc 893d 3b19 54bd e2b7 b4bc e27b 023e
00000330: 500c 563d c01b 13be c7db 223c 9588 2bbc
00000340: 2ff7 093e 7a52 f0bd 6590 ba3d b9a4 13be
00000350: 0298 11be c200 a8bd 2170 19be f541 98bc
00000360: 4223 cd3d 4560 85bd 37db fdbd dce4 d1ba
00000370: 50a9 cebd 0b4b c73d 925b 00bd 4b9c dc3d
00000380: 5aa3 403d 315f 643d 806e 603d 39c7 063e
00000390: 6210 d3bd 21a9 cabd 0b21 c53d 6738 1f3d
000003a0: 28dc 0d3e 26a2 1b3d 96a5 223d 411c 973d
000003b0: 27df a83d 0cf4 b53d 7397 dcbd ae8d 243d
000003c0: 6dfc 78bd 9904 843d ce7d cc3d 7d38 60bd
000003d0: ce2b ab3d 16eb cf3d 1410 a23d 8472 d6bd
000003e0: c0dd 80bb 7075 e23d 7875 193c 26e9 eb3d
000003f0: e735 bdbb 2f74 c7bd 06b4 8e3d 8ea0 363d
-0.097033665 -0.039602447 0.076603696 -0.13121359 -0.0011215557 -0.047774937 0.092349745 -0.07018037
0.040544484 -0.03679835 0.11477704 -0.019422874 -0.098708875 -0.040907614 0.09696526 0.05335475
0.025787426 0.08440685 0.050773796 -0.018653503 -0.07303691 -0.12988304 0.06876368 0.10791522
-0.06437112 -0.07679479 0.01293427 -0.008348169 0.11384307 0.0032620693 0.0020833206 -0.1203489
0.05128842 -0.009115081 0.039196912 0.0788343 0.0633697 0.0099047925 -0.004080853 -0.07335266
0.11607443 0.1082796 -0.018090628 0.13135643 0.11568074 0.07884727 0.07699725 0.059447274
-0.013759565 0.014911872 0.11405221 -0.02857142 0.035290994 -0.048326302 0.017982269 0.08844537
0.08817485 0.06785704 0.065926 -0.02860591 0.17183556 0.110207595 0.14387658 -0.10628408
-0.06019222 -0.110230856 0.015870955 0.10607081 -0.09530654 0.039038718 -0.018125774 -0.13445158
-0.0069786776 -0.016620543 -0.068923675 -0.08707041 0.086742364 -0.007486896 -0.048936952 -0.07263195
-0.038362335 -0.03701973 -0.0683535 0.063781075 -0.032604575 -0.12591465 -0.07417295 -0.03247877
-0.034015603 0.047257308 0.12743494 -0.07941743 0.0060115177 0.11145017 -0.09402889 -0.11660171
0.0046457113 -0.007238725 0.002779365 0.077461004 -0.11022552 -0.07886513 0.10382109 -0.10532246
-0.02540736 0.048966773 -0.09171017 -0.113503784 -0.08855517 -0.102449015 -0.11985435 -0.02687778
-0.13155597 -0.08673684 0.030637188 0.13702688 0.13923404 0.11126247 0.011408031 0.08203883
-0.036444 -0.08161947 0.07270549 0.058870867 0.04451741 0.058253605 -0.030648086 0.10406527
0.07670105 -0.064779826 0.09824387 0.048640635 -0.01398933 -0.032176092 0.08842854 0.011138353
0.062455334 0.11251169 -0.016787287 0.11383814 -0.08875811 0.00258348 0.051077727 0.052507915
-0.08937168 0.15019457 -0.057087783 0.10040946 -0.05590574 0.052803896 -0.099914946 -0.07132513
0.029232485 0.091660075 -0.0051439432 0.055989157 -0.07635753 0.030481605 -0.026812647 -0.0427096
0.05283589 -0.055205405 -0.095638305 -0.03919944 0.06526954 0.13058208 0.12237298 0.09736137
-0.04497489 0.14005654 0.07118776 0.027535945 -0.07860967 -0.06958967 0.036455017 -0.009701712
-0.039897345 -0.09927809 0.107121244 0.035122756 0.016452992 0.012432518 0.07037755 -0.08610675
-0.0009949646 0.12619218 -0.039717987 -0.14907007 -0.10309393 0.0824294 0.08371271 0.10131274
-0.08856265 -0.0822512 -0.12998508 0.017346729 -0.0006878096 0.1516867 -0.05494164 -0.06853522
0.06728444 -0.051781874 -0.022060338 0.1274257 0.052257836 -0.14366055 0.009940094 -0.010469575
0.134732 -0.11734481 0.09109572 -0.14418305 -0.14218143 -0.082032695 -0.1498418 -0.018586138
0.100164905 -0.065125026 -0.123953275 -0.001601364 -0.100908875 0.0973111 -0.03133733 0.10771998
0.047030784 0.055754844 0.05479288 0.13161935 -0.10305859 -0.0989554 0.09625443 0.03887215
0.13853514 0.037996434 0.039708696 0.07378436 0.08245688 0.08884439 -0.10771074 0.04017418
-0.060787607 0.064461894 0.09984933 -0.05474137 0.083579645 0.10152261 0.07913223 -0.10471061
-0.0039326847 0.11057556 0.009366386 0.11519079 -0.005774248 -0.09738957 0.069679305 0.04458671

encoder.conv2.bias f4 [54]
00000000: 9b32 9f3d 236a f23d b7d0 9fbd cff8 afbd
00000010: 85f2 f6bb d032 ee3d a332 a5bc cb2e 0dbe
00000020: 379a 5fbd 580b 99bd d144 bf3d 0057 b6bd
00000030: 603a d73d 4350 5a3d dab2 72bc 0ad5 0cbd
00000040: a0ad 8b3d 534d 96bd 9d52 6abd c0f1 f23d
00000050: 1f00 65bd 384b 893c dfcc d83d 8744 cebd
00000060: 661b eb3c dc9a da3a 7c1d 95bd d3ed fc3d
00000070: e9bd c03d c959 41bc abdf d7bc 471d c33d
00000080: 24b3 34bd 20cb 903d ece7 aebd 0e38 cabd
00000090: 2cff bf3d 7768 b53d e6e7 d2bd 7cb0 23bd
000000a0: ab96 913d 4c36 9f3d f79c 923d 98cb bd3d
000000b0: 3089 7bbd e28a 013d b00d de3d 7c1e debd
000000c0: ec4c aa3d 2dc0 c83c abc4 00bc fdd9 063e
000000d0: e4fa 6ebd 38cf 3dbd
0.07773324 0.1183665 -0.07803481 -0.08592378 -0.007536235 0.116307855 -0.020165747 -0.13787381
-0.05459043 -0.07472867 0.093392976 -0.08903313 0.10509181 0.0532992 -0.014813149 -0.034382857
0.06820226 -0.07338967 -0.057207692 0.118625164 -0.05590832 0.0167595 0.10585951 -0.10071664
0.028699588 0.0016678232 -0.07281014 0.12350049 0.094112225 -0.011801192 -0.02635177 0.095270686
-0.044116154 0.07069993 -0.08540329 -0.09873973 0.09374842 0.08857816 -0.10298137 -0.03996323
0.07108816 0.07774028 0.07158845 0.09267348 -0.06141013 0.03162659 0.108424544 -0.10845658
0.08315453 0.024505699 -0.007859389 0.13169093 -0.058344737 -0.046340197

encoder.rnn.weight_ih_l0 f4 [192, 54]
00000000: 31a3 c5bd f70c cf3d f2fd b8bd 973e e63d
00000010: ab68 afbd a2de 8a3d 8dfc 87bd 8395 d63d
00000020: 1430 a3bd a290 9dbd fa98 23bd acf9 c5bd
00000030: e06e ff3d 71f7 4f3d de90 87bd 5a6e c9bd
00000040: d183 39bd 193f b73c ee06 56bd 35ae 8b3d
00000050: 56ea 6dbd 5baf 2c3d f04d b03d f699 a8bd
00000060: 1a3e b8bd fd6e fdbd 6261 e13c 04c6 d43d
00000070: f8b3 abbd 9021 51bc aa36 983d efd6 d03d
00000080: a211 953d 4cce 133d 62ce d13c 0821 543c
00000090: 5231 e93d f16c 65b7 0dc7 563d f94d 56bc
000000a0: 7a1d c23d 8e86 f5bd 6973 32bd 043d fdbd
000000b0: dec2 033d e170 afbc e776 dbbd 264a cbbd
000000c0: ae25 023d 4eb1 b73d 802d d23d f2dd a73d
000000d0: bb5b c6bd 502c cc3d 45ac f93d cbe4 8e3c
000000e0: 33be 3abe 06a6 d3bd ed25 2abe 55f1 e13c
000000f0: 2b49 eb3d d02c b23d 5311 80bd c23b 7fbd
00000100: d8b0 363d aa93 a1bd 7bd9 8dbc a6b9 c63c
00000110: 404b a9bd 4b6a 503d 8ae6 45bc 36fa d53d
00000120: 78bf ebbd f121 f63d bdeb b23d 8db2 e6bd
00000130: 8e05 353d e2da 9b3c 76e6 7a3d 1ddf d13d
00000140: f027 acbd f1d9 67bd 4dcd aebd ec3b 703d
00000150: 9213 b9bd 6dbc 9dbd c064 d83d 53a6 983d
00000160: 1190 b63d 64f3 d03d effc dbbd 9e35 e4bc
00000170: 3d1f 65bc 1c5a f03d 2cf1 2ebc 9741 42bd
00000180: 0682 963d 252e 8c3d 6b94 c8bd dd0b 32be
00000190: 8dee 76bd 2f75 873d 924c 073e 04b2 5f3d
000001a0: 5dad 883d 3375 5a3d effc 23bd b6fe ecbc
000001b0: 874b 903d 62ec aebb e8ee 2abd fada 48bc
000001c0: 28f7 eb3d 3865 5f3c 7ee4 3cbd 7a03 bdbd
000001d0: 4047 36bd a025 17bd 0813 8b3d ab08 f33d
000001e0: 225c 2abd e2d9 073e ddb8 b3bd fdd6 69bd
000001f0: 2ee0 343c 174a 31be 95ce a9bd 3ea0 29bd
00000200: 90b6 9dbd 6b66 cd3d e585 2fbd d1f6 99bd
00000210: 6d94 90bd 86ca bd3d ffc2 a23d 7511 9cbd
00000220: 9b00 05be 2acd 55bd 127c a43d 9365 ad3d
00000230: 65a9 903d 9851 353d 0bd5 983d bc6b f23d
00000240: b91b 94bd f43e 7a3d 2646 a33d 4e80 fb3b
00000250: db93 b93d 9c15 87bd b2d5 cabd 3eaa 54bd
00000260: 821d afbd 38cc ef3c 031e ec3c 457b 493c
00000270: f416 b3bc 4cb6 893c 355a 1abe a1a4 b8bd
00000280: 88da acbd b337 c63d 3228 eebd 9495 6b3d
00000290: d0d1 8e3d 3678 21bd 2ddc a0bc 441b cc3d
000002a0: 9c8a d6bd ffae 02be 2b57 6cbc 2060 66bc
000002b0: 3e50 53bd d4fa 2f3c db0f 863d 13e6 8d3d
000002c0: 3acd f23c 5c21 b03d 6b62 7abd 72c4 263c
000002d0: eb43 323d a6ae 263d 822f 1ebd 9ea9 e03d
000002e0: bbe6 c4bd 4ebb 3abd 6ec1 e6bd d9aa 5b3c
000002f0: e841 c6bd 30f7 de3d f4b3 b1bd e535 ff3c
00000300: ef97 df3d 52b6 f13d 4631 373d 03c4 323d
00000310: 46a5 ea3c 6156 993d 5d5a bcba f54e c4bd
00000320: 2891 eb3d ee81 c8bd 70b8 fa3d d364 a03b
00000330: ad5a 583d 4e57 41b7 f68c 533d f60e a33d
00000340: 8e20 efbd c9cc 943d a40d 2fbd 7279 f0bd
00000350: 7712 d5bd 5395 2c3c f8cc cb3d 84c6 fdbd
00000360: 37ca 0d3d 8aee 533d 3d39 dbbd e974 0f3d
00000370: cc65 eabd 5d74 733c 7762 28bd 3ace 003e
00000380: cdb0 ebbd 2be7 823d d791 2dbd 9cbd 0c3d
00000390: 9541 c3ba 3fa7 ffbd 4e07 4dbd 9be8 0b3c
000003a0: 372d 193c 3b71 80bd c8c8 9e3d ea84 69bd
000003b0: beab 6fbd f096 0e3d fdc4 37bc 8ac5 e03c
000003c0: eb27 773d 702e 18bd c8bc 173d 8873 a63d
000003d0: 0349 da3c 53d6 c73d a194 693d c97a 983d
000003e0: 481b b13d 4a0f 983d 0af3 de3c 5234 7e3d
000003f0: b07b 743d 08eb 9b3c 6db7 b43c a110 28bd
-0.09650267 0.10109895 -0.09032811 0.11242407 -0.08564886 0.06780745 -0.06639967 0.10477736
-0.079681545 -0.07693602 -0.03994081 -0.09666762 0.124723196 0.050773088 -0.06619428 -0.09835501
-0.045291726 0.022368954 -0.052252702 0.06820337 -0.05808481 0.04215942 0.086086154 -0.08232491
-0.0899622 -0.12374685 0.027512256 0.10389331 -0.08383936 -0.01276435 0.07432301 0.10197245
0.07278754 0.036085412 0.025611106 0.012947328 0.1138636 -1.3674829e-05 0.052435923 -0.013080114
0.094782785 -0.11988555 -0.043567095 -0.123651534 0.03216826 -0.02141613 -0.10716038 -0.09926252
0.031774215 0.08969365 0.10262585 0.081966296 -0.09685465 0.099693894 0.12191061 0.017443081
-0.18236618 -0.10334401 -0.1661603 0.027580896 0.11488565 0.086999536 -0.06253304 -0.06231285
0.044602245 -0.07889493 -0.017315617 0.024258446 -0.08266306 0.05088262 -0.012078891 0.104481146
-0.11511129 0.120181926 0.0873637 -0.112645246 0.04419475 0.01902527 0.06125494 0.102476336
-0.08406055 -0.05660433 -0.08535252 0.058650896 -0.09036936 -0.07701955 0.105660915 0.07453599
0.08914197 0.10202673 -0.10741603 -0.027857598 -0.013984499 0.11735937 -0.010677617 -0.047425833
0.07349019 0.06844739 -0.097939335 -0.17387338 -0.060286094 0.06614148 0.13212803 0.05461313
0.066736914 0.053334426 -0.04003614 -0.02893005 0.07045656 -0.0053382376 -0.041731745 -0.012259239
0.11521751 0.013634972 -0.046116345 -0.09229179 -0.044501543 -0.036901116 0.06790739 0.11866888
-0.04159177 0.1326671 -0.08775494 -0.057089794 0.011039777 -0.1731342 -0.082913555 -0.041412584
-0.07700837 0.100293 -0.0428523 -0.075177796 -0.0705956 0.09267144 0.07947349 -0.07620517
-0.12988512 -0.052197613 0.08031477 0.08466639 0.070635594 0.044267267 0.0746251 0.11836955
-0.0723185 0.061095193 0.07972364 0.007675207 0.09061404 -0.065959185 -0.099040404 -0.051920168
-0.0855055 0.029272184 0.028822904 0.012297456 -0.02186153 0.016810559 -0.15073474 -0.090157755
-0.08440119 0.096785925 -0.116287604 0.057515696 0.06973612 -0.039421283 -0.019636238 0.09966138
-0.104756564 -0.12762068 -0.014425079 -0.014061004 -0.051590197 0.010740954 0.06545993 0.06928649
0.029638875 0.08600113 -0.061129015 0.010178672 0.043521803 0.0406939 -0.038619526 0.10969852
-0.09614321 -0.045588784 -0.112673625 0.0134074325 -0.09680539 0.10886991 -0.086769015 0.031153629
0.10917651 0.11802353 0.044724725 0.043643963 0.028643262 0.074871786 -0.0014370192 -0.09585372
0.11502296 -0.09790407 0.1224221 0.0048948317 0.05282085 -1.1524024e-05 0.051648103 0.07961838
-0.11676131 0.07265622 -0.042737618 -0.11741914 -0.104039125 0.010533649 0.09951204 -0.123913795
0.034616675 0.05174116 -0.10704277 0.035023604 -0.114451975 0.014859286 -0.04110953 0.12578669
-0.115083314 0.06391748 -0.04237541 0.034360513 -0.0014896864 -0.124830715 -0.050055794 0.008539344
0.009349159 -0.06271597 0.0775314 -0.057011522 -0.058513395 0.034811914 -0.011216399 0.027437944
0.060340803 -0.03715366 0.03704527 0.081275046 0.026646143 0.09757676 0.05702651 0.074452944
0.086477816 0.07424791 0.0272155 0.062061615 0.05968827 0.01903297 0.02206012 -0.041031484

encoder.rnn.weight_hh_l0 f4 [192, 64]
00000000: 7640 e1bd 8fa1 f23d a791 a7bd 9a34 f23d
00000010: a097 8abb 7b0d 86bb 9e1f 873d 43f9 69bd
00000020: 4b97 9b3b 0a14 4ebd 7857 bbbd 6016 a93d
00000030: 8d6d b33d 7ff8 773d 827b f23d f4d0 653d
00000040: d89a d03d 26b6 04bd 68ad b73d 7af6 113d
00000050: 4962 7e3b dac1 b43d e742 cdbd 36ea 06bc
00000060: 5a22 77bd 8c88 f93d 9de3 9bbc 9b42 203d
00000070: 2b3d bc3d 998e 7b3d 3250 3abd 8d5c fe3b
00000080: 5c1f a93d f1dc 45bd 76ea 3c3c f7c5 b8bd
00000090: 1e47 013d 36b6 a93d 082a 913b 681c c33c
000000a0: bcbe ce3d 63a9 0c3c ab09 35bd b086 c93d
000000b0: f357 b1bd 2c55 723d b2c5 9d3d 94ea 813b
000000c0: e342 01be 3b38 583d 3515 ae3d aec3 15bc
000000d0: 0d25 a23d 5b64 333d b6da c03c f314 f53d
000000e0: ae4f 82bd c64c 843c 5b34 c8bd fd4c d73d
000000f0: 8cc1 113d 55aa eb3d c800 c4bd a9b3 e43d
00000100: 685a 853d 0a92 c43d ffa0 81bd 5ecb b6bd
00000110: 8e0b e5bc 9fdf bd3d 3e69 243e 0ccc ec3c
00000120: 402c 0fbc d283 e1bb 2773 8bbc 1e62 bd3c
00000130: 1c90 693d 5715 c9bc 3a69 a8bd 3426 0abc
00000140: 0450 8e3d 9f9d aabd 4168 f33d 37b4 323d
00000150: c956 593d 29b9 483d b3a2 5c3d 93f6 f83d
00000160: 85e9 87bd f80c fd3b 99d5 b73d be61 dbbd
00000170: da9a 793d 7f35 eebd 971a b1bd ea43 95bd
00000180: 2d5d afbd 30f2 bcbd bfe2 b03d 1cb2 d2bd
00000190: 23b5 81bd f422 d6bd d99e 25bd ec17 21ba
000001a0: 3d35 4f3d 90c7 90bd 4656 01bc ce8e 6e3d
000001b0: a06c aa3d 9ea8 03bb 95da 91bd 88e6 963d
000001c0: 3a3a 0bbd ac1e ddbd 6e01 07bd ab65 cabc
000001d0: d92f e23c f743 d83d 1bff b13d ba48 a9bd
000001e0: 72c2 f33d 4d5f 713d 006f de3c b878 a8bd
000001f0: da28 7fbc 301d fe3c 5a05 63bc 6539 a13d
00000200: c2cb 943d 86b9 93bd e721 e43d 020a 8f3c
00000210: 031f 3b3c a370 f5bc c5c6 0a3d 28ad e23c
00000220: 85bd 24bd d6db af3a 0606 3fbd 795c 0b3e
00000230: e9c2 86bd 130e b5bd 3663 023e e4c2 7b3d
00000240: d108 eabd 328a ed3d f73b 05be 25cf 1abd
00000250: 92f6 3abd e606 a73a 5d96 e3bc 7b1d 76bd
00000260: ad70 ccbd 539c a0bd 778f a03d 97f9 3c3d
00000270: c145 003d 088d aabc aa8d fe3c 1e28 b1bc
00000280: fb15 37bd 76ac 043e 5eaf 2bbc 0a41 b8bc
00000290: e70c 563b d60f 573d 7721 fdbd abfc 5b3d
000002a0: d0f1 ebbb 2e41 28bd 6730 e9bc 4e4c 83bb
000002b0: b9cf 1abe 9f0d 8a3d 64f0 c73c 9faf 81bd
000002c0: c2ce 983d 19a4 99bd 018d c33d 86d5 3fbd
000002d0: 2514 d73c eb99 bd3c b7e7 d2bc f4df c7bd
000002e0: 8672 893d 2ad8 b83c 50f1 b1bd 0a88 0bbd
000002f0: 16c8 1f3d ab73 b3bd 8d1c 4b3d ceef ae3d
00000300: bc1e f9bd 88ea 8f3c 4e30 a5bd e144 e7bd
00000310: 5964 e53d 34c0 8d3d ae58 d53d f1e1 fe3d
00000320: 1788 84bd f099 5cbd d641 ae3a d2da 5e3d
00000330: 0702 323c b4cb ebbb b5c2 fc3d 6488 58bd
00000340: 99cb 5f3d 1c2f 513d 64af 7abd a741 963d
00000350: 3eb5 b23d d0f6 bdbc 0dea cabd 277e 9e3d
00000360: 67cf b43d bb1b 763d 347d 863c 6aaa 823d
00000370: 7815 2a3d 5170 34bd 5d91 b8bd a6e5 4cbd
00000380: e198 2f3d 2172 54bd b233 a43d 6e2c 87bd
00000390: 50e2 cbbd 3386 ae3d c37f a4bd 35c4 213d
000003a0: 82c3 dd3d 26b4 fa3b e181 a53d f21f 04bd
000003b0: bbb4 dbbd 5410 96bd 300e 1ebd 6e1a a1bd
000003c0: e4bb a0bd 6812 513d 76f0 203e 7592 9d3d
000003d0: ae31 433d e1c8 c0bd 0c25 acbc 1eab 383d
000003e0: 2222 e33d f48b 77bd 163a a13d d4d6 8d3d
000003f0: ac75 ccbc ce24 edbd 9c3b 7a3d c7a8 903d
-0.10998623 0.11847221 -0.08182078 0.11826439 -0.004229501 -0.0040909625 0.065978274 -0.05712248
0.00474826 -0.05031208 -0.09147543 0.08256221 0.087611295 0.06053972 0.118399635 0.056107476
0.10185784 -0.032400273 0.089686215 0.03563545 0.0038815907 0.08826037 -0.10022526 -0.008234551
-0.060335495 0.121842474 -0.019029433 0.03912602 0.09191354 0.06141529 -0.045486636 0.0077624978
0.082579345 -0.04830641 0.011530509 -0.09022134 0.031561963 0.08286707 0.0044300593 0.023817256
0.100949734 0.008585307 -0.044198673 0.09840143 -0.08659353 0.059163257 0.07703723 0.0039647315
-0.12623172 0.052788 0.08500139 -0.009140892 0.07917223 0.04379688 0.02354179 0.11966886
-0.06362854 0.01614989 -0.09775611 0.10512731 0.03558497 0.11507098 -0.095704615 0.1116708
0.06511384 0.09598167 -0.06329536 -0.08925508 -0.027959611 0.09271168 0.16055772 0.02890589
-0.008738577 -0.0068821693 -0.017022682 0.023118075 0.0570222 -0.024546308 -0.082231954 -0.00843196
0.069488555 -0.08330845 0.11885119 0.043628898 0.05306128 0.049004707 0.0538661 0.12156405
-0.06636337 0.0077224933 0.089762874 -0.10712002 0.060938694 -0.11631297 -0.0864765 -0.07288344
-0.08562694 -0.09225881 0.086369984 -0.10287878 -0.06333377 -0.104558855 -0.040434692 -0.0006145227
0.05058788 -0.070693135 -0.007894104 0.058241658 0.083215 -0.0020089517 -0.07121769 0.07368189
-0.033991076 -0.10796866 -0.032960348 -0.024706682 0.027610706 0.10559838 0.08691236 -0.082658246
0.11902322 0.058928777 0.027152538 -0.0822615 -0.015573705 0.031019777 -0.013856256 0.07872275
0.07265426 -0.0721312 0.11139279 0.017460827 0.011420968 -0.029960936 0.033880968 0.027670458
-0.040219802 0.0013416957 -0.046636604 0.13609494 -0.06580145 -0.08840575 0.12733158 0.06146516
-0.11427463 0.11598624 -0.13011156 -0.037795205 -0.045645304 0.0012743145 -0.02778166 -0.06008671
-0.09982429 -0.078423165 0.07839864 0.046136465 0.031316523 -0.020819202 0.03107341 -0.021625575
-0.044698697 0.12956414 -0.0104788225 -0.02249195 0.00326615 0.052505337 -0.123598985 0.05370776
-0.007200457 -0.041077785 -0.028465463 -0.004006899 -0.15118302 0.06740879 0.02440662 -0.06332325
0.07461311 -0.07502002 0.09548379 -0.04683449 0.026254723 0.023144683 -0.025745256 -0.097595125
0.06711297 0.022564013 -0.08688605 -0.034065284 0.039009176 -0.08762296 0.049587775 0.08541833
-0.12164065 0.017567888 -0.08065854 -0.112924345 0.112007804 0.069214255 0.10417305 0.12445439
-0.064712696 -0.053857744 0.0013294767 0.054407902 0.010864741 -0.007195914 0.12341825 -0.052864447
0.054637525 0.051070318 -0.06120242 0.07336741 0.087259755 -0.023188978 -0.09907923 0.077389054
0.08828621 0.06008504 0.016417123 0.0638016 0.04152438 -0.044052426 -0.09012101 -0.050023697
0.042870406 -0.051866654 0.080176726 -0.06600271 -0.09955275 0.0852169 -0.08032181 0.03949376
0.10828306 0.00765087 0.08081413 -0.032257028 -0.10727831 -0.07327333 -0.03858775 -0.07866369
-0.07848337 0.051042944 0.15716729 0.0769395 0.0476548 -0.094133146 -0.02101376 0.045085065
0.11090495 -0.060436204 0.07872407 0.06925741 -0.024958454 -0.115792856 0.061092004 0.07063442

encoder.rnn.bias_ih_l0 f4 [192]
00000000: b5d8 f43d c419 babd 4464 d2bd 6ce1 043a
00000010: def3 c23c b4e9 aabc 9018 5cbd e4bb 803c
00000020: f977 bebb bd6a 45bd b1c3 2b3d 487a 84bd
00000030: b08d 08be 880a dcbd 4980 1f3d 66fc c6bd
00000040: 7447 e1bd 9072 36bd e1e7 ae3d 4dd9 a13d
00000050: 4258 d13d 4c56 d8bd 9a01 b9bd f534 8e3d
00000060: d50a 103e b8bc 41bc 47ad eebd 36f0 ff3d
00000070: ef1f 9b3d 6ee3 be3d 0f63 2a3d c97a 603d
00000080: 559f 58bc 93bc 7e3d a659 193d 4d80 86bd
00000090: a1fc 4fbd 5846 f9bc 240c 35bc d767 b33d
000000a0: 1772 a23d 0571 adbc 96da 14bd 948c 83bc
000000b0: 4b90 f73d 8c36 f03d de26 643c 237b fabb
000000c0: e0de 9b3d 3f6c babd 062e 93bd 8c6c a73d
000000d0: e906 f73d bd42 b1bb 2095 d4bd 169f b83d
000000e0: 9cb3 6d3d ea6b 2c3b 7a44 fa3d 29e5 b5bd
000000f0: c015 3bbc 94e3 9e3d 72f4 a6bd 66dd bfbd
00000100: 2509 6d3b 8ed6 a73d c961 13be 768a 543d
00000110: 38d4 d5bd 0727 a0bd f51e 313e a58f e73d
00000120: d2c4 863c 1f82 e23b b143 b3bd 015f c03d
00000130: 77f0 ab3d 90f7 a73d 748c 233c 4588 40be
00000140: fcd4 a0bd 7678 00be 1719 71bd 032c 143c
00000150: 77fe e4bb 35a7 b2bd c1ea 733d a6fb 713d
00000160: c069 0cbd e282 2bbd 471a 143c 8286 dfbc
00000170: 6009 8abd 8bb6 153d 11e1 9d3c 65cc f4bd
00000180: 7c19 3fbe 5a33 403d af13 31be 0c94 8dbc
00000190: e176 9f3d 3435 943d 869d 7a39 5e8c 65bd
000001a0: b9eb 1cbd 48eb 25bd 8ef2 07be 6ba5 1abe
000001b0: f5e5 82bd 890f 93bd 9cd8 953d ef2c b6bd
000001c0: 566a babd f417 3bbb e505 be3d 1440 93bc
000001d0: c5de 7bbd 8e8c 0dbe f392 fbbd 87be 7c3c
000001e0: 11f6 c73d 7f5a 133d d205 713c 5d65 e83c
000001f0: 540e 05be 14d7 79bd 6ecc cbbd 052a 00bd
00000200: ecea 943d 60b0 b2bd 7ed2 06be 4f60 bdbc
00000210: 3af3 5cbd caa7 dabd 2637 a0bd fffb 5ebc
00000220: 9f40 86bd 02e2 ac3d 7c73 06bd 58d7 c0bc
00000230: cea7 813d 6568 e7bd dcc0 133d a99f e6bc
00000240: 4c27 c73d 65e1 5d3c 3d96 46bd 77ff b7bd
00000250: ec72 aebd 2e88 87bd 1620 da3d bd1a d13d
00000260: 3699 d63d 9b2e 58bd 15d1 343d aa99 acbd
00000270: 810f 03bd 11c6 e23d f1e7 a1bd 88f4 06be
00000280: da2b 61bb 4a3f e73c 868f c03d 8714 5d3d
00000290: e51e c03c a44e fa3d 2b34 d63d 627f 89bd
000002a0: 7e67 eabd b629 efbd bf05 e93c b166 1d3d
000002b0: 4705 febc 96ec cf3d c737 ef3c dc9a 933c
000002c0: fa23 7cbc 9db7 a43d e54e 2e3d 7355 bbbd
000002d0: 3d7f 1ebd 948a 4b3d 616f 2b3d 99fc d3bc
000002e0: b130 f33d f1bb d23d 7de7 79bd 1377 cf3d
000002f0: d26b bd3d ce29 ac3d 1237 0dbd ac65 883d
0.11955396 -0.09086946 -0.102730304 0.0005068991 0.023797926 -0.020863391 -0.053734362 0.015714593
-0.0058126417 -0.048197497 0.041934673 -0.06468636 -0.133353 -0.10744196 0.0389407 -0.0971611
-0.10999957 -0.04454285 0.08540321 0.07902775 0.10221912 -0.10563335 -0.090335086 0.069436945
0.14066632 -0.011824779 -0.11654144 0.124969885 0.0757445 0.093207225 0.041598376 0.054804597
-0.0132215815 0.062191557 0.03743901 -0.0656744 -0.050778035 -0.03042905 -0.011050258 0.0876004
0.07931917 -0.021172056 -0.036341272 -0.016058244 0.120880686 0.11729154 0.013925282 -0.0076440736
0.076108694 -0.091026776 -0.07186513 0.081750005 0.12061865 -0.005409567 -0.10380006 0.09014718
0.058032617 0.002630944 0.12220092 -0.088815995 -0.01141876 0.07758251 -0.08152093 -0.093684
0.003616878 0.0819522 -0.14392771 0.05188986 -0.10440868 -0.07819944 0.17296965 0.11306695
0.016451273 0.0069124843 -0.087531455 0.093931206 0.083954744 0.08201516 0.009982217 -0.18801983
-0.078531235 -0.12545952 -0.05886182 0.009043696 -0.0069883424 -0.087232985 0.05955005 0.05907788
-0.03428054 -0.041872866 0.009039468 -0.027285818 -0.067400694 0.03655104 0.01927236 -0.11953048
-0.18662065 0.046923973 -0.17292665 -0.017282508 0.07786346 0.0723671 0.0002390054 -0.056042068
-0.03831074 -0.040507585 -0.13276121 -0.15102164 -0.06391517 -0.071806975 0.073167056 -0.08895289
-0.09102313 -0.0028548213 0.09278468 -0.01797489 -0.061491746 -0.13823149 -0.12283888 0.015426285
0.0976373 0.035974976 0.01471086 0.028368646 -0.12993747 -0.06099613 -0.09951101 -0.031290073
0.0727137 -0.08725047 -0.13166234 -0.023117213 -0.053942896 -0.106765345 -0.07823019 -0.013609885
-0.06555294 0.08441545 -0.03282498 -0.023540184 0.06330834 -0.112992086 0.036072597 -0.028152304
0.09724292 0.013542508 -0.048483122 -0.08984273 -0.08518013 -0.06617771 0.10650651 0.10210178
0.104784414 -0.05277882 0.04414471 -0.084277466 -0.031997208 0.110729344 -0.079055674 -0.13179219
-0.0034358413 0.02822842 0.09402375 0.053974655 0.023452232 0.12222031 0.10459169 -0.067137495
-0.11445521 -0.116778776 0.028445123 0.038428012 -0.031008376 0.10152547 0.029201401 0.018018179
-0.015389437 0.08042834 0.04255571 -0.091471575 -0.038695563 0.049692705 0.041854266 -0.025877284
0.118745215 0.10289753 -0.06101178 0.101301335 0.09249081 0.08406411 -0.034476347 0.06660017

encoder.rnn.bias_hh_l0 f4 [192]
00000000: ee37 98bd 7e43 9a3d b34f 68bc 0e39 893d
00000010: 4528 9f3d 65fb 193d 247f 183d 6d99 68bd
00000020: bd81 b9bd d68f d1bd 8673 24bd 6e0c d9bd
00000030: ad19 4bbd 57f1 f0bb 9ced fcbd 570f e33d
00000040: eb48 33bb 5aab 963d e11a ddbd 4aee 9a3d
00000050: 325c 94bd 815e 2d3c 1145 b83d 1d19 df3d
00000060: 8e62 b8bd 8b57 66bd 272d 57bd f40e 4a3d
00000070: ef57 acbd 3a45 b13d fadf c5bd 7a01 ae3b
00000080: 9cd7 ea3b ffc7 bbbd 801b 6dbc c764 bebd
00000090: dbc4 94bd 0641 04be a191 063d f5fc 37bd
000000a0: 7bfc e0bc 3545 603d f6d8 9a3d 6381 623d
000000b0: 5c77 c23c 6aa5 ea3d 3d0a b0bc 7a41 d73d
000000c0: 3981 87bd 4852 f4bd 45f2 62bc bb11 99bd
000000d0: efb5 a8bd 502f a7bd b77c 91bc 5058 6a3c
000000e0: cb44 9cbb 455c 1dbd 290d d63d 607c 9d3d
000000f0: 794a 8cbd 2a37 afbd 3ef3 d2bc b862 793d
00000100: 0c2f d83d 239d 913d 24a0 99bd bc46 e93c
00000110: 8570 f6bd ed80 583d 9bd9 433e 748c a83d
00000120: 54a8 ddbd 7209 2ebe 2063 23bd 5280 0ebd
00000130: 7eb4 9cbd 4f30 b83d 2ea5 363d 0478 93bd
00000140: 66e7 cb3d 6617 e7bd e3ee bb3d 50ef ae3d
00000150: daa7 dabd 9020 82bc 63de 7f3d a0cb 40bc
00000160: 06e5 babb f263 dfbd 8035 19be c94d 4f3d
00000170: c04a 84bd 28f4 293c 63c6 e9bd 05f0 d2bd
00000180: 2364 f23c bb55 fcbd 93ad 44bd c33b c93c
00000190: c2d7 d9bd 3ac2 63bd 0dfe 02bd ecde d33d
000001a0: 8cbd 12bd c5c3 943d da6a fabd a17b 5dbe
000001b0: f044 813d 082d 2bbd 9c77 6f3d 8f12 50bd
000001c0: 3e32 323d fc02 e93b d153 64bd cb8c f7bd
000001d0: 0c0c b63d c512 f4bd 573b 5bbc 1901 b7bd
000001e0: c5eb 193e 9abc 8ebb 9513 d5bb 187e 95bb
000001f0: c72f 19bd 01c1 c63d 9073 9e3d aca3 afbd
00000200: 4a8f eebc 59f1 7fbd f40d 363d 95ef 563d
00000210: 7477 f6bd 9b32 ccbd db1c fdbc ca19 8ebb
00000220: b611 b33d 4fc5 013d 8d59 9a3d 94ab babd
00000230: 906c b73d f21f dd3d 7268 893d e9ed 2d3b
00000240: ceff d83d 56a2 bcbb 5f08 75bc 741a 96bc
00000250: 85de 103d 3090 163d 7a08 c93d 8467 bb3d
00000260: a306 353d f270 d13c 1c5d 113d ab9a bd3d
00000270: 1506 27bd db80 a93d 8070 61bd 6ee2 78bd
00000280: ac4f 2e3d 085e 99bd c269 67bd 5b01 213d
00000290: c0d8 2dbb 9521 973d 9975 99bd 33f5 d9bd
000002a0: 8795 2c3c c72a 4f3d 4e47 283c 6a2b a8bd
000002b0: b398 a1bd 3d31 6e3d 6e6f c33c a19e 923d
000002c0: ffe2 80bd e540 c93d 5c39 82bb 6684 f13c
000002d0: da2f a9bd ba38 aebc fc5e 06bd fcd2 c7bd
000002e0: 5993 9d3d fd54 2e3d 46a7 a9bd 48ca 183d
000002f0: c315 fdbc cc08 ffbd ada9 003d 1bfd 72bc
-0.07432543 0.07532404 -0.014179158 0.067003354 0.07771353 0.037593264 0.037230626 -0.056786943
-0.09057949 -0.10232513 -0.040149234 -0.10598074 -0.049585033 -0.0073529887 -0.12350008 0.1108691
-0.0027356695 0.073569015 -0.10796142 0.07564981 -0.07244147 0.0105816135 0.08997548 0.10893462
-0.09003173 -0.05623583 -0.052533295 0.049330667 -0.084152095 0.08655782 -0.09661861 0.0053102346
0.007166816 -0.091690056 -0.014471889 -0.092965655 -0.0726411 -0.1291543 0.032853726 -0.044918973
-0.027464142 0.0547535 0.07560913 0.055299174 0.023738556 0.114573315 -0.021489257 0.105105355
-0.06616444 -0.119297564 -0.013851707 -0.07474085 -0.08237826 -0.08163321 -0.017759664 0.014303282
-0.004768943 -0.038418073 0.10451729 0.07689738 -0.06850142 -0.085554436 -0.025750753 0.06088516
0.105558485 0.071100496 -0.075012475 0.028476112 -0.1203318 0.05285733 0.19125979 0.08229914
-0.10823122 -0.1699579 -0.039889455 -0.034790345 -0.07651614 0.08993589 0.04459112 -0.072006255
0.09956245 -0.1128376 0.091764234 0.08541739 -0.106765464 -0.015884668 0.062467944 -0.011767298
-0.0057035713 -0.10907735 -0.14961815 0.05061129 -0.0645957 0.010373153 -0.114147924 -0.10299686
0.029588765 -0.12321039 -0.048017096 0.02456463 -0.10636856 -0.05560515 -0.031980563 0.10345253
-0.035825297 0.072639026 -0.122274116 -0.21629192 0.06311977 -0.041790992 0.058463678 -0.05079895
0.043504946 0.0071109515 -0.055743996 -0.12087401 0.088890165 -0.119176425 -0.013380847 -0.08935756
0.15031345 -0.004355979 -0.0065025785 -0.0045621507 -0.03739908 0.09704781 0.077368855 -0.0857614
-0.02912106 -0.062486026 0.0444469 0.052474577 -0.120345026 -0.0997059 -0.030897548 -0.0043365704
0.087436125 0.03168231 0.07536612 -0.09114757 0.089562535 0.10797109 0.067093745 0.002653951
0.10595666 -0.0057566566 -0.014955609 -0.01832316 0.03536846 0.0367586 0.0981607 0.091506034
0.044195782 0.025566552 0.035489187 0.09258016 -0.040777285 0.0827653 -0.05503893 -0.060762815
0.04255645 -0.07488638 -0.056497343 0.039307933 -0.0026526898 0.07379452 -0.07493133 -0.10642471
0.010533697 0.050577905 0.010270907 -0.082114056 -0.07890453 0.058152426 0.023856845 0.07159162
-0.06293296 0.09826831 -0.003974123 0.029482078 -0.0826108 -0.021267284 -0.032805428 -0.09757039
0.0769412 0.04256152 -0.08283858 0.037302285 -0.030894166 -0.1245285 0.031411815 -0.014830853

encoder.rnn.weight_ih_l1 f4 [192, 64]
00000000: e4a3 af3d 4091 d53b bc83 6cbd 8e04 53bd
00000010: 5741 4b3d d6c8 b3bd 3fd5 3f3c c525 f6bd
00000020: 7e46 a3bd 475b 03bd c600 b93d fe1e 5fbd
00000030: 4c5c 99bd 37f1 2abd 2c59 bbbd 2237 dfbc
00000040: d599 e4bd 31bc 133d 4e4f 04be 8bf9 e3bd
00000050: 73cb dbbd 54d5 b2bd f519 3a3d 95c8 9e3d
00000060: 393b 8fbd 9cac 813d a711 f7bd 6216 e3bd
00000070: a928 403d 7288 9ebc 6292 63bd 1b2a e03c
00000080: 1827 323c d2ff df3d deaf e73c d945 e7bb
00000090: 5f44 bbbd 54ee 3fbd e9bb e6bd b1f0 61bc
000000a0: c143 26bd bed0 38bc 423a abbd 6a7a 563d
000000b0: 26ef 733d d5fd 0bbc 4557 6cbd 08fd 2d3d
000000c0: 8146 873d 5ad3 1e3d acc1 d1bc 2f58 053d
000000d0: e97d ec3b 5c21 9ebb 92d3 35bd dcab 85bd
000000e0: 73db 8b3d 6970 773d 8f0f edbd cdd0 853b
000000f0: 35ab c7bd 2360 063e 90cf 8bbb 9ede b2bd
00000100: ad94 99bd e72e 7f3d a847 6fbd 4f5d 11bc
00000110: e27b e63d b777 4fbd b506 8dbd 2e50 1c3d
00000120: 7d5b 0e3c 8211 a9bd 443b 223d 7bd1 aabd
00000130: f91d 9bbd 64f2 cdbd 67bf f8bc 4e39 54bc
00000140: 45a5 47bd b435 83bd 2550 39bd 0ada e73c
00000150: 327a ff3b 23a3 f9bd 6a8e d8bd 531e c73d
00000160: 3f9d 923c 9543 643d 854a ec3b 6077 ecbd
00000170: 8af5 f8bd 953b 9e3d 4150 f0bc 20ca 85bd
00000180: cf85 fbbd c4c4 853d 884f 5a3c c238 cdbd
00000190: b054 8c3c 8fe6 97bd 124a d9bc be8e 99bd
000001a0: 4f2a 26bd 4016 fcbc ea39 eabd 625b bcbd
000001b0: 015a fdbd 9859 d13d 6fa4 90bd ae93 bc3d
000001c0: 3f8b c23d 08d9 87bd 5cac c53d 93ad d23b
000001d0: 2941 40bc 78af 8b3d 7450 b83d 3884 d2bc
000001e0: 3f3e 043e e47a 91bd 8caf ac3d d66d 993d
000001f0: 009c d83d 7317 81bc bf25 f63d b8ac ef3d
00000200: 155c b2bd fba9 ee3d 525b b2bd a00d 033e
00000210: d929 bcbd 709f 7e3c 1085 dabd 8cdb 453d
00000220: 1b14 8ebd 6081 51bd 9475 3bbd a68f dbbd
00000230: 5949 bdbc deca 2dbd 0f0d c0bd c272 5bbd
00000240: 9905 2ebd 5a8d fe3d e375 5d3d b4e6 35bc
00000250: 89f8 e03b 8989 243d 0725 f63b d533 83bd
00000260: 72c3 ccbd 355a b2bd 6d0f 003d 461c f2bb
00000270: b34e a7bd b65b 993d f74f 9f3d a6a2 c63c
00000280: 3d4b c53d d6d9 a5bd 5a07 adbd 751a 2e3d
00000290: 4ee5 e83d f3dc 9a3c 57b5 b9bd 7713 90bc
000002a0: 7e44 dbbc 064b 9abd e1a7 32bd 75a0 21bd
000002b0: 3b4d 833c 1b31 adbc 6fae f73d cb0a a4bd
000002c0: 7ab8 8f3c c347 cd3d 258c 1dbc 4d1c e7bd
000002d0: 0821 203b bbab 4d3d 4a63 aabd 5eeb 8a3d
000002e0: d178 1f3a 1854 9dbd 889c e93c 8e2b 6dbd
000002f0: 44e0 043e c018 e3bd 01ac b2bd 2b34 3f3b
00000300: c6d5 803c 6625 bebc 54d3 14bd 3acd 87bd
00000310: 5756 be3d ca3e e93d 70f6 aabd 30c1 acbc
00000320: ce22 cbbd aeb0 e93d b9a5 5bbd 1c4e 8abd
00000330: 6ffd 66bd 4125 0e3d d449 1f3d 8e63 c0bd
00000340: 5854 c5bc 6540 873d b068 c83c 0f58 eebd
00000350: 4c4b 833d 1890 ee3d f673 af3c aa17 013e
00000360: 1443 cc3d f088 c6bd a444 4fbd 38c8 dc3d
00000370: 343e 2ebd 7a7a e73d b8f5 c3bd 5ca4 c53d
00000380: b6ce 003d 6760 e0bd a06d 09be 5dc5 e5bd
00000390: 5edc db3d 550e 073d 6bdc 1b3d fc7c 35bd
000003a0: e00d e8bd b2d4 c63d 7069 81bd 94d0 93bc
000003b0: 8bfc 84bc 2131 c13d 2e83 4a3d fba6 77bc
000003c0: f640 043e 78f6 de3d e913 43bc 6dc4 cf3d
000003d0: 1cbc 56bd 49a9 e0bd d51a e33d 629e 9e3a
000003e0: 0e8a 78bc f4ad a9bd aee0 20bd c03a 7bbd
000003f0: ef58 dc3b 319c dabd 98e0 3f3d fd81 c93c
0.085761815 0.0065175593 -0.05774282 -0.051518016 0.04962286 -0.08778541 0.011708557 -0.12018923
-0.0797243 -0.03206947 0.09033351 -0.054472916 -0.07488307 -0.041733947 -0.091478676 -0.027247969
-0.11162154 0.036068145 -0.12920877 -0.11131581 -0.10732164 -0.08732095 0.04543491 0.07753102
-0.06993718 0.06331751 -0.12063914 -0.110882536 0.046913777 -0.019352172 -0.055559523 0.027363827
0.0108735785 0.10937466 0.028282102 -0.007057887 -0.091439 -0.046858147 -0.1126631 -0.013790295
-0.04059196 -0.011280237 -0.08360721 0.052362837 0.05955424 -0.008544405 -0.057700414 0.042477638
0.066052444 0.03877578 -0.025605045 0.0325548 0.007217158 -0.004825754 -0.044391222 -0.0652692
0.06828966 0.060409937 -0.11575233 0.004083729 -0.09749452 0.13122611 -0.0042666867 -0.08733867
-0.07499061 0.06230059 -0.058417946 -0.008872344 0.112540975 -0.05065128 -0.06886045 0.038162403
0.008688805 -0.082552925 0.0396073 -0.083407365 -0.07574076 -0.10055998 -0.030364705 -0.012953116
-0.048741598 -0.064067274 -0.045242447 0.028302211 0.0077965492 -0.12189319 -0.10574038 0.09722581
0.017897246 0.055728514 0.007211032 -0.115462065 -0.12156208 0.07726208 -0.029335143 -0.06532693
-0.12281381 0.06531671 0.013324626 -0.10020591 0.017130226 -0.074170224 -0.026524577 -0.07497929
-0.040567692 -0.030772328 -0.114368275 -0.091971174 -0.123706825 0.10222167 -0.07062613 0.09207855
0.09499215 -0.06633192 0.096520156 0.006429383 -0.011734285 0.068205774 0.0899972 -0.025697812
0.1291437 -0.07103518 0.084319204 0.07491653 0.1057663 -0.015758252 0.12018918 0.11702865
-0.087089695 0.11653515 -0.08708824 0.12798166 -0.09187669 0.015540943 -0.10669911 0.04830508
-0.069374286 -0.051148772 -0.045766428 -0.10720758 -0.023106264 -0.042429797 -0.09377491 -0.05357624
-0.042485807 0.124293044 0.054067504 -0.011102367 0.006865565 0.040170226 0.007511738 -0.064063706
-0.09998216 -0.08708612 0.03126471 -0.0073886244 -0.081693076 0.074881956 0.07778924 0.024247479
0.09633491 -0.080981895 -0.08448668 0.0425057 0.113718614 0.018904185 -0.09067791 -0.017587407
-0.026766058 -0.07533841 -0.043617133 -0.039459664 0.016028037 -0.02114158 0.120938174 -0.08009871
0.01754402 0.10023453 -0.009615933 -0.11284695 0.002443375 0.050212603 -0.08319719 0.06783174
0.00060833717 -0.07682055 0.028517023 -0.057902865 0.12976176 -0.11088705 -0.087242134 0.0029175382
0.015726935 -0.023211192 -0.03633435 -0.06630941 0.09293812 0.11388929 -0.083477855 -0.021088213
-0.09918748 0.11410652 -0.053624842 -0.067531794 -0.056394037 0.034703497 0.038888767 -0.093939885
-0.02408807 0.06604079 0.024463981 -0.116378896 0.06410846 0.116485775 0.0214176 0.12606683
0.09973732 -0.096940875 -0.05060257 0.10780376 -0.04253979 0.113026574 -0.095683515 0.0965049
0.031447135 -0.10955887 -0.13420725 -0.11219285 0.10735391 0.032972652 0.038052004 -0.044308648
-0.113307714 0.09708537 -0.06318939 -0.018043794 -0.016233703 0.09433199 0.04944151 -0.015115495
0.12915406 0.10886854 -0.011906602 0.10144887 -0.05242549 -0.109697886 0.11089102 0.0012101645
-0.015169634 -0.08285132 -0.03927677 -0.061335325 0.006724469 -0.106743224 0.04684505 0.024598116

encoder.rnn.weight_hh_l1 f4 [192, 64]
00000000: 8a57 03be 58ec 88bd da59 fabc bfd7 ddbc
00000010: 680f d0bd 99f7 5cbc 9784 a7bd fc47 ecbd
00000020: 741b cbbd e79e 8abd dab2 dd3d bfec af3c
00000030: 6ab1 a0bd d2ad f93d b100 11bd a1bd 53bd
00000040: a60d d13d c468 b8bc 7296 853d 20a5 ac3b
00000050: c5ba 5ebc d74b d73d 05c9 dabc 0d0d 9e3d
00000060: 6a40 ff3d 167c e8bd 6157 cdbc 5094 d3bd
00000070: 9742 013d b3de d1bd fb2b 60bc c1c4 bebd
00000080: 7de4 bb3d b61c 4a3d 7d5d 123d 207b 2c3d
00000090: 807c e43b 175b dbbd e420 e2bd cf2a 8cbd
000000a0: 3706 833d e999 9abd 61c1 7bbd a81e 943d
000000b0: c08c c7bd 8177 d53d 13c4 d2bd 98b5 c5bd
000000c0: 8aee 16bd b674 31bc f667 ee3d d699 13bd
000000d0: 57a2 963d 640a 5e3d d65d b0bd 8433 6c3d
000000e0: 8214 debd ee50 dcbd 71bf cd3c 63ad 9b3c
000000f0: 185e 103c 9e30 a03d bd28 a83c 463f 4dbd
00000100: f2b6 fc3d 5b4b cfbd 90ee 4d3b 9bcf 003e
00000110: 6135 e63c 6085 623c bc05 a3bd 67f0 903d
00000120: e271 01bd a263 9abd e590 aa3d 33cd cb3d
00000130: b6e8 e23d df08 f33c 2914 aa3c 85f6 83bd
00000140: 65a3 a73d 0e04 c0bb bbc6 56bd 3d11 1e3d
00000150: 3ed8 e73d 18f1 03bd 9874 78bc b892 2a3c
00000160: 2c46 ebbd c0a9 aabd 1171 043d 1ecb fcbd
00000170: 3a28 d33b bafe d03c 5045 9e3d 844b 4abd
00000180: 0d62 30bd efd5 65bc ee7a 26bd 1777 9dbc
00000190: 3aa1 92bb c31c c53d bff9 c4bd e932 113c
000001a0: af78 a73d cfcb 88bc e1c5 85bd 9e85 013d
000001b0: 7cc6 e13d 1808 c3bd d01c 793d d6cb 66bd
000001c0: c2eb 4ebb a761 fabd fbb9 dabd 1ac3 dc3d
000001d0: c1a8 edbc 8cd9 03bc ef5e f03c d8cf e13d
000001e0: 7ecb c33b 4d75 c9bd 9485 a93d 48a2 c2bd
000001f0: 9f59 96bd add0 d13b db82 9dbd b916 df3d
00000200: 9a67 be3d ceac d33d 5936 503c db66 863d
00000210: 54fb 99bd 40cc ffbd 6f88 e43d 9ac1 bb3d
00000220: d9fa aa3d 0167 f6bb 555a ae3c 77e9 c93d
00000230: a585 d9bd b8e9 53bd e344 493d c864 d03d
00000240: 8d70 a3bd dace 003e 940b 8dbd da6d 8b3d
00000250: 419f 23bd 5198 983d 5944 c23d cad6 a7bd
00000260: f28c 67bd 928b da3d d5b5 013e 8faf 4f3c
00000270: c240 4c3d 0bd9 cf3b fd34 d53c 4cc8 7d3d
00000280: 7984 ebbd 2aa7 12bc 64b9 013c e133 bcbd
00000290: 0cdb 5e3d eb67 45bc d608 b1bd f297 3d3d
000002a0: b75d 043d 5095 eebd be7d 883c 4966 f8bc
000002b0: 6bc0 e43d ec2d 91bd 1ca6 ab3d b0c2 15bd
000002c0: 880d e73d cd8e 8dbd ef03 e5bd e043 8abd
000002d0: 555e dabd 7faf bb3c bca1 87bd 7eee 463c
000002e0: 130c dabc a534 93bd bc4c cb3d 20c8 7a3c
000002f0: 90ee bd3d bc25 173d aec7 703d 3322 e23d
00000300: ead5 0b3e 7b41 31bd 66d3 9b3d 81ec 40bc
00000310: aeab e93d 2272 80bd 6874 e9bd f9f4 d1bc
00000320: 9861 603b ef8d acbd e11f 96bd 1c09 4abd
00000330: d8fd 33bc a40c 03be 3ff3 193d 495f f2bd
00000340: 4bba f13d 8ab6 08bd 62fe 8dbd 8aac 82bd
00000350: 55bc dd3d ea93 ddbd e060 ea3c 8f36 653d
00000360: 0a51 73bd d667 00bc 1aae 1fbd 1458 37bd
00000370: 1011 a53d 6fb3 d13d 1502 633d bc2a 91bd
00000380: 68f0 523d 031c 943d 5aca ddbb d4a9 243b
00000390: b9e8 ea3d 26c8 95bd 28fd 9cbd da7a e53d
000003a0: fd5f 013c dde2 7dbd 42c2 bebd 5e44 f4bd
000003b0: cf96 febd 15a3 00be a034 83bd a813 343d
000003c0: a224 b3bd c595 eb3d fb94 513d 4f94 0cbd
000003d0: f73e 0f3e 2571 3d3d c397 913d f3cc 13be
000003e0: 15ca ba3c c7e7 f43d c999 8dbd 8a35 9f3d
000003f0: 9ef3 6ebc 6de2 a0bd 725e 62bc a8cb 5a3d
-0.12826362 -0.06685704 -0.030560423 -0.027080415 -0.101591885 -0.013486766 -0.081795864 -0.115371674
-0.09917346 -0.067685895 0.10825129 0.021475194 -0.07846339 0.12191357 -0.03540105 -0.051694516
0.10207681 -0.022510894 0.06522836 0.005268708 -0.013594334 0.10512512 -0.026707182 0.07717333
0.12463458 -0.113517925 -0.02506608 -0.10331023 0.031557646 -0.10247555 -0.013682361 -0.093148716
0.0917444 0.049343787 0.03573369 0.04210961 0.0069728494 -0.107107334 -0.1104143 -0.068441026
0.0639767 -0.07548887 -0.061463717 0.0723241 -0.09743643 0.10423184 -0.102913044 -0.09653777
-0.036848582 -0.010831049 0.11640923 -0.03603538 0.073551826 0.054209128 -0.08611648 0.057666317
-0.10843755 -0.107576236 0.0251157 0.019003576 0.008811496 0.07821773 0.020527238 -0.05010917
0.123395815 -0.10121795 0.0031422712 0.12579195 0.028101625 0.013825744 -0.07960078 0.07077103
-0.031602748 -0.07538535 0.08328418 0.09951248 0.11079542 0.029667316 0.020761566 -0.06443504
0.08185462 -0.0058598584 -0.052435618 0.03859066 0.11320542 -0.032212347 -0.015164517 0.010410957
-0.114879936 -0.083331585 0.03233439 -0.12343429 0.0064440044 0.025512088 0.07728064 -0.049388424
-0.04306226 -0.0140280565 -0.04064458 -0.019221826 -0.004474786 0.096246265 -0.09617948 0.008862236
0.081773154 -0.016698746 -0.06531883 0.031621568 0.11024186 -0.09523028 0.060818493 -0.056346737
-0.0031573628 -0.12225657 -0.10680004 0.107794 -0.029011132 -0.008047473 0.029342143 0.11025971
0.005975186 -0.098368265 0.08277431 -0.09503609 -0.073413126 0.00640305 -0.07690974 0.10893006
0.09297104 0.10335694 0.01270827 0.06562587 -0.0751864 -0.124901295 0.11158835 0.09167786
0.08348627 -0.0075196032 0.021283308 0.09858983 -0.10621194 -0.051736563 0.04913796 0.101754725
-0.07980452 0.12578908 -0.06886974 0.06808062 -0.0399468 0.07450927 0.094856925 -0.08195265
-0.0565309 0.10671152 0.1266702 0.012676134 0.049866445 0.006343012 0.026026243 0.061958596
-0.114998765 -0.008950988 0.007917736 -0.091895826 0.054408118 -0.012048702 -0.086442634 0.046287484
0.032315936 -0.11649573 0.016661521 -0.03032221 0.11169513 -0.07088837 0.08381292 -0.03656262
0.11281878 -0.06912003 -0.11182391 -0.067512274 -0.10662524 0.022910831 -0.06622645 0.012141822
-0.026617086 -0.071877755 0.09926745 0.015306503 0.09274018 0.03690122 0.05878418 0.11041679
0.1365582 -0.043275338 0.076086804 -0.011775137 0.114096984 -0.06271769 -0.11399156 -0.025629507
0.0034237858 -0.08425509 -0.07330299 -0.049325094 -0.010985814 -0.12797791 0.037585493 -0.118345805
0.11803111 -0.033377208 -0.06933285 -0.063805655 0.10826937 -0.10819228 0.028610647 0.055960234
-0.059403457 -0.007837256 -0.038984396 -0.044761732 0.08059895 0.10239302 0.055421907 -0.07088229
0.0514988 0.07231905 -0.006768507 0.002512564 0.114701696 -0.07313566 -0.07665473 0.11205073
0.007896421 -0.06198393 -0.093143955 -0.119271025 -0.12431108 -0.12562211 -0.06406522 0.04396406
-0.087472215 0.11503176 0.05116747 -0.034321126 0.13988863 0.04625048 0.071090244 -0.1443365
0.022801438 0.119582705 -0.06914098 0.07773884 -0.01458445 -0.07855687 -0.013816463 0.053416878
