checkpoints/models/single_stock_daily/81to9/000001/model5.pth (torch, 542911 bytes, 24 tensors)

encoder.conv1.weight f4 [18, 6, 3]
000000 db 5b a1 bc ff b3 d9 3d 04 e4 6a be a8 6e 05 be
       -0.01969712 0.10630035 -0.22938544 -0.13030493
000010 48 2a 9d bd d1 b7 c4 bd 8a 88 b2 bb bf c8 31 3e
       -0.0767408 -0.09605373 -0.0054484056 0.17361735
000020 91 81 72 3d a1 a5 59 be e1 dd 60 3e 6c 09 4a 3e
       0.059205595 -0.21254589 0.2195964 0.19730157
000030 23 d0 98 3d f2 c4 ee 3d 4c b7 c2 3d 6f 84 34 3e
       0.07461574 0.11658658 0.09507617 0.17628644
000040 97 33 77 be 6d 5d 1d be ed 79 f3 bc 8a 98 36 bd
       -0.24140774 -0.1536767 -0.029721225 -0.044579066
000050 b3 0e 20 be b2 4f 68 be af 60 38 be 66 fb 14 bd
       -0.15630607 -0.22686651 -0.18005632 -0.036372565
000060 8f c0 4c 3e a2 b8 20 3e 27 fd 8c 3d 62 91 14 be
       0.1999533 0.15695432 0.068842225 -0.14508584
000070 e7 31 c1 bd a5 0c c0 3c 67 36 60 be 4c 3e 2b bc
       -0.09433346 0.02344353 -0.21895753 -0.010451864
000080 7d 93 46 3d cb 78 62 3e d9 89 59 bd 1c 45 76 3e
       0.0484805 0.22116391 -0.053109977 0.240498
000090 09 2e aa 3c ba 65 26 be 92 89 65 3e ab 06 3f 3e
       0.020773904 -0.16249743 0.2241576 0.18654887
0000a0 73 48 53 be 3a 83 1a be 82 b7 be 3d c7 5d 2b be
       -0.20633106 -0.15089121 0.09312345 -0.16734992
0000b0 42 7f 13 3e 50 da 06 be 52 85 c2 bd b2 d8 aa bd
       0.14404014 -0.13169217 -0.09498085 -0.083421126
0000c0 d0 66 53 3e 14 06 ce bd 7c b6 78 bd 2e f0 f7 3d
       0.20644689 -0.10059753 -0.060720906 0.121063575
0000d0 98 a8 41 be 9d 2b c1 bc d9 fc 3d be 46 ce 62 be
       -0.1891197 -0.023580367 -0.18553485 -0.22149
0000e0 d6 da 6c bd 09 06 6d 3c 62 c2 40 3e 41 ee 73 be
       -0.057825886 0.014466771 0.18824151 -0.23821355
0000f0 74 9e a4 bd 0b b9 44 3d a8 f6 9a 3d d3 8f 00 3e
       -0.08038035 0.048028033 0.07566577 0.12554865
000100 c5 e8 4f be f0 66 90 bd bf 96 2d 3d be 34 4f be
       -0.20303638 -0.07050884 0.04238009 -0.20234963
000110 48 13 d9 3d a1 81 79 be 68 2f ff 3d c0 fd 58 3d
       0.10599381 -0.24365856 0.12460214 0.05297637
000120 01 85 7e bd ad 49 a6 3d 45 76 50 3e b8 c1 39 3e
       -0.06213856 0.08119521 0.20357616 0.18140304
000130 6f 76 1b 3e d2 53 04 be 18 6c 9c 3d 59 0b 3f 3e
       0.15181898 -0.129226 0.07637805 0.18656673
000140 42 30 4e 3d ea 60 28 3e 14 1d 0c be fa 4b 32 3e
       0.05033899 0.1644322 -0.13682967 0.17411795
000150 9a 00 0f 3a 6a 07 4f be ae e8 57 bd 5d ab 5d 3e
       0.0005455107 -0.20217672 -0.052712135 0.21647401
000160 59 3e 92 bd be ca f0 bc dd c3 bc bd 8f 5b 01 be
       -0.07140798 -0.02939355 -0.092170455 -0.12632583
000170 86 c3 2e 3d 51 05 0d 3e 78 b0 b4 3c 2f 1b a6 bc
       0.042666934 0.1377156 0.022056803 -0.020276634
000180 e7 d8 00 3c 48 87 3b be 41 9e 05 be b4 8b c9 3b
       0.007864214 -0.18313324 -0.1304865 0.006150687
000190 99 4d 47 be 1e 7b e2 3d 41 28 f9 3c 01 f7 6b bb
       -0.19463195 0.11058639 0.030414702 -0.003600538
0001a0 44 0d ad bc e9 4c 43 3e 8d 90 52 3e 79 d1 d7 3d
       -0.02112449 0.19072308 0.20562954 0.105380006
0001b0 fc 04 f6 3d 8b 38 e1 bd 0e 47 d0 3d 82 b3 1c be
       0.120126694 -0.10997113 0.101698026 -0.15302852
0001c0 bd aa de 3d 9a 65 23 be 94 b5 b1 3b 49 75 36 3e
       0.108724095 -0.15956727 0.005423257 0.17818178
0001d0 77 fd 28 3e d2 0b 5c 3e 42 1e b3 3d 92 0c cc 3d
       0.16502939 0.21488884 0.087460056 0.09963335
0001e0 5c 0f 8f 3d 81 9a 37 3e 92 12 07 3e f6 d4 a9 3d
       0.069853514 0.17930032 0.13190678 0.08292572
0001f0 15 96 87 bd ed 1d c6 bd 78 b3 4e bd b5 db f5 3d
       -0.06620423 -0.09673677 -0.050464123 0.120047964
000200 82 44 f9 bd 23 94 87 3d f6 88 54 3e 94 30 4b 3e
       -0.1217127 0.06620052 0.20755371 0.1984275
000210 0f 27 30 be 7e ab 8b 3d 67 fe 1b 3e 31 73 59 be
       -0.172024 0.06819819 0.15233766 -0.21235348
000220 b6 89 1b 3e 22 de 17 be 51 00 2d be ba 95 ca bd
       0.15189251 -0.1483083 -0.16894652 -0.09891839
000230 39 e6 b8 bd d2 b8 e0 bd f5 d0 60 3d 82 79 97 3d
       -0.090282865 -0.10972752 0.054886777 0.07396223
000240 39 ef c2 3d 74 46 29 3e 94 7b 16 be 92 b6 6d be
       0.09518284 0.16530782 -0.14695579 -0.23214176
000250 1c af 4b be fa d7 0e be f9 34 f0 bd 7e 2b bd 3d
       -0.19891018 -0.13949576 -0.11728854 0.09236811
000260 80 4b 3a be 6d e8 39 be 4e 3e ec 3d a7 dd 24 be
       -0.18192863 -0.1815507 0.11535321 -0.16100179
000270 65 0c 11 3d 09 aa 42 be b1 a9 a2 3d 01 b3 06 3e
       0.03541221 -0.19010176 0.07942522 0.13154222
000280 f9 c4 5e be 33 45 72 3d 6e 43 f8 bd b9 8b 1a 3e
       -0.21754827 0.059148025 -0.12122236 0.15092362
000290 a5 15 5a 3e a5 35 51 be 1a 9b a7 3d 35 23 1c 3e
       0.21297319 -0.2043062 0.0818388 0.15247805
0002a0 9e 17 55 3e c1 ff 2e 3e a9 ee 1e 3d c0 c9 fc 3b
       0.2080979 0.1708975 0.038801823 0.00771448
0002b0 4a 58 2a 3d 83 77 17 be 0c 9d 54 bd da f1 27 bc
       0.041588105 -0.14791684 -0.051907584 -0.010250533
0002c0 19 e9 1f be 3e 5f e6 bc 1c 94 4d bd 4c fb d0 bd
       -0.15616263 -0.028121587 -0.050190076 -0.10204181
0002d0 f5 75 97 bd 52 f7 71 be ea 09 64 3e 4f db f0 3d
       -0.073955454 -0.23629501 0.22269407 0.1176058
0002e0 f0 7a 30 3e 35 af 4b be 4c 5f 6a be 97 09 36 3e
       0.17234397 -0.19891055 -0.22887915 0.17777096
0002f0 37 46 20 bd 75 a3 1d 3d b5 d0 f6 3d 76 a7 8c 3c
       -0.039129462 0.038485963 0.120515265 0.017169695
000300 e5 32 c9 bb b8 af 11 3e 66 dc 42 3e 7d b5 88 bd
       -0.0061401003 0.14227188 0.19029388 -0.06675241
000310 38 98 4d be e8 f6 03 be 9d 68 2f 3e 58 43 b9 3c
       -0.20077598 -0.12887156 0.1712975 0.02261512
000320 3c 06 51 3e 3a c1 ad bd 80 c2 68 be 32 a7 90 3d
       0.20412534 -0.08484121 -0.22730446 0.0706314
000330 37 1f d5 bd 87 cb 15 be a8 8f 12 3e e1 f4 57 3c
       -0.104063444 -0.14628421 0.14312613 0.013180942
000340 ef 1a cd bc f2 8b 67 3e ff 28 4f 3e c0 f3 49 be
       -0.025037257 0.22611979 0.20230483 -0.1972189
000350 2b 24 61 be 78 a9 0f be 5a d2 56 be 9c c4 1a be
       -0.21986453 -0.14029491 -0.2097868 -0.15114063
000360 8e 14 1d 3e 0c fb 25 be 48 f6 56 3e ef 22 9b 3d
       0.15339872 -0.16209048 0.20992386 0.075750224
000370 42 23 63 3c 2a 8a 26 3d 38 c9 59 3d de 97 a5 3d
       0.013863387 0.040659107 0.053170413 0.08085607
000380 c3 cf 42 be a5 7b 84 ba 77 da 24 3e 51 f9 70 3e
       -0.19024567 -0.001010765 0.16098963 0.23532607
000390 39 78 1f bc 36 19 28 be ce 80 df 3d 4d 84 4b be
       -0.009733253 -0.16415867 0.109132394 -0.19874687
0003a0 da cc 6b 3e 00 cb 25 3e 44 b8 e1 3d b2 4d 11 3d
       0.23027363 0.1619072 0.11021474 0.035474487
0003b0 4f de 32 3e 1e 65 cb bd 2d 8d 4e be 4c 49 0a be
       0.17467616 -0.09931396 -0.20171042 -0.13504523
0003c0 7f 77 2e 3e a7 ec fd bd 47 6d 46 be c4 f0 3f 3d
       0.17037772 -0.123986535 -0.19377623 0.04686047
0003d0 42 f5 1b be e8 2e 7e bc e1 d5 1d be cc 00 35 3d
       -0.15230277 -0.015514113 -0.1541362 0.044190213
0003e0 63 19 33 bd 87 d8 aa 3c 89 36 c5 3d 67 c1 28 be
       -0.043725383 0.020855201 0.096295424 -0.16480027
0003f0 b9 20 9f bd 33 c5 1e be 7e a9 4b 3e 01 0f bb bd
       -0.07769913 -0.15504913 0.19888875 -0.09133721

encoder.conv1.bias f4 [18]
000000 24 61 16 be e0 fb 89 bd 04 dd c7 bd e2 d1 55 3e
       -0.14685494 -0.067374945 -0.09758952 0.20880845
000010 ca 3d 6d 3d 4e 97 33 be 8e a7 2a 3e 86 6d f3 bc
       0.057920255 -0.17538187 0.1666548 -0.02971531
000020 c1 ce b4 3c 9a 0a 04 3d fc 51 f7 bc 0c f3 68 3e
       0.022071244 0.032236673 -0.03019046 0.22748965
000030 c5 3d bf 3d a2 c8 65 3d 51 b5 a6 bd 58 f3 61 3d
       0.093379535 0.05609954 -0.08140052 0.05516371
000040 cc 03 30 be e6 7a 9f bd
       -0.17188948 -0.07787113

encoder.conv2.weight f4 [54, 18, 3]
000000 37 2a 80 3d af f8 0f be 40 3f 2b bc 54 b7 55 bd
       0.06258052 -0.14059709 -0.010452092 -0.05217679
000010 a8 8f 8a 3d 30 aa af bd d6 22 d3 3c 6d 48 15 bd
       0.067656815 -0.085773826 0.025773447 -0.036446024
000020 71 59 f2 3d 65 e9 8f bc 5d a5 c0 bd 12 b9 10 bd
       0.11833466 -0.017567346 -0.094065405 -0.035332747
000030 f4 6d c1 3d 5c 21 4d 3d cf 4c d7 3c 82 6e a4 3d
       0.094448 0.050080642 0.026281742 0.0802889
000040 68 e4 44 3d dd cf ae bc 59 cb 97 bd 58 17 08 be
       0.048069388 -0.021339351 -0.07411832 -0.13290155
000050 4e 75 7d 3d b3 47 ce 3d 80 73 6b bd 3c 80 86 bd
       0.06187945 0.10072269 -0.057483196 -0.065674275
000060 7d 49 08 3d 0a 30 02 bb 47 f8 ec 3d 54 82 ce ba
       0.03327321 -0.001986506 0.11570793 -0.0015755394
000070 96 67 66 bb 79 ed 01 be cd 3b 09 3d 92 fb f9 bb
       -0.0035156957 -0.12688245 0.033504296 -0.0076288665
000080 dc 5e b7 3c d8 33 b9 3d e2 11 85 3d 77 b6 02 3c
       0.0223841 0.090430915 0.064975515 0.007978073
000090 37 b9 42 bc 7d 52 91 bd 3b 3d f6 3d a7 1f 05 3e
       -0.011884979 -0.070958115 0.120233975 0.13000356
0000a0 f4 26 8b 3c 48 91 1d 3e ec 23 f6 3d ee b8 a1 3d
       0.016986348 0.15387452 0.1201857 0.07896601
0000b0 69 1b 94 3d d2 5e 4e 3d 30 93 e4 bc 94 9c 0a 3c
       0.072317906 0.050383396 -0.027902216 0.008460183
0000c0 e1 f2 f0 3d ae 7c 7d bc f4 ed 44 3d ba 81 11 bd
       0.117650755 -0.0154716205 0.048078492 -0.035524108
0000d0 50 5a 01 3d ff 75 b5 3d 75 b5 c9 3d e6 a8 a4 3d
       0.03158027 0.088603966 0.09849063 0.08040027
0000e0 e3 35 9f 3d 0f b2 e5 bc 66 05 03 3e 4b cc cd 3d
       0.0777395 -0.028039007 0.12795028 0.100487314
0000f0 fe fb 08 3e 6c 4c d8 bd 34 40 67 bd 10 76 da bd
       0.13377377 -0.10561451 -0.056457713 -0.1066705
000100 ec c8 8c 3c 81 ed e2 3d 96 5f ca bd a4 3c f5 3c
       0.01718565 0.110804565 -0.09881513 0.029936142
000110 df 56 19 bc 15 57 fa bd 62 61 88 ba 0b 04 37 bc
       -0.009359091 -0.12223641 -0.0010404999 -0.0111703975
000120 74 65 90 bd ce f9 b6 bd c5 d3 99 3d f5 e0 c7 bb
       -0.07050601 -0.08934365 0.07511095 -0.006099815
000130 d1 d9 a6 bc bd c9 f7 bc d7 e6 71 bc 44 52 0d bd
       -0.020367535 -0.030247563 -0.014764509 -0.034502283
000140 f4 26 9e bd f5 fe 59 3d 2a 71 d0 bb 49 d1 01 be
       -0.077222735 0.05322166 -0.0063611465 -0.12677492
000150 4f b4 84 bd 88 af c5 bc 72 bd 4b bd 37 5e ce 3c
       -0.06479704 -0.024131551 -0.049741216 0.02519141
000160 a8 2f f3 3d a3 8e d9 bd 2f fd 01 bc e8 5a e5 3d
       0.11874324 -0.10622909 -0.007933899 0.111989796
000170 77 eb b0 bd 59 95 da bd fb 34 15 3d 77 d0 64 b8
       -0.08638661 -0.10673017 0.03642748 -5.4553584e-05
000180 a7 a5 a6 3b 51 0a ba 3d d3 74 e1 bd 05 d2 b0 bd
       0.0050856653 0.09083999 -0.110086106 -0.08633808
000190 2e 4c b7 3d f5 61 cf bd e0 dc 8f bc 76 4e 8a 3d
       0.08950077 -0.10126106 -0.017561376 0.067532465
0001a0 4e 57 8e bd 09 5a d2 bd 7e 99 9f bd be 03 c6 bd
       -0.06950246 -0.10271079 -0.07792948 -0.096686825
0001b0 88 20 cf bd e4 26 fc bb ab fa ea bd ed 53 b7 bd
       -0.10113627 -0.007695066 -0.11473592 -0.089515544
0001c0 31 0c 36 3b 0d 85 f4 3d 2a 0e 01 3e 7d d6 d7 3d
       0.0027778263 0.1193944 0.1260306 0.10538957
0001d0 9d 02 cf 3b 8c 58 8c 3d 9b f7 83 bd f8 0a db bd
       0.00631745 0.068528265 -0.06443711 -0.106954515
0001e0 38 29 9c 3d e4 37 7d 3d 24 00 63 3d 9f 91 70 3d
       0.07625049 0.06182088 0.055420056 0.058732625
0001f0 76 2a 20 bd d3 cc c1 3d 55 05 a8 3d 05 39 51 bd
       -0.039102994 0.09462895 0.08204142 -0.05107977
000200 cd 94 dc 3d 86 66 3a 3d 62 b9 bb b9 fb 99 58 bb
       0.10770569 0.04550793 -0.0003580554 -0.0033050764
000210 03 54 d8 3d fe 02 db bb d5 21 1c 3d 42 50 d9 3d
       0.10562899 -0.0066837063 0.038118202 0.10611011
000220 8a 26 6b 3c db 50 05 3e e2 0c 88 bd 07 10 1b 3a
       0.01435245 0.13019125 -0.06643082 0.0005915169
000230 22 af c2 3c 68 49 5c 3b 01 26 d4 bd bd 2a 01 3e
       0.02376515 0.003361309 -0.10358811 0.1261396
000240 ee f4 8d bd 11 db d7 3d 32 a7 43 bd 41 4a 21 3d
       -0.06931482 0.105398305 -0.04776687 0.039377455
000250 a8 fb b5 bd d1 d5 91 bd f3 33 ee 3c 80 ae af 3d
       -0.0888589 -0.0712086 0.029077506 0.08578205
000260 9a 44 9d bc 6a 9f 73 3d e7 85 88 bd e0 d1 4f 3d
       -0.01919775 0.0594782 -0.06666165 0.05073726
000270 da cb ca bc 6e 7c 17 bd 60 cc 80 3d ac bf 65 bd
       -0.024755407 -0.0369839 0.062889814 -0.056090996
000280 54 bc bf bd 29 22 44 bd a7 1d 7a 3d 68 12 fd 3d
       -0.093620926 -0.04788414 0.061063435 0.12357026
000290 4d fa ef 3d 4c e0 c2 3d be a7 aa bd 55 ca fa 3d
       0.11717663 0.095154375 -0.083327755 0.12245623
0002a0 1c b8 72 3d 54 61 ea 3c c8 70 98 bd 3a 83 75 bd
       0.05925761 0.028610863 -0.07443386 -0.0599396
0002b0 ee c3 50 3d 52 b6 b5 3a a1 40 2b bd 72 85 dc bd
       0.050968103 0.001386354 -0.04180968 -0.1076764
0002c0 77 e9 e5 3d 54 5a 1f 3d bf 21 71 3c 9b 4b 24 3c
       0.112261705 0.038904503 0.014717518 0.010027791
0002d0 c1 e2 8d 3d 02 15 b1 bd 8c b1 1e bc 04 ae ed 3d
       0.069280155 -0.08646585 -0.009685885 0.116054565
0002e0 51 39 c6 bc fc 95 f3 bd 6b 70 8d bd 57 96 c5 3d
       -0.024197252 -0.118938416 -0.06906208 0.09647816
0002f0 e7 86 a8 3d 99 27 be 3d 0b 41 4b bd 83 32 85 bd
       0.082288556 0.092848964 -0.049622577 -0.06503775
000300 86 e0 06 be 2e 5f fe ba f7 2b 1f bd 8c cb 0a 3e
       -0.13171586 -0.0019407028 -0.038860288 0.1355421
000310 9c cf 5e bd b9 fe a3 bd 20 28 55 3d a5 a0 59 bd
       -0.05439721 -0.08007569 0.05204022 -0.05313172
000320 2f 65 82 bc 60 6f 1a 3e f3 19 cb 3d ca 47 fc bd
       -0.015917389 0.15081549 0.09917059 -0.1231838
000330 3a dd 0e 3c d8 1a f6 3b 88 ee 0b 3e 7e 8b fb bd
       0.008719737 0.0075105242 0.13665211 -0.122824654
000340 78 fb 9f 3d 3c 99 0e be b1 64 02 be 34 4c 8b bd
       0.07811636 -0.13925642 -0.12733723 -0.06801644
000350 54 6d 04 be fe e7 ba 3a a5 63 f4 3d 7b 89 f1 bc
       -0.1293233 0.0014259813 0.11933068 -0.029484501
000360 01 59 c6 bd 70 f6 cd bb e0 bd dc bd 88 6b c5 3d
       -0.09684945 -0.006285481 -0.10778403 0.096396506
000370 9e f2 bb 3c 37 5f 00 3e f2 f1 6e 3d 54 43 48 3d
       0.022942837 0.12536322 0.058336206 0.048892334
000380 9a 07 42 3d 6b 9b f5 3d 86 3b bb bd 8b 05 ae bd
       0.04737053 0.11992534 -0.091422126 -0.08497151
000390 04 57 d3 3d 5e b7 44 3d 16 38 fa 3d 33 b6 17 3d
       0.10319331 0.048026435 0.12217729 0.037038993
0003a0 80 d3 5f 3d 22 a4 b7 3d 28 52 b2 3d ce 7e 95 3d
       0.05464506 0.08966853 0.08707076 0.07299577
0003b0 26 83 e0 bd 07 75 39 3d 46 bb b6 bd 09 2a ba 3c
       -0.109625146 0.04527762 -0.08922438 0.022725122
0003c0 3b 96 97 3d be 2d 39 bd a5 64 f6 3d ac fb f1 3d
       0.07401701 -0.04520964 0.12030915 0.11815581
0003d0 4a 59 17 3d bf b5 d0 bd 5a c1 27 3a 39 e9 d5 3d
       0.036950387 -0.10190915 0.0006399356 0.10444874
0003e0 78 47 9b 3c aa ac e1 3d d5 10 4c ba 59 cc 91 bd
       0.018954977 0.11019261 -0.00077844906 -0.07119054
0003f0 9d 45 b3 3d 23 c4 30 3d 2c 7f 94 3d 75 52 ad bd
       0.08753512 0.0431558 0.072508186 -0.08462993

encoder.conv2.bias f4 [54]
000000 4a c6 9c bd 88 5f b3 bd 98 8d e6 bb d3 8a f2 3d
       -0.07655008 -0.087584555 -0.0070359223 0.11842885
000010 6b a1 d0 bc 65 0b 07 be 0d 03 80 bd 25 7d af bd
       -0.025467595 -0.1318794 -0.06250582 -0.08568791
000020 f7 8c dc 3d b9 04 c5 bd 99 0f d1 3d 1e 00 4b 3d
       0.107690744 -0.096200414 0.10208053 0.04956066
000030 75 3b 76 bc 93 f7 0b bd 69 e6 94 3d a9 6e 98 bd
       -0.015028824 -0.034171652 0.0727051 -0.07442982
000040 89 53 56 bd cb 1c 01 3e 1b c9 41 bd 97 5b a4 3c
       -0.05232576 0.1260864 -0.04731093 0.020063205
000050 35 cf e6 3d b4 99 d7 bd 00 2a e3 3c 76 c9 a0 3b
       0.1126999 -0.105273634 0.027729988 0.0049068285
000060 5d 19 93 bd e4 f7 e6 3d b5 05 c4 3d 17 ed 15 bc
       -0.07182572 0.1127775 0.09571401 -0.009150765
000070 2d fd 54 bc c2 b3 bb 3d 5b 61 1d bd e0 28 a0 3d
       -0.012999815 0.091651455 -0.038422924 0.07820296
000080 62 cd b0 bd 17 c6 e0 bd 21 a0 b5 3d 07 aa bc 3d
       -0.08632924 -0.10975283 0.08868433 0.09212118
000090 b6 21 da bd 78 a3 02 bd 74 c7 4d 3d 90 19 97 3d
       -0.10650961 -0.031894177 0.05023904 0.073779225
0000a0 1f a9 a3 3d 91 39 c3 3d 07 b1 72 bd 9a 46 fa 3c
       0.07991242 0.09532464 -0.059250858 0.030551244
0000b0 96 36 e3 3d 14 b1 e8 bd f8 e7 b8 3d 4d bf 1b 3d
       0.11094396 -0.113619 0.090286195 0.038024236
0000c0 85 64 11 3c c1 48 0a 3e c3 4f 55 bd 15 fb 1b bd
       0.008874063 0.13504316 -0.05207802 -0.038081247
0000d0 86 39 c8 bd 01 07 e7 3d
       -0.09776597 0.11280633

encoder.rnn.weight_ih_l0 f4 [192, 54]
000000 31 d5 d2 bd ee cd eb 3d 76 a8 ac bd 75 74 6a 3d
       -0.10294569 0.11513887 -0.08430569 0.05723997
000010 e7 ec 73 bd d4 a4 e5 3d be 9b b5 bd b2 b7 80 bd
       -0.0595521 0.11213079 -0.08867596 -0.06285037
000020 7f 5a 40 bd 44 f2 a1 bd 35 5b 01 3e 75 50 58 3d
       -0.046961304 -0.079075366 0.12632449 0.052811105
000030 85 38 6a bd c7 4c a6 bd 16 46 25 bd 44 7f ff ba
       -0.057182807 -0.08120113 -0.040350042 -0.0019492884
000040 4a 82 91 bd 92 1d 81 3d 0f ed 92 bd a5 6d d6 3c
       -0.07104929 0.06304468 -0.071741216 0.02617533
000050 75 43 a0 3d 24 4c c3 bd 08 45 c8 bd 42 11 b3 bd
       0.078253664 -0.09536007 -0.09778792 -0.08743526
000060 53 7c b0 3c be 86 ca 3d 65 1a a9 bd 04 a3 1f bc
       0.021543657 0.09888981 -0.082569875 -0.009743456
000070 96 a8 b1 3d f1 50 ca 3d 5b 78 78 3d 26 e5 49 3d
       0.08674733 0.098787196 0.060661655 0.0492908
000080 29 e9 3c 3c a1 bb 93 3b 95 e3 f1 3d db 19 2b 3c
       0.011530199 0.004508451 0.11810986 0.010443176
000090 bb 4d 54 3d 6c 61 7f b9 75 bf d4 3d a2 23 fa bd
       0.051831942 -0.00024354988 0.1038808 -0.12213828
0000a0 ce 1f dd bc d2 85 ea bd 4e bf 3a 3d f5 da 0b bd
       -0.026992705 -0.114513054 0.0455926 -0.03414436
0000b0 dd 22 c2 bd da 6d 9d bd 01 8a 4d 3c 1f 39 af 3d
       -0.09479306 -0.07686968 0.01254511 0.08555817
0000c0 d7 40 c8 3d c1 69 a4 3d b3 07 ee bd bf 69 f0 3d
       0.09777992 0.080279835 -0.11622562 0.117389195
0000d0 0d 3a e1 3d 5b 8c a6 3b ba 5c 19 be a3 70 c7 bd
       0.109974004 0.0050826496 -0.14976779 -0.097382806
0000e0 77 e8 c2 bd ee 23 87 bc 87 71 1a 3e 6a 87 a3 3d
       -0.095169954 -0.016496625 0.1508237 0.079848126
0000f0 93 8a 89 bd 7c 9d 00 bd 26 3f 21 3d e7 6c 51 bd
       -0.06715884 -0.03140019 0.039366864 -0.051129248
000100 36 13 21 bd 2d 54 24 3d b3 f3 36 bb 35 25 84 3d
       -0.03932496 0.04011934 -0.0027916252 0.06452409
000110 65 29 56 bc ed c7 a1 3d f3 cb 01 be 95 fe cc 3d
       -0.013071393 0.07899461 -0.12675457 0.10009495
000120 e4 55 75 3d 3d 0b 02 be 2e 67 f5 bc 88 81 04 bd
       0.059896365 -0.126996 -0.029956426 -0.032350093
000130 8d a7 85 3d 98 be f9 3d 10 72 90 bd 3a 60 98 bd
       0.065260984 0.12194556 -0.07053006 -0.07440229
000140 7a 4a e2 bd e0 69 c5 3d a9 7b a4 bd 30 f6 a5 bd
       -0.110493615 0.09639335 -0.08031399 -0.08103597
000150 32 92 cc 3d c4 e7 a7 3d fc 7d 60 3d 06 8a cf 3d
       0.09988822 0.08198503 0.054807648 0.10133748
000160 2e eb b4 bd e0 c3 ec bc cb d9 8f bc 0e 47 b8 3d
       -0.088339195 -0.028901994 -0.017559906 0.089979276
000170 e1 9b c5 bc f0 f1 76 bb 95 ca d7 3d 8f fa a0 3d
       -0.02412218 -0.0037680827 0.10536686 0.0786029
000180 30 ec 16 bd dd a6 d1 bd a7 26 c6 bc fc ed 7b 3d
       -0.03684634 -0.10236905 -0.024188353 0.061506256
000190 54 47 ba 3d a5 73 2b 3d fb 5d 21 3d 4d 79 02 3d
       0.09095636 0.041858334 0.039396267 0.031853963
0001a0 ca dc 3b bd f7 b5 1f ba 50 5f a8 3d a0 5c 23 3d
       -0.045864858 -0.00060924835 0.082213044 0.039883256
0001b0 59 51 ee 3c 8f ff 97 3d 2f ef ae 3d 91 78 25 3d
       0.029091524 0.07421791 0.085417144 0.040398184
0001c0 e1 b5 98 bc 17 dc 58 bd 9f 0d 93 bd 03 25 94 bd
       -0.018641414 -0.05294427 -0.071803324 -0.07233622
0001d0 45 87 db 3d de f0 bf 3d 72 17 9b bd b6 ad d6 3d
       0.1071916 0.09372114 -0.07572831 0.104823515
0001e0 18 15 13 bd 0b 20 0f bd af db 1b 3d 7b ce c6 bd
       -0.03590879 -0.034942668 0.038051303 -0.09707352
0001f0 ab 07 8c bd 60 83 94 bc 3c 35 13 bd 5e fa 88 3d
       -0.068374 -0.01812905 -0.03593944 0.06688379
000200 0b fc dc bc b0 d4 d2 bd 2b d4 e1 bd 43 05 e9 3d
       -0.026975652 -0.10294473 -0.11026796 0.11377957
000210 8c b2 70 3d c5 45 04 be 5b 1c d6 bd 00 d7 af bd
       0.058764026 -0.1291724 -0.10454627 -0.0858593
000220 a9 29 e0 3d 3a 94 85 3d e5 39 35 3d af 8d 89 3d
       0.10945446 0.065224126 0.044244666 0.06716477
000230 ee 65 ca 3c 7a 37 bd 3d bb 73 d5 bd 66 65 c4 3d
       0.024706807 0.09239097 -0.104224645 0.09589653
000240 af 15 6a 3d 38 a9 19 3d fa bc 9e 3d 19 36 db bc
       0.057149585 0.037514895 0.07750888 -0.026759194
000250 30 6d 85 bd 8a e7 14 bd 8a 7a cb bd 56 97 84 ba
       -0.065149665 -0.036353625 -0.09935482 -0.0010115902
000260 5e 2c 77 3d 48 87 f2 3c 0c cb 1b 39 4c ea 4c 3d
       0.060345046 0.029605523 0.00014857593 0.05002813
000270 87 1e e4 bd 31 d0 a9 bd 00 c5 ce bd fc 59 fd 3d
       -0.11138635 -0.082916625 -0.100961685 0.12370679
000280 66 a6 e1 bd 13 ed 6f 3d c6 4f a5 3d eb d5 db bc
       -0.11018066 0.0585757 0.08071856 -0.026835402
000290 38 a0 94 bc 15 7a bf 3d 4c 48 ba bd 81 99 ea bd
       -0.018142805 0.09349457 -0.09095821 -0.1145506
0002a0 97 12 9e bc 7a 8d e1 3b 34 ce 7c bd c1 a1 c2 3c
       -0.019295974 0.0068833204 -0.061720088 0.02375877
0002b0 1f 9e b5 3d 63 cc 86 3d 58 27 48 3d 16 54 c1 3d
       0.0886805 0.065819524 0.048865646 0.09439866
0002c0 3e d8 81 bd 7a 2c 86 bb 5a 24 01 3d 99 35 e1 3c
       -0.06340073 -0.0040946575 0.03152881 0.027491378
0002d0 99 38 53 bd 4a c5 bc 3d e4 39 d2 bd 5d 1e 83 bd
       -0.051567648 0.092173174 -0.10264948 -0.06402276
0002e0 75 48 02 be de a6 15 3d ca 28 c0 bd ae ab b2 3d
       -0.12722953 0.03653609 -0.0938278 0.087241516
0002f0 84 0b c2 bd 7e 58 24 3d f3 83 ee 3d cd 91 e2 3d
       -0.09474853 0.040123455 0.11646261 0.110629655
000300 cf 6c 0e 3d d7 f7 4e 3d 86 77 64 3c c5 c8 91 3d
       0.034771737 0.050529327 0.013944512 0.07118372
000310 a6 6e 61 bb e0 d2 bd bd 5e 32 fe 3d 90 9f b2 bd
       -0.0034398227 -0.09268737 0.124119505 -0.087218404
000320 84 d9 fa 3d 51 1b 79 3b c4 a7 89 3d 6c 67 8c 3b
       0.12248519 0.0038010667 0.06721452 0.00428479
000330 e4 6e 85 3d c1 6e 95 3d f2 b0 e3 bd 08 42 9e 3d
       0.06515291 0.07296515 -0.11117734 0.07727438
000340 54 5e 54 bd fb 07 ee bd e6 74 d8 bd b4 cf 8d bb
       -0.05184777 -0.11622616 -0.105691716 -0.0043277387
000350 02 c6 a1 3d a8 2e c4 bd d5 33 f8 3c 58 7d 28 3d
       0.07899095 -0.095792115 0.030298153 0.041135162
000360 13 ec db bd 82 0c d7 3c e1 df 86 bd eb 2c df 3c
       -0.10738387 0.026251081 -0.0658567 0.027243098
000370 2a 55 4c bd 66 fc cf 3d 12 9b e3 bd b1 68 61 3d
       -0.049885906 0.10155563 -0.11113562 0.055031482
000380 90 11 1d bd f4 6f c4 3c 64 d1 b6 bb 92 33 f4 bd
       -0.038346827 0.023979165 -0.0055791605 -0.11923899
000390 20 f8 85 bd 6e fa 87 ba 98 f3 79 3b c4 1d 50 bd
       -0.06541467 -0.0010374316 0.0038139578 -0.050809637
0003a0 5a 93 a5 3d b5 24 69 bd 23 5c 79 bd 1f 1a 82 3d
       0.08084746 -0.056919772 -0.060878884 0.063526385
0003b0 91 58 3d bc 6b 19 31 3d 81 44 9e 3d ab e7 8a bd
       -0.01155676 0.04323713 0.0772791 -0.067824684
0003c0 8e 19 18 3d 5b 6c c5 3d 0f 00 99 3c d5 35 d2 3d
       0.037133746 0.09639808 0.018676786 0.10264174
0003d0 be 45 4e 3d 87 7a b7 3d 1f 4c d6 3d f1 38 90 3d
       0.05035948 0.08958917 0.10463738 0.07042111
0003e0 9a ae 24 3d d9 9f 86 3d 44 02 93 3d a4 28 af 3b
       0.040205576 0.06573457 0.071781665 0.005345421
0003f0 68 fd 92 3c 7a 4b 6d bd db 05 ce bb 77 77 80 3d
       0.0179431 -0.05793331 -0.006287319 0.06272786

encoder.rnn.weight_hh_l0 f4 [192, 64]
000000 7b cf 9e bd cb f6 fa 3d 21 cf db bb 15 0f 5a bc
       -0.077544175 0.12254103 -0.0067080413 -0.01330926
000010 f9 a1 56 3d de 65 72 bd d8 65 10 bc 7d c1 2b bd
       0.052400563 -0.05917918 -0.008813344 -0.04193257
000020 c1 9f c0 bd 53 2b a9 3d 17 a8 9e 3d 90 02 6a 3d
       -0.09405471 0.082602166 0.07746904 0.05713135
000030 24 45 01 3e ea 60 66 3d ca af e1 3d 44 70 67 bc
       0.12624031 0.05624477 0.11019857 -0.014125887
000040 8e e0 ac 3d 67 8e cd 3c 8b 0b 09 bc fa 5d b5 3d
       0.08441268 0.025092317 -0.008364568 0.08855815
000050 d1 d1 be bd a5 c0 e3 3a 0d 31 77 bd dc 6d fa 3d
       -0.09317363 0.0017376138 -0.060349513 0.12227985
000060 32 d5 1c bc c8 5c 20 3d d3 14 b5 3d 3e 68 89 3d
       -0.009572314 0.039150983 0.088418625 0.06709336
000070 dc cf 58 bd fd 15 49 3a 9b 81 91 3d 39 62 3c bd
       -0.052932605 0.0007670818 0.071047984 -0.04599211
000080 88 e1 52 bb c4 85 b0 bd e6 b2 0e 3d 22 89 c2 3d
       -0.0032177884 -0.08619264 0.03483858 0.09498812
000090 d1 2e 3f 3c b8 af 99 3c 3c 7e cd 3d 24 38 67 3b
       0.011668877 0.018760547 0.10033843 0.0035281265
0000a0 11 ab 2f bd 43 90 c7 3d 50 63 c2 bd 7a 85 83 3d
       -0.04288775 0.097443126 -0.094915986 0.06421943
0000b0 d3 70 a7 3d 94 2d 5c bb b3 13 01 be 29 5b 80 3d
       0.081758164 -0.0033596503 -0.12605171 0.062673874
0000c0 87 10 7a 3d 08 2e 40 bc f8 ac a4 3d f3 15 2c 3d
       0.061050918 -0.011729725 0.08040804 0.04201312
0000d0 56 a1 c9 3c 33 92 e8 3d 87 43 66 bd 55 2c 2a 3c
       0.024613064 0.1135601 -0.056216743 0.010386546
0000e0 00 c1 ca bd 68 3d e2 3d 91 6f 0e 3d c0 74 fc 3d
       -0.09900093 0.110468686 0.034774367 0.12326956
0000f0 49 4c d0 bd 9f c1 ee 3d d2 36 85 3d 77 86 eb 3d
       -0.101708 0.11658024 0.06504597 0.115002565
000100 6f 15 8f bd 32 e2 86 bd d0 8b cc bb ad 50 a1 3d
       -0.0698651 -0.06586112 -0.006242253 0.07876716
000110 2a 33 ca 3d 3b 0d 6d bc 80 e2 db bc ee c3 fb 39
       0.0987304 -0.014468486 -0.026841402 0.0004802043
000120 f0 83 2d bd ed 19 a8 3c 76 14 fc 3c e1 42 c0 bc
       -0.042362154 0.020520175 0.030771475 -0.02346939
000130 5f 9f a5 bd aa 91 2c 3b 1e 20 a6 3d 43 f2 91 bd
       -0.08087038 0.002633194 0.081115946 -0.07126286
000140 6c 36 ac 3d 21 0f 61 3c dc 77 a2 3c 1b 60 11 3d
       0.08408818 0.013736517 0.019832544 0.035492044
000150 d6 65 c0 3d e2 32 03 3e c8 39 68 bd 41 b5 7c 3d
       0.09394424 0.12812379 -0.05669573 0.061696295
000160 a3 6b b4 3d eb 09 1c be db 88 9a 3d d5 ba ef bd
       0.088095926 -0.15238158 0.07545634 -0.11705557
000170 ad 3c b7 bd 1b af d6 bd 03 91 8e bd de 4c 83 bd
       -0.0894712 -0.104826175 -0.069612525 -0.06411146
000180 60 69 2b 3d eb 3d 89 bd b5 73 06 bd cb 12 b8 bd
       0.04184854 -0.06701263 -0.03282519 -0.089879595
000190 37 6c 61 bd ed 25 db ba 2d b8 c3 3c c9 f3 8f bd
       -0.055034842 -0.0016719677 0.023891533 -0.0702892
0001a0 b5 10 c9 3c 6b f4 3f 3d c9 07 94 3d 50 04 40 bc
       0.0245441 0.046863955 0.072280474 -0.011719778
0001b0 af 74 6f bd a4 db 8c 3d 1c 58 85 bd c6 92 c7 bd
       -0.058460888 0.068778306 -0.06510946 -0.09744792
0001c0 d2 9c aa bd df d5 5f bc 3f f8 91 3c c1 da 05 3d
       -0.08330692 -0.013661831 0.017818568 0.032679323
0001d0 5c d9 91 3d 1a 3f 81 bd de e4 ed 3d 65 73 ff 3c
       0.07121536 -0.06310864 0.116159186 0.031182954
0001e0 2a 07 5b 3c 18 ae ac bd 05 04 11 bd ac 1e b4 3d
       0.013368407 -0.08431643 -0.035404224 0.08794913
0001f0 b3 14 5a bd 1f c5 b1 3d 6a e2 e4 3c b3 1a 8d bd
       -0.053242397 0.08680176 0.027939994 -0.06889858
000200 3d 86 d5 3d 9a 9d 67 3c d8 97 6b bb 5b 32 c4 bb
       0.104259945 0.014136696 -0.003594866 -0.005987448
000210 06 1b d7 bb b6 1c 52 bc 1d a4 1f bd 69 c5 7f 3c
       -0.0065645007 -0.012824228 -0.03897487 0.015611031
000220 33 39 ff bc 72 8c d2 3d 54 f0 39 bd 48 96 e4 bd
       -0.031155204 0.10280694 -0.04539521 -0.111614764
000230 5e 1d f8 3d 59 f1 9b 3d f7 af ba bd 67 12 bf 3d
       0.12114976 0.07614393 -0.09115594 0.09329682
000240 1e be d7 bd 3b a0 5e bd eb e3 7f bd 75 5b bb 3c
       -0.10534309 -0.054352026 -0.06247322 0.022870759
000250 05 a9 fb 3c ce 93 5d bd 06 08 38 bd a4 07 83 bd
       0.030720243 -0.054096036 -0.044929527 -0.06397942
000260 3d b1 bd 3d 9d 14 7e 3d 16 f0 5c 3c 2f 7b 7e 3b
       0.09262321 0.062031377 0.013484975 0.0038830747
000270 63 78 36 3c 98 2a d4 bc 27 10 41 bd 52 b8 e1 3d
       0.011137101 -0.025899217 -0.047134545 0.110214844
000280 40 44 45 bd 41 76 a1 bd 17 bf 63 bc f3 0e 10 3d
       -0.04816079 -0.07883883 -0.01390054 0.035170507
000290 d7 1d de bd 4c 27 1b 3d af 90 46 bb ce 0a 61 bd
       -0.10845535 0.037879273 -0.003029864 -0.054941945
0002a0 c2 c0 4c 3c 21 0e 1b 3c f4 c9 f3 bd 8e 83 65 3d
       0.012497129 0.009463818 -0.11903754 0.056033663
0002b0 7e 94 43 3d e9 3d 95 bd b6 81 21 3d 84 ff 8e bd
       0.047749035 -0.07287199 0.039430343 -0.069823295
0002c0 50 89 bc 3d 56 2e 64 bd 48 54 43 3d 7d 2f 0e 3d
       0.09205878 -0.055708252 0.0476878 0.034713257
0002d0 2c 64 8b bb 57 68 87 bd e7 6b 68 3d 78 6d 02 3d
       -0.004253885 -0.06611698 0.05674353 0.03184268
0002e0 99 c0 63 bd bd d7 a3 bc 82 73 42 3d 25 91 df bd
       -0.055603597 -0.020000333 0.047473438 -0.10916356
0002f0 6e 3c a1 3c fa f5 b7 3c 76 d4 f6 bd 04 23 84 3c
       0.019682135 0.022456158 -0.120522425 0.016129978
000300 21 8f cc bd 82 35 ea bd 04 44 f1 3d 80 a0 75 3d
       -0.09988237 -0.11435987 0.11780551 0.059967518
000310 6c 22 ae 3d f3 e2 ea 3d 19 50 9e bd 8b 73 5b bd
       0.08502659 0.114690684 -0.07730121 -0.053576987
000320 12 4f 91 bb 46 a9 6f 3d a3 45 c8 b9 1f 87 c6 bb
       -0.0044344747 0.05851104 -0.00038198856 -0.006058588
000330 6c 9c fe 3d b0 e9 8c bd e3 51 6e 3d 26 56 8c 3d
       0.12432179 -0.0688051 0.058183562 0.06852369
000340 5f cd 88 bd bb 51 69 3d 98 f5 a3 3d 97 d8 cc bc
       -0.066797964 0.05696271 0.08005828 -0.025005622
000350 79 dc aa bd 84 65 a5 3d ec 40 b0 3d d5 7e 5a 3d
       -0.08342833 0.08076003 0.08606133 0.053343613
000360 ca e6 96 3c 9b c6 80 3d cc 7f 33 3d d7 2f 2c bd
       0.018420596 0.06287881 0.04382305 -0.04203781
000370 63 69 be bd 64 3b 58 bd b4 3e 09 3d 2d 98 3e bd
       -0.09297445 -0.052791014 0.033507064 -0.046531845
000380 41 86 26 3d e0 ea 6f bd f9 ea ba bd 7f 46 c0 3d
       0.04065538 -0.058573604 -0.09126849 0.09388446
000390 d9 33 a8 bd 5a c3 29 3d a8 5f d4 3d 90 ff 49 3c
       -0.08213014 0.041446067 0.103698075 0.012328997
0003a0 77 1e a6 3d 0e 5d 0f bd e7 d1 e2 bd 54 8f 6e bd
       0.081112795 -0.035000853 -0.11075192 -0.058242157
0003b0 2e 74 22 bd 44 1b aa bd 76 7b 9b bd 1c 3b 71 3d
       -0.03966158 -0.08305982 -0.07591908 0.05889426
0003c0 63 78 d8 3d ba 38 9a 3d c8 76 2b 3d b2 b0 e0 bd
       0.10569837 0.07530351 0.041861326 -0.10971202
0003d0 fb cb a6 bc 7c 67 4a 3d 58 53 e2 3d c7 57 99 bd
       -0.020360937 0.049415097 0.11051053 -0.07487445
0003e0 50 cb 93 3d b0 2f 8d 3d e8 76 18 bd 27 74 d9 bd
       0.07216513 0.06893861 -0.037222773 -0.106178574
0003f0 20 80 7f 3d cb ac 96 3d e4 c4 e8 bd 9b 16 d1 3d
       0.06237805 0.073571764 -0.11365679 0.1020939

encoder.rnn.bias_ih_l0 f4 [192]
000000 b9 d7 af bd ce 40 39 3c 66 99 bb 3c a7 11 90 bc
       -0.08586068 0.011306955 0.022900295 -0.017586542
000010 91 18 60 bd 49 4c d8 3b 38 71 11 bc 52 50 2f bd
       -0.05471093 0.006600891 -0.008877091 -0.04280121
000020 4b 30 ac 3d 0c 60 5a bd a4 d6 ed bd 37 43 e4 bd
       0.08407649 -0.053314254 -0.11613205 -0.11145633
000030 10 e6 12 3d 09 9d a8 bd 8d eb ca bd 1c 6b 1e bd
       0.035863936 -0.08233077 -0.09908209 -0.038676366
000040 36 d7 bb 3d 81 3b 92 3d 00 60 e0 3d ce be 9b bd
       0.091719076 0.07140256 0.109558105 -0.076047525
000050 8b ef af bd 29 49 6c 3d ad 0e e9 3d 3d fc c7 bb
       -0.08590611 0.05768696 0.11379752 -0.006103067
000060 9d 29 fb bd bf 36 ed 3d a2 be c0 3d 7d f7 c3 3d
       -0.122637965 0.115827076 0.0941136 0.09568689
000070 76 65 46 3d 5b 03 9b 3d b7 82 b7 ba 7d c8 a5 3d
       0.048436604 0.075689994 -0.0014000748 0.08094881
000080 57 22 33 3d 65 89 8f bd 64 68 3d bd 94 4f d0 bc
       0.04373392 -0.07008628 -0.046242133 -0.02542857
000090 b8 e3 28 b8 09 b1 bd 3d d9 35 b7 3d 8f 1f d5 bc
       -4.02664e-05 0.092622824 0.089458175 -0.026016025
0000a0 2c 5f 32 bd 90 88 1b bc e8 0c 0e 3e a6 7d f1 3d
       -0.043547794 -0.009493008 0.13872111 0.11791544
0000b0 0c 3f 49 3c f3 74 f9 bb 5b b6 90 3d c1 83 b6 bd
       0.012283098 -0.0076128184 0.070660315 -0.08911849
0000c0 3c 4f 48 bd b8 94 e1 3d 8b 45 04 3e d1 b8 3e 3c
       -0.04890369 0.11014694 0.12917154 0.011640743
0000d0 e6 a3 d3 bd 6e f4 b4 3d a5 60 71 3d be ef 17 3c
       -0.103339955 0.08835684 0.058930058 0.009273468
0000e0 18 d4 f7 3d c1 08 ce bd eb c9 a1 bb 30 7c a0 3d
       0.121010005 -0.100602634 -0.0049374006 0.07836187
0000f0 0c 4e 08 bd ce f6 c2 bd e1 e5 1e bb ff 89 bd 3d
       -0.033277556 -0.095197305 -0.0024245905 0.09254836
000100 8f 64 3e 3c dc 85 52 3b 94 a0 d5 bd c5 1e 99 bd
       0.011620655 0.0032123243 -0.104310185 -0.07476572
000110 92 35 75 bc d1 44 c4 3d bf d2 80 3d 4d 2f 5a 3d
       -0.014966385 0.09583438 0.062901966 0.053267766
000120 df 2b be bd f2 d8 9f 3d a0 94 8d 3b f4 f4 02 3e
       -0.092857115 0.07805051 0.004320696 0.12788755
000130 27 0e 7b bc 6a b0 9f bb 24 c8 52 bd 81 66 04 be
       -0.015323198 -0.004873325 -0.0514604 -0.12929727
000140 53 8d 81 bd f2 50 4a 3d 27 a9 4b bd b3 d3 aa bd
       -0.063257836 0.0493936 -0.049721863 -0.0834116
000150 ea 21 a6 3d e9 09 f7 3d 1e 08 a6 bd cc 3f d3 bc
       0.08111937 0.12062437 -0.08107017 -0.025787257
000160 5c 10 8c 3d 99 da ab bc 80 b8 91 bd 5c f0 21 3d
       0.06839058 -0.020978259 -0.07115269 0.039535865
000170 59 1b 8b 3d 71 6d 06 be af 20 ed bd 61 64 8d 3d
       0.067923255 -0.13127686 -0.115784995 0.069039114
000180 49 a6 c5 bd 43 5e 3d 3d 57 52 e4 3d dd 87 9b 3d
       -0.09650857 0.046232473 0.111485176 0.07594273
000190 8b e2 54 3b 67 23 26 bd 2b de 6e 3c 5c 7b 7c bd
       0.0032483663 -0.040561106 0.014579336 -0.061641082
0001a0 e3 c2 d3 bd de d2 68 bd 06 49 2d bd f2 34 17 3d
       -0.10339906 -0.056841724 -0.04230597 0.036915727
0001b0 6e e6 a9 3d b0 af 08 bc 97 55 af bd 86 70 db 3c
       0.08295904 -0.008342668 -0.08561247 0.026787054
0001c0 e7 99 95 3d c6 a7 93 3d e5 dc fd bc 8d 67 86 bd
       0.07304745 0.072097346 -0.03098912 -0.065627195
0001d0 f3 9f fa bd 8f 60 47 3c e3 9c 0e 3d f3 08 f0 bb
       -0.12237539 0.012169017 0.034817588 -0.0073252856
0001e0 b5 63 50 3d a7 77 00 3d 3e b1 c5 bb 4a 12 15 bd
       0.050876338 0.03136411 -0.006033092 -0.036394395
0001f0 e4 69 94 bd 00 cf 89 bc 09 46 49 3d f9 c6 b8 bd
       -0.072467595 -0.016822338 0.049139056 -0.09022326
000200 02 ff f8 bd 40 34 65 bc ff d0 51 bd 90 85 dc bd
       -0.12158014 -0.013989508 -0.051224705 -0.107676625
000210 80 d8 a8 bd 0b c2 d1 bc 20 3b 79 bd dc 63 b4 3d
       -0.08244419 -0.025605222 -0.0608474 0.08808109
000220 0e 36 81 bc 7f 93 05 bd 51 c2 a6 3d 80 66 e7 bd
       -0.015772846 -0.032611366 0.08142532 -0.11298847
000230 bb 78 25 3d 33 13 31 bc 44 05 d7 3d 9d 88 25 3c
       0.04039834 -0.0108078 0.10499051 0.010103372
000240 b7 a7 44 bd a2 74 b0 bd 9b 57 ab bd 06 eb 70 bd
       -0.048011508 -0.08615996 -0.08366319 -0.058817886
000250 b6 4b e6 3d af e7 b8 3d e8 00 f3 3d 9e e1 39 bd
       0.112449095 0.09028565 0.11865407 -0.04538118
000260 9d 76 18 3d 8a e9 b2 bd 49 3b 1e bd ad 15 e7 3d
       0.037222493 -0.0873595 -0.038630757 0.11283431
000270 d2 fb b2 bd e6 e5 fe bd a2 44 4c 3b a0 cf a6 3c
       -0.08739437 -0.124461934 0.0031168838 0.020362675
000280 df 33 ca 3d 41 48 39 3d d8 17 c3 3c df 70 ff 3d
       0.09873175 0.045234922 0.02381508 0.124727
000290 6d 5e c1 3d 6d 4b 91 bd ef 2d e7 bd c8 af ef bd
       0.094418384 -0.070944645 -0.11288058 -0.117034495
0002a0 2c ad f3 3c 83 29 fd 3c cc ec e9 bc 2a f1 bb 3d
       0.02974566 0.030903583 -0.028555296 0.09176858
0002b0 27 63 d0 3c bd d9 8b 3c 6f 4f 98 bc 95 6c 9c 3d
       0.025437905 0.0170716 -0.018592564 0.07637898
0002c0 91 c8 32 3d 46 6d ac bd 02 aa 1a bd 69 28 6b 3d
       0.043648306 -0.0841928 -0.03775979 0.057411585
0002d0 ae c5 35 3d 30 13 dd bc 65 1b f4 3d 2b 4f d0 3d
       0.044377975 -0.026986688 0.119192876 0.1017135
0002e0 90 c8 5a bd 4b 69 c5 3d 27 9c c1 3d 99 82 b7 3d
       -0.053413928 0.09639224 0.09453612 0.089604564
0002f0 c7 76 3a bd a2 cd 6d 3d 91 4a 8b bd 60 92 85 3d
       -0.04552343 0.058057435 -0.06801332 0.065220594

encoder.rnn.bias_hh_l0 f4 [192]
000000 8b 51 30 3b 57 57 9f 3d a2 51 9d 3d 30 67 27 3d
       0.0026904072 0.07780331 0.07681586 0.04086989
000010 22 7f 14 3d da f6 86 bd 4a c8 bf bd 91 82 c6 bd
       0.036254056 -0.06590052 -0.09364374 -0.09692872
000020 d6 96 02 3b 35 c2 c1 bd 9e 90 04 bd 5c 3e 3a bc
       0.001992633 -0.0946087 -0.03236448 -0.011367407
000030 69 9d 01 be 63 b7 00 3e 65 0c 06 3c f4 ae a2 3d
       -0.12657703 0.12569956 0.008181666 0.07943526
000040 8c 2b d0 bd 80 50 8b 3d 72 54 85 bd b1 86 24 3d
       -0.10164556 0.068024635 -0.06510247 0.040167514
000050 21 57 c1 3d ca 08 c7 3d b6 69 ef bd d3 e7 4e bd
       0.09440447 0.09718473 -0.11690085 -0.050514054
000060 b0 25 70 bd 49 9c 24 3d 3e b9 86 bd 47 59 b6 3d
       -0.05862969 0.040188108 -0.06578301 0.08903747
000070 f2 de b7 bd 4f 98 d6 3c 62 8d 9b 3c d5 5d 95 bd
       -0.0897807 0.026195673 0.018988315 -0.07293288
000080 b4 f8 05 bc e0 6d c7 bd 99 7a 8b bd 9a 44 fe bd
       -0.008176971 -0.09737754 -0.06810493 -0.124154285
000090 82 aa 33 3d 56 6a 23 bd bb ed 8d bc 02 6e 4c 3d
       0.04386378 -0.03989633 -0.017325273 0.0499096
0000a0 e4 16 8c 3d 82 65 7d 3d bf 4e 2a 3d 8b ec eb 3d
       0.068403035 0.061864384 0.041579004 0.11519726
0000b0 5f 7e bd bc c3 51 d7 3d bd a9 92 bd cb 69 f0 bd
       -0.023131547 0.10513642 -0.07161281 -0.117389284
0000c0 a8 41 15 3c 41 d3 3d bd ac 31 97 bd e7 43 84 bd
       0.009109892 -0.046344046 -0.07382521 -0.06458264
0000d0 e5 b7 8d bc 8a 02 4d 3c c1 b9 7d bb 1e 27 02 bd
       -0.017299602 0.012512812 -0.0038715454 -0.031775586
0000e0 c6 9c d3 3d c6 58 85 3d 90 08 7e bd 8e 9e ad bd
       0.103326365 0.06511073 -0.062019885 -0.084775075
0000f0 79 42 b8 3c b9 2f 73 3d ae cf cb 3d 91 50 a7 3d
       0.022492634 0.059371684 0.09951721 0.08169664
000100 18 f0 a4 3d 60 7d a5 bc e2 3c f6 bd d3 91 66 3d
       0.08053607 -0.020201385 -0.12023331 0.056291413
000110 cd d1 59 3b b3 41 85 3d 08 0e 7d bd b9 23 fd bd
       0.0033236623 0.06506672 -0.06178096 -0.12360329
000120 c5 33 39 bd 5d 8c 4f bd e4 e5 1f be 55 11 0b 3e
       -0.045215387 -0.05067097 -0.1561504 0.1358083
000130 ce fc 9d 3c 78 9d e3 3d 28 ac 01 3e 70 f3 ee bd
       0.019285586 0.11114019 0.12663329 -0.11667526
000140 13 ee b2 3d 19 c9 00 3e 49 16 19 be 02 a5 45 bc
       0.08736815 0.12576713 -0.14949907 -0.012063267
000150 c0 1b ac 3d 58 e5 4b 3d 40 03 57 bd 52 72 be bd
       0.084037304 0.049779266 -0.052493334 -0.092991486
000160 15 de b8 bd a2 23 69 3d dd f9 8b bd 86 db 5a 3c
       -0.09026734 0.056918748 -0.06834767 0.0133580025
000170 37 23 86 bd 75 fe ea bd 3a ab cd 3d 23 0b cf bd
       -0.065496854 -0.11474315 0.100424245 -0.10109546
000180 2d a8 e8 3c 21 63 b4 3d 4a fc 94 bd c5 1c 55 bd
       0.028400505 0.0880797 -0.07274683 -0.05202939
000190 f4 54 ed bc 5b 93 f3 3d 70 cb 8b 3c 3e f7 52 3d
       -0.028971173 0.1189334 0.01706478 0.05150532
0001a0 95 48 be bd e6 15 fa bd 5e 86 ad 3d 94 13 89 3d
       -0.09291188 -0.12211208 0.08472894 0.06693187
0001b0 a3 c9 8b 3d cb 36 f4 3c fc 5b 48 3d 12 8a 16 3d
       0.068255685 0.029811284 0.048915848 0.036752768
0001c0 f1 95 9a bd ee 53 fc bc 08 84 f4 3d 3c c2 3e bd
       -0.0754813 -0.03080174 0.119392455 -0.046571955
0001d0 22 a4 53 bc cf ac bd bd c9 2f b3 3d 19 33 43 bd
       -0.01291755 -0.09261476 0.08749349 -0.047656152
0001e0 ba ff f2 3c c7 57 cd ba a9 29 b1 3d 89 23 f9 3d
       0.029662956 -0.0015666418 0.08650524 0.12164981
0001f0 15 d6 d5 3d 57 02 92 bd b8 e0 57 bd 17 b1 85 bd
       0.104412235 -0.071293525 -0.052704543 -0.06527918
000200 64 43 5a 3d 56 98 79 3d 4d f1 f0 bd 1e c3 cd bd
       0.053286925 0.060936294 -0.117647745 -0.10046981
000210 a0 1a 11 bd a4 f3 88 bc 40 65 bc 3d dc fc 11 3d
       -0.035425782 -0.01671774 0.091989994 0.035641536
000220 00 ef b9 3d 00 34 cd bd 73 24 dd 3d 83 c6 dd 3d
       0.09078789 -0.10019684 0.10797968 0.10828879
000230 10 15 92 3d bf 00 9a 3c 41 5c e9 3d bd 2a 18 bc
       0.071329236 0.018799184 0.11394549 -0.009287533
000240 85 fb 6b bc 56 da 77 bc 21 4f 15 3d b9 18 32 3d
       -0.014403229 -0.015127739 0.036452416 0.04348061
000250 bd 17 d5 3d b4 f5 a2 3d a6 cf 6d 3d f6 49 05 3d
       0.10404918 0.079570204 0.058059357 0.032541238
000260 18 00 ed 3c bc 1a b7 3d ff bf 3e bd 3c 4b ae 3d
       0.028930709 0.08940646 -0.04656982 0.085104436
000270 e3 27 80 bd b3 88 5e bd 38 c1 47 3d 9a 4d a9 bd
       -0.06257608 -0.054329585 0.048768252 -0.082667544
000280 f6 98 50 bd ea d5 fe 3c 06 be 31 bb 11 b7 9c 3d
       -0.050927125 0.031107862 -0.002712132 0.07652105
000290 2d 4b ae bd 42 fe e1 bd b8 0f 3e 3c ed 4a 4e 3d
       -0.085104324 -0.11034824 0.011600427 0.050364424
0002a0 6c 8d 40 3c bc 74 b7 bd 55 c5 9d bd b3 34 45 3d
       0.011752468 -0.08957812 -0.07703654 0.04814596
0002b0 60 0d a2 3c a9 1f 92 3d 01 d1 86 bd ac e0 c0 3d
       0.019781768 0.07134945 -0.06582833 0.09417853
0002c0 e2 c7 4a bb 5c 88 16 3d c5 df a8 bd 46 5f 68 bc
       -0.0030941893 0.036751136 -0.08245806 -0.014182871
0002d0 a7 c8 f5 bc cf 61 ca bd 0f 28 9e 3d c7 69 29 3d
       -0.030002905 -0.09881937 0.07722484 0.041360643
0002e0 02 e2 99 bd e6 19 04 3d 55 40 ee bc 45 77 f3 bd
       -0.07513811 0.03225126 -0.02908341 -0.11887983
0002f0 55 8e a2 3c 8d 73 b9 bc 43 17 a2 3d 00 d3 1b bc
       0.01984326 -0.022638107 0.07914593 -0.009510756

encoder.rnn.weight_ih_l1 f4 [192, 64]
000000 75 d1 97 bd 45 80 32 bd 13 dd 22 3d 65 eb bf bd
       -0.07412998 -0.04357936 0.039761614 -0.0937107
000010 d6 a0 11 3c 02 bf ba bd fe fc cb bd f7 86 a2 bc
       0.008888444 -0.09118463 -0.09960364 -0.019839747
000020 1a 3c c0 3d 75 30 71 bd 02 90 89 bd 1c a0 4d bd
       0.093864635 -0.058884103 -0.067169204 -0.05020152
000030 35 bc a9 bd 36 52 8a bc 61 83 d5 bd 06 c7 53 3d
       -0.08287851 -0.016884904 -0.10425449 0.051703475
000040 46 70 f9 bd 34 06 fb bd 4d 37 f5 bd 89 a9 a2 bd
       -0.121796176 -0.122570425 -0.119734384 -0.079424925
000050 d3 d7 01 3d 05 11 c5 3d 94 03 85 bd be d8 99 3d
       0.031699967 0.09622387 -0.06494823 0.075120434
000060 00 35 cf bd c6 39 c7 bd 86 3b 27 3d aa d3 73 bc
       -0.10117531 -0.09727816 0.04082825 -0.014882008
000070 29 ad 7e bd b7 d6 a6 3b 8e fb df 3a fd 5e cd 3d
       -0.062176857 0.005091514 0.0017088519 0.10027883
000080 89 f2 32 3d 64 80 2a ba b0 a7 cc bd 7b 02 1f bd
       0.04368833 -0.0006504117 -0.09992921 -0.038820725
000090 4f d0 c1 bd 06 8c d5 bc 46 54 08 bd a3 cf f0 bc
       -0.0946356 -0.026067745 -0.033283494 -0.029395884
0000a0 0b 7d c1 bd 5c 99 55 3d bd 43 2e 3d d4 5b 46 bc
       -0.09447678 0.052148208 0.04254507 -0.0121068545
0000b0 3b 2d 2d bd 59 87 03 3d 7d b6 a8 3d 09 63 4a 3d
       -0.042279463 0.0321115 0.08237932 0.049410854
0000c0 47 e2 4e 3c 91 67 81 3c f0 bb 9f 3c 55 2b 0e 3c
       0.012627191 0.015796455 0.019498795 0.008677323
0000d0 91 75 15 bd 79 84 ba bd c0 d7 aa 3d 72 5c 98 3d
       -0.036489073 -0.091072984 0.08341932 0.074395075
0000e0 6d 52 fa bd 16 fa a1 3c a1 bc ad bd 64 9e ef 3d
       -0.12222753 0.01977257 -0.08483244 0.117001325
0000f0 56 65 2e bc 1f 46 7f bd 09 49 a0 bd 90 35 93 3d
       -0.010644278 -0.062322732 -0.0782643 0.071879506
000100 40 a9 e0 bc 8c 67 3d bc b9 c8 eb 3d a6 34 12 bd
       -0.027424455 -0.011560332 0.11512894 -0.03569474
000110 7f d6 8d bd f0 b0 20 3d 9c e1 ed 3c c9 a0 b7 bd
       -0.069256775 0.03923124 0.029038243 -0.08966214
000120 a4 17 37 3d cb a9 a2 bd 5c dd 9b bd d6 b7 ba bd
       0.04470028 -0.07942542 -0.0761058 -0.09117095
000130 dd 83 29 bd c0 5a b5 3b 26 98 68 bd 4c 3b a5 bd
       -0.04138552 0.0055345 -0.056785725 -0.080679506
000140 26 52 35 bd cb da 06 3d 71 ab 80 3c f3 c5 f0 bd
       -0.044267796 0.0329235 0.01570675 -0.11756506
000150 1b ea dd bd 8b d3 b1 3d 19 a3 49 3c f9 e1 93 3d
       -0.10835668 0.08682927 0.012306952 0.07220835
000160 68 89 01 bc 4a 50 e9 bd 81 9f e9 bd 82 d9 93 3d
       -0.007906295 -0.11392267 -0.11407376 0.07219221
000170 7e 42 bf bc 92 6b 42 bd 38 d5 00 be 69 82 82 3d
       -0.023347136 -0.04746587 -0.12581336 0.0637253
000180 7b 5f ba 3c e2 b1 c1 bd f8 f0 4a 3c f9 ee b1 bd
       0.022750607 -0.094577566 0.012386553 -0.086881585
000190 01 f9 19 bd 67 c7 87 bd fe 50 18 bd 62 d2 bf bc
       -0.037590984 -0.0662983 -0.037186615 -0.023415748
0001a0 ed 5d d2 bd 39 28 b6 bd c5 ef e4 bd fb f4 95 3d
       -0.10271821 -0.088943906 -0.11178545 0.07322117
0001b0 3f 34 a0 bd f6 0a b7 3d 1b eb a5 3d 76 71 9c bd
       -0.07822465 0.089376375 0.081014834 -0.076388285
0001c0 94 53 b6 3d 08 80 c7 ba 75 22 d9 bb ea 66 90 3d
       0.0890266 -0.0015220651 -0.006626422 0.07050879
0001d0 ed d6 b5 3d 7b a6 8a bb f8 dc ec 3d cb 39 9d bd
       0.088788845 -0.004231272 0.11565584 -0.07677039
0001e0 17 f4 b6 3d 7b f8 81 3d c3 eb d5 3d 15 9a 76 bc
       0.08933275 0.06346222 0.104453586 -0.015051384
0001f0 b4 87 f9 3d ae d3 c4 3d 08 20 a0 bd 2c ca ea 3d
       0.121840864 0.09610687 -0.078186095 0.114643425
000200 c6 26 d8 bd bb 80 0a 3e 82 d5 a9 bd 59 e8 a1 3b
       -0.105542704 0.1352567 -0.082926765 0.004941028
000210 31 61 e6 bd a4 97 71 3d 58 ab b0 bd b2 0f 4a bd
       -0.112490065 0.058982506 -0.08626431 -0.049331374
000220 83 fa 81 bd 7e 1b c6 bd 38 f8 50 bd ce 8d 13 bd
       -0.063466094 -0.096732125 -0.05101797 -0.036023907
000230 37 16 b6 bd ab c8 89 bd db 47 21 bd a2 cb 18 3e
       -0.08890956 -0.067277275 -0.039375167 0.1492143
000240 32 ba 14 3d ab 54 ea bc 91 c3 04 bc 8b 51 c1 3c
       0.036310382 -0.028604826 -0.008103267 0.023598453
000250 cb 5d 17 3c 33 99 6e bd da f9 d4 bd b1 97 a0 bd
       0.009238671 -0.05825157 -0.10399218 -0.07841433
000260 8f 75 0e 3d 29 41 c5 bc 1a e4 9a bd 45 4c 98 3d
       0.03478008 -0.024078922 -0.07563038 0.07436422
000270 e8 37 9d 3d b3 1a 07 3c 42 93 c7 3d 80 3e 88 bd
       0.07676679 0.008246112 0.09744884 -0.06652546
000280 59 25 a3 bd 56 82 81 3d 52 56 04 3e 27 01 f0 3c
       -0.07966108 0.06323688 0.12923554 0.029297424
000290 ca 22 be bd b7 e7 89 bc f7 46 2a bd 72 75 97 bd
       -0.09283979 -0.016834123 -0.041571584 -0.07395448
0002a0 1f 2a 25 bd 24 66 0c bd cd d5 02 3c 05 86 49 bc
       -0.040323373 -0.034277096 0.007985544 -0.012300019
0002b0 00 88 03 3e 1f 3d a5 bd cb 7d 49 3c 16 04 e0 3d
       0.12844849 -0.080682985 0.012298058 0.10938279
0002c0 4c 2c 32 bd 9e 9d e8 bd 6f 92 14 bc 83 c8 8e 3c
       -0.043499276 -0.11358188 -0.009068116 0.017429596
0002d0 dd 20 b5 bd f0 cf 84 3d 9c 0d b4 3b 57 75 bc bd
       -0.08844159 0.064849734 0.0054947864 -0.09202068
0002e0 32 88 fc 3b 12 20 6c bd 83 50 ef 3d 6f 2e b4 bd
       0.0077066654 -0.057647772 0.11685278 -0.08797919
0002f0 b1 3d bb bd 63 ea 8e 3c 11 ad 02 bc f0 94 51 bc
       -0.09142626 0.017445749 -0.007975833 -0.012791857
000300 62 70 15 bd 09 17 8d bd 20 5e c7 3d 38 e7 f9 3d
       -0.03648413 -0.06889159 0.0973475 0.122023046
000310 b3 c3 54 bd bf 3c f8 ba b7 aa e2 bd 8f 18 db 3d
       -0.051944446 -0.0018939002 -0.110677175 0.106980436
000320 c4 14 89 bd 9e e5 84 bd ba 1f 82 bd 5b d6 09 3d
       -0.06693414 -0.064891085 -0.063537076 0.03365169
000330 27 48 2a 3d 65 d8 ce bd 0a c7 0a bd 7d ad 7f 3d
       0.041572716 -0.10099868 -0.033881225 0.06242131
000340 50 8c ac 3c eb c9 de bd fb 26 8f 3d e1 54 d6 3d
       0.021063 -0.108783565 0.06989857 0.10465408
000350 5b 02 22 bc b9 fc f5 3d 70 5a af 3d 44 b1 c8 bd
       -0.009888257 0.12011094 0.085621715 -0.09799436
000360 e9 54 62 bd 5f 2d eb 3d c0 cc 13 bd 9a 98 da 3d
       -0.055256758 0.11483263 -0.036083937 0.10673638
000370 d1 9f b5 bd 7d 78 dc 3d 9e 86 2a 3d cc 25 da bd
       -0.08868373 0.10765169 0.041632287 -0.106517404
000380 46 13 e8 bd 00 05 c6 bd ad 2d e2 3d 41 34 03 3d
       -0.11331801 -0.096689224 0.11043868 0.032032255
000390 a7 7d 16 3d 1d 68 13 bd ed 36 ee bd 7d 3b d2 3d
       0.036740925 -0.035987962 -0.1163157 0.10265253
0003a0 9b a2 87 bd eb 12 a3 bc e8 f8 04 bc 7a fa d2 3d
       -0.066228114 -0.019906482 -0.0081159845 0.10301681
0003b0 4d fc 40 3d 49 31 21 bc fa 7d d4 3d 70 1e d2 3d
       0.047115613 -0.009838411 0.103755906 0.10259712
0003c0 57 83 e6 bb 6c 46 d6 3d 60 bb 71 bd 68 cc e0 bd
       -0.0070347 0.10462651 -0.059016585 -0.109764874
0003d0 c2 84 e0 3d 5b 6a 9b bb 83 fc 81 bc f4 31 a7 bd
       0.109628215 -0.004742903 -0.015867477 -0.08163825
0003e0 4b 70 51 bd 87 9b 88 bd b4 49 bf 39 7e b5 dd bd
       -0.05113248 -0.066702895 0.00036485272 -0.108256325
0003f0 d0 18 7d 3d 7f 74 c4 3c 3f 59 32 bc ef 25 b0 bd
       0.06179124 0.02398133 -0.010885536 -0.08600985
