checkpoints/models/single_stock_daily/81to9/000001/model15.pth (torch, 543834 bytes, 24 tensors)

encoder.conv1.weight f4 [18, 6, 3]
000000 58 10 4e bc 2f c2 dd 3d 75 59 66 be 11 fa 08 be
       -0.012577139 0.10828053 -0.22495063 -0.13376643
000010 d7 1c 9f bd 72 4a bd bd eb da ed bb 97 dd 34 3e
       -0.07769173 -0.09242715 -0.007258763 0.17662655
000020 1c e6 8d 3d ad 86 5c be 13 03 62 3e f9 52 51 3e
       0.069286555 -0.2153575 0.22071485 0.20441808
000030 2f bf 93 3d 38 62 f1 3d ae 5a d1 3d 28 92 24 3e
       0.072142 0.11786312 0.10222374 0.16071379
000040 73 93 7a be 20 40 14 be 01 27 eb bc 36 2d 28 bd
       -0.2447031 -0.14477587 -0.028705122 -0.04105874
000050 4b 3a 1d be 1f 9f 67 be 2a 34 36 be cd f2 12 bd
       -0.15354268 -0.22619294 -0.17793337 -0.035876084
000060 ac 8c 4e 3e 7f ad 24 3e 99 d7 8e 3d 75 39 13 be
       0.2017085 0.16081809 0.06974716 -0.14377387
000070 89 d9 ba bd 70 25 c6 3c 1f ee 5e be b3 6e f2 bb
       -0.09123523 0.024187773 -0.21770523 -0.0073984503
000080 b5 64 49 3d 66 1c 6f 3e be 6f 22 bd 2e 54 80 3e
       0.049168307 0.23350677 -0.039657347 0.25064224
000090 b8 01 a5 3c 95 e4 25 be 1c 24 64 3e d8 2f 43 3e
       0.020142421 -0.16200478 0.222794 0.1906122
0000a0 ba 7f 54 be 74 c5 1c be bd 88 bf 3d 55 8f 33 be
       -0.20751849 -0.15309697 0.09352253 -0.17535146
0000b0 1f c5 09 3e 78 9f 04 be ef 97 cc bd 97 a1 b7 bd
       0.13454102 -0.12951458 -0.099899165 -0.08966368
0000c0 18 6c 55 3e b9 16 d8 bd 2e f2 88 bd e4 13 01 3e
       0.20842016 -0.10551209 -0.06686817 0.12605244
0000d0 37 17 4d be b4 b4 20 bd 20 9b 3f be 12 46 63 be
       -0.20028387 -0.039234832 -0.18711519 -0.22194698
0000e0 e2 a5 75 bd fa a2 94 3c 65 b9 3f 3e 43 ff 76 be
       -0.05997265 0.01814412 0.18723066 -0.24120812
0000f0 f1 bf a3 bd 24 f1 26 3d c2 a9 86 3d 5e b4 02 3e
       -0.07995594 0.040757313 0.065753475 0.12764117
000100 39 61 54 be 32 34 9e bd e7 e8 34 3d 68 cb 53 be
       -0.20740213 -0.07724799 0.044167425 -0.20683062
000110 38 2a cb 3d ca bd 76 be 8a 24 e6 3d 0d 34 10 3d
       0.09920162 -0.24095836 0.11237438 0.03520589
000120 9b be 79 bd a0 28 a3 3d f2 83 51 3e 9a 23 36 3e
       -0.06097279 0.07966733 0.2046049 0.17787018
000130 90 60 1b 3e 4e d4 02 be 9a 2a 9a 3d 0b a9 43 3e
       0.15173554 -0.127763 0.07527657 0.19107454
000140 b8 44 68 3d 88 03 26 3e 30 a5 09 be 91 85 36 3e
       0.05670616 0.16212285 -0.1344192 0.17824389
000150 6c 3f d0 ba f3 83 4c be 89 f8 46 bd 0e 94 5e 3e
       -0.0015888042 -0.1997221 -0.048576865 0.21736166
000160 92 7f 73 bd 74 f3 4f bc df d2 bc bd 6e a8 01 be
       -0.059447832 -0.012692321 -0.09219908 -0.12661907
000170 58 4f 2c 3d 7d 47 0e 3e 63 23 b4 3c 85 f9 ab bc
       0.042067856 0.13894458 0.02198953 -0.020993004
000180 21 f1 06 3c aa 76 3d be fe 4d 08 be 42 f3 e5 3b
       0.008236201 -0.18502298 -0.13311002 0.007017524
000190 07 52 48 be c9 f9 de 3d a1 15 ff 3c 70 86 99 bb
       -0.19562541 0.108874865 0.031138243 -0.0046852157
0001a0 ad 89 bb bc 4a 84 48 3e 7d 1f 53 3e 20 6c d5 3d
       -0.022892797 0.19581714 0.2061748 0.10421014
0001b0 dd e1 f7 3d fc 36 e7 bd d4 cc d1 3d 90 0e 22 be
       0.12103627 -0.11289784 0.10244146 -0.15825868
0001c0 38 4b d9 3d 02 c6 21 be 74 f5 ff 3a 71 a3 37 3e
       0.1061005 -0.1579819 0.0019528107 0.17933442
0001d0 33 85 30 3e 95 6c 57 3e d9 bf b1 3d 4f 90 d5 3d
       0.17238311 0.21037515 0.0867917 0.10427915
0001e0 bc a2 86 3d 62 24 37 3e 21 f8 0b 3e 74 5b a2 3d
       0.06574008 0.17884973 0.13668872 0.079275995
0001f0 36 52 6e bd 4e 39 a5 bd 00 75 4d bd 2b 51 00 3e
       -0.05818387 -0.080675706 -0.050160408 0.12530963
000200 ea 4e f4 bd b5 c0 90 3d 75 8f 5d 3e 00 1c 4e 3e
       -0.11929114 0.07068006 0.21636756 0.20127869
000210 05 6a 28 be b4 9d a8 3d 7e cc 1f 3e 7b 16 53 be
       -0.16446693 0.082332045 0.15605351 -0.20614044
000220 26 84 27 3e 6c 6e 14 be d0 ba 26 be 71 c0 b2 bd
       0.16359004 -0.14495248 -0.16282201 -0.087281115
000230 12 34 b2 bd 29 80 d8 bd 76 36 83 3d e1 10 92 3d
       -0.08701338 -0.105713196 0.06406872 0.07132126
000240 75 42 bf 3d 20 2c 28 3e 2c 8b 18 be b9 eb 6a be
       0.093388475 0.16423082 -0.1489684 -0.22941484
000250 19 e1 4b be 71 d0 10 be 00 a8 ee bd a6 95 b4 3d
       -0.19910087 -0.14142014 -0.11653137 0.08817606
000260 5e e8 40 be f9 10 38 be 27 7a e7 3d 06 5b 29 be
       -0.18838641 -0.17975225 0.113025956 -0.16538629
000270 09 99 17 3d d9 1a 45 be 85 b6 99 3d 8a 79 0e 3e
       0.03701118 -0.19248523 0.07505516 0.13913551
000280 d2 02 62 be 6c f6 51 3d cc 6a fb bd 40 7a 18 3e
       -0.22071388 0.051260397 -0.12276229 0.14890385
000290 33 94 58 3e d7 ed 51 be 51 a3 a7 3d f3 41 1b 3e
       0.21150284 -0.20500885 0.08185447 0.15161876
0002a0 a7 f9 54 3e b8 b0 2f 3e 64 51 19 3d 8f b8 f3 3b
       0.2079836 0.17157257 0.037431136 0.0074377726
0002b0 14 35 2c 3d a9 94 18 be 56 0d 56 bd e7 92 21 bc
       0.042042807 -0.1490046 -0.052258812 -0.009861684
0002c0 16 0c 21 be 97 9f bf bc 74 08 3e bd 64 ef d0 bd
       -0.15727267 -0.023391528 -0.04639478 -0.1020191
0002d0 27 b1 94 bd 30 ec 70 be 26 8a 65 3e 01 1c ee 3d
       -0.07260352 -0.23527598 0.2241598 0.11626435
0002e0 f3 79 31 3e 0d bc 49 be 33 2c 6a be 9b 4d 3a 3e
       0.17331676 -0.19700642 -0.22868423 0.18193667
0002f0 01 c1 0a bd 23 d7 1a 3d 66 24 fc 3d 2d 84 aa 3c
       -0.03387547 0.037802827 0.1231163 0.02081498
000300 27 13 d7 bb cc 81 14 3e 8b b4 46 3e bb e9 9b bd
       -0.0065635624 0.14502639 0.19404809 -0.0761294
000310 ad c4 4e be 40 db 02 be 97 42 2e 3e 73 ea 9b 3c
       -0.20192213 -0.1277895 0.1701759 0.019032693
000320 d9 38 4e 3e 4a 6c ab bd 23 50 6b be f4 98 8f 3d
       0.20138873 -0.08370264 -0.22979788 0.07011595
000330 7b 13 d8 bd 7a 01 1d be 01 ce 0f 3e 5a 67 54 3c
       -0.105505906 -0.15332595 0.14043428 0.012964094
000340 78 67 f5 bc fc cb 65 3e b0 d4 4e 3e 28 0d 4f be
       -0.029956564 0.22441095 0.20198321 -0.20219862
000350 b3 e4 62 be aa a5 19 be 32 42 68 be 9f 1a 2b be
       -0.22157554 -0.15004602 -0.22681502 -0.16709374
000360 33 35 1c 3e 8f b6 24 be 65 3d 58 3e 01 0c 97 3d
       0.15254669 -0.16085266 0.2111717 0.073753364
000370 2b ab 85 3c 54 45 2c 3d 82 90 5e 3d 6a 24 b6 3d
       0.01631697 0.042058304 0.054337032 0.08893664
000380 05 f9 3c be c8 90 b1 ba a8 7a 2a 3e 76 ca 74 3e
       -0.18454368 -0.0013547176 0.16648352 0.23905358
000390 9f fc 22 bc 80 70 22 be 17 2a e7 3d 31 6a 46 be
       -0.009947925 -0.15863228 0.11287325 -0.19376446
0003a0 d7 f5 7b 3e 76 9a 35 3e 61 6c de 3d a1 d9 0c 3d
       0.24605499 0.17734703 0.108605154 0.034387235
0003b0 c6 12 31 3e 3d f1 c7 bd e1 43 4f be e9 2a 0c be
       0.17292318 -0.097628094 -0.20240737 -0.13688244
0003c0 79 8b 2e 3e 8d 17 03 be a5 1e 4c be 38 eb 43 3d
       0.17045392 -0.12801953 -0.19933565 0.047831744
0003d0 3f 72 1e be 39 55 9e bc a0 10 1d be de 95 2a 3d
       -0.15473269 -0.019327747 -0.15338373 0.04164683
0003e0 9e f4 42 bd 23 bc d9 3c c5 aa bf 3d c3 57 2f be
       -0.047596566 0.026578968 0.093587436 -0.17123322
0003f0 f3 65 9d bd d6 69 20 be 5e 03 4b 3e d2 cd b8 bd
       -0.07685461 -0.15665373 0.19825503 -0.09023632

encoder.conv1.bias f4 [18]
000000 d3 fd 17 be bb f4 86 bd 16 56 be bd 9f 7e 59 3e
       -0.1484292 -0.065896474 -0.09293763 0.21239708
000010 54 4a 5d 3d b6 02 32 be 07 5e 26 3e ad 72 e5 bc
       0.054025963 -0.17383847 0.16246806 -0.028008783
000020 ca fd c7 3c a2 77 01 3d a6 7e 01 bd 97 7c 69 3e
       0.024413008 0.03160823 -0.031614922 0.22801434
000030 d7 8f b9 3d d7 f0 6c 3d 9b 05 a3 bd c8 69 59 3d
       0.090606384 0.05784687 -0.079600535 0.053079396
000040 f8 67 30 be 27 cb 9a bd
       -0.17227161 -0.075582795

encoder.conv2.weight f4 [54, 18, 3]
000000 0e 44 7c 3d 70 90 12 be 6f eb 58 bc cb 6a 56 bd
       0.06158834 -0.14312911 -0.0132397255 -0.05234794
000010 f7 41 89 3d 9f b8 b0 bd 74 bc c2 3c 0d 6d 12 bd
       0.06702035 -0.08628964 0.023771502 -0.03574853
000020 9c 30 f7 3d 3a 54 84 bc 1b 88 b7 bd 1e 36 f6 bc
       0.120698184 -0.016153444 -0.08961507 -0.030055102
000030 8b a4 c3 3d 58 3b 4f 3d 66 6e d7 3c 7e 47 a6 3d
       0.095528685 0.050593704 0.02629776 0.08119105
000040 ee a9 48 3d d9 c3 a8 bc b2 a4 96 bd 99 6e 08 be
       0.048990183 -0.0206012 -0.07355632 -0.1332344
000050 cd 7d 7a 3d a6 a1 c9 3d e7 94 7a bd 92 b7 8d bd
       0.06115513 0.09845285 -0.06117716 -0.06919779
000060 97 8c 04 3d 95 1c e6 ba cd 82 ee 3d 9f 81 07 bb
       0.03236064 -0.0017556126 0.11646042 -0.0020676625
000070 ad c4 94 bb b6 77 03 be f8 f6 04 3d fe 5a 1e bc
       -0.004540047 -0.12838635 0.03246209 -0.009665249
000080 19 fd a2 3c d7 83 b5 3d e9 9f 84 3d 6b 29 15 3c
       0.019896077 0.08863037 0.06475813 0.009104113
000090 78 a0 3d bc c1 5b 92 bd 77 d9 f4 3d 75 68 04 3e
       -0.011573903 -0.07146407 0.119555406 0.12930472
0000a0 83 f7 97 3c 7e f6 1f 3e c6 51 f2 3d 60 b9 9f 3d
       0.01855064 0.15621373 0.11832003 0.07799029
0000b0 f7 3d 94 3d f9 b7 52 3d b7 a2 e5 bc 8d 5a f5 3b
       0.07238381 0.05144498 -0.02803169 0.007487601
0000c0 75 0f f1 3d 79 04 86 bc c0 42 3b 3d 0d b7 19 bd
       0.11770526 -0.016359555 0.045717955 -0.037528086
0000d0 03 b0 fa 3c 53 8f b4 3d 37 df d3 3d 12 4f b7 3d
       0.030601507 0.088163994 0.10345309 0.08950628
0000e0 58 7b ab 3d 06 f4 e3 bc 28 d0 02 3e 51 a4 cd 3d
       0.08373135 -0.02782632 0.12774718 0.100411065
0000f0 c6 5e 08 3e b9 47 e1 bd 9f c5 74 bd c2 12 e2 bd
       0.13317403 -0.11000008 -0.05975878 -0.11038734
000100 c1 42 2a 3c 84 6d d8 3d 5d 44 cb bd 6e 9a f9 3c
       0.010391892 0.105677634 -0.09925149 0.030469146
000110 f8 bd 14 bc a9 3c 00 be 22 48 87 bb 5b b2 56 bc
       -0.009078495 -0.1252314 -0.004128472 -0.013104047
000120 f5 fb 8d bd 86 e5 b2 bd 40 f7 9b 3d 37 27 15 bb
       -0.069328226 -0.08735184 0.076155186 -0.002275897
000130 cf a8 7e bc 8e 27 db bc 9a ea 7d bc ec a8 12 bd
       -0.015543177 -0.02675226 -0.015497828 -0.035805628
000140 f5 23 9f bd 64 87 5b 3d 2e e3 3e bb c3 ae fd bd
       -0.0777053 0.053595915 -0.002912711 -0.12386849
000150 35 f0 7f bd 24 30 9c bc e8 7d 3e bd 32 34 f3 3c
       -0.06248494 -0.019065924 -0.046506792 0.029687975
000160 64 76 ee 3d 72 03 de bd 71 1b d1 bb 1c 24 e8 3d
       0.11643675 -0.10840501 -0.006381445 0.11335012
000170 2a dd af bd 22 fc dd bd 50 e2 09 3d 10 7c b4 ba
       -0.085871056 -0.10839106 0.033663094 -0.0013769884
000180 aa b0 ce 3b 69 3b b8 3d 0d 80 e2 bd 20 91 b1 bd
       0.006307681 0.089957066 -0.1105958 -0.086702585
000190 2a 93 bb 3d 02 25 cc bd f9 69 a3 bc dc f8 8e 3d
       0.09158929 -0.09967996 -0.019947993 0.0698106
0001a0 0e 28 89 bd 7e 00 d3 bd be 7b a0 bd c3 63 c5 bd
       -0.06697093 -0.10302828 -0.07836102 -0.09638169
0001b0 e3 5e ce bd 8a c0 a0 bb 3b a9 db bd 50 35 b9 bd
       -0.10076692 -0.004905765 -0.107256375 -0.09043372
0001c0 30 a4 38 3b ee 64 f4 3d 08 13 02 3e 0c 98 d6 3d
       0.0028174035 0.11933313 0.12702572 0.104782194
0001d0 5b 72 17 3b b5 3d 7e 3d 7e 21 92 bd 7d 26 ef bd
       0.0023108933 0.062070567 -0.071352944 -0.11677263
0001e0 e7 ac 9b 3d 44 00 7e 3d c6 3b 65 3d 36 d9 69 3d
       0.07601338 0.062011972 0.055965208 0.057091914
0001f0 b1 ce 24 bd d2 e6 be 3d 50 11 a8 3d 48 22 4e bd
       -0.04023618 0.09321369 0.08206427 -0.050325662
000200 92 18 df 3d 15 0b 3e 3d ba d3 08 3b 46 f1 ee 37
       0.10893358 0.046397287 0.0020878152 2.8484163e-05
000210 43 e5 d8 3d 74 3a ff bb af a0 17 3d 4e b2 da 3d
       0.10590603 -0.0077889506 0.037018474 0.1067854
000220 f2 93 6e 3c 3f ae 07 3e 39 74 87 bd 73 78 90 3a
       0.01456164 0.13250063 -0.066139646 0.0011022225
000230 39 89 db 3c 1b a7 d2 3b e3 20 d0 bd dd b3 fa 3d
       0.026798831 0.006428612 -0.10162523 0.122413374
000240 27 2e 8d bd 00 93 da 3d a6 1a 40 bd 46 f1 22 3d
       -0.068935685 0.10672569 -0.046900414 0.039780878
000250 1e 7a b9 bd 4d c5 96 bd df 25 ee 3c 54 8b b0 3d
       -0.09056495 -0.07361851 0.029070793 0.08620325
000260 4d 16 a7 bc 16 93 6f 3d 40 84 88 bd 5e 57 56 3d
       -0.020396376 0.05848988 -0.0666585 0.052329414
000270 40 06 c0 bc 6b fe 1b bd a7 ff 86 3d b3 1a 61 bd
       -0.02344048 -0.03808443 0.065917306 -0.054957103
000280 ad 9d c0 bd ec a5 44 bd a9 7a 6e 3d ee 9e f2 3d
       -0.09405074 -0.048009798 0.058222447 0.1184672
000290 73 83 e8 3d 53 da c1 3d e0 fd aa bd 13 ca fa 3d
       0.11353197 0.0946547 -0.08349204 0.12245574
0002a0 ce ff 70 3d 23 2c 07 3d 0a ba 90 bd fe b7 5f bd
       0.058837704 0.033001076 -0.07066734 -0.054618828
0002b0 52 21 74 3d 50 3c 0d 3c 25 d3 24 bd 45 57 dc bd
       0.05960209 0.008620337 -0.040240426 -0.10758833
0002c0 66 03 e6 3d 4d 5e 29 3d 67 3c 89 3c 80 48 3d 3c
       0.11231117 0.041349698 0.016752435 0.01155293
0002d0 75 21 8c 3d f3 f8 b4 bd a0 dc 32 bc b8 70 e4 3d
       0.06842319 -0.08836546 -0.010916859 0.11154312
0002e0 30 9f f6 bc 49 ca fc bd e0 30 8c bd 54 1e ca 3d
       -0.030105203 -0.1234327 -0.0684526 0.09869066
0002f0 02 7e ab 3d 20 de be 3d 61 4b 58 bd 34 e4 8a bd
       0.083736435 0.09319711 -0.052806262 -0.067818075
000300 66 d7 0a be 76 28 34 bc 3c 0a 39 bd 31 37 08 3e
       -0.1355873 -0.010995975 -0.045175776 0.13302304
000310 9c ec 56 bd eb 64 a1 bd a2 b2 4e 3d 0b 0f 5f bd
       -0.052471742 -0.07880577 0.050463326 -0.054457705
000320 37 0e 88 bc a7 e3 1c 3e d2 00 d4 3d ed eb f6 bd
       -0.01660834 0.15321217 0.10351719 -0.12056718
000330 f5 8f de 3b ec 28 00 3c 08 e5 0b 3e 00 a7 f7 bd
       0.0067920634 0.007822257 0.13661587 -0.120923996
000340 71 05 9b 3d 86 d3 10 be a6 ad ff bd d6 2d 95 bd
       0.07569397 -0.1414319 -0.12484293 -0.07284133
000350 d1 ec 07 be 62 68 43 3a 15 d5 f3 3d 3d 3a f6 bc
       -0.13273932 0.0007454214 0.119058765 -0.030057067
000360 ae d4 bf bd 6e a0 ac 3a 4d 69 da bd 80 9f cd 3d
       -0.09366737 0.001317037 -0.10664616 0.10040188
000370 45 44 cf 3c af 8b 02 3e fd 5d 69 3d 1f e9 2b 3d
       0.025301108 0.12748598 0.0569744 0.04197037
000380 1a 6a 33 3d 11 1e e9 3d 7b 13 d5 bd 7c 59 bd bd
       0.04380236 0.11382688 -0.10404106 -0.092455834
000390 e6 5a d1 3d a0 e3 47 3d 2d cc fa 3d 64 b8 19 3d
       0.102224156 0.048801064 0.12245975 0.037529364
0003a0 b5 f1 60 3d ac 6a ba 3d 2f 7f b4 3d 40 21 99 3d
       0.05491801 0.09102377 0.08813321 0.07477045
0003b0 1c 2c e0 bd 85 1b 52 3d b5 ab a8 bd 3d 6f d6 3c
       -0.10945913 0.051295776 -0.082358755 0.02617609
0003c0 e2 01 95 3d d8 ab 3f bd 88 c2 f6 3d c3 3e ed 3d
       0.0727575 -0.046794742 0.12048823 0.115842365
0003d0 4e 3f 26 3d 18 6d ce bd 20 d1 c3 ba 9d 8d dd 3d
       0.040587716 -0.10079402 -0.0014939643 0.10818026
0003e0 c5 d4 81 3c 8e 92 e1 3d 7d e6 14 bc 17 2f 9a bd
       0.015848527 0.11014281 -0.009088156 -0.07528513
0003f0 14 00 b9 3d 6e 03 37 3d 50 d1 95 3d 01 a7 b5 bd
       0.09033218 0.044681005 0.07315314 -0.08869744

encoder.conv2.bias f4 [54]
000000 56 a8 9a bd 82 58 b4 bd e6 8e fb bb c0 13 f5 3d
       -0.07551639 -0.08805944 -0.007676947 0.11966658
000010 7f ff db bc 8d 17 07 be b8 b0 82 bd 46 10 b4 bd
       -0.026855228 -0.13192578 -0.06381363 -0.087921664
000020 24 2f dd 3d f0 50 c7 bd 38 68 d3 3d e6 5a 4b 3d
       0.10800007 -0.097322345 0.103226125 0.049647234
000030 84 7a 82 bc 5d fc 0f bd ab 31 94 3d c6 df 94 bd
       -0.01592756 -0.03515278 0.07236036 -0.07269244
000040 10 ea 51 bd 75 8e 03 3e 66 7c 36 bd 99 d9 a9 3c
       -0.05124861 0.12847312 -0.04455223 0.020733641
000050 f7 e9 eb 3d f3 71 d6 bd f7 3b e9 3c 26 0c 58 3b
       0.11519235 -0.10470953 0.028470976 0.0032966225
000060 6e 2b 93 bd 03 2c e9 3d 1e d7 ca 3d bc 9b 0c bc
       -0.07186018 0.11385348 0.099043116 -0.008582052
000070 69 4e 65 bc f8 0c c0 3d 9d 3c 25 bd 1c 20 9c 3d
       -0.013995745 0.093774736 -0.04034101 0.07623312
000080 2b 0d ae bd 36 d3 de bd 11 e6 b1 3d fd cc bf 3d
       -0.08498605 -0.10880129 0.0868646 0.0936527
000090 7c 43 da bd c0 35 f7 bc a1 21 41 3d d2 b4 98 3d
       -0.10657403 -0.030176997 0.04715121 0.07456364
0000a0 e8 f8 99 3d 21 42 c0 3d e1 eb 7d bd e1 1f f8 3c
       0.07518178 0.09387613 -0.06199253 0.030288639
0000b0 61 a6 df 3d 2f 2b eb bd 67 e2 bc 3d e6 88 21 3d
       0.10920406 -0.11482846 0.0922287 0.039437197
0000c0 24 6d 31 3c 80 c5 0a 3e f8 f7 52 bd 60 75 25 bd
       0.010829244 0.13551903 -0.051506013 -0.04039514
0000d0 04 cd c5 bd a2 62 e1 3d
       -0.09658244 0.11005141

encoder.rnn.weight_ih_l0 f4 [192, 54]
000000 16 a5 cc bd cc ec f0 3d de 2c ab bd 2b 11 77 3d
       -0.09992425 0.117639154 -0.08358167 0.060319107
000010 e3 61 95 bd e9 6a e8 3d 0f b5 bd bd 35 f4 95 bd
       -0.07294061 0.113485165 -0.0926305 -0.073219694
000020 91 1d 5c bd 3b d2 a3 bd da 1e 03 3e 58 c3 63 3d
       -0.053739134 -0.07999083 0.12804738 0.055606216
000030 6f f0 94 bd 48 4d a1 bd 80 cf 28 bd ab 3f ab 3a
       -0.072724216 -0.07876068 -0.041213512 0.0013065239
000040 07 85 93 bd e6 20 84 3d ba 43 8f bd 31 66 bc 3c
       -0.07203107 0.064515874 -0.0699534 0.022997947
000050 c0 fe ab 3d 66 8e be bd ec fc bc bd 42 0d ba bd
       0.08398199 -0.09304504 -0.092279285 -0.0908456
000060 ca f3 a9 3c cc 5e cc 3d 60 a1 9e bd 33 2c 26 3b
       0.02074613 0.099790186 -0.077456236 0.0025355935
000070 f4 a9 ab 3d 77 fe d2 3d 10 f1 78 3d c7 4f 42 3d
       0.08382025 0.103024416 0.06077677 0.047439363
000080 aa 16 82 3c b0 84 8c 3b c2 20 ef 3d 56 f6 3a 3c
       0.015879948 0.0042882785 0.1167617 0.01141127
000090 22 57 68 3d b4 ef dd 3b 38 59 d0 3d 0b 51 fb bd
       0.05672372 0.0067729596 0.10173267 -0.12271317
0000a0 84 bc 07 bd 93 6e ee bd bc 31 2a 3d 4b ac 1b bd
       -0.033138767 -0.11642184 0.041551337 -0.03800611
0000b0 f2 6a c8 bd 95 90 a3 bd 4b 07 9a 3c 20 b0 af 3d
       -0.09786023 -0.07986561 0.018802306 0.08578515
0000c0 af 64 d5 3d f2 ba a2 3d da db e0 bd f2 09 db 3d
       0.104195945 0.07945813 -0.10979433 0.10695256
0000d0 ff f2 e6 3d bc 33 2f 39 e0 ce 19 be 3d 65 c0 bd
       0.112768166 0.00016708573 -0.15020323 -0.0939431
0000e0 45 e8 d2 bd 47 c2 89 bc 6d 76 1d 3e f4 46 b3 3d
       -0.10298208 -0.016816271 0.15377207 0.087537676
0000f0 d2 d5 78 bd a4 c1 1b bd a4 73 30 3d 29 c1 4c bd
       -0.06075079 -0.038026467 0.043079033 -0.0499889
000100 a1 34 9d bd 12 e5 29 3d 4a 31 fd 3b 8c 75 8b 3d
       -0.07676054 0.041478224 0.007726823 0.0680953
000110 f0 78 26 bc 75 de 99 3d 63 5b f2 bd a1 50 c7 3d
       -0.01016067 0.075131334 -0.11833837 0.097321756
000120 99 42 79 3d 62 1d fb bd 35 a7 21 bd 7d 97 c7 bc
       0.060854528 -0.12261464 -0.0394661 -0.024364227
000130 62 b0 76 3d be b4 f8 3d bb 24 89 bd 9f 25 b5 bd
       0.060226806 0.12143849 -0.06696459 -0.08845066
000140 48 52 f2 bd 53 dc cb 3d 0f 9b a5 bd 49 0d b0 bd
       -0.118321 0.09954133 -0.08086216 -0.08596284
000150 db 1f ba 3d f4 4c 9f 3d 57 e4 60 3d ce a4 dc 3d
       0.09088107 0.077783495 0.05490526 0.107736215
000160 9b 38 b6 bd e4 4a e3 bc f0 2f 9e bc 90 6a bf 3d
       -0.088975154 -0.027745672 -0.019309968 0.09346497
000170 17 47 d3 bc 3d 17 c5 bb ec ac de 3d dc 0e 99 3d
       -0.025790734 -0.006014733 0.10872826 0.07473537
000180 75 d8 0f bd e5 9f de bd 46 59 d7 bc 77 54 b0 3d
       -0.03511854 -0.10870341 -0.026287686 0.086098604
000190 3c c4 bd 3d 82 61 11 3d 7f 34 01 3d 41 83 e9 3c
       0.09265944 0.03549338 0.031544205 0.02850497
0001a0 df 2e 36 bd e1 3e 80 3a f8 10 ad 3d 05 9a 2f 3d
       -0.044478294 0.0009784364 0.08450502 0.042871494
0001b0 a4 9e e3 3c 8c 34 a3 3d bc f7 a3 3d a4 ad 1c 3d
       0.027785607 0.07969007 0.08006236 0.038251534
0001c0 6b 5b cd bc 30 b3 42 bd d8 f4 87 bd 7e aa 96 bd
       -0.025068006 -0.047534168 -0.06638497 -0.073567376
0001d0 28 d1 e0 3d e5 ca cc 3d cb 87 b7 bd 0d d1 dc 3d
       0.109773934 0.099996366 -0.08961447 0.10782061
0001e0 9f e1 ef bc b3 6f 05 bd f5 e9 1b 3d 4e 56 d2 bd
       -0.02928239 -0.032577228 0.038064916 -0.102703676
0001f0 f3 91 87 bd d8 22 cb bc 7e a8 16 bd a5 9b 86 3d
       -0.066196345 -0.024796888 -0.03678178 0.065726556
000200 09 32 04 bd d1 29 d0 bd ce 00 f2 bd 1f be ef 3d
       -0.03227428 -0.10164226 -0.1181656 0.117061846
000210 d2 81 7d 3d 35 22 0c be 6d ea de bd 8f c9 bf bd
       0.061891384 -0.13684924 -0.10884557 -0.09364616
000220 aa 4d e0 3d 2e 7a 7d 3d 6c b9 2d 3d ea 87 88 3d
       0.10952313 0.061884098 0.04241316 0.066665486
000230 26 58 bc 3c 8b 11 c2 3d 89 6f d5 bd ed c4 c7 3d
       0.022991251 0.09476002 -0.10421664 0.097543575
000240 95 71 67 3d 56 ad 23 3d c8 62 9e 3d a1 85 e7 bc
       0.056504805 0.039960228 0.07733685 -0.028261961
000250 46 59 86 bd 49 50 15 bd 73 07 c8 bd c5 d4 dd bb
       -0.06559996 -0.03645352 -0.09767046 -0.006769749
000260 8f 15 75 3d c5 23 5e 3d db 2c 05 bc 14 09 42 3d
       0.059835013 0.05423333 -0.00812837 0.04737194
000270 2b eb ee bd ac 16 ae bd 03 d3 cd bd fc f9 04 3e
       -0.116659485 -0.08500418 -0.10050013 0.12985986
000280 dd 3e e2 bd 68 1d 71 3d 29 f2 a2 3d 5c 9f c7 bc
       -0.110471465 0.058865935 0.07956345 -0.02436798
000290 8e fd 95 bc 95 96 be 3d 7e 7a a0 bd 7a fe e5 bd
       -0.01830938 0.09306065 -0.078358635 -0.11230178
0002a0 3e ba a0 bc d7 0e 32 3c b6 61 87 bd d2 f4 d1 3c
       -0.019620057 0.010867796 -0.06610434 0.025629435
0002b0 8c 18 bf 3d 97 c9 83 3d 5c 51 4b 3d 85 c5 c3 3d
       0.09330854 0.064349346 0.049638137 0.09559158
0002c0 40 59 85 bd 00 a8 dc bb 74 ae f1 3c 53 e7 d0 3c
       -0.06511164 -0.0067338943 0.029502131 0.025500929
0002d0 6c 8d 58 bd 5a 1a b5 3d 9c ae db bd 91 7b 81 bd
       -0.052869245 0.08842917 -0.107266635 -0.063223965
0002e0 44 3a 03 be 49 82 2d 3d 60 27 bf bd 66 bd aa 3d
       -0.12815195 0.042360578 -0.09333682 0.08336906
0002f0 cb 6a cb bd 60 1c 42 3d b0 6b ee 3d 34 09 e1 3d
       -0.099324785 0.04739034 0.116416335 0.109880835
000300 85 5a 0e 3d a9 35 50 3d 86 df 5d 3c c1 1a 93 3d
       0.034754295 0.050832424 0.013542062 0.07182837
000310 67 1b 4e bb 46 3b c1 bd 02 8d 01 3e f4 6b b1 bd
       -0.0031449439 -0.09435134 0.12651446 -0.086631685
000320 54 6a fb 3d 86 87 e5 3a 02 a1 8d 3d df b0 59 3b
       0.1227614 0.0017511703 0.069154754 0.0033216996
000330 b3 da 8a 3d a8 2e 92 3d 0e e2 e2 bd 5b ec a2 3d
       0.06779995 0.07137805 -0.11078273 0.079552375
000340 cf 05 4f bd c6 51 ec bd 77 5b d9 bd 70 2d 0a bc
       -0.05054265 -0.115390345 -0.10613149 -0.008433685
000350 25 36 9b 3d 98 21 bc bd 48 5c f8 3c 61 6e 27 3d
       0.075786866 -0.09186095 0.03031744 0.04087675
000360 29 23 e1 bd 02 7f c7 3c 4a d8 87 bd 68 4d cd 3c
       -0.109930344 0.024352554 -0.06633051 0.025061324
000370 7d 5a 8a bc b9 9f cd 3d ac f6 de bd 72 ba 85 3d
       -0.016888851 0.1004023 -0.10886893 0.06529702
000380 ce cf 0b bd dc 4a ba 3c 25 b7 33 3b 5d 75 fe bd
       -0.034133725 0.022740774 0.0027422395 -0.12424729
000390 68 0a 48 bd 2f be 95 bb 7f 17 8f 3b 5e f4 60 bd
       -0.04883805 -0.004569791 0.0043668146 -0.054920547
0003a0 a7 76 a8 3d 83 45 66 bd bd 01 7e bd 8a 9f 8a 3d
       0.08225756 -0.056218635 -0.062013377 0.06768711
0003b0 dd 6f bc bc fb 17 2e 3d c6 68 97 3d fd 9a 7b bd
       -0.02300256 0.04250334 0.07393031 -0.061427105
0003c0 e2 0d 1b 3d 76 7d c3 3d e2 e0 63 3c f0 8a c9 3d
       0.037855037 0.09545414 0.013908597 0.09840953
0003d0 2c e9 59 3d 16 1e b0 3d 1a 05 d7 3d 5b d7 92 3d
       0.053200886 0.085994884 0.1049902 0.07169982
0003e0 14 29 17 3d 37 4b 87 3d 6e c8 94 3d 9c 86 eb 3a
       0.03690441 0.06606143 0.072647914 0.0017969194
0003f0 c6 8b 75 3c fd e9 8a bd 6d 30 99 bb b3 30 80 3d
       0.014986938 -0.06782911 -0.0046749623 0.06259289

encoder.rnn.weight_hh_l0 f4 [192, 64]
000000 13 78 97 bd 15 03 ea 3d 32 8c 8c bc a9 68 05 bc
       -0.07395949 0.11426369 -0.017156694 -0.008142629
000010 e4 69 61 3d 1f a0 8c bd 39 eb 2f 3b 5f 5d 34 bd
       0.055032626 -0.06866478 0.0026843084 -0.044034358
000020 72 6d ab bd 47 7a a5 3d c1 47 bd 3d c7 1f 64 3d
       -0.083704844 0.08079963 0.092422016 0.055694368
000030 e6 0c fa 3d 4c 0f 59 3d 7b 71 dc 3d af 0d ca bc
       0.122094914 0.052993104 0.10763832 -0.024664728
000040 28 87 b7 3d 5f c3 fb 3c c6 ac 1c 3b 59 ec cd 3d
       0.08961326 0.030732809 0.0023906692 0.10054845
000050 87 76 c1 bd 38 02 28 bb e4 a4 79 bd 6d 01 e6 3d
       -0.094464354 -0.0025636088 -0.060948268 0.11230741
000060 4f af 46 bc 05 88 48 3d 44 67 ac 3d 58 ff 88 3d
       -0.012126758 0.048957843 0.08418134 0.06689328
000070 49 03 51 bd fb 48 4a 3c c5 bc 81 3d 56 35 56 bd
       -0.051028524 0.012346501 0.06334833 -0.05229696
000080 d3 c4 46 3a 25 3d ca bd ef d1 e4 3c 63 76 b7 3d
       0.00075824297 -0.09874944 0.027932135 0.08958127
000090 d3 ec 38 3c ef 65 95 3c 48 9e d8 3d 22 0f cd 3b
       0.011286932 0.018237082 0.10577065 0.0062579075
0000a0 d3 0f 2a bd 6e 35 ce 3d db 0a ab bd fc 58 80 3d
       -0.041518997 0.10068785 -0.0835168 0.062669724
0000b0 41 cf 8e 3d a0 65 d1 3a 16 60 09 be 4c 9e 66 3d
       0.06973124 0.0015975721 -0.1341556 0.056303307
0000c0 c5 06 a5 3d 71 1c 11 bc c9 69 a8 3d f7 08 88 3d
       0.08057932 -0.008856879 0.08223302 0.06642335
0000d0 b2 b5 ce 3c 84 cd ef 3d 06 cf 78 bd 2e 57 76 3c
       0.025233123 0.11709121 -0.060744308 0.015035434
0000e0 9a c6 bd bd 78 73 dc 3d 37 fb 31 3d c3 92 e9 3d
       -0.09266396 0.107642114 0.043452468 0.11404946
0000f0 74 4f c3 bd 70 6f da 3d c8 ed a5 3d e7 76 e6 3d
       -0.09536639 0.10665786 0.08101994 0.112531476
000100 fa 17 84 bd 95 e7 9a bd d4 03 97 39 35 10 b0 3d
       -0.06449886 -0.07563702 0.00028803817 0.08596841
000110 5b 4d c3 3d 4c a7 d2 bc c8 37 b0 bc c3 ec 13 bb
       0.09536239 -0.025714539 -0.021510974 -0.002257154
000120 9a 17 13 bd 0c 21 da 3c c5 07 d1 3c f3 e2 90 bc
       -0.03591118 0.026627086 0.0255164 -0.017686343
000130 9c ed ac bd 6a 55 af bb da e6 a3 3d 11 1c 9a bd
       -0.08443758 -0.0053507583 0.08003016 -0.075248845
000140 f8 f0 b1 3d 9a 5c 27 3d f6 a6 c3 3c e5 eb 35 3d
       0.08688539 0.040859796 0.023883324 0.04441442
000150 53 ff b9 3d ac 06 fb 3d 48 f1 86 bd d7 1b 5b 3d
       0.09081902 0.12257132 -0.065889895 0.053493347
000160 32 15 ac 3d 04 dd 13 be 5b 59 9d 3d 3d d4 fa bd
       0.0840248 -0.1443978 0.07683059 -0.122475125
000170 39 90 af bd 23 5a be bd f1 e8 90 bd 58 44 88 bd
       -0.0857243 -0.09294536 -0.0707568 -0.066536605
000180 f9 c1 d8 3c ad 18 96 bd fc 70 18 bd c4 52 bf bd
       0.02645968 -0.07328925 -0.037217125 -0.09341958
000190 45 65 4f bd 75 cb b3 3b 2d 89 fb 3c 3c 78 71 bd
       -0.050633688 0.0054869005 0.030705059 -0.058952555
0001a0 ac fa c9 3c fa 99 4e 3d 5c fe a4 3d 0a ba 60 bc
       0.024655662 0.050439812 0.08056328 -0.01371623
0001b0 74 c6 8b bd 94 50 98 3d 17 c8 8d bd 7d 02 d7 bd
       -0.06824961 0.07437244 -0.0692293 -0.104985215
0001c0 c9 25 ae bd 7d 56 90 bb 95 fd b0 3c e2 38 15 3d
       -0.08503301 -0.0044048415 0.021605292 0.0364312
0001d0 52 03 9d 3d ae 9c 66 bd 84 07 e1 3d 25 fa fe 3c
       0.07666649 -0.056301765 0.109877616 0.031125138
0001e0 e1 7f a4 3c 47 cb b6 bd 24 a2 21 bd 5e 7d a3 3d
       0.020080509 -0.08925491 -0.03946127 0.07982896
0001f0 53 bd 46 bd 0e 2c 9f 3d 7d c4 f5 3c 3b 08 88 bd
       -0.048520397 0.07772075 0.03000092 -0.06642195
000200 3a 68 d9 3d 88 30 21 3c fa 5d ce 3b dd c4 88 bb
       0.10615583 0.009838231 0.006297824 -0.0041738586
000210 34 70 07 bc 1d 60 3a bc 30 35 32 bd ed 14 5c 3c
       -0.008266497 -0.011375454 -0.043507755 0.0134327235
000220 f4 26 0f bd 64 6c e4 3d de 59 6f bd a3 35 da bd
       -0.034949258 0.11153486 -0.058435313 -0.10654762
000230 8d 11 f4 3d bf fe 8d 3d 9e 2f b8 bd 6a 4e c6 3d
       0.1191741 0.069333546 -0.08993457 0.09682925
000240 fb e4 d9 bd 28 dd 33 bd 9e ec 86 bd 6a 58 b2 3c
       -0.10639378 -0.043912083 -0.065881 0.021770675
000250 a0 d0 eb 3c c8 92 5f bd 6f b2 59 bd ca ce 7d bd
       0.028786004 -0.05458334 -0.053148683 -0.061964788
000260 1b 18 bb 3d 36 bb 7d 3d 77 2b 90 3c 98 92 b7 38
       0.09135457 0.061946116 0.01759885 8.753425e-05
000270 94 71 5c 3c 17 95 bf bc ca 07 18 bd bb f6 e4 3d
       0.0134548135 -0.023386521 -0.037116803 0.111798726
000280 d0 e1 76 bd d0 09 97 bd 97 a2 2e bc c0 06 10 3d
       -0.060273945 -0.073749185 -0.010658882 0.035162687
000290 4d 38 d7 bd 66 80 36 3d b2 87 b6 ba 5c c0 3f bd
       -0.105087854 0.044556044 -0.0013925938 -0.046814308
0002a0 8d 89 35 3c 20 b6 12 3c b3 5b f9 bd 10 aa 61 3d
       0.011080158 0.008954555 -0.12175693 0.055093825
0002b0 76 ed 4f 3d 38 55 98 bd 38 a5 23 3d e1 51 94 bd
       0.05076357 -0.07438129 0.039952487 -0.0724218
0002c0 9f c9 99 3d 16 9c 56 bd ce ce 4d 3d b7 f4 a1 3c
       0.07509159 -0.05239495 0.050246052 0.01977001
0002d0 8f e4 72 ba 8b f2 80 bd 19 91 61 3d 87 78 d7 3c
       -0.0009265625 -0.062962614 0.055070017 0.02630259
0002e0 9e b9 63 bd 23 e8 b5 bc 55 17 15 3d 5f aa df bd
       -0.05559694 -0.022205418 0.036399204 -0.109211676
0002f0 84 80 9c 3c ff d7 bb 3c 2f 86 03 be 62 b3 96 3c
       0.01910425 0.022930143 -0.12844156 0.018396083
000300 e5 98 ca bd d9 8c ee bd 69 54 ef 3d 40 d2 77 3d
       -0.098924436 -0.11647958 0.11686022 0.060503244
000310 52 1c ad 3d 00 61 e8 3d 55 17 99 bd ae e4 5d bd
       0.08452667 0.11346626 -0.07475153 -0.054173164
000320 1e b2 e2 ba 37 89 74 3d e3 8b 7d ba 93 73 8b bb
       -0.0017295515 0.05970117 -0.0009672029 -0.004255721
000330 4e 0b fd 3d 49 5d 8f bd 08 df 6a 3d 0c 5c 8d 3d
       0.12355672 -0.070002146 0.057341605 0.06902322
000340 de ad 87 bd 6a d3 51 3d ae b4 a7 3d 79 c3 b6 bc
       -0.066249594 0.05122701 0.08188759 -0.022310006
000350 e1 32 ac bd 8b eb a2 3d 59 50 ae 3d 45 ad 53 3d
       -0.08408142 0.079550825 0.08511419 0.051678915
000360 ec e5 92 3c e6 39 85 3d ca ff 34 3d fd 1c 30 bd
       0.0179319 0.06505184 0.044189252 -0.042996395
000370 73 5d bd bd a7 6a 4b bd 47 b5 f8 3c 24 33 41 bd
       -0.0924634 -0.04966226 0.030359877 -0.047167912
000380 ea 15 27 3d 2b e8 7d bd bb d0 be bd 70 bd be 3d
       0.040792383 -0.06198899 -0.09317156 0.09313476
000390 dd 2d af bd 81 75 2b 3d 2e 27 d7 3d be 29 69 3c
       -0.085536696 0.041860107 0.1050552 0.0142311435
0003a0 e1 e3 a6 3d e7 fb 0b bd 7e 40 db bd 51 13 71 bd
       0.08148933 -0.03417578 -0.1070566 -0.058856312
0003b0 df 17 32 bd 28 82 a8 bd 9e 80 99 bd a4 c7 6c 3d
       -0.043479796 -0.0822795 -0.07495235 0.05780758
0003c0 2f 15 db 3d 24 f7 9a 3d 6e 0c 2e 3d c0 dd d5 bd
       0.106974 0.075666696 0.042492323 -0.10442686
0003d0 ff 88 a4 bc 50 c2 4f 3d ed 87 df 3d 57 fb 9a bd
       -0.020084856 0.05072242 0.10914598 -0.075674705
0003e0 10 8a 97 3d e2 8a 8a 3d b5 e1 16 bd 2b b3 dd bd
       0.0739938 0.06764771 -0.036836345 -0.10825189
0003f0 ad 1b 83 3d 16 9b 91 3d 8f a5 e7 bd fc 0c d0 3d
       0.06401763 0.071096584 -0.11310875 0.101587266

encoder.rnn.bias_ih_l0 f4 [192]
000000 f5 2f b3 bd 56 f0 d6 3b 99 91 a7 3c 98 99 97 bc
       -0.087493815 0.006559412 0.020455169 -0.018505856
000010 ed 0f 5b bd ea 37 25 3c 4e 4b 4f bc cd 7a 37 bd
       -0.053481985 0.010084132 -0.012652231 -0.044794846
000020 17 08 a0 3d e7 1a 59 bd d6 dd ed bd 9f 88 e9 bd
       0.07814043 -0.05300417 -0.116145775 -0.114030115
000030 53 23 1d 3d 33 e6 a6 bd f4 f2 cc bd 29 88 1b bd
       0.038363766 -0.08149376 -0.10007277 -0.03797165
000040 22 af a5 3d 00 d9 90 3d 57 5d d4 3d 4a 77 9f bd
       0.080900446 0.070726395 0.10369366 -0.077864245
000050 6d fe ae bd e1 da 65 3d 00 cb e7 3d c7 40 83 bc
       -0.085446216 0.056116942 0.11318016 -0.0160221
000060 6b 17 f6 bd 2f a3 e1 3d 42 af b1 3d 98 2e c0 3d
       -0.120161854 0.11017453 0.08676006 0.09383887
000070 9c d1 47 3d 15 d3 67 3d 7f 5f 23 bb 84 67 a5 3d
       0.048783883 0.056597788 -0.0024928746 0.08076385
000080 ad bd 32 3d 4e 66 b3 bd 28 67 45 bd 37 a7 d9 bc
       0.04363792 -0.087597474 -0.04819408 -0.026568992
000090 ce 6a fb 39 be b9 ba 3d f0 05 ae 3d 3a d6 a9 bc
       0.00047954026 0.09117459 0.08497226 -0.020732034
0000a0 e5 a2 4a bd 15 81 15 bc 52 d4 02 3e ba 71 ef 3d
       -0.049471755 -0.009125014 0.12776306 0.116916135
0000b0 74 da 1b 3c a6 87 27 bc 38 1d 93 3d 1b 2e b9 bd
       0.0095125325 -0.010225212 0.071833074 -0.09041997
0000c0 33 9f 54 bd 2c 11 e2 3d e6 8a 05 3e c9 19 90 bb
       -0.051909637 0.110384315 0.13041267 -0.004397605
0000d0 11 ce d2 bd ee 50 b4 3d c4 09 6c 3d 2f 58 25 3c
       -0.1029321 0.088044986 0.0576265 0.010091825
0000e0 3e c5 f0 3d 32 9a d6 bd cf ad 19 bc ad 6c 99 3d
       0.11756371 -0.10478629 -0.009379818 0.074914314
0000f0 b2 ac 2c bd 01 31 db bd c7 63 85 ba fb 60 bf 3d
       -0.042156883 -0.10702706 -0.0010176831 0.093446694
000100 e2 23 d1 b9 a9 19 6f bc d4 01 1b be 35 89 ea bd
       -0.0003989032 -0.01459352 -0.15137416 -0.114519514
000110 fa 09 0b bd b6 5b 05 3e cc d6 4c 3d dc 8b 15 3d
       -0.03394506 0.13023266 0.050009534 0.036510333
000120 d1 cd 24 be 9b cb 39 3d c6 f7 a4 bd fe 75 11 3e
       -0.16094138 0.04536019 -0.080550715 0.14205167
000130 49 a3 0d bd f1 29 4b bc d5 48 00 bd 5a 96 25 be
       -0.03457955 -0.012400136 -0.031319458 -0.16170636
000140 d8 d3 9e bd 0b 2a 62 3d a5 a8 c3 bd 56 80 eb bd
       -0.0775525 0.055215877 -0.09553651 -0.114990875
000150 66 85 8b 3d 3c b7 c8 3d 0f fc 98 bd 8a 71 4c bd
       0.06812553 0.09800574 -0.07469951 -0.049912967
000160 03 6e 93 3d 3c a6 61 bd 4b 2c 08 be 64 49 fa 3c
       0.071987174 -0.055090174 -0.13298146 0.030552574
000170 be ed 8c 3d e9 14 28 be 95 98 05 be 6e e8 ce 3c
       0.06881283 -0.16414227 -0.13046487 0.025257315
000180 7c aa b1 bd b1 22 56 3c 4a 2c fe 3d 61 d5 5d 3d
       -0.086750954 0.0130697945 0.12410791 0.054158572
000190 fb f0 bb 39 e7 82 df bc 6f 1b ee bc 2c 8b a0 bd
       0.00035846964 -0.027284099 -0.029065816 -0.07839045
0001a0 95 78 eb bd a3 b7 8c bd 39 f4 9d bd 5f ce 21 3d
       -0.114976086 -0.068709634 -0.077125974 0.03950345
0001b0 65 55 9e 3d b4 45 2c bc dd 1d 7f bd 5d 89 24 bb
       0.077311315 -0.010514665 -0.06228434 -0.002510629
0001c0 c2 91 17 3d aa 4a 3a 3d 3c b5 f3 bc e6 b4 06 be
       0.03700424 0.04548136 -0.029749505 -0.13154945
0001d0 f7 28 05 be 2e 2d 6d 3c 87 27 5e 3c a0 db b7 bc
       -0.13003908 0.014476104 0.013559229 -0.022443593
0001e0 7f 03 00 3d 3e 76 04 3d 2f 7c 8a bc c2 10 ce bd
       0.031253334 0.032339327 -0.016904918 -0.1006179
0001f0 d8 4c c9 bd 9f 40 98 bd 3d 81 16 bd 0d 79 e4 bd
       -0.0982911 -0.074342005 -0.036744345 -0.11155901
000200 a2 5c f9 bd 91 aa 63 bc 2b a2 50 bd e7 ca d9 bd
       -0.121758714 -0.013895647 -0.050935905 -0.10634404
000210 99 84 a6 bd 50 0f ca bc f1 52 77 bd 2a 51 b3 3d
       -0.0813076 -0.024665505 -0.060381833 0.08755715
000220 97 68 5f bc ea ae 05 bd fb 66 aa 3d 3a 45 e7 bd
       -0.013635776 -0.032637514 0.08320423 -0.11292501
000230 eb 9c 23 3d 22 5f 2d bc 63 00 d2 3d 10 a2 15 3c
       0.03994457 -0.010581763 0.1025398 0.009132877
000240 8b 02 41 bd b6 9b ac bd 86 3d a9 bd f9 69 6e bd
       -0.047121566 -0.08428137 -0.08263688 -0.058206532
000250 af 2d e6 3d 8a 98 b7 3d ff a3 f3 3d 24 4b 3e bd
       0.11239182 0.089646414 0.11896514 -0.04645838
000260 13 bc 16 3d ee ea ae bd ad e8 1b bd eb 95 e6 3d
       0.036800455 -0.08540903 -0.038063694 0.11259063
000270 dc 4f b3 bd 48 2b f8 bd 82 80 ac 3a 6a 06 9b 3c
       -0.08755466 -0.1211763 0.0013160857 0.018923957
000280 c8 11 cb 3d a7 8a 35 3d d6 42 c3 3c 1b 65 fe 3d
       0.09915501 0.044321682 0.02383558 0.12421628
000290 20 63 c0 3d 31 25 92 bd 6a 58 e4 bd 39 5c f1 bd
       0.093939066 -0.07136 -0.11149676 -0.11785168
0002a0 a3 72 fc 3c 53 cf fb 3c 09 6c da bc 6b 67 bc 3d
       0.030816382 0.030738508 -0.026662843 0.09199413
0002b0 40 1a ca 3c bc 1c 8c 3c c7 7d 90 bc 24 fd 99 3d
       0.02467072 0.017103545 -0.0176381 0.07518986
0002c0 41 33 37 3d 0b 99 ab bd 59 d8 1f bd ab 4a 71 3d
       0.044726614 -0.083788 -0.039024685 0.0589091
0002d0 4d dd 34 3d c9 77 da bc e0 f3 f1 3d d6 7f d1 3d
       0.04415636 -0.026668446 0.118140936 0.10229461
0002e0 a3 63 55 bd db f0 c4 3d 8e 00 c3 3d 84 c9 b6 3d
       -0.052096974 0.09616252 0.0952159 0.08925155
0002f0 19 88 36 bd 37 40 6b 3d fd 1d 89 bd b9 8e 84 3d
       -0.044563387 0.057434287 -0.06695173 0.06472535

encoder.rnn.bias_hh_l0 f4 [192]
000000 80 93 8a 3a 3d 9e 95 3d aa 4f 98 3d 47 a3 23 3d
       0.0010572523 0.07305572 0.0743707 0.039950635
000010 c6 87 19 3d 49 a9 7f bd 8a 83 c7 bd c4 97 ca bd
       0.037483 -0.062417302 -0.09741886 -0.09892228
000020 11 37 81 bb ab 1f c1 bd ce 9e 04 bd 8c 69 64 bc
       -0.003943332 -0.09429868 -0.03237801 -0.01394118
000030 29 1c fe bd b7 92 01 3e a6 a3 eb 3b 74 20 a4 3d
       -0.12407715 0.12653624 0.0071911393 0.080140024
000040 9f 53 e6 bd fd ed 89 3d 1d 57 91 bd ce 15 1d 3d
       -0.11246418 0.06734846 -0.07096694 0.038350873
000050 41 48 c2 3d aa d1 c3 3d 63 ad f0 bd a8 88 77 bd
       0.094864376 0.095614746 -0.11751821 -0.06043306
000060 40 01 66 bd f7 74 0d 3d 9f c8 95 bd 62 90 b2 3d
       -0.056153536 0.034535374 -0.07313656 0.08718945
000070 df 28 b7 bd 05 c4 e8 3b 89 99 92 3c cf be 95 bd
       -0.089433424 0.0071034455 0.017895477 -0.073117845
000080 60 8b 07 bc c8 4a eb bd 10 7a 8f bd 3a 4d 00 be
       -0.008272976 -0.11488873 -0.070057034 -0.1252946
000090 8a cb 35 3d 1e 59 29 bd 0d ad b2 bc b4 12 62 3d
       0.044383563 -0.041344754 -0.021811033 0.055193618
0000a0 ed e9 7f 3d 62 e7 7e 3d 4a d9 fa 3c 9f e0 e9 3d
       0.06247895 0.062232383 0.03062119 0.11419796
0000b0 ad 30 d4 bc 16 f8 d1 3d e0 42 90 bd 25 14 f3 bd
       -0.025902117 0.10252397 -0.070440054 -0.11869077
0000c0 c9 03 c8 3b 7f da 3c bd 25 a7 94 bd 90 1c a5 bd
       0.006103967 -0.04610681 -0.07258443 -0.080620885
0000d0 2e 60 8a bc f2 e6 47 3c 5b 94 a9 bb f6 99 fd bc
       -0.016891565 0.012201058 -0.005175156 -0.030957203
0000e0 ec 8d cc 3d a8 8e 79 3d 68 1d 88 bd 11 ae b4 bd
       0.09988007 0.060927063 -0.06646234 -0.08822263
0000f0 07 0a 5f 3c 46 bb 42 3d 55 b1 ce 3d 8e 27 a9 3d
       0.013613231 0.04754188 0.10092417 0.082594976
000100 4b 52 8c 3d 6f ad 1b bd f1 4f 2b be 0f 7a 87 3c
       0.06851634 -0.038007196 -0.16729714 0.016537694
000110 e5 3e 80 bc 52 b4 cb 3d 6b ee 98 bd ba ba 0f be
       -0.01565499 0.09946503 -0.074673496 -0.14036074
000120 b5 09 e8 bd 5a b9 aa bd 6e ce 76 be 60 92 19 3e
       -0.113299765 -0.08336134 -0.24102184 0.14997244
000130 7e 75 f5 37 52 33 d4 3d f8 4b 16 3e 90 a9 18 be
       2.9260988e-05 0.10361351 0.14677417 -0.14908433
000140 8f a7 95 3d 4c bf 06 3e 65 00 48 be 86 c2 32 bd
       0.0730735 0.13158911 -0.195314 -0.043642543
000150 3e 7f 91 3d a9 7f de 3c ff ea 3c bd 2d db ef bd
       0.07104348 0.027160482 -0.046122547 -0.11711726
000160 6e 80 b1 bd 69 d5 ba 3c f9 4c 05 be 5c 59 8f 3b
       -0.08667074 0.02280684 -0.13017644 0.004374666
000170 d2 50 84 bd b4 26 17 be b2 9a af 3d b7 5a 14 be
       -0.06460728 -0.14760858 0.08574428 -0.1448773
000180 b2 4b 1c 3d ab f0 60 3d c8 44 76 bd 92 2b 97 bd
       0.038158126 0.05491702 -0.06012419 -0.07381357
000190 bb 80 02 bd 2b 62 07 3e 1b bf d9 bc 0e 5c 0e 3d
       -0.03186105 0.13221042 -0.026580384 0.03475576
0001a0 49 fe d5 bd 05 32 09 be 2c 6d 4c 3d 5b 60 8e 3d
       -0.10448892 -0.13397987 0.049908802 0.06951972
0001b0 92 38 80 3d ce 6b e2 3c af f4 93 3d 0c 4a f4 3b
       0.0626079 0.027639296 0.07224404 0.007455116
0001c0 e8 66 e4 bd ed 2e 6b bd fe 0d f7 3d 3b 63 e6 bd
       -0.1115244 -0.0574178 0.12063216 -0.112493955
0001d0 0a 9a a8 bc 48 f3 b8 bd 4b a6 87 3d d1 8f 80 bd
       -0.020581264 -0.09030777 0.06623515 -0.06277431
0001e0 6d 7e 24 3c 8d 05 1b ba c3 e5 9a 3d e7 37 6b 3d
       0.010039908 -0.0005913608 0.07563355 0.05742636
0001f0 21 f3 a0 3d 98 e7 03 be 06 ea 0d be 2c 63 b1 bd
       0.07858873 -0.12881315 -0.13858804 -0.08661494
000200 e6 d4 59 3d ef d1 79 3d f3 5f f0 bd 4c 03 cb bd
       0.05318155 0.060991224 -0.11737051 -0.09912738
000210 d3 a6 0c bd c3 b3 81 bc e9 aa bd 3d eb a0 0f 3d
       -0.034338783 -0.015832787 0.09261114 0.035065573
000220 cf db be 3d 8d 49 cd bd 1e dd e0 3d 47 08 de 3d
       0.09319269 -0.10023794 0.10979675 0.108414225
000230 68 3c 91 3d d4 c8 99 3c 11 b4 e4 3d 97 06 27 bc
       0.070916 0.01877252 0.111671574 -0.010194442
000240 1d 96 5c bc 24 76 5b bc 02 e6 1a 3d 2a 8e 32 3d
       -0.013463524 -0.013394866 0.03781701 0.04359261
000250 73 1b d5 3d a3 9e a1 3d 4c 9e 6e 3d 5c a4 00 3d
       0.10405626 0.07891586 0.058256432 0.031406745
000260 8f c5 e9 3c 15 ab ba 3d 88 ff 3b bd be bd ad 3d
       0.028536586 0.091146626 -0.04589799 0.08483456
000270 ae 7c 80 bd 50 e3 4e bd 4b 2a 40 3d 32 ba ac bd
       -0.06273781 -0.05050975 0.046915334 -0.084339514
000280 42 88 4e bd a2 7e f8 3c 1c ba 34 bb 9f 95 9b 3d
       -0.050422914 0.03033382 -0.002757675 0.07596897
000290 1f f9 ae bd 9d b2 e2 bd ba 3f 5a 3c 7c ad 4b 3d
       -0.0854361 -0.11069224 0.013320858 0.049725994
0002a0 48 3d 52 3c e0 b1 b7 bd a7 e3 99 bd 44 00 46 3d
       0.012831993 -0.08969474 -0.07514124 0.048340097
0002b0 15 a1 9a 3c 5d 35 92 3d f0 bf 84 bd 21 7f be 3d
       0.018875638 0.071390845 -0.06481922 0.09301592
0002c0 89 6b f8 ba 43 25 18 3d c7 ac ab bd a6 42 4b bc
       -0.0018952946 0.03714491 -0.08382564 -0.012406027
0002d0 ed d6 f6 bc 73 f6 c9 bd a8 e8 9b 3d 14 80 2b 3d
       -0.030131781 -0.098614596 0.07612735 0.04187019
0002e0 89 d4 96 bd 8e 44 03 3d 57 3e e8 bc 70 64 f4 bd
       -0.073647566 0.0320478 -0.028350038 -0.119332194
0002f0 60 3d ab 3c e3 a5 c0 bc 28 ef a3 3d 68 85 23 bc
       0.02090329 -0.023516601 0.080046 -0.009980537

encoder.rnn.weight_ih_l1 f4 [192, 64]
000000 71 d5 94 bd 17 90 3e bd 61 cf 2b 3d 87 d7 bc bd
       -0.07267273 -0.046524134 0.04194582 -0.09220796
000010 f1 c0 1b 3c 0b dd b8 bd 8c 33 ce bd 21 de b0 bc
       0.00950645 -0.090265356 -0.100684255 -0.021590294
000020 30 f9 bf 3d be ba 65 bd 2c 2e 90 bd c7 f0 48 bd
       0.093737006 -0.056086294 -0.070400566 -0.04905775
000030 8d b2 ae bd 96 4e ae bc f8 77 d5 bd 9e 18 54 3d
       -0.085301496 -0.021277707 -0.10423273 0.05178129
000040 d1 29 f7 bd 5c 2b f3 bd 25 c7 f4 bd 0a 4f 9f bd
       -0.12068523 -0.118735045 -0.11952046 -0.077787474
000050 ef 7e f6 3c 96 c7 c2 3d 7d 6b 8c bd 94 13 99 3d
       0.030089824 0.09510724 -0.06856439 0.07474437
000060 20 d6 d1 bd b9 c0 c3 bd 40 25 2c 3d f9 e9 8a bc
       -0.10245919 -0.09558243 0.042027712 -0.01695727
000070 a6 4d 76 bd c2 b7 ef 3b 4d 03 21 3b 70 89 cc 3d
       -0.060132645 0.007315607 0.0024568618 0.099871516
000080 06 c9 25 3d d3 bc 67 ba 8a 3a cd bd 1e e6 23 bd
       0.040474914 -0.00088400877 -0.10020931 -0.04001438
000090 df f7 bd bd 49 76 bb bc 8e 21 02 bd ba 1e dd bc
       -0.09275793 -0.022883551 -0.03177028 -0.02699219
0000a0 3e 18 c5 bd 5e 34 56 3d eb ef 2f 3d 3e f0 5a bc
       -0.096237645 0.052296035 0.042953413 -0.013362942
0000b0 e4 1c 2d bd 25 83 fb 3c d7 69 aa 3d ac ac 40 3d
       -0.04226388 0.030702183 0.083209686 0.047039673
0000c0 01 dc 2f 3c b4 a2 6f 3c 57 12 af 3c ba 11 e5 3b
       0.010733605 0.014626194 0.02137105 0.0069906386
0000d0 94 24 0e bd 13 ab b6 bd 0b ba a7 3d bb 48 93 3d
       -0.034702852 -0.089193486 0.08189782 0.071916066
0000e0 f9 90 f8 bd 5e ba 98 3c c3 c2 b5 bd 0e 1b ec 3d
       -0.12137026 0.018643554 -0.088750385 0.11528598
0000f0 e7 5f 1a bc c3 8d 80 bd 1b 9e a5 bd 40 fb 94 3d
       -0.009422279 -0.06277039 -0.08086797 0.07274485
000100 d4 b2 da bc fc d3 74 bc 71 a8 ea 3d 39 b5 0e bd
       -0.0266966 -0.014943119 0.11457909 -0.034840796
000110 21 b2 8c bd 3e 9b 0e 3d 5c 75 f4 3c 0e c0 b8 bd
       -0.06869913 0.03481602 0.029841118 -0.090210065
000120 6b 08 3c 3d f0 09 a1 bd 22 f2 98 bd f3 e5 ba bd
       0.045906466 -0.078632236 -0.07468058 -0.091258906
000130 c0 0a 2e bd 38 ea 88 3b 98 a7 69 bd 3e 9c a7 bd
       -0.04249072 0.0041783117 -0.057044595 -0.08184098
000140 81 0b 32 bd bb 00 0b 3d ff 80 8f 3c 11 96 e9 bd
       -0.043468002 0.033936244 0.017517565 -0.11405576
000150 01 95 de bd 25 86 b0 3d 62 dc 3d 3c 53 e7 91 3d
       -0.10868264 0.08619336 0.011588188 0.071242
000160 cc 5b 09 bc 2d 1b de bd 2a 7c ea bd 6c 33 93 3d
       -0.0083837025 -0.10845027 -0.11449464 0.07187542
000170 27 c9 bb bc 6e ce 32 bd 03 0e 04 be a6 e3 80 3d
       -0.022923065 -0.043653898 -0.1289597 0.062934205
000180 f3 a6 b8 3c c8 bb c6 bd 86 1c 2a 3c ce de b3 bd
       0.022540545 -0.09703785 0.010382777 -0.08782731
000190 68 35 19 bd d1 01 87 bd a0 31 14 bd 2f 9a b3 bc
       -0.037404448 -0.06592143 -0.03618014 -0.021924106
0001a0 ab 91 d2 bd 9d 83 b5 bd 52 34 e1 bd 21 34 95 3d
       -0.1028169 -0.08862994 -0.109963074 0.072853334
0001b0 f6 3e a6 bd 9a 66 b8 3d 76 ad a4 3d d0 4d 9f bd
       -0.081174776 0.09003945 0.080408975 -0.077785134
0001c0 85 a3 bb 3d 54 45 ad b7 ae 7c c8 bb 2c e8 9c 3d
       0.09162048 -2.065549e-05 -0.0061183786 0.07661471
0001d0 6e a0 b6 3d 75 41 5b bb 90 0c eb 3d 1e 6b 9b bd
       0.08917318 -0.0033455763 0.114770055 -0.0758879
0001e0 d9 18 b9 3d e6 13 81 3d 50 3b d7 3d a7 09 91 bc
       0.090379424 0.063026235 0.1050936 -0.017704798
0001f0 e0 aa fe 3d a6 4b c2 3d 9d 93 9d bd d3 8a ea 3d
       0.124349356 0.09487085 -0.076941706 0.1145226
000200 60 47 c7 bd 80 da ee 3d 91 09 d3 bd 96 71 6d 3c
       -0.097304106 0.11662769 -0.10304559 0.014492413
000210 8f 1a cb bd 72 ff 79 3d 7c 6a 9a bd 8a 78 76 bd
       -0.09917175 0.061034627 -0.075398415 -0.06017355
000220 d9 af 3e bd 47 e0 c5 bd 96 ef 09 bd 10 fc 30 bd
       -0.04655442 -0.09661918 -0.033675753 -0.043209136
000230 29 4e d4 bd 99 bd a8 bd 71 fe 42 bd 95 27 0d 3e
       -0.1036647 -0.08239288 -0.047605935 0.1378463
000240 57 f5 4b 3d 50 0c cf bc ef b1 1c 3c 21 63 37 3d
       0.04979452 -0.025274426 0.009563907 0.04477227
000250 ea a1 05 3b 7f e5 89 bd 39 03 e0 bd f1 be b7 bd
       0.0020390698 -0.06733226 -0.10938115 -0.08971966
000260 09 f5 de 3c c4 50 ee ba ca de a3 bd 7a 12 8f 3d
       0.027216451 -0.0018182029 -0.08001478 0.06985946
000270 3f b5 af 3d 2c ee d6 3c c7 99 a0 3d 43 92 a0 bd
       0.08579492 0.026236616 0.07841831 -0.07840397
000280 e0 69 8a bd fd 7d 20 3d 7d ba eb 3d 15 55 88 3c
       -0.06758475 0.03918265 0.11510179 0.016642133
000290 c4 b5 c2 bd 71 6b 4c bc be 37 ee bc 72 04 92 bd
       -0.09507325 -0.012476788 -0.029079314 -0.07129754
0002a0 4e 5b 3e bd ce c6 f6 bc 2a ad c6 3c d1 3e a8 bc
       -0.046473794 -0.030124094 0.024252493 -0.020537766
0002b0 0b 19 ec 3d a3 59 b3 bd d7 28 c9 ba 46 f0 c3 3d
       0.11528214 -0.08757331 -0.0015347254 0.09567313
0002c0 9d 1a 8a bc de e9 05 be 63 41 da b9 a5 62 5d 3d
       -0.016858393 -0.13077495 -0.00041628917 0.054049153
0002d0 32 b8 ad bd df 3a 97 3d 24 89 a0 bb e0 75 c8 bd
       -0.08482398 0.07384276 -0.004899161 -0.09788108
0002e0 3d 58 a1 3c e4 e7 7c bd 71 0f 03 3e 90 1e da bd
       0.019695396 -0.061744586 0.12798859 -0.106503606
0002f0 48 b0 9d bd d7 a1 c7 3b 53 e3 18 3c bd 7e 8f bc
       -0.076996386 0.006092291 0.009331542 -0.017516488
000300 72 21 16 bd c4 14 8c bd 57 02 c6 3d e3 97 f9 3d
       -0.03665299 -0.06839898 0.09668415 0.12187173
000310 e4 cf 54 bd b7 2e 63 ba 95 31 e2 bd 77 6c db 3d
       -0.051956072 -0.0008666324 -0.11044613 0.107140474
000320 f7 8b 88 bd 27 37 88 bd 6e 81 7e bd b6 0d 08 3d
       -0.06667321 -0.066511445 -0.062135153 0.0332162
000330 ae 53 2a 3d 19 bc cd bd 35 04 0b bd f0 61 7f 3d
       0.04158371 -0.100456424 -0.03393956 0.06234926
000340 c8 4d ad 3c e4 73 df bd 54 df 8f 3d 19 36 d6 3d
       0.021155253 -0.10910776 0.07025018 0.10459537
000350 4a 8a 1f bc a1 1c f6 3d 76 b9 b0 3d 54 d7 c8 bd
       -0.0097375605 0.12017179 0.08629124 -0.098066956
000360 08 ec 61 bd a5 b1 eb 3d c1 83 14 bd c5 14 db 3d
       -0.055156738 0.115084924 -0.036258463 0.10697321
000370 4c f6 b5 bd 30 d6 db 3d 12 3a 27 3d 62 61 da bd
       -0.08884868 0.107342124 0.040826865 -0.106631055
000380 d3 9c e6 bd 64 b9 c6 bd 16 8e e1 3d f6 46 03 3d
       -0.112603806 -0.09703329 0.11013429 0.032050095
000390 f9 ce 15 3d e6 74 15 bd d8 3b ee bd 73 57 d0 3d
       0.036574338 -0.036488436 -0.11632508 0.101729296
0003a0 7c 6d 87 bd a3 05 a3 bc 48 b7 03 bc 90 36 d3 3d
       -0.06612679 -0.019900149 -0.008039303 0.10313141
0003b0 b8 87 41 3d 2d 64 21 bc b0 2e d4 3d f0 6d d2 3d
       0.047248572 -0.009850544 0.103604674 0.10274875
0003c0 ff 67 a7 bb b8 96 d4 3d d0 91 72 bd bd 59 db bd
       -0.005108833 0.1038031 -0.05922109 -0.107104756
0003d0 38 0f e0 3d d7 25 a5 bb 66 c9 80 bc 4f e2 a6 bd
       0.10940403 -0.0050399113 -0.015721034 -0.08148634
0003e0 35 5b 51 bd fd 2c 88 bd 36 61 a0 3a aa 90 dd bd
       -0.051112372 -0.06649206 0.0012236002 -0.10818608
0003f0 d0 99 7c 3d 3d fd c4 3c 2b fd 29 bc 0b 86 b0 bd
       0.061670125 0.024046535 -0.010375301 -0.08619317
