checkpoints/models/single_stock_daily/81to9/000001/model65.pth (torch, 292914 bytes, 16 tensors)

encoder.conv1.weight f4 [18, 6, 3]
000000 b9 54 18 be 2a 5a d8 bd 0c 57 f6 bd b7 fd 0c bd
       -0.14876069 -0.105640724 -0.120283216 -0.03442165
000010 76 f3 18 3e 72 b6 43 3d 04 37 74 be 4c 04 52 3e
       0.14936623 0.047781415 -0.23849112 0.20509452
000020 11 2b 57 3e 3c c5 46 3d aa e6 ca 3d 52 bc c7 3d
       0.21012522 0.04852794 0.09907277 0.09752716
000030 87 18 29 3e c3 bf 7a be f3 a5 0d be d9 b0 8e bd
       0.16513263 -0.24487214 -0.13832836 -0.06967325
000040 21 e1 b1 bd 5d c1 40 be 3a 53 64 be 0c 53 37 be
       -0.08685518 -0.18823762 -0.22297373 -0.17902774
000050 e8 da 1a bd 7e a2 4a 3e 51 d5 23 3e 2c 10 a3 3d
       -0.03780642 0.19788548 0.15999343 0.07962069
000060 7a 3d 13 be ff c6 a6 bd 52 97 75 3d 19 43 5f be
       -0.1437892 -0.08143424 0.059958763 -0.2180294
000070 b9 17 1b ba f3 f2 96 3d fd 24 58 3e 97 53 5c bd
       -0.0005916316 0.07370558 0.2110786 -0.053790655
000080 61 15 83 3e 6f 0e 41 3b 98 1d 34 be 6e cb 58 3e
       0.25602248 0.0029458066 -0.17589414 0.21171352
000090 01 b6 5c 3e 02 87 36 be 40 8b 00 be 8f a2 dd 3d
       0.21553804 -0.17824939 -0.1255312 0.10822021
0000a0 bd 42 2c be ce de 17 3e 64 06 05 be 54 68 03 be
       -0.16822334 0.14831087 -0.12990719 -0.12832767
0000b0 ac 30 e3 bd be 95 58 3e d7 7b f8 bd 5a e2 9a bd
       -0.11093268 0.21150872 -0.121329956 -0.075627044
0000c0 e8 bf 07 3e 1e 56 4d be 6c 45 ed bc d2 22 40 be
       0.132568 -0.20052382 -0.028963767 -0.18763283
0000d0 84 dd 78 be 7f 08 cb bd d5 ad b4 3c 08 98 3c 3e
       -0.24303252 -0.0991373 0.022055546 0.1841737
0000e0 f9 a9 6a be 46 57 97 bd 5e 8f 26 3d 97 f4 c4 3d
       -0.22916402 -0.07389693 0.04066407 0.09616964
0000f0 47 99 f8 3d 96 12 79 be ef 11 f3 bc 30 34 2b 3d
       0.1213861 -0.24323496 -0.029671637 0.041797817
000100 84 8b 68 be 9e ce 0b 3e ca c6 71 be d4 ce df 3d
       -0.22709471 0.13653037 -0.23610988 0.10928121
000110 cd 98 c2 3d 1b 21 7c bd 8f 77 8b 3d 37 70 37 3e
       0.09501801 -0.06155501 0.06809913 0.179139
000120 55 33 2b 3e 92 eb 09 3e 18 22 0b be d9 76 88 3d
       0.167188 0.13468769 -0.13587224 0.066632934
000130 38 47 3d 3e a7 f5 86 3d 46 99 24 3e 5a d0 02 be
       0.18484199 0.06589823 0.16074094 -0.12774792
000140 fc a3 64 3e 73 d0 9d bb c9 d2 48 be 50 5d 97 bc
       0.2232818 -0.004816109 -0.19611658 -0.018477112
000150 67 8a 55 3e 22 42 8e bd 6e 4d 1b 3a 6d c5 f7 bd
       0.20853578 -0.069462076 0.00059243187 -0.12098203
000160 5d 5d 11 be 8c 45 37 3d 5c 7a 09 3e 7b 1d a7 3c
       -0.14195772 0.04474406 0.13425583 0.0203998
000170 46 ad 68 bc 08 eb 97 ba 36 4d 4b be 16 90 f8 bd
       -0.014201468 -0.001159043 -0.19853672 -0.12136857
000180 09 4b 0d bc f1 b1 6c be e5 b3 0c 3e 16 2e 93 3c
       -0.008623847 -0.23114754 0.137405 0.017966311
000190 8e 2a e9 bc ae 93 45 bb f8 63 38 3e 14 d8 3a 3e
       -0.028462674 -0.0030147838 0.18006885 0.1824649
0001a0 a8 3a 02 3e cc b5 e4 3d dd 48 fc bd aa 31 a6 3d
       0.12717688 0.111674875 -0.12318585 0.081149414
0001b0 bf f6 27 be 36 2d c0 3d 7c 11 2f be 49 03 9b bb
       -0.1640272 0.09383623 -0.17096514 -0.004730616
0001c0 48 b3 38 3e fc 0b 2e 3e 71 58 5a 3e d5 b5 e5 3d
       0.1803714 0.16996759 0.213228 0.11216322
0001d0 1c 4b 0a 3e df 51 86 3d 87 76 47 3e bd a4 1d 3e
       0.13505214 0.065585844 0.19478808 0.15394874
0001e0 17 43 8d 3d 1e 40 7d bd ac dd ae bd 6d ba a0 bd
       0.06897562 -0.061828725 -0.08538374 -0.07848058
0001f0 fc 06 d7 3d df ac fa bd 01 8a 87 3d d9 2c 54 3e
       0.10499379 -0.12240004 0.06618119 0.20720233
000200 8f 8a 49 3e 05 47 30 be 35 7d 7a 3d 7d bf 10 3e
       0.19681762 -0.17214592 0.061154563 0.14135547
000210 d0 26 5e be da ce 06 3e 63 79 3b be 10 7f 30 be
       -0.21694493 0.13164845 -0.18308024 -0.1723597
000220 42 99 e9 bd c3 da ea bd bd fe c5 bd 27 70 65 3d
       -0.11406185 -0.11467507 -0.09667728 0.05601516
000230 d2 2e 89 3d a3 2d f2 3d ef b8 3b 3e dc 9e 11 be
       0.066983834 0.11825111 0.18332265 -0.14220756
000240 c5 00 5f be 26 5d 3d be b8 39 fe bd de 5e d3 bd
       -0.21777637 -0.18492565 -0.12413353 -0.10320829
000250 8d 56 c2 3d cf 8e 39 be 29 1f 34 be f5 0c c0 3d
       0.094891645 -0.18120883 -0.17590012 0.09377471
000260 bf 93 42 be a2 84 31 3d 15 c1 4e be b0 a8 81 3d
       -0.19001673 0.04333938 -0.20190842 0.06331003
000270 b0 57 18 3e ea 2f 60 be 6e da 5e 3d f6 22 a1 bd
       0.148772 -0.21893278 0.05440753 -0.078679964
000280 d1 e3 39 3e 13 e4 76 3e 87 09 55 be 2d 22 9b 3d
       0.18153311 0.24110441 -0.20804416 0.07574878
000290 da d1 1a 3e 16 83 58 3e a7 f8 34 3e 76 f1 ec 3c
       0.15119115 0.21143755 0.17672978 0.028923731
0002a0 f1 c0 5b 3c b0 2f 53 3d b0 70 3e be 72 d5 46 bd
       0.0134127 0.05155915 -0.18597674 -0.0485434
0002b0 87 88 96 bb 3e fe 39 be 83 1f 24 bc 3d a4 f3 bc
       -0.004593912 -0.18163392 -0.010017279 -0.0297414
0002c0 90 38 ea bd c3 8d 89 bd 81 bb 63 be a3 8b 79 3e
       -0.1143657 -0.06716492 -0.22239496 0.24369673
0002d0 6b dc dc 3d 60 16 27 3e a8 16 53 be 38 5e 7b be
       0.10784229 0.16317129 -0.20614111 -0.2454766
0002e0 16 03 38 3e 7e 13 49 bd a2 86 12 3d 78 f6 20 3e
       0.17969927 -0.049090855 0.035772927 0.1571902
0002f0 3c 46 c7 3c eb 00 4f bc 99 4e 28 3e 74 4f 43 3e
       0.024325483 -0.012634496 0.16436233 0.19073278
000300 86 fe 97 bd 2d 6e 37 be 94 4b 03 be 60 19 59 3e
       -0.07421593 -0.17913122 -0.128218 0.21201086
000310 58 ff 9a 3d 5b c8 93 3e 0e aa 85 bd 91 99 56 be
       0.07568234 0.28863797 -0.06526576 -0.20957018
000320 bf 6d c5 3d 1e 5e b9 bd b7 60 17 be 79 9f 23 3e
       0.09640073 -0.090511546 -0.14782988 0.15978803
000330 bd 9b 7a 3c 72 06 75 bd d5 89 6f 3e 65 df 54 3e
       0.01529592 -0.0598206 0.23392422 0.20788343
000340 7b 97 5e be b0 23 56 be 36 8b e4 bd a4 8b 53 be
       -0.21737473 -0.20912051 -0.11159365 -0.20658737
000350 16 56 ec bd 8f d0 49 3e 80 f6 03 be aa 33 76 3e
       -0.11539857 0.19708465 -0.12887001 0.24043146
000360 eb 9e 76 3d 7b f2 ec ba 67 16 c8 3c 09 9b 17 3d
       0.06021015 -0.0018077636 0.024424745 0.037013087
000370 f7 f9 98 3d ed 11 46 be 49 16 17 bc 8d 14 35 3e
       0.07469552 -0.19342776 -0.009221622 0.17683621
000380 2a 60 84 3e 8b 88 a3 bc af fb 20 be 8d 53 f7 3d
       0.25854617 -0.01996257 -0.1572101 0.12076483
000390 43 dd 66 be 04 1f 61 3e 09 58 20 3e d5 79 b5 3d
       -0.22545342 0.21984488 0.15658583 0.08861128
0003a0 9e c8 8f 3c 75 74 21 3e af d9 9f bd 76 c6 37 be
       0.017551716 0.15767081 -0.07805192 -0.179468
0003b0 ab f9 f5 bd d1 f3 3d 3e 1d 47 d6 bd ed 6b 40 be
       -0.12010511 0.1855004 -0.104627825 -0.1879117
0003c0 56 8f 84 3d 6d 12 ff bd e5 ae cb bc 03 e5 0c be
       0.06472652 -0.12454686 -0.02486367 -0.13759236
0003d0 f2 e8 88 3d e3 8d 3c bd 01 85 32 3d ba bc 01 3e
       0.06685056 -0.04603375 0.043583874 0.1266965
0003e0 22 83 23 be cd bd 7c bd 86 69 0a be 0e 02 5d 3e
       -0.15967992 -0.061704446 -0.13516816 0.21582815
0003f0 8c 5f 63 bd d3 6b d8 3d aa 36 81 3d f8 09 5e be
       -0.055511042 0.10567441 0.063092545 -0.2168349

encoder.conv1.bias f4 [18]
000000 52 f5 35 3e 16 68 51 3d e8 ee 1e be cd 8f 25 3e
       0.17769364 0.051124655 -0.15520823 0.16168137
000010 44 54 51 bd 9f c9 ee 3b 8d 99 53 3c e3 f5 85 bc
       -0.051105753 0.0072872187 0.012915027 -0.0163526
000020 49 98 74 3e 40 bf c2 3d 29 67 0d 3d 24 b5 7f bd
       0.23886217 0.09509134 0.03452221 -0.06242861
000030 16 86 0d 3d ea 9c 1d be b7 d3 1c bd eb 0b c1 3d
       0.034551702 -0.15391889 -0.038287845 0.09426101
000040 f5 74 70 be 1b e3 9b 39
       -0.23482116 0.0002973311

encoder.conv2.weight f4 [54, 18, 3]
000000 8e 83 53 bd 92 ed 83 3d ff 4c b9 bd 10 70 8e 3b
       -0.051639132 0.06441797 -0.09047889 0.004346855
000010 8c db 6e bd 1e b9 c2 3d 40 39 b4 bc 5c b2 d1 bd
       -0.058314845 0.095079646 -0.021999955 -0.102390975
000020 b8 01 33 bd 7e cb c8 3d 53 7f 54 3d 48 e6 16 3d
       -0.04370281 0.09804438 0.05187924 0.036840707
000030 24 ae ae 3d 11 4c 45 3d 1b 79 4f bc 4f e4 8d bd
       0.085293084 0.048168246 -0.012663151 -0.06928312
000040 82 0a 07 be 34 3a 90 3d 9c f5 c7 3d fb 7a 7b bd
       -0.13187602 0.07042351 0.09763643 -0.06139658
000050 93 f6 91 bd 8a bc 14 3d 9a b5 d0 3b 3a 52 f4 3d
       -0.071271084 0.036312617 0.006369305 0.11929746
000060 c8 66 11 bb 10 a7 81 b9 db e1 fc bd bc 22 10 3d
       -0.0022186507 -0.0002472927 -0.12347766 0.035189375
000070 50 3f 43 3c 49 69 15 3d 15 68 ae 3d 81 e7 70 3d
       0.01191695 0.03647736 0.08515946 0.05881453
000080 23 f7 bb 39 17 f7 31 bc ad 96 8b bd c0 81 fc 3d
       0.0003585155 -0.0108621335 -0.068158485 0.12329435
000090 c2 d4 ea 3d 7b 7f 43 bb 3a 83 08 3e 12 b9 f0 3d
       0.114663616 -0.0029830623 0.13331309 0.11754049
0000a0 cb 85 9d 3d fa 6a 87 3d a1 12 68 3d c6 d0 a6 bc
       0.076915346 0.06612201 0.05665839 -0.020363223
0000b0 c9 80 45 3c 8c df e3 3d b5 6a 9a bc 8d 95 3c 3d
       0.012054631 0.111266226 -0.01884971 0.04604106
0000c0 46 16 3d bd f7 14 a6 3c c2 c3 8e 3d 5a 4f b4 3d
       -0.04616382 0.020273669 0.069709316 0.088041976
0000d0 5b 1a 8c 3d 8d 17 7a 3d ef 5f 54 bd a1 65 d9 3d
       0.068409644 0.061057616 -0.051849302 0.10615087
0000e0 08 49 bd 3d 6a b6 c6 3d 65 16 bc bd 0b 28 30 bd
       0.09242445 0.097027615 -0.09183959 -0.043006938
0000f0 81 86 e8 bd c8 02 e4 3c c3 78 e3 3d 26 32 c4 bd
       -0.113537796 0.027833357 0.11107018 -0.095798776
000100 a9 10 77 3d 14 ca bc 3b c3 e7 14 be 10 fb f5 ba
       0.060318623 0.0057613943 -0.14541535 -0.0018766839
000110 1e 1c 6e bc 9f 1b a6 bd 68 6c 9a bd 1b c3 a8 3d
       -0.014533071 -0.08110737 -0.07540208 0.082403384
000120 2a 6f 01 bd 41 9d 75 bd 16 66 41 bd 02 93 62 bc
       -0.031600155 -0.059964422 -0.047216497 -0.013828995
000130 e0 af 29 bd 37 8c b2 bd 46 14 c8 3d 6d 25 29 3d
       -0.041427493 -0.0871815 0.09769492 0.041295458
000140 67 04 e0 bd 93 75 ba bc f8 d1 2f bd 13 0a 7d bd
       -0.1093834 -0.022761142 -0.04292485 -0.061777186
000150 79 8b 01 3d 4a a5 ee 3d e9 eb d5 bd 6b 98 11 3b
       0.031627152 0.1165262 -0.10445387 0.0022216092
000160 0c b5 0f 3e df f4 8d bd 39 08 06 be 09 77 83 3c
       0.14033908 -0.06931471 -0.13089074 0.016047971
000170 f9 b8 a6 bb 41 b7 06 3c fc 30 b9 3d 48 22 e7 bd
       -0.0050879684 0.008222402 0.09042546 -0.112858355
000180 29 dc b2 bd 5d 20 cd 3d 34 14 bd bd cd e2 ee bb
       -0.087333985 0.100159384 -0.09232369 -0.0072902204
000190 64 11 5a 3d 48 5c a6 bd eb 4a bd bd f8 40 df bd
       0.05323924 -0.0812307 -0.09242805 -0.10901064
0001a0 42 7b db bd 1d 11 f1 bd e1 f5 1a bd 07 6e 02 be
       -0.10716869 -0.11770842 -0.037832145 -0.12737285
0001b0 1f 43 97 bd 2a 8b a6 3c 2d fb 08 3e cd 9c 0d 3e
       -0.07385849 0.02033003 0.13377066 0.13829346
0001c0 a3 38 c7 3d 0f a2 2f 3b 2a c5 ab 3d 55 76 2d bd
       0.097275995 0.0026799475 0.083872154 -0.04234918
0001d0 79 03 ab bd d2 9b 8b 3d 54 d0 52 3d 11 be 28 3d
       -0.08350272 0.0681683 0.05146821 0.041196886
0001e0 68 72 92 3d 0c 2a c5 bc 7d a1 d1 3d 14 50 9c 3d
       0.071507275 -0.024067901 0.102358796 0.07632461
0001f0 6c 77 6c bd 72 71 c6 3d 1c 55 6a 3d 7b e2 72 3c
       -0.057731077 0.09689607 0.057210073 0.014824505
000200 9c 36 c8 3b c2 a3 ee 3d 34 92 9a 3a ff 39 2d 3d
       0.0061100256 0.11652328 0.001179284 0.042291638
000210 5d a3 ae 3d 18 1f 25 bc a8 0a ea 3d 0a d0 9d bd
       0.08527253 -0.010078214 0.11427814 -0.07705696
000220 5d 53 59 bc 22 a2 88 3c b1 38 d5 3a 3b e2 cc bd
       -0.013264504 0.016678873 0.0016267506 -0.100040875
000230 7f eb fb 3d e8 2b a7 bd 49 25 b5 3d 84 01 74 bd
       0.12300777 -0.08162671 0.08845002 -0.059571758
000240 a0 a3 68 3d 5c 5b 94 bd 30 29 7c bd 0e c2 00 3d
       0.05679667 -0.07243988 -0.061562717 0.031435065
000250 70 3d b8 3d a8 fa 25 bc 8f 7d 46 3d bd e3 a5 bd
       0.08996093 -0.010130562 0.048459586 -0.08100078
000260 be 05 28 3d 1b 01 7b bc 98 17 fa bc 2a 08 86 3d
       0.0410211 -0.015320088 -0.030528829 0.06544526
000270 c9 cf 5d bd be 7c ad bd a3 07 17 bd 6b 79 8f 3d
       -0.054153237 -0.08471058 -0.036872517 0.070055805
000280 34 db 0a 3e 3c d4 05 3e 9e da f4 3d 71 23 73 bd
       0.13560182 0.13069242 0.119557604 -0.05935997
000290 7f f2 0c 3e 49 1c bc 3d 1c 58 96 3b 3c 8e b7 bd
       0.1376438 0.091850825 0.00458814 -0.08962676
0002a0 68 a6 85 bd 8b 3e dc 3c 4a f7 ac 3b b9 da 28 bd
       -0.0652588 0.026885292 0.0052785026 -0.041224215
0002b0 cd 6c 05 be d9 b4 bf 3d d3 01 7e 3d 33 a2 9c 3c
       -0.13029785 0.09360666 0.06201346 0.019120311
0002c0 a9 76 63 3c 3e 53 b5 3d 46 49 bc bd e8 5b 97 bc
       0.013883271 0.08853768 -0.09193663 -0.018476442
0002d0 01 e8 0e 3e dd bc 56 3c 83 70 d6 bd 93 51 c1 bd
       0.1395569 0.013106552 -0.10470679 -0.09439387
0002e0 7c d3 a1 3d 2f 09 66 3d 8b fb 4c 3d 89 77 c0 bd
       0.079016656 0.056161102 0.050044578 -0.093977995
0002f0 8a ca a6 bd 4b 5b 26 be 7a b9 fe 3c 63 dd 9f bc
       -0.081441 -0.16245763 0.031094301 -0.019514745
000300 d0 d7 f2 3d bf 59 6c bd 43 ab e4 bd 17 73 46 3d
       0.11857569 -0.057702776 -0.11165478 0.048449602
000310 06 20 9d bd 00 44 bc bc 74 ab 20 3e a0 d6 c1 3d
       -0.076721236 -0.022981644 0.15690404 0.094647646
000320 af 1b 18 be 80 cc 37 bb 4d 40 94 3a be b3 0f 3e
       -0.1485431 -0.0028045475 0.0011310667 0.1403341
000330 20 14 ea bd 3d 71 9a 3d 41 17 09 be 7e 6e 17 be
       -0.1142962 0.0754113 -0.13387777 -0.14788243
000340 72 50 7f bd 3f 59 11 be a4 11 c9 bc a2 e8 0a 3e
       -0.062332578 -0.14194201 -0.024544545 0.13565305
000350 a7 02 02 bd 59 e2 d0 bd 34 00 27 3c 71 52 b4 bd
       -0.03174081 -0.101994224 0.0101929195 -0.08804787
000360 d5 6c a9 3d fd e5 31 3c 59 a7 f0 3d 4d c8 9a 3b
       0.08272711 0.010858056 0.11750669 0.0047235847
000370 47 b2 47 3d 39 61 41 3d b0 15 f8 3d 79 9f a6 bd
       0.048754003 0.04721186 0.121135116 -0.08135886
000380 6a 9f b1 bd b9 44 db 3d 53 3b 95 3d ea 85 10 3e
       -0.08672984 0.10706467 0.07286706 0.14113584
000390 d6 25 e7 3c 5d 12 72 3d 1e 04 c3 3d 11 44 ae 3d
       0.028216284 0.059099544 0.0952227 0.085090764
0003a0 e9 cf ad 3d 65 11 c7 bd 3e 56 f6 3c 8e 09 e2 bd
       0.08486921 -0.097201146 0.03007042 -0.11036979
0003b0 36 c1 3e 3c ed c9 c0 3d 55 58 05 bd 89 08 05 3e
       0.011642745 0.09413514 -0.032554943 0.12991537
0003c0 57 5d 0d 3e bf 6f 7e 3d 62 12 bf bd aa 95 24 3d
       0.13805138 0.062118288 -0.09329678 0.040181793
0003d0 fa 35 d8 3d e7 53 cf 3c ca cf fc 3d 7c 3f d4 3b
       0.1055717 0.025308562 0.1234432 0.0064772945
0003e0 65 b1 72 bd c9 5a ae 3d 19 7d 5c 3d 0c 0f 9d 3d
       -0.059251208 0.0851341 0.05383024 0.076688856
0003f0 f1 11 bd bd c3 b9 e4 bd d6 b3 be 3d 21 fe 44 3d
       -0.09231938 -0.11168244 0.09311645 0.04809392

encoder.conv2.bias f4 [54]
000000 ba 2b f3 3d 52 26 8b bc 0e d2 02 be 61 d2 7e bd
       0.118735746 -0.016986046 -0.12775442 -0.06221235
000010 b2 57 8a bd 4e bd c8 3d a6 7c bc bd c9 49 e9 3d
       -0.06755008 0.09801732 -0.09203462 0.113910265
000020 c9 48 5e 3d 38 9d 72 bc fd dd 01 bd ef 5c a3 3d
       0.054268632 -0.014807992 -0.031705845 0.0797671
000030 2e b8 a4 bd f0 50 43 bd ee bc 04 3e 0e ee f0 bc
       -0.08042942 -0.04768461 0.12962696 -0.029410388
000040 85 0b 23 3c 0f c5 de 3d eb 92 f5 bd a7 3d 67 3c
       0.009951477 0.1087743 -0.11990913 0.01411382
000050 c7 3f 5a 3b be 78 b5 bd 31 aa d5 3d 08 f1 d3 3d
       0.0033302174 -0.0886092 0.10432852 0.103487074
000060 4b 24 6a bc 45 2c 5b bc c6 c7 c8 3d 06 cd 19 bd
       -0.0142908795 -0.013377254 0.09803729 -0.03754904
000070 86 94 8c 3d 45 2d bc bd 4c 25 f1 bd d8 8c c3 3d
       0.06864266 -0.09188322 -0.11774692 0.09548348
000080 24 b9 b4 3d 87 0e ed bd be 4c 39 bd d8 37 76 3d
       0.08824375 -0.115750365 -0.045239203 0.06011185
000090 77 71 95 3d 9c 37 c0 3d 64 78 d3 3d bb 98 5a bd
       0.07297032 0.09385607 0.10325697 -0.05336831
0000a0 0b f0 80 3c 02 91 ff 3d d2 52 d8 bd 7c 57 a8 3d
       0.015739461 0.1247883 -0.10562672 0.08219811
0000b0 33 7d 2c 3d 23 73 ba ba 26 d5 03 3e cd 81 59 bd
       0.042111587 -0.0014224987 0.12874278 -0.053102303
0000c0 4a cb dd bc 80 32 bd bd 50 3f ec 3d 35 1b c4 bd
       -0.027074475 -0.09238148 0.115355134 -0.09575502
0000d0 f7 e0 03 3e c9 2c cd bd
       0.12878786 -0.10018308

encoder.rnn.weight_ih_l0 f4 [192, 54]
000000 c6 48 98 3d e4 a2 8f bd cf f8 db 3d e1 e6 a6 bd
       0.074357554 -0.07013491 0.10740816 -0.081495054
000010 a2 c3 aa bd a5 1c db bc 0a 00 c6 bd 6d 1a fc 3d
       -0.08338095 -0.026747057 -0.09667976 0.12309728
000020 c8 02 1e 3d e3 77 a7 bd 8f dd c1 bd a9 aa 03 bd
       0.03857687 -0.081771635 -0.09466087 -0.032145176
000030 b5 0c 1a 3c 70 ae ce bd 02 e5 b7 3d 00 69 89 bd
       0.009402444 -0.10091865 0.08979227 -0.0670948
000040 97 27 9d 3c c3 e8 c9 3d a1 cb c6 bd 91 27 cc bd
       0.019183917 0.09858849 -0.09706808 -0.09968484
000050 5a 85 f0 bd 9b 6b 8e 3c 22 2d de 3d 91 f4 9e bd
       -0.11744185 0.017385295 0.10848452 -0.07761491
000060 57 9d 64 bc a7 e5 97 3d 24 58 e1 3d bb 79 67 3d
       -0.013953528 0.074168496 0.110031396 0.056512576
000070 58 6f 55 3d 92 4e c2 3c 29 7e 33 bc 35 c2 df 3d
       0.05210814 0.023719106 -0.010955372 0.10925714
000080 74 12 8a 3b d0 5b 59 3d 5d 1e e9 bb e9 3c 15 3e
       0.0042136256 0.053066075 -0.0071142153 0.14574017
000090 6d 94 00 be e4 ff 1a bd 17 0b ec bd 70 d8 d5 3c
       -0.1255662 -0.037841693 -0.11525553 0.026104182
0000a0 50 4d e1 bc 1b 1d a8 bd 3f bf ce bd 7f 8f 1e 3d
       -0.027502686 -0.082086764 -0.10095071 0.038711067
0000b0 8f 27 c2 3d 58 cb e3 3d 20 70 b2 3d fb 74 d4 bd
       0.094802015 0.11122769 0.087127924 -0.10373875
0000c0 9b e7 d9 3d 10 2f f7 3d 48 7a 29 3c 1f eb f8 bd
       0.10639878 0.12069523 0.0103440955 -0.12154221
0000d0 7e 8b d0 bd aa 94 c7 bd fb 7f cc bc 14 f1 cb 3d
       -0.10182856 -0.09745152 -0.02496337 0.099580914
0000e0 c9 28 d9 3d 17 0d 27 bc 67 af b1 bd 56 aa 63 3c
       0.10603482 -0.010195992 -0.086760335 0.013895592
0000f0 92 57 1b bd f5 9d 20 bd b9 b2 6a 3d 43 95 45 3b
       -0.03792531 -0.03921314 0.05729935 0.0030148781
000100 a0 3b b3 3d e5 74 c5 bc 18 83 14 3e 23 4a e9 bd
       0.08751607 -0.024103591 0.14503133 -0.113910936
000110 fb 5f e9 3c c4 1d 8a 3d 1b 2f 22 bd 07 07 a5 bc
       0.02848815 0.067439586 -0.039595705 -0.020144952
000120 5e 8a 63 3b a7 19 cf 3d 14 3c 39 3e 41 8a f0 bc
       0.0034719924 0.10112315 0.18089324 -0.0293628
000130 0e 82 08 be 68 0f e3 bd 1d 88 c8 3d da af 68 bd
       -0.13330862 -0.11086923 0.097915865 -0.05680833
000140 f7 82 ad bd 2f f4 60 3d df 6d 11 3d 74 4a c0 3d
       -0.08472245 0.05492037 0.035505172 0.09389201
000150 5c cd 10 3e 11 a0 05 be f3 5f 0f bd f0 bc 29 3d
       0.14140838 -0.13049342 -0.035003614 0.04143995
000160 6b a5 95 3d ea 09 96 bd a5 2d 34 3d 9b d3 93 3d
       0.073069416 -0.0732611 0.043988843 0.07218095
000170 cf 28 15 3b 5f 80 9d bd 32 15 d3 bd 2c 2b cb bd
       0.002275992 -0.076905005 -0.10306777 -0.09920344
000180 3c ab 67 3d a8 6b be 3d 17 2c c1 3c 01 af 71 3d
       0.056559786 0.092978776 0.023580594 0.059004787
000190 36 fa 96 3c 37 e2 d6 bc 52 03 05 bc 54 7a dd 3d
       0.018429857 -0.026230915 -0.008118467 0.10814348
0001a0 59 52 11 bc b1 2a 2c 3d 28 fc 92 3d b9 5c 20 3d
       -0.008869731 0.0420329 0.07177001 0.039150927
0001b0 9b a4 76 3c d5 c4 90 bc 04 b0 19 bd 17 04 6f bd
       0.015053893 -0.017671982 -0.037521377 -0.05835351
0001c0 9e 9a 9d bd c5 f1 af 3d 90 84 ca 3d 1e 10 ae bd
       -0.076955065 0.08591036 0.098885655 -0.08499168
0001d0 b0 13 da 3d 60 33 3a bc f7 4a 9b bc 3d b9 0a 3d
       0.10648286 -0.011364788 -0.018956644 0.033868063
0001e0 25 8b ac bd ec 17 3f bd 4e 7f 4c bd 4c 7e 04 bd
       -0.08424977 -0.046653673 -0.049926095 -0.03234701
0001f0 1d 9c aa 3d 7e e0 2f bd 73 67 b3 bd b7 9f cd bd
       0.083305575 -0.0429387 -0.08759966 -0.10040229
000200 18 77 07 3e 8d e1 95 3d c9 5b 10 be 56 d8 ea bd
       0.13229024 0.07318411 -0.14097513 -0.11467044
000210 97 91 af bd 3b ab 02 3e a8 d1 2f 3d a9 2b 1f 3d
       -0.08572691 0.12760632 0.042924553 0.038859997
000220 e8 06 4f 3d c1 b5 0b 3d 4e b8 e5 3d 03 34 e7 bd
       0.050543696 0.03410888 0.11216794 -0.11289217
000230 a6 33 f4 3d f2 52 a7 3d 62 02 f5 3c 37 6f 30 3d
       0.11923914 0.081701174 0.029908363 0.043074813
000240 ff a8 45 bc b0 9c 4d bd af 0c 5b bd dc e0 a9 bd
       -0.012064218 -0.050198257 -0.053478893 -0.08294842
000250 b3 2a 32 bc a6 03 28 3d cd 26 14 3d 73 4b b2 bc
       -0.010874438 0.041019104 0.036169816 -0.021764493
000260 2d 30 da 3c bd 76 fc bd ea 1e c7 bd fe 78 e6 bd
       0.0266343 -0.12327335 -0.09722693 -0.11253546
000270 a2 75 0b 3e 50 dd cd bd da 97 34 3d 68 ee d5 3d
       0.13619092 -0.10051978 0.04409013 0.10445863
000280 07 2d ba bc 12 7d 0a bd 8d ff e8 3d f5 98 c5 bd
       -0.022726549 -0.033810683 0.113768674 -0.09648315
000290 a3 14 06 be 35 91 0e bd 15 4f 07 bb 47 35 4d bd
       -0.1309381 -0.03480645 -0.0020646502 -0.050099637
0002a0 2f 1f 1f 3c d1 91 9c 3d 25 b8 92 3d ab 0e b5 3c
       0.009712025 0.07645 0.07164029 0.02210172
0002b0 c2 2c 98 3d fb 36 47 bd 55 62 10 bb bd c3 8a 3d
       0.07430412 -0.048636418 -0.0022031267 0.06775615
0002c0 de 69 a6 3d 05 92 18 bd 6a 47 b1 3d 04 34 ae bd
       0.08125661 -0.03724863 0.08656199 -0.08506015
0002d0 36 27 95 bd d4 97 16 be cc 48 89 3a 11 b7 e6 bd
       -0.072828695 -0.14706355 0.0010473966 -0.11265386
0002e0 f6 9c c6 3d b2 a5 81 bd 52 4f f4 3c 04 e3 c3 3d
       0.09697907 -0.06330432 0.02982298 0.09564784
0002f0 71 44 10 3e 50 6f 83 3d 43 b5 57 3d 83 a8 9c 3c
       0.14088608 0.064177155 0.0526631 0.019123321
000300 ba 39 4c 3d 07 fe e2 38 9b 93 c8 bd 9e 88 b7 3d
       0.04985974 0.00010823836 -0.097937785 0.089616045
000310 e9 44 bb bd 3d 3c 0a 3e 69 f4 76 ba c8 a7 68 3d
       -0.09144003 0.13499542 -0.0009420575 0.056800634
000320 73 fb 27 3d 67 58 5b 3d 78 3d a8 3d d2 62 b9 bd
       0.041011285 0.053551104 0.08214849 -0.090520516
000330 ef 4a 8d 3d 17 6e 0f bd 78 a2 c3 bd c1 6a ca bd
       0.06899058 -0.0350171 -0.09552473 -0.09883643
000340 c7 64 9b 3c bf 9d c8 3d b4 79 fd bd 2e f8 02 3d
       0.018968953 0.09795713 -0.12376729 0.031974964
000350 7f 26 6c 3d 8f 7b f5 bd fc 0b 10 3d 9c 2e 22 bd
       0.0576539 -0.119864576 0.03516768 -0.03959523
000360 39 2a 18 3c b2 6c 23 bd 9b d4 e3 3d 2e 05 eb bd
       0.00928741 -0.03989858 0.11124536 -0.11475597
000370 a1 43 6d 3d dc 21 77 bd d8 51 69 3d 05 db 98 bb
       0.057925824 -0.060335025 0.056962818 -0.004664781
000380 e3 93 01 be f3 d2 84 bd bc 60 ca 39 18 4c 91 3c
       -0.1265407 -0.06485548 0.00038600515 0.01773648
000390 97 e1 8f bd e1 85 d6 3d ba 46 46 bd 17 49 5e bd
       -0.0702545 0.10474754 -0.048407294 -0.054268923
0003a0 d6 8b 34 3d da 0a 90 bc 4c 00 0b 3d f2 ef 7e 3d
       0.04407867 -0.0175833 0.03393583 0.06224055
0003b0 d7 5d 3f bd 14 f4 e8 3c 06 88 d2 3d 20 1f 0f 3d
       -0.046720352 0.028436698 0.10279851 0.034941792
0003c0 3f 9f c6 3d 82 06 6e 3d 4c 66 f1 3d 8e 94 03 3e
       0.096983425 0.058111675 0.1178709 0.12849638
0003d0 b3 7f 83 3d 2a 7e 43 3d 96 09 29 3d ca 51 81 3d
       0.06420841 0.04772774 0.041268907 0.06314428
0003e0 ec 0c 71 bc 07 72 e8 3c a9 06 6b bd 73 3c c5 bb
       -0.0147125535 0.028374685 -0.0573794 -0.006019169
0003f0 50 9b 92 3d 6a 5c 96 3b 4b ad 76 bc 9e f6 34 3d
       0.0715853 0.0045886533 -0.015055965 0.044180505

encoder.rnn.weight_hh_l0 f4 [192, 64]
000000 fd ee 2e bc e3 e7 87 3d fe 5c 85 bd 85 89 26 3b
       -0.010677096 0.06636026 -0.065118775 0.0025411558
000010 f4 39 2d bd d7 16 9c bd 52 24 81 3d 68 38 de 3d
       -0.042291597 -0.07621544 0.06305756 0.108506024
000020 ab df 4c 3d 8b 59 f9 3d c1 2b c8 3c 9a 98 da 3d
       0.050017994 0.12175282 0.024434926 0.10673638
000030 a3 eb 7d ba 26 23 b2 3d 3d 04 e1 3c 18 5f 1f bc
       -0.00096862967 0.0869811 0.027467841 -0.009727262
000040 ae fe df 3d 04 e5 ba bd 4d 04 c3 ba b5 09 56 bd
       0.10937248 -0.091257125 -0.0014878601 -0.05225535
000050 ce 0a bf 3d 06 3a 91 3c df 54 25 3d 0c 97 b6 3d
       0.09328233 0.017727863 0.040364143 0.08915529
000060 3c 03 71 3d 69 d5 56 bd 46 64 13 bb a7 b8 b2 3d
       0.058840975 -0.052449618 -0.0022490188 0.08726626
000070 1b af 36 bd 38 c6 86 3c cd 09 b8 bd a9 6f 28 3d
       -0.044600587 0.01645194 -0.08986244 0.041122112
000080 27 a0 ba 3d e4 5d 30 3c 93 d2 ab 3c 0d 2f ce 3d
       0.09112578 0.010764573 0.020974433 0.10067568
000090 7f 76 67 3c 63 5c 51 bd 83 09 b3 3d 94 17 e5 bd
       0.014127373 -0.051113497 0.087420486 -0.11186138
0000a0 2f ad 6a 3d 69 95 b0 3d 7d 51 9d bb d5 94 01 be
       0.057294067 0.08622248 -0.004800974 -0.12654431
0000b0 73 a6 7d 3d 81 be a2 3d 82 42 88 3a 9c 52 98 3d
       0.061926316 0.07946492 0.0010395797 0.074376315
0000c0 42 cf 64 3d 2b 04 da 3c ea c0 e1 3d d6 ff 6c bd
       0.05586172 0.026613316 0.110231236 -0.05786117
0000d0 7d 15 ed 3c 08 37 c9 bd 9c 86 ee 3d 1c 3f 56 3d
       0.02894091 -0.098249495 0.116467685 0.05230628
0000e0 f3 16 fc 3d 03 94 d6 bd 6f 1e 03 3e d1 71 cb 3d
       0.12309065 -0.1047745 0.12804578 0.09933818
0000f0 8d d3 df 3d ed 92 15 bd 7b 77 b3 bd 7f 38 a9 bc
       0.10929022 -0.036517072 -0.087630235 -0.020656822
000100 0d ef 0f 3e a5 f3 1c 3e 90 31 01 bd 60 35 fc bb
       0.14056034 0.15327318 -0.031541407 -0.0076967925
000110 0d bb fe bc 38 f3 31 bd 2b 24 d9 3c 21 09 80 3d
       -0.031095052 -0.043444842 0.026506504 0.06251741
000120 d6 c0 70 bc 94 2b f3 bd a4 ab 3f 3c 10 49 80 3d
       -0.014694413 -0.11873546 0.011698637 0.062639356
000130 e1 75 28 bd b9 c6 cb 3d 11 de 7f 3d e1 44 31 3d
       -0.041128043 0.09950013 0.06246764 0.04327858
000140 93 9f 58 3c 61 0c d9 3d 51 34 9e 3d c9 bf 70 bd
       0.013221639 0.10598064 0.07724822 -0.05877665
000150 14 55 d3 3c 0f 6e d8 3d 31 bd 1c be 15 8a 93 3d
       0.025797404 0.10567867 -0.15306546 0.072040714
000160 93 c4 0c be aa 3c 62 bd 2e e8 8c bd 88 82 f5 bd
       -0.13746862 -0.055233635 -0.06880222 -0.119877875
000170 6e f7 2b bd 44 5f 78 3d 69 c7 26 be 77 99 a1 bd
       -0.041984014 0.060637727 -0.16287006 -0.07890599
000180 cf 25 16 be 72 a6 f9 bd b2 64 4e 3d cd f4 a1 3d
       -0.1466286 -0.1218995 0.050389 0.0790802
000190 a4 a9 e9 bd 72 46 ab 3d 5f 10 92 3d cd eb ba 3d
       -0.114093095 0.08363046 0.07132029 0.09127007
0001a0 1c c1 a5 bd 32 59 eb bd 7c 22 b3 3d 11 64 20 bd
       -0.08093473 -0.11491622 0.08746812 -0.03915793
0001b0 2d f2 e1 bd 61 c6 ef bc bf e0 9c bd ee 97 27 bd
       -0.110325195 -0.0292694 -0.076600544 -0.040916376
0001c0 01 02 9c 3d be 90 84 3d 1c d3 0a bd b1 66 76 3d
       0.0761757 0.0647292 -0.033892736 0.060156528
0001d0 db 42 7e 3c 52 57 88 3d 08 1a 09 be 4b 1d 10 3c
       0.015518869 0.0665728 -0.13388836 0.0087960465
0001e0 3f df dc bb 11 b1 f5 bc c7 ee dc 3d 17 46 d5 3c
       -0.00674048 -0.029991658 0.10787731 0.026034398
0001f0 64 98 59 bd 32 85 25 3e 57 37 d2 bc a8 c3 d3 bc
       -0.053123847 0.16164091 -0.025661154 -0.025850132
000200 0e 28 48 3c 5c f2 8c ba 0f ea 43 bc 6b ee 68 bd
       0.012216581 -0.0010753381 -0.011957659 -0.056867998
000210 09 96 ed 3a e6 da 65 bd 04 e3 ea 3d 1d 1d 64 bd
       0.0018126379 -0.05611696 0.11469081 -0.055691827
000220 86 85 c8 bd 28 17 d3 3d eb 01 a2 3d 62 f9 da bd
       -0.097910926 0.10307151 0.07910522 -0.10692097
000230 30 10 eb 3d 91 8c 86 bd d2 da 42 bd 1f 8a 7d bd
       0.11477697 -0.0656978 -0.047571965 -0.0618993
000240 2e 16 90 bc 85 20 04 3d 45 5b 84 bd 51 c3 68 bd
       -0.017588701 0.032257576 -0.06462721 -0.056826893
000250 b5 7f 52 bd 6d 57 ac 3d 44 a0 8d 3d ed ae b3 3c
       -0.051391322 0.08415113 0.06915334 0.021933997
000260 ef 82 1f 3c 40 92 cf 3c 99 33 78 bc 25 4e 9f bd
       0.009735807 0.025338292 -0.015149021 -0.07778577
000270 85 29 0d 3e 46 32 7e bd f7 f3 bc bd db f3 44 bd
       0.1378537 -0.062059663 -0.0922622 -0.04808412
000280 9e c3 99 3c 0e 6d 1d be ba bb 64 3d 45 d0 95 3c
       0.018770035 -0.15373632 0.055843093 0.018287787
000290 6c 53 77 bd a7 c1 14 3d b4 a8 d0 3c 83 fa ef bd
       -0.06038229 0.036317494 0.025471069 -0.11717703
0002a0 32 0b 11 3d bf e0 e8 3c 66 d8 6e bd 28 0d 1e 3d
       0.035411067 0.02842748 -0.058311842 0.038586766
0002b0 de 1d 91 bd fd 2d b2 3d 32 78 c1 bd 8a 0e ff 3c
       -0.07085775 0.08700178 -0.094467536 0.031134862
0002c0 86 87 c9 3c ed c5 be bc 8d 7b 40 bd 4a 0b 35 3d
       0.024600755 -0.023287738 -0.046992827 0.04420022
0002d0 ad b4 58 3c 4d 3c 26 bd 30 f5 09 bd 9f f8 4b 3d
       0.01322667 -0.04058485 -0.033681095 0.04979765
0002e0 d4 de 0a be 30 fa 66 3c 7b 03 17 3d 79 8b 1c be
       -0.13561565 0.014097735 0.036868554 -0.1528758
0002f0 cb c1 59 3c 08 1b a6 bd 40 41 0f be d3 ae bf 3d
       0.013290833 -0.081106246 -0.13989735 0.09359517
000300 0d 61 55 3d 4e ad 97 3d 6e 9e f5 3d 90 a8 87 bd
       0.052094508 0.07406102 0.11993109 -0.066239476
000310 92 d2 44 bd fb e3 05 3c 75 8c 55 3d e4 bd 8f ba
       -0.048052378 0.008172031 0.052135903 -0.0010966626
000320 7c 9d 8a bc 89 d9 0a 3e ec f1 84 bd c8 f4 78 3d
       -0.016920798 0.13559546 -0.064914554 0.060780317
000330 39 01 ab bc 92 04 9c bd c8 a0 93 3d 2b 8f bd 3d
       -0.020874606 -0.07618059 0.07208401 0.09255823
000340 ac 94 22 3c 1c 18 bc bd 9e 3f a9 3d 84 07 be 3d
       0.009923141 -0.09184286 0.08264087 0.09278777
000350 53 0b 86 3d d8 88 93 bc 6b bf 9c 3d 06 de 1a 3d
       0.06545129 -0.018009588 0.076536976 0.037809394
000360 56 76 01 bd ac 31 cc bd 3b d6 5e bd 9b d5 65 3d
       -0.031606995 -0.09970412 -0.054403525 0.056111913
000370 72 06 a5 bd 57 ce 58 3d e3 d2 27 bd ef ea ae bd
       -0.0805787 0.052931156 -0.0409726 -0.08540904
000380 1d d4 c9 3d 56 81 18 3b 6d a8 ad 3c b1 46 bf 3d
       0.098549105 0.002327045 0.021198476 0.09339655
000390 32 c6 40 3c a5 b3 82 3d 57 2b 02 bd e4 3e b5 bd
       0.011766003 0.06381921 -0.031779613 -0.08849886
0003a0 60 df 28 bd 6b f1 fa bc 05 6f 93 bd 3d d8 84 bd
       -0.041228652 -0.030632695 -0.0719891 -0.06486557
0003b0 b7 dd 55 3d e7 c2 eb 3d 00 7a ce 3d a4 cc d7 3d
       0.052213397 0.11511784 0.100818634 0.10537079
0003c0 c6 b0 c8 bd f7 d2 7c bc da 5e 22 3d ee 82 f6 3d
       -0.09799342 -0.015431157 0.03964124 0.120366916
0003d0 4a 22 54 bd ba 66 88 3d 24 37 a4 3d 05 4b 58 bd
       -0.051790513 0.066602185 0.0801833 -0.05280592
0003e0 df 03 cd bd c6 62 5d 3d 77 81 dc 3c 6a 96 b6 bd
       -0.10010504 0.054049276 0.026917202 -0.08915408
0003f0 ad 70 a4 3d b6 4c 76 bd 18 8a a6 bd f8 65 8e 3c
       0.08029304 -0.06013175 -0.08131808 0.017382607

encoder.rnn.bias_ih_l0 f4 [192]
000000 58 14 3a bc b0 9c 9c bd c2 b0 cf bb 52 fd bf bb
       -0.011357389 -0.07647073 -0.00633821 -0.0058590556
000010 2a 80 5f bd 09 52 96 3d a1 64 7a bd ef 7c 0e be
       -0.054565586 0.07339866 -0.061131123 -0.13914846
000020 5a 3f db bd aa 27 45 3d 6a 1e ca bd cc 45 f3 bd
       -0.10705443 0.04813353 -0.09869082 -0.11878547
000030 f6 2c cb bd 66 af a6 3d 56 ed 92 3d 95 e7 de 3d
       -0.09920685 0.08138923 0.071741745 0.108840145
000040 40 05 96 bd e6 9a d9 bd 00 b1 3b 3d a7 86 b7 3d
       -0.0732522 -0.10625248 0.045823097 0.0896123
000050 51 b7 06 bc a1 38 03 be e3 2f fc 3d e0 e3 ac 3d
       -0.008222417 -0.12814571 0.12313821 0.08441901
000060 60 b5 b5 3d 1f de 31 3d 44 c8 10 3d c1 9e 3b ba
       0.08872485 0.04342472 0.03534724 -0.000715714
000070 78 16 8f 3d 93 0d f6 3b 31 73 04 be 59 52 31 bd
       0.069867074 0.0075089424 -0.12934567 -0.043291423
000080 eb 6b e8 bc f0 e9 3f bc 39 75 9f 3d 72 eb 9b 3d
       -0.028371772 -0.01171349 0.0778603 0.07613267
000090 3f 4b c7 bc 82 04 6f bd 56 2e 8a bc 18 9c ec 3d
       -0.024327872 -0.05835391 -0.016867798 0.1155321
0000a0 58 c3 02 3e 4d af 22 bc 42 8c 89 bc 87 1f 99 3d
       0.1276983 -0.00992949 -0.016790513 0.074767165
0000b0 cc e7 cf bd f3 a7 61 bd 0b 1c d2 3d 90 07 ba 3d
       -0.101516336 -0.05509181 0.10259255 0.09083474
0000c0 06 f1 0d 3c aa 04 d4 bd a3 ee c2 3d 54 f9 22 3d
       0.0086634215 -0.10352452 0.095181726 0.03978856
0000d0 54 0d fd 3b db 14 f8 3d 22 bf c7 bd 88 2d 09 bc
       0.007722536 0.12113353 -0.097532526 -0.008372672
0000e0 eb 0a 81 3d a8 0b 41 bd 51 24 9b bd 0d 46 62 3b
       0.063009106 -0.047130257 -0.07575286 0.0034526617
0000f0 e8 15 b4 3d 97 99 20 bc c3 9f ce 3c 3c ac a4 bd
       0.08793241 -0.009802244 0.025222665 -0.080406636
000100 3d 64 ae bd 0d 4a 1a 3c 46 b5 7a 3d 10 89 9a 3c
       -0.08515213 0.009417069 0.061208032 0.018864185
000110 dd b4 97 3d d8 23 af bc 26 b6 dc 3d a4 37 4c bd
       0.07407544 -0.021379396 0.107769296 -0.04985775
000120 fb 89 c6 3d 08 55 78 bd 78 2a 96 bc 8c d3 11 bd
       0.096942864 -0.060627967 -0.018330798 -0.035602137
000130 13 7d 3e be 79 64 8d bd 60 c7 e9 3c 03 f5 b0 bb
       -0.186024 -0.06903929 0.028537452 -0.0054003014
000140 af d9 b5 bd f6 a7 21 3e 58 da d5 3d 24 0c c6 bd
       -0.088794105 0.15786728 0.104420364 -0.096702844
000150 5d 16 a4 bd b4 fb 96 bd 17 ae 0a bd 8d 7d 26 be
       -0.08012078 -0.07372227 -0.03385743 -0.16258831
000160 b1 05 a7 3c 57 e4 b2 3d 61 71 d2 bd 3f 1c 07 be
       0.020388456 0.087349586 -0.102755316 -0.13194369
000170 6d 37 84 bd 20 75 76 be 7d 9b cb 3d 48 b2 9b 3d
       -0.06455884 -0.24068117 0.099417664 0.07602364
000180 59 7f bc 3d 5b ed 4a be c6 a1 1e be 7e 12 f6 3b
       0.09203977 -0.19817106 -0.15491399 0.0075095287
000190 d1 b8 b0 bd a3 87 1d be 1d 92 fc bd 14 22 18 be
       -0.08629001 -0.15383773 -0.123325564 -0.1485675
0001a0 59 ce 67 bb 00 1a f1 3d e6 28 98 3c 1f 3c 7f be
       -0.0035370796 0.11772537 0.01857419 -0.24925278
0001b0 12 34 81 3d d5 2a ab 3d 35 20 fe 3d da c6 fb 3c
       0.0630876 0.08357779 0.12408487 0.030734468
0001c0 47 f3 97 bc fc 7b 46 be 3a c9 54 bc ce 13 55 3d
       -0.01854862 -0.19383234 -0.012987429 0.05202084
0001d0 b5 a2 b7 3c bc 76 67 3d a8 17 f3 3c 1f ac 26 be
       0.022416452 0.05650972 0.029674366 -0.16276596
0001e0 16 98 3a 3d 40 54 07 3c 1e a9 a1 be f1 34 d6 3d
       0.045555197 0.008259833 -0.3157434 0.104593165
0001f0 ab 48 f2 bd f5 83 77 be c6 10 4b 3d 6b c0 35 bc
       -0.118302666 -0.24171431 0.049576543 -0.011093239
000200 5a 67 f4 bd fe 56 9d bd 6d e2 13 bc 88 5c 86 bd
       -0.11933775 -0.07682608 -0.009026152 -0.06560618
000210 f4 10 b1 3d f0 1a 11 bc 4f 8c f2 bc 39 5c 96 3d
       0.08645812 -0.00885652 -0.02960792 0.07341809
000220 23 a1 ec bd 84 5e 36 3d 9a 50 af bc ef 56 e9 3d
       -0.11554172 0.04452373 -0.021400739 0.113935344
000230 52 25 36 3c 4f 6f 59 bd 05 9c b9 bd d5 3d 96 bd
       0.011117296 -0.053084668 -0.090629615 -0.07336012
000240 74 66 3b bd 79 03 d5 3d 3c 67 b4 3d 30 e1 f0 3d
       -0.045752004 0.10401053 0.08808753 0.11761701
000250 48 2d 3c bd a9 ae 2e 3d 66 4c 9d bd ba 07 e1 bc
       -0.04594162 0.042647038 -0.076805875 -0.027469505
000260 c8 41 d8 3d 33 6b b1 bd d1 ac ec bd 05 1a 40 3c
       0.10559422 -0.08663025 -0.115563996 0.011724954
000270 d7 e5 ba 3c 0b d8 c1 3d 50 01 41 3d 15 b8 24 3d
       0.022814674 0.09465035 0.047120392 0.040214617
000280 4b 31 02 3e fa d3 ee 3d 68 3d 99 bd 66 1a f0 bd
       0.12714116 0.11661525 -0.074824154 -0.11723785
000290 4f 23 e9 bd a4 d3 ce 3c 7c ee 19 3d 8f 7a 03 bd
       -0.11383688 0.025247402 0.037580952 -0.032099303
0002a0 07 e6 be 3d a8 4c f7 3c 01 cd 8c 3c 10 78 81 bc
       0.09321218 0.03018792 0.017187597 -0.01580432
0002b0 d5 7f 86 3d 67 e1 13 3d 76 ef ac bd 54 96 e7 bc
       0.06567351 0.036103632 -0.08444111 -0.028269924
0002c0 00 4b 7e 3d 38 97 52 3d ad 74 fa bc 09 77 f9 3d
       0.062083244 0.051413745 -0.030573213 0.12180907
0002d0 38 61 dd 3d 1a 44 82 bd 78 a3 c2 3d a8 4b 9b 3d
       0.10809559 -0.063606456 0.095038354 0.0758279
0002e0 b0 d9 c1 3d 2a 40 2c bd ce be 27 3d 67 8f 80 bd
       0.09465349 -0.04205338 0.04095345 -0.06277352
0002f0 98 20 89 3d 0f 37 86 bb e9 0f 96 3d 7a 40 ae 3d
       0.0669567 -0.004095919 0.07327253 0.08508392

encoder.rnn.bias_hh_l0 f4 [192]
000000 09 eb 40 3d aa 79 6d 3c c3 76 a1 bd 13 9a b9 bd
       0.047099147 0.014494339 -0.0788398 -0.090625905
000010 76 9a de bd 9a 4c 0e bc 4f c4 d1 bd b1 d6 62 bd
       -0.10869305 -0.008685255 -0.10242521 -0.055380527
000020 0e 3e e4 bb de 19 ea bd 4b ed df 3d f1 c4 3c bc
       -0.0069654053 -0.11430715 0.10933932 -0.011521564
000030 c7 de 9a 3c 5c 53 e5 bd 52 02 8c 3d de cc 86 bd
       0.018905057 -0.1119754 0.0683638 -0.06582044
000040 b2 f9 2f 3d c7 ab 97 3d 80 bc ae 3d e4 78 10 be
       0.042962737 0.07405811 0.08532047 -0.14108616
000050 0e 96 57 bd 9f 5a 83 bd ee 8e 42 3d ff 93 9a bd
       -0.052633338 -0.06413769 0.04749959 -0.07547759
000060 21 17 a8 3d c3 22 c2 bd 3e c9 67 bc b0 28 a1 3c
       0.082075365 -0.094792865 -0.014147101 0.019672722
000070 da 0f ac bd a3 de 35 bd 77 65 20 be 84 6f 85 bd
       -0.08401461 -0.044401776 -0.15663706 -0.065154105
000080 b5 25 02 be 1c da 03 3d ee e1 5f bd 49 17 fb bc
       -0.12709697 0.032190427 -0.054658823 -0.030650752
000090 2c 58 53 3d 1c 88 5b 3d 71 30 5f 3d e4 a5 96 3c
       0.05159776 0.0535966 0.054489557 0.01838965
0000a0 91 f5 ff 3d d1 ba 39 bd df 85 c4 3d 91 40 8a bd
       0.1249801 -0.045344178 0.095958464 -0.06750596
0000b0 f1 e6 04 be dd 7a 3f 3b 7f c4 5c bd 49 b5 e5 bd
       -0.12978722 0.002921752 -0.05389833 -0.11216218
0000c0 f0 5c 8a bd 0c 3b 8f bc 47 6a 9e 3c de 85 bc bc
       -0.06756008 -0.01748421 0.019337786 -0.023013052
0000d0 52 81 08 bd 84 dd d3 3d 67 a2 8b 3d 91 0d 86 bd
       -0.033326454 0.10344985 0.06818085 -0.06545556
0000e0 d5 0f cd bd ab 8d 0d 3c 55 6a a1 3d 2c d9 d7 3d
       -0.10012785 0.008639733 0.07881609 0.10539469
0000f0 7b dc 9d 3d 3f 20 72 3d ef 1a ed 3a 8d 48 c5 bd
       0.07708069 0.059112784 0.0018089692 -0.096329786
000100 b7 06 3c 3d 08 fa e2 3c 29 5e f9 3c 55 b7 d8 bd
       0.04590484 0.027707115 0.030440407 -0.10581843
000110 56 86 d2 bd fe 23 d7 3c 8e a3 ab bc 2d 60 57 be
       -0.10279529 0.02626228 -0.020952012 -0.21032782
000120 c0 c2 d6 3d e7 25 d5 bc 83 0d c8 3d 66 e9 11 3e
       0.10486364 -0.02601905 0.09768202 0.1424919
000130 37 90 31 be f5 16 a7 3d 87 db d6 3d 65 67 d7 bd
       -0.1734017 0.081586756 0.1049109 -0.10517768
000140 54 ea 8e bc de a4 24 3e 27 86 09 3d b2 85 8b bd
       -0.01744572 0.16078517 0.033575203 -0.0681261
000150 52 dc 16 be 15 f5 6d be d9 62 34 3d 49 9e 23 be
       -0.14732483 -0.23238023 0.04403958 -0.1597835
000160 1d b6 bd bb 57 b4 3c bd f3 94 b0 bd 80 93 ac 3d
       -0.005789532 -0.046070423 -0.0862216 0.08426571
000170 64 53 70 be b1 19 ed bd ad a7 10 3e 59 9c dd bd
       -0.23469311 -0.11577166 0.14126463 -0.108208366
000180 bd 2d 13 bd 9c eb 6b be 82 19 96 3b b8 c1 23 3c
       -0.03593229 -0.23039097 0.0045806775 0.009994917
000190 60 02 dc 3c 7b ca 12 be 20 1f 41 be 44 65 b0 bc
       0.026856601 -0.14335053 -0.1885953 -0.021532662
0001a0 5b ea d8 3c 39 fd d2 3d d9 5b 68 3d e3 f4 ea bd
       0.026478937 0.10302205 0.056728218 -0.1147249
0001b0 05 9d 95 3d e5 04 85 bd 66 8d ad 3c 9b 76 39 3e
       0.0730534 -0.06495074 0.021185588 0.1811165
0001c0 38 cf 04 3a 7e cc ac bd 13 32 f1 bd 5f 6b d6 3d
       0.00050662784 -0.08437441 -0.11777129 0.10469698
0001d0 56 c1 92 bc be 92 10 3d 2e 68 55 bb 32 d3 8f bd
       -0.017914455 0.035296194 -0.0032563317 -0.07022704
0001e0 51 7c 50 3e 2c 95 3d 3e a3 8c bd be 87 36 34 3b
       0.20359923 0.18513936 -0.3702136 0.002749832
0001f0 b6 32 bf bd 08 ed 88 bd 9f f1 ff 3d de 0e 9f bd
       -0.09335844 -0.06685835 0.124972574 -0.077665076
000200 72 54 e5 bd dd 38 f2 bc f0 aa d9 36 77 af b2 3d
       -0.11197747 -0.02956813 6.4870037e-06 0.087248735
000210 14 16 0e 3d 90 9a c8 3d bc 8a c7 bd 85 bb cf 3d
       0.034689024 0.097951055 -0.09743258 0.101431884
000220 13 a9 d7 3d 3e b0 98 3d e0 b0 01 3c 16 a9 fb 3d
       0.10530295 0.074554905 0.007915705 0.1228811
000230 30 09 15 bc d9 fe 9f bc 15 e1 94 bc d4 07 3f 3d
       -0.009096429 -0.0195307 -0.018173734 0.046638325
000240 1f 1b 64 3d 6d 65 c5 3d be e3 9d 3d a9 4d 67 3d
       0.055689927 0.09638486 0.07709454 0.056470547
000250 9b b5 03 3d 10 1b 0d 3d f1 35 ca 3d 55 99 0f bd
       0.032155614 0.034449637 0.0987357 -0.03505834
000260 54 6a a1 3d 0f e7 7c bd 18 46 33 bd 24 8c 6e 3d
       0.078816086 -0.061743792 -0.04376802 0.058239117
000270 22 87 a3 bd 01 89 5d bd 40 89 0c 3d 09 0b 50 3c
       -0.07984759 -0.054085735 0.03431058 0.0126979435
000280 07 3a a1 3d 4a 88 7c bd 68 51 ea bd 8e b0 04 3c
       0.07872396 -0.061653413 -0.11441308 0.008098735
000290 60 98 62 3d 40 4f ee 3b 9c 19 a9 bd ab 46 a1 bd
       0.055321097 0.007272631 -0.08256838 -0.07874807
0002a0 68 89 44 3d 05 74 d2 3c a7 45 93 3d 16 12 81 bd
       0.047982603 0.025690088 0.071910195 -0.06302278
0002b0 c2 4b ab 3d fe c6 25 bc 3e a9 12 3d 23 bd 94 bd
       0.08364059 -0.010118244 0.035805933 -0.072626375
0002c0 93 cc 16 bc 3c 48 c6 bc d6 89 d1 bd 30 91 a4 3d
       -0.009204048 -0.024204366 -0.10231368 0.08035505
0002d0 d4 09 3c 3d 96 2e ae bd 86 56 fc 3c 50 26 4c bd
       0.04590781 -0.08504979 0.030802976 -0.049841225
0002e0 04 21 ea bd 0f 09 c5 3c 8c c1 2b bd 76 0f ac 3d
       -0.114320785 0.024052171 -0.041932628 0.084013864
0002f0 15 b5 0a bc 22 f2 9b bd b2 16 15 bd a4 e2 45 3d
       -0.008466025 -0.076145425 -0.036398597 0.048311844

decoder.attn.v f4 [64]
000000 48 bc e9 bc fc ec 07 bd 0a bd ba bd fe 24 ee 3d
       -0.028532162 -0.03318499 -0.091180876 0.116281494
000010 44 49 41 bd 38 ea 82 3d d4 22 52 3d d4 be 1e 3d
       -0.047189012 0.0639233 0.051302746 0.038756207
000020 24 66 77 bd 08 54 d8 bc 60 6a 27 3d e8 8b 9d bc
       -0.060400143 -0.026407257 0.04087293 -0.019231752
000030 c2 61 90 bd ce 42 cf bd 64 8c af 3d 56 6e 91 bd
       -0.07049896 -0.10120164 0.08571699 -0.07101123
000040 72 53 dd 3d 78 e4 03 bd 9c 1c b8 3d 52 3e fe bd
       0.108069316 -0.032200307 0.08989832 -0.124142304
000050 2c 65 37 bd 58 96 ae bc 68 01 ae 3c 18 9f ac bd
       -0.04477422 -0.021311924 0.021240905 -0.08428782
000060 00 bb 36 3d c4 96 04 3d 10 d6 0f 3d 00 91 01 ba
       0.04461193 0.032370344 0.035116255 -0.0004942566
000070 4c fd d3 3d 20 ac aa bd fe ac 85 3d 5c 2d 67 3d
       0.10351047 -0.083336115 0.06527136 0.056439742
000080 b0 8b 5a 3d 30 1e 47 bd b6 ed db 3d 24 36 9f bd
       0.053355873 -0.048612773 0.10738699 -0.077739984
000090 a0 f6 f8 3d f8 9f b1 bc 3a 75 ed bd e8 91 e0 bc
       0.12156415 -0.021682724 -0.11594625 -0.027413324
0000a0 58 79 ed bd c4 9a ee 3d c8 1f bd bc 64 68 6d bd
       -0.1159541 0.11650613 -0.023086444 -0.057960883
0000b0 d8 34 cd 3d 28 7c 78 bd 80 e6 80 3c c4 d7 a2 3d
       0.10019845 -0.06066528 0.015734911 0.0795131
0000c0 1c a4 8d 3d 08 23 05 3d 50 18 24 3d 2a 1f 84 3d
       0.06916067 0.03250411 0.04006225 0.064512566
0000d0 6c ff 76 bd 70 34 02 3c ce fe a7 bd 80 65 f8 bd
       -0.060302183 0.007947072 -0.08202897 -0.121287346
0000e0 7c ac 97 bd 9a cc fd bd b0 8e 69 bd 50 68 d9 bd
       -0.07405946 -0.1239254 -0.057020843 -0.10615599
0000f0 4c 1a e0 3d 00 0b 54 bc 5c 49 f3 bd 32 da 98 3d
       0.10942516 -0.012942076 -0.118792266 0.074634925

decoder.attn.attn.weight f4 [64, 128]
000000 94 c6 82 bd 60 f2 fb 3b 23 24 87 bd 76 5b 8a bd
       -0.06385532 0.0076888055 -0.065986894 -0.06755726
000010 b8 db 81 bc e5 fd 8e 3d be fa 25 bd 10 80 4a bd
       -0.01585184 0.0698202 -0.04052233 -0.049438536
000020 fe 1a 13 bd 42 52 78 bd c0 e2 25 bc 16 a3 9b bd
       -0.035914414 -0.060625322 -0.010124862 -0.075994655
000030 e8 ea 11 3d be 93 ac bd af fb aa bd fa b7 a7 bd
       0.035624415 -0.08426617 -0.08348786 -0.081893876
000040 0a 77 58 bd c4 b2 a9 3c 4b dc 86 3d cc 51 47 bd
       -0.0528479 0.020715125 0.06584986 -0.048661992
000050 86 7a 5a 3d ee ac 96 bd 48 ab 86 bd 58 11 fa 3c
       0.053339504 -0.073572025 -0.06575638 0.030525848
000060 60 51 49 bc 5c dd 2c bd 20 de 08 3c 00 67 ae 3a
       -0.012287468 -0.042203292 0.00835374 0.0013305843
000070 85 bd 8b 3d de be 01 3d f0 e7 97 bb 96 20 95 bd
       0.06823257 0.031676166 -0.0046358034 -0.07281606
000080 ec 5f f0 bc 8f 37 8e bd f8 ea 8a bc 10 7c ac bc
       -0.029342614 -0.06944191 -0.016957745 -0.021055251
000090 dc ee 99 bc 82 83 89 bd d2 d3 0e 3d 2e 45 0c 3d
       -0.018790655 -0.06714536 0.034869976 0.034245662
0000a0 b8 2d 27 bc 33 b8 09 bd f4 a5 b0 3c b6 58 58 3d
       -0.010203771 -0.03362293 0.021563508 0.052818976
0000b0 62 b3 05 3d 88 b4 2b 3c 90 38 32 3c 04 5b 80 3c
       0.032641776 0.010480054 0.010877743 0.0156684
0000c0 58 9b 0e 3c 34 1a be bc 08 04 7d bd e2 4b 67 3d
       0.008704029 -0.023205854 -0.061771423 0.056468852
0000d0 6e d7 4e 3d 8e ff aa bd 20 7a 38 3c d0 b3 75 bd
       0.05049842 -0.083495244 0.011259586 -0.059985936
0000e0 53 37 a5 3d 60 a0 ac bb 25 ee 41 bd 97 17 4a bd
       0.08067193 -0.0052681416 -0.047346253 -0.049338903
0000f0 a2 15 44 3d ac 04 bb bc 80 3f 22 bc 3f a9 a3 3d
       0.047872193 -0.022829376 -0.009902835 0.079912655
000100 ae 5d ea bc c0 fa 5a bd e4 69 ac 3c c4 81 8a 3c
       -0.028609123 -0.05346179 0.021046586 0.01690758
000110 5e 67 75 bd 58 32 e2 3c 0f 98 6a bd fa 7a 62 bd
       -0.05991303 0.027611896 -0.05727392 -0.05529306
000120 26 6f 88 bd 30 eb d1 bc 80 e7 77 3a 19 e7 16 bd
       -0.06661825 -0.025624841 0.00094567984 -0.036841486
000130 3e db 5a bd 87 eb 10 bd f0 7c a8 3c 70 af d8 3b
       -0.053431742 -0.035380866 0.020567387 0.0066127107
000140 fa a9 b1 bd 58 64 96 bd 13 d1 84 3d 20 a1 20 3c
       -0.086749986 -0.07343358 0.0648519 0.00980404
000150 92 53 46 3d a0 1e 15 bb 07 1f af bd 49 21 ab bd
       0.048419543 -0.002275385 -0.0855084 -0.08355958
000160 4e e2 5c 3d 00 16 a1 bc a8 7b 13 bd 27 51 b3 bd
       0.05392676 -0.01966381 -0.0360066 -0.08755713
000170 fe ab 47 3d 38 9d 3c 3c 85 49 81 bd c8 c4 63 3c
       0.04874801 0.011512093 -0.06312851 0.013901897
000180 e2 69 6b bd 28 8f bf bc 42 1e 4b bd 1c c1 f4 bc
       -0.057474025 -0.023383692 -0.049589403 -0.029877238
000190 44 17 9b bc 44 72 8e bd b0 91 76 bd 88 cf a8 bd
       -0.018931992 -0.06955388 -0.060197532 -0.082427084
0001a0 4e b9 62 3d 83 39 56 bd 91 06 85 3d b2 36 6e 3d
       0.0553525 -0.05230094 0.06495393 0.05815763
0001b0 8e 93 4e bd b2 42 6b 3d 80 de 90 3b b8 fc 02 bc
       -0.050433688 0.057436652 0.0044210553 -0.007994823
0001c0 3a cb 49 3d 0e 19 75 3d 10 7b c2 bb d3 2e ae 3d
       0.049266078 0.059838347 -0.0059350803 0.08505025
0001d0 f8 f7 5c bd 82 1b 74 3d 02 e2 43 3d 9d 6d 99 3d
       -0.05394742 0.059596546 0.04782296 0.0749161
0001e0 10 a4 ca bb cf e0 a8 3d 0f 81 92 3d ec 1e 72 bd
       -0.0061841086 0.08246004 0.07153522 -0.05911152
0001f0 03 51 ad 3d a0 f1 8e bd 67 18 b3 3d 24 19 81 bd
       0.084627174 -0.0697968 0.08744889 -0.06303623
000200 e8 15 28 3c c8 6a 94 bd 6e 3e 17 3d 51 ea 46 bd
       0.010259129 -0.072469294 0.036924772 -0.048563305
000210 6c ed 1e bd f5 f5 10 bd 14 42 96 bd 8c 6f 97 bc
       -0.038800642 -0.035390813 -0.07336822 -0.018485807
000220 2a 93 e3 bc 4c fb 8b bd 22 32 38 bd 10 08 01 bd
       -0.027780134 -0.068350405 -0.044969685 -0.03150183
000230 eb c8 b1 3d 56 78 10 3d c0 9f b3 bb a0 a8 ec 3b
       0.086809 0.03527101 -0.00548169 0.00722225
000240 00 19 d0 3c 80 9a 5d 3b cb f2 3f bd e6 fb 92 bd
       0.025402546 0.0033814013 -0.046862405 -0.07176952
000250 9e ef 77 bd 58 bc a5 3c 50 62 df bb e1 d6 60 bd
       -0.06053125 0.02023141 -0.0068171397 -0.054892424
000260 7a 13 52 3d 92 7c 6b 3d a8 23 98 3c 83 8f 90 3d
       0.051288106 0.057491846 0.01857169 0.07058623
000270 88 4e 5f bd 65 c5 41 bd 6e 42 0c 3d 01 d4 a9 3d
       -0.054518253 -0.04730739 0.03424304 0.0829239
000280 18 66 4b 3c bc 02 87 bd 20 08 2b bc 04 90 c0 bc
       0.012414478 -0.065923184 -0.010438949 -0.023506172
000290 41 ea 50 bd 44 b4 f5 bc 18 0b c6 bc a0 2a 58 3c
       -0.051004652 -0.029993184 -0.024175212 0.013193756
0002a0 f8 74 4e bc 71 37 a9 3d 75 e9 4a bd b8 f4 55 3c
       -0.01260113 0.08262528 -0.04953905 0.013058834
0002b0 77 78 8e 3d 60 c7 1b bb 9c 26 a1 bd e0 44 53 bb
       0.069565706 -0.002376996 -0.07868692 -0.0032237098
0002c0 28 f2 04 3d 4c ac 79 bd a2 13 48 3d 40 a2 80 ba
       0.0324575 -0.06095533 0.04884685 -0.0009813979
0002d0 63 c8 61 bd 68 32 33 3c b8 89 2f bd 63 8e b4 3d
       -0.055122744 0.010937311 -0.04285595 0.088162206
0002e0 6c 3a 9c bd d9 1c 72 bd e0 9b 17 3b 18 9e 3e 3c
       -0.076283306 -0.059109543 0.002313368 0.011634372
0002f0 90 97 75 bc 0c 26 e0 bc 8d ff 51 bd fd 11 8a 3d
       -0.014989749 -0.027361892 -0.051269103 0.06741712
000300 81 24 ad 3d fb e4 1c bd c0 67 c7 3a dc 75 a4 bd
       0.08454228 -0.03830431 0.0015213415 -0.080302924
000310 a9 7c 9d 3d b6 13 4a bd 01 b0 35 bd 4d ac 39 bd
       0.07689793 -0.049335204 -0.044357304 -0.045330334
000320 b0 db b9 3c 1c 5a fa 3c 6d 49 98 bd a0 d7 b6 bc
       0.022687763 0.030560546 -0.0743588 -0.022319615
000330 92 81 40 3d 18 9d 53 3c 05 e5 a0 bd 7a 95 44 3d
       0.046998568 0.012915872 -0.07856182 0.047994114
000340 57 e4 94 3d e0 df b0 bb e1 9c b1 3d d6 43 7a 3d
       0.07270115 -0.0053977817 0.086725004 0.06109985
000350 86 a1 91 bd 2e 0e 19 bd 3d 40 a4 3d 92 4a dc bc
       -0.07110886 -0.03736704 0.08020065 -0.026891027
000360 db 2c 9d 3d ea be 83 bd 33 f6 99 3d 70 74 c7 3c
       0.07674571 -0.06432898 0.07517662 0.024347514
000370 57 bd 96 bd 9d a1 a8 bd db f5 87 bd 9b 9d a2 3d
       -0.073603325 -0.0823395 -0.0663869 0.07940217
000380 b0 a4 c7 3c 50 7d e3 3c 02 45 db bc 37 be ab bd
       0.024370521 0.027769715 -0.026766304 -0.0838589
000390 9f 1a 93 3d 40 03 39 bd 58 60 47 bc 40 ed f1 bb
       0.07182812 -0.045169115 -0.012168966 -0.0073830187
0003a0 9f 4d 98 3d b8 41 0d 3d e0 da d1 bb 11 75 9a 3d
       0.0743668 0.034486502 -0.0064042658 0.0754186
0003b0 33 ea 97 3d b8 28 07 bc 93 de 96 3d b4 e1 30 bd
       0.07417717 -0.008249454 0.073666714 -0.043183997
0003c0 1a 85 9f bd d9 84 9b 3d 00 2a 95 bb 60 4d 20 bc
       -0.07789059 0.07593698 -0.004552126 -0.009784073
0003d0 78 26 6c bd 8a d2 1a bd 87 26 3b bd 00 2a 95 3a
       -0.057653874 -0.037798442 -0.04569104 0.0011380315
0003e0 58 dc 98 bd 0a 1e 31 3d e8 b9 9c 3c 90 88 25 bc
       -0.07463902 0.043241538 0.019131616 -0.01010336
0003f0 26 18 71 bd e0 25 a3 bd bf 5e 25 bd f6 70 55 3d
       -0.05886092 -0.079662085 -0.04037356 0.05210968
