checkpoints/models/single_stock_daily/81to9/000001/model20.pth (torch, 543834 bytes, 24 tensors)

encoder.conv1.weight f4 [18, 6, 3]
000000 a4 f2 92 bd 0d 07 af bd e2 e7 e0 bb 7c b5 ed 3d
       -0.07175186 -0.08546267 -0.00686358 0.11606881
000010 c3 68 59 be 1e 46 f4 bd 1f 11 85 bd 77 54 9a bd
       -0.2123137 -0.11927436 -0.06497406 -0.07535642
000020 80 9a 6c 3c cc 23 3a 3e 92 09 96 3d a1 7a 49 be
       0.014441133 0.18177718 0.07326044 -0.19675685
000030 6f 90 69 3e 57 ba 58 3e 7e 45 b9 3d 29 51 16 3e
       0.22809003 0.21164833 0.09046458 0.14679398
000040 a6 cd 0c 3e 3f f3 7b 3e 81 e3 65 be 44 ab 18 be
       0.13750324 0.2460451 -0.22450067 -0.14909083
000050 48 c5 fd bc 5e 7a 42 bd 27 4b 27 be 90 ba 6b be
       -0.03097786 -0.04747998 -0.16337262 -0.23020387
000060 bc d3 3d be f2 78 49 bd 67 8d 45 3e c6 06 1c 3e
       -0.18537802 -0.049187608 0.19292222 0.15236959
000070 8e 17 6e 3d 41 1f 1a be 5c ef ca bd ad 06 50 3c
       0.058127932 -0.15050985 -0.099089354 0.012696904
000080 81 a8 65 be 04 f7 41 bc 95 c5 18 3d 9c 8a 55 3e
       -0.2242756 -0.011838678 0.037297804 0.20853657
000090 6e ad 82 bd 16 21 68 3e 01 00 6c 3c f3 30 2d be
       -0.06380735 0.22668871 0.014404298 -0.16913204
0000a0 54 ba 5d 3e 12 10 4d 3e c7 0c 45 be 4a b0 12 be
       0.2165311 0.20025662 -0.19243155 -0.14325061
0000b0 b9 9e e1 3d 22 a5 1a be c9 6d 1d 3e 71 4d ed bd
       0.11016602 -0.15102056 0.15373911 -0.115870364
0000c0 57 07 a2 bd 1f 94 97 bd 3f f8 62 3e 0c a5 ad bd
       -0.07911556 -0.07401299 0.22165011 -0.08478746
0000d0 4c 55 5c bd 2f 88 0a 3e 1d 85 1c be 38 27 9f 3b
       -0.053792283 0.13528512 -0.15285154 0.00485697
0000e0 9d 9d 36 be 8d 5a 5c be 3d 1d 63 bd 05 21 c7 3c
       -0.17833562 -0.21518917 -0.055447806 0.024307737
0000f0 90 7c 4d 3e b6 1e 6f be b8 61 9a bd 17 1c 81 3d
       0.20067048 -0.23351559 -0.075381696 0.06304186
000100 79 b3 ac 3d 89 0c 08 3e 4a 3b 41 be 99 0b 80 bd
       0.08432669 0.13286032 -0.18870273 -0.06252212
000110 65 14 4b 3d 26 b0 4f be a5 a3 c6 3d 09 0b 7d be
       0.049579997 -0.20282039 0.096991815 -0.24711241
000120 7d 91 15 3e c4 06 8d 3d b8 a6 82 bd d4 34 91 3d
       0.1460628 0.06886056 -0.06379455 0.07090154
000130 04 6f 4a 3e 27 2e 38 3e 4a f0 0e 3e e9 e7 07 be
       0.19768912 0.17986356 0.1395885 -0.1327206
000140 89 ad ae 3d be 64 30 3e b6 f5 2e 3d 92 54 2c 3e
       0.08529193 0.1722593 0.042714797 0.16829136
000150 e7 15 1a be 97 80 2b 3e 0f 7b 9c 3b 83 67 56 be
       -0.15047418 0.16748272 0.004775412 -0.20937924
000160 bf 44 61 bd 55 15 6d 3e 44 4a a2 bd 9a ab 39 bd
       -0.054997202 0.23152669 -0.07924321 -0.045329668
000170 c6 c0 c3 bd a9 43 02 be 2c 41 0f 3d 23 47 11 3e
       -0.09558253 -0.12721123 0.034974262 0.14187293
000180 4b 5c c7 3c 20 6d f6 bc c7 62 c3 3b 0a 0f 36 be
       0.024336 -0.030081332 0.005962703 -0.17779174
000190 0e 3d 0a be ea ec ed 3b b8 a6 42 be 20 26 d8 3d
       -0.13499853 0.0072609084 -0.1900891 0.10554147
0001a0 7d ed ff 3c 2f e9 8a 3c df 54 b2 bc cd 71 47 3e
       0.031241173 0.016956894 -0.021768985 0.19477005
0001b0 c4 ba 58 3e 90 ab e9 3d 54 ee f8 3d 4d a9 dc bd
       0.21164995 0.11409676 0.121548325 -0.10774479
0001c0 95 17 e2 3d 16 2e 13 be da 9a e8 3d 02 ca 11 be
       0.11039654 -0.14373049 0.113576606 -0.14237216
0001d0 64 81 df 3c c6 25 38 3e 05 60 34 3e 55 5e 6c 3e
       0.027283378 0.1798316 0.17614754 0.2308286
0001e0 b8 50 b8 3d 4f de e4 3d d8 38 b0 3d 49 9c 4c 3e
       0.08999771 0.111752145 0.08604592 0.19981493
0001f0 20 90 2a 3e 34 07 f6 3d aa 99 b7 bd 40 d8 e3 bd
       0.16656542 0.12013093 -0.08964856 -0.11125231
000200 74 ae 7e bd c2 6e e2 3d f9 20 02 be 34 a3 75 3d
       -0.06217809 0.110562816 -0.1270789 0.059970096
000210 5d 80 53 3e f6 32 51 3e 15 25 39 be 18 00 88 3d
       0.20654435 0.20429596 -0.18080552 0.06640643
000220 32 0c 21 3e 1a 1d 61 be 63 95 19 3e 85 59 13 be
       0.15727308 -0.21983758 0.14998393 -0.14389618
000230 4d ce 34 be 24 18 e8 bd 16 c1 c0 bd 60 5d e2 bd
       -0.17656823 -0.113327295 -0.09411828 -0.11052966
000240 02 cb 87 3d a7 9e b2 3d f7 0d b1 3d 1d ad 22 3e
       0.066305175 0.08721667 0.08645242 0.1588635
000250 b1 4c 21 be b9 d6 6d be ea 96 48 be be 18 14 be
       -0.15751912 -0.23226441 -0.19588819 -0.14462563
000260 63 31 fb bd ac 63 c9 3d c0 bc 3a be 5e 8e 3c be
       -0.12265279 0.09833464 -0.18236065 -0.18413684
000270 16 1a f7 3d 16 fd 25 be 35 25 04 3d c9 6c 47 be
       0.120655224 -0.16209826 0.032262046 -0.19475092
000280 c2 72 89 3d cc 76 fd 3d a1 d5 55 be e7 61 98 3d
       0.067113414 0.12376174 -0.20882274 0.074405484
000290 d8 18 01 be d3 37 17 3e cc ac 5d 3e 08 c2 46 be
       -0.12607133 0.14767389 0.21647948 -0.19409955
0002a0 5a 2c b9 3d b5 da 30 3e cd 5b 6a 3e ac 6b 36 3e
       0.090416625 0.1727093 0.22886582 0.17814511
0002b0 bb ac 63 3d 87 e6 c2 3c ff ad 48 3d c5 36 06 be
       0.05558465 0.023791565 0.04899406 -0.1310683
0002c0 e6 f0 13 bd 8d 40 ab bb 8d 1c 0a be 41 d9 00 3c
       -0.03611841 -0.005226201 -0.13487454 0.007864297
0002d0 de d8 04 bd c9 42 9a bd 55 cb 94 bd c4 72 70 be
       -0.032433383 -0.075322695 -0.07265345 -0.2348128
0002e0 6e 4f 67 3e 05 5e e2 3d 34 a4 2f 3e cd de 4b be
       0.22588894 0.11053089 0.17152482 -0.1990921
0002f0 32 20 78 be e7 24 34 3e 46 83 22 bd 49 5a e7 3c
       -0.24231032 0.17592202 -0.039675973 0.028241294
000300 5c 81 f3 3d a0 db 85 3c 55 4f 89 bc 21 4c 03 3e
       0.11889908 0.016340077 -0.016761461 0.1282201
000310 dd 58 3d 3e bc 1e 9b bd 22 3f 4b be 18 0f fd bd
       0.1849093 -0.075742215 -0.19848302 -0.123563945
000320 aa 9e 29 3e 70 f8 8d 3c 27 7e 4c 3e 17 75 b6 bd
       0.16564432 0.017330378 0.19969998 -0.08909052
000330 ed a2 67 be ed b6 94 3d cb 23 dd bd 36 ac 13 be
       -0.22620745 0.07261453 -0.107978426 -0.14421162
000340 19 e6 14 3e 35 14 16 3c 48 97 bd bc e4 a0 69 3e
       0.145409 0.009160091 -0.023143426 0.22815281
000350 f2 ec 4a 3e e1 cb 74 be e0 c1 86 be 47 9c 28 be
       0.1981695 -0.23905899 -0.2631979 -0.16465865
000360 b0 4c 41 be fd fa 01 be 42 9f 1f 3e 62 87 23 be
       -0.1887691 -0.126934 0.15588096 -0.15969613
000370 2c 91 5f 3e 70 1d 99 3d 23 22 2e 3c 30 bc 4b 3d
       0.21832722 0.07476318 0.010628256 0.049740016
000380 6a b1 6b 3d 3d 8c 98 3d 88 48 3e be 4e 16 18 3a
       0.057542242 0.07448623 -0.18582356 0.00058016635
000390 18 18 1f 3e 39 1a 76 3e 30 ea fb bb d0 6c 2a be
       0.15536535 0.2403344 -0.0076878294 -0.16643071
0003a0 87 42 f7 3d 86 38 50 be 3b fe 51 3e ca ef 0a 3e
       0.12073236 -0.20334062 0.20507137 0.13568035
0003b0 df 39 ca 3d 28 4e e7 3c bb 25 27 3e 9e 01 d0 bd
       0.09874319 0.02823551 0.16322987 -0.101565585
0003c0 7c 2a 50 be 27 f0 13 be 55 a1 28 3e ae d1 fb bd
       -0.20328707 -0.1444708 0.16467793 -0.122958526
0003d0 a4 db 4b be 92 3f 30 3d 7d a9 1b be 97 0b b0 bc
       -0.19908005 0.043029375 -0.15201373 -0.021489901
0003e0 f0 2d 22 be f2 96 26 3d 0e a1 60 bd c2 c8 71 3c
       -0.15837836 0.040671296 -0.054841094 0.014757337
0003f0 d3 05 dd 3d 95 07 1c be 26 a5 b0 bd dc 6b 20 be
       0.107921265 -0.15237267 -0.086252496 -0.15666145

encoder.conv1.bias f4 [18]
000000 49 59 15 3d d4 b2 af 3d ac 94 13 be f5 29 67 bd
       0.036462102 0.08579031 -0.14412183 -0.056436498
000010 05 41 ee bd b3 5b 5f 3e 75 11 47 3d 60 6a 3a be
       -0.11633495 0.21812324 0.048600633 -0.18204641
000020 1f e0 2b 3e cf 6e 5d bd 24 14 8f 3c 4a 09 0c 3d
       0.16784714 -0.054060753 0.017465658 0.034188546
000030 b3 ea 18 bd 04 ca 61 3e 6e 04 e2 3d 7d 25 28 3d
       -0.0373332 0.22049719 0.11036001 0.041051377
000040 e9 ad a6 bd ac c1 6d 3d
       -0.081386395 0.058046028

encoder.conv2.weight f4 [54, 18, 3]
000000 7f 43 bd bd 5b e8 16 bd 2b 15 a1 3d 81 fa 08 be
       -0.092413895 -0.036842685 0.078653656 -0.1337681
000010 24 f1 69 bb b4 42 4c bd 88 d5 ac 3d ae 5c 9a bd
       -0.003569671 -0.0498683 0.08439165 -0.075372085
000020 5a a2 0f 3d b6 53 20 bd 9d ff e7 3d d1 0f aa bc
       0.03506694 -0.039142333 0.11328051 -0.020759495
000030 68 d8 c4 bd ff 0b 1e bd d6 79 ca 3d 11 fb 57 3d
       -0.09611589 -0.03858566 0.098865196 0.05272967
000040 0f d5 d8 3c b8 ca aa 3d 79 b4 58 3d cd aa 86 bc
       0.026468782 0.08339447 0.052906487 -0.016438866
000050 b2 16 92 bd 2a 6f 05 be 32 f1 87 3d 7b d3 da 3d
       -0.07133235 -0.13030687 0.06637801 0.10684868
000060 06 1a 80 bd 01 72 94 bd 56 9c 62 3c a5 ab ab bb
       -0.062549636 -0.07248307 0.013831219 -0.0052389675
000070 90 ff e8 3d 60 5e b2 3b 9c 64 92 3b 21 ac ef bd
       0.1137687 0.0054433793 0.00446756 -0.11702753
000080 31 02 57 3d 51 7b 85 ba cb f0 06 3d cb 26 a3 3d
       0.052492324 -0.0010183846 0.03294448 0.079663835
000090 4d ef 86 3d 77 19 19 3c 5d 5d 44 bb 97 41 94 bd
       0.06588612 0.00934445 -0.0029962875 -0.07239073
0000a0 d1 e8 f2 3d f7 26 e0 3d 0d de 5c bc 5c c1 04 3e
       0.118608125 0.10944932 -0.013480675 0.12964386
0000b0 68 ae ea 3d 72 ed aa 3d 68 42 9f 3d d7 0c 7a 3d
       0.114590466 0.0834607 0.07776338 0.0610474
0000c0 58 92 a3 bc 47 35 64 3c f8 f1 e2 3d 82 07 ef bc
       -0.019967243 0.013928718 0.11081308 -0.029178385
0000d0 f6 c2 13 3d ba 61 49 bd 12 0e 9f 3c 32 dd b6 3d
       0.0360746 -0.049165465 0.019415889 0.089289084
0000e0 01 1a b6 3d d6 b1 89 3d 48 bf 86 3d 05 04 f2 bc
       0.088916786 0.06723373 0.06579453 -0.029542932
0000f0 8a 24 28 3e 8c 94 de 3d 45 db 11 3e 75 f5 db bd
       0.16420189 0.10868177 0.14243801 -0.107401766
000100 cd 00 76 bd 17 cd e1 bd 2f 54 82 3c 76 64 d9 3d
       -0.060059357 -0.11025446 0.015909282 0.106148645
000110 2b 49 c1 bd 76 d4 15 3d ed fa 84 bc ee d2 08 be
       -0.09437784 0.03657957 -0.016232932 -0.13361713
000120 77 0a db bb 9b 98 86 bc 70 a5 8b bd 32 89 af bd
       -0.006684597 -0.01643019 -0.06818664 -0.0857109
000130 ad 77 ae 3d eb e1 1b bc 5e dd 37 bd 25 1f 7e bd
       0.0851892 -0.009514312 -0.044888847 -0.06204142
000140 e2 23 00 bd 94 a8 18 bd 25 21 91 bd e3 14 7d 3d
       -0.03128422 -0.037270144 -0.070864 0.061787497
000150 76 3f ec bc 21 3b fa bd b7 1c 90 bd dc b6 c8 bc
       -0.028838854 -0.12218309 -0.07036727 -0.024501257
000160 58 55 24 bd e9 bc 23 3d e2 dc 03 3e c6 72 aa bd
       -0.040120453 0.03997508 0.12877229 -0.083226725
000170 88 65 80 3b 04 74 e5 3d d2 0e ba bd 77 a5 e9 bd
       0.0039183535 0.11203769 -0.09084858 -0.11408513
000180 21 42 4a 3c b0 ff c8 bb 03 b8 0f 3a 84 c7 a4 3d
       0.012344868 -0.006133996 0.0005482437 0.08045867
000190 71 38 e3 bd 03 ac a3 bd f5 cb d0 3d cd 04 d4 bd
       -0.1109475 -0.07991793 0.10195152 -0.10352478
0001a0 b8 b0 bd bc 07 f4 52 3d 71 4f af bd 1e ae e1 bd
       -0.023155555 0.051502254 -0.08560074 -0.11019538
0001b0 f0 d0 ad bd 99 60 cc bd e0 26 eb bd 7c 79 d5 bc
       -0.08487117 -0.09979362 -0.11482024 -0.026058905
0001c0 aa 7f 05 be 68 f9 b0 bd bd b9 c7 3c 27 6a 0c 3e
       -0.13036981 -0.086413205 0.02438056 0.13712369
0001d0 45 55 0e 3e a7 d7 e2 3d be 77 41 3c f3 55 a7 3d
       0.13899715 0.11076289 0.011808334 0.081706904
0001e0 c8 f5 18 bd 4f a9 a8 bd 09 4a 95 3d 75 c5 6e 3d
       -0.03734377 -0.08235418 0.07289512 0.05829378
0001f0 c8 29 45 3d 32 8a 7d 3d a8 1b fd bc d7 8e d4 3d
       0.04813555 0.06189937 -0.030896977 0.10378807
000200 e9 84 9e 3d a1 ed 81 bd 7f 02 c7 3d 41 48 40 3d
       0.07740194 -0.06344152 0.09717273 0.046943907
000210 6e 86 14 bc 16 19 a7 bc a9 f6 c7 3d bf 49 15 3c
       -0.009065254 -0.020397704 0.097638436 0.009111821
000220 c2 38 6e 3d 80 d3 df 3d 5d b8 ff bb 56 0b f6 3d
       0.058159597 0.10929012 -0.0078039602 0.12013881
000230 25 fe a4 bd 28 da 85 38 e9 92 15 3d 90 ae 01 3d
       -0.08056287 6.382569e-05 0.036517058 0.031660616
000240 47 5b bc bd 02 0f 14 3e 29 8b 7e bd 8b 32 cd 3d
       -0.09197097 0.1445885 -0.062144432 0.10019406
000250 3a 87 5e bd 54 ad 5d 3d dc ee b8 bd 3e 74 8f bd
       -0.05432818 0.054120377 -0.09029934 -0.07004593
000260 2e 71 e5 3c 2e 5a c2 3d 31 31 ba bb 32 1c 67 3d
       0.02800807 0.09489857 -0.0056821336 0.056423374
000270 6a 75 9b bd 2c 00 0e 3d b0 30 bd bc 53 fc 20 bd
       -0.07590754 0.034668133 -0.023094505 -0.039303135
000280 17 aa 6b 3d 94 8a 58 bd 79 d1 bc bd 6b 23 1a bd
       0.057535257 -0.052866533 -0.09219641 -0.037631433
000290 7a 57 8a 3d e9 ad 06 3e b6 4d fd 3d 5b 8d c7 3d
       0.06754966 0.13152279 0.12368338 0.09743758
0002a0 5a 13 57 bd 81 74 0e 3e 94 ad 8f 3d c6 f6 dc 3c
       -0.05250869 0.1391163 0.07015529 0.02697314
0002b0 70 d9 9e bd 82 ac 8e bd 25 35 12 3d 1b 19 32 bc
       -0.07756317 -0.06966497 0.035695214 -0.010870243
0002c0 63 0f 23 bd 80 03 ce bd f4 39 e1 3d 08 01 18 3d
       -0.039809596 -0.10059261 0.10997382 0.03711036
0002d0 b3 79 82 3c fc 01 44 3c d1 73 91 3d 5f 1f ab bd
       0.015927171 0.011963364 0.07102168 -0.08355593
0002e0 33 34 3f bb c2 36 fd 3d 61 44 0b bd 2b 1d 0b be
       -0.00291754 0.1236396 -0.034000758 -0.13585345
0002f0 02 46 c1 bd 1d fc a6 3d 84 90 a1 3d 30 af c8 3d
       -0.09437181 0.081535555 0.07888892 0.09799039
000300 53 0d a3 bd 4f 70 9c bd 55 9a 00 be 5f 94 9d 3c
       -0.07961526 -0.07638609 -0.12558873 0.019235788
000310 4c 83 52 bc 42 8a 10 3e 1a be 68 bd 1d b3 96 bd
       -0.012848686 0.14115241 -0.05682192 -0.07358382
000320 f3 a9 82 3d 8a fe 55 bd 67 87 9c bc f3 1d 05 3e
       0.063800715 -0.0522447 -0.019107534 0.12999706
000330 11 89 81 3d 64 3e 13 be df 83 e3 3b d8 89 c3 bb
       0.063249715 -0.14379269 0.0069432105 -0.00596736
000340 8a 63 08 3e e2 77 f2 bd da e4 b8 3d 11 4c 0f be
       0.13319221 -0.11839272 0.09028025 -0.13993861
000350 39 3d 0e be a1 6b 9f bd 99 6b 10 be d5 89 5f bc
       -0.13890542 -0.077842005 -0.14103545 -0.013643702
000360 48 51 c7 3d 1f aa 85 bd 0a ac fe bd 19 dc 15 bb
       0.097323 -0.06526589 -0.124351576 -0.0022866784
000370 a4 28 d0 bd 27 df c8 3d d9 e5 b7 bc b3 6b de 3d
       -0.101640016 0.09808188 -0.022448467 0.10860386
000380 ca 48 45 3d 13 41 65 3d d4 72 5a 3d 1c b5 06 3e
       0.04816512 0.055970263 0.053332165 0.13155025
000390 d4 a5 d1 bd 41 10 c9 bd 86 18 c3 3d 42 d5 2a 3d
       -0.10236707 -0.09817553 0.09526162 0.041707285
0003a0 30 d3 0b 3e a9 d8 16 3d 77 f0 25 3d a0 37 98 3d
       0.1365478 0.036827717 0.04051253 0.074324846
0003b0 10 16 a8 3d 4c 09 af 3d 8d 3e d7 bd a0 f4 2a 3d
       0.08207333 0.08546695 -0.105099775 0.0417372
0003c0 80 1c 89 bd d4 6f 52 3d 10 24 c0 3d 94 88 62 bd
       -0.06694889 0.05137618 0.093818784 -0.055306032
0003d0 e9 28 b4 3d d1 a4 d1 3d c3 b5 8d 3d e4 e7 dd bd
       0.087968655 0.10236514 0.06919434 -0.10835245
0003e0 a8 05 bd bb d3 09 d6 3d 1e 4e 8f 3c 09 69 f0 3d
       -0.0057684965 0.104510926 0.017493304 0.11738784
0003f0 4b c3 bd bb c6 29 c1 bd 22 4f 8f 3d 15 26 3a 3d
       -0.005791103 -0.09431796 0.06997515 0.045446474

encoder.conv2.bias f4 [54]
000000 50 7a a5 3d 18 ab f6 3d 80 c1 9e bd 72 99 ad bd
       0.0807997 0.12044352 -0.07751751 -0.08476533
000010 a3 2d 12 bc f2 35 f1 3d ec e0 9c bc d5 74 0a be
       -0.008922013 0.117778674 -0.01915022 -0.1352113
000020 7d 3a 62 bd a0 dc 9c bd 27 e7 c4 3d 5b 84 bc bd
       -0.05523156 -0.076592684 0.09614401 -0.09204932
000030 37 f7 d4 3d 89 96 54 3d a6 d9 68 bc 31 c0 04 bd
       0.10398715 0.051901374 -0.014212048 -0.03240985
000040 93 e1 90 3d 4e 6d 95 bd 6d e1 72 bd 21 e1 f6 3d
       0.07074275 -0.07296239 -0.059297014 0.12054659
000050 cb d2 5d bd 86 d2 77 3c 4a 3f db 3d a4 0f d2 bd
       -0.054156106 0.015125876 0.10705431 -0.102568895
000060 21 92 dd 3c 1f 08 59 3b 59 a4 97 bd c3 5c f9 3d
       0.027047219 0.0033116413 -0.07404394 0.12175896
000070 c0 0c c3 3d be 19 6b bc 99 9e c4 bc cc 5c c1 3d
       0.09523916 -0.014349399 -0.024001407 0.09441528
000080 5e e0 3c bd 12 aa 96 3d 3f 7e b0 bd 92 a8 d2 bd
       -0.04611241 0.07356657 -0.086178295 -0.102860585
000090 26 ee bd 3d dd 7f b9 3d dd 1f d2 bd 24 bd 1e bd
       0.09273939 0.09057591 -0.10259984 -0.038754597
0000a0 da 28 90 3d 48 f4 9f 3d ac 2a 96 3d 4b 5d be 3d
       0.07039042 0.07810265 0.07332358 0.09295138
0000b0 e0 c2 7c bd e5 de f2 3c f4 b5 e3 3d 12 23 db bd
       -0.061709285 0.0296473 0.11118689 -0.107000485
0000c0 81 6e b1 3d 1b 86 dd 3c f4 c9 c0 bb 7d 3e 07 3e
       0.08663655 0.027041486 -0.0058834497 0.13207431
0000d0 21 02 74 bd a2 c3 36 bd
       -0.059572343 -0.044620164

encoder.rnn.weight_ih_l0 f4 [192, 54]
000000 16 4c c5 bd 4e 15 d0 3d 0c f3 b3 bd d6 c6 e9 3d
       -0.09633653 0.101603135 -0.08786592 0.11414878
000010 df 60 c7 bd 4f 1a 8b 3d b3 fd 86 bd 66 7e da 3d
       -0.097352736 0.06792127 -0.06591358 0.1066864
000020 03 eb a3 bd 7f 94 9e bd bc 68 22 bd 36 94 c6 bd
       -0.08003809 -0.07743167 -0.039650664 -0.09696238
000030 2a 59 fa 3d 11 07 4d 3d c8 0a 83 bd 33 a1 c8 bd
       0.12224038 0.050055567 -0.06398541 -0.09796371
000040 32 e9 37 bd ff cf b7 3c 5a a8 57 bd 29 8b 8d 3d
       -0.044900127 0.022438047 -0.052650787 0.06911308
000050 b9 40 6c bd e6 c0 26 3d e7 fe b0 3d 96 db ad bd
       -0.05767891 0.040711306 0.08642369 -0.08489148
000060 fe bd c1 bd 3f 04 fc bd 28 9b dc 3c 85 c1 cf 3d
       -0.09460066 -0.123054974 0.026929453 0.10144333
000070 83 a8 aa bd f2 1e 5c bc 84 fa 98 3d 63 39 ce 3d
       -0.08332922 -0.013435112 0.07469657 0.100695394
000080 ad dc 93 3d be 70 15 3d bf 2d d0 3c 02 00 50 3c
       0.07219825 0.036484472 0.025412438 0.012695314
000090 68 77 e6 3d ae 13 4f 3a cc fd 55 3d 1f eb 4f bc
       0.11253244 0.0007899356 0.052243993 -0.012690335
0000a0 98 30 c3 3d 3e 17 f6 bd c3 81 31 bd b5 c4 fc bd
       0.09530753 -0.12016152 -0.04333664 -0.123422064
0000b0 9b a0 05 3d 14 6f dd bc cb cf d9 bd d0 07 cb bd
       0.03262387 -0.027030505 -0.106353365 -0.099135995
0000c0 64 49 03 3d 32 ef b8 3d e6 9d d2 3d 98 68 a8 3d
       0.032052413 0.09029998 0.10284023 0.08223075
0000d0 09 77 c7 bd 2c 96 cd 3d 22 78 00 3e a8 cf 8d 3c
       -0.09739501 0.10038409 0.12545827 0.017310932
0000e0 7e 9d 27 be 80 3a cf bd 73 7b 25 be 92 18 e6 3c
       -0.16368672 -0.1011858 -0.16160373 0.028087888
0000f0 17 60 ea 3d 00 04 b2 3d a0 f0 87 bd c7 d0 83 bd
       0.11444109 0.08692169 -0.066376925 -0.064363055
000100 f7 d8 27 3d 19 41 a0 bd 56 ea 8f bc 8e 3b ce 3c
       0.0409784 -0.078249164 -0.017567795 0.025174882
000110 48 1b 92 bd 83 a0 5c 3d 6a 60 23 bc 84 1b dc 3d
       -0.0713411 0.053864013 -0.009971717 0.10747436
000120 74 7e ea bd 55 5e f4 3d 8b 5b a9 3d 5f 53 ec bd
       -0.114499 0.11932055 0.082694136 -0.11539339
000130 05 b3 2c 3d b5 87 46 3b 7f d9 70 3d 25 28 d0 3d
       0.042162914 0.003029329 0.05880117 0.10163907
000140 c9 2e a8 bd bc 79 83 bd 10 51 aa bd 20 1b 8a 3d
       -0.082120486 -0.06419703 -0.08316243 0.06743455
000150 cd f7 bb bd a3 2e a2 bd 69 ea d4 3d 3e 8c 99 3d
       -0.091781236 -0.079190515 0.10396273 0.07497452
000160 d6 6c ac 3d d2 20 cb 3d 5d d0 e3 bd 2b b6 c4 bc
       0.08419196 0.09918369 -0.111237265 -0.024012646
000170 71 78 8a bc 86 2c f8 3d 66 27 86 bc e7 26 0a bd
       -0.016903134 0.12117867 -0.016376209 -0.033728506
000180 d3 40 9d 3d 82 19 94 3d 08 6f c3 bd 87 29 25 be
       0.0767838 0.07231428 -0.09542662 -0.16129123
000190 45 8f 51 bd 28 64 74 3d f5 0f 06 3e b4 28 75 3d
       -0.051162023 0.05966583 0.13092025 0.05985327
0001a0 90 8a 96 3d 0d d9 52 3d b2 ca 2a bd 60 9c aa bc
       0.073506474 0.051476527 -0.04169721 -0.020826519
0001b0 54 0a 9c 3d 37 d6 30 bb e2 c6 f9 bc bb 79 fa 3b
       0.076191574 -0.002698315 -0.030490343 0.007643906
0001c0 b2 d0 e7 3d 45 6f 8d 3c 42 01 2f bd 82 9a b8 bd
       0.11319102 0.017264972 -0.04272581 -0.09013845
0001d0 b5 d0 4f bd d1 4a 20 bd 5e e6 8c 3d b8 ea f0 3d
       -0.050736148 -0.03913385 0.068798766 0.11763519
0001e0 7d f4 36 bd ce 7b 0e 3e 85 0e 8b bd c7 04 65 bd
       -0.044666756 0.13914415 -0.06789879 -0.05591276
0001f0 c5 08 55 3c ec 3a 18 be 50 d1 a9 bd ed 5b 25 bd
       0.013002579 -0.14866227 -0.08291876 -0.04037087
000200 8b 03 98 bd 05 ff c1 3d c3 07 36 bd dc 96 a7 bd
       -0.07422551 0.09472469 -0.044440996 -0.08183071
000210 b2 df 9c bd 85 5e c1 3d 99 61 a0 3d f3 e4 ab bd
       -0.07659854 0.09441856 0.07831115 -0.08393278
000220 fa e5 01 be a8 e5 58 bd 69 7b ac 3d 7b a8 b3 3d
       -0.12685385 -0.052953392 0.08421976 0.087723695
000230 3e e5 8a 3d e8 b1 40 3d fa ab 86 3d 88 c7 eb 3d
       0.06782006 0.047044665 0.06575771 0.11512667
000240 ba 1d 9d bd dc 28 84 3d 8d a2 a5 3d b6 24 42 3c
       -0.076716855 0.06453106 0.08087645 0.011849573
000250 c2 5c a2 3d ec 60 27 bd 5c b4 b8 bd d7 95 43 bd
       0.079278484 -0.040863916 -0.09018776 -0.04775032
000260 53 3e b1 bd 4e ec e2 3c 63 dd fe 3c b5 c6 5d 3c
       -0.086544655 0.02770057 0.031111425 0.013536145
000270 9f 39 a6 bc 32 39 ae 3c db f7 16 be e2 b5 bb bd
       -0.020291148 0.021267507 -0.14742987 -0.09165551
000280 1b 95 b1 bd 0e 6b cc 3d 20 b0 ed bd b5 89 67 3d
       -0.08671018 0.099813566 -0.11605859 0.056527812
000290 e8 1b a1 3d 9f dc 1d bd 40 05 74 bc 77 95 cc 3d
       0.07866651 -0.03854048 -0.01489383 0.09989446
0002a0 15 7f d7 bd 37 c9 04 be 4f 5e 79 bc 5f b6 60 bc
       -0.10522286 -0.12967382 -0.015220239 -0.013715356
0002b0 1c a9 5a bd 7e b4 3f 3c d6 11 8c 3d 57 46 92 3d
       -0.05338393 0.011700748 0.068393394 0.071423225
0002c0 29 c6 08 3d 1a be af 3d 0a 95 7a bd 56 77 28 3c
       0.033392105 0.08581181 -0.06117729 0.010282358
0002d0 de b2 35 3d f5 44 1e 3d 36 ba 29 bd ed 40 e1 3d
       0.044360034 0.03863998 -0.04143735 0.10998712
0002e0 c9 3f c7 bd a2 1c 4b bd e0 06 e6 bd d8 a5 43 3c
       -0.09728963 -0.049587853 -0.1123178 0.011941396
0002f0 e6 a0 c2 bd 02 b3 d8 3d d9 81 b1 bd 25 fb 0c 3d
       -0.09503345 0.10581018 -0.086673446 0.034419198
000300 19 e5 dd 3d 52 77 f4 3d 3c 44 38 3d f4 80 30 3d
       0.108347125 0.11936821 0.04498695 0.04309173
000310 8d ce dd 3c 7a f5 98 3d c9 b0 f1 ba 0b a8 c5 bd
       0.02707603 0.07468696 -0.0018439527 -0.09651192
000320 9f 0b e9 3d a8 9e c7 bd f1 aa f5 3d 2c 64 0e 3c
       0.1137917 -0.09747058 0.11995495 0.008690875
000330 b6 e6 5b 3d 88 f8 5c 3a c8 44 54 3d 7c 3e ad 3d
       0.05368682 0.0008429368 0.051823407 0.084591836
000340 94 be f1 bd e9 59 8f 3d d2 af 33 bd 52 22 ef bd
       -0.11803928 0.06999571 -0.043868847 -0.11676468
000350 ae 7a d3 bd 78 99 1a 3c 08 70 cc 3d 25 44 fb bd
       -0.10326134 0.009436004 0.09982306 -0.12268857
000360 b4 07 0f 3d 3c 08 4d 3d 2f 63 e5 bd 44 e8 02 3d
       0.034919456 0.05005668 -0.112005584 0.031959787
000370 7d 7a a8 bd f3 23 8a 3c 8f 5e 3b bd ef 04 df 3d
       -0.08226488 0.016862845 -0.045744475 0.10889613
000380 75 1a e8 bd bd 8f 87 3d 35 fa 39 bd be 56 12 3d
       -0.11333171 0.06619213 -0.04540463 0.035727255
000390 95 13 c0 3b ea e9 f5 bd 20 4a 64 bd df 0a c1 3b
       0.0058617094 -0.12007506 -0.055734754 0.0058911885
0003a0 82 6c ad 3b b8 ab 7e bd a7 91 9b 3d 8b da 7a bd
       0.005292476 -0.062175483 0.0759614 -0.061243575
0003b0 3a 8a 82 bd 0f 0e 3c 3d 45 a9 5e bc 94 83 10 3d
       -0.06374021 0.045911845 -0.013590162 0.035281733
0003c0 2c d3 8f 3d 6c 61 3b bd d7 4b 1b 3d a9 fa ba 3d
       0.070227 -0.045747206 0.037914123 0.09129841
0003d0 b0 9f af 3c 8f 38 d7 3d 7b f2 5f 3d cf d7 ab 3d
       0.02143845 0.105088346 0.054674607 0.083907716
0003e0 66 8d c0 3d b7 ca 96 3d ca a6 e5 3c 2f 36 81 3d
       0.094019696 0.073628835 0.028033633 0.06309163
0003f0 09 98 8d 3d 13 e3 3e 3c cd 69 b4 3c 08 6b 39 bd
       0.06913764 0.011650818 0.022023106 -0.04526809

encoder.rnn.weight_hh_l0 f4 [192, 64]
000000 39 cc e1 bd 95 56 f1 3d da d6 a3 bd 26 c8 f2 3d
       -0.110252805 0.11784092 -0.07999964 0.118545815
000010 1a 1a 97 bb af f6 70 bb 70 93 85 3d 76 ab 67 bd
       -0.004611266 -0.0036768129 0.06522262 -0.056560002
000020 13 79 9d 3b ae ea 4b bd 61 20 ba bd b3 8c a8 3d
       0.004805693 -0.049784355 -0.09088207 0.08229961
000030 e3 b6 b3 3d 62 05 77 3d 07 e3 f2 3d 85 b0 77 3d
       0.08775117 0.060307868 0.11859708 0.060471077
000040 93 0d d1 3d 4c 89 04 bd c2 e5 b8 3d 34 c6 0f 3d
       0.10207667 -0.0323575 0.09028198 0.03510113
000050 9d 73 61 3b de 09 b7 3d c9 c8 ce bd 49 dc 00 bc
       0.0034401186 0.08937429 -0.100968905 -0.00786502
000060 c9 26 77 bd bb 62 01 3e 71 28 97 bc e3 ba 25 3d
       -0.060339723 0.12635319 -0.018451901 0.040461432
000070 8e 67 bc 3d 28 d0 7b 3d ae 37 3b bd ab e5 dc 3b
       0.09199439 0.06147781 -0.045707397 0.0067412457
000080 dd 21 a6 3d 02 8c 49 bd 68 15 77 3c 3b 56 b8 bd
       0.08111928 -0.049205787 0.015080787 -0.09000822
000090 9a 20 f2 3c ba 70 a9 3d f4 43 ad 3b e3 57 bf 3c
       0.029556561 0.08273454 0.0052876417 0.023357337
0000a0 e4 91 d0 3d eb 6f f8 3b 2a 48 34 bd 77 14 d0 3d
       0.101840764 0.007581701 -0.044014134 0.10160153
0000b0 2f 80 b1 bd 49 17 62 3d a0 fd 9e 3d 18 8c fb 3a
       -0.08667027 0.055197988 0.07763219 0.0019191531
0000c0 1c 04 01 be 6d de 57 3d ab d7 b0 3d 85 d2 28 bc
       -0.12599224 0.052702356 0.086348854 -0.010304098
0000d0 09 f3 a4 3d 28 87 3a 3d 42 bb c6 3c 21 14 f4 3d
       0.08054168 0.04553905 0.024259213 0.11917902
0000e0 7e 2c 82 bd 63 30 87 3c fe 17 c8 bd a7 7b d7 3d
       -0.063561425 0.016502565 -0.09770201 0.10521632
0000f0 d8 99 15 3d 4d 8e ea 3d 5e c3 c4 bd b5 13 e6 3d
       0.03652367 0.11452923 -0.09607576 0.112342276
000100 45 38 89 3d e6 0b c5 3d 61 de 80 bd 27 fb bd bd
       0.06700186 0.0962141 -0.062924154 -0.09276419
000110 a2 56 fc bc 0f fa bc 3d 57 ed 0c 3e ab 8b 8b 3c
       -0.030803028 0.092273824 0.13762413 0.017034372
000120 29 5e 20 bb c0 b8 78 bb c1 73 2d bc 0b f6 92 3c
       -0.0024470186 -0.0037951916 -0.01058668 0.017939588
000130 28 20 80 3d 7e 69 03 bd 73 97 ae bd 32 b2 54 b8
       0.06256133 -0.032083027 -0.085249804 -5.0710696e-05
000140 49 47 98 3d 38 70 b2 bd 94 7c fd 3d 07 3a 1d 3d
       0.074354716 -0.0871281 0.12377277 0.038385417
000150 41 c7 4f 3d 09 e4 70 3d f1 1e 8e 3d fc e3 f8 3d
       0.050727133 0.05881122 0.06939495 0.121528596
000160 5a ce 60 bd f5 b7 88 3c 5e c1 b4 3d 16 e9 db bd
       -0.054884292 0.01668928 0.08825944 -0.10737817
000170 66 a6 80 3d 28 c8 e8 bd 9c e4 b5 bd ef e0 a1 bd
       0.06281738 -0.11366302 -0.088814944 -0.07904231
000180 a9 ba bf bd 1e 6c c5 bd d7 1e ac 3d 3e 44 d3 bd
       -0.093617745 -0.09639762 0.0840432 -0.103157505
000190 f0 7c 90 bd e5 e0 d9 bd c2 42 1e bd 9f 7d ca bb
       -0.0705508 -0.10638598 -0.038637884 -0.006179526
0001a0 1c e6 54 3d 6f 27 97 bd 04 6e b1 3b ea 0d 86 3d
       0.051977262 -0.07380568 0.005414726 0.06545623
0001b0 8b e5 b5 3d 51 4b 07 bc a8 2d 93 bd c3 43 8f 3d
       0.088816725 -0.008257703 -0.071864426 0.069953464
0001c0 20 90 2b bd bc 23 de bd 27 2d 1f bd c4 6d ef bc
       -0.041885495 -0.108466595 -0.03886142 -0.029227145
0001d0 5b 20 ff 3c fe bb de 3d 7e 69 b7 3d 2a 2e 97 bd
       0.031143358 0.108757004 0.08955668 -0.07381852
0001e0 e1 7c ec 3d a6 67 71 3d 86 c0 e9 3c c2 bc a7 bd
       0.11547256 0.058936737 0.028534185 -0.081902996
0001f0 ff cc 48 bc 17 6a 00 3d a9 d0 f5 bc 9c 73 89 3d
       -0.012255906 0.031351175 -0.030006723 0.06711504
000200 48 67 95 3d a5 8d 92 bd 02 62 d4 3d b2 98 7b 3c
       0.0729509 -0.07155923 0.10370256 0.01535623
000210 30 95 2d 3c 39 a8 fa bc 3f 20 c4 3c ac 9a a4 3c
       0.010594651 -0.030597793 0.023941157 0.020093285
000220 69 ce 40 bd 00 b3 61 3a c6 bb 4d bd 48 da 06 3e
       -0.047071848 0.0008609742 -0.050227903 0.13169205
000230 74 5c 88 bd e9 c5 ba bd 23 bd 05 3e 41 58 6e 3d
       -0.06658259 -0.091197796 0.13060431 0.058189634
000240 95 67 e4 bd 18 d1 f0 3d 7c 42 05 be 10 ce 1e bd
       -0.11152569 0.117586315 -0.13013643 -0.038770735
000250 aa 3e 3e bd 11 50 55 ba 8d 85 a6 bc 9a 45 7e bd
       -0.04644648 -0.0008137236 -0.020327354 -0.062078096
000260 8d 30 b0 bd e7 62 a6 bd 91 f8 a0 3d ed 3c 39 3d
       -0.0860301 -0.08124333 0.0785991 0.04522412
000270 3c 38 d7 3c c9 89 1b bc dc 15 f5 3c 21 a1 cb bc
       0.026271932 -0.0094933 0.02991765 -0.024857106
000280 c2 0f 30 bd 59 0e 06 3e fb f0 8f bc b7 2d cd bc
       -0.042983778 0.1309141 -0.017570963 -0.025046213
000290 5f b7 d4 3b 66 97 62 3d 7f 44 fb bd 69 60 5b 3d
       0.006491586 0.055320166 -0.12268924 0.05355874
0002a0 68 ab 34 bc 3f cf 26 bd e8 9d a9 bc 15 1c 10 bb
       -0.011027195 -0.04072499 -0.020705178 -0.0021989394
0002b0 8a 44 15 be 0b 6c 91 3d d9 d2 cf 3c 6d c0 79 bd
       -0.14576927 0.07100686 0.025369095 -0.060974527
0002c0 c8 49 6f 3d 1c 36 8f bd 02 d4 a0 3d 81 81 36 bd
       0.058419973 -0.069927424 0.07852937 -0.0445571
0002d0 2f ed b8 3c d0 49 aa 3c 16 e5 ce bc bd 1b cb bd
       0.022574035 0.02078715 -0.025255721 -0.099174
0002e0 ef d8 80 3d 4c 33 bc 3c 94 aa b3 bd 5d 4a 01 bd
       0.06291377 0.022973679 -0.087727696 -0.03156506
0002f0 99 5a 16 3d c3 83 b3 bd 2e 9b 4d 3d 5d da a9 3d
       0.036707494 -0.08765366 0.05019682 0.082936026
000300 99 2e f7 bd a1 1d 9d 3c 3a 0a c1 bd c7 bd e8 bd
       -0.12069435 0.019179167 -0.09425779 -0.11364322
000310 26 d0 e5 3d d5 e0 88 3d 96 09 c5 3d 3c ca f0 3d
       0.11221342 0.06683508 0.09620969 0.11757323
000320 92 8e 85 bd 03 ae 61 bd 9e 41 c8 ba 30 20 5a 3d
       -0.06521334 -0.05509759 -0.0015278345 0.053253353
000330 e7 8e 27 3c 69 16 0b bc 3b df fc 3d 67 c2 6f bd
       0.010226942 -0.00848923 0.12347265 -0.058535006
000340 dd ba 5f 3d e8 21 4f 3d 1f 1e 80 bd ed fe 96 3d
       0.054621566 0.050569445 -0.06255745 0.07372842
000350 09 6d b4 3d 97 c4 d3 bc 7f 0b be bd da 9f 9a 3d
       0.08809859 -0.025850577 -0.092795365 0.075500205
000360 41 32 ba 3d 5f 25 62 3d da 82 64 3c f9 27 7b 3d
       0.090916164 0.05521142 0.013947213 0.061317418
000370 e1 06 27 3d ce e4 2a bd 86 78 b7 bd 8a dc 5b bd
       0.040778045 -0.04172211 -0.08958535 -0.05367712
000380 6f dd 38 3d 32 49 4b bd 62 e9 89 3d 38 12 7b bd
       0.04513305 -0.04963035 0.06733967 -0.06129667
000390 05 bb c2 bd 77 f7 b0 3d 53 08 a5 bd 28 0f 24 3d
       -0.095083274 0.0864095 -0.08058228 0.040053517
0003a0 d8 b9 d7 3d 2f 4d 0a 3c 81 01 a3 3d d9 c3 ea bc
       0.10533494 0.008441254 0.07959271 -0.02865784
0003b0 37 8d d9 bd 2c 36 89 bd 37 e3 24 bd 4e 31 97 bd
       -0.10622638 -0.066997856 -0.04025575 -0.07382451
0003c0 a3 58 a1 bd 7f d5 56 3d 0b 51 07 3e b9 9d a3 3d
       -0.07878234 0.0524497 0.13214509 0.079890676
0003d0 c3 c9 2a 3d dc a7 c9 bd ba 4a b6 bc 6f 59 3c 3d
       0.04169632 -0.0984647 -0.02225243 0.045983728
0003e0 3c 32 df 3d df ac 7d bd eb a3 8e 3d 1a e5 8d 3d
       0.10898253 -0.06193244 0.069648586 0.06928463
0003f0 c5 4e e3 bc ac 80 e8 bd b8 53 7a 3d 89 83 8f 3d
       -0.027747521 -0.11352667 0.061114997 0.0700751

encoder.rnn.bias_ih_l0 f4 [192]
000000 07 60 f5 3d 6d ec b6 bd b4 ff cf bd ee 95 cb 39
       0.119812064 -0.089318134 -0.101561934 0.00038830884
000010 c0 53 c4 3c b3 ef a8 bc c4 27 52 bd 69 12 7f 3c
       0.023965716 -0.02062211 -0.051307455 0.015568354
000020 21 fe f1 bb 5c 60 2f bd 0d 84 43 3d 1d 1a 84 bd
       -0.007385031 -0.042816505 0.047733355 -0.06450293
000030 8a 2b 05 be 70 d2 db bd be 2a 2d 3d 02 5d bc bd
       -0.1300489 -0.10733497 0.04227709 -0.09197427
000040 b7 83 dd bd 74 73 3b bd e0 1a b4 3d 4e a3 a7 3d
       -0.10816138 -0.0457644 0.087941885 0.08185445
000050 ca 1f d3 3d 68 1f c8 bd 74 60 b9 bd 6b eb 91 3d
       0.10308798 -0.09771615 -0.090516 0.071249805
000060 7d d9 09 3e 75 41 c6 bb cb 89 ed bd 14 a7 01 3e
       0.13461871 -0.0060502836 -0.115985475 0.12661391
000070 7b b1 ae 3d e4 ea bf 3d 41 08 2e 3d de 10 61 3d
       0.085299455 0.09370974 0.04248834 0.054947726
000080 b6 17 62 bc b7 39 8b 3d 4b 5c 45 3d ca 8e 87 bd
       -0.013799598 0.067981176 0.04818372 -0.06619032
000090 62 1f 47 bd 9b f2 e0 bc 03 6f 30 bc bb dc b8 3d
       -0.048613913 -0.027459433 -0.010768655 0.09026476
0000a0 1b 6a a5 3d b0 3a 8d bc da 10 28 bd 3c e7 83 bc
       0.08076879 -0.017239898 -0.041031696 -0.016101472
0000b0 66 73 f5 3d 1c 43 01 3e f6 9d 37 3c 40 59 b1 bb
       0.11984901 0.12623256 0.011207094 -0.0054122508
0000c0 0c 23 94 3d 68 ee b3 bd 19 8f 81 bd 77 44 c8 3d
       0.07233247 -0.08785707 -0.06326122 0.09778684
0000d0 f7 49 01 3e 0d 96 aa b7 1c 7b d2 bd 5e 5a b6 3d
       0.12625872 -2.0335452e-05 -0.102773875 0.08903955
0000e0 79 db 73 3d b5 c4 6b 3b 28 ec fb 3d 18 27 b4 bd
       0.059535477 0.00359754 0.123009026 -0.08796519
0000f0 f0 25 da bb e1 8e a0 3d cb fa 84 bd 86 3c ca bd
       -0.0066573545 0.07839752 -0.064931475 -0.09874825
000100 99 e8 78 3a 26 7f 9c 3d f5 29 df bd 8b 79 48 3d
       0.0009495109 0.07641439 -0.108966745 0.048944037
000110 de 60 be bd a6 8e 8d bd dd 00 10 3e c0 89 01 3e
       -0.0929582 -0.06911974 0.1406283 0.12650204
000120 30 0b 0b 3d 87 0b 81 3c fe 8f 88 bd 6c 6f c3 3d
       0.033946216 0.015752567 -0.06668089 0.095427364
000130 c5 72 b3 3d 83 2d b0 3d fd 4f 3e 3c c2 70 2c be
       0.08762125 0.08602431 0.01161575 -0.16839889
000140 0e e6 88 bd 20 f1 e8 bd 17 60 5a bd 58 1a 8d 3c
       -0.066845044 -0.11374116 -0.053314295 0.017224476
000150 17 3f ed bb 4c 13 a5 bd a9 02 85 3d 96 6c 91 3d
       -0.007240187 -0.08060321 0.06494648 0.07100789
000160 3c 3a 5a bd b1 52 fd bc b4 3b cb 3c 58 8f c7 bc
       -0.053278193 -0.03092322 0.024808742 -0.024360344
000170 48 b2 8c bd ab 0d 34 3d d2 08 19 3d 9b d7 d3 bd
       -0.06869942 0.043958347 0.037361927 -0.10343858
000180 b2 1e 2c be 69 df 57 3d cd 78 29 be 69 a9 40 3b
       -0.16808584 0.052703295 -0.16549988 0.0029397851
000190 7b 75 c4 3d 73 ed a5 3d 26 51 42 3c f1 d4 63 bd
       0.0959272 0.081019305 0.011860168 -0.055623
0001a0 db cd 6e bc 0e 56 24 bd 0e 2a eb bd 72 f5 02 be
       -0.014575447 -0.04012113 -0.11482631 -0.12788942
0001b0 6c 26 65 bd 12 7f 48 bd 29 c2 a2 3d af eb 9a bd
       -0.055944845 -0.04894931 0.07947189 -0.07564484
0001c0 b3 d9 a8 bd d2 ca bf 3b 0a 5a ad 3d 96 f7 cd 3a
       -0.08244648 0.0058530355 0.08464439 0.0015714045
0001d0 7f 15 5f bd 9c 06 04 be 1b 98 df bd a0 81 98 3c
       -0.05446386 -0.12893146 -0.10917684 0.018616498
0001e0 0c 59 9f 3d 64 d3 11 3d c9 34 4b 3c 38 26 c7 3c
       0.07780656 0.03560199 0.012402722 0.024310216
0001f0 ce 87 dc bd 6f 48 5b bd 29 74 ab bd 21 d0 d2 bc
       -0.1076809 -0.053535875 -0.08371765 -0.02573401
000200 b3 c7 94 3d 90 82 b2 bd 9b 5c 06 be a3 94 be bc
       0.07264652 -0.08716309 -0.13121264 -0.023264235
000210 a6 b1 5e bd 38 fe d9 bd ab f3 a1 bd a1 d6 6f bc
       -0.054368638 -0.106441915 -0.07907804 -0.014638574
000220 53 dd 86 bd ec c1 b1 3d 70 53 02 bd 6a b8 c2 bc
       -0.06585183 0.08679566 -0.031817853 -0.023769576
000230 a4 df 88 3d 7c 73 e7 bd f7 46 15 3d 54 cc da bc
       0.06683281 -0.11301324 0.03644463 -0.02670876
000240 3f 3f ce 3d 01 e5 54 3c 19 0b 45 bd 38 3a b9 bd
       0.10070657 0.012994052 -0.048106287 -0.090443075
000250 5b 58 b2 bd d0 63 85 bd f0 29 de 3d d9 62 d4 3d
       -0.08708259 -0.06513178 0.10847843 0.10370416
000260 bd 27 d8 3d 37 ef 55 bd 97 7a 37 3d ae 7a aa bd
       0.105544545 -0.052230086 0.044794645 -0.083241805
000270 45 a3 0c bd 9d c9 e3 3d 4f bb a4 bd b9 65 06 be
       -0.034335393 0.11122439 -0.08043539 -0.13124742
000280 49 18 a0 bb 57 6c dd 3c e0 80 c3 3d 2a b8 5c 3d
       -0.0048857075 0.0270292 0.09546065 0.05388657
000290 ac 58 b8 3c 2a 3d fa 3d 71 f4 d6 3d eb f1 8c bd
       0.02250322 0.12218697 0.10495842 -0.0688208
0002a0 ae 2d e9 bd 78 3a ef bd ec 1d f4 3c 40 bb 1b 3d
       -0.11385666 -0.11681074 0.029799424 0.038020372
0002b0 d3 0e fd bc 0e 06 ce 3d 65 79 f3 3c fe aa 8c 3c
       -0.030890858 0.100597486 0.029720971 0.01717138
0002c0 f1 a0 81 bc ed 7a a5 3d ec 28 2b 3d c9 4c bf bd
       -0.015823813 0.08080087 0.041787073 -0.093408175
0002d0 b0 e0 1b bd ea 32 56 3d 9e 6f 2c 3d 75 43 d3 bc
       -0.038056076 0.05229465 0.042098634 -0.025789002
0002e0 a2 af f3 3d a6 69 d4 3d 71 82 78 bd 16 ec cd 3d
       0.11898734 0.10371713 -0.060671274 0.100547954
0002f0 4a 9b bf 3d bc 5d ab 3d 09 98 0d bd f4 2d 86 3d
       0.09355791 0.08367488 -0.03456882 0.065517336

encoder.rnn.bias_hh_l0 f4 [192]
000000 9d b0 97 bd d4 70 9d 3d 12 2b 55 bc d2 fa 88 3d
       -0.07406733 0.07687536 -0.013010757 0.06688465
000010 4b 80 9f 3d 4f f8 1a 3d f0 6f 22 3d c8 32 69 bd
       0.07788142 0.03783446 0.039657533 -0.056933194
000020 1c ba bc bd 9d 8a c6 bd 2b b3 0c bd 43 ac d8 bd
       -0.09215185 -0.09694407 -0.034350555 -0.10579731
000030 fa 90 3d bd ee 70 ed bb 68 18 f6 bd bc ae ed 3d
       -0.04628084 -0.0072461283 -0.12016374 0.116055936
000040 41 4c 6b ba c9 2a 94 3d e2 e7 d7 bd 4c b8 a0 3d
       -0.00089759013 0.07234723 -0.10542275 0.07847652
000050 a9 94 92 bd fc 8a 97 3c 38 e6 b7 3d 92 cf e2 3d
       -0.07157261 0.01849889 0.089794576 0.11074747
000060 41 c5 c4 bd 8b b0 4e bd 0b e6 54 bd 02 cb 50 3d
       -0.09607936 -0.050461333 -0.0519772 0.050974853
000070 64 c6 98 bd b0 4c b2 3d 7b 0d c4 bd eb b1 b2 3b
       -0.07459715 0.08706033 -0.09572884 0.0054533384
000080 f5 e6 d7 3b 9b ec af bd 83 43 74 bb 43 73 bf bd
       0.0065888115 -0.08590051 -0.0037271685 -0.09348156
000090 26 56 90 bd 94 36 01 be f1 b8 07 3d 0e 13 2d bd
       -0.070476815 -0.12618476 0.03313536 -0.0422545
0000a0 4c 1c d5 bc 5a 60 70 3d d9 3d 91 3d 08 54 62 3d
       -0.02601447 0.058685638 0.07091875 0.05525592
0000b0 b1 03 ba 3c 1a f5 fc 3d b5 4e c6 bc 92 d3 db 3d
       0.022706838 0.12351437 -0.024207452 0.10733713
0000c0 0b 3d 8f bd 74 d4 ed bd 8c f5 ab bb a5 73 70 bd
       -0.06994065 -0.11612788 -0.0052477773 -0.058704037
0000d0 dd 28 9d bd c8 25 9c bd 60 14 89 bc 33 32 58 3c
       -0.0767381 -0.07624394 -0.016733348 0.013195562
0000e0 af 0c 56 bb a8 66 19 bd d7 b4 d7 3d 70 3a 9f 3d
       -0.0032661369 -0.037451416 0.10532539 0.07774818
0000f0 24 8a 82 bd dd 8b ad bd 7c 19 16 bc 41 a4 64 3d
       -0.063740045 -0.084739424 -0.009161349 0.055820707
000100 8b b8 d2 3d b8 45 86 3d d8 0c 24 bd f5 24 d1 3c
       0.10289105 0.065562665 -0.04005131 0.025530318
000110 2b fd de bd e9 b1 7d 3d 84 bb 22 3e 54 10 c4 3d
       -0.10888132 0.061937246 0.15891844 0.09573427
000120 f7 d3 b9 bd 19 fc 24 be f1 f7 9b bc 47 5f 08 bd
       -0.09073632 -0.16111793 -0.019039126 -0.03329399
000130 30 32 95 bd 43 66 c0 3d fd 55 3d 3d 24 92 56 bd
       -0.07284963 0.09394505 0.046224583 -0.052385464
000140 53 d6 e3 3d 90 17 cf bd 4f 4b c7 3d 5b b0 bf 3d
       0.111248635 -0.10111916 0.09731161 0.09359809
000150 e5 2b db bd 87 a1 17 bc 85 fc 8a 3d ea 8b 2a 39
       -0.107017316 -0.00925482 0.067864455 0.00016264585
000160 60 5a ca bc 15 f7 c8 bd c0 0f 09 be 5c 49 5b 3d
       -0.024701297 -0.09812752 -0.13384914 0.053536758
000170 a8 f3 86 bd 41 a8 91 3c 35 ba c4 bd 3b fb b1 bd
       -0.065894425 0.017780425 -0.09605829 -0.086904965
000180 f7 1c 45 3d c6 7f f0 bd 7c 42 26 bd 76 72 37 3d
       0.048123326 -0.11743121 -0.04059075 0.044786893
000190 29 d9 b4 bd b9 51 40 bd c3 c8 a6 bc a7 ba d4 3d
       -0.088304825 -0.046952937 -0.020359403 0.103871636
0001a0 15 15 46 bc 57 8e 95 3d c1 af d5 bd a7 cb 45 be
       -0.012089987 0.0730254 -0.10433913 -0.19315968
0001b0 a1 97 91 3d d0 19 9b bc 60 a5 84 3d fa 8f 19 bd
       0.07108999 -0.018933207 0.06476855 -0.037490822
0001c0 a2 53 55 3d 71 96 81 3c c8 d5 82 bd ed 84 cf bd
       0.05208171 0.015818806 -0.06388432 -0.101327755
0001d0 a4 70 c4 3d ca 06 e1 bd 68 76 93 39 85 78 b0 bd
       0.09591797 -0.10987623 0.00028126244 -0.08616737
0001e0 24 9d 05 3e dc f5 9a bb ba 5a 10 bc 52 3d 0d bc
       0.13048226 -0.0047290158 -0.008810693 -0.008620577
0001f0 f5 17 78 bc 47 08 d6 3d d7 cb be 3d a9 42 a4 bd
       -0.015142431 0.104507975 0.09316223 -0.08020527
000200 ab 0f ef bc 40 8c 7f bd bc cf 35 3d 1d 42 56 3d
       -0.029182276 -0.062389612 0.044387564 0.052309144
000210 ee 4c f7 bd 14 b0 cb bd 97 26 02 bd 13 0f b2 bb
       -0.1207522 -0.099456936 -0.031775083 -0.005433926
000220 69 22 b2 3d 37 d2 0b 3d 0e 97 9c 3d 02 2d bb bd
       0.086979695 0.034136023 0.07645999 -0.09139444
000230 47 88 be 3d 7a 5e dd 3d fe 21 8a 3d 8d af 86 3b
       0.093033366 0.108090356 0.06744765 0.0041102828
000240 91 f3 df 3d 28 a6 cd bb b9 07 6f bc f4 b2 9b bc
       0.109351285 -0.006275911 -0.014589244 -0.01900623
000250 35 93 08 3d ea 0a 1c 3d 15 cc cc 3d 97 ac be 3d
       0.033343513 0.038096346 0.09999863 0.09310263
000260 a5 0f 38 3d 32 42 d2 3c d0 c8 14 3d 20 ab bf 3d
       0.044936795 0.02566633 0.036324322 0.093588114
000270 ba 3e 30 bd af 96 aa 3d 36 13 66 bd 14 3b 77 bd
       -0.04302857 0.08329522 -0.056170665 -0.060359076
000280 1a c0 28 3d c0 08 9c bd be d8 61 bd 7d be 22 3d
       0.041198827 -0.076188564 -0.055138342 0.039732445
000290 e8 57 71 bb 52 17 97 3d c8 c9 98 bd 89 d6 dd bd
       -0.0036826078 0.07377495 -0.07460362 -0.10831935
0002a0 07 29 37 3c 37 7e 4e 3d 5f 85 3c 3c 64 05 a9 bd
       0.011179215 0.050413337 0.0115064075 -0.08252981
0002b0 82 79 a1 bd d4 d0 6a 3d 42 90 c6 3c 2f 9a 91 3d
       -0.07884504 0.05732806 0.02423871 0.07109486
0002c0 f4 a3 81 bd aa f3 c9 3d 35 c6 99 bb 1c 22 e0 3c
       -0.063301 0.09860928 -0.0046928176 0.027360015
0002d0 be ad a8 bd ef f8 97 bc b0 3d 05 bd 08 ac c7 bd
       -0.08236264 -0.018551318 -0.032529533 -0.09749609
0002e0 de 06 9e 3d a9 97 31 3d 26 fe a8 bd 83 c8 15 3d
       0.077161536 0.043357525 -0.082516 0.036568176
0002f0 9d ed f3 bc 8b e9 ff bd 4f ac 00 3d a3 de 79 bc
       -0.029776389 -0.12495717 0.031414326 -0.015250835

encoder.rnn.weight_ih_l1 f4 [192, 64]
000000 92 1f aa 3d cf 3a 19 3b d6 13 7e bd 6f 0f 45 bd
       0.08306803 0.0023381 -0.062030636 -0.04811042
000010 b1 23 44 3d f9 8a b2 bd e9 7e 11 3c 78 0e e8 bd
       0.0478856 -0.08717913 0.008880355 -0.11330885
000020 a9 bf a8 bd 91 29 ec bc a3 66 bf 3d 1b a0 5f bd
       -0.08239681 -0.028828414 0.09345748 -0.054596048
000030 85 84 95 bd e0 77 39 bd 32 e2 bb bd 5f 6b b7 bc
       -0.07300667 -0.045280337 -0.09174003 -0.022390066
000040 d8 12 e2 bd bf f6 21 3d c4 38 00 be 59 ff e8 bd
       -0.110387504 0.039541956 -0.12521654 -0.11376829
000050 1a a4 e2 bd 38 0d aa bd 24 ea 28 3d 6d 9a aa 3d
       -0.11066456 -0.083033025 0.04123892 0.08330236
000060 2d e2 8d bd 76 53 89 3d 48 70 e8 bd b4 9f dc bd
       -0.06927905 0.06705372 -0.11349541 -0.107726485
000070 6a a4 41 3d 92 bc a4 bc 9d 62 67 bd cc 55 be 3c
       0.047275938 -0.020109449 -0.05649053 0.02323427
000080 f3 7f 05 3c 81 e3 d6 3d 38 d7 0d 3d 49 3f dd bb
       0.008148181 0.10492612 0.034629077 -0.006751929
000090 aa 2d c5 bd d7 12 40 bd 27 6f de bd 19 0c 8f bc
       -0.0962785 -0.046892967 -0.108610444 -0.017461823
0000a0 1c 97 19 bd 2f fc 86 bc fe c2 af bd fe 43 5e 3d
       -0.037497625 -0.016477672 -0.08582114 0.05426406
0000b0 a9 fc 66 3d 1b 52 48 bc cd 80 5e bd 3c 41 1c 3d
       0.0563933 -0.012226607 -0.054322053 0.03814815
0000c0 e7 ff 95 3d 70 41 26 3d 84 15 32 bc ea 08 e2 3c
       0.073242 0.04058975 -0.010869388 0.027592141
0000d0 0b 5d 4a 3c 70 33 d9 38 42 74 29 bd 16 99 85 bd
       0.012351285 0.00010356947 -0.041370638 -0.065233395
0000e0 a8 fb 90 3d f8 ed 81 3d 57 20 ec bd 5a 85 20 3c
       0.070792496 0.06344217 -0.11529606 0.0097974185
0000f0 68 30 bf bd b4 00 00 3e b0 8d cd bb 13 3b a4 bd
       -0.09335405 0.12500268 -0.006272994 -0.0801908
000100 cb 14 99 bd d3 9c 81 3d 55 8c 59 bd 79 0b 1a bc
       -0.07474669 0.0632874 -0.053112347 -0.009402149
000110 08 4b e4 3d 3d 95 48 bd be 47 96 bd eb 37 18 3d
       0.111471236 -0.04897045 -0.073379025 0.037162703
000120 58 c5 2c 3c 5b 48 a8 bd e7 90 21 3d 31 45 ac bd
       0.010545097 -0.08216926 0.03944483 -0.08411635
000130 81 e3 9a bd ac 76 ce bd 2e aa fa bc 1d 16 48 bc
       -0.07562924 -0.100812286 -0.030598726 -0.0122123035
000140 83 b0 4b bd 3e 02 88 bd 51 53 3f bd 6d 73 e3 3c
       -0.04972888 -0.06641053 -0.046710316 0.027765
000150 01 38 e7 3b a6 62 fb bd 84 8a d5 bd e4 90 c4 3d
       0.0070562367 -0.12274675 -0.104268104 0.09597948
000160 f4 a5 95 3c df a4 5a 3d f8 8b e7 3a 82 8d ee bd
       0.01826761 0.05337989 0.0017665615 -0.11648084
000170 ed 6b fb bd 12 2c a3 3d 48 8e f7 bc 79 6e 81 bd
       -0.122764446 0.0796739 -0.030219212 -0.06319899
000180 f0 bb ff bd cf b9 87 3d 7e 31 31 3c b3 b0 c7 bd
       -0.12487018 0.06627237 0.0108150225 -0.097504996
000190 1e 8e 9a 3c ff 4f 97 bd f9 85 e3 bc d0 1f 97 bd
       0.018866595 -0.07388305 -0.027773844 -0.07379115
0001a0 23 74 26 bd e0 70 f1 bc cc 37 e4 bd 92 8d b6 bd
       -0.0406381 -0.029472768 -0.11143455 -0.08913721
0001b0 fc 80 fb bd 0d 8c cf 3d b2 11 91 bd 01 7f bc 3d
       -0.12280461 0.101341344 -0.07083453 0.092039116
0001c0 29 a4 af 3d e9 69 87 bd d4 79 a1 3d 80 88 d7 3b
       0.08576233 -0.06611998 0.07884565 0.0065775514
0001d0 3e 07 4f bc 92 46 89 3d 3a 20 b6 3d ae 1a ce bc
       -0.012636004 0.06702913 0.088928655 -0.025159206
0001e0 fa 77 02 3e 9a 22 91 bd e2 32 a9 3d 53 8d 95 3d
       0.1274108 -0.07086678 0.08261658 0.07302346
0001f0 3c 44 da 3d fb 95 5f bc cd 36 f2 3d db 4f ec 3d
       0.10657546 -0.013646598 0.11826859 0.11538669
000200 79 58 b1 bd 30 0d f0 3d e3 63 b0 bd ba de 01 3e
       -0.08659453 0.11721265 -0.08612802 0.1268262
000210 87 56 bb bd 36 f3 78 3c a9 44 da bd 71 79 3e 3d
       -0.09147363 0.015194705 -0.10657627 0.046502534
000220 cc 3f 8c bd 7b 54 54 bd 64 00 3b bd 51 eb da bd
       -0.06848106 -0.05183838 -0.04565467 -0.10689414
000230 8c 21 bd bc 2e 34 2b bd 87 a5 c0 bd 47 35 63 bd
       -0.023087285 -0.04179781 -0.09406572 -0.05547073
000240 cc 19 2d bd 6f 01 fe 3d c0 2c 5d 3d 64 a2 2f bc
       -0.04226093 0.12402617 0.053997755 -0.010719869
000250 aa 6a f6 3b c7 f7 20 3d 0b a8 07 3c 7d 45 84 bd
       0.0075200396 0.0392988 0.008279811 -0.06458566
000260 66 02 cb bd 52 20 af bd b2 f2 fc 3c c3 a5 04 bc
       -0.09912567 -0.085510865 0.030877445 -0.008096161
000270 a6 8f a5 bd 09 5d 98 3d 9e 39 a0 3d 66 75 d3 3c
       -0.080840394 0.0743962 0.078234896 0.025812816
000280 39 17 c6 3d 92 86 a4 bd 23 19 a7 bd d0 bc 28 3d
       0.09672398 -0.0803348 -0.08159091 0.04119569
000290 ff 7f ea 3d 24 df 98 3c f5 35 bc bd 99 c9 8e bc
       0.114501946 0.01866109 -0.09189979 -0.017430114
0002a0 f8 ab de bc 5b 43 98 bd cd 12 33 bd 6e e6 24 bd
       -0.02718161 -0.07434722 -0.0437191 -0.040258817
0002b0 29 1a 89 3c 7f a3 ab bc 4d 25 f6 3d a6 f5 a0 bd
       0.016736107 -0.020951984 0.12018833 -0.07859354
0002c0 6e 82 89 3c e7 64 cc 3d ca 77 c4 bb f3 22 e6 bd
       0.016785827 0.09980183 -0.0059957253 -0.11237135
0002d0 c6 a3 0e 3b e8 c4 4c 3d 01 71 ab bd 69 10 8e 3d
       0.0021765097 0.049992472 -0.08371163 0.06936724
0002e0 04 82 d0 39 ac fc 9d bd 30 9a fe 3c fb 1f 6f bd
       0.0003976972 -0.07714209 0.031079382 -0.05838011
0002f0 d1 ca 03 3e cd 36 e2 bd 2c 67 b3 bd 48 09 3a b9
       0.12870337 -0.11045609 -0.08759913 -0.000177418
000300 fd a4 35 3c 33 b4 e4 bc 11 25 1a bd 22 2e 81 bd
       0.0110867 -0.027917957 -0.037633006 -0.06307627
000310 81 77 b5 3d f2 b1 ee 3d fc c6 a3 bd db bf 98 bc
       0.08860684 0.11655034 -0.07996938 -0.018646171
000320 7f fe cf bd f6 ca f1 3d ab 24 52 bd 8e 25 94 bd
       -0.10155963 0.1180629 -0.0513045 -0.072337255
000330 c9 c3 5e bd cb 30 e4 3c 5a 9f 3b 3d 5a d9 b3 bd
       -0.054385934 0.027855298 0.045806266 -0.08781691
000340 62 f9 b6 bc 49 13 8d 3d bf a5 ec 3c 61 dc f6 bd
       -0.022335712 0.06888444 0.028887628 -0.12053753
000350 ae 9b 75 3d 8c db f6 3d 40 65 78 3c 8c a5 03 3e
       0.05996292 0.12053594 0.015160859 0.1285612
000360 53 c7 c8 3d 76 3e c4 bd 07 73 40 bd cb 86 ec 3d
       0.09803643 -0.09582226 -0.0469847 0.11549147
000370 ba 62 37 bd f8 28 eb 3d 13 77 ca bd a3 df bd 3d
       -0.044771887 0.114824235 -0.09885993 0.09271171
000380 0e 9d ce 3c cf 25 eb bd 6c 63 03 be 5c f2 db bd
       0.025221374 -0.11481821 -0.12830895 -0.10739586
000390 d0 b9 d0 3d 21 09 09 3d 1e 8a 37 3d e3 7d 46 bd
       0.10191691 0.03345597 0.044809453 -0.0484599
0003a0 ff 69 dc bd 8b 1d bc 3d 31 1d 81 bd 5d d5 4b bc
       -0.10762405 0.091853224 -0.06304396 -0.0124410065
0003b0 39 e1 78 bc 1f e4 bd 3d cd 84 5f 3d ec 2f ae bc
       -0.015190416 0.09272026 0.054570008 -0.021263085
0003c0 0f 45 01 3e 78 d5 e1 3d 22 39 59 bc 6b 83 c4 3d
       0.12624 0.11027044 -0.01325825 0.095953785
0003d0 35 0f 46 bd b7 4f d0 bd d0 e9 ec 3d ba b1 44 bb
       -0.048354346 -0.101714544 0.11568034 -0.003001316
0003e0 05 ec 38 bc 0a 25 a1 bd b9 53 27 bd e6 6b 71 bd
       -0.01128674 -0.07868393 -0.04085133 -0.05894079
0003f0 b3 6d 43 3c f4 3b e4 bd ee 7f 32 3d 0c 81 cd 3c
       0.01192801 -0.11144248 0.043579035 0.025085948
