checkpoints/models/single_stock_daily/81to9/000001/model10.pth (torch, 543834 bytes, 24 tensors)

encoder.conv1.weight f4 [18, 6, 3]
0	0xbd8d9702	-0.06913568
1	0xbdaee98e	-0.08540641
2	0xbbcd4790	-0.0062646344
3	0x3df85b17	0.12126749
4	0xbe589149	-0.21149172
5	0xbdf081a2	-0.117434755
6	0xbd8027b1	-0.062575705
7	0xbda65a0f	-0.08122646
8	0x3c368429	0.011139908
9	0x3e3e2ed9	0.18572558
10	0x3d9104c9	0.07080991
11	0xbe4a4b70	-0.1975534
12	0x3e6d195a	0.23154202
13	0x3e55a06d	0.20861979
14	0x3db71be2	0.08940865
15	0x3e0c7201	0.13715364
16	0x3e02e04e	0.12780878
17	0x3e6e2cc1	0.2325926
18	0xbe686148	-0.2269336
19	0xbe19b3fc	-0.15010065
20	0xbd04a2bb	-0.032381754
21	0xbd4c81ed	-0.049928594
22	0xbe27539c	-0.16340488
23	0xbe6cbbcc	-0.23118514
24	0xbe3ed52d	-0.18636008
25	0xbd3a89ee	-0.045541696
26	0x3e46533f	0.19367693
27	0x3e1a174a	0.15047947
28	0x3d752b8c	0.059855983
29	0xbe1a47a1	-0.15066387
30	0xbdce044d	-0.10059414
31	0x3c71f255	0.014767249
32	0xbe65a5b9	-0.224265
33	0xbc42b5ac	-0.011884134
34	0x3d217e4c	0.039427087
35	0x3e5521f1	0.20813729
36	0xbd846b84	-0.064658195
37	0x3e684817	0.2268375
38	0x3c61d400	0.013783455
39	0xbe2daee0	-0.16961241
40	0x3e5d4dce	0.21611711
41	0x3e4ba47f	0.19886969
42	0xbe4564bf	-0.19276713
43	0xbe1374d0	-0.14400029
44	0x3ddb17a4	0.106978685
45	0xbe1b0196	-0.15137324
46	0x3e1ce93c	0.15323347
47	0xbdf1e039	-0.11810345
48	0xbda2cac6	-0.07948832
49	0xbd98dcaa	-0.07463963
50	0x3e6084fe	0.21925732
51	0xbdb22598	-0.08698577
52	0xbd61dd93	-0.05514295
53	0x3e0a0bd2	0.13481072
54	0xbe1e8841	-0.15481664
55	0x3b7f5202	0.0038958793
56	0xbe366776	-0.17812905
57	0xbe5f2d70	-0.21794677
58	0xbd6630e5	-0.056198973
59	0x3cc9a4e6	0.024614763
60	0x3e4be79d	0.19912572
61	0xbe6c5759	-0.23080195
62	0xbd9230b9	-0.07138199
63	0x3d78fef9	0.060790036
64	0x3dae88f6	0.08522217
65	0x3e0a3d0a	0.13499847
66	0xbe434a00	-0.19071198
67	0xbd7ae36e	-0.06125205
68	0x3d54e04c	0.05197172
69	0xbe4ae1c0	-0.1981268
70	0x3dce1a20	0.10063577
71	0xbe798c81	-0.24370004
72	0x3e175d7d	0.14781757
73	0x3d917582	0.07102491
74	0xbd85cdb0	-0.065333724
75	0x3d996b81	0.07491208
76	0x3e4cc6f7	0.19997774
77	0x3e3618b2	0.17782858
78	0x3e1222c1	0.1427107
79	0xbe097546	-0.13423643
80	0x3d9be97f	0.07612895
81	0x3e3438bc	0.17599767
82	0x3d31866c	0.043341085
83	0x3e26b21a	0.16278878
84	0xbe1689ff	-0.14701079
85	0x3e2b7791	0.1674483
86	0xbaac4d5f	-0.0013145617
87	0xbe5ef47a	-0.21772948
88	0xbd70e25a	-0.058809616
89	0x3e66b646	0.2253047
90	0xbda20d62	-0.07912709
91	0xbd2cd7cc	-0.042197987
92	0xbdc187ab	-0.09449705
93	0xbe04026c	-0.12891549
94	0x3d17118f	0.03688198
95	0x3e114988	0.14188206
96	0x3ccb495f	0.02481526
97	0xbcb886c6	-0.022525202
98	0x3c1a1105	0.009403472
99	0xbe36fca3	-0.17869811
100	0xbe058e2f	-0.1304252
101	0x3c11bcbf	0.008895098
102	0xbe42fdbc	-0.19042104
103	0x3de2a209	0.11066062
104	0x3d07f162	0.033189185
105	0x3c87d77e	0.016582247
106	0xbca06326	-0.019578528
107	0x3e48db8c	0.19615
108	0x3e5bc34c	0.21461219
109	0x3ded18dc	0.11577007
110	0x3df8c951	0.12147773
111	0xbdd2e461	-0.10297466
112	0x3de4fd65	0.11181144
113	0xbe13bcd1	-0.14427496
114	0x3dee3919	0.11631984
115	0xbe163a3a	-0.14670649
116	0x3c9d7a52	0.019223366
117	0x3e3c3854	0.18380862
118	0x3e33174f	0.1748936
119	0x3e68143f	0.22663973
120	0x3dbf74f9	0.09348483
121	0x3de0cdf8	0.109767854
122	0x3da64ac9	0.08119733
123	0x3e41774d	0.18893166
124	0x3e217504	0.15767294
125	0x3de04d6a	0.109522656
126	0xbdbaa9cb	-0.09114417
127	0xbdee7a81	-0.116444595
128	0xbd81718b	-0.06320485
129	0x3de0d86f	0.109787814
130	0xbe051553	-0.12996416
131	0x3d798d16	0.060925566
132	0x3e513237	0.20429312
133	0x3e4bcfb7	0.19903456
134	0xbe353e32	-0.17699507
135	0x3d8508c1	0.0649581
136	0x3e1cd7e5	0.15316732
137	0xbe5eb691	-0.21749331
138	0x3e17df26	0.14831218
139	0xbe178f08	-0.14800656
140	0xbe3220a2	-0.17395261
141	0xbdd2238a	-0.10260685
142	0xbdb0c976	-0.086321756
143	0xbdd186a6	-0.1023076
144	0x3d85c3d2	0.065314904
145	0x3db36e9b	0.08761331
146	0x3db24a26	0.08705549
147	0x3e202e30	0.15642619
148	0xbe2128b9	-0.1573819
149	0xbe6d47b9	-0.23171891
150	0xbe4983ef	-0.19679235
151	0xbe0f807b	-0.14013855
152	0xbdf16c92	-0.11788286
153	0x3dc59771	0.09648026
154	0xbe3881ea	-0.18018308
155	0xbe39e4a0	-0.1815362
156	0x3df412b7	0.11917632
157	0xbe23444a	-0.15944019
158	0x3d102cf7	0.03519913
159	0xbe41674b	-0.1888706
160	0x3d94e0e0	0.07269454
161	0x3e03ec00	0.12882996
162	0xbe545836	-0.20736775
163	0x3d97a8ef	0.074052684
164	0xbe024743	-0.12722497
165	0x3e1a88a6	0.1509119
166	0x3e5e12af	0.21686815
167	0xbe473835	-0.19455035
168	0x3dbc669a	0.09199257
169	0x3e2c428f	0.16822265
170	0x3e644b56	0.22294363
171	0x3e392885	0.18081863
172	0x3d5c1d98	0.05373916
173	0x3ca9ed40	0.020743012
174	0x3d519a7b	0.051172715
175	0xbe08bb42	-0.13352683
176	0xbd22a107	-0.03970435
177	0xbbb13de8	-0.005408991
178	0xbe0a8866	-0.13528594
179	0x3c03bad1	0.008040146
180	0xbd097a37	-0.03356382
181	0xbda1f8c5	-0.07908777
182	0xbd937df9	-0.07201762
183	0xbe71c2bf	-0.23609446
184	0x3e653657	0.2238401
185	0x3de6bf3f	0.11266946
186	0x3e2d8cf7	0.16948305
187	0xbe4db03c	-0.2008676
188	0xbe707f49	-0.23486055
189	0x3e325642	0.17415717
190	0xbd2b527e	-0.041826718
191	0x3d06c28a	0.03290037
192	0x3defd3de	0.11710332
193	0x3c6ebbff	0.014571189
194	0xbc3e6b8e	-0.011622323
195	0x3e09bbe6	0.13450584
196	0x3e3ea4d6	0.18617567
197	0xbd989524	-0.07450321
198	0xbe521acd	-0.20518036
199	0xbe07944d	-0.13240166
200	0x3e26e20b	0.16297166
201	0x3c6b15a0	0.0143484175
202	0x3e4833bb	0.19550984
203	0xbdb65746	-0.08903365
204	0xbe6b52c1	-0.22980787
205	0x3d88223e	0.06647156
206	0xbddba460	-0.107247114
207	0xbe169f70	-0.14709258
208	0x3e0fece8	0.14055216
209	0x3c20cc80	0.009814382
210	0xbcd9f592	-0.026606355
211	0x3e643454	0.22285587
212	0x3e4b4506	0.19850549
213	0xbe5ac4ab	-0.21364085
214	0xbe756b20	-0.23966646
215	0xbe0ebdc5	-0.13939579
216	0xbe40e6ed	-0.18838091
217	0xbe02ff25	-0.12792642
218	0x3e1f556f	0.15559934
219	0xbe217f48	-0.1577121
220	0x3e5ecbb4	0.21757394
221	0x3d97e18d	0.07416067
222	0x3c3410fa	0.010990376
223	0x3d3629da	0.044473507
224	0x3d58e75e	0.052955024
225	0x3d9b6384	0.075873405
226	0xbe4137ac	-0.18868893
227	0xbafdf58f	-0.001937555
228	0x3e20189b	0.15634386
229	0x3e72af50	0.23699689
230	0xbc2c9395	-0.010533233
231	0xbe2d4f9a	-0.16924897
232	0x3df05bb6	0.117362425
233	0xbe527cb7	-0.20555387
234	0x3e52ea81	0.20597269
235	0x3e0df5ed	0.13863344
236	0x3dcd758d	0.10032187
237	0x3ce592f0	0.028024167
238	0x3e2992b1	0.16559865
239	0xbdccdc18	-0.10002917
240	0xbe4ec522	-0.20192388
241	0xbe0d4a23	-0.13797812
242	0x3e2cfd72	0.16893557
243	0xbdfb119f	-0.1225922
244	0xbe477793	-0.19479208
245	0x3d3bcbf9	0.04584882
246	0xbe1ad8ef	-0.15121816
247	0xbc8928a5	-0.016743014
248	0xbe1f0029	-0.15527405
249	0x3d310edd	0.043227065
250	0xbd5605e0	-0.052251697
251	0x3c8b0140	0.01696837
252	0x3ddc3761	0.1075275
253	0xbe1c0f54	-0.15240222
254	0xbdadafeb	-0.08480819
255	0xbe23a3bd	-0.1598043

encoder.conv1.bias f4 [18]
0	0x3d228c0f	0.03968435
1	0x3daa74bb	0.08323046
2	0xbe13c8e8	-0.14432108
3	0xbd70d8cf	-0.058800515
4	0xbde82996	-0.11336057
5	0x3e5e8764	0.21731335
6	0x3d565151	0.052323643
7	0xbe3cb14e	-0.18427011
8	0x3e2a2780	0.1661663
9	0xbd53afc0	-0.05168128
10	0x3c76a7ca	0.0150546525
11	0x3ce92127	0.028458191
12	0xbd130a51	-0.03589851
13	0x3e620a0a	0.22074142
14	0x3dde37b7	0.108504705
15	0x3d32040c	0.04346089
16	0xbdadc947	-0.08485656
17	0x3d63b545	0.055592794

encoder.conv2.weight f4 [54, 18, 3]
0	0xbdbba0c3	-0.09161522
1	0xbd1737c6	-0.036918424
2	0x3da0642c	0.07831606
3	0xbe0a63cc	-0.13514632
4	0xbb9c6ba3	-0.0047735735
5	0xbd50c84d	-0.05097227
6	0x3da33f2d	0.07971034
7	0xbda305e4	-0.07960108
8	0x3cffe02c	0.031234823
9	0xbd233ab6	-0.039850913
10	0x3de73763	0.11289861
11	0xbcad1c45	-0.021131644
12	0xbdc231f6	-0.094821855
13	0xbd19f9e3	-0.037591826
14	0x3dcc5f07	0.099790625
15	0x3d502d17	0.05082425
16	0x3cd1440b	0.02554514
17	0x3da72db0	0.08163011
18	0x3d5bcd1b	0.0536624
19	0xbc819339	-0.015817272
20	0xbd910886	-0.07081704
21	0xbe053b67	-0.13010941
22	0x3d871445	0.06595663
23	0x3dda9b6d	0.10674176
24	0xbd7e1d9b	-0.062039953
25	0xbd916600	-0.07099533
26	0x3c6b4802	0.01436043
27	0xbb4b267e	-0.0030998285
28	0x3de9e38a	0.11420353
29	0x3bd82f55	0.0065974393
30	0x3ba60c91	0.005067416
31	0xbdedaf8f	-0.11605751
32	0x3d576953	0.05259068
33	0x3b842145	0.0040322863
34	0x3d069f98	0.032867044
35	0x3da7a5fe	0.08185957
36	0x3d8b05ba	0.06788202
37	0x3c209e2e	0.009803338
38	0xbaf5cddd	-0.0018753369
39	0xbd93c755	-0.07215754
40	0x3df49099	0.11941642
41	0x3de10a43	0.109882854
42	0xbc4dcd23	-0.012561115
43	0x3e0395df	0.1285014
44	0x3de83c8f	0.11339676
45	0x3dae0804	0.084976226
46	0x3d9f882e	0.07789646
47	0x3d7b2a05	0.06131937
48	0xbcc07ca6	-0.023496937
49	0x3c58c064	0.013229463
50	0x3de0f165	0.10983542
51	0xbcf1e1ea	-0.02952667
52	0x3d155c53	0.036465
53	0xbd49798e	-0.04918819
54	0x3cb9711e	0.022636946
55	0x3db86288	0.09003168
56	0x3db85968	0.09001428
57	0x3d8824ac	0.066476196
58	0x3d8653fc	0.065589875
59	0xbcf84170	-0.03030464
60	0x3e190fa4	0.14947373
61	0x3dd52eb8	0.104093015
62	0x3e0e3544	0.13887507
63	0xbdddc95c	-0.10829422
64	0xbd75e9fa	-0.06003759
65	0xbde24e13	-0.11050048
66	0x3c821aad	0.01588186
67	0x3dd8e609	0.10590751
68	0xbdc0299d	-0.09382937
69	0x3cf607da	0.03003304
70	0xbc842de9	-0.016135173
71	0xbe093753	-0.13400011
72	0xbbcdd3b1	-0.006281339
73	0xbc86da0f	-0.0164614
74	0xbd8ab908	-0.06773573
75	0xbdaadba2	-0.08342673
76	0x3dad44c4	0.084603816
77	0xbc2bd3d1	-0.010487513
78	0xbd25eedf	-0.04051101
79	0xbd551722	-0.052024014
80	0xbcd1cf42	-0.025611524
81	0xbd11325a	-0.03544841
82	0xbd95ed2d	-0.07320628
83	0x3d77d6fd	0.060507763
84	0xbc8d90a0	-0.017280877
85	0xbdefd302	-0.117101684
86	0xbd87d54b	-0.06632479
87	0xbc9caf4f	-0.019126562
88	0xbd415cbd	-0.047207583
89	0x3d078f0d	0.03309541
90	0x3e06c8b4	0.131625
91	0xbdb4c1e0	-0.08826041
92	0x3abfb942	0.0014627355
93	0x3de5a386	0.1121283
94	0xbdb3d2b3	-0.08780422
95	0xbde5ba59	-0.112171836
96	0x3cace1e6	0.02110381
97	0xbbb21c2c	-0.0054354873
98	0xbb1f2aee	-0.0024287063
99	0x3dac6d21	0.08419252
100	0xbde5219a	-0.111880496
101	0xbda50c60	-0.08059001
102	0x3dcb244e	0.09919034
103	0xbdcddb17	-0.10051554
104	0xbca62d7e	-0.020285364
105	0x3d61bc4d	0.05511122
106	0xbda3adac	-0.0799211
107	0xbddc2336	-0.107489035
108	0xbda7c8ba	-0.081925824
109	0xbdca112d	-0.09866557
110	0xbde7009e	-0.112794146
111	0xbcd48762	-0.025943462
112	0xbe0506c1	-0.12990858
113	0xbdb0dc02	-0.08635713
114	0x3c703691	0.014661447
115	0x3e07f3a8	0.13276541
116	0x3e0b26db	0.13589041
117	0x3de2b95f	0.11070513
118	0x3c4697da	0.012121165
119	0x3da756ac	0.08170828
120	0xbd1abb3f	-0.037776228
121	0xbda9ad20	-0.08284974
122	0x3d9532c5	0.07285074
123	0x3d6092a6	0.054827355
124	0x3d46e6c7	0.04855993
125	0x3d8105c1	0.062999256
126	0xbcfe93a2	-0.031076256
127	0x3dd3b38e	0.10336982
128	0x3d9e9c50	0.07744658
129	0xbd7e3e3f	-0.06207108
130	0x3dc75946	0.097338244
131	0x3d3ec676	0.046575986
132	0xbb9737e4	-0.004614817
133	0xbc27dda7	-0.010245717
134	0x3dd7230e	0.10504733
135	0x3c1ec075	0.00968944
136	0x3d63b3b7	0.05559131
137	0x3ddbe306	0.10736661
138	0x3b7fe1d6	0.003904452
139	0x3e024ee9	0.12725414
140	0xbd97b579	-0.0740766
141	0x3a9b24d6	0.001183654
142	0x3cdf15e3	0.027232116
143	0x3ca3f7d3	0.020015633
144	0xbdbc48f2	-0.09193601
145	0x3e0fcefa	0.14043799
146	0xbd85d6dc	-0.06535122
147	0x3dccb585	0.099955596
148	0xbd5a6ee8	-0.053328425
149	0x3d615952	0.055016823
150	0xbda99f72	-0.08282365
151	0xbd8b2ef0	-0.06796062
152	0x3ce51f9b	0.027969172
153	0x3dc6a331	0.09699095
154	0xbbcd4591	-0.0062643965
155	0x3d661259	0.05616984
156	0xbd9d8f97	-0.07693403
157	0x3d1c4303	0.038149845
158	0xbca54b86	-0.020177614
159	0xbd16236f	-0.036654886
160	0x3d793b1c	0.060847387
161	0xbd509ffa	-0.050933816
162	0xbdb105e2	-0.086437
163	0xbd105166	-0.035233878
164	0x3d90d2a4	0.070714265
165	0x3e076b49	0.1322452
166	0x3e0006ef	0.12502645
167	0x3dc82b61	0.09773899
168	0xbd87fdd7	-0.06640213
169	0x3e0925c3	0.13393311
170	0x3d87a612	0.06623472
171	0x3cdcae06	0.02693845
172	0xbd9cd39e	-0.0765755
173	0xbd8e6d31	-0.0695442
174	0x3d101fd5	0.035186607
175	0xbc4779f4	-0.012175072
176	0xbd2342b0	-0.03985852
177	0xbdd8df19	-0.105894275
178	0x3de26af5	0.11055557
179	0x3d1736cf	0.036917504
180	0x3c7db108	0.015484102
181	0x3c359233	0.01108222
182	0x3d9185b4	0.0710558
183	0xbda44c8a	-0.08022411
184	0xbb313df3	-0.0027044981
185	0x3dfc57ac	0.123214096
186	0xbcf0dbb2	-0.029401634
187	0xbe01384a	-0.12619129
188	0xbdb64c91	-0.08901323
189	0x3dab3a86	0.08360772
190	0x3d996501	0.07489968
191	0x3dc4e1ea	0.09613402
192	0xbd77733c	-0.06041263
193	0xbd84ea0d	-0.06489954
194	0xbdf093fe	-0.11746977
195	0x3c8b7683	0.017024284
196	0xbcc6456b	-0.024203023
197	0x3e068da2	0.13139966
198	0xbd6bffda	-0.057617046
199	0xbda268ce	-0.07930146
200	0x3d76be2d	0.06023996
201	0xbd5b269c	-0.053503618
202	0xbc90bb4e	-0.017667439
203	0x3e061e37	0.13097464
204	0x3d9b8523	0.07593753
205	0xbe10d312	-0.14143017
206	0x3ba18afc	0.0049298983
207	0xb825e196	-3.954916e-05
208	0x3e07ceef	0.13262533
209	0xbdf2371d	-0.11826918
210	0x3db56f2d	0.08859096
211	0xbe093ebf	-0.13402842
212	0xbe099773	-0.1343668
213	0xbd95406c	-0.07287678
214	0xbe08b20e	-0.13349172
215	0xbc1e3153	-0.0096553145
216	0x3dc055ac	0.093913406
217	0xbd84e2d0	-0.064885736
218	0xbdfff580	-0.12497997
219	0xbb18c534	-0.0023310902
220	0xbdd1f518	-0.10251826
221	0x3dc9a75b	0.09846374
222	0xbb9e9b1c	-0.004840268
223	0x3de6a2b4	0.11261502
224	0x3d539eb4	0.051665023
225	0x3d642a5b	0.055704456
226	0x3d554fe9	0.05207816
227	0x3e069a07	0.13144694
228	0xbdd02b12	-0.10164465
229	0xbdc64373	-0.09680834
230	0x3dc224c8	0.09479672
231	0x3d501b9b	0.050807577
232	0x3e0b5476	0.13606438
233	0x3d18ee26	0.03733649
234	0x3d28f5ab	0.041249912
235	0x3d9a997f	0.07548808
236	0x3da8430a	0.08215912
237	0x3da59290	0.08084595
238	0xbdd5f649	-0.10447366
239	0x3d2c53af	0.042071994
240	0xbd97cccd	-0.074121095
241	0x3d1ce149	0.038300786
242	0x3db42295	0.087956585
243	0xbd6d304e	-0.057907395
244	0x3dbe154d	0.092814066
245	0x3dd41745	0.10356001
246	0x3d52a4dc	0.051426753
247	0xbde85b0d	-0.113454916
248	0xbc151ceb	-0.009101133
249	0x3dd1e04a	0.10247858
250	0x3cce9b4b	0.025220534
251	0x3df9d0c6	0.121980235
252	0xbbd9bdce	-0.006644941
253	0xbdb3f398	-0.08786696
254	0x3d9589fa	0.073017076
255	0x3d3e11a3	0.04640354

encoder.conv2.bias f4 [54]
0	0x3da7c6d0	0.08192217
1	0x3dfaca22	0.12245585
2	0xbd9dc423	-0.07703426
3	0xbdac25f2	-0.08405675
4	0xbc284da6	-0.010272419
5	0x3def6c0f	0.116905324
6	0xbc96d6c8	-0.018412963
7	0xbe085b80	-0.13316154
8	0xbd634053	-0.055481266
9	0xbd9f6654	-0.077831894
10	0x3dc811c9	0.09769017
11	0xbdbfdcc0	-0.093682766
12	0x3dd3626e	0.10321508
13	0x3d4ca023	0.049957406
14	0xbc5ad88d	-0.013357294
15	0xbcfb84f1	-0.03070304
16	0x3d9366aa	0.07197316
17	0xbd955760	-0.07292056
18	0xbd747f0b	-0.05969147
19	0x3df9b50a	0.121927336
20	0xbd573983	-0.05254508
21	0x3c6245ad	0.013810557
22	0x3ddbabac	0.10726103
23	0xbdd522e3	-0.10407045
24	0x3ccedddb	0.025252273
25	0x3b924f06	0.0044649867
26	0xbd9813e8	-0.07425672
27	0x3df483f5	0.11939231
28	0x3dc3b15d	0.09555314
29	0xbc7302a6	-0.014832174
30	0xbcb5ab8f	-0.022176532
31	0x3dbf39e9	0.09337217
32	0xbd3d1358	-0.046161026
33	0x3d98388c	0.074326605
34	0xbdb1fdbc	-0.08690974
35	0xbdd77c8d	-0.10521803
36	0x3dbbe26c	0.09174046
37	0x3dbd3150	0.09237921
38	0xbdd18c5c	-0.102318496
39	0xbd190fcd	-0.037368584
40	0x3d8dbd8b	0.06920918
41	0x3d9ffaa7	0.0781148
42	0x3d988d69	0.07448847
43	0x3dbe0f1f	0.09280228
44	0xbd7a8876	-0.061165296
45	0x3ce21a77	0.02760051
46	0x3de9465f	0.11390375
47	0xbdda6c23	-0.10665157
48	0x3db4447d	0.088021256
49	0x3cf9ecc6	0.03050841
50	0xbb963975	-0.004584486
51	0x3e074748	0.13210785
52	0xbd768ed2	-0.060194798
53	0xbd30aa89	-0.043131385

encoder.rnn.weight_ih_l0 f4 [192, 54]
0	0xbdc56350	-0.09638083
1	0x3dd04860	0.101700544
2	0xbdb33528	-0.08750373
3	0x3deb6f0d	0.11495791
4	0xbdd00778	-0.101576746
5	0x3d8b0831	0.06788672
6	0xbd86dc38	-0.06584972
7	0x3ddb7013	0.10714736
8	0xbda3ff31	-0.08007658
9	0xbd9eb241	-0.07748843
10	0xbd224a98	-0.03962192
11	0xbdc6a68d	-0.09699736
12	0x3df8b3b8	0.12143654
13	0x3d4bee83	0.04978801
14	0xbd823448	-0.06357628
15	0xbdc89d4a	-0.097956255
16	0xbd37bc02	-0.044857033
17	0x3cb869ef	0.02251145
18	0xbd577231	-0.052599136
19	0x3d8ddd49	0.069269724
20	0xbd6b911a	-0.057511427
21	0x3d257867	0.040398028
22	0x3db11637	0.08646815
23	0xbdaec9f4	-0.08534613
24	0xbdc44167	-0.09582787
25	0xbdfbbbb3	-0.1229166
26	0x3cdc0064	0.026855655
27	0x3dce8f0a	0.10085876
28	0xbdaa869d	-0.08326457
29	0xbc5e5e51	-0.0135722915
30	0x3d99189a	0.074753955
31	0x3dcd7b2c	0.10033259
32	0x3d93a5bd	0.072093464
33	0x3d159926	0.036523007
34	0x3cd019eb	0.025402984
35	0x3c4fc469	0.012681105
36	0x3de5e78e	0.11225806
37	0x3a724f9c	0.000924343
38	0x3d55fcba	0.052242972
39	0xbc4f43e2	-0.012650462
40	0x3dc36cb7	0.0954222
41	0xbdf657f2	-0.12028493
42	0xbd316cb9	-0.043316577
43	0xbdfcbf6c	-0.12341198
44	0x3d064f6e	0.032790594
45	0xbceaa6d9	-0.028644012
46	0xbdd9a24e	-0.1062666
47	0xbdcb01e5	-0.09912471
48	0x3d035e3d	0.032072295
49	0x3db924ee	0.09040247
50	0x3dd2a328	0.10285026
51	0x3da874e7	0.08225422
52	0xbdc79561	-0.09745289
53	0x3dcdd08d	0.100495435
54	0x3e01be48	0.12670243
55	0x3c8486ae	0.016177502
56	0xbe155248	-0.14582169
57	0xbdcc6153	-0.099795006
58	0xbe1f5f03	-0.15563588
59	0x3ce31c9e	0.027723607
60	0x3de860aa	0.11346562
61	0x3dbc10cd	0.09182892
62	0xbd8bab86	-0.06819825
63	0xbd83ee88	-0.064419806
64	0x3d1fbbcd	0.03899746
65	0xbd9e4561	-0.07728077
66	0xbc8b8a11	-0.017033609
67	0x3cd7e69a	0.026355077
68	0xbd7e8260	-0.062136054
69	0x3d603f64	0.054747954
70	0xbc1975e7	-0.009366489
71	0x3ddcda01	0.107837684
72	0xbde6cf84	-0.11270049
73	0x3deffb08	0.11717802
74	0x3da3c83c	0.07997176
75	0xbdf0bcf9	-0.11754794
76	0x3d23ca39	0.039987776
77	0xbc0f2a25	-0.008738075
78	0x3d6820fa	0.056672074
79	0x3dce66b6	0.10078184
80	0xbda30503	-0.0795994
81	0xbd925136	-0.07144396
82	0xbda93386	-0.082617804
83	0x3d985d89	0.074397154
84	0xbdbf96f7	-0.09354966
85	0xbda61ac3	-0.08110573
86	0x3dd4f2f8	0.10397905
87	0x3d9808d4	0.07423559
88	0x3da68f1b	0.08132764
89	0x3dca173d	0.098677136
90	0xbde88ffd	-0.113555886
91	0xbcbaeb7c	-0.022817366
92	0xbc92148c	-0.017832063
93	0x3dfbc492	0.12293352
94	0xbcb10c72	-0.02161238
95	0xbcd8e6c0	-0.026477218
96	0x3da0a4db	0.07843944
97	0x3d96543a	0.07340284
98	0xbdbcc801	-0.09217835
99	0xbe17a0a4	-0.14807373
100	0xbd3ddbe0	-0.046352267
101	0x3d61f682	0.05516673
102	0x3e046d17	0.1293224
103	0x3d8057dc	0.06266758
104	0x3d9d5a81	0.07683278
105	0x3d4a8600	0.0494442
106	0xbd2a4d8d	-0.041577864
107	0xbc8100dc	-0.01574748
108	0x3da6a627	0.0813716
109	0x3b71fb42	0.0036923443
110	0xbb5f7ff9	-0.0034103377
111	0x3d1b07e4	0.037849322
112	0x3de9f19e	0.11423038
113	0x3ce0097f	0.027348278
114	0xbd1fbefb	-0.039000493
115	0xbdafa5be	-0.08576535
116	0xbd625b43	-0.055262815
117	0xbd2930ed	-0.041306425
118	0x3d91482e	0.07093845
119	0x3df2f62d	0.118633606
120	0xbd3fe3d3	-0.04684813
121	0x3e054ca0	0.13017511
122	0xbd4a8fb9	-0.04945347
123	0xbd653280	-0.055956364
124	0x3c7ebfba	0.015548641
125	0xbdfd19d1	-0.1235844
126	0xbd9febf1	-0.07808674
127	0xbd1e224f	-0.038606938
128	0xbd90895b	-0.070574485
129	0x3db2bf07	0.08727842
130	0xbd3eedd3	-0.046613526
131	0xbdb40bdb	-0.08791324
132	0xbdac18e8	-0.08403188
133	0x3dc7f51b	0.09763547
134	0x3d969a10	0.07353604
135	0xbdc25140	-0.094881535
136	0xbdfdbf76	-0.12390034
137	0xbd5a78df	-0.053337928
138	0x3db5fb58	0.08885831
139	0x3db0ba8d	0.08629332
140	0x3d804f0b	0.06265076
141	0x3d5647e0	0.05231464
142	0x3d558af7	0.05213448
143	0x3de5263f	0.111889355
144	0xbda6fa21	-0.08153177
145	0x3d8bb583	0.0682173
146	0x3d982742	0.07429363
147	0x3c85e610	0.016345054
148	0x3d98c999	0.07460327
149	0xbce4aa12	-0.027913127
150	0xbda51d30	-0.08062208
151	0xbd40540e	-0.04695516
152	0xbda85bed	-0.082206585
153	0x3ce147b6	0.027500015
154	0x3d01f96c	0.031732008
155	0x3c5048b5	0.012712647
156	0xbcb67c3e	-0.02227604
157	0x3cdca29f	0.026933013
158	0xbe13829b	-0.14405291
159	0xbdc11a33	-0.09428825
160	0xbdb5eec7	-0.08883434
161	0x3dd63a8f	0.10460388
162	0xbdee2097	-0.1162731
163	0x3d67389e	0.05645048
164	0x3db21ce9	0.086969204
165	0xbd14daee	-0.0363416
166	0xbc0c2733	-0.008554268
167	0x3dcd0e3e	0.10012482
168	0xbdd8038c	-0.105475515
169	0xbe04b677	-0.1296023
170	0xbc7c883d	-0.015413341
171	0xbc59fe1c	-0.013305213
172	0xbd5d9f63	-0.05410708
173	0x3c4a217c	0.012337085
174	0x3d9229ed	0.07136903
175	0x3d91cc60	0.071190596
176	0x3d14b849	0.03630856
177	0x3daec2d8	0.08533257
178	0xbd7b0ea0	-0.061293244
179	0x3c2ae0d1	0.010429577
180	0x3d363259	0.04448161
181	0x3d19ff64	0.037597075
182	0xbd2e7934	-0.042596057
183	0x3ddfdf78	0.10931295
184	0xbdc8c08d	-0.09802351
185	0xbd563028	-0.05229202
186	0xbde6f089	-0.11276347
187	0x3c3b9bed	0.01145075
188	0xbdc1775c	-0.09446594
189	0x3dcf8bb5	0.10134069
190	0xbdb1c70e	-0.08680545
191	0x3d137f16	0.03600987
192	0x3ddd673e	0.108107075
193	0x3df4d01a	0.11953755
194	0x3d380aae	0.04493206
195	0x3d2fd40e	0.04292684
196	0x3cd607a5	0.026126692
197	0x3d991c88	0.07476145
198	0xbb06381b	-0.0020480219
199	0xbdc6e001	-0.09710694
200	0x3de7f54e	0.11326085
201	0xbdc75f54	-0.09734979
202	0x3df408bd	0.11915729
203	0x3c177840	0.009244978
204	0x3d5e8c91	0.054333273
205	0x3a65a53b	0.0008760278
206	0x3d5e68f7	0.05429932
207	0x3dbc255a	0.09186812
208	0xbdf6f518	-0.12058467
209	0x3d8ce328	0.06879264
210	0xbd37948e	-0.044819407
211	0xbdee5759	-0.11637754
212	0xbdd3b66a	-0.10337527
213	0x3c1022ab	0.008797328
214	0x3dcd1346	0.10013442
215	0xbdf9e52e	-0.12201916
216	0x3d110cbb	0.03541253
217	0x3d4db7b4	0.05022402
218	0xbdeb28e0	-0.11482406
219	0x3cf742d7	0.030183239
220	0xbd88ad39	-0.066736646
221	0x3c9682f3	0.018372988
222	0xbd3de9ec	-0.046365663
223	0x3dd88615	0.10572449
224	0xbde7ee5c	-0.1132476
225	0x3d877ae7	0.06615239
226	0xbd3a9c44	-0.045559183
227	0x3d1192be	0.035540335
228	0x3c1525b5	0.009103228
229	0xbdf4cf0a	-0.11953552
230	0xbd7022aa	-0.05862681
231	0x3bbb12d3	0.005709031
232	0x3b9a726f	0.0047133486
233	0xbd80c7e0	-0.06288123
234	0x3d98bcde	0.074578986
235	0xbd7baed5	-0.06144603
236	0xbd868945	-0.06569151
237	0x3d4c8712	0.0499335
238	0xbc5e0910	-0.013551965
239	0x3d1f06fc	0.03882502
240	0x3d983298	0.07431525
241	0xbd4142d2	-0.047182865
242	0x3d17fa27	0.0371038
243	0x3dc32d76	0.09530155
244	0x3ca97488	0.02068545
245	0x3dda8522	0.10669924
246	0x3d5ec64a	0.054388322
247	0x3db304a7	0.08741122
248	0x3dc36ed5	0.09542624
249	0x3d9803ed	0.07422624
250	0x3ce81ae6	0.028333139
251	0x3d80eedb	0.06295558
252	0x3d94d09f	0.07266354
253	0x3c23f79c	0.010007765
254	0x3cadab77	0.021199925
255	0xbd3d2a50	-0.04618293

encoder.rnn.weight_hh_l0 f4 [192, 64]
0	0xbde1dbd2	-0.110282555
1	0x3df137f5	0.11778251
2	0xbda00f17	-0.07815378
3	0x3df2cffa	0.11856075
4	0xbb987cc1	-0.0046535437
5	0xbb68ae27	-0.0035504194
6	0x3d852427	0.06501036
7	0xbd67e152	-0.056611367
8	0x3ba2764c	0.0049579497
9	0xbd4ba084	-0.049713627
10	0xbdb9d5a0	-0.09073949
11	0x3da87b16	0.08226602
12	0x3db3beaf	0.087766044
13	0x3d778ccd	0.060437012
14	0x3df2e4c8	0.11860043
15	0x3d7bf7af	0.061515506
16	0x3dd12a7c	0.102131814
17	0xbd04b061	-0.03239477
18	0x3db923b4	0.09040013
19	0x3d0f71ff	0.035020825
20	0x3b5f49bd	0.003407105
21	0x3db77cd2	0.089593545
22	0xbdceb2bd	-0.10092685
23	0xbc0101c8	-0.00787396
24	0xbd7745e4	-0.060369387
25	0x3e02f567	0.12788926
26	0xbc9692af	-0.018380491
27	0x3d26ba85	0.040705223
28	0x3dbc888c	0.09205732
29	0x3d7b92ef	0.061419424
30	0xbd3b4a1f	-0.045724984
31	0x3bddbebf	0.0067671235
32	0x3da5c7a6	0.080947205
33	0xbd4a207a	-0.04934738
34	0x3c82c2c2	0.015962008
35	0xbdb869fe	-0.090045914
36	0x3cefb381	0.029260399
37	0x3da958d1	0.082688935
38	0x3bb0dab0	0.0053971633
39	0x3cbef12a	0.023308355
40	0x3dd0fda5	0.10204629
41	0x3bf44320	0.007454291
42	0xbd34298c	-0.043984935
43	0x3dce4809	0.10072333
44	0xbdb18072	-0.08667077
45	0x3d5d5b2a	0.05404202
46	0x3d9f16ee	0.07768045
47	0x3ac2f961	0.0014875346
48	0xbe00f6e8	-0.12594187
49	0x3d578480	0.052616596
50	0x3db482f8	0.08814043
51	0xbc2c04f1	-0.010499225
52	0x3da5a71c	0.08088514
53	0x3d3c5b09	0.045985255
54	0x3cc7935f	0.024362264
55	0x3df449dd	0.11928151
56	0xbd8236b1	-0.06358088
57	0x3c86d220	0.016457617
58	0xbdc7d3c0	-0.09757185
59	0x3dd75dda	0.10515948
60	0x3d164ca6	0.03669419
61	0x3dea6ce7	0.11446553
62	0xbdc4da92	-0.096120015
63	0x3de5fd29	0.11229927
64	0x3d8d336e	0.06894575
65	0x3dc76c2b	0.09737428
66	0xbd7b7da3	-0.061399113
67	0xbdc181c6	-0.094485804
68	0xbd00a886	-0.031410716
69	0x3dbd155a	0.09232588
70	0x3dfe24a0	0.124093294
71	0x3bc3239d	0.005955173
72	0x3b3dd9aa	0.002896885
73	0xbb2701f8	-0.0025483351
74	0xbbb8d889	-0.0056410474
75	0x3c7bd77f	0.0153712025
76	0x3d85bbc1	0.06529952
77	0xbd104dce	-0.03523045
78	0xbdb3d286	-0.087803885
79	0x3c06d348	0.008229084
80	0x3d9cfec3	0.076657794
81	0xbdb8f830	-0.09031713
82	0x3e00aa86	0.1256505
83	0x3d139301	0.036028866
84	0x3d4cb595	0.049977858
85	0x3d879e50	0.066219926
86	0x3da7f8d6	0.082017586
87	0x3df68315	0.12036721
88	0xbd4d9e52	-0.050199814
89	0x3cbda1c2	0.023148421
90	0x3db171e3	0.086643
91	0xbde083ea	-0.109626606
92	0x3d832741	0.064039715
93	0xbde77454	-0.11301485
94	0xbdb7b3c1	-0.08969832
95	0xbda786fa	-0.081800416
96	0xbdc628f9	-0.09675784
97	0xbdc9a9a8	-0.098468125
98	0x3da302b9	0.07959504
99	0xbdd83d4d	-0.10558567
100	0xbd9891a9	-0.074496575
101	0xbdde15a6	-0.10843973
102	0xbd1c47e2	-0.03815449
103	0xbc0d5f05	-0.008628611
104	0x3d566696	0.052343927
105	0xbd9a78a1	-0.075425394
106	0x3c5faf3c	0.013652619
107	0x3d8d881b	0.06910726
108	0x3dbd1b0e	0.09233676
109	0xbc69c7d1	-0.014268831
110	0xbd963db6	-0.07335989
111	0x3d8888e8	0.06666738
112	0xbd20e51a	-0.03928099
113	0xbde0bcb0	-0.10973489
114	0xbd1bbb25	-0.03802027
115	0xbcffa4f5	-0.031206587
116	0x3d0d6c67	0.03452721
117	0x3de0a4a0	0.109689
118	0x3db82282	0.08990957
119	0xbd887f56	-0.066649124
120	0x3de5a138	0.11212391
121	0x3d6a6b18	0.05723104
122	0x3cf5e374	0.030015685
123	0xbda8eb93	-0.08248057
124	0xbc3061c4	-0.010765497
125	0x3d062f16	0.03275975
126	0xbd23cd8d	-0.03999095
127	0x3d6477cd	0.055778313
128	0x3d98eeb1	0.07467402
129	0xbd8e5a82	-0.06950857
130	0x3dd29fde	0.102843985
131	0x3bfc4dbb	0.007699696
132	0x3c22d8f7	0.009939424
133	0xbced968a	-0.029002447
134	0x3c7cfa7e	0.015440581
135	0x3c0b6d44	0.008509938
136	0xbd5fa375	-0.054599244
137	0xba8f7152	-0.0010943806
138	0xbd611cb0	-0.054959
139	0x3e032946	0.12808713
140	0xbd86a8de	-0.065751776
141	0xbdc411a8	-0.0957368
142	0x3e04e195	0.12976678
143	0x3d5a3cd2	0.05328066
144	0xbde2336f	-0.110449664
145	0x3de80aae	0.11330162
146	0xbe057fbd	-0.1303701
147	0xbd20e5d9	-0.0392817
148	0xbd3e01b0	-0.046388328
149	0xbb82ca69	-0.0039914143
150	0xbb7941b6	-0.0038033552
151	0xbd842240	-0.06451845
152	0xbd8df767	-0.06931954
153	0xbdb11976	-0.086474344
154	0x3da0ec7b	0.07857605
155	0x3d2db165	0.042405505
156	0x3ccb84ad	0.024843538
157	0xba7b907f	-0.0009596422
158	0x3cebcf29	0.028785305
159	0xbcb6af0d	-0.022300268
160	0xbd255001	-0.0403595
161	0x3e092a05	0.13394935
162	0xbced1ad7	-0.028943462
163	0xbd1d5b8e	-0.03841739
164	0x3c3017d7	0.010747871
165	0x3d61e578	0.05515048
166	0xbdfdb94e	-0.1238886
167	0x3d61ab20	0.05509484
168	0xbc8e04e7	-0.017336322
169	0xbd1bde10	-0.038053572
170	0xbc3f9287	-0.01169265
171	0xbb869b2e	-0.0041078543
172	0xbe0b2b71	-0.1359079
173	0x3d9c6139	0.07635731
174	0x3cd6f7e4	0.02624125
175	0xbd6b2281	-0.057405952
176	0x3d4e98bf	0.05043864
177	0xbd8a4004	-0.06750491
178	0x3d9177cd	0.07102928
179	0xbd27d99d	-0.040979017
180	0x3c9c3257	0.019066973
181	0x3c897524	0.01677949
182	0xbcd8cd73	-0.026465153
183	0xbdbca06f	-0.09210288
184	0x3d662e5b	0.05619655
185	0x3cb92da9	0.02260478
186	0xbda5d5f5	-0.0809745
187	0xbce85d74	-0.028364874
188	0x3d04b717	0.03240117
189	0xbdb202b8	-0.08691925
190	0x3d47f42a	0.048816837
191	0x3d908628	0.07056838
192	0xbdf5ceee	-0.12002359
193	0x3ca7c3a4	0.02047903
194	0xbdc846b1	-0.09779108
195	0xbdea6c0f	-0.11446392
196	0x3de620bb	0.112367116
197	0x3d874060	0.066040754
198	0x3dbdc5a9	0.09266216
199	0x3de6ee3f	0.112759106
200	0xbd860219	-0.06543369
201	0xbd657a55	-0.056024868
202	0xbb3e672b	-0.0029053192
203	0x3d59692f	0.053078827
204	0x3c254acf	0.010088637
205	0xbc0bf394	-0.00854196
206	0x3dfba14c	0.12286624
207	0xbd8502ce	-0.064946756
208	0x3d5f0ea0	0.054457307
209	0x3d4bcd10	0.04975611
210	0xbd81dc8f	-0.06340896
211	0x3d97ad62	0.07406117
212	0x3db5afe8	0.08871442
213	0xbce0ffe7	-0.027465774
214	0xbdb68592	-0.08912195
215	0x3d9839bb	0.07432886
216	0x3dbbf5e9	0.09177763
217	0x3d4b8c08	0.04969409
218	0x3c5526f5	0.013009776
219	0x3d728b9a	0.059215166
220	0x3d271173	0.040788125
221	0xbd289e9e	-0.041166894
222	0xbdb704d6	-0.08936469
223	0xbd588f34	-0.052870944
224	0x3d4127a6	0.047156952
225	0xbd44759d	-0.047963727
226	0x3d618007	0.055053737
227	0xbd773b0f	-0.060359057
228	0xbdbb6053	-0.09149232
229	0x3db15b12	0.086599484
230	0xbda6983c	-0.08134505
231	0x3d27bef8	0.040953606
232	0x3dd2f978	0.10301489
233	0x3c216601	0.00985098
234	0x3da2cb87	0.07948976
235	0xbcfa3689	-0.030543583
236	0xbdd849ce	-0.10560952
237	0xbd7c8383	-0.061648857
238	0xbd294ff9	-0.041336033
239	0xbd8d871f	-0.06910538
240	0xbd9d5732	-0.07682647
241	0x3d57d723	0.052695405
242	0x3dfd150d	0.12357531
243	0x3da7b21a	0.08188267
244	0x3d1f975d	0.03896271
245	0xbdd068aa	-0.10176213
246	0xbcbf5e91	-0.023360522
247	0x3d429fe0	0.04751575
248	0x3ddcd116	0.107820675
249	0xbd8117df	-0.06303381
250	0x3d8a8fcd	0.06765709
251	0x3d8dce99	0.06924171
252	0xbcf49f6c	-0.029861175
253	0xbde5d488	-0.11222178
254	0x3d78dad1	0.060755555
255	0x3d8b720f	0.06808864

encoder.rnn.bias_ih_l0 f4 [192]
0	0x3df55be5	0.11980418
1	0xbdb71026	-0.08938627
2	0xbdd06f6b	-0.10177501
3	0x3854fab0	5.077821e-05
4	0x3cca9cda	0.024732996
5	0xbca8951b	-0.020578912
6	0xbd50b7d9	-0.05095658
7	0x3c730095	0.014831682
8	0xbc0e5aea	-0.008688668
9	0xbd1f91eb	-0.038957518
10	0x3d508678	0.05090949
11	0xbd842310	-0.06452
12	0xbe0307b4	-0.12795907
13	0xbddb61c2	-0.10712005
14	0x3d36b293	0.044603895
15	0xbdaf0c8a	-0.085473135
16	0xbdda83ce	-0.10669671
17	0xbd3da9a3	-0.046304356
18	0x3db5d3d6	0.08878295
19	0x3dab0b9b	0.08351823
20	0x3dd38e42	0.10329868
21	0xbdbe5fde	-0.09295629
22	0xbdb927ed	-0.09040818
23	0x3d91e833	0.071243666
24	0x3e06462a	0.13112703
25	0xbb197a0f	-0.00234187
26	0xbdee2d3a	-0.1162972
27	0x3e0231b0	0.12714267
28	0x3db94e0a	0.09048088
29	0x3dbe6247	0.09296089
30	0x3d2ae0a8	0.041718155
31	0x3d5c4ae0	0.053782344
32	0xbc64f7b8	-0.013975076
33	0x3d95a723	0.073072694
34	0x3d5d70b2	0.054062553
35	0xbd88fa81	-0.06688405
36	0xbd41559a	-0.047200777
37	0xbcd761b6	-0.02629171
38	0xbc31c242	-0.010849537
39	0x3dbc0175	0.091799654
40	0x3da7d8f4	0.081956774
41	0xbc8122f9	-0.015763747
42	0xbd340d39	-0.043957923
43	0xbc806247	-0.015671862
44	0x3df4f577	0.11960881
45	0x3e0b6f77	0.13616739
46	0x3c327e75	0.0108944075
47	0xbb8f583a	-0.004374531
48	0x3d94350f	0.072366826
49	0xbdb1ad1e	-0.086755976
50	0xbd674a5d	-0.056467403
51	0x3df18385	0.117926635
52	0x3e051d25	0.12999399
53	0x3bb3e062	0.005489395
54	0xbdd209e1	-0.102557905
55	0x3db423e3	0.08795907
56	0x3d760c01	0.06007004
57	0x3bba8683	0.0056923046
58	0x3dfc136e	0.123083934
59	0xbdb2ccc9	-0.08730466
60	0xbb539aac	-0.0032288237
61	0x3da0a551	0.078440316
62	0xbd4ce85a	-0.050026275
63	0xbdd68106	-0.10473828
64	0xb92979c3	-0.00016162456
65	0x3d9b8cb6	0.07595198
66	0xbd9c9051	-0.07644714
67	0x3d3835f0	0.044973314
68	0xbdaf2f22	-0.08553912
69	0xbd787e13	-0.06066711
70	0x3d6d24a3	0.057896268
71	0x3e133a78	0.14377773
72	0x3d51d3f0	0.05122751
73	0x3cfdc902	0.030979637
74	0xbd0c3cdc	-0.034237728
75	0x3dc9ac08	0.098472655
76	0x3dc0f2db	0.09421321
77	0x3dbc3bb1	0.09191073
78	0x3c307feb	0.0107726855
79	0xbe0b658d	-0.13612957
80	0xbd87a6be	-0.066236004
81	0xbddf1969	-0.108935185
82	0xbd308966	-0.043099783
83	0x3cca9ef6	0.024734002
84	0xbb8558dc	-0.0040694308
85	0xbd8882c6	-0.06665568
86	0x3d86b4f4	0.06577483
87	0x3db31e72	0.08746041
88	0xbdb63862	-0.08897473
89	0xbc60ebd5	-0.013728102
90	0x3d43d5ab	0.04781119
91	0xbc8ef7d7	-0.017452164
92	0xbd8d1be4	-0.06890085
93	0x3d49e0cc	0.04928665
94	0x3d53d004	0.05171205
95	0xbdae6f0a	-0.08517273
96	0xbe0e5e4f	-0.13903163
97	0x3d874e33	0.06606712
98	0xbe21cb87	-0.15800296
99	0x3ce69545	0.02814735
100	0x3ddc9ca4	0.10772064
101	0x3db3aac4	0.08772805
102	0x3cbf804b	0.023376605
103	0xbd56e101	-0.052460674
104	0x3af52f4c	0.0018706112
105	0xbd3bf96f	-0.045892175
106	0xbdc52bf5	-0.09627525
107	0xbde28463	-0.11060407
108	0xbd46e4d4	-0.04855807
109	0xbc1b06b1	-0.009462045
110	0x3db01cc9	0.0859924
111	0xbd504dab	-0.05085532
112	0xbda6ef9f	-0.08151173
113	0x3cca6331	0.024705501
114	0x3dab6c43	0.08370259
115	0x3c561c25	0.013068234
116	0xbd2dee9c	-0.042463884
117	0xbdef2f4d	-0.11678944
118	0xbdd67e83	-0.10473349
119	0x3c987eda	0.018615175
120	0x3d7e0bfc	0.062023148
121	0x3d067540	0.032826662
122	0x3cad9e50	0.021193653
123	0x3cd99336	0.026559453
124	0xbd9ce40b	-0.07660683
125	0xbd468a9b	-0.04847203
126	0xbd83f5f4	-0.06443396
127	0xbc8be920	-0.017078936
128	0x3d952981	0.07283307
129	0xbdb10bda	-0.08644839
130	0xbe053af4	-0.1301077
131	0xbcc12eeb	-0.023581943
132	0xbd60d145	-0.054887075
133	0xbdd9bd56	-0.10631816
134	0xbda2d4cc	-0.07950744
135	0xbc83be3e	-0.016081925
136	0xbd85b1e0	-0.065280676
137	0x3db52a37	0.088459425
138	0xbcfabb22	-0.03060681
139	0xbcc2b5c5	-0.023768315
140	0x3d8d0248	0.06885201
141	0xbde6fec4	-0.112790614
142	0x3d15cf77	0.036574807
143	0xbcc9e79c	-0.024646573
144	0x3dd10896	0.10206716
145	0x3c503cba	0.012709791
146	0xbd4547a7	-0.048164036
147	0xbdba1913	-0.09086814
148	0xbdb307b5	-0.087417044
149	0xbd830265	-0.06396941
150	0x3ddfe25d	0.10931847
151	0x3dd44f01	0.10366631
152	0x3ddae1ab	0.10687574
153	0xbd53ebd1	-0.051738564
154	0x3d381624	0.04494299
155	0xbda98dd6	-0.08279006
156	0xbd138fe3	-0.036025893
157	0x3de2923b	0.110630475
158	0xbda6bbab	-0.081412636
159	0xbe05a147	-0.13049804
160	0xbbacd824	-0.0052747894
161	0x3cd6c3a2	0.026216332
162	0x3dc3b6e8	0.09556371
163	0x3d580ee0	0.05274856
164	0x3cb2eb40	0.021840692
165	0x3dfa372f	0.12217557
166	0x3dd6ec40	0.1049428
167	0xbd8de675	-0.06928722
168	0xbde84ca8	-0.11342746
169	0xbdeed518	-0.11661738
170	0x3cf91af2	0.030408356
171	0x3d190bd5	0.0373648
172	0xbcfcd1d4	-0.030861773
173	0x3dcba2f5	0.09943191
174	0x3cf8ea02	0.030385021
175	0x3c888874	0.016666628
176	0xbc7a65c9	-0.015283057
177	0x3da51af5	0.08061782
178	0x3d2c0bc4	0.042003408
179	0xbdc3ebb0	-0.09566438
180	0xbd1a4492	-0.03766305
181	0x3d5e56d8	0.05428204
182	0x3d2c7c6b	0.04211084
183	0xbcd143dd	-0.025545055
184	0x3df3879c	0.118911
185	0x3dd4f603	0.103984855
186	0xbd77e5ec	-0.060522005
187	0x3dcc6832	0.09980811
188	0x3dc12341	0.09430552
189	0x3dab6aaf	0.08369958
190	0xbd0df978	-0.03466174
191	0x3d823eee	0.06359659

encoder.rnn.bias_hh_l0 f4 [192]
0	0xbd97b4bf	-0.074075215
1	0x3d9d4d1a	0.076807216
2	0xbc58a8f5	-0.013223876
3	0x3d8849d3	0.06654706
4	0x3da1128a	0.07864864
5	0x3d1b2590	0.03787762
6	0x3d23dfdb	0.040008407
7	0xbd6c372f	-0.057669815
8	0xbdbf6589	-0.09345538
9	0xbdbea35e	-0.093085036
10	0xbcff617c	-0.031174414
11	0xbdd8b536	-0.10581438
12	0xbd3501ae	-0.044191055
13	0xbbe664fc	-0.0070310812
14	0xbdf1547f	-0.117836945
15	0x3dfaff34	0.122557074
16	0x3a14a4a4	0.00056702853
17	0x3d930fb1	0.07180727
18	0xbdd62eec	-0.104581684
19	0x3da42099	0.0801403
20	0xbd922631	-0.07136191
21	0x3cbe897a	0.023258913
22	0x3db81ebf	0.08990239
23	0x3de2cc59	0.110741325
24	0xbdcbebff	-0.09957122
25	0xbd3f7ff0	-0.04675287
26	0xbd562cda	-0.052288868
27	0x3d52f571	0.051503602
28	0xbd8e29d5	-0.069415726
29	0x3db0c413	0.08631148
30	0xbdc5a153	-0.09649911
31	0x3b8c8236	0.0042879833
32	0x3bd226c9	0.006413315
33	0xbda57f2e	-0.08080898
34	0x3b0d030c	0.0021516709
35	0xbdc0defb	-0.0941753
36	0xbd8d7145	-0.0690637
37	0xbe000487	-0.12501727
38	0x3d076424	0.033054486
39	0xbd26c996	-0.04071959
40	0xbccb60f4	-0.024826504
41	0x3d766c4a	0.060161866
42	0x3d8b3fc6	0.06799273
43	0x3d641688	0.05568555
44	0x3cb80bc4	0.022466548
45	0x3e08a6ea	0.13344923
46	0xbcc8de88	-0.024520174
47	0x3dddf392	0.10837473
48	0xbd8f2b09	-0.0699063
49	0xbdeb9328	-0.11502677
50	0x3acaa55b	0.0015460657
51	0xbd1df57e	-0.038564198
52	0xbd95826e	-0.07300268
53	0xbd90dd03	-0.07073405
54	0xbc874f83	-0.016517406
55	0x3c467e84	0.012115125
56	0xbb330547	-0.0027316378
57	0xbd10d212	-0.03535659
58	0x3dd7dc1f	0.10540032
59	0x3da094be	0.0784087
60	0xbd770923	-0.060311448
61	0xbdad756d	-0.08469663
62	0x3bbc36f6	0.0057438565
63	0x3d4c1b40	0.049830675
64	0x3dd0721f	0.10178017
65	0x3d85534a	0.06510027
66	0xbbf6cd48	-0.0075317957
67	0x3cb09dab	0.021559557
68	0xbdcfcb6e	-0.10146223
69	0x3d902892	0.07038988
70	0x3d9c0797	0.07618635
71	0x3de771c9	0.11301
72	0xbd966fa8	-0.073455155
73	0xbe156484	-0.14589125
74	0x3c5b9c73	0.013404
75	0xbcf7cc91	-0.030248912
76	0xbd87b21c	-0.066257685
77	0x3dcc7473	0.099831484
78	0x3d39e1ef	0.045381483
79	0xbca4ca9a	-0.02011614
80	0x3de515a4	0.11185768
81	0xbdc53fd9	-0.096313186
82	0x3ddc36a7	0.107526116
83	0x3dcf1174	0.10110751
84	0xbdd4ad83	-0.10384657
85	0x3b99c448	0.004692588
86	0x3d8caecb	0.068692766
87	0x3c881cae	0.016615238
88	0xbd7763b4	-0.06039782
89	0xbda5bfd1	-0.08093227
90	0xbde3039d	-0.110846736
91	0x3d779519	0.060444925
92	0xbd875d43	-0.06609585
93	0x3cbd4e8e	0.023108747
94	0xbda75685	-0.08170799
95	0xbd8c92a7	-0.06863909
96	0x3d9e0f43	0.07717755
97	0xbdd52150	-0.104067445
98	0xbd078d6d	-0.03309386
99	0x3d8f593d	0.06999443
100	0xbd9cb1fd	-0.07651136
101	0xbd24d6f6	-0.040244065
102	0xbc10e20e	-0.008842958
103	0x3ddb3491	0.107033856
104	0x3b8ebd60	0.0043560714
105	0x3d89bca0	0.067254305
106	0xbdafb1a8	-0.08578807
107	0xbe341868	-0.17587435
108	0x3da0b87a	0.07847686
109	0x3ca860fb	0.020554056
110	0x3d920000	0.07128906
111	0xbc50191c	-0.012701299
112	0x3d5927d6	0.053016506
113	0x3d0e0372	0.034671254
114	0xbd84c391	-0.06482614
115	0xbdb7f94f	-0.08983099
116	0x3ddd0402	0.1079178
117	0xbdc828dd	-0.09773419
118	0x3b9acfc2	0.0047244737
119	0xbdb0791c	-0.0861685
120	0x3deae732	0.11469878
121	0xbbf5e647	-0.007504258
122	0xb7a60aba	-1.9793737e-05
123	0xbbd0c66a	-0.006371309
124	0x3c8282d6	0.015931528
125	0x3de0673b	0.1095719
126	0x3de64a0c	0.11244592
127	0xbd9288ec	-0.07155022
128	0xbced9c5a	-0.029005218
129	0xbd7ca5d0	-0.06168157
130	0x3d3870a3	0.045029294
131	0x3d54d81d	0.051963914
132	0xbdf84ff7	-0.12124627
133	0xbdcb7503	-0.099344276
134	0xbd0418a9	-0.03225008
135	0xbbe49907	-0.00697625
136	0x3db374bb	0.08762499
137	0x3d12fdf5	0.035886724
138	0x3d9f0497	0.07764547
139	0xbdbb33b4	-0.09140721
140	0x3dc29042	0.09500171
141	0x3dddef6b	0.10836681
142	0x3d8a6254	0.06757036
143	0x3bca6bd5	0.0061774054
144	0x3de2e25f	0.11078333
145	0xbbd6b275	-0.0065520355
146	0xbc6fbe10	-0.014632717
147	0xbc9f9e8d	-0.019484783
148	0x3d071793	0.032981467
149	0x3d217e69	0.039427195
150	0x3dce7a30	0.10081899
151	0x3dbeabac	0.093100876
152	0x3d3d4083	0.0462041
153	0x3cd33b99	0.025785254
154	0x3d15d4bc	0.036579832
155	0x3dc075dd	0.09397481
156	0xbd36cfa7	-0.044631626
157	0x3da971bf	0.082736485
158	0xbd6986db	-0.057013374
159	0xbd74840f	-0.059696253
160	0x3d271160	0.040788054
161	0xbd9dd1c1	-0.07706023
162	0xbd61e58b	-0.05515055
163	0x3d1f81c3	0.03894211
164	0xbb908913	-0.004410872
165	0x3d9718e5	0.07377795
166	0xbd98e8d3	-0.07466283
167	0xbddf2e42	-0.10897495
168	0x3c3ec02e	0.011642499
169	0x3d4f30a2	0.05058349
170	0x3c462721	0.01209429
171	0xbdaa4e09	-0.08315665
172	0xbda16aa4	-0.07881668
173	0x3d66b333	0.05632324
174	0x3ccb9eb0	0.024855942
175	0x3d90e9e5	0.07075862
176	0xbd805b32	-0.06267394
177	0x3dc9760a	0.09836967
178	0xbb9290e8	-0.0044728406
179	0x3ccb693a	0.02483045
180	0xbda854f1	-0.08219326
181	0xbc86feda	-0.016478945
182	0xbd052464	-0.032505408
183	0xbdc7539e	-0.097327456
184	0x3d9dcf41	0.07705546
185	0x3d32dcb5	0.043667514
186	0xbda8b420	-0.08237481
187	0x3d12c31d	0.035830606
188	0xbced4bf0	-0.028966874
189	0xbdffdce1	-0.12493301
190	0x3cff6274	0.031174876
191	0xbc879bee	-0.016553845

encoder.rnn.weight_ih_l1 f4 [192, 64]
0	0x3da3d0c3	0.079988025
1	0xbb6a95bf	-0.0035794822
2	0xbd9518f4	-0.0728015
3	0xbd33bc80	-0.04388094
4	0x3d3b4a5b	0.045725208
5	0xbdb0758a	-0.08616169
6	0x3c3946b1	0.011308358
7	0xbdcba8a8	-0.09944278
8	0xbdb0a9fd	-0.08626173
9	0xbccd88f4	-0.025089718
10	0x3dc47a77	0.09593671
11	0xbd61114d	-0.05494814
12	0xbd949d9e	-0.072566256
13	0xbd41f547	-0.047353055
14	0xbdb6a2d4	-0.08917776
15	0xbc827202	-0.015923504
16	0xbddfeac2	-0.109334484
17	0x3d380abd	0.044932116
18	0xbdf983c1	-0.12183333
19	0xbdedd260	-0.116123915
20	0xbde88846	-0.11354117
21	0xbda1fc65	-0.079094686
22	0x3d00ab54	0.03141339
23	0x3db73ae3	0.089467786
24	0xbd92024c	-0.07129344
25	0x3d9061a6	0.07049875
26	0xbddc94f8	-0.10770601
27	0xbdce2b3e	-0.100668415
28	0x3d3c651d	0.045994867
29	0xbca3b72c	-0.019984804
30	0xbd6b2a5d	-0.057413448
31	0x3c80e7ee	0.015735593
32	0x3b8b64c5	0.004253956
33	0x3dcc7ce2	0.09984757
34	0x3d2f066a	0.042730726
35	0xbb5cd57d	-0.0033696585
36	0xbdd2166a	-0.102581814
37	0xbd3bb0cd	-0.045822907
38	0xbdd36ada	-0.10323115
39	0xbcacc683	-0.021090752
40	0xbd036ebb	-0.032088023
41	0xbcbcb71a	-0.023036528
42	0xbdb93f91	-0.090453275
43	0x3d6cc38f	0.057803687
44	0x3d5634ed	0.052296568
45	0xbc8298ff	-0.015942095
46	0xbd4cd3e1	-0.05000675
47	0x3d054ad4	0.032542065
48	0x3d93a6df	0.072095625
49	0x3d302edf	0.04301345
50	0xba57b5e3	-0.00082287024
51	0x3cae688d	0.021290088
52	0x3c8a107c	0.016853563
53	0x3c01128d	0.007877958
54	0xbd14ec39	-0.036358092
55	0xbda33d01	-0.0797062
56	0x3d9b1895	0.07573048
57	0x3d8ac668	0.06776124
58	0xbdf0e72e	-0.11762844
59	0x3c4d7426	0.012539899
60	0xbdb39dc1	-0.087703235
61	0x3df36b17	0.1188566
62	0xbbb284c3	-0.0054479553
63	0xbd877430	-0.06613958
64	0xbd980f5c	-0.074248046
65	0x3d83dffb	0.06439205
66	0xbd374307	-0.044741657
67	0xbc283c34	-0.01026826
68	0x3de33e6a	0.11095889
69	0xbd4575b4	-0.048207954
70	0xbd98020a	-0.07422264
71	0x3d13dd73	0.036099862
72	0x3c1e20e6	0.009651398
73	0xbda8904e	-0.08230649
74	0x3d1e3a3e	0.038629763
75	0xbdabfb82	-0.08397581
76	0xbd9a264c	-0.07526836
77	0xbdca1679	-0.098675676
78	0xbd03753f	-0.032094236
79	0xbc3c9b8f	-0.011511697
80	0xbd4c315f	-0.04985177
81	0xbd8aca0e	-0.0677682
82	0xbd441496	-0.047871195
83	0x3ce2085a	0.027591873
84	0x3bd90a5f	0.006623551
85	0xbdfcb773	-0.12339678
86	0xbdd3a08f	-0.103333585
87	0x3dc52544	0.096262485
88	0x3c925784	0.017863996
89	0x3d4217a9	0.047385845
90	0x3a2221a4	0.00061848224
91	0xbdf234d5	-0.11826483
92	0xbdfc5748	-0.12321335
93	0x3da58aa5	0.08083085
94	0xbcfe4647	-0.03103937
95	0xbd6c884e	-0.057747178
96	0xbdfea386	-0.12433533
97	0x3d89fe7f	0.067379944
98	0x3c013518	0.007886194
99	0xbdc800a1	-0.09765745
100	0x3cad157f	0.021128414
101	0xbd96c450	-0.073616624
102	0xbcf4c214	-0.0298777
103	0xbd946f79	-0.07247824
104	0xbd2cf5c6	-0.042226575
105	0xbce21d2c	-0.0276018
106	0xbddc83dd	-0.107673384
107	0xbdb8dc7b	-0.09026428
108	0xbdfc785f	-0.123276465
109	0x3dd0ecd6	0.10201423
110	0xbd90f62f	-0.07078206
111	0x3dbdeda6	0.092738435
112	0x3dae7708	0.08518797
113	0xbd86dfa7	-0.06585627
114	0x3d8ad593	0.06779017
115	0x3bebb95f	0.007193729
116	0xbc51554e	-0.012776686
117	0x3d856bd7	0.065147094
118	0x3db305b6	0.08741324
119	0xbcb7b797	-0.02242641
120	0x3e013f33	0.12621765
121	0xbd91ea27	-0.07124739
122	0x3dabb084	0.08383277
123	0x3d94e8bd	0.07270954
124	0x3dd99a21	0.10625101
125	0xbc4ff3aa	-0.012692371
126	0x3df1fc9f	0.11815762
127	0x3de3ee09	0.11129386
128	0xbdb16c1c	-0.08663198
129	0x3def6c7a	0.11690612
130	0xbdb2f7b1	-0.0873865
131	0x3e01e08e	0.12683317
132	0xbdbb5e6c	-0.09148869
133	0x3c75736e	0.014981134
134	0xbddad8bf	-0.10685872
135	0x3d3caa30	0.04606074
136	0xbd8af0e1	-0.06784225
137	0xbd53c565	-0.051701922
138	0xbd37ac54	-0.04484208
139	0xbddb2212	-0.10699858
140	0xbcbd27b6	-0.023090225
141	0xbd2c387a	-0.042046048
142	0xbdc02f09	-0.09383971
143	0xbd5cd864	-0.053917304
144	0xbd2c3db0	-0.042051017
145	0x3dfe400b	0.12414559
146	0x3d5ef846	0.05443599
147	0xbc325aad	-0.010885877
148	0x3bf83481	0.0075746183
149	0x3d238ac2	0.03992725
150	0x3c09ee19	0.008418583
151	0xbd84a1c5	-0.064761676
152	0xbdcab089	-0.09896953
153	0xbda6d3d6	-0.08145873
154	0x3cfc7b4c	0.030820511
155	0xbbf3d8e8	-0.0074416287
156	0xbda4e85c	-0.080521315
157	0x3d97e8ca	0.07417448
158	0x3da09d03	0.078424476
159	0x3cc8edf6	0.024527531
160	0x3dc40aef	0.09572398
161	0xbda5cc5b	-0.08095618
162	0xbd9f07f2	-0.07765187
163	0x3d2c6fa5	0.04209866
164	0x3de7bb4b	0.1131502
165	0x3c97a9b0	0.01851353
166	0xbdbb308e	-0.091401204
167	0xbc9269bb	-0.017872682
168	0xbcd4c5de	-0.025973257
169	0xbd99a662	-0.07502438
170	0xbd362e58	-0.04447779
171	0xbd1c4aac	-0.03815715
172	0x3c8aff28	0.016967371
173	0xbcbc57f7	-0.022991164
174	0x3df5dc7f	0.12004947
175	0xbda327cc	-0.07966575
176	0x3c90ce04	0.01767636
177	0x3dcc04dd	0.09961865
178	0xba253620	-0.0006302316
179	0xbde7a1dc	-0.11310169
180	0x3b2fb67e	0.0026811655
181	0x3d51a6a2	0.051184304
182	0xbdaac9f5	-0.083393015
183	0x3d8df8f9	0.069322534
184	0x3a064474	0.00051218946
185	0xbd9de602	-0.07709886
186	0x3cfbcc1e	0.03073698
187	0xbd6fb080	-0.058517933
188	0x3e044eac	0.12920636
189	0xbde26910	-0.11055195
190	0xbdb41a24	-0.087940484
191	0xb9e55d46	-0.00043747778
192	0x3c0dac6c	0.008647066
193	0xbcf56fa8	-0.029960468
194	0xbd218b41	-0.039439443
195	0xbd7d1d5a	-0.06179557
196	0x3db28d21	0.087183245
197	0x3df05748	0.117353976
198	0xbd97504d	-0.07388363
199	0xbc74aa2a	-0.014933148
200	0xbdd6511a	-0.10464688
201	0x3df3765e	0.11887811
202	0xbd5c90c1	-0.053848986
203	0xbd95ca02	-0.073139206
204	0xbd6157ca	-0.055015363
205	0x3ccd3026	0.025047373
206	0x3d4c2e27	0.0498487
207	0xbdb6d7ba	-0.08927865
208	0xbcb4a5ef	-0.02205178
209	0x3d93080b	0.071792684
210	0x3cf3bd44	0.029753335
211	0xbdf8a15b	-0.12140151
212	0x3d701287	0.05861142
213	0x3df08c23	0.11745479
214	0x3c2caf22	0.010539802
215	0x3e05176d	0.12997217
216	0x3dc3fba8	0.09569484
217	0xbdca9484	-0.09891608
218	0xbd397110	-0.04527384
219	0x3df19143	0.117952846
220	0xbd3e5010	-0.046463072
221	0x3ded4630	0.11585653
222	0xbdcc3c44	-0.09972432
223	0x3dbc3b9a	0.091910556
224	0x3cc0c78d	0.023532653
225	0xbdec2ce3	-0.11531999
226	0xbe022350	-0.12708783
227	0xbdd59ce2	-0.10430314
228	0x3dd06453	0.10175385
229	0x3d0e7823	0.03478254
230	0x3d409d60	0.047025084
231	0xbd490d23	-0.049084794
232	0xbdda761a	-0.10667057
233	0x3dba1490	0.09085953
234	0xbd88bf9e	-0.06677173
235	0xbc21c266	-0.009873008
236	0xbc81d851	-0.015850218
237	0x3dc3f1b5	0.09567586
238	0x3d695f7b	0.056975823
239	0xbcb37be6	-0.021909665
240	0x3dfb755e	0.122782454
241	0x3de543f9	0.111946054
242	0xbc7bbc2d	-0.015364689
243	0x3dc2b17c	0.09506509
244	0xbd4d267e	-0.050085537
245	0xbdcd4f60	-0.10024905
246	0x3defb573	0.117045306
247	0xbbd920b0	-0.006626211
248	0xbc0bedf7	-0.008540622
249	0xbd9c570c	-0.076337904
250	0xbd2b8a95	-0.04188021
251	0xbd6a7353	-0.057238888
252	0x3c509edb	0.012733187
253	0xbde82684	-0.11335471
254	0x3d3c0736	0.045905314
255	0x3ce8dc82	0.028425459
