checkpoints/models/single_stock_daily/81to9/000001/model35.pth (torch, 543834 bytes, 24 tensors)

encoder.conv1.weight f4 [18, 6, 3]
-0.07554108 -0.087225884 -0.011327804 0.10812474 -0.21571104 -0.12979932 -0.07033468 -0.06903715
0.01176687 0.1748858 0.074520595 -0.20305714 0.22180513 0.21371308 0.084341824 0.15981467
0.1418417 0.2671935 -0.2191393 -0.1446329 -0.025251247 -0.043055583 -0.16186637 -0.22559474
-0.18242295 -0.05406497 0.19504812 0.1563758 0.056689788 -0.14699276 -0.09562071 0.01065435
-0.22106412 -0.008106838 0.044153616 0.21956737 -0.061830405 0.22584791 0.01536821 -0.1677902
0.21740566 0.20297392 -0.19180697 -0.14076442 0.12007013 -0.15027516 0.15508117 -0.109868295
-0.07819046 -0.0722035 0.22826079 -0.079932675 -0.049594063 0.13108844 -0.14888541 0.008647391
-0.17591201 -0.20989197 -0.052078806 0.026457485 0.20504284 -0.23563619 -0.080787584 0.06807572
0.08519999 0.13135456 -0.18403915 -0.062286325 0.04753601 -0.21147968 0.09357079 -0.24895139
0.14419131 0.06580502 -0.06337164 0.06788989 0.19520476 0.18138936 0.13649127 -0.13138987
0.096543685 0.16893928 0.04172375 0.17435032 -0.15346058 0.16725825 0.0116993515 -0.20000656
-0.05043231 0.22962095 -0.07953308 -0.049340133 -0.09946782 -0.12609155 0.03212847 0.14417145
0.023453366 -0.0414371 0.0064391205 -0.17718896 -0.14171366 0.008918922 -0.19015817 0.0980618
0.032643266 0.016010432 -0.014654016 0.20052424 0.20782548 0.11027928 0.11872762 -0.112847105
0.10734023 -0.14522694 0.10936082 -0.13935469 0.03618609 0.17488487 0.17576401 0.23421931
0.08552551 0.11217775 0.0903362 0.20926866 0.17049244 0.119711146 -0.08326074 -0.10003752
-0.05968773 0.11277661 -0.116686456 0.058761932 0.21403655 0.22600178 -0.19063872 0.07099043
0.17337449 -0.22509359 0.15508428 -0.1277973 -0.1826309 -0.13597251 -0.12912293 -0.117459
0.06721251 0.08703708 0.086651176 0.16112737 -0.15780556 -0.23206802 -0.19479154 -0.15168932
-0.13085902 0.100360155 -0.18567933 -0.18788369 0.12216218 -0.16617997 0.02784625 -0.20309255
0.064651236 0.12384927 -0.21025288 0.073802724 -0.12638368 0.14492574 0.21597771 -0.19446522
0.08863679 0.17830491 0.23604922 0.17548028 0.05772109 0.026826048 0.046897233 -0.12813692
-0.032291897 -0.005623875 -0.14063823 -0.0030519909 -0.031934984 -0.07023014 -0.07236025 -0.2354424
0.22667271 0.107074685 0.17232615 -0.1994049 -0.2558053 0.1762643 -0.038950123 0.02018135
0.11909219 0.016393917 -0.025727255 0.1227774 0.18058643 -0.066816345 -0.18743494 -0.10837182
0.16676627 0.021244887 0.20863946 -0.090622164 -0.2197563 0.0907372 -0.116784774 -0.13992447
0.15820332 0.003498716 -0.017801072 0.2418884 0.19260669 -0.2876271 -0.32108676 -0.24288073
-0.1882714 -0.1254173 0.15519616 -0.16092698 0.21964468 0.07459456 0.010568108 0.057394527
0.063404985 0.07346758 -0.18169712 0.003131986 0.15487362 0.24515803 -0.0045621484 -0.16340287
0.1181947 -0.20920394 0.20305067 0.1308038 0.09566315 0.027264839 0.15900856 -0.10377828
-0.20591317 -0.15603215 0.15812151 -0.12436242 -0.20660616 0.038844682 -0.15401977 -0.029780813
-0.16301051 0.034682814 -0.05272722 0.014703085 0.107033245 -0.15209264 -0.08696916 -0.1559339
00000000: 48b5 9abd 7ca3 b2bd 4198 39bc 8170 dd3d
00000010: 5be3 5cbe 1dea 04be a10b 90bd 5963 8dbd
00000020: d4c9 403c 4315 333e 419e 983d 36ee 4fbe
00000030: e220 633e 9ad7 5a3e 68bb ac3d 75a6 233e
00000040: f33e 113e 96cd 883e 0d66 60be a61a 14be
00000050: b4db cebc 0d5b 30bd 4cc0 25be 4f02 67be
00000060: 15cd 3abe 3b73 5dbd b2ba 473e fa20 203e
00000070: 8d33 683d 4585 16be cad4 c3bd 958f 2e3c
00000080: a25e 62be 8bd2 04bc 6cda 343d 45d6 603e
00000090: e141 7dbd ad44 673e f2ca 7b3c 32d1 2bbe
000000a0: 979f 5e3e 65d8 4f3e 0c69 44be 8c24 10be
000000b0: 54e7 f53d bbe1 19be 99cd 1e3e a102 e1bd
000000c0: 5222 a0bd 6edf 93bd 32bd 693e beb3 a3bd
000000d0: 2523 4bbd 0c3c 063e 6b75 18be c9ad 0d3c
000000e0: 4722 34be eced 56be 9650 55bd 5ebd d83c
000000f0: c0f6 513e 9d4a 71be f673 a5bd 486b 8b3d
00000100: 557d ae3d cf81 063e c274 3cbe f21f 7fbd
00000110: 1fb5 423d 218e 58be 0ba2 bf3d 1ded 7ebe
00000120: e3a6 133e c8c4 863d fec8 81bd db09 8b3d
00000130: c2e3 473e 22be 393e 5ec4 0b3e 118b 06be
00000140: b2b8 c53d 6bfe 2c3e 86e6 2a3d e488 323e
00000150: c524 1dbe bf45 2b3e a3ae 3f3c 85ce 4cbe
00000160: 1c92 4ebd c121 6b3e 3de2 a2bd e118 4abd
00000170: c9b5 cbbd 251e 01be 2499 033d aea1 133e
00000180: 4621 c03c f3b9 29bd 42ff d23b 0671 35be
00000190: 631d 11be ac20 123c d3b8 42be a0d4 c83d
000001a0: f2b4 053d 4f28 833c 6617 70bc 3a56 4d3e
000001b0: 34d0 543e 1ada e13d 7727 f33d 621c e7bd
000001c0: 32d5 db3d 5fb6 14be 91f8 df3d ffb2 0ebe
000001d0: de37 143d 0515 333e 7bfb 333e 30d7 6f3e
000001e0: 0028 af3d 73bd e53d 3002 b93d 864a 563e
000001f0: 9295 2e3e 1e2b f53d 9b84 aabd 79e0 ccbd
00000200: 1f7b 74bd 6cf7 e63d 4ff9 eebd 5ab0 703d
00000210: 662c 5b3e 036d 673e cc36 43be 6e63 913d
00000220: 1589 313e ef7e 66be 6ace 1e3e 4cdd 02be
00000230: 9803 3bbe 613c 0bbe cd38 04be 588e f0bd
00000240: b6a6 893d 7f40 b23d 2c76 b13d 93fe 243e
00000250: c897 21be 3da3 6dbe 6f77 47be 7254 1bbe
00000260: e8ff 05be a089 cd3d b922 3ebe 9564 40be
00000270: 2a30 fa3d 152b 2abe d21d e43c 7ef7 4fbe
00000280: de67 843d b0a4 fd3d 884c 57be e225 973d
00000290: b96a 01be 6a67 143e 4329 5d3e e421 47be
000002a0: 3587 b53d 9095 363e e3b6 713e 1ab1 333e
000002b0: f36c 6c3d 4dc2 db3c 5017 403d 5336 03be
000002c0: 8244 04bd 7c48 b8bb 7803 10be e903 48bb
000002d0: 42ce 02bd d2d4 8fbd 9c31 94bd d017 71be
000002e0: e41c 683e f949 db3d 4476 303e cc30 4cbe
000002f0: eaf8 82be a17e 343e 2a8a 1fbd 5c53 a53c
00000300: 9be6 f33d 894c 863c f7c1 d2bc b872 fb3d
00000310: a6eb 383e 02d7 88bd f2ee 3fbe 0bf2 ddbd
00000320: c7c4 2a3e c209 ae3c 95a5 553e 1d98 b9bd
00000330: cc07 61be 6dd4 b93d db2c efbd 5c48 0fbe
00000340: 0d00 223e b74a 653b 8ed3 91bc 98b1 773e
00000350: b03a 453e dc43 93be 7c65 a4be bab5 78be
00000360: 38ca 40be 656d 00be beeb 1e3e 0bca 24be
00000370: 89ea 603e 08c5 983d dc25 2d3c 8616 6b3d
00000380: 79da 813d 2c76 963d cf0e 3abe 0142 4d3b
00000390: 3197 1e3e b50a 7b3e 137e 95bb 1553 27be
000003a0: 1010 f23d 8f39 56be 84ec 4f3e 6ef1 053e
000003b0: 0beb c33d 835a df3c 24d3 223e b589 d4bd
000003c0: e7da 52be e4c6 1fbe 9bea 213e b9b1 febd
000003d0: 9190 53be 9a1b 1f3d 5cb7 1dbe e4f6 f3bc
000003e0: 3aec 26be 910f 0e3d 7ff8 57bd 35e5 703c
000003f0: 3f34 db3d 2cbe 1bbe e31c b2bd 23ad 1fbe

encoder.conv1.bias f4 [18]
0.030355597 0.092221595 -0.14463016 -0.050380863 -0.120846935 0.21775347 0.04230961 -0.17214294
0.17096078 -0.05749439 0.021873528 0.04507655 -0.039015017 0.21953548 0.11246757 0.03664181
-0.0754561 0.061608937
00000000: 4dac f83c adde bc3d ee19 14be 2a5c 4ebd
00000010: 997e f7bd c4fa 5e3e d74c 2d3d 3d46 30be
00000020: 5810 2f3e 3d7f 6bbd 1d30 b33c 30a2 383d
00000030: 36ce 1fbd e9cd 603e 6655 e63d b915 163d
00000040: ba88 9abd a759 7c3d

encoder.conv2.weight f4 [54, 18, 3]
-0.09944268 -0.040336903 0.07487879 -0.13002111 0.00038062787 -0.046071675 0.096610114 -0.06899349
0.043429185 -0.03563434 0.11536386 -0.018521752 -0.10005392 -0.042658333 0.095111236 0.053571835
0.024954459 0.0857059 0.04982484 -0.019879917 -0.07432045 -0.13005391 0.07044091 0.108357154
-0.0652134 -0.07876772 0.013886656 -0.010526752 0.11362651 0.00021446924 6.905316e-05 -0.12175885
0.04997113 -0.015965577 0.041107554 0.075865336 0.061362304 0.0090388525 -0.0061766678 -0.07351334
0.11481151 0.10816134 -0.020960355 0.1338866 0.11770055 0.07574761 0.07694884 0.057420295
-0.010555895 0.015158683 0.11707245 -0.028385494 0.035638448 -0.04662919 0.017872183 0.08837346
0.087542474 0.06817846 0.06612795 -0.027467271 0.17446907 0.11047847 0.14416695 -0.10586167
-0.060263798 -0.109901845 0.015948951 0.105708584 -0.096959054 0.039521895 -0.019741412 -0.13532476
-0.0070349467 -0.016756883 -0.06987328 -0.08764318 0.087930806 -0.0056969738 -0.0506278 -0.077080235
-0.04045339 -0.036852755 -0.06717552 0.06404787 -0.03351873 -0.1268987 -0.07572591 -0.03730919
-0.031953838 0.050495666 0.12717202 -0.07797633 0.005974967 0.11104396 -0.095621295 -0.11772212
0.0015306451 -0.0072809714 0.0047054887 0.0763083 -0.109833 -0.078826725 0.104941554 -0.10611722
-0.026067875 0.047970977 -0.09410255 -0.11335181 -0.09030698 -0.10367389 -0.12328262 -0.027344035
-0.13212644 -0.086562686 0.03274284 0.13633013 0.13867946 0.11152228 0.011190268 0.08262084
-0.035975352 -0.08161264 0.07170521 0.058632243 0.04203498 0.055900205 -0.030484933 0.10408947
0.0757104 -0.065525584 0.09939819 0.050314497 -0.015683006 -0.036550947 0.08661355 0.011904722
0.064300805 0.11331822 -0.020974057 0.11170816 -0.09242829 0.0035695923 0.058633137 0.06453397
-0.08805755 0.15240972 -0.055815727 0.10072556 -0.05671129 0.052453835 -0.10386793 -0.07052643
0.031629983 0.08982783 -0.0049592196 0.054972928 -0.07630877 0.028576048 -0.02830264 -0.04416259
0.050964955 -0.054899264 -0.09662031 -0.039396465 0.06362795 0.13025394 0.12206443 0.09846159
-0.04210192 0.13977212 0.07142556 0.027812095 -0.07907813 -0.068810865 0.03690828 -0.009654429
-0.041702297 -0.09956963 0.10473619 0.0337105 0.016732058 0.012501414 0.06904625 -0.087153755
0.0010357652 0.12880546 -0.04227503 -0.15473472 -0.105437696 0.0830593 0.08584303 0.10166114
-0.09121293 -0.083452955 -0.13160853 0.014895749 0.004452486 0.15642954 -0.053888753 -0.066797994
0.06723535 -0.05194645 -0.023905799 0.12610114 0.047786154 -0.14206482 0.012882109 -0.012160902
0.13567825 -0.11767607 0.09173675 -0.14588532 -0.14284286 -0.08375741 -0.15303537 -0.018091364
0.100358054 -0.06586637 -0.124029785 -0.0011858759 -0.10050346 0.0963567 -0.034749877 0.10786155
0.046261583 0.055871364 0.055817485 0.13148727 -0.103765815 -0.099276535 0.09759615 0.03871204
0.14072569 0.038695678 0.03904854 0.07331823 0.082907975 0.09038756 -0.10969452 0.039238088
-0.05765757 0.07030413 0.10147049 -0.055313013 0.081311956 0.102126166 0.081804074 -0.104203045
-0.0035273002 0.11472503 0.0063815536 0.11678754 -0.006872179 -0.098523214 0.07098261 0.04466778
00000000: 9ba8 cbbd 4f38 25bd 0d5a 993d 4124 05be
00000010: 028f c739 a7b5 3cbd 86db c53d 754c 8dbd
00000020: cde2 313d 50f5 11bd e343 ec3d eeba 97bc
00000030: 12e9 ccbd 81ba 2ebd aec9 c23d 246e 5b3d
00000040: 4b6d cc3c 9386 af3d 2215 4c3d 35db a2bc
00000050: 5235 98bd da2c 05be 5343 903d 5bea dd3d
00000060: 9a8e 85bd f850 a1bd db84 633c 6678 2cbc
00000070: 04b5 e83d 26e3 6039 a2d0 9038 b45c f9bd
00000080: 87ae 4c3d 3eca 82bc 6560 283d 495f 9b3d
00000090: 0a57 7b3d b217 143c a565 cabb 298e 96bd
000000a0: 4c22 eb3d b183 dd3d 0db5 abbc 9219 093e
000000b0: fc0c f13d 9021 9b3d 5a97 9d3d 8b31 6b3d
000000c0: a2f2 2cbc 205c 783c aec3 ef3d b288 e8bc
000000d0: 9ff9 113d 40fe 3ebd af68 923c 25fd b43d
000000e0: 7849 b33d 26a1 8b3d 176e 873d 0b03 e1bc
000000f0: 05a8 323e 8942 e23d 80a0 133e 01ce d8bd
00000100: 2cd7 76bd 3814 e1bd 60a7 823c be7d d83d
00000110: 7892 c6bd b6e1 213d beb8 a1bc 9392 0abe
00000120: 6985 e6bb bb45 89bc b919 8fbd 447e b3bd
00000130: 1115 b43d aead babb 195f 4fbd 3edc 9dbd
00000140: 74b2 25bd eaf2 16bd 5293 89bd 882b 833d
00000150: f04a 09bd bcf1 01be 3016 9bbd 85d1 18bd
00000160: 07e2 02bd 8bd4 4e3d 6239 023e 0eb2 9fbd
00000170: a8c9 c33b 046b e33d 19d5 c3bd 4b18 f1bd
00000180: ed9f c83a 3795 eebb 8030 9a3b 8747 9c3d
00000190: 20f0 e0bd e86f a1bd 99eb d63d fc53 d9bd
000001a0: 4c8c d5bc 377d 443d d6b8 c0bd fe24 e8bd
000001b0: def2 b8bd fa52 d4bd 997b fcbd 9900 e0bc
000001c0: 274c 07be c747 b1bd 5b1d 063d 209a 0b3e
000001d0: fd01 0e3e cb65 e43d 6357 373c 1d35 a93d
000001e0: e45a 13bd 8724 a7bd 2eda 923d 5d28 703d
000001f0: df2c 2c3d 9df7 643d 8abb f9bc dc2c d53d
00000200: 0e0e 9b3d 4732 86bd 4791 cb3d 9316 4e3d
00000210: a679 80bc 72b6 15bd 7262 b13d 060c 433c
00000220: 24b0 833d 6213 e83d c9d1 abbc 3fc7 e43d
00000230: 0b4b bdbd d2ef 693b 4d29 703d 632a 843d
00000240: 8457 b4bd 4b11 1c3e 089f 64bd 3449 ce3d
00000250: 194a 68bd d5d9 563d b6b8 d4bd 2970 90bd
00000260: 718e 013d a7f7 b73d f380 a2bb 4b2b 613d
00000270: c647 9cbd 5118 ea3c f0da e7bc d5e3 34bd
00000280: a1c0 503d 0dde 60bd dee0 c5bd 305e 21bd
00000290: 5f4f 823d 4a61 053e eafc f93d 3ba6 c93d
000002a0: 1073 2cbd 6c20 0f3e 9047 923d 31d6 e33c
000002b0: b7f3 a1bd b6ec 8cbd 232d 173d 9c2d 1ebc
000002c0: 07d0 2abd 2aeb cbbd ed7f d63d 0514 0a3d
000002d0: ab11 893c bbd2 4c3c 1f68 8d3d ab7d b2bd
000002e0: 83c2 873a 94e5 033e 9528 2dbd c772 1ebe
000002f0: b8ef d7bd ff1a aa3d 78ce af3d b733 d03d
00000300: d8cd babd 62e9 aabd 63c4 06be 4d0d 743c
00000310: 29e6 913b 112f 203e 74ba 5cbd 63cd 88bd
00000320: b0b2 893d cdc5 54bd 18d6 c3bc a820 013e
00000330: 6abb 433d 7179 11be 7b0f 533c 853e 47bc
00000340: 3def 0a3e 2700 f1bd 7ae0 bb3d f662 15be
00000350: 6645 12be 0189 abbd 4eb5 1cbe 5734 94bc
00000360: 8688 cd3d f3e4 86bd 5403 febd 646f 9bba
00000370: c2d4 cdbd a956 c53d e355 0ebd 84e6 dc3d
00000380: c97c 3d3d 5fd9 643d e0a0 643d 99a4 063e
00000390: 2c83 d4bd 7f51 cbbd 7ee0 c73d 8490 1e3d
000003a0: 651a 103e 5c7f 1e3d 5df1 1f3d de27 963d
000003b0: a8cb a93d 1d1d b93d 85a7 e0bd 1eb8 203d
000003c0: 582a 6cbd 9dfb 8f3d c3cf cf3d e68f 62bd
000003d0: e286 a63d 8627 d13d e588 a73d 6868 d5bd
000003e0: 472a 67bb f5f4 ea3d 5a1c d13b 4e2e ef3d
000003f0: 0430 e1bb 8ac6 c9bd 555f 913d 90f5 363d

encoder.conv2.bias f4 [54]
0.076039225 0.11731597 -0.07832252 -0.08671062 -0.006854434 0.11571463 -0.020932054 -0.1389323
-0.054419454 -0.07381368 0.091493204 -0.08721783 0.10575478 0.054329857 -0.015273509 -0.03551144
0.06700005 -0.072742686 -0.055753633 0.11788146 -0.056876425 0.017827725 0.10529641 -0.09965762
0.029626472 0.0006552938 -0.072055504 0.12429284 0.09360719 -0.010086897 -0.027501551 0.09573335
-0.04294639 0.06934383 -0.084485635 -0.095935374 0.0943884 0.08786448 -0.10324636 -0.040729363
0.07128418 0.07785426 0.07029227 0.09219518 -0.061156105 0.03248087 0.10704948 -0.10996556
0.08124945 0.023385951 -0.00888858 0.13152696 -0.057460908 -0.04707915
00000000: 74ba 9b3d 5b43 f03d 8f67 a0bd 5695 b1bd
00000010: 299b e0bb cbfb ec3d b379 abbc 4544 0ebe
00000020: efe6 5ebd a02b 97bd ca60 bb3d 439f b2bd
00000030: f695 d83d fc88 5e3d bd3d 7abc 7274 11bd
00000040: 5237 893d 1efa 94bd ec5d 64bd d66b f13d
00000050: 41f7 68bd 730b 923c a5a5 d73d 4b19 ccbd
00000060: 37b3 f23c 06c8 2b3a d691 93bd 3f8d fe3d
00000070: 20b5 bf3d 8343 25bc ef4a e1bc d90f c43d
00000080: 8ee8 2fbd 2304 8e3d ce06 adbd c479 c4bd
00000090: b54e c13d 4bf2 b33d d472 d3bd d5d3 26bd
000000a0: 71fd 913d 0e72 9f3d 65f5 8f3d d4d0 bc3d
000000b0: d37e 7abd a90a 053d c23c db3d a035 e1bd
000000c0: 1d66 a63d e593 bf3c 68a1 11bc 01af 063e
000000d0: 215c 6bbd 11d6 40bd

encoder.rnn.weight_ih_l0 f4 [192, 54]
-0.09662924 0.10085821 -0.0923903 0.11188814 -0.08278028 0.06767155 -0.066569515 0.10420457
-0.07949247 -0.07671366 -0.040019315 -0.09654704 0.12515691 0.05104958 -0.067360066 -0.09851488
-0.045469906 0.022306655 -0.05178406 0.06779196 -0.058126736 0.042635247 0.08596077 -0.08104944
-0.08871592 -0.12397386 0.027821423 0.104581244 -0.08405706 -0.012556818 0.07417985 0.102293365
0.073043756 0.035881493 0.025710436 0.013079871 0.1142526 -0.00036648932 0.05254473 -0.013220664
0.09449759 -0.119830035 -0.043693982 -0.123791575 0.031777687 -0.020236589 -0.107443884 -0.09925888
0.031666487 0.08946074 0.102568485 0.08184359 -0.0965993 0.09941954 0.11963423 0.0168903
-0.18830685 -0.104106866 -0.16698842 0.027138459 0.11460383 0.087644055 -0.060856007 -0.06080101
0.046116788 -0.0787689 -0.016950095 0.0239833 -0.08697427 0.04907254 -0.01350379 0.10301856
-0.11520862 0.119501084 0.08921269 -0.11140848 0.0444823 0.025285315 0.062289167 0.102273926
-0.084064215 -0.054291014 -0.08698541 0.05603248 -0.09018767 -0.076071836 0.107146814 0.0738921
0.0913366 0.10397866 -0.10550204 -0.030307345 -0.012436096 0.11529685 -0.009019464 -0.05453079
0.071871236 0.06624037 -0.098545186 -0.17706418 -0.0648276 0.06891487 0.13221087 0.051947325
0.063513435 0.05363479 -0.038584158 -0.03258383 0.0675178 -0.004968464 -0.043352444 -0.017119566
0.11620181 0.016147591 -0.047020104 -0.092921264 -0.042932782 -0.036523275 0.06752495 0.11924319
-0.040090837 0.12170534 -0.093003385 -0.057814453 0.011119237 -0.18590994 -0.08219529 -0.040592857
-0.078680374 0.102109626 -0.041215286 -0.07323491 -0.06861392 0.093459025 0.07619394 -0.07409793
-0.13022545 -0.05179747 0.07872367 0.08058986 0.06978335 0.044535473 0.07722935 0.11948704
-0.071369134 0.05978917 0.07134921 0.0066192346 0.09810184 -0.079269886 -0.09824668 -0.053181916
-0.083545916 0.030243957 0.027570594 0.0105529865 -0.023383398 0.016391719 -0.15210079 -0.08908376
-0.084324405 0.09800894 -0.11661613 0.05844583 0.06559708 -0.039764345 -0.021035174 0.09989199
-0.104548685 -0.1271527 -0.014194347 -0.014254152 -0.050335027 0.010173027 0.064981 0.067171775
0.02776809 0.08575726 -0.061031822 0.009882477 0.04196957 0.04207746 -0.0370135 0.1098575
-0.095331535 -0.0437839 -0.112311296 0.014251504 -0.0985202 0.11059378 -0.08685341 0.029084507
0.109650895 0.11783779 0.04448546 0.04422133 0.029717898 0.07504468 -0.000933533 -0.09576311
0.11555852 -0.098322995 0.12493563 0.0019962378 0.052527577 -0.0006770972 0.05267241 0.07810849
-0.116882615 0.07425357 -0.042185016 -0.11781956 -0.1050684 0.011425564 0.09923915 -0.12470675
0.032019015 0.054405928 -0.105393045 0.03784054 -0.124677606 0.015064666 -0.037376966 0.13830258
-0.11527092 0.062290512 -0.039270382 0.03353374 -0.003968126 -0.13672847 -0.046440598 0.008604448
0.013842439 -0.06688533 0.07720695 -0.051293094 -0.05617183 0.02902466 -0.0077752057 0.029929345
0.055177853 -0.02799927 0.033368774 0.077348664 0.031563673 0.08963753 0.058514167 0.06524101
0.077635124 0.07574442 0.030602338 0.06206608 0.05377553 0.021332024 0.019917998 -0.0396001
00000000: 8de5 c5bd c08e ce3d 2037 bdbd 9c25 e53d
00000010: b588 a9bd 6297 8a3d 9955 88bd 3569 d53d
00000020: f3cc a2bd 0d1c 9dbd 4beb 23bd 74ba c5bd
00000030: 2229 003e 5d19 513d 13f4 89bd 2bc2 c9bd
00000040: a73e 3abd 72bc b63c 861b 54bd 83d6 8a3d
00000050: 4d16 6ebd 4ca2 2e3d 330c b03d 40fd a5bd
00000060: b1b0 b5bd 02e6 fdbd c1e9 e33c b12e d63d
00000070: 1c26 acbd 1dbb 4dbc 9beb 973d 2f7f d13d
00000080: f797 953d 79f8 123d b19e d23c f54c 563c
00000090: 44fd e93d 5d25 c0b9 2539 573d 7c9b 58bc
000000a0: f487 c13d 7369 f5bd 76f8 32bd 7086 fdbd
000000b0: 5229 023d 34c7 a5bc 8a0b dcbd 3d48 cbbd
000000c0: b8b4 013d 3137 b73d 6d0f d23d 9d9d a73d
000000d0: dbd5 c5bd 799c cb3d cb02 f53d 875d 8a3c
000000e0: 83d3 40be fb35 d5bd 03ff 2abe 7951 de3c
000000f0: 6ab5 ea3d ba7e b33d 2644 79bd 7b0a 79bd
00000100: f5e4 3c3d 9751 a1bd edda 8abc a078 c43c
00000110: 911f b2bd 4a00 493d 003f 5dbc 65fb d23d
00000120: 7ff2 ebbd fcbc f43d 25b5 b63d 212a e4bd
00000130: 1233 363d 2623 cf3c ed22 7f3d fe74 d13d
00000140: dc29 acbd 4160 5ebd 6825 b2bd 5082 653d
00000150: 50b4 b8bd 8dcb 9bbd ca6f db3d be54 973d
00000160: af0e bb3d c4f2 d43d 7411 d8bd 1c47 f8bc
00000170: c4c0 4bbc c120 ec3d 60c6 13bc ad5b 5fbd
00000180: 3a31 933d 08a9 873d 0fd2 c9bd 5050 35be
00000190: 55c4 84bd 3d23 8d3d 4962 073e b8c6 543d
000001a0: 5513 823d 27b0 5b3d 6c0a 1ebd 9f76 05bd
000001b0: c646 8a3d 7fce a2bb 5592 31bd 553e 8cbc
000001c0: 37fb ed3d f447 843c 2798 40bd 814d bebd
000001d0: 49da 2fbd 6e99 15bd 854a 8a3d c635 f43d
000001e0: 4a36 24bd a640 f93d 8f78 bebd d9ce 6cbd
000001f0: 762d 363c 2d5f 3ebe 0156 a8bd b244 26bd
00000200: 2d23 a1bd da1e d13d 5cd1 28bd 2ffc 95bd
00000210: 7485 8cbd 7267 bf3d 920b 9c3d a8c0 97bd
00000220: d259 05be 9529 54bd e039 a13d 4c0c a53d
00000230: 93ea 8e3d d46a 363d 6c2a 9e3d 9fb5 f43d
00000240: fb29 92bd 7de5 743d 891f 923d 2ae6 d83b
00000250: 9ee9 c83d 4058 a2bd 8e35 c9bd 48d5 59bd
00000260: 1f1a abbd 2dc2 f73c badb e13c 6fe6 2c3c
00000270: 8a8e bfbc ed47 863c 4fc0 1bbe 8c71 b6bd
00000280: 46b2 acbd e9b8 c83d 70d4 eebd e564 6f3d
00000290: c357 863d f0df 22bd f551 acbc 2c94 cc3d
000002a0: 9f1d d6bd 5134 02be 688f 68bc 3f8a 69bc
000002b0: 1a2c 4ebd c5ac 263c c214 853d 5b91 893d
000002c0: e879 e33c 81a1 af3d 81fc 79bd 1dea 213c
000002d0: 49e8 2b3d 6a59 2c3d 789b 17bd f8fc e03d
000002e0: 2e3d c3bd bf56 33bd 7703 e6bd 247f 693c
000002f0: f5c4 c9bd fe7e e23d 33e0 b1bd a242 ee3c
00000300: a690 e03d f054 f13d 6336 363d 6d21 353d
00000310: f372 f33c 06b1 993d 57b8 74ba 731f c4bd
00000320: f2a9 ec3d 915d c9bd 40de ff3d 50d3 023b
00000330: 2827 573d 397f 31ba 06bf 573d 58f7 9f3d
00000340: 2760 efbd 4112 983d 32ca 2cbd 624b f1bd
00000350: 1a2e d7bd 4a32 3b3c e53d cb3d 4166 ffbd
00000360: 5f26 033d c0d8 5e3d 4fd8 d7bd affe 1a3d
00000370: f956 ffbd cad1 763c 9718 19bd 319f 0d3e
00000380: 2913 ecbd 5624 7f3d fbd9 20bd ad5a 093d
00000390: 0e07 82bb 8c02 0cbe 7f38 3ebd acf9 0c3c
000003a0: 66cb 623c 2dfb 88bd ad1e 9e3d b518 52bd
000003b0: 6f14 66bd 20c5 ed3c 27c7 febb 632e f53c
000003c0: 2c02 623d ba5e e5bc b2ad 083d fa68 9e3d
000003d0: e948 013d e293 b73d 8dac 6f3d 149d 853d
000003e0: 2aff 9e3d e41f 9b3d c1b1 fa3c 0039 7e3d
000003f0: bb43 5c3d 7fc0 ae3c 122b a33c b733 22bd

encoder.rnn.weight_hh_l0 f4 [192, 64]
-0.10984062 0.11878264 -0.08196804 0.11819846 -0.0040223026 -0.004158645 0.0665077 -0.057417613
0.0047510066 -0.050527204 -0.091618024 0.08267064 0.087585464 0.06070319 0.11828106 0.054949705
0.10174483 -0.03242087 0.089465536 0.035899032 0.0040538795 0.087954424 -0.0999636 -0.008486579
-0.06041147 0.12082619 -0.019385986 0.03855485 0.09183102 0.06130108 -0.045358717 0.008064966
0.08322986 -0.04801419 0.009623845 -0.09024361 0.031994127 0.08286493 0.004124566 0.023992516
0.100784436 0.008943948 -0.044348195 0.09744019 -0.08657168 0.059973564 0.076739416 0.0045139105
-0.12619302 0.052758574 0.08541352 -0.0086336285 0.07880731 0.04320511 0.023234356 0.11987041
-0.063680835 0.015885415 -0.09774785 0.10502191 0.035299774 0.115285546 -0.095553584 0.111515954
0.06476159 0.09672415 -0.063310035 -0.088136435 -0.026136506 0.09269964 0.1713931 0.032405168
-0.01102813 -0.00899592 -0.019676076 0.025555074 0.054640304 -0.020885231 -0.08152842 -0.012339498
0.06716726 -0.08247419 0.11578742 0.0465439 0.05439212 0.044988498 0.052486394 0.1210395
-0.071401395 0.004452159 0.08961418 -0.10881078 0.05986634 -0.11765446 -0.08506309 -0.069901995
-0.08136134 -0.08936175 0.08426406 -0.103858195 -0.06014334 -0.10398826 -0.0421184 0.0021747788
0.048967153 -0.06878438 -0.0118075395 0.053959027 0.08074899 0.00044979135 -0.0716739 0.07614585
-0.029573467 -0.10796389 -0.028515263 -0.0218382 0.025815902 0.10286618 0.08443594 -0.0849268
0.11989463 0.05838629 0.02654582 -0.08284927 -0.018251572 0.03151606 -0.0067563155 0.08053839
0.07237625 -0.0724221 0.11467098 0.017169403 0.011079299 -0.029649789 0.037727036 0.027529757
-0.0363007 0.001478579 -0.045227557 0.13748646 -0.064291656 -0.087446235 0.12599516 0.062325038
-0.115026705 0.11271581 -0.12979898 -0.037918806 -0.045370176 0.0019436035 -0.027700448 -0.058777798
-0.104154676 -0.07702801 0.07817254 0.045952413 0.03379584 -0.026858306 0.031183971 -0.019466106
-0.045968134 0.1292699 -0.008763258 -0.02252155 0.0019315225 0.050563738 -0.12403635 0.053587347
-0.005786158 -0.040970523 -0.030673712 -0.005850479 -0.15147628 0.06638142 0.024162665 -0.06396358
0.07971136 -0.07739643 0.104080014 -0.047729265 0.027286503 0.023850575 -0.025991067 -0.09481022
0.069140464 0.022504127 -0.084924705 -0.034725115 0.039684948 -0.0876308 0.0479806 0.08348948
-0.122421354 0.016633408 -0.07573202 -0.112802796 0.11168806 0.07032577 0.110109426 0.12784924
-0.06446427 -0.053301204 0.002335468 0.05540036 0.011319956 -0.006035365 0.12355864 -0.051486127
0.05464721 0.05105998 -0.060769204 0.07317291 0.086992584 -0.022634685 -0.10058048 0.07887914
0.08569251 0.06126497 0.018432604 0.06425244 0.041966632 -0.045814455 -0.09059311 -0.04709673
0.042086154 -0.052527055 0.08501714 -0.06981116 -0.10114063 0.084516115 -0.08057372 0.039465066
0.10909411 0.007940255 0.082355134 -0.03654293 -0.108129926 -0.07442086 -0.037592925 -0.080020525
-0.078580774 0.0502215 0.17207566 0.07579492 0.049340557 -0.092631646 -0.020664738 0.04476403
0.11253122 -0.059044413 0.08365546 0.069613546 -0.024027923 -0.1170302 0.061391305 0.07068741
00000000: 1ef4 e0bd 5044 f33d dcde a7bd 0912 f23d
00000010: 85cd 83bb 3e45 88bb 3035 883d bb2e 6bbd
00000020: 55ae 9b3b 9df5 4ebd 3ba2 bbbd 394f a93d
00000030: 0260 b33d e8a3 783d 573d f23d f112 613d
00000040: 985f d03d bfcb 04bd b539 b73d dd0a 133d
00000050: 68d6 843b 7321 b43d b7b9 ccbd 4b0b 0bbc
00000060: 0472 77bd b973 f73d 5ccf 9ebc b1eb 1d3d
00000070: e711 bc3d d716 7b3d 10ca 39bd eb22 043c
00000080: 6b74 aa3d 87aa 44bd 55ad 1d3c a4d1 b8bd
00000090: 460c 033d 17b5 a93d 5e27 873b f48b c43c
000000a0: 1268 ce3d a389 123c 74a6 35bd b98e c73d
000000b0: 7e4c b1bd d7a6 753d 8e29 9d3d 6de9 933b
000000c0: be38 01be 6019 583d 49ed ae3d 1074 0dbc
000000d0: ba65 a13d d7f7 303d fa55 be3c 9e7e f53d
000000e0: 196b 82bd 2122 823c 0630 c8bd ba15 d73d
000000f0: 7f96 103d d41a ec3d 99b1 c3bd 7a62 e43d
00000100: b9a1 843d 5017 c63d b1a8 81bd e080 b4bd
00000110: 3a1c d6bc 4fd9 bd3d ac81 2f3e 48bb 043d
00000120: 54af 34bc a063 13bc b92f a1bc e058 d13c
00000130: 83ce 5f3d 8117 abbc 5ff8 a6bd 9b2b 4abc
00000140: fd8e 893d 3ae8 a8bd f421 ed3d d1a4 3e3d
00000150: 46ca 5e3d dc45 383d f9fb 563d 8fe3 f73d
00000160: e53a 92bd 6be3 913b a487 b73d 30d8 debd
00000170: 6836 753d d2f4 f0bd 8f35 aebd c728 8fbd
00000180: c6a0 a6bd 4b03 b7bd a392 ac3d 9bb3 d4bd
00000190: dd58 76bd ccf7 d4bd 5884 2cbd bc86 0e3b
000001a0: c891 483d d3de 8cbd 6974 41bc 2404 5d3d
000001b0: ba5f a53d f9d1 eb39 c4c9 92bd 5bf2 9b3d
000001c0: 0e44 f2bc 2c1c ddbd d798 e9bc 06e6 b2bc
000001d0: df7b d33c 81ab d23d c0ec ac3d 1aee adbd
000001e0: 518b f53d 7626 6f3d 9f76 d93c e1ac a9bd
000001f0: 5284 95bc fc16 013d 1564 ddbb 50f1 a43d
00000200: 003a 943d 0a52 94bd 9ed8 ea3d d9a6 8c3c
00000210: f385 353c 1de4 f2bc aa87 1a3d 1686 e13c
00000220: 0bb0 14bd e1cc c13a 8840 39bd 40c9 0c3e
00000230: 58ab 83bd 0317 b3bd e004 013e 8a48 7f3d
00000240: 1f93 ebbd 8cd7 e63d 06ea 04be c050 1bbd
00000250: 14d6 39bd 83c0 fe3a 0dec e2bc fdc0 70bd
00000260: 0c4f d5bd dcc0 9dbd ed18 a03d 9938 3c3d
00000270: 826d 0a3d f305 dcbc 8775 ff3c 6277 9fbc
00000280: 1549 3cbd 545f 043e c593 0fbc 1d7f b8bc
00000290: 242b fd3a ec1b 4f3d c506 febd 687e 5b3d
000002a0: d099 bdbb b5d0 27bd 7047 fbbc 60b5 bfbb
000002b0: 991c 1bbe fbf2 873d c8f0 c53c 56ff 82bd
000002c0: b63f a33d 0582 9ebd e727 d53d c37f 43bd
000002d0: f287 df3c 4862 c33c 38eb d4bc dc2b c2bd
000002e0: 8499 8d3d 935a b83c 01ed adbd ec3b 0ebd
000002f0: af8c 223d c777 b3bd 4e87 443d 88fc aa3d
00000300: 0cb8 fabd c942 883c 6419 9bbd 2705 e7bd
00000310: b6bc e43d f506 903d 0d81 e13d e9ea 023e
00000320: d805 84bd 5d52 5abd a70e 193b 7deb 623d
00000330: 5677 393c 50c4 c5bb 500c fd3d 1ee3 52bd
00000340: c1d5 5f3d 4524 513d 21e9 78bd aedb 953d
00000350: 2b29 b23d 606c b9bc 24fd cdbd 638b a13d
00000360: 8e7f af3d faf0 7a3d f9ff 963c c996 833d
00000370: 34e5 2b3d f0a7 3bbd e188 b9bd 80e8 40bd
00000380: 8862 2c3d 9c26 57bd 771d ae3d 27f9 8ebd
00000390: d222 cfbd c916 ad3d d603 a5bd 1fa6 213d
000003a0: bc6c df3d d817 023c cfa9 a83d 0aae 15bd
000003b0: 3973 ddbd f769 98bd 0afb 19bd cde1 a3bd
000003c0: f5ee a0bd 0fb5 4d3d 9a34 303e 5e3a 9b3d
000003d0: 5319 4a3d a9b5 bdbd 1949 a9bc 7d5a 373d
000003e0: c576 e63d 8ed8 71bd 8e53 ab3d 8c91 8e3d
000003f0: 35d6 c4bc 88ad efbd 7375 7b3d 90c4 903d

encoder.rnn.bias_ih_l0 f4 [192]
0.11938023 -0.092015825 -0.10289739 0.00074327533 0.02374747 -0.021183336 -0.055349108 0.016367478
-0.006189034 -0.051627014 0.0385024 -0.06488778 -0.13629335 -0.10756617 0.041059416 -0.099385664
-0.109589435 -0.043303993 0.084197655 0.07698825 0.09638329 -0.11010508 -0.09077138 0.06905572
0.14706174 -0.015711816 -0.11732808 0.12427304 0.06997606 0.09351407 0.041279934 0.05460454
-0.012523742 0.060090046 0.031959005 -0.064378634 -0.0524017 -0.032387454 -0.0117516685 0.08700808
0.07897775 -0.01996848 -0.034657687 -0.016884694 0.12229064 0.1142607 0.016162036 -0.008788269
0.07891446 -0.0921896 -0.07614622 0.07626244 0.118156366 -0.0074838013 -0.10483906 0.089891955
0.05689723 0.003854102 0.12207121 -0.09513948 -0.014279714 0.07674351 -0.09000882 -0.09285569
0.0059775766 0.084008045 -0.16930854 0.053163927 -0.10997004 -0.08299169 0.19559836 0.10841283
0.004622286 0.0035047173 -0.09610982 0.0931452 0.08395851 0.07940279 0.009997935 -0.20018739
-0.087398626 -0.1333954 -0.05948086 0.0057041477 -0.005813374 -0.08909822 0.05925257 0.055754904
-0.030077081 -0.046181645 0.007444999 -0.028896742 -0.06704543 0.030724702 0.0115757445 -0.12562147
-0.1935605 0.045686472 -0.17622495 -0.02678786 0.06975603 0.06770164 -0.003536729 -0.05475286
-0.050994188 -0.042765867 -0.13896023 -0.15857299 -0.06719512 -0.0822979 0.0691296 -0.09382039
-0.09962802 -0.005183572 0.098693386 -0.033527825 -0.06345305 -0.14754656 -0.13161409 0.014212322
0.104490556 0.034128502 0.0148962755 0.028872818 -0.13956949 -0.06491655 -0.10564329 -0.031884614
0.0727842 -0.08712864 -0.13241449 -0.022687426 -0.05376257 -0.10693999 -0.07749483 -0.012745631
-0.065383695 0.08324424 -0.033200078 -0.023252293 0.06060474 -0.11249722 0.03551524 -0.028919592
0.096249014 0.014506858 -0.048443247 -0.08928202 -0.08351882 -0.066599354 0.10580127 0.10145681
0.10474633 -0.052731358 0.04362376 -0.08458211 -0.029572122 0.11114524 -0.07820027 -0.13232215
-0.0025323906 0.028769601 0.09282024 0.054161306 0.024253765 0.12221665 0.1044975 -0.06677081
-0.115362875 -0.11733617 0.027889382 0.038631506 -0.03150414 0.101974055 0.029061854 0.018481359
-0.014874267 0.08082867 0.04249744 -0.090843014 -0.03903353 0.0484035 0.041686255 -0.025592366
0.11872302 0.10219613 -0.06134936 0.10212546 0.091718055 0.08443332 -0.033901762 0.06629033
00000000: 9f7d f43d cb72 bcbd debb d2bd 5dd8 423a
00000010: 0e8a c23c ad88 adbc bfb5 62bd 1715 863c
00000020: 61cd cabb d976 53bd b1b4 1d3d e2e3 84bd
00000030: 7c90 0bbe a74b dcbd eb2d 283d b68a cbbd
00000040: 6d70 e0bd 875f 31bd d26f ac3d 04ac 9d3d
00000050: 9a64 c53d c67e e1bd 58e6 b9bd 166d 8d3d
00000060: 5a97 163e 11b6 80bc b449 f0bd dd82 fe3d
00000070: 9c4f 8f3d 4e84 bf3d 2615 293d 03a9 5f3d
00000080: 6230 4dbc fb20 763d 72e7 023d f2d8 83bd
00000090: 2aa3 56bd b5a8 04bd 128a 40bc 4b31 b23d
000000a0: 16bf a13d f094 a3bc 38f5 0dbd c551 8abc
000000b0: 8473 fa3d 8401 ea3d 3f66 843c acfc 0fbc
000000c0: e89d a13d e7cd bcbd 8df2 9bbd 7b2f 9c3d
000000d0: f7fb f13d ad3a f5bb dcb5 d6bd 4619 b83d
000000e0: 120d 693d 1a95 7c3b 7800 fa3d 7dd8 c2bd
000000f0: 76f5 69bc b42b 9d3d 8b56 b8bd 202b bebd
00000100: 8cdf c33b 690c ac3d 385f 2dbe 6bc2 593d
00000110: f937 e1bd 8cf7 a9bd f04a 483e 8c07 de3d
00000120: 8c76 973b 66af 653b 3ad5 c4bd e9c2 be3d
00000130: 70f2 ab3d ee9d a23d 61ce 233c ecfd 4cbe
00000140: 0dfe b2bd ce98 08be 34a2 73bd dce9 ba3b
00000150: 1e7e bebb 2179 b6bd d3b2 723d 415f 643d
00000160: 3664 f6bc f728 3dbd 2ef5 f33b dcb8 ecbc
00000170: 1d4f 89bd 5fb2 fb3c 31a8 3d3c eaa2 00be
00000180: b934 46be bd21 3b3d 5074 34be 3772 dbbc
00000190: 40dc 8e3d 28a7 8a3d 77c8 67bb 8944 60bd
000001a0: 48df 50bd 432b 2fbd 974b 0ebe f560 22be
000001b0: 989d 89bd cd8b a8bd d293 8d3d e824 c0bd
000001c0: c609 ccbd f4da a9bb c21f ca3d 7954 09bd
000001d0: acf3 81bd 7216 17be d8c5 06be cdda 683c
000001e0: 25ff d53d 54ca 0b3d 820f 743c b086 ec3c
000001f0: 4eeb 0ebe f8f2 84bd 825b d8bd 7199 02bd
00000200: e20f 953d 8070 b2bd aa97 07be fbda b9bc
00000210: 2436 5cbd 5a03 dbbd 9cb5 9ebd 0dd3 50bc
00000220: e3e7 85bd f57b aa3d cefc 07bd 987b bebc
00000230: ad3c 783d f164 e6bd 6e78 113d c8e8 ecbc
00000240: 341e c53d 2cae 6d3c 6d6c 46bd 7ed9 b6bd
00000250: ea0b abbd 3e65 88bd 56ae d83d 97c8 cf3d
00000260: 3e85 d63d d6fc 57bd d4ae 323d 6339 adbd
00000270: 3c41 f2bc 1ea0 e33d 7727 a0bd 757f 07be
00000280: 77f6 25bb 3aae eb3c 8a18 be3d 3fd8 5d3d
00000290: d5af c63c b94c fa3d c902 d63d 22bf 88bd
000002a0: 5f43 ecbd f24d f0bd 4678 e43c 123c 1e3d
000002b0: 7c0a 01bd c6d7 d03d 2013 ee3c 3866 973c
000002c0: 33b3 73bc 8089 a53d cc11 2e3d e70b babd
000002d0: 9fe1 1fbd c042 463d 35bf 2a3d 15a7 d1bc
000002e0: 0e25 f33d 344c d13d 7749 7bbd 2727 d13d
000002f0: add6 bb3d 60eb ac3d 93dc 0abd 39c3 873d

encoder.rnn.bias_hh_l0 f4 [192]
-0.07449916 0.07417767 -0.0143461535 0.06723977 0.077663206 0.037273306 0.03561588 -0.056134026
-0.09095587 -0.10575458 -0.043581497 -0.10618216 -0.052525546 -0.0074772406 -0.12138143 0.10864452
-0.0023255323 0.074807815 -0.10916698 0.07361031 -0.07827731 0.006109862 0.089539185 0.108553395
-0.08363654 -0.060122885 -0.05331983 0.048633814 -0.08992054 0.08686466 -0.09693692 0.005110196
0.0078646615 -0.09379156 -0.01995191 -0.09166988 -0.07426477 -0.1311127 0.032152236 -0.045511313
-0.027805692 0.055957075 0.07729275 0.054472674 0.02514854 0.11154246 -0.019252544 0.10396105
-0.06335868 -0.1204604 -0.018132808 -0.080228426 -0.08484054 -0.08370742 -0.01879858 0.01404804
-0.005904318 -0.037194885 0.104387574 0.07057392 -0.071362466 -0.08639343 -0.03423861 0.06171356
0.10791921 0.07315631 -0.100393035 0.029750135 -0.12589307 0.048065107 0.2138885 0.07764502
-0.120060146 -0.17336564 -0.048467897 -0.03557644 -0.07651236 0.08732352 0.04460685 -0.08417397
0.09069506 -0.12077374 0.09114516 0.08207791 -0.1055906 -0.01774992 0.06217049 -0.015090256
-0.001500122 -0.11338602 -0.15121247 0.04900033 -0.06424041 0.0045467834 -0.12184456 -0.10908787
0.022648739 -0.12444799 -0.051315323 0.015059287 -0.11447599 -0.06027058 -0.03575629 0.1047417
-0.048508737 0.070380725 -0.12847324 -0.22384328 0.059839956 -0.052281998 0.054426227 -0.05566641
0.034900025 0.0047822003 -0.04983537 -0.13642716 0.08692894 -0.12849163 -0.022155995 -0.090571485
0.15716666 -0.006202443 -0.0063171666 -0.0040580016 -0.047031134 0.093127415 0.07123659 -0.086355954
-0.029049516 -0.062367562 0.043973804 0.05288402 -0.120228544 -0.09985932 -0.030165317 -0.003605251
0.08772249 0.030445268 0.074913055 -0.090841025 0.08694529 0.1084279 0.06666637 0.0019218272
0.10500681 -0.0049215667 -0.01485181 -0.01770713 0.03680031 0.036232155 0.097646214 0.09093453
0.04411059 0.025736177 0.034900103 0.09232401 -0.038475502 0.08314695 -0.054283384 -0.061185677
0.043352257 -0.07436651 -0.057584018 0.039216254 -0.0018467328 0.0737327 -0.075022094 -0.10603631
0.009593317 0.050098058 0.009820751 -0.08197997 -0.079303674 0.058552474 0.0238137 0.071900316
-0.062500164 0.09863385 -0.003989071 0.030173836 -0.08278864 -0.022599908 -0.033067413 -0.097245306
0.07695685 0.041941863 -0.08314202 0.038697828 -0.03164938 -0.12412196 0.031856194 -0.015516491
00000000: 0493 98bd 76ea 973d 210c 6bbc 01b5 893d
00000010: e30d 9f3d e5ab 183d f5e1 113d cbec 65bd
00000020: 1247 babd db95 d8bd 8382 32bd 0876 d9bd
00000030: 0725 57bd a403 f5bb d496 f8bd 0581 de3d
00000040: f567 18bb d734 993d f092 dfbd 01c1 963d
00000050: db4f a0bd 3d35 c83b 5260 b73d 3e51 de3d
00000060: a249 abbd 6a43 76bd e565 5abd 4034 473d
00000070: 4328 b8bd 19e6 b13d dd86 c6bd 6e73 a73b
00000080: c8da 003c ca15 c0bd 3072 a3bc 6bbd bbbd
00000090: 2118 98bd 6842 06be 10b2 033d 126a 3abd
000000a0: c3c8 e3bc 3f33 653d a94b 9e3d bd1e 5f3d
000000b0: 5004 ce3c 6070 e43d 83b7 9dbc 88e9 d43d
000000c0: 32c2 81bd f1b3 f6bd 418b 94bc cd4e a4bd
000000d0: e1c0 adbd cc6e abbd 7bff 99bc c029 663c
000000e0: 0279 c1bb aa59 18bd 27c9 d53d 0f89 903d
000000f0: 7c26 92bd 0aef b0bd c93d 0cbd 5cc7 7c3d
00000100: bf04 dd3d fad2 953d dd9a cdbd 8eb6 f33c
00000110: 1dea 00be ebdf 443d 9605 5b3e 5a04 9f3d
00000120: 18e2 f5bd c386 31be 4686 46bd 9ab8 11bd
00000130: 83b2 9cbd acd6 b23d acb5 363d 6763 acbd
00000140: 55be b93d 3958 f7bd 50aa ba3d 7718 a83d
00000150: e23f d8bd 4868 91bc 7ca6 7e3d 1f3d 77bc
00000160: be9f c4ba ee36 e8bd 71d7 1abe 92b4 483d
00000170: 7a90 83bd 2ffd 943b a489 f9bd 7669 dfbd
00000180: d989 b93c 96de febd 0430 52bd 3abb 763c
00000190: 6372 eabd 49de 76bd 3075 12bd d182 d63d
000001a0: 19b1 46bd c523 903d 7d8e 03be 2c37 65be
000001b0: be1a 753d a625 56bd 09ee 5e3d 7602 64bd
000001c0: 54f3 0e3d 01b4 9c3b 2c20 4cbd 90b3 0bbe
000001d0: cd07 b23d 4f93 03be 7d80 b5bc 8b7d b9bd
000001e0: 4cf0 203e dd3d cbbb 3c00 cfbb fcf8 84bb
000001f0: b8a3 40bd 96b9 be3d 7de4 913d 64db b0bd
00000200: 40f9 edbc 2175 7fbd e01d 343d ea9c 583d
00000210: 623a f6bd 0b83 ccbd 411d f7bc 1346 6cbb
00000220: d9a7 b33d 5b68 f93c 046c 993d dc0a babd
00000230: 5f10 b23d 720f de3d 6188 883d d2e5 fb3a
00000240: cf0d d73d 1845 a1bb 0255 73bc 8b0e 91bc
00000250: ecbb 163d 2b68 143d bdfa c73d e23b ba3d
00000260: 4ead 343d add4 d23c 69f3 0e3d 5f14 bd3d
00000270: 7d98 1dbd f348 aa3d 4158 5ebd d59d 7abd
00000280: 2392 313d 784d 98bd 38dd 6bbd 39a1 203d
00000290: 120e f2ba 2b01 973d 2fa5 99bd 9129 d9bd
000002a0: 4a2d 1d3c 9f33 4d3d 37e7 203c 1de5 a7bd
000002b0: f769 a2bd b8d4 6f3d f314 c33c 7940 933d
000002c0: 1600 80bd 8b00 ca3d c1b6 82bb 1f2f f73c
000002d0: 178d a9bd 7123 b9bc b271 07bd 8c28 c7bd
000002e0: 8e9b 9d3d 3bcb 2b3d 5d46 aabd 9d81 1e3d
000002f0: c8a2 01bd a733 febd a47b 023d e138 7ebc

encoder.rnn.weight_ih_l1 f4 [192, 64]
0.091024205 0.012510357 -0.059151664 -0.05534337 0.055416334 -0.09194796 0.016825626 -0.12064587
-0.08065577 -0.038010113 0.0853652 -0.050320894 -0.07933883 -0.03535876 -0.09424807 -0.03338564
-0.113694936 0.03661331 -0.13515231 -0.10552685 -0.10122266 -0.09377761 0.048695058 0.07071527
-0.076036565 0.058496978 -0.12987049 -0.11683324 0.046063118 -0.021345071 -0.05041706 0.032838617
0.016429298 0.11571937 0.022489969 -0.008675411 -0.08545946 -0.044943415 -0.11864912 -0.008003788
-0.04496565 -0.005252725 -0.08766178 0.049806755 0.05844037 -0.003386077 -0.06438893 0.048473325
0.059936453 0.03949925 -0.02703582 0.039326347 0.00073353865 -0.010823732 -0.05011997 -0.061007727
0.06625536 0.053469915 -0.11528766 -0.0008465897 -0.103280686 0.13872 0.00033651886 -0.087406024
-0.07708105 0.05895241 -0.061500404 -0.0077204173 0.11094148 -0.050437037 -0.064398 0.04181943
0.0045732195 -0.080533855 0.040183093 -0.08451877 -0.07466051 -0.1022713 -0.029927202 -0.011057328
-0.04701025 -0.06114394 -0.0423425 0.026462251 0.0063773487 -0.11881166 -0.10828784 0.101346
0.017608233 0.056330167 0.014765056 -0.112785645 -0.12108799 0.07761119 -0.031041611 -0.06709631
-0.123209395 0.06249409 0.014637551 -0.10268459 0.0147582125 -0.07395806 -0.024153372 -0.077428184
-0.04023543 -0.03319875 -0.11391436 -0.09387067 -0.1258883 0.10170855 -0.067258954 0.08980497
0.10074858 -0.06560156 0.105893314 0.0041838735 -0.00891045 0.07065854 0.09257777 -0.028012581
0.13173789 -0.0683838 0.0845226 0.07895001 0.107022904 -0.020579794 0.12153632 0.11925816
-0.08769946 0.115589954 -0.086306736 0.12909086 -0.09270225 0.016579015 -0.10836282 0.04806586
-0.069302954 -0.049967375 -0.044256028 -0.10808593 -0.022602182 -0.04401011 -0.093379594 -0.048130803
-0.04267764 0.12399019 0.055038933 -0.012167905 0.00558922 0.04316779 0.0062360438 -0.06378402
-0.0999398 -0.08418298 0.03172924 -0.005190182 -0.082212925 0.07520349 0.07715958 0.021872262
0.09390326 -0.08291959 -0.08479948 0.04460991 0.11019346 0.018648863 -0.08863433 -0.018550742
-0.024553448 -0.07740416 -0.042791788 -0.037247144 0.015892081 -0.025028901 0.12196398 -0.0839878
0.017885963 0.1000852 -0.011052247 -0.11484608 0.0055054356 0.052758176 -0.08191753 0.066782005
0.0004780062 -0.07644171 0.026968712 -0.057675045 0.1319466 -0.111738995 -0.08842906 0.0037146637
0.017744811 -0.021172348 -0.03740176 -0.06760162 0.09524315 0.110470794 -0.08231279 -0.020113092
-0.10000967 0.111747704 -0.057917487 -0.06413092 -0.058931574 0.03787482 0.03635156 -0.09955868
-0.024565138 0.066313684 0.02129331 -0.11391092 0.066152774 0.11145341 0.024476398 0.12560742
0.097330384 -0.10033792 -0.052178018 0.10275235 -0.04234597 0.11287583 -0.09392551 0.098194204
0.035441414 -0.10565035 -0.13743226 -0.11386671 0.112677954 0.034508146 0.034206472 -0.041670144
-0.11826075 0.10009013 -0.06722015 -0.02086495 -0.018388515 0.0982256 0.047004294 -0.0100956885
0.13068132 0.109630406 -0.01108894 0.104796454 -0.05769539 -0.115094766 0.10800519 0.0026363514
-0.016073188 -0.08451949 -0.039838117 -0.061441008 0.0031132493 -0.10438436 0.050819032 0.02642755
00000000: e66a ba3d 3ef8 4c3c 0449 72bd bbaf 62bd
00000010: 3dfc 623d 364f bcbd e5d5 893c 2f15 f7bd
00000020: da2e a5bd 7eb0 1bbd f3d3 ae3d 481d 4ebd
00000030: 667c a2bd 59d4 10bd 2205 c1bd 61bf 08bd
00000040: e4d8 e8bd d7f7 153d 5e65 0abe 761e d8bd
00000050: d34d cfbd 7a0e c0bd 7874 473d 2bd3 903d
00000060: 0fb9 9bbd 879a 6f3d c5fc 04be 4446 efbd
00000070: aeac 3c3d dcdb aebc 1e82 4ebd c981 063d
00000080: bc96 863c 47fe ec3d e23c b83c 5023 0ebc
00000090: 5f05 afbd 9616 38bd 4ffe f2bd 5222 03bc
000000a0: e72d 38bd 0d1f acbb 0588 b3bd 2b02 4c3d
000000b0: 2b5f 6f3d f2e8 5dbb 58de 83bd f78b 463d
000000c0: ed7f 753d f7c9 213d 397a ddbc aa14 213d
000000d0: f24a 403a 0656 31bc 994a 4dbd 3de3 79bd
000000e0: e4b0 873d 4503 5b3d f01b ecbd aced 5dba
000000f0: d384 d3bd 9e0c 0e3e cc6e b039 ee01 b3bd
00000100: abdc 9dbd 1578 713d d9e7 7bbd 8efb fcbb
00000110: 4935 e33d 1197 4ebd 19e3 83bd da4a 2b3d
00000120: f2da 953b efee a4bd 0797 243d 2d18 adbd
00000130: 9ce7 98bd 9e73 d1bd e429 f5bc cc29 35bc
00000140: d28d 40bd 1172 7abd 546f 2dbd 5dc7 d83c
00000150: 14f9 d03b 8753 f3bd 04c6 ddbd 7e8e cf3d
00000160: 243f 903c 76ba 663d 22e9 713c 29fc e6bd
00000170: fbfc f7bd 9ef2 9e3d fa4a febc ca69 89bd
00000180: 3555 fcbd cef9 7f3d 57d2 6f3c 4c4c d2bd
00000190: 6ecc 713c 5377 97bd 4bdd c5bc ab92 9ebd
000001a0: e8cd 24bd 6afb 07bd ef4b e9bd 443f c0bd
000001b0: dde8 00be 924c d03d 10bf 89bd abeb b73d
000001c0: 4655 ce3d 1c5a 86bd 98de d83d e018 893b
000001d0: 23fd 11bc 6db5 903d 6a99 bd3d a47a e5bc
000001e0: 4ce6 063e ce0c 8cbd 2f1a ad3d 8bb0 a13d
000001f0: d32e db3d f596 a8bc 09e8 f83d 9f3d f43d
00000200: c69b b3bd 6dba ec3d 96c1 b0bd 6530 043e
00000210: adda bdbd b7d0 873c 54ed ddbd b5e0 443d
00000220: b5ee 8dbd 97aa 4cbd cf45 35bd 285c ddbd
00000230: 3628 b9bc f243 34bd cd3d bfbd ce24 45bd
00000240: c0ce 2ebd 92ee fd3d 8170 613d e55b 47bc
00000250: c725 b73b b5d0 303d ba57 cc3b 32a1 82bd
00000260: 3dad ccbd 2068 acbd 85f6 013d 6712 aabb
00000270: 405f a8bd 4a04 9a3d d805 9e3d 752d b33c
00000280: 5a50 c03d bfd1 a9bd 5aab adbd e2b8 363d
00000290: 1cad e13d 80c5 983c ea85 b5bd baf7 97bc
000002a0: 5024 c9bc 1286 9ebd 7146 2fbd 7690 18bd
000002b0: 1c30 823c 6909 cdbc 40c8 f93d cc01 acbd
000002c0: 9585 923c 78f9 cc3d 7c14 35bc 6c34 ebbd
000002d0: f166 b43b f518 583d 61c4 a7bd 01c5 883d
000002e0: e89c fa39 798d 9cbd 7ded dc3c ab3c 6cbd
000002f0: 021d 073e 6ad7 e4bd 4c1a b5bd b771 733b
00000300: 915d 913c a271 adbc 9732 19bd b872 8abd
00000310: d70e c33d 833e e23d 9c93 a8bd 36c4 a4bc
00000320: dfd1 ccbd fbdb e43d e33a 6dbd 1257 83bd
00000330: 3c62 71bd a122 1b3d 60e5 143d 6ce5 cbbd
00000340: d43c c9bc 78cf 873d 4f6f ae3c 214a e9bd
00000350: 1b7b 873d af41 e43d ba82 c83c 3b9f 003e
00000360: 2755 c73d f87d cdbd 9eb8 55bd d36f d23d
00000370: f872 2dbd 712b e73d 055c c0bd 0b1a c93d
00000380: 042b 113d 365f d8bd 0bbb 0cbe f332 e9bd
00000390: b3c3 e63d 6a58 0d3d 161c 0c3d 50ae 2abd
000003a0: b132 f2bd 0efc cc3d b8aa 89bd f9ec aabc
000003b0: 83a3 96bc 812a c93d 9387 403d 6368 25bc
000003c0: 53d1 053e e885 e03d 63ae 35bc 869f d63d
000003d0: 0052 6cbd ceb6 ebbd d331 dd3d a3c6 2c3b
000003e0: ebab 83bc 8e18 adbd 4b2d 23bd 91a9 7bbd
000003f0: a807 4c3b 78c7 d5bd 9e27 503d 977e d83c

encoder.rnn.weight_hh_l1 f4 [192, 64]
-0.13503005 -0.072431706 -0.02451696 -0.03299775 -0.106168635 -0.008001851 -0.09100848 -0.11012203
-0.10575497 -0.06574582 0.10225152 0.022448152 -0.07528055 0.12907903 -0.03628109 -0.058031328
0.108132064 -0.031008322 0.07117436 0.0119942 -0.021830425 0.10983467 -0.020342426 0.07042997
0.13208914 -0.119779736 -0.031806394 -0.10938134 0.024132257 -0.10748849 -0.01947315 -0.08960693
0.09726104 0.04352843 0.029872907 0.03993991 0.013518667 -0.11230501 -0.117210776 -0.06191459
0.06504994 -0.068242386 -0.05483728 0.08120091 -0.099777095 0.11079035 -0.10651324 -0.10367561
-0.04329075 -0.006092402 0.113293156 -0.043225575 0.06941146 0.06000424 -0.083215035 0.062674284
-0.11553938 -0.115519635 0.030699933 0.022286154 0.012208868 0.07165859 0.026682213 -0.053000085
0.12658869 -0.10098102 0.0010368618 0.12575075 0.03016163 0.011137268 -0.07266107 0.070958994
-0.022710048 -0.08011531 0.08312863 0.098881856 0.11332091 0.0265594 0.018999536 -0.0600723
0.08037002 -0.001484261 -0.055056404 0.032308597 0.116715886 -0.03412917 -0.0173392 0.013803982
-0.117086105 -0.08111636 0.03574612 -0.1229399 0.009845372 0.02617084 0.079315305 -0.050435256
-0.04696187 -0.011527245 -0.03768346 -0.021045424 -0.007217894 0.09526415 -0.09224336 0.0058717923
0.080448315 -0.01842262 -0.06978828 0.023894966 0.11120588 -0.10047871 0.06231169 -0.051759493
-0.0002191835 -0.12301769 -0.10668019 0.11168547 -0.031226525 -0.010632894 0.027755106 0.10795579
0.007894875 -0.09425052 0.08162156 -0.096303254 -0.076737955 0.009450031 -0.07981856 0.10914845
0.094288886 0.10447205 0.012216939 0.066103935 -0.074008465 -0.12573479 0.11288133 0.089787066
0.08208429 -0.005882888 0.02248781 0.098417394 -0.106851384 -0.05338532 0.049855843 0.10197683
-0.08043928 0.12804212 -0.06990246 0.06530244 -0.03798961 0.07429211 0.09349377 -0.08048047
-0.057936244 0.107662715 0.13159616 0.013924228 0.051408146 0.0068355547 0.026188623 0.062170774
-0.116170764 -0.0085687665 0.008505116 -0.090900846 0.053341877 -0.00884231 -0.08534635 0.043990966
0.032117512 -0.116652295 0.015733853 -0.028274007 0.11128999 -0.07064979 0.08431016 -0.03551152
0.11460974 -0.069608115 -0.11258154 -0.06667797 -0.1056807 0.020335274 -0.065802865 0.011467814
-0.026000662 -0.0708598 0.09805102 0.01467952 0.09240413 0.041297372 0.05833389 0.111259215
0.13320735 -0.043989968 0.0775158 -0.012712056 0.111150905 -0.06053584 -0.11785094 -0.022512581
0.0029718727 -0.083837256 -0.07481142 -0.04862116 -0.009694114 -0.12530152 0.03628728 -0.12297076
0.118942395 -0.03610143 -0.06824619 -0.062209766 0.105685905 -0.105103865 0.030385414 0.052060973
-0.056465544 -0.009571137 -0.04357697 -0.04583293 0.07852714 0.098914616 0.05394215 -0.070309445
0.05915449 0.07124773 -0.009158499 0.0019188386 0.11659749 -0.07568266 -0.081604004 0.11426837
0.009100426 -0.060535215 -0.08735091 -0.11658913 -0.12354945 -0.12347131 -0.06576606 0.04002744
-0.08892475 0.11590634 0.051212434 -0.036015894 0.14197543 0.050004832 0.07285325 -0.14301226
0.021109566 0.11724473 -0.068100214 0.07927555 -0.013319306 -0.07989197 -0.012311004 0.052196044
00000000: 5145 0abe 1357 94bd cbd7 c8bc a628 07bd
00000010: f16e d9bd 321a 03bc a762 babd a987 e1bd
00000020: 1096 d8bd bfa5 86bd 3f69 d13d 30e5 b73c
00000030: b02c 9abd 4b2d 043e 7b9b 14bd 42b2 6dbd
00000040: 5874 dd3d 2a05 febc ddc3 913d 5283 443c
00000050: b8d5 b2bc 00f1 e03d 29a5 a6bc 973d 903d
00000060: 6042 073e 144f f5bd 6c47 02bd 5303 e0bd
00000070: 03b1 c53c ed22 dcbd 2886 9fbc d783 b7bd
00000080: cc30 c73d de4a 323d 07b8 f43c 0898 233d
00000090: 667d 5d3c 2b00 e6bd 340c f0bd 279a 7dbd
000000a0: e738 853d aac2 8bbd 0e9d 60bd aa4c a63d
000000b0: ef57 ccbd 0de6 e23d 9d23 dabd e153 d4bd
000000c0: a451 31bd c6a2 c7bb 3e06 e83d 4d0d 31bd
000000d0: 9827 8e3d 02c7 753d a56c aabd 605b 803d
000000e0: e99f ecbd 8f95 ecbd 6d7e fb3c 7491 b63c
000000f0: b407 483c bdc1 923d a894 da3c 9e16 59bd
00000100: 77a0 013e 23cf cebd 4fe7 873a cec4 003e
00000110: 8615 f73c 1679 363c 54cf 94bd f352 913d
00000120: 6c0a babc 7f13 a4bd 583f aa3d 9282 ca3d
00000130: cb14 e83d 1993 d93c eaa4 9b3c 5f0e 76bd
00000140: 0999 a43d 898b c2ba d382 61bd 0556 043d
00000150: bd08 ef3d 07cb 0bbd f00a 8ebc 192a 623c
00000160: d7ca efbd 5620 a6bd 866a 123d eac7 fbbd
00000170: 7c4e 213c 3b64 d63c 1070 a23d 3395 4ebd
00000180: 175b 40bd c5dc 3cbc f959 1abd 7467 acbc
00000190: 1584 ecbb da19 c33d 16ea bcbd 2a68 c03b
000001a0: 16c2 a43d 09eb 96bc 28ed 8ebd 60bf c33c
000001b0: e9bf e33d c8c7 cdbd 8b3a 7f3d c301 54bd
000001c0: 9fd4 65b9 b3f0 fbbd 257b dabd 5abb e43d
000001d0: c5ce ffbc 9735 2ebc ad5e e33c ed17 dd3d
000001e0: 8159 013c 6b06 c1bd 3429 a73d a43a c5bd
000001f0: ca28 9dbd 4ed4 1a3c ea77 a3bd 3989 df3d
00000200: 881a c13d 71f5 d53d 8e29 483c 8061 873d
00000210: c091 97bd 9fc0 00be 542e e73d 48e2 b73d
00000220: cf1b a83d 3ec5 c0bb 5b38 b83c 0f8f c93d
00000230: e6d4 dabd 91aa 5abd a435 4c3d 3ad9 d03d
00000240: 59bd a4bd 791d 033e 0529 8fbd 49bd 853d
00000250: fe9a 1bbd 7626 983d a979 bf3d f2d2 a4bd
00000260: 8e4e 6dbd 457e dc3d 25c1 063e 7222 643c
00000270: 5991 523d cafc df3b 8689 d63c c8a6 7e3d
00000280: f0ea edbd 0364 0cbc 0b59 0b3c 392a babd
00000290: 037d 5a3d 56df 10bc 11ca aebd df2f 343d
000002a0: a78d 033d 66e7 eebd 48e4 803c e49e e7bc
000002b0: 02ec e33d d6b0 90bd ceaa ac3d 8774 11bd
000002c0: 83b8 ea3d b38e 8ebd 2791 e6bd 768e 88bd
000002d0: 1f6f d8bd 2996 a63c a7c3 86bd 80e3 3b3c
000002e0: 57ff d4bc f11e 91bd f9ce c83d 5f82 703c
000002f0: 603e bd3d 6f27 293d 84ef 6e3d dfdb e33d
00000300: 8267 083e d32e 34bd 9bc0 9e3d 3a46 50bc
00000310: 16a3 e33d 6ef4 77bd d55b f1bd 4e6c b8bc
00000320: c0c3 423b deb2 abbd bb36 99bd fb26 47bd
00000330: 10d4 1ebc 0b4f 00be f9a1 143d 18d8 fbbd
00000340: 1298 f33d 18df 13bd a9c4 8bbd abcf 7ebd
00000350: da71 d83d b240 d7bd d5ea f83c e33d 553d
00000360: 6a48 67bd 42d0 1cbc c47d 32bd 4fbb 3bbd
00000370: d6d2 a03d bf93 ca3d 72f2 5c3d 66fe 8fbd
00000380: fa4b 723d 54ea 913d 870d 16bc 8a81 fb3a
00000390: aaca ee3d 83ff 9abd 0020 a7bd 8905 ea3d
000003a0: f419 153c c6f3 77bd 09e5 b2bd 48c6 eebd
000003b0: 7e07 fdbd 87de fcbd 5bb0 86bd d0f3 233d
000003c0: 2e1e b6bd 4e60 ed3d 21c4 513d 6785 13bd
000003d0: 0262 113e ded1 4c3d 1634 953d ce71 12be
000003e0: f8ed ac3c 011e f03d 2078 8bbd 385b a23d
000003f0: 3839 5abc 679e a3bd 18b4 49bc 85cb 553d
