checkpoints/models/single_stock_daily/81to9/000001/model20.pth (torch, 292914 bytes, 16 tensors)

encoder.conv1.weight f4 [18, 6, 3]
000000 cf 13 0c be 4c 3d bc bd 5d f6 dd bd 35 97 59 bc
       -0.13679431 -0.09191379 -0.10838006 -0.0132806795
000010 ba 13 2b 3e 74 cb 56 3d 8b 02 60 be aa a9 5c 3e
       0.16706744 0.05244012 -0.2187597 0.21549097
000020 67 ee 46 3e e8 a4 8b 3d 52 61 e5 3d a8 16 bb 3d
       0.19426881 0.06818563 0.11200203 0.09135181
000030 56 58 3f 3e ed f2 6b be a7 85 13 be 9c 73 48 bd
       0.18686041 -0.23041888 -0.14406453 -0.04893838
000040 6f 02 7b bd a5 7c 24 be 36 26 67 be db 10 3b be
       -0.061281618 -0.16063173 -0.2257317 -0.18268149
000050 a0 24 0e bd 59 c6 51 3e dc f8 27 3e 52 b0 9d 3d
       -0.034702897 0.2048582 0.16403526 0.07699646
000060 40 f5 0c be fb 65 ab bd 85 07 13 3d fb 40 59 be
       -0.1376543 -0.083690606 0.035895843 -0.21216194
000070 c7 ac 57 ba 63 53 74 3d b4 40 60 3e d0 c2 56 bd
       -0.0008227345 0.059649836 0.21899682 -0.05243188
000080 ec 4d 78 3e 2e 07 12 3c 63 8d 29 be e6 96 69 3e
       0.24248475 0.008912845 -0.16557841 0.2281147
000090 68 c8 56 3e 73 1d 3e be dd fb 0c be 24 e0 c7 3d
       0.20974886 -0.18565921 -0.13767953 0.09759548
0000a0 ee 07 2b be 4a 42 14 3e 08 13 08 be 08 7d d2 bd
       -0.16702244 0.14478412 -0.1328851 -0.10277754
0000b0 91 8b b7 bd 85 46 53 3e 25 5c da bd 16 40 86 bd
       -0.08962167 0.2063237 -0.106621064 -0.06555192
0000c0 68 05 00 3e 91 68 3f be 48 7e a1 bc d9 80 47 be
       0.12502062 -0.18692233 -0.019713536 -0.19482745
0000d0 97 5c 81 be f2 d1 b8 bd 8b eb ec 3c 48 96 45 3e
       -0.25265953 -0.09024419 0.02892091 0.19295609
0000e0 ce 3c 68 be 74 4b 94 bd ac b8 5f 3d 00 4d b9 3d
       -0.22679445 -0.07240954 0.054619476 0.0904789
0000f0 6c 36 06 3e aa da 4c be e1 9e 67 bd 71 45 47 3d
       0.13106698 -0.20005289 -0.056548003 0.04865021
000100 4c 16 4b be be ba f5 3d f8 fa 6b be 19 88 0d 3e
       -0.19832724 0.11998509 -0.23044956 0.13821448
000110 72 b4 9f 3d d5 cb 91 bd 96 e6 6f 3d 97 42 49 3e
       0.07798089 -0.07118956 0.058569513 0.19654308
000120 5d c8 35 3e 26 67 11 3e 90 bd 06 be cf 0e a1 3d
       0.17752214 0.14199504 -0.1315825 0.07864153
000130 3e 97 45 3e 11 14 70 3d 85 29 2f 3e 0e 02 fe bd
       0.19295976 0.058612887 0.17105682 -0.12402736
000140 6c 17 42 3e c7 ba b7 3b 0f 40 44 be e1 f2 22 bd
       0.18954247 0.0056069824 -0.19165061 -0.03978241
000150 36 7f 62 3e 3b 84 81 bd 35 fa a6 bc 8e c9 c6 bd
       0.2211884 -0.06324049 -0.02038298 -0.09706412
000160 e3 18 ec bd 2d f0 90 3d c5 7b 14 3e 91 07 d3 3c
       -0.11528184 0.0707706 0.1450034 0.025760444
000170 7a b7 5d bc c5 ef 3b 3c 73 21 38 be 7b fe fd bd
       -0.013532514 0.01147074 -0.1798151 -0.12402054
000180 4c 51 13 3c e8 d5 44 be 6b ef ef 3d 98 85 08 3d
       0.008991551 -0.19222224 0.11715587 0.03333053
000190 02 71 92 ba 6b 88 73 bc 2d 58 49 3e f8 cd 58 3e
       -0.0011172595 -0.014864068 0.19662543 0.21172321
0001a0 ab 69 ec 3d 5f 74 e3 3d c4 03 fb bd c7 0f bf 3d
       0.11543592 0.111061804 -0.122565776 0.09329181
0001b0 3a fe 22 be 7c 30 cc 3d c7 fa 26 be a3 81 cd 3b
       -0.15917292 0.09970185 -0.16306601 0.0062715574
0001c0 60 dc 3b 3e b2 87 2e 3e d2 ef 60 3e 86 44 ca 3d
       0.18345785 0.17043951 0.21966484 0.09876351
0001d0 cd 14 e4 3d 02 d3 95 3d 93 ec 40 3e 2e dc 10 3e
       0.1113678 0.07315637 0.18840246 0.14146492
0001e0 45 45 a1 3d d6 06 89 bd ab 57 c7 bd e5 2a 8b bd
       0.0787454 -0.06690757 -0.09733518 -0.06795291
0001f0 43 62 f3 3d 1f 13 e0 bd 81 93 83 3d f2 87 55 3e
       0.11883976 -0.10941147 0.064246185 0.2085264
000200 21 ce 48 3e 95 eb 37 be d9 2c 6c 3d 24 2b 13 3e
       0.19609882 -0.17960961 0.057659958 0.14371926
000210 f2 11 64 be 1e 59 0c 3e 3e 09 26 be 54 7f 36 be
       -0.2227247 0.1370587 -0.16214463 -0.1782201
000220 b7 8c e5 bd ac 67 d1 bd 77 2e d6 bd 3a 55 67 3d
       -0.1120848 -0.10224852 -0.10458081 0.056477763
000230 f8 08 a1 3d b3 cc da 3d a6 83 2b 3e 1e 2f 20 be
       0.07863039 0.106835745 0.16749439 -0.15642974
000240 7b c1 62 be 64 21 41 be 93 da 04 be d4 bb e6 bd
       -0.2214412 -0.18860394 -0.12974004 -0.11266294
000250 c5 7c c0 3d 69 3c 37 be 70 db 38 be 96 92 e3 3d
       0.09398798 -0.17894138 -0.18052459 0.111119434
000260 ce 80 27 be 37 61 19 3d 6c 32 45 be 60 a8 a0 3d
       -0.16357729 0.037446227 -0.19257516 0.07844615
000270 7c 16 10 3e 2d c6 57 be c9 74 8d 3d 51 31 c4 bd
       0.14071077 -0.21071692 0.069070406 -0.09579719
000280 bf 59 24 3e 86 00 5e 3e e9 09 4f be 60 fe b5 3d
       0.1604986 0.21679887 -0.20218624 0.08886409
000290 c0 bd 1f 3e 29 cf 57 3e 6e 48 32 3e 85 65 1f 3d
       0.15599728 0.21075119 0.17410442 0.038915176
0002a0 45 6b 21 3c db 16 35 3d c7 7c 19 be e9 db 4c bd
       0.009852235 0.04421125 -0.14989005 -0.05001441
0002b0 b1 83 00 bc 95 9a 21 be fa 4a 68 bc de 4a 11 bd
       -0.007843898 -0.15781625 -0.014178032 -0.03547179
0002c0 59 42 ba bd cd 28 90 bd f3 e6 6c be 16 4b 61 3e
       -0.09094686 -0.07039032 -0.23134975 0.220013
0002d0 72 3e f2 3d 75 ab 35 3e af 59 46 be 23 00 65 be
       0.11828317 0.17741187 -0.19370149 -0.22363333
0002e0 6d b8 3e 3e 39 17 0e bd b6 2b 40 3d fe b5 08 3e
       0.1862504 -0.034690116 0.046916686 0.13350675
0002f0 12 08 c4 3c 9e fc c2 3a e9 ba 1d 3e 83 65 49 3e
       0.02392963 0.0014876311 0.15403332 0.1966763
000300 c1 07 6b bd 27 f4 40 be 8b 7f f9 bd 32 8a 4a 3e
       -0.05738044 -0.18843137 -0.1218253 0.1977928
000310 24 bd 82 3d 28 e5 74 3e bd a4 9a bd f6 a9 62 be
       0.06383732 0.23915541 -0.075509526 -0.22135147
000320 5d 34 9d 3d 55 ee d8 bd b8 2d 1a be 61 f8 10 3e
       0.07676003 -0.10592333 -0.15056503 0.14157249
000330 a8 71 03 3c 38 5b 0d bd 9d 65 62 3e fd cb 4a 3e
       0.008022703 -0.03451082 0.22109075 0.19804378
000340 dd 19 52 be cd 62 65 be 32 b6 fc bd c2 a2 47 be
       -0.20517679 -0.22400971 -0.123394385 -0.19495681
000350 a3 e7 05 be b4 a5 31 3e a3 87 20 be 16 a5 5e 3e
       -0.13076644 0.17348367 -0.15676741 0.21742663
000360 8c e7 8b 3d 14 b6 da 3b 67 f7 14 3d 47 b3 4a 3d
       0.068312734 0.0066745374 0.036368754 0.04948738
000370 88 c8 a1 3d bc 3c 41 be ee 5f c8 ba 46 63 27 3e
       0.078995764 -0.18870825 -0.0015287378 0.16346464
000380 10 a4 76 3e 08 b4 34 bc d5 b9 26 be 0c a0 e8 3d
       0.24086022 -0.011029251 -0.16281827 0.113586515
000390 cf 93 5b be 75 79 5c 3e ed 64 19 3e 9c e1 ce 3d
       -0.21443103 0.21530707 0.14979906 0.10101625
0003a0 33 3e 12 3d 33 8c 35 3e eb 46 c1 bd 16 75 46 be
       0.03570385 0.17729263 -0.09437355 -0.19380602
0003b0 21 ee 03 be 1b 6d 32 3e 5d 7e f4 bd 3e 39 43 be
       -0.12883808 0.17424433 -0.119381644 -0.19064805
0003c0 e3 53 4d 3d f7 ff 17 be 2e c1 61 bc 3b 73 1a be
       0.05012883 -0.14843737 -0.013778968 -0.1508302
0003d0 d2 02 45 3d bc e1 2a bd 6d 7d f2 3c 0a 0f db 3d
       0.048098393 -0.041719183 0.029600823 0.10696228
0003e0 e1 ef 1e be 8b cb 9b bd 40 87 1c be 12 95 49 3e
       -0.15521194 -0.07607182 -0.15285969 0.19685772
0003f0 67 31 ac bd 48 07 b1 3d fe 70 3a 3d fd 22 81 be
       -0.0840786 0.08643967 0.045517914 -0.25222006

encoder.conv1.bias f4 [18]
000000 bf 46 49 3e f9 00 59 3d 7e 62 2a be 06 74 2a 3e
       0.19655894 0.052979443 -0.16639134 0.16645822
000010 d7 b6 28 bd 64 d0 83 3c ee 8d b9 3c f5 6c a4 bc
       -0.041189995 0.01609058 0.022650685 -0.020071486
000020 71 06 6d 3e af 93 d0 3d 1c c1 4f 3d a8 75 9d bd
       0.23146988 0.101844184 0.050721273 -0.07688457
000030 30 bb 41 3d 4b 9e 2d be f3 dd 86 bd 81 11 e9 3d
       0.047297657 -0.16954915 -0.06585302 0.11380292
000040 9a 10 70 be 26 67 b2 bb
       -0.23443833 -0.005444425

encoder.conv2.weight f4 [54, 18, 3]
000000 b3 17 4e bd 6d 4f 8e 3d 95 7e ae bd ef 7c 46 3c
       -0.05031557 0.06948743 -0.08520237 0.012114747
000010 ee 0a 4e bd 94 bf d4 3d 7e 22 c3 bc 30 f0 d1 bd
       -0.050303392 0.10388103 -0.023820158 -0.1025089
000020 69 9a 35 bd 22 00 ca 3d 31 03 63 3d 00 4e 03 3d
       -0.04433671 0.098633066 0.055422965 0.03205681
000030 db e8 b3 3d 61 4e 61 3d 94 32 68 bc 82 6e 8e bd
       0.08784648 0.05500639 -0.014172215 -0.069546714
000040 e4 74 03 be 55 df 8a 3d cc 44 d6 3d 0f 04 5d bd
       -0.12837559 0.067808785 0.10462341 -0.05395895
000050 5f b0 82 bd bf 92 f4 3c c3 c2 a7 bb f0 67 e3 3d
       -0.06381296 0.02985513 -0.005119653 0.11103809
000060 86 2f 85 bb 6e 3b a0 bb 94 19 03 be 0e af 3a 3d
       -0.004064503 -0.004889897 -0.12802726 0.0455771
000070 b1 72 90 3b 77 cc 11 3d e7 cc b1 3d db 6e 78 3d
       0.0044082035 0.035595383 0.0868166 0.060652595
000080 9c 09 f2 3a f1 0f 51 bc 67 af 90 bd 63 c0 f8 3d
       0.0018465999 -0.012760148 -0.07064705 0.1214607
000090 c0 3a eb 3d ae d8 82 39 2d d2 0b 3e 8b 49 ef 3d
       0.11485815 0.0002495697 0.13654394 0.11683949
0000a0 b2 00 9b 3d c7 47 8a 3d 90 76 4d 3d 28 5d da bc
       0.07568492 0.06751972 0.050161898 -0.026655748
0000b0 c3 3a 2f 3c 0f f8 e9 3d 78 fc a2 bc 19 f4 37 3d
       0.010695162 0.114242665 -0.019895777 0.044910524
0000c0 fa cc 3e bd 5c 68 99 3c 95 1b 9a 3d 34 4c a7 3d
       -0.0465822 0.01872652 0.07524792 0.081688315
0000d0 4a f3 84 3d 15 6a 80 3d 54 dd 2d bd 9d 8e e8 3d
       0.06491716 0.062702335 -0.042447403 0.11355326
0000e0 62 c0 b7 3d 1d 59 eb 3d ff 82 ce bd f5 17 5c bd
       0.08972241 0.114916064 -0.10083579 -0.053733785
0000f0 bc 9a e8 bd c8 d6 9b 3c a2 ec d9 3d 9e 6d ba bd
       -0.11357638 0.019023314 0.10640837 -0.09102939
000100 0c 73 21 3d b8 35 d6 ba d1 63 14 be 3b 54 8c bc
       0.039416358 -0.0016342914 -0.14491202 -0.017130008
000110 e8 05 b6 bc 02 0a 9a bd 6f ae b1 bd 50 26 a3 3d
       -0.022219613 -0.0752144 -0.08675849 0.07966292
000120 66 80 e6 bc de f4 45 bd 42 d2 38 bd f0 56 20 bc
       -0.028137397 -0.048329227 -0.045122392 -0.0097863525
000130 1e ca 09 bd a9 ac a8 bd 91 c0 ad 3d bd ea 9f 3c
       -0.03364002 -0.08236057 0.08483995 0.019521112
000140 a7 91 e5 bd 09 84 89 bd ee 3a 20 bd 08 50 77 bd
       -0.112094216 -0.06714637 -0.0391187 -0.060379058
000150 78 95 04 3d 56 9d fd 3d e2 2a c6 bd 9a 57 ce 3b
       0.032369107 0.12383525 -0.09676148 0.006297064
000160 01 c0 07 3e 79 0c 94 bd 71 cd ee bd 84 59 fe 3c
       0.13256837 -0.072289415 -0.116602786 0.031048544
000170 76 04 32 bb 65 b4 97 3b d6 cd b9 3d a7 e5 e7 bd
       -0.0027163303 0.004629659 0.09072463 -0.113230996
000180 eb e8 98 bd cb 50 d5 3d 76 18 bb bd f5 a3 9d bc
       -0.074663006 0.10415801 -0.09135525 -0.01924322
000190 d8 eb 66 3d 71 57 9e bd 55 c9 d2 bd 3a 18 a7 bd
       0.056377262 -0.07731522 -0.10292307 -0.08158918
0001a0 99 97 c8 bd 65 e8 de bd db 83 b3 bc 70 9f 02 be
       -0.0979454 -0.108841695 -0.02191346 -0.12756133
0001b0 bc 64 a3 bd 14 7a 4f 3c 08 ee 03 3e 6c 0d 0d 3e
       -0.07978198 0.012663383 0.1288377 0.13774651
0001c0 59 36 e5 3d 77 40 53 3c 36 1d af 3d 96 d9 2b bd
       0.111920066 0.012893788 0.085504934 -0.041955553
0001d0 5d 8e b1 bd b2 b0 89 3d 34 af 55 3d 6b 76 3f 3d
       -0.08669732 0.06723155 0.05216904 0.04674379
0001e0 f3 48 87 3d 1d d0 ff bc 45 b2 d0 3d a6 24 98 3d
       0.06605711 -0.031227166 0.10190252 0.07428865
0001f0 14 22 72 bd 2d fe cb 3d 22 a3 57 3d c9 18 08 3c
       -0.05911453 0.099605896 0.05264581 0.0083066905
000200 1c 6d 84 3b e8 70 e9 3d 93 7a ef 3a 09 b6 3c 3d
       0.004041327 0.11398488 0.0018270783 0.04607204
000210 2e 80 c3 3d 39 58 47 3b e1 63 f7 3d 46 58 a2 bd
       0.09545933 0.0030417575 0.12079597 -0.07926993
000220 f5 37 44 bc 66 4f 4b 3c b2 b0 b0 3b 01 4f cd bd
       -0.011976232 0.012409067 0.0053921575 -0.100248344
000230 bb 32 03 3e 00 9b 9f bd ad 9c c4 3d a6 cb 64 bd
       0.12812321 -0.07793236 0.09600196 -0.055858277
000240 ac 5c 5e 3d f6 d3 99 bd ed 5d 75 bd 5c 27 10 3d
       0.054287598 -0.075111315 -0.059904028 0.035193786
000250 12 71 be 3d 9a 35 38 bc 77 1a 4d 3d c7 b3 9d bd
       0.0929891 -0.011243248 0.050074067 -0.077003054
000260 e7 b2 2b 3d f5 b0 80 bc 12 5d fe bc 27 7c 88 3d
       0.04191866 -0.01570938 -0.031050239 0.06664305
000270 a7 df 3c bd ca 6a aa bd 5f f1 1f bd 3b c5 8b 3d
       -0.04611173 -0.0832115 -0.03904855 0.06824728
000280 2c da 05 3e 03 58 fe 3d 7c af de 3d c3 47 8d bd
       0.13071507 0.12419131 0.10873315 -0.06898453
000290 60 16 06 3e 9e 20 b3 3d 46 9a e1 3c 49 19 93 bd
       0.13094473 0.087464556 0.027539384 -0.07182557
0002a0 e4 0d 8f bd 66 f1 e3 3c e7 e9 27 bc 33 45 3e bd
       -0.06985071 0.027825069 -0.010248638 -0.046452712
0002b0 3a 34 e6 bd 42 8b df 3d 85 db 7a 3d 7d e5 02 3d
       -0.1124043 0.10915233 0.061244506 0.03195714
0002c0 17 4e 99 3c d2 87 ad 3d 16 33 a3 bd 24 de c2 bb
       0.018713994 0.08473171 -0.07968728 -0.0059468914
0002d0 45 b4 0f 3e 20 b8 fb 3b 02 d5 d0 bd 58 9d d6 bd
       0.14033611 0.0076818615 -0.10196878 -0.1047923
0002e0 ea 19 87 3d 17 59 6f 3d fb 6a 7c 3d f8 aa 9b bd
       0.065967396 0.058434572 0.061625462 -0.07600969
0002f0 de 82 9d bd b0 5d 01 be e1 a3 b6 3c 56 98 cd bc
       -0.076909766 -0.12633395 0.02229494 -0.025097053
000300 cb 20 01 3e ff 3d 6d bd 52 1e bb bd fa a3 3b 3d
       0.12610166 -0.057920452 -0.091366425 0.045810677
000310 8d e2 8b bd 78 9d a8 bc 53 19 19 3e e9 31 bb 3d
       -0.068303205 -0.0205829 0.14951067 0.09140379
000320 95 03 0a be c1 ac 81 37 5f 82 3d ba 84 86 07 3e
       -0.13477929 1.5458443e-05 -0.00072292046 0.13234907
000330 35 4c 01 be 5a 17 92 3d 90 56 0c be df d1 09 be
       -0.12626727 0.0713336 -0.13704896 -0.13458966
000340 4e e8 7e bd bf b2 05 be 56 54 d2 bb 15 7b ed 3d
       -0.06223326 -0.13056467 -0.006418745 0.11595742
000350 1a ea 0f bd 4b 0a ec bd 26 8c 59 bc 32 d4 de bd
       -0.035135366 -0.11525401 -0.013278043 -0.10880317
000360 07 07 b6 3d 4b 80 84 3c 88 ee f3 3d ce 49 8d 3c
       0.08888059 0.016174456 0.119107306 0.017247107
000370 1f 56 11 3d c3 58 0e 3d 17 2a fd 3d 52 5b ab bd
       0.035482522 0.03475262 0.123615436 -0.08367027
000380 1d 4e ac bd c6 3e e1 3d 58 ca 64 3d d1 09 05 3e
       -0.084133364 0.10998301 0.055857033 0.12992026
000390 a5 5c dd 3c b2 80 3f 3d 18 37 ad 3d 76 fb b1 3d
       0.027021715 0.046753593 0.08457774 0.086905405
0003a0 80 9e 9b 3d 27 a8 d5 bd 98 71 01 3d de c8 d5 bd
       0.07598591 -0.10432463 0.031602472 -0.10438703
0003b0 c2 8f 43 3c 7f 76 c5 3d 78 9f e4 bc 51 16 06 3e
       0.01193613 0.09641742 -0.027908072 0.1309445
0003c0 0d 68 06 3e 93 a5 47 3d a9 75 c2 bd f7 c5 12 3c
       0.1312563 0.04874189 -0.09495098 0.008958331
0003d0 1c a0 d7 3d e3 2c d0 3c 94 26 f7 3d 3b a3 13 3c
       0.10528585 0.025412029 0.12067905 0.009011085
0003e0 08 73 7c bd f8 3c b7 3d b9 3b 4b 3d 44 66 9c 3d
       -0.06163314 0.08947176 0.049617503 0.07636693
0003f0 63 f1 ae bd 1c 43 d7 bd ed 40 bb 3d 80 8a 42 3d
       -0.085421346 -0.10510847 0.09143243 0.047495365

encoder.conv2.bias f4 [54]
000000 2a 3a f4 3d f9 0c b7 bc 14 74 05 be 64 23 72 bd
       0.119251564 -0.022345053 -0.13032562 -0.059115782
000010 bc b7 95 bd 94 27 d2 3d 1f 3d c4 bd 23 a1 e0 3d
       -0.07310435 0.10261455 -0.095819704 0.109682344
000020 0a 08 5d 3d 09 6d 60 bc 39 56 f5 bc 68 a0 9b 3d
       0.053962745 -0.013697871 -0.02994834 0.075989544
000030 00 4c a1 bd 25 86 57 bd 0b 31 01 3e 8e ff 1c bd
       -0.07875824 -0.052618165 0.12616365 -0.038329653
000040 be 44 32 3c 73 6d e3 3d e6 32 f0 bd 27 80 b2 3c
       0.010880647 0.1110486 -0.11728458 0.021789623
000050 17 61 ad 3a 97 61 a6 bd 33 59 de 3d ee 48 cb 3d
       0.0013227788 -0.081240825 0.10856857 0.099260196
000060 9a 6d 3d bc 1b ae 59 bc ed 92 be 3d 2d 36 2e bd
       -0.011561776 -0.013286139 0.093053676 -0.042532135
000070 0a 53 98 3d 76 7a bd bd 7a e5 ea bd e3 af bd 3d
       0.074377134 -0.09251873 -0.114695504 0.09262063
000080 23 86 be 3d a5 a1 e9 bd 92 0a 10 bd 5e ae 7e 3d
       0.09302928 -0.114077844 -0.03516633 0.06217801
000090 1f b1 92 3d 66 b9 b4 3d dc 3a cc 3d 9d a1 73 bd
       0.071626894 0.088244244 0.09972164 -0.0594803
0000a0 69 72 d2 3c 91 4b f6 3d 4d 33 e2 bd 05 0a b5 3d
       0.02568932 0.12026132 -0.11044941 0.08839802
0000b0 de 98 16 3d 48 53 c9 3b 3a 49 08 3e cb 74 67 bd
       0.03676688 0.006143961 0.13309184 -0.056507867
0000c0 4b 3d 24 bd 81 bf cc bd 9e 8e f0 3d 01 99 c8 bd
       -0.040097516 -0.09997464 0.11745952 -0.09794808
0000d0 9b 80 00 3e 92 4d c7 bd
       0.12549059 -0.09731592

encoder.rnn.weight_ih_l0 f4 [192, 54]
000000 4d 76 9c 3d 26 90 7b bd 6e 03 db 3d 1a 00 b2 bd
       0.076397516 -0.061416768 0.106940135 -0.086914256
000010 d1 9f a0 bd 63 9a 00 bd 56 a6 ce bd d4 f7 f7 3d
       -0.078429826 -0.031397235 -0.1009032 0.12107816
000020 a9 3d 36 3d 6c b3 9a bd 45 e2 c7 bd d5 23 02 bd
       0.044492397 -0.07553753 -0.09759954 -0.031772453
000030 e2 a4 38 3c 04 21 99 bd da 6c b1 3d 43 bd 82 bd
       0.01126978 -0.07477 0.0866334 -0.06383755
000040 ef d5 ef 3c d5 3b c0 3d 68 b3 c1 bd a6 bd cb bd
       0.029276816 0.09386412 -0.09458047 -0.09948282
000050 ce 68 f7 bd f0 58 93 3c d1 22 d5 3d f1 80 97 bd
       -0.12080537 0.017986745 0.10407031 -0.073976405
000060 89 2b 8d bc af 77 95 3d df d5 e7 3d 90 81 96 3d
       -0.017232673 0.072982185 0.113200895 0.07348931
000070 9b 16 42 3d 2b 97 a0 3c e8 1d 70 bb 88 28 e1 3d
       0.04738484 0.019603333 -0.003663892 0.10994059
000080 5b 6e a0 b8 56 75 34 3d 28 83 08 bc bb de 00 3e
       -7.64995e-05 0.044057213 -0.008332051 0.12584965
000090 1c 43 06 be d5 04 25 bd 0f 9a e7 bd 4d 8c e5 3c
       -0.13111538 -0.04028781 -0.11308681 0.028021002
0000a0 77 fe dc bc 8c 7a b2 bd 87 bf c8 bd 69 30 1e 3d
       -0.026976807 -0.0871478 -0.09802156 0.038620386
0000b0 4c 93 cb 3d fd d6 e1 3d 47 8c b6 3d 8e 5f d4 bd
       0.09940204 0.11027334 0.089134745 -0.10369788
0000c0 36 ef d1 3d 2d 46 f0 3d af 60 17 3c 56 52 fb bd
       0.10250704 0.11732135 0.00923936 -0.12271564
0000d0 b5 7e c6 bd c7 76 d6 bd 56 19 d8 3b a2 ec d1 3d
       -0.09692136 -0.10471874 0.006594817 0.10250212
0000e0 3b 76 b7 3d 47 db 5e bd d0 77 7b bd 22 be c9 3c
       0.089580975 -0.054408338 -0.06139356 0.024626795
0000f0 4f 75 14 bd 6b 36 9f bc 3c 2c ff 3c 84 6d 29 bd
       -0.036244687 -0.019435128 0.031149022 -0.041364208
000100 73 7c 4e 3d 88 b6 64 bc 09 5e ee 3d f5 a5 d9 bd
       0.050411653 -0.0139595345 0.116390295 -0.10627357
000110 dc 9f d6 3d f6 53 b2 3d 85 1a dc bd cb 9f ad 3c
       0.104797095 0.087074205 -0.10747246 0.02119436
000120 95 78 c6 bc 1f 04 68 3d e2 ba e6 3d 45 fc 8f bd
       -0.02422742 0.056644555 0.11266114 -0.070305385
000130 4b 42 9f bd 94 7b a9 bd e1 df ab 3d e0 5a cb bd
       -0.07776316 -0.08275524 0.08392311 -0.099294424
000140 46 7a 30 bd 1b fb df 3d 07 ef 76 3d b6 59 b9 3d
       -0.04308536 0.109365664 0.060286548 0.09050314
000150 38 33 db 3d df 6d ea bd 70 ce 40 bd 12 08 05 ba
       0.107031286 -0.114467375 -0.047071874 -0.000507475
000160 db 82 ae 3d 5a 09 c4 bc a6 13 9d 3c f4 d7 a5 3d
       0.085210524 -0.02393024 0.019174408 0.080978304
000170 30 6b 6d 3d 96 4d 98 bd 05 c1 ed bd 4b f1 45 bd
       0.05796355 -0.07436673 -0.11609081 -0.048325818
000180 56 a7 47 3d 5c 93 e6 3d 4c 2e 59 3d d7 17 8c 3d
       0.04874357 0.11258575 0.053022668 0.068404846
000190 d6 b0 f5 3c 0d 42 cc bc ed b5 79 bc 2d 24 e5 3d
       0.029991549 -0.02493384 -0.015241128 0.111885406
0001a0 ef b3 90 3c 0c c3 03 3d ca 5b a4 3d cc cd b1 3d
       0.017663924 0.032168433 0.0802532 0.08681831
0001b0 6a 5c f3 3c eb 16 a2 bc 41 83 4e bd a8 55 87 bd
       0.029707152 -0.019786319 -0.050418142 -0.066081345
0001c0 14 60 8a bd 46 a4 c7 3d 28 9e a9 3d bf 6f 95 bd
       -0.06756607 0.097481295 0.08282119 -0.072967045
0001d0 5d 39 dd 3d fe a1 95 bc df d2 c4 bc fe 42 df 3c
       0.10801957 -0.01826572 -0.024026332 0.027253624
0001e0 f6 1c b5 bd 24 92 79 bd 78 31 1b bd 62 e8 25 bd
       -0.088434145 -0.060930386 -0.037888974 -0.04050482
0001f0 a8 9d a0 3d f7 38 1a bd 93 ed b1 bd 92 cf c0 bd
       0.078425705 -0.037651982 -0.08687892 -0.09414591
000200 56 64 f8 3d 11 77 98 3d ff e1 08 be 9e 16 f1 bd
       0.121285126 0.07444585 -0.1336746 -0.11771892
000210 a4 83 a3 bd a1 fb f9 3d 6c 8d 20 3d d6 78 20 3d
       -0.07984093 0.122061975 0.03919737 0.039177738
000220 8e c3 78 3d a7 1a c0 3c cb 11 e3 3d 6c e8 d8 bd
       0.06073337 0.023450209 0.11087378 -0.10591206
000230 a4 32 04 3e c7 05 82 3d 3b 70 27 3d 81 19 4b 3d
       0.12909943 0.06348758 0.040878516 0.04958487
000240 51 2c c0 bc 2d d6 7e bd f1 96 61 bd 3a f5 bd bd
       -0.023458632 -0.062215973 -0.05507559 -0.09275289
000250 dc 2c 1e 3b f8 0e 33 3d 21 94 cd 3c 85 46 21 bc
       0.0024135625 0.043715447 0.025095047 -0.009843473
000260 a7 0b 0e 3d 5c 04 f1 bd 4c 64 ae bd 73 a6 fa bd
       0.03467908 -0.117684096 -0.08515224 -0.12238779
000270 e0 e2 00 3e 78 99 e5 bd 1b 13 61 3d 66 9f bd 3d
       0.12586546 -0.112109125 0.05494986 0.092589185
000280 4e 89 08 bd 4d 15 b8 bc 9f ca d7 3d 6d f7 ce bd
       -0.03333407 -0.022471095 0.10536694 -0.101057865
000290 9f 90 00 be 70 46 b8 bc 04 32 5b bc 5a cf 4d bd
       -0.12555169 -0.022494525 -0.013378624 -0.050246574
0002a0 71 a0 18 3c 9b ac 8c 3d ad df 89 3d 5e dc 06 3d
       0.009315596 0.068688594 0.06732116 0.032925002
0002b0 9e ec ac 3d 4b 00 64 bd f8 f2 b2 3b d6 d9 70 3d
       0.08443569 -0.055664342 0.005461093 0.058801495
0002c0 bb de 2f 3d 41 b0 38 bd c2 b3 c8 3d f8 c0 bf bd
       0.04293702 -0.045089964 0.09799911 -0.09362978
0002d0 73 69 7d bd 9d 97 fb bd 9c 15 45 3c 13 91 ca bd
       -0.061868142 -0.12284777 0.012029078 -0.09890952
0002e0 21 0b b9 3d cb 5f a6 bd d3 af 09 3d ff 90 dc 3d
       0.09035326 -0.0812374 0.033614945 0.10769843
0002f0 ac 3a ef 3d bc b4 42 3d 48 23 42 3d 4e 35 ac 3c
       0.11681113 0.047535643 0.047396928 0.021021511
000300 c7 61 86 3d 60 3e f7 bb 26 d2 b5 bd b5 e7 d7 3d
       0.06561618 -0.0075452775 -0.08877973 0.105422415
000310 cb 3c bf bd 8a c2 f3 3d 17 30 5b 3b ec 0f 69 3d
       -0.09337767 0.1190234 0.0033445412 0.05689995
000320 e0 1c 10 3c 17 01 5a 3d 6a a6 ad 3d 27 16 e7 bd
       0.008795947 0.053223696 0.084790066 -0.11283522
000330 d8 11 90 3d 91 5b 25 bd 78 7d dd bd 7a be c8 bd
       0.070346534 -0.040370528 -0.10814947 -0.098019555
000340 83 23 37 3c 94 35 c0 3d 99 9f f5 bd 3e 0f 11 3d
       0.0111779 0.09385219 -0.119933315 0.035414927
000350 7a c2 54 3d 84 43 ef bd 47 ad f8 3c 09 a4 6b bd
       0.05194328 -0.116827995 0.030356063 -0.057529483
000360 93 09 bc 3c 7d 37 3b bd e5 10 cd 3d 8d 0c f0 bd
       0.022953784 -0.045707215 0.10012988 -0.11721144
000370 7b ce 8a 3d 47 d9 37 bd 4c e1 fe 3c 35 72 4c 3c
       0.06777664 -0.044884946 0.03111329 0.012478401
000380 1a 05 ed bd 16 fd 81 bd 3c 8f fd 3a 38 a6 b1 3b
       -0.11573239 -0.063471004 0.0019345055 0.005421426
000390 25 ab 87 bd 1a 11 9c 3d e4 aa 65 bd 2f 81 8b bd
       -0.0662444 0.07620449 -0.056071177 -0.06811749
0003a0 ea 9f 4b 3d 28 36 30 bc a5 2c 1d 3d 36 44 9e 3d
       0.049713053 -0.010755099 0.038372654 0.07727854
0003b0 c4 4e 57 bd b7 25 14 3d bd a3 d4 3d fd 0a ab 3c
       -0.05256535 0.03616878 0.10382793 0.020879263
0003c0 66 87 dd 3d b4 8e 53 3d b3 45 be 3d 8e 41 d8 3d
       0.10816841 0.051649764 0.09290638 0.105593786
0003d0 51 d7 9e 3d b9 eb 07 3d 3b dd 6c 3d 0f ee 9b 3d
       0.07755912 0.033183787 0.05782817 0.076137654
0003e0 fc ef 62 3c 74 d5 8a 3c 01 e0 3c bd 58 c0 bb bb
       0.013851162 0.016947486 -0.046112064 -0.0057297163
0003f0 8a b8 6e 3d d7 9e 34 bc 81 f3 11 bd 20 72 f7 3c
       0.05828146 -0.0110241985 -0.035632614 0.030205786

encoder.rnn.weight_hh_l0 f4 [192, 64]
000000 c8 46 44 bc 18 b6 74 3d 08 03 69 bd cf 31 45 3b
       -0.011979766 0.05974397 -0.056887656 0.0030089503
000010 8e 59 31 bd bb 80 a4 bd dd d2 95 3d 30 c2 c7 3d
       -0.043298297 -0.08032366 0.073156096 0.09753835
000020 a9 0c 56 3d 0d ee 03 3e db 72 43 3d 00 ca da 3d
       0.052258167 0.12883778 0.047716957 0.1068306
000030 1f 7b e2 bc ff bf a9 3d 9a eb eb 3c 10 ba 0c bb
       -0.0276466 0.082885735 0.028798867 -0.0021473207
000040 bf 00 e5 3d 6d 17 c3 bd 6b e1 92 ba e8 fd 5c bd
       0.11181783 -0.095259525 -0.0011206096 -0.05395308
000050 5e 37 e3 3d ff 42 8a 39 44 d6 35 3d 2c b1 b3 3d
       0.11094545 0.00026371327 0.044393793 0.08774027
000060 9d 29 7e 3d f1 52 57 bd d6 d3 22 3a 01 78 ac 3d
       0.062051404 -0.052569333 0.00062113756 0.084213264
000070 db 5f 78 bd 8a a6 51 3c c1 97 b6 bd ec 8c 25 3d
       -0.06063829 0.012796054 -0.089156635 0.040417597
000080 c2 42 b9 3d 78 fb cf 3c c8 b1 71 3c 6b 57 ca 3d
       0.09045936 0.025388464 0.014751859 0.09879955
000090 3d 69 dd 3b bf 4c 60 bd 52 53 bd 3d 5b 6f c2 bd
       0.00675693 -0.05476069 0.09244408 -0.094938956
0000a0 95 75 80 3d fd 00 ae 3d 16 7a 5d bb 13 73 fc bd
       0.06272427 0.08496282 -0.0033794693 -0.12326636
0000b0 a1 b8 77 3d 3b 6c aa 3d a5 9d a4 3b cb b5 ae 3d
       0.06047881 0.083214246 0.0050236755 0.08530768
0000c0 fd 8f 56 3d 7e 67 ee 3c 01 ed e2 3d b4 90 69 bd
       0.05238341 0.029102083 0.11080361 -0.057022765
0000d0 5d 7b d2 3c 3f 28 c9 bd fc d4 e4 3d af 9d 28 3d
       0.02569359 -0.098221295 0.11173436 0.041166004
0000e0 48 85 f2 3d 0e 85 d3 bd 7c 9c e1 3d 3d 2c ce 3d
       0.11841828 -0.103281125 0.11016175 0.100670315
0000f0 61 8d db 3d ee 4f 60 bd 2b f0 bf bd d1 11 94 bc
       0.10720325 -0.054763727 -0.0937198 -0.018074902
000100 ab 6b d9 3d 2d ec 00 3e 77 6f cb bb f9 41 ad 3b
       0.10616239 0.12590094 -0.006208356 0.0052874056
000110 b2 a0 9f bc a9 78 92 bc b4 69 cd 3c 29 a6 53 3d
       -0.019485805 -0.0178798 0.025074817 0.051672135
000120 b0 dd ae bc 05 e4 c9 bd c7 1a f5 bb af ca 7b 3d
       -0.021345943 -0.098579444 -0.0074799987 0.06147259
000130 a8 85 cd bd 4e 2e db 3d 15 83 5a 3d 1c 48 87 3d
       -0.100352585 0.10702191 0.053347666 0.06605551
000140 b9 d1 67 3d 4b c3 aa 3d 55 ab d2 3d 1c 09 7f bd
       0.05659649 0.083380304 0.10286585 -0.062264547
000150 df 0d d1 3c d5 e5 99 3d 40 6c ef bd e2 e4 a0 3d
       0.02551931 0.0751454 -0.11690569 0.07856156
000160 9d b2 f3 bd 99 6c 97 bd 64 6e 87 bd e5 fb c0 bd
       -0.11899302 -0.0739376 -0.06612852 -0.09423045
000170 88 56 aa bd 77 e3 8c 3d 5b b3 eb bd 9d 9f 88 bd
       -0.08317286 0.06879323 -0.11508819 -0.06671069
000180 a4 b7 ff bd 9f 27 74 bd 44 5f 1a 3c e6 ca 4f 3d
       -0.124861985 -0.059608098 0.009422127 0.05073061
000190 d4 66 92 bd 7f af d4 3c d4 a6 90 3d a1 ea e1 3d
       -0.07148519 0.02596259 0.0706307 0.1103108
0001a0 f9 63 04 bd 3d 2a be bd ce c8 b0 3d f0 0a 12 bd
       -0.032321904 -0.092854 0.086320505 -0.035654962
0001b0 4f a7 fd bd f4 d1 46 bd 9f f6 f7 bc 32 a5 bd 3c
       -0.12385427 -0.04854007 -0.030268965 0.02315006
0001c0 43 f3 af 3d 67 cf 90 3d 34 47 3c bd 45 4d be 3d
       0.0859132 0.07070809 -0.045966342 0.09292082
0001d0 c0 c1 13 3d e6 2b 28 3d f5 2d cc bd 95 47 e3 bc
       0.036073446 0.04105749 -0.09969703 -0.027744094
0001e0 5e 85 01 3d ac bf 37 bd 74 ce 6b 3d e8 9b 60 3d
       0.03162133 -0.044860527 0.057569936 0.054836184
0001f0 89 05 b2 bd e1 07 e7 3d 47 2e d7 3b 3f 7c 98 bc
       -0.08692462 0.112808 0.006566796 -0.018613933
000200 7e 38 08 bb 80 67 8a ba 91 de 50 bc 34 b7 30 bd
       -0.0020785625 -0.001055941 -0.0127483765 -0.043143466
000210 8f 43 7b 3c 36 b8 20 bd 29 df d6 3d 2b 62 36 bd
       0.015335931 -0.039238177 0.10491783 -0.044527214
000220 ce 82 e0 bd 99 0d f0 3d 79 e2 b4 3d b5 f2 b5 bd
       -0.10962449 0.117213435 0.08832259 -0.08884183
000230 02 c7 e4 3d bb 38 b7 bd 16 30 72 bd f9 9f 7f bd
       0.1117077 -0.08946367 -0.05912789 -0.06240842
000240 bc 15 a9 3b c6 45 0b 3d 13 ff 63 bd 05 28 37 bd
       0.0051600616 0.034002088 -0.05566318 -0.0447159
000250 9c dd 80 bd 64 f2 be 3d bc 35 80 3d 06 8c 45 3c
       -0.06292269 0.09323576 0.06260249 0.01205731
000260 1c 5b bf 3a 0d c1 53 3c 91 8f d3 bc 07 59 84 bd
       0.0014599296 0.012924445 -0.025825294 -0.06462293
000270 31 0c 01 3e da 13 57 bd b5 bf af bd 7c 15 b6 bc
       0.12602307 -0.052509166 -0.08581487 -0.022227041
000280 ea d1 02 3d 27 45 0a be a5 7a 21 3d cd cf 92 39
       0.03193847 -0.13502942 0.039423604 0.00028002114
000290 30 ea 80 bd 43 a6 97 3c bc 40 7f 3c 4d 37 fd bd
       -0.06294668 0.018511897 0.015579399 -0.123640634
0002a0 ac 24 4e 3d 46 3d 2d 3d 8f f8 90 bd 76 58 ec 3c
       0.05032794 0.042294763 -0.07078659 0.028850775
0002b0 13 fa 92 bd 03 3a b2 3d ab 2f 7c bd ee 9a 09 3d
       -0.07176604 0.08702471 -0.061568897 0.033595018
0002c0 28 30 1a 3d 22 3c 2e bc 3b 3e 81 bd cd 76 5f 3d
       0.03764358 -0.010634454 -0.06310698 0.054556657
0002d0 87 27 c5 3c 08 6d 58 bd cd d3 b4 bc b0 9d 57 3d
       0.0240667 -0.052838355 -0.02207365 0.052640617
0002e0 19 d6 ed bd 89 50 67 3c 65 86 d7 3c 0a 8e 08 be
       -0.116131015 0.014118322 0.026309201 -0.13335434
0002f0 b5 da b0 3c 32 cb ab bd 7c fd fb bd c1 a6 df 3d
       0.021588663 -0.08388366 -0.12304208 0.10920478
000300 b0 b5 7c 3d 5b 27 b2 3d 7a 23 e6 3d 84 32 8b bd
       0.06169671 0.08698913 0.11237235 -0.067967445
000310 a9 9d 59 bd 84 50 a1 3a 32 2e 50 3d 24 ce 08 3c
       -0.053128872 0.0012307321 0.050825305 0.008349929
000320 c2 48 4f bc f1 23 02 3e 8d 18 7e bd 0e 10 6c 3d
       -0.012651624 0.12709023 -0.062035132 0.0576325
000330 44 ab 0c 3d 1a 6f 80 bd 77 68 94 3d e7 15 af 3d
       0.03434302 -0.06271191 0.072464876 0.085490994
000340 2e b2 91 bc 68 66 b0 bd 2c 50 9f 3d ad 99 c0 3d
       -0.017785158 -0.086132824 0.077789634 0.09404311
000350 e6 b9 6e 3d 76 cf 06 3c 17 44 84 3d 4d 0c 1c 3d
       0.058282755 0.0082281735 0.064582996 0.03809767
000360 40 7a 0f bd 31 f0 bf bd 16 6d 5f bd 2b 10 41 3d
       -0.035028696 -0.09371985 -0.05454739 0.04713456
000370 9b bc 71 bd b7 ef 43 3d 0d 79 75 bd 48 df c1 bd
       -0.05901776 0.04783603 -0.059929896 -0.09466416
000380 a7 94 b9 3d 61 14 56 bd e2 97 12 3d 6d 2f d3 3d
       0.09061556 -0.05226553 0.035789378 0.1031178
000390 a4 ea 14 3c 8a 76 a5 3d d5 ca 05 bd 46 1c d6 bd
       0.009089146 0.0807925 -0.03266414 -0.104546115
0003a0 25 61 65 bd 74 fe 14 bd 15 5c 90 bd 2c 8d 98 bd
       -0.056000847 -0.036375478 -0.07048813 -0.074488014
0003b0 5b a1 5e 3d 9f 5b e8 3d 64 61 a8 3d f8 ac 53 3d
       0.0543531 0.113456 0.08221701 0.051678628
0003c0 92 f0 cb bd 4e 6d a3 bc d8 bc 38 3d 88 62 e5 3d
       -0.099579945 -0.019949581 0.04510197 0.11200434
0003d0 47 c7 73 bd 92 30 94 3d 85 9d 97 3d d1 db 04 bd
       -0.059516218 0.072358266 0.07403091 -0.032436196
0003e0 21 1c e4 bd 63 4e 78 3d 3c 64 65 3d 55 39 d1 bd
       -0.11138178 0.06062163 0.056003794 -0.10216013
0003f0 83 96 ba 3d e9 34 97 bc e3 9f b8 bd 0d 7c 35 3c
       0.09110739 -0.018457847 -0.09014871 0.011076939

encoder.rnn.bias_ih_l0 f4 [192]
000000 bb 2a 5f bc 9e b0 70 bd e0 0d cc 3b 05 88 2a bc
       -0.013621028 -0.058762185 0.00622724 -0.010408406
000010 c8 de 21 bd 13 4b 7a 3d de bd 77 bd 6a f7 e9 bd
       -0.0395191 0.061106753 -0.060483806 -0.114241436
000020 d6 c1 dc bd 86 f0 31 3d ce 56 c0 bd e0 ba d0 bd
       -0.10779159 0.04344227 -0.09391557 -0.101918936
000030 6e 82 ca bc b3 d7 aa 3d f5 58 9a 3d 46 d4 d3 3d
       -0.024720397 0.083419226 0.075364985 0.10343222
000040 3f 78 a7 bd 2f 06 b7 bd 7c a7 70 3d c5 71 bc 3d
       -0.08177232 -0.08936726 0.058753476 0.09201387
000050 aa 42 51 bb 81 2e ea bd b3 6c fe 3d 2d 1b bb 3d
       -0.0031930604 -0.11434651 0.124230765 0.09136043
000060 db 59 c7 3d 1d 61 3a 3d a7 3b 49 3d 16 e3 2b bb
       0.097339354 0.04550277 0.049129155 -0.0026227883
000070 35 e9 91 3d 48 c6 b7 3c db f2 a1 bd 6f d7 34 bd
       0.07124559 0.022433415 -0.07907649 -0.044150766
000080 83 3a cf bc fe ed e3 bb 76 4d ad 3d 23 16 bd 3d
       -0.025296455 -0.006955861 0.0846204 0.09232738
000090 dc 90 ff bc f2 0e 53 bd 41 63 50 bc e3 f4 00 3e
       -0.031197004 -0.051527925 -0.0127189765 0.12593417
0000a0 84 63 f3 3d 61 a0 41 3c 84 92 5f bb 42 a2 97 3d
       0.118842155 0.0118180225 -0.003411443 0.07403995
0000b0 ea 6a c2 bd 39 95 52 bd e4 bf e0 3d ac c6 f4 3d
       -0.094930485 -0.05141184 0.109741 0.11951956
0000c0 22 77 eb 3b 57 19 e8 bd 65 b8 b7 3d 6a 78 31 3d
       0.0071858326 -0.11332958 0.08970717 0.043327726
0000d0 4e 43 b0 3b e1 e5 f8 3d ae 5e c4 bd 00 5c 1b bb
       0.005379117 0.12153221 -0.09588371 -0.002370596
0000e0 97 be 96 3d d9 72 39 bd f8 e4 9b bd f1 f8 10 3a
       0.07360571 -0.045275543 -0.07612032 0.0005530259
0000f0 6a 86 b4 3d 8d a1 c3 3c 49 6c e7 3c 71 8b 96 bd
       0.088147 0.023880744 0.028249877 -0.07350815
000100 26 85 85 bd f4 3e 44 3b d6 37 be 3d 68 b0 03 3d
       -0.06519537 0.002994475 0.092879936 0.032150656
000110 a6 f7 6c 3d c0 e8 f2 bc 61 c4 bb 3d 13 a2 44 3d
       0.057853363 -0.029652 0.09168316 0.04800613
000120 da 0d e4 3d 42 05 19 bd 62 22 9a bc 5b 8f 69 bd
       0.111354545 -0.03735853 -0.018815223 -0.05702148
000130 22 6f f2 bd b8 b7 85 bd bb 11 e7 3c be 9c 12 3b
       -0.11837603 -0.06529182 0.028206697 0.0022371258
000140 34 3b 0a bd db af da 3d 4f f4 e8 3d ba 67 b1 bd
       -0.033747867 0.10678073 0.11374723 -0.086623624
000150 19 01 47 bd c3 54 59 3c 1f 5e 05 bd 05 50 07 be
       -0.04858503 0.013264838 -0.032560464 -0.13214119
000160 93 7c 30 3d c5 4f 8f 3d 95 b1 bb bd c5 b5 f6 bd
       0.043087553 0.06997637 -0.091647305 -0.120463885
000170 69 6a ee bc 66 c1 34 be 7c 10 b2 3d 29 75 e0 3d
       -0.029103475 -0.176519 0.086945504 0.109598465
000180 d7 f6 bc 3d 73 16 bc bd 82 a9 e8 bd 0d 45 16 3d
       0.092267685 -0.09183969 -0.11360456 0.036686946
000190 d0 d6 d8 bd cc fb 40 be 04 95 a0 bd 12 e7 eb bd
       -0.10587847 -0.18846053 -0.078409225 -0.115186825
0001a0 a5 0b f3 3c fd c1 e2 3d f4 4e fe ba 3c ac 46 be
       0.029668638 0.110721566 -0.0019402192 -0.1940164
0001b0 26 04 86 3d ee c4 cd 3d 8b 59 e4 3d 04 ee ab 3d
       0.0654376 0.10047327 0.111498915 0.08395007
0001c0 6d 96 82 bc 14 03 00 be 56 90 c1 3c e7 52 8e 3d
       -0.01594087 -0.12501174 0.023628395 0.06949406
0001d0 d6 b6 62 3c cf fb 3d 3d 11 11 fe 3c 9d 42 be bd
       0.013837537 0.04638272 0.031013997 -0.09290049
0001e0 30 6f fd bc 70 6d 91 bd 19 9f 38 be 0f a4 e4 3d
       -0.030936807 -0.07100952 -0.18029441 0.11164104
0001f0 e7 cb c4 bd 7a ab 1d be 52 a9 c8 bc 8f ec fc bc
       -0.09609204 -0.15397444 -0.0244948 -0.030874519
000200 f2 49 e8 bd 42 46 9e bd e7 ad 5e bc c9 0d 86 bd
       -0.11342229 -0.07728244 -0.013591266 -0.06545598
000210 c2 45 b7 3d 3c f4 93 bc d6 a9 e5 bc 52 47 9c 3d
       0.08948852 -0.018060796 -0.028035086 0.07630791
000220 74 25 ea bd 3a 4a 24 3d 15 d5 a2 bc d0 82 e8 3d
       -0.11432925 0.04010985 -0.019876996 0.113530755
000230 27 fd 4e 3c 02 91 58 bd 21 03 ac bd 25 ca a3 bd
       0.012633598 -0.052872665 -0.08399034 -0.079975404
000240 ef a0 5b bd 44 9d e6 3d 5b 5a bc 3d fe 31 f0 3d
       -0.053620275 0.11260465 0.091969214 0.11728285
000250 e2 fa 43 bd c9 63 32 3d 33 21 a8 bd 19 8d 08 bd
       -0.047846682 0.043552194 -0.08209457 -0.033337686
000260 31 b0 d5 3d f3 b0 b1 bd 6c 5c f9 bd 8e a9 ed 3b
       0.104339965 -0.086763285 -0.12175831 0.0072528785
000270 6d 43 cc 3c 57 e0 ca 3d a6 6e 4c 3d de 22 f6 3c
       0.024934495 0.09906071 0.04991021 0.030045923
000280 ae 3f fe 3d 84 66 e4 3d 60 f8 92 bd 27 fe f4 bd
       0.1241449 0.11152366 -0.0717628 -0.11962538
000290 59 92 e5 bd 8c ce e3 3c 90 88 10 3d d2 07 08 bd
       -0.11209554 0.02780845 0.035286486 -0.033210583
0002a0 6d a2 bc 3d c6 02 cd 3c 65 3a 77 3c 75 f3 9d bc
       0.09210668 0.025025737 0.015089606 -0.019281128
0002b0 ac 05 94 3d 3a e2 15 3d 04 cc a8 bd fb d3 ee bc
       0.07227644 0.0365927 -0.08242038 -0.029153815
0002c0 2a 09 6a 3d 80 f8 49 3d e7 69 ee bc 51 f1 fd 3d
       0.057137646 0.049309254 -0.029103233 0.12399543
0002d0 c5 18 d7 3d b1 56 75 bd 53 bd c7 3d db 73 a4 3d
       0.10502771 -0.05989713 0.097529076 0.0802991
0002e0 5e ea b5 3d fb 6c 2a bd 31 5d 3e 3d c2 c5 89 bd
       0.088825926 -0.041607838 0.046475593 -0.067271724
0002f0 14 4a 8a 3d e2 73 af ba 57 49 93 3d 8d 27 ac 3d
       0.067524105 -0.0013385976 0.07191723 0.08405981

encoder.rnn.bias_hh_l0 f4 [192]
000000 53 a5 37 3d 11 e7 03 3d d7 ba 87 bd 30 eb c2 bd
       0.0448354 0.032202784 -0.06627434 -0.09517515
000010 f4 c9 bf bd 75 d8 ab bc 00 71 d0 bd 85 a4 f9 bc
       -0.093646914 -0.020977238 -0.10177803 -0.030473957
000020 37 67 fc bb 7b b5 f3 bd ed b4 e9 3d 01 25 af 3b
       -0.007702734 -0.11899849 0.11411462 0.0053449874
000030 e7 43 bf 3d 0f 2b e1 bd f2 6d 93 3d 2c e0 91 bd
       0.09339123 -0.10994541 0.07198705 -0.071228355
000040 e9 13 0d 3d 7e 40 ba 3d cd 37 c9 3d 28 03 0e be
       0.034442816 0.09094332 0.09825096 -0.13868392
000050 71 fc 42 bd 92 2f 4e bd 35 08 47 3d b3 5c 8c bd
       -0.047604028 -0.050338335 0.04859181 -0.068536185
000060 a0 bb b9 3d 31 e1 bd bd 5b 7b bf b9 26 89 91 3c
       0.0906899 -0.092714675 -0.00036522266 0.017765593
000070 1c 3d a9 bd bd 7a f1 bc 55 d7 d9 bd 02 32 87 bd
       -0.08263609 -0.029477471 -0.106367745 -0.06601335
000080 47 ff fd bd f4 56 17 3d b5 31 44 bd a7 d8 6c bc
       -0.12402206 0.03694816 -0.047898967 -0.014455951
000090 5a 35 37 3d be 7d 77 3d d4 2e 70 3d 01 dd eb 3c
       0.044728614 0.06042265 0.05863841 0.028791906
0000a0 69 d2 ed 3d c3 4d c1 bc 6f ec df 3d d7 bd 8b bd
       0.11612398 -0.02359665 0.10933768 -0.068233185
0000b0 f3 50 fc bd 6f 52 d8 3b c9 7c 3f bd 2d f6 aa bd
       -0.12320127 0.0066016237 -0.046749864 -0.083477356
0000c0 94 63 8d bd 73 8d df bc d3 21 63 3c e2 87 9f bc
       -0.06903759 -0.027289128 0.013863045 -0.019473974
0000d0 8e 1a 12 bd 91 ae d4 3d da 02 8f 3d 5e 85 73 bd
       -0.035669856 0.103848584 0.06982966 -0.05945336
0000e0 28 5c b7 bd 64 f1 2b 3c a8 a9 a0 3d aa e8 d1 3d
       -0.08953124 0.010494564 0.07844859 0.10249455
0000f0 fc 4c 9e 3d d9 0b be 3d 9e 78 9e 3b be 27 b7 bd
       0.07729527 0.092796035 0.004836156 -0.08943127
000100 76 e2 86 3d f4 5c ae 3c 71 69 7e 3d 6c 81 bd bd
       0.06586163 0.021284558 0.062112276 -0.09253201
000110 7c bf f3 bd 24 5f 93 3c 51 b5 17 bd fb 53 e6 bd
       -0.11901757 0.017989703 -0.03703815 -0.11246487
000120 9e 46 f4 3d 21 35 34 bb de 0f c7 3d b6 f4 f7 3d
       0.11927532 -0.0027497488 0.09719823 0.12107222
000130 7e 95 d8 bd b4 c3 ae 3d 32 2e d6 3d 13 c3 c7 bd
       -0.10575388 0.08533421 0.1045803 -0.09754004
000140 04 03 1a 3d b0 a9 e0 3d 5a ba 2f 3d 7d c2 6d bd
       0.037600532 0.10969865 0.042902328 -0.058046807
000150 e4 22 ed bd ec e1 14 be cb b2 39 3d c1 70 04 be
       -0.115789205 -0.14539307 0.045336526 -0.12933637
000160 00 86 8a 3c cb ee 81 bd 2c d5 99 bd 22 16 c4 3d
       0.0169096 -0.06344374 -0.075113624 0.09574534
000170 14 05 4c be 89 64 53 bd 4b e2 03 3e 77 d9 98 bd
       -0.19923812 -0.05160955 0.12879293 -0.07463353
000180 da 3e 12 bd c3 12 fe bd 22 f7 3b 3d 38 73 20 3d
       -0.03570447 -0.12405922 0.04588998 0.03917238
000190 46 28 ee 3b a4 3e 36 be ac 20 13 be cb 1e 42 3c
       0.0072679846 -0.17797333 -0.14367932 0.011848162
0001a0 de 77 74 3d 33 a5 c4 3d fe 54 14 3d be a9 73 bd
       0.059684627 0.09601822 0.036213867 -0.05948805
0001b0 16 6d 9a 3d b7 d5 44 bd 4a e6 0c 3c 99 f4 6f 3e
       0.07540338 -0.048055377 0.008599827 0.2343315
0001c0 f2 19 4c 3b 17 d5 7e bc cf 34 a6 bd 42 34 fa 3d
       0.0031143394 -0.015553734 -0.08115541 0.12216999
0001d0 94 08 d9 bc 9b 2f ce 3c 81 3d fb ba c5 dc bd b9
       -0.026493348 0.025169184 -0.001916811 -0.00036213375
0001e0 77 28 02 3e 83 d2 d8 3d 68 66 70 be 26 85 20 3c
       0.12710749 0.10587027 -0.23476565 0.00979737
0001f0 ef b5 91 bd d6 0f ab 3c 17 7e 50 3d cb 91 c7 bd
       -0.07114779 0.020881575 0.0509015 -0.09744605
000200 13 f5 d9 bd 52 cb f5 bc 89 1c 98 bb 30 c2 b2 3d
       -0.10642447 -0.030004177 -0.0046420735 0.087284446
000210 60 e2 17 3d 93 62 b6 3d e2 d9 c3 bd fd ca d7 3d
       0.037081122 0.0890552 -0.09563042 0.10536764
000220 4e 7b da 3d bd e6 91 3d 7b 27 21 3c dc 02 fb 3d
       0.1066805 0.07124088 0.009836073 0.12256405
000230 46 ed d4 bb 79 53 9e bc d9 98 49 bc 9f 50 25 3d
       -0.0064980118 -0.019326912 -0.012304508 0.04036009
000240 ce 9e 48 3d 93 3b d5 3d 20 c5 a6 3d 37 ee 67 3d
       0.048979573 0.104117535 0.08143067 0.056623664
000250 88 33 f4 3c dc 0d 12 3d dc 91 c0 3d 14 bb 28 bd
       0.029809728 0.03565775 0.094028205 -0.041194037
000260 14 45 9d 3d e1 56 7d bd 63 6e 51 bd 5f 98 5a 3d
       0.07679191 -0.061850432 -0.051130664 0.05336797
000270 b7 f9 9f bd 3f 33 50 bd 3b d1 13 3d d3 5b 64 3b
       -0.07811301 -0.050830122 0.03608821 0.003484477
000280 9b 4c 9b 3d 08 02 8b bd a7 5f e4 bd 58 57 b3 3b
       0.07582971 -0.06787497 -0.11151057 0.0054730587
000290 eb 42 62 3d da 2a 1c 3c b2 d0 ae bd b8 39 a6 bd
       0.0552396 0.009531701 -0.08535899 -0.08116478
0002a0 78 0d 46 3d 38 77 a1 3c e6 ed 8d 3d a9 fa 87 bd
       0.04835269 0.019710168 0.06930141 -0.066396065
0002b0 20 6a b8 3d e8 49 20 bc 97 03 1e 3d 8b f5 96 bd
       0.09004617 -0.009783246 0.038577642 -0.07371052
0002c0 00 25 61 bc da be cf bc 28 c9 ce bd dc 5c a6 3d
       -0.013741732 -0.02535956 -0.10096961 0.0812318
0002d0 86 cc 36 3d 2e 61 a7 bd 09 0f 09 3d f3 a8 38 bd
       0.044628642 -0.081728324 0.033461604 -0.045082998
0002e0 6c 92 f5 bd 35 c0 c5 3c aa 11 14 bd a9 1c a3 3d
       -0.119908184 0.024139503 -0.03614966 0.07964451
0002f0 10 51 f7 bb 8f 73 93 bd 67 04 1b bd 3d ae 42 3d
       -0.007547505 -0.071997754 -0.037845995 0.047529448

decoder.attn.v f4 [64]
000000 48 bc e9 bc fc ec 07 bd 0a bd ba bd fe 24 ee 3d
       -0.028532162 -0.03318499 -0.091180876 0.116281494
000010 44 49 41 bd 38 ea 82 3d d4 22 52 3d d4 be 1e 3d
       -0.047189012 0.0639233 0.051302746 0.038756207
000020 24 66 77 bd 08 54 d8 bc 60 6a 27 3d e8 8b 9d bc
       -0.060400143 -0.026407257 0.04087293 -0.019231752
000030 c2 61 90 bd ce 42 cf bd 64 8c af 3d 56 6e 91 bd
       -0.07049896 -0.10120164 0.08571699 -0.07101123
000040 72 53 dd 3d 78 e4 03 bd 9c 1c b8 3d 52 3e fe bd
       0.108069316 -0.032200307 0.08989832 -0.124142304
000050 2c 65 37 bd 58 96 ae bc 68 01 ae 3c 18 9f ac bd
       -0.04477422 -0.021311924 0.021240905 -0.08428782
000060 00 bb 36 3d c4 96 04 3d 10 d6 0f 3d 00 91 01 ba
       0.04461193 0.032370344 0.035116255 -0.0004942566
000070 4c fd d3 3d 20 ac aa bd fe ac 85 3d 5c 2d 67 3d
       0.10351047 -0.083336115 0.06527136 0.056439742
000080 b0 8b 5a 3d 30 1e 47 bd b6 ed db 3d 24 36 9f bd
       0.053355873 -0.048612773 0.10738699 -0.077739984
000090 a0 f6 f8 3d f8 9f b1 bc 3a 75 ed bd e8 91 e0 bc
       0.12156415 -0.021682724 -0.11594625 -0.027413324
0000a0 58 79 ed bd c4 9a ee 3d c8 1f bd bc 64 68 6d bd
       -0.1159541 0.11650613 -0.023086444 -0.057960883
0000b0 d8 34 cd 3d 28 7c 78 bd 80 e6 80 3c c4 d7 a2 3d
       0.10019845 -0.06066528 0.015734911 0.0795131
0000c0 1c a4 8d 3d 08 23 05 3d 50 18 24 3d 2a 1f 84 3d
       0.06916067 0.03250411 0.04006225 0.064512566
0000d0 6c ff 76 bd 70 34 02 3c ce fe a7 bd 80 65 f8 bd
       -0.060302183 0.007947072 -0.08202897 -0.121287346
0000e0 7c ac 97 bd 9a cc fd bd b0 8e 69 bd 50 68 d9 bd
       -0.07405946 -0.1239254 -0.057020843 -0.10615599
0000f0 4c 1a e0 3d 00 0b 54 bc 5c 49 f3 bd 32 da 98 3d
       0.10942516 -0.012942076 -0.118792266 0.074634925

decoder.attn.attn.weight f4 [64, 128]
000000 94 c6 82 bd 60 f2 fb 3b 23 24 87 bd 76 5b 8a bd
       -0.06385532 0.0076888055 -0.065986894 -0.06755726
000010 b8 db 81 bc e5 fd 8e 3d be fa 25 bd 10 80 4a bd
       -0.01585184 0.0698202 -0.04052233 -0.049438536
000020 fe 1a 13 bd 42 52 78 bd c0 e2 25 bc 16 a3 9b bd
       -0.035914414 -0.060625322 -0.010124862 -0.075994655
000030 e8 ea 11 3d be 93 ac bd af fb aa bd fa b7 a7 bd
       0.035624415 -0.08426617 -0.08348786 -0.081893876
000040 0a 77 58 bd c4 b2 a9 3c 4b dc 86 3d cc 51 47 bd
       -0.0528479 0.020715125 0.06584986 -0.048661992
000050 86 7a 5a 3d ee ac 96 bd 48 ab 86 bd 58 11 fa 3c
       0.053339504 -0.073572025 -0.06575638 0.030525848
000060 60 51 49 bc 5c dd 2c bd 20 de 08 3c 00 67 ae 3a
       -0.012287468 -0.042203292 0.00835374 0.0013305843
000070 85 bd 8b 3d de be 01 3d f0 e7 97 bb 96 20 95 bd
       0.06823257 0.031676166 -0.0046358034 -0.07281606
000080 ec 5f f0 bc 8f 37 8e bd f8 ea 8a bc 10 7c ac bc
       -0.029342614 -0.06944191 -0.016957745 -0.021055251
000090 dc ee 99 bc 82 83 89 bd d2 d3 0e 3d 2e 45 0c 3d
       -0.018790655 -0.06714536 0.034869976 0.034245662
0000a0 b8 2d 27 bc 33 b8 09 bd f4 a5 b0 3c b6 58 58 3d
       -0.010203771 -0.03362293 0.021563508 0.052818976
0000b0 62 b3 05 3d 88 b4 2b 3c 90 38 32 3c 04 5b 80 3c
       0.032641776 0.010480054 0.010877743 0.0156684
0000c0 58 9b 0e 3c 34 1a be bc 08 04 7d bd e2 4b 67 3d
       0.008704029 -0.023205854 -0.061771423 0.056468852
0000d0 6e d7 4e 3d 8e ff aa bd 20 7a 38 3c d0 b3 75 bd
       0.05049842 -0.083495244 0.011259586 -0.059985936
0000e0 53 37 a5 3d 60 a0 ac bb 25 ee 41 bd 97 17 4a bd
       0.08067193 -0.0052681416 -0.047346253 -0.049338903
0000f0 a2 15 44 3d ac 04 bb bc 80 3f 22 bc 3f a9 a3 3d
       0.047872193 -0.022829376 -0.009902835 0.079912655
000100 ae 5d ea bc c0 fa 5a bd e4 69 ac 3c c4 81 8a 3c
       -0.028609123 -0.05346179 0.021046586 0.01690758
000110 5e 67 75 bd 58 32 e2 3c 0f 98 6a bd fa 7a 62 bd
       -0.05991303 0.027611896 -0.05727392 -0.05529306
000120 26 6f 88 bd 30 eb d1 bc 80 e7 77 3a 19 e7 16 bd
       -0.06661825 -0.025624841 0.00094567984 -0.036841486
000130 3e db 5a bd 87 eb 10 bd f0 7c a8 3c 70 af d8 3b
       -0.053431742 -0.035380866 0.020567387 0.0066127107
000140 fa a9 b1 bd 58 64 96 bd 13 d1 84 3d 20 a1 20 3c
       -0.086749986 -0.07343358 0.0648519 0.00980404
000150 92 53 46 3d a0 1e 15 bb 07 1f af bd 49 21 ab bd
       0.048419543 -0.002275385 -0.0855084 -0.08355958
000160 4e e2 5c 3d 00 16 a1 bc a8 7b 13 bd 27 51 b3 bd
       0.05392676 -0.01966381 -0.0360066 -0.08755713
000170 fe ab 47 3d 38 9d 3c 3c 85 49 81 bd c8 c4 63 3c
       0.04874801 0.011512093 -0.06312851 0.013901897
000180 e2 69 6b bd 28 8f bf bc 42 1e 4b bd 1c c1 f4 bc
       -0.057474025 -0.023383692 -0.049589403 -0.029877238
000190 44 17 9b bc 44 72 8e bd b0 91 76 bd 88 cf a8 bd
       -0.018931992 -0.06955388 -0.060197532 -0.082427084
0001a0 4e b9 62 3d 83 39 56 bd 91 06 85 3d b2 36 6e 3d
       0.0553525 -0.05230094 0.06495393 0.05815763
0001b0 8e 93 4e bd b2 42 6b 3d 80 de 90 3b b8 fc 02 bc
       -0.050433688 0.057436652 0.0044210553 -0.007994823
0001c0 3a cb 49 3d 0e 19 75 3d 10 7b c2 bb d3 2e ae 3d
       0.049266078 0.059838347 -0.0059350803 0.08505025
0001d0 f8 f7 5c bd 82 1b 74 3d 02 e2 43 3d 9d 6d 99 3d
       -0.05394742 0.059596546 0.04782296 0.0749161
0001e0 10 a4 ca bb cf e0 a8 3d 0f 81 92 3d ec 1e 72 bd
       -0.0061841086 0.08246004 0.07153522 -0.05911152
0001f0 03 51 ad 3d a0 f1 8e bd 67 18 b3 3d 24 19 81 bd
       0.084627174 -0.0697968 0.08744889 -0.06303623
000200 e8 15 28 3c c8 6a 94 bd 6e 3e 17 3d 51 ea 46 bd
       0.010259129 -0.072469294 0.036924772 -0.048563305
000210 6c ed 1e bd f5 f5 10 bd 14 42 96 bd 8c 6f 97 bc
       -0.038800642 -0.035390813 -0.07336822 -0.018485807
000220 2a 93 e3 bc 4c fb 8b bd 22 32 38 bd 10 08 01 bd
       -0.027780134 -0.068350405 -0.044969685 -0.03150183
000230 eb c8 b1 3d 56 78 10 3d c0 9f b3 bb a0 a8 ec 3b
       0.086809 0.03527101 -0.00548169 0.00722225
000240 00 19 d0 3c 80 9a 5d 3b cb f2 3f bd e6 fb 92 bd
       0.025402546 0.0033814013 -0.046862405 -0.07176952
000250 9e ef 77 bd 58 bc a5 3c 50 62 df bb e1 d6 60 bd
       -0.06053125 0.02023141 -0.0068171397 -0.054892424
000260 7a 13 52 3d 92 7c 6b 3d a8 23 98 3c 83 8f 90 3d
       0.051288106 0.057491846 0.01857169 0.07058623
000270 88 4e 5f bd 65 c5 41 bd 6e 42 0c 3d 01 d4 a9 3d
       -0.054518253 -0.04730739 0.03424304 0.0829239
000280 18 66 4b 3c bc 02 87 bd 20 08 2b bc 04 90 c0 bc
       0.012414478 -0.065923184 -0.010438949 -0.023506172
000290 41 ea 50 bd 44 b4 f5 bc 18 0b c6 bc a0 2a 58 3c
       -0.051004652 -0.029993184 -0.024175212 0.013193756
0002a0 f8 74 4e bc 71 37 a9 3d 75 e9 4a bd b8 f4 55 3c
       -0.01260113 0.08262528 -0.04953905 0.013058834
0002b0 77 78 8e 3d 60 c7 1b bb 9c 26 a1 bd e0 44 53 bb
       0.069565706 -0.002376996 -0.07868692 -0.0032237098
0002c0 28 f2 04 3d 4c ac 79 bd a2 13 48 3d 40 a2 80 ba
       0.0324575 -0.06095533 0.04884685 -0.0009813979
0002d0 63 c8 61 bd 68 32 33 3c b8 89 2f bd 63 8e b4 3d
       -0.055122744 0.010937311 -0.04285595 0.088162206
0002e0 6c 3a 9c bd d9 1c 72 bd e0 9b 17 3b 18 9e 3e 3c
       -0.076283306 -0.059109543 0.002313368 0.011634372
0002f0 90 97 75 bc 0c 26 e0 bc 8d ff 51 bd fd 11 8a 3d
       -0.014989749 -0.027361892 -0.051269103 0.06741712
000300 81 24 ad 3d fb e4 1c bd c0 67 c7 3a dc 75 a4 bd
       0.08454228 -0.03830431 0.0015213415 -0.080302924
000310 a9 7c 9d 3d b6 13 4a bd 01 b0 35 bd 4d ac 39 bd
       0.07689793 -0.049335204 -0.044357304 -0.045330334
000320 b0 db b9 3c 1c 5a fa 3c 6d 49 98 bd a0 d7 b6 bc
       0.022687763 0.030560546 -0.0743588 -0.022319615
000330 92 81 40 3d 18 9d 53 3c 05 e5 a0 bd 7a 95 44 3d
       0.046998568 0.012915872 -0.07856182 0.047994114
000340 57 e4 94 3d e0 df b0 bb e1 9c b1 3d d6 43 7a 3d
       0.07270115 -0.0053977817 0.086725004 0.06109985
000350 86 a1 91 bd 2e 0e 19 bd 3d 40 a4 3d 92 4a dc bc
       -0.07110886 -0.03736704 0.08020065 -0.026891027
000360 db 2c 9d 3d ea be 83 bd 33 f6 99 3d 70 74 c7 3c
       0.07674571 -0.06432898 0.07517662 0.024347514
000370 57 bd 96 bd 9d a1 a8 bd db f5 87 bd 9b 9d a2 3d
       -0.073603325 -0.0823395 -0.0663869 0.07940217
000380 b0 a4 c7 3c 50 7d e3 3c 02 45 db bc 37 be ab bd
       0.024370521 0.027769715 -0.026766304 -0.0838589
000390 9f 1a 93 3d 40 03 39 bd 58 60 47 bc 40 ed f1 bb
       0.07182812 -0.045169115 -0.012168966 -0.0073830187
0003a0 9f 4d 98 3d b8 41 0d 3d e0 da d1 bb 11 75 9a 3d
       0.0743668 0.034486502 -0.0064042658 0.0754186
0003b0 33 ea 97 3d b8 28 07 bc 93 de 96 3d b4 e1 30 bd
       0.07417717 -0.008249454 0.073666714 -0.043183997
0003c0 1a 85 9f bd d9 84 9b 3d 00 2a 95 bb 60 4d 20 bc
       -0.07789059 0.07593698 -0.004552126 -0.009784073
0003d0 78 26 6c bd 8a d2 1a bd 87 26 3b bd 00 2a 95 3a
       -0.057653874 -0.037798442 -0.04569104 0.0011380315
0003e0 58 dc 98 bd 0a 1e 31 3d e8 b9 9c 3c 90 88 25 bc
       -0.07463902 0.043241538 0.019131616 -0.01010336
0003f0 26 18 71 bd e0 25 a3 bd bf 5e 25 bd f6 70 55 3d
       -0.05886092 -0.079662085 -0.04037356 0.05210968
