checkpoints/models/single_stock_daily/81to9/000001/model5.pth (torch, 542911 bytes, 24 tensors)

encoder.conv1.weight f4 [18, 6, 3]
-0.06819931 -0.08639524 -0.0087056095 0.12293263 -0.21223854 -0.11825099 -0.06255232 -0.08499168
0.007882458 0.18659088 0.06843514 -0.19972834 0.23225784 0.20621334 0.087278664 0.13585788
0.11591495 0.22009283 -0.2286707 -0.14945966 -0.032231815 -0.05070685 -0.16301945 -0.23110262
-0.18635315 -0.04372379 0.19460228 0.15006967 0.061016127 -0.15012376 -0.100914575 0.01593498
-0.22372666 -0.01317457 0.04319454 0.2097809 -0.065373495 0.22720979 0.013926735 -0.16972822
0.2162557 0.1987431 -0.19269438 -0.14356737 0.1068719 -0.15138964 0.15354125 -0.11821141
-0.079491556 -0.07433959 0.21914305 -0.08635227 -0.05359306 0.13551117 -0.15483059 0.003915916
-0.1768493 -0.21868902 -0.055837106 0.025298182 0.19912544 -0.22899774 -0.06939846 0.060397763
0.08634858 0.13639517 -0.19102336 -0.06009024 0.05336147 -0.19865762 0.10563435 -0.23756391
0.14365137 0.07423367 -0.06749703 0.07712549 0.2009512 0.17648593 0.14416014 -0.135085
0.07191513 0.1778972 0.043417506 0.15988241 -0.14526238 0.16736633 -0.0042304746 -0.21350273
-0.06018543 0.2143898 -0.08045805 -0.040482033 -0.0929702 -0.13062517 0.037440307 0.14216702
0.024607351 -0.01908216 0.0119709745 -0.17973411 -0.12834321 0.010414604 -0.19124268 0.11281404
0.03471851 0.011131526 -0.012629199 0.20310482 0.21428122 0.1168285 0.11938265 -0.10047552
0.11190325 -0.14526004 0.11721694 -0.14975737 0.014846756 0.18557715 0.17335123 0.22381891
0.09503549 0.10809351 0.078351 0.18973802 0.1481968 0.09540498 -0.08795154 -0.11899777
-0.06393487 0.109665215 -0.13074417 0.060975708 0.20370346 0.19752602 -0.1767738 0.064605825
0.1519794 -0.2173449 0.14792646 -0.14916985 -0.17380476 -0.101685375 -0.0887067 -0.09931128
0.06549979 0.08781757 0.08806867 0.15544866 -0.1572007 -0.2312595 -0.1970036 -0.13844544
-0.116039954 0.09585467 -0.17920497 -0.18032107 0.11864617 -0.15842198 0.036408834 -0.18970367
0.07716395 0.13425985 -0.20778124 0.07386109 -0.12929514 0.15270977 0.2168346 -0.19525689
0.09260081 0.16576435 0.21964084 0.18210375 0.05245677 0.0186466 0.052258365 -0.13492167
-0.04184073 0.0005830167 -0.13849999 0.0013301945 -0.030788546 -0.080949865 -0.071631566 -0.23623016
0.22332382 0.113187686 0.16905862 -0.20170814 -0.23369418 0.17386156 -0.042559005 0.033758342
0.11679244 0.013888423 -0.010752379 0.13253441 0.1824502 -0.07316791 -0.20626466 -0.13473448
0.16287088 0.013343967 0.19476295 -0.08893591 -0.2306198 0.06597783 -0.10702618 -0.14794801
0.13998765 0.010022051 -0.027516114 0.22223744 0.19864634 -0.2063523 -0.23138866 -0.13149679
-0.18848613 -0.12813587 0.15472268 -0.156589 0.21734951 0.073675 0.011232971 0.042484585
0.050820738 0.07660683 -0.18983194 -0.0033098618 0.15695061 0.23579477 -0.011915724 -0.16687444
0.113226086 -0.21080343 0.20634921 0.13981904 0.10128081 0.027909694 0.16648994 -0.099231616
-0.20136504 -0.1357838 0.17078921 -0.12240586 -0.19322003 0.04721142 -0.15093167 -0.015124562
-0.15389322 0.0425514 -0.048180792 0.021257177 0.10982721 -0.15300503 -0.0825206 -0.16204453
00000000: 14ac 8bbd fdef b0bd f9a1 0ebc 1ac4 fb3d
00000010: 0f55 59be 932d f2bd 6e1b 80bd 1e10 aebd
00000020: 6d25 013c ae11 3f3e b927 8c3d 9685 4cbe
00000030: 00d5 6d3e 9729 533e 28bf b23d 541e 0b3e
00000040: d164 ed3d 0460 613e a728 6abe f40b 19be
00000050: 8205 04bd fcb1 4fbd 92ee 26be 2aa6 6cbe
00000060: 5cd3 3ebe b817 33bd d245 473e ddab 193e
00000070: 0cec 793d 0bba 19be 4dac cebd 138a 823c
00000080: 9a18 65be 27da 57bc c2ec 303d ced0 563e
00000090: 8ae2 85bd afa9 683e f62c 643c 3ccd 2dbe
000000a0: 2272 5d3e 5083 4b3e ad51 45be 5303 13be
000000b0: a8df da3d e305 1bbe eb39 1d3e d318 f2bd
000000c0: 78cc a2bd 5b3f 98bd 0967 603e 75d9 b0bd
000000d0: 6584 5bbd 71c3 0a3e e98b 1ebe 1651 803b
000000e0: fc17 35be 04f0 5fbe 73b5 64bd 223e cf3c
000000f0: 8ae7 4b3e 627e 6abe c820 8ebd a563 773d
00000100: 86d7 b03d 2dab 0b3e a19b 43be 2f21 76bd
00000110: 8f91 5a3d e76c 4bbe d256 d83d f443 73be
00000120: 5819 133e d307 983d e23b 8abd f8f3 9d3d
00000130: 27c6 4d3e bab8 343e b79e 133e b953 0abe
00000140: 3d48 933d af2a 363e 8ed6 313d 37b8 233e
00000150: a9bf 14be 1462 2b3e cb9f 8abb 76a0 5abe
00000160: ff84 76bd 0089 5b3e 31c7 a4bd 7dd0 25bd
00000170: 2967 bebd 9bc2 05be 025b 193d 3b94 113e
00000180: 5b95 c93c 3152 9cbc e821 443c 380c 38be
00000190: 676c 03be 04a2 2a3c 1fd5 43be 0c0b e73d
000001a0: ff34 0e3d 0161 363c b3ea 4ebc b6fa 4f3e
000001b0: 896c 5b3e c843 ef3d e47e f43d 1cc6 cdbd
000001c0: 882d e53d 0cbf 14be 6f0f f03d ff59 19be
000001d0: cf3f 733c f007 3e3e fc82 313e c930 653e
000001e0: f8a1 c23d 2160 dd3d 7d76 a03d af4a 423e
000001f0: e7c0 173e b063 c33d f01f b4bd 1ab5 f3bd
00000200: 49f0 82bd 2898 e03d cde1 05be aac1 793d
00000210: a497 503e 4344 4a3e 3104 35be 0f50 843d
00000220: 7da0 1b3e a98f 5ebe 097a 173e fbbf 18be
00000230: e0f9 31be 6c40 d0bd dcab b5bd b663 cbbd
00000240: c124 863d b3d9 b33d 595d b43d ef2d 1f3e
00000250: 38f9 20be 4acf 6cbe 50bb 49be a4c4 0dbe
00000260: 5ba6 edbd 744f c43d 8281 37be 16a6 38be
00000270: c3fc f23d 5f39 22be 6e21 153d ae41 42be
00000280: 2208 9e3d 6a7b 093e 9bc4 54be 7c44 973d
00000290: f265 04be f35f 1c3e e409 5e3e 6cf1 47be
000002a0: 7ea5 bd3d 21be 293e 87e9 603e 6879 3a3e
000002b0: e9dc 563d c1c0 983c de0c 563d e828 0abe
000002c0: 2f61 2bbd 97d5 183a f1d2 0dbe ec59 ae3a
000002d0: 4338 fcbc 0bc9 a5bd 92b3 92bd 52e6 71be
000002e0: 00af 643e f2ce e73d b41d 2d3e 948c 4ebe
000002f0: 874d 6fbe c408 323e 5a52 2ebd 3046 0a3d
00000300: e030 ef3d 458c 633c bf2a 30bc 1ab7 073e
00000310: 3ad4 3a3e 0fd9 95bd 0b37 53be d6f7 09be
00000320: a0c7 263e a7a0 5a3c f06f 473e 0824 b6bd
00000330: 9927 6cbe 621f 873d 8b30 dbbd af7f 17be
00000340: ec58 0f3e 8733 243c 7969 e1bc 3692 633e
00000350: f269 4b3e 044e 53be 26f1 6cbe 18a7 06be
00000360: 8202 41be 0d36 03be 9f6f 1e3e de58 20be
00000370: df90 5e3e ebe2 963d 7f0a 383c 5104 2e3d
00000380: 6829 503d 0be4 9c3d 4e63 42be 44ea 58bb
00000390: a9b7 203e 2f74 713e 2b3a 43bc 22e1 2abe
000003a0: 14e3 e73d dbdc 57be 354d 533e b92c 0f3e
000003b0: 506c cf3d dfa2 e43c 577c 2a3e f239 cbbd
000003c0: a332 4ebe e90a 0bbe 5ee3 2e3e ecaf fabd
000003d0: 79db 45be c360 413d d58d 1abe 03cd 77bc
000003e0: 2f96 1dbe 604a 2e3d 3959 45bd 8823 ae3c
000003f0: 17ed e03d 5aad 1cbe 8f00 a9bd 00ef 25be

encoder.conv1.bias f4 [18]
0.04043808 0.08252791 -0.14443141 -0.05933179 -0.11225607 0.2157858 0.05380621 -0.18440957
0.16571067 -0.050356794 0.014977803 0.026991269 -0.035135478 0.22079726 0.10726742 0.044269174
-0.08604542 0.054702606
00000000: 66a2 253d 6504 a93d d4e5 13be e405 73bd
00000010: 83e6 e5bd f4f6 5c3e e763 5c3d ddd5 3cbe
00000020: 0fb0 293e ed42 4ebd 7665 753c cb1c dd3c
00000030: 38ea 0fbd ad18 623e 05af db3d 9853 353d
00000040: 9538 b0bd d70f 603d

encoder.conv2.weight f4 [54, 18, 3]
-0.089370884 -0.036053624 0.07876722 -0.1356407 -0.005316876 -0.051517896 0.077270985 -0.08175835
0.028494637 -0.040275156 0.11269643 -0.021404233 -0.094494335 -0.037336532 0.10012589 0.049854208
0.024623193 0.080697365 0.05414455 -0.015515981 -0.07055731 -0.13014407 0.065952584 0.106711276
-0.062483046 -0.07102361 0.01451185 -0.0021035513 0.114927195 0.0069009224 0.0069858395 -0.11448309
0.053377643 0.00408851 0.03196088 0.08150353 0.06915753 0.010106745 -0.0018610791 -0.07226478
0.11948807 0.11008438 -0.012844742 0.12829754 0.11347272 0.08614946 0.07859111 0.061752267
-0.024392622 0.012417296 0.11016675 -0.029699834 0.036641806 -0.048896037 0.026888244 0.08911174
0.088811345 0.06711154 0.06541868 -0.030483417 0.14191918 0.098046556 0.13429485 -0.10771927
-0.059967935 -0.11044819 0.014012208 0.1050703 -0.09424471 0.027043588 -0.017725924 -0.13551067
-0.006654891 -0.01686116 -0.06804497 -0.08194809 0.08493917 -0.010223035 -0.039806277 -0.04852813
-0.023378894 -0.03156296 -0.074822895 0.05923277 -0.0027856948 -0.11362905 -0.064736076 -0.016816858
-0.05176944 0.030251874 0.13551281 -0.09262789 -0.001511831 0.11099931 -0.08648863 -0.1113624
0.022088742 -0.0028471118 -0.00081348774 0.08690479 -0.11230334 -0.08111504 0.0954114 -0.097192
-0.017242387 0.05773424 -0.07647026 -0.105222926 -0.07846233 -0.098075934 -0.11258409 -0.025728302
-0.12986194 -0.086373426 0.010992884 0.12874903 0.13368498 0.11077929 0.01207383 0.08163167
-0.03831775 -0.08316921 0.07265816 0.05417116 0.048268866 0.06317478 -0.031107647 0.103296325
0.07743919 -0.061738815 0.097419344 0.046494726 -0.0040950007 -0.007531974 0.107384674 0.010989692
0.05480794 0.10645605 0.013978638 0.13122469 -0.07196792 -0.0007413253 0.021656694 0.0148583455
-0.090815105 0.13839687 -0.067466676 0.09965826 -0.05294323 0.055452134 -0.08184553 -0.06649862
0.028978815 0.0981265 -0.0061742566 0.056095637 -0.078016825 0.039552994 -0.018907474 -0.035713475
0.062058356 -0.0500611 -0.0792811 -0.03333299 0.072093986 0.13284141 0.12522885 0.097664215
-0.073403805 0.12872304 0.061923407 0.027163008 -0.07636947 -0.06961975 0.034050662 -0.012915506
-0.04000698 -0.10791854 0.10946865 0.036008023 0.015387242 0.010756877 0.07096532 -0.07904588
-0.0021775537 0.12345 -0.029788062 -0.12467651 -0.087998375 0.08719304 0.07443097 0.09542813
-0.042971186 -0.055678744 -0.11212978 0.014405002 -0.029636912 0.12659197 -0.055068675 -0.08206768
0.057423446 -0.05473817 -0.017577229 0.13119152 0.07866397 -0.13886942 0.006849525 0.004118484
0.1337269 -0.117427185 0.08683768 -0.13133237 -0.13132569 -0.070739426 -0.13064888 -0.007728019
0.08976078 -0.06239227 -0.12370896 -0.0032713178 -0.10217116 0.09889087 0.0025122429 0.11890131
0.05656724 0.054170966 0.05195421 0.13152355 -0.09865034 -0.09595665 0.09492692 0.054937277
0.13749254 0.038543485 0.04225094 0.076238416 0.08242929 0.07839125 -0.10482451 0.041815735
-0.075265124 0.033657927 0.08582851 -0.065606974 0.09662658 0.10518828 0.034164034 -0.11549973
-0.010799161 0.10036022 0.02979528 0.12505798 -0.01140574 -0.08024294 0.07731898 0.048060194
00000000: 1508 b7bd f7ac 13bd b550 a13d 65e5 0abe
00000010: 3039 aebb 6e04 53bd 4040 9e3d ec70 a7bd
00000020: 966d e93c 90f7 24bd 63cd e63d ee57 afbc
00000030: 3f86 c1bd 31ee 18bd cd0e cd3d ed33 4c3d
00000040: 94b6 c93c a944 a53d adc6 5d3d be36 7ebc
00000050: 5a80 90bd 7d44 05be 2612 873d 718b da3d
00000060: 39ee 7fbd d474 91bd 1cc3 6d3c bcdb 09bb
00000070: f35e eb3d 2221 e23b 78e9 e43b 1c76 eabd
00000080: 84a2 5a3d e8f8 853b 69e9 023d 53eb a63d
00000090: 77a2 8d3d c396 253c 74ef f3ba 8fff 93bd
000000a0: 29b6 f43d eb73 e13d c172 52bc 6e60 033e
000000b0: 6364 e83d 216f b03d 60f4 a03d f2ef 7c3d
000000c0: 09d3 c7bc ea71 4b3c 1b9f e13d 114d f3bc
000000d0: b815 163d 3647 48bd bc44 dc3c 3780 b63d
000000e0: b9e2 b53d c671 893d 3bfa 853d 5cb8 f9bc
000000f0: 4353 113e a2cc c83d 9784 093e ec9b dcbd
00000100: f0a0 75bd a932 e2bd 7693 653c 192f d73d
00000110: 5f03 c1bd 848a dd3c f535 91bc 4fc3 0abe
00000120: 4611 dabb 6a20 8abc 295b 8bbd 66d4 a7bd
00000130: 96f4 ad3d 847e 27bc e80b 23bd 6fc5 46bd
00000140: 1885 bfbc 2a48 01bd bf3c 99bd 109e 723d
00000150: 3490 36bb 59b6 e8bd 5994 84bd 82c3 89bc
00000160: 310c 54bd c7d2 f73c dfc3 0a3e b1b3 bdbd
00000170: a128 c6ba 9b53 e33d f320 b1bd f811 e4bd
00000180: 73f3 b43c 9c96 3abb 3d40 55ba 23fb b13d
00000190: 4bff e5bd a41f a6bd 0d67 c33d 990c c7bd
000001a0: e83f 8dbc bd7a 6c3d 719c 9cbd 1e7f d7bd
000001b0: dcb0 a0bd 09dc c8bd 7d92 e6bd 29c4 d2bc
000001c0: 87fa 04be 8de4 b0bd 7f1b 343c c9d6 033e
000001d0: b7e4 083e 41e0 e23d 50d1 453c 812e a73d
000001e0: 13f3 1cbd 9e54 aabd cdcd 943d 94e2 5d3d
000001f0: 93b5 453d c761 813d 77d5 febc 068d d33d
00000200: 7098 9e3d d7e1 7cbd cb83 c73d 4171 3e3d
00000210: 5b2f 86bb c7ce f6bb 7fec db3d 1c0e 343c
00000220: 4a7e 603d a105 da3d a806 653c c45f 063e
00000230: eb63 93bd 8055 42ba 6169 b13c 6b70 733c
00000240: 45fd b9bd e9b7 0d3e f82b 8abd a119 cc3d
00000250: 00db 58bd c721 633d a19e a7bd 6e30 88bd
00000260: fb64 ed3c 8cf6 c83d 6b51 cabb 8ac4 653d
00000270: 49c7 9fbd 5202 223d d9e3 9abc 4b48 12bd
00000280: e730 7e3d de0c 4dbd 215e a2bd 2c88 08bd
00000290: 03a6 933d 9407 083e fe3b 003e 2d04 c83d
000002a0: bc54 96bd f9cf 033e 66a3 7d3d f584 de3c
000002b0: 9967 9cbd cd94 8ebd b578 0b3d 8f9b 53bc
000002c0: 5cde 23bd 6504 ddbd 1931 e03d 267d 133d
000002d0: c51a 7c3c 9d3d 303c 4456 913d cee2 a1bd
000002e0: 4ab5 0ebb 5bd3 fc3d 1806 f4bc 6656 ffbd
000002f0: 7e38 b4bd 4492 b23d 446f 983d d36f c33d
00000300: 8e02 30bd 650f 64bd 4ca4 e5bd f502 6c3c
00000310: 1cc9 f2bc 53a1 013e b18f 61bd 1a13 a8bd
00000320: d934 6b3d 2235 60bd 1ffe 8fbc 1257 063e
00000330: 931a a13d c933 0ebe fb71 e03b 59f4 863b
00000340: b4ef 083e aa7d f0bd f4d7 b13d fe7b 06be
00000350: 3e7a 06be d5df 90bd d2c8 05be 523b fdbb
00000360: 80d4 b73d 098f 7fbd 205b fdbd 9b63 56bb
00000370: 1d3f d1bd 4c87 ca3d 71a4 243b 8882 f33d
00000380: 0db3 673d 60e2 5d3d f0cd 543d 1cae 063e
00000390: 3109 cabd ec84 c4bd 0c69 c23d e905 613d
000003a0: d8ca 0c3e c6df 1d3d 520f 2d3d e322 9c3d
000003b0: b0d0 a83d 978b a03d 3cae d6bd fa46 2b3d
000003c0: 9a24 9abd e5dc 093d dcc6 af3d f35c 86bd
000003d0: 28e4 c53d f46c d73d 96ef 0b3d 1f8b ecbd
000003e0: f7ee 30bc a989 cd3d 3b15 f43c 330f 003e
000003f0: 24df 3abc 6956 a4bd 6a59 9e3d c4da 443d

encoder.conv2.bias f4 [54]
0.082252175 0.12302052 -0.076849796 -0.08393881 -0.010784789 0.11642354 -0.01820154 -0.1327219
-0.055867136 -0.078127824 0.09808311 -0.09418998 0.1028213 0.04952205 -0.012912257 -0.030048046
0.0727709 -0.07372087 -0.060081035 0.122209765 -0.052034333 0.013475696 0.10727228 -0.10498937
0.024367513 0.004647809 -0.07414034 0.11802161 0.09533479 -0.01447377 -0.021529485 0.09255896
-0.045693077 0.07443393 -0.08719083 -0.10585973 0.091360845 0.09331108 -0.1024045 -0.036835056
0.06809531 0.07767134 0.07489546 0.09284354 -0.0602317 0.02677339 0.11472968 -0.10660961
0.08792024 0.032043077 -0.0043065306 0.1320384 -0.060284715 -0.0425988
00000000: d473 a83d 2ff2 fb3d 6d63 9dbd 1ce8 abbd
00000010: afb2 30bc 776f ee3d 651b 95bc 40e8 07be
00000020: f0d4 64bd 7b01 a0bd ccdf c83d ade6 c0bd
00000030: f993 d23d a2d7 4a3d ee8d 53bc 5227 f6bc
00000040: e908 953d f8fa 96bd 8817 76bd 1d49 fa3d
00000050: f421 55bd 2ac9 5c3c 92b1 db3d ab04 d7bd
00000060: 619e c73c a64c 983b e4d6 97bd 50b5 f13d
00000070: e33e c33d 6423 6dbc 9a5e b0bc 8d8f bd3d
00000080: aa28 3bbd d170 983d 1b91 b2bd fccc d8bd
00000090: 651b bb3d e119 bf3d 73b9 d1bd 5be0 16bd
000000a0: 8e75 8b3d 2712 9f3d ca62 993d c124 be3d
000000b0: 84b5 76bd de53 db3c 65f7 ea3d 2456 dabd
000000c0: 870f b43d 9a3f 033d cc1d 8dbb 1335 073e
000000d0: 1bed 76bd 147c 2ebd

encoder.rnn.weight_ih_l0 f4 [192, 54]
-0.09638717 0.101733685 -0.088204086 0.11451161 -0.100313894 0.067987494 -0.06587677 0.106969334
-0.08010405 -0.07749919 -0.03964447 -0.09701528 0.12220348 0.04978757 -0.064168006 -0.09795775
-0.044876248 0.022441812 -0.05304954 0.069302075 -0.05761034 0.040688768 0.086479664 -0.08473093
-0.094699465 -0.12298081 0.026779823 0.101470724 -0.08329781 -0.013582765 0.07477462 0.100674964
0.07212345 0.03657065 0.025452493 0.012675438 0.11259716 0.00090387976 0.052221198 -0.012701947
0.095643915 -0.1204195 -0.0433039 -0.1233679 0.032700133 -0.027956072 -0.10644757 -0.09902306
0.032103878 0.090318404 0.10276298 0.082316115 -0.097475536 0.10038089 0.12672272 0.015065996
-0.1383235 -0.10019565 -0.14523853 0.027684812 0.11220697 0.09238121 -0.068550274 -0.06356138
0.037931964 -0.07634821 -0.014938254 0.02830543 -0.059934035 0.05400192 -0.0098910555 0.10756839
-0.11208219 0.11551757 0.078593954 -0.11649241 0.03864699 -0.011434766 0.057753738 0.09934137
-0.07821118 -0.07231125 -0.083293356 0.078189276 -0.09495033 -0.08060328 0.10494823 0.07360297
0.080812186 0.09918077 -0.11267298 -0.023743885 -0.017805828 0.12263216 -0.023746062 -0.023994252
0.07876193 0.073194616 -0.090089954 -0.13659663 -0.046181347 0.05347723 0.12812322 0.062575474
0.07710256 0.048281983 -0.04079711 -0.015141425 0.081112914 0.007377977 0.00950074 0.052179523
0.11565483 0.033816442 -0.038158495 -0.08485986 -0.055331573 -0.040445 0.07161885 0.12017219
-0.04679766 0.12563539 -0.04650659 -0.05690902 0.015898686 -0.11568572 -0.08554543 -0.039186455
-0.07052557 0.084543474 -0.049278073 -0.08865521 -0.08636307 0.09782856 0.07318175 -0.09874332
-0.12430371 -0.053542756 0.090718746 0.086853184 0.061178297 0.05349138 0.046357036 0.111066625
-0.08230267 0.07012077 0.07138349 0.017306568 0.07618007 -0.029092526 -0.07771035 -0.047730874
-0.07359935 0.029206363 0.028911052 0.009841047 -0.025191367 0.028088728 -0.14396808 -0.09563018
-0.088210754 0.10507379 -0.116358444 0.056646895 0.08936791 -0.036082778 -0.0038775245 0.10052203
-0.10556756 -0.12957397 -0.015497338 -0.013174488 -0.054289993 0.012460162 0.07475809 0.07081485
0.036370885 0.085219175 -0.061357066 0.010303486 0.04312663 0.037398983 -0.04325286 0.1097794
-0.0982481 -0.050287697 -0.11095816 0.0112225525 -0.0945445 0.10136555 -0.086962484 0.036328588
0.10815818 0.12086487 0.044945646 0.043061096 0.025892986 0.07473593 -0.000809123 -0.097222365
0.11301086 -0.097422905 0.119496904 0.008858141 0.054623563 0.0009753023 0.055457056 0.097279094
-0.12219621 0.0687139 -0.045090713 -0.11646133 -0.103703275 0.008792901 0.1001831 -0.12210587
0.035716757 0.050427806 -0.11525145 0.029366111 -0.06347465 0.019007234 -0.04612628 0.10622096
-0.11371168 0.06582627 -0.04537705 0.035273362 0.010125049 -0.11923908 -0.05959143 0.0058501684
0.004940838 -0.063324705 0.07396737 -0.061040748 -0.06616154 0.050954793 -0.013167628 0.039387614
0.075457275 -0.046967104 0.03648324 0.09619528 0.02101261 0.10700721 0.054447282 0.08820696
0.09519968 0.07470929 0.028339379 0.06274598 0.07346691 0.009718867 0.020664692 -0.046152744
00000000: a366 c5bd c059 d03d 58a4 b4bd 1085 ea3d
00000010: 5f71 cdbd 073d 8b3d 66ea 86bd bd12 db3d
00000020: 980d a4bd e5b7 9ebd 3d62 22bd f2af c6bd
00000030: d145 fa3d 0dee 4b3d 846a 83bd 139e c8bd
00000040: 28d0 37bd e4d7 b73c 794a 59bd 3fee 8d3d
00000050: d2f8 6bbd 44a9 263d 401c b13d 6987 adbd
00000060: cbf1 c1bd 5ddd fbbd 5c61 db3c e2cf cf3d
00000070: 0b98 aabd 3f8a 5ebc 7023 993d ad2e ce3d
00000080: 76b5 933d 1bcb 153d bf81 d03c a4ac 4f3c
00000090: 5799 e63d 58f2 6c3a e5e5 553d d41b 50bc
000000a0: f5e0 c33d 809e f6bd 6e5f 31bd 4fa8 fcbd
000000b0: 93f0 053d 2204 e5bc 2f01 dabd 9acc cabd
000000c0: 5b7f 033d dbf8 b83d 6675 d23d 5a95 a83d
000000d0: 41a1 c7bd 7f94 cd3d 9ac3 013e 5ed7 763c
000000e0: ada4 0dbe 6033 cdbd 69b9 14be 42cb e23c
000000f0: c5cc e53d 5c32 bd3d 1664 8cbd 782c 82bd
00000100: 8c5e 1b3d 735c 9cbd 94bf 74bc cae0 e73c
00000110: 647d 75bd 1e31 5d3d 180e 22bc d14c dc3d
00000120: 598b e5bd 7a94 ec3d def5 a03d 9393 eebd
00000130: 4e4c 1e3d e358 3bbc 2f8f 6c3d 7d73 cb3d
00000140: 2f2d a0bd ec17 94bd b595 aabd b321 a03d
00000150: 5275 c2bd 5513 a5bd 19ef d63d 27bd 963d
00000160: dc80 a53d 4a1f cb3d 17c1 e6bd 8982 c2bc
00000170: 87dd 91bc 9226 fb3d 1a87 c2bc 988f c4bc
00000180: ef4d a13d 0fe7 953d 1581 b8bd fddf 0bbe
00000190: a728 3dbd f10a 5b3d bc32 033e 9227 803d
000001a0: f2e7 9d3d 54c3 453d df1a 27bd bd13 78bc
000001b0: 871e a63d f5c2 f13b fea8 1b3c 32ba 553d
000001c0: 71dc ec3d 1c83 0a3d 154c 1cbd 02cb adbd
000001d0: 5ca3 62bd a8a9 25bd e7ac 923d d61c f63d
000001e0: e7ae 3fbd 90a6 003e b27d 3ebd 6f19 69bd
000001f0: f63d 823c a3ec ecbd 7132 afbd fa81 20bd
00000200: b66f 90bd 2125 ad3d ced7 49bd dd90 b5bd
00000210: 1fdf b0bd 575a c83d 50e0 953d f039 cabd
00000220: f292 febd a64f 5bbd c0ca b93d 15e0 b13d
00000230: 1896 7a3d c719 5b3d e0e0 3d3d e676 e33d
00000240: 4d8e a8bd 7a9b 8f3d 8231 923d 81c6 8d3c
00000250: 4c04 9c3d 7353 eebc 9b26 9fbd 7381 43bd
00000260: 42bb 96bd 2f42 ef3c dfd6 ec3c 583c 213c
00000270: 205e cebc 551a e63c 5e6c 13be c1d9 c3bd
00000280: d7a7 b4bd ed30 d73d 564d eebd 9306 683d
00000290: 8606 b73d 89cb 13bd 111e 7ebb 7ede cd3d
000002a0: ce33 d8bd 0aaf 04be 8ce8 7dbc cfd9 57bc
000002b0: 2f5f 5ebd b525 4c3c c51a 993d 6007 913d
000002c0: a3f9 143d 6487 ae3d 8c51 7bbd f4cf 283c
000002d0: 8da5 303d ad2f 193d e929 31bd 06d4 e03d
000002e0: 4d36 c9bd 79fa 4dbd 083e e3bd ccde 373c
000002f0: 8ca0 c1bd be98 cf3d 6319 b2bd 49cd 143d
00000300: 0982 dd3d 0088 f73d ed18 383d d560 303d
00000310: 871d d43c 270f 993d 531b 54ba 851c c7bd
00000320: 3d72 e73d a985 c7bd cbba f43d bc21 113c
00000330: f5bc 5f3d 6eab 7f3a f026 633d 433a c73d
00000340: 0242 fabd e0b9 8c3d 0ab1 38bd 4783 eebd
00000350: 6262 d4bd 1a10 103c cc2c cd3d a412 fabd
00000360: bc4b 123d 638d 4e3d f408 ecbd 3391 f03c
00000370: fffe 81bd 0fb5 9b3c e9ee 3cbd 608a d93d
00000380: abe1 e8bd eccf 863d 49dd 39bd cd7a 103d
00000390: 89e3 253c 9e33 f4bd 2516 74bd c5b2 bf3b
000003a0: c1e6 a13b 62b0 81bd 347c 973d dd05 7abd
000003b0: b47f 87bd f9b5 503d 09bd 57bc e854 213d
000003c0: 5889 9a3d 9460 40bd 736f 153d 0802 c53d
000003d0: a322 ac3c 9926 db3d 1d04 5f3d daa5 b43d
000003e0: 0df8 c23d 2f01 993d fc27 e83c f780 803d
000003f0: d275 963d e23b 1f3c 0049 a93c a90a 3dbd

encoder.rnn.weight_hh_l0 f4 [192, 64]
-0.11031863 0.117736 -0.07973405 0.11859383 -0.0046900613 -0.0036948523 0.065146744 -0.055494063
0.0047539775 -0.049698796 -0.090880066 0.08228186 0.08773992 0.060429685 0.118636474 0.061145037
0.10212899 -0.032330196 0.09034583 0.035019208 0.0033660159 0.08948507 -0.10102648 -0.007752888
-0.06039547 0.12674984 -0.018329222 0.040692195 0.092033535 0.061502393 -0.0457354 0.006671048
0.08097088 -0.04931298 0.016025458 -0.08991462 0.029533211 0.082802676 0.005393403 0.023316683
0.101932675 0.007465859 -0.04410136 0.10088725 -0.0867846 0.055010635 0.077727176 0.0017159188
-0.12602916 0.05271123 0.0860141 -0.010498938 0.08064014 0.04591477 0.024370596 0.11904043
-0.06350249 0.016554434 -0.09793166 0.105216146 0.03665718 0.114451654 -0.09597061 0.11255877
0.069973275 0.09859928 -0.06113413 -0.09509443 -0.030891906 0.091719694 0.120882854 0.0019748132
0.0042536953 -0.0029495035 -0.0051796776 0.015139737 0.06552788 -0.035457343 -0.088883854 0.007254423
0.07663622 -0.09133022 0.12508206 0.036273595 0.05028752 0.06701449 0.0862899 0.119518586
-0.049427956 0.02373691 0.085357375 -0.11216625 0.06460816 -0.11287133 -0.08947922 -0.081606686
-0.09595304 -0.09788308 0.07640896 -0.1070992 -0.07306635 -0.10890861 -0.039033215 -0.008475978
0.050535984 -0.07470858 0.015127946 0.06931227 0.09319 -0.015145435 -0.074636 0.067822345
-0.03672133 -0.11029714 -0.039006535 -0.030497016 0.033923555 0.10717899 0.08894867 -0.0643832
0.11076853 0.0561363 0.030587507 -0.08282755 -0.011753194 0.034119282 -0.041914117 0.052560344
0.07695823 -0.06660107 0.10488093 0.0005303292 0.010207548 -0.029357161 0.016435143 0.0027139892
-0.058735766 -0.0033450176 -0.058871105 0.12762345 -0.06539803 -0.09749826 0.123339035 0.049075767
-0.11122377 0.10654868 -0.13231263 -0.038493987 -0.045162674 -0.0071101114 0.004894915 -0.06599537
-0.06314473 -0.093229994 0.07738435 0.03837158 0.02538222 0.0036847861 0.028585706 -0.016044218
-0.03819475 0.13731687 -0.039275516 -0.048265662 0.013768425 0.05639739 -0.12686846 0.057650927
-0.02205345 -0.034679446 -0.008282059 -0.008468851 -0.13259505 0.0823735 0.025528962 -0.053763404
0.046642855 -0.06757434 0.064306065 -0.037680272 0.015822822 0.0123090325 -0.029215958 -0.085656844
0.051800843 0.021140799 -0.079695866 -0.027777528 0.028309869 -0.084266596 0.0492595 0.06032537
-0.119890615 0.020803949 -0.10004415 -0.114671975 0.112337045 0.06557161 0.09288559 0.11219475
-0.06602764 -0.05622023 -0.0036028076 0.053132344 0.010090819 -0.008678704 0.12258182 -0.06803234
0.054377094 0.049646612 -0.063820444 0.07417214 0.088741854 -0.028053729 -0.08828759 0.0743794
0.09196481 0.045413304 0.01291644 0.05840439 0.040742934 -0.0408467 -0.08938379 -0.05223389
0.047853246 -0.047375992 0.050598904 -0.06032053 -0.08997343 0.08686636 -0.08174301 0.041267067
0.10182536 0.010415203 0.07947147 -0.032524824 -0.10573445 -0.05858865 -0.04151337 -0.06682645
-0.076709345 0.052915715 0.11552405 0.08240582 0.0378575 -0.10313965 -0.023754613 0.04764702
0.10769391 -0.06311204 0.06637137 0.06943952 -0.03062075 -0.11188887 0.060917165 0.0677627
00000000: bcee e1bd 921f f13d 9b4b a3bd 52e1 f23d
00000010: 16af 99bb 5625 72bb a86b 853d be4d 63bd
00000020: 41c7 9b3b f790 4bbd 541f babd 6483 a83d
00000030: fdb0 b33d 1e85 773d aef7 f23d 3873 7a3d
00000040: 0129 d13d ab6c 04bd 3c07 b93d 4d70 0f3d
00000050: 6098 5c3b f343 b73d f9e6 cebd f00b febb
00000060: 3e61 77bd b6ca 013e 2a27 96bc dcac 263d
00000070: 147c bc3d efe9 7b3d 0b55 3bbd ce98 da3b
00000080: 10d4 a53d 68fc 49bd d247 833c 2825 b8bd
00000090: a2ef f13c 7394 a93d 25bb b03b a102 bf3c
000000a0: 14c2 d03d 2aa4 f43b a1a3 34bd f99d ce3d
000000b0: 20bc b1bd d552 613d 6d2f 9f3d aee8 e03a
000000c0: ca0d 01be bbe7 573d 2928 b03d bd03 2cbc
000000d0: a826 a53d 2011 3c3d d8a4 c73c 78cb f33d
000000e0: 980d 82bd 2a9d 873c 6590 c8bd 907b d73d
000000f0: d725 163d a165 ea3d 3d8c c4bd 3685 e63d
00000100: 264e 8f3d 6bee c93d c867 7abd dec0 c2bd
00000110: 0611 fdbc 89d7 bb3d 6e91 f73d de6b 013b
00000120: 9562 8b3b 754c 41bb 49ba a9bb a90c 783c
00000130: 7b33 863d b83b 11bd bd08 b6bd 83b6 ed3b
00000140: 73f3 9c3d 570b bbbd 8315 003e 9f93 143d
00000150: 49fa 4d3d e53e 893d c2b8 b03d 29c6 f43d
00000160: f874 4abd e973 c23c d9cf ae3d 6bb7 e5bd
00000170: 4851 843d 1529 e7bd e240 b7bd 6821 a7bd
00000180: 0783 c4bd ed76 c8bd 4d7c 9c3d d356 dbbd
00000190: cfa3 95bd 7a0b dfbd 4be1 1fbd d4de 0abc
000001a0: d2fe 4e3d d000 99bd 34db 773c 97f3 8d3d
000001b0: 66da be3d 8f24 78bc c2da 98bd 71e6 8a3d
000001c0: 1b69 16bd 78e3 e1bd 51c5 1fbd e1d4 f9bc
000001d0: 6df3 0a3d a980 db3d b82a b63d 57db 83bd
000001e0: 9cda e23d 2def 653d a792 fa3c 7ea1 a9bd
000001f0: 7890 40bc a9c0 0b3d 23ae 2bbd 8449 573d
00000200: 479c 9d3d 2466 88bd d0cb d63d ca05 0b3a
00000210: 8f3d 273c 6e7e f0bc fea2 863c 2fdd 313b
00000220: ea94 70bd 1538 5bbb d422 71bd b9af 023e
00000230: 67ef 85bd 2bad c7bd 2d99 fc3d ac03 493d
00000240: 4ac9 e3bd 3236 da3d f67c 07be dfab 1dbd
00000250: 7ffc 38bd f0fb e8bb 8665 a03b 9528 87bd
00000260: 0652 81bd 5eef bebd b07b 9e3d 852b 1d3d
00000270: 60ee cf3c 747c 713b 922c ea3c 2a6f 83bc
00000280: 1972 1cbd cb9c 0c3e 5ddf 20bd 37b2 45bd
00000290: f694 613c f300 673d cee9 01be 6123 6c3d
000002a0: 70a9 b4bc 090c 0ebd 79b1 07bc f0c0 0abc
000002b0: ffc6 07be 70b3 a83d 1d22 d13c 0437 5cbd
000002c0: 940c 3f3d 6a64 8abd e6b2 833d a156 1abd
000002d0: dd9e 813c d3ab 493c 4e56 efbc db6c afbd
000002e0: 1f2d 543d 782f ad3c 9637 a3bd b38d e3bc
000002f0: 19ea e73c f793 acbd 54c4 493d bc17 773d
00000300: 3689 f5bd 0b6d aa3c f3e3 ccbd 24d9 eabd
00000310: f710 e63d 694a 863d cd3a be3d 5cc6 e53d
00000320: 8039 87bd 2f47 66bd 151d 6cbb 4da1 593d
00000330: f653 253c 1f31 0ebc 2d0c fb3d 8a54 8bbd
00000340: 84ba 5e3d 3f5a 4b3d 4bb4 82bd 90e7 973d
00000350: 4abe b53d efd0 e5bc 20d0 b4bd 3a54 983d
00000360: 0c58 bc3d 4d03 3a3d 7a9f 533c 7139 6f3d
00000370: 10e2 263d df4e 27bd d90e b7bd 34f3 55bd
00000380: c401 443d 540d 42bd cc40 4f3d a912 77bd
00000390: fd43 b8bd fde6 b13d e168 a7bd a807 293d
000003a0: d089 d03d 87a4 2a3c f0c1 a23d c038 05bd
000003b0: 4e8b d8bd a7fa 6fbd ec09 2abd 4edc 88bd
000003c0: ca19 9dbd 26be 583d e097 ec3d 62c4 a83d
000003d0: 7710 1b3d e13a d3bd 0999 c2bc 8629 433d
000003e0: a08e dc3d e340 81bd b6ed 873d 4f36 8e3d
000003f0: 5ed8 fabc fe25 e5bd 4784 793d 2cc7 8a3d

encoder.rnn.bias_ih_l0 f4 [192]
0.11986641 -0.0897968 -0.10284093 9.18324e-05 0.02517595 -0.02061927 -0.051220916 0.0142518645
-0.009228515 -0.037729777 0.051689867 -0.06450182 -0.12727699 -0.10706602 0.046365142 -0.081079364
-0.10667471 -0.046370495 0.089501254 0.083623245 0.10354227 -0.09179156 -0.09023779 0.07118921
0.1292157 -0.0033425358 -0.116601266 0.12689464 0.09184932 0.09263374 0.040695194 0.051748395
-0.0139615275 0.07507587 0.05602746 -0.0666034 -0.04673978 -0.025429368 -0.011046717 0.09229193
0.0829362 -0.015354396 -0.045698117 -0.015601882 0.119504206 0.14291485 0.010729535 -0.004242209
0.07233871 -0.086427115 -0.053828377 0.12669224 0.13158056 0.0073462375 -0.10249158 0.08697049
0.060227353 0.005322213 0.12330236 -0.08673736 -0.0018106855 0.078474276 -0.04248318 -0.1085629
-0.00054833683 0.077741995 -0.0547722 0.042248923 -0.08747056 -0.05706503 0.020509312 0.13788064
0.05472113 0.04231166 -0.017659783 0.09955279 0.0965762 0.103909664 0.012584824 -0.10604043
-0.07044192 -0.10818486 -0.035991058 0.027671788 -0.003415856 -0.050297137 0.07985154 0.098410144
-0.10124795 0.005145334 0.07201468 -0.0074396953 -0.07519496 0.05247098 0.058158435 -0.075274855
-0.11830729 0.07936959 -0.15044361 0.013532482 0.11219714 0.08969855 0.02580472 -0.045200024
0.008487937 -0.048669934 -0.091753796 -0.07408617 -0.046148617 0.03311423 0.090629 -0.020562084
-0.08165775 0.03719271 0.09420495 0.016488673 -0.029062156 -0.093068935 -0.10072405 0.010193962
0.056965023 0.03182971 0.030888228 0.03015774 -0.051703624 -0.04651984 -0.060958076 -0.015611105
0.072863154 -0.08598482 -0.12986225 -0.023501435 -0.055265035 -0.106410876 -0.07935549 -0.016666336
-0.06505732 0.08882471 -0.030099932 -0.023786256 0.070018664 -0.11266032 0.03652034 -0.02342154
0.10159714 0.012347669 -0.048060406 -0.09086123 -0.08751296 -0.0631128 0.11030371 0.10355598
0.10723126 -0.05145018 0.04473342 -0.08290489 -0.0362714 0.11027674 -0.08180273 -0.12975489
-0.0050479174 0.026091924 0.09502743 0.052650146 0.021657007 0.122197345 0.10499795 -0.06920269
-0.1132518 -0.116534606 0.030505553 0.037210822 -0.030808872 0.0982898 0.030278217 0.016447773
-0.015828528 0.08069044 0.04245087 -0.095927246 -0.037528243 0.054541986 0.042205326 -0.025194822
0.11874524 0.10389286 -0.06071062 0.100273766 0.09440441 0.08370562 -0.034591 0.0629505
00000000: 857c f53d 62e7 b7bd 449e d2bd 2596 c038
00000010: cb3d ce3c bee9 a8bc 06cd 51bd a780 693c
00000020: 3333 17bc 8a8a 1abd c1b8 533d 8819 84bd
00000030: e654 02be 6e45 dbbd 60e9 3d3d f00c a6bd
00000040: 4578 dabd fdee 3dbd 6f4c b73d aa42 ab3d
00000050: f80d d43d 37fd bbbd 97ce b8bd a6cb 913d
00000060: 1f51 043e 720e 5bbb a5cc eebd abf0 013e
00000070: 7f1b bc3d c2b6 bd3d 01b0 263d 20f6 533d
00000080: e4be 64bc 61c1 993d 0d7d 653d 5d67 88bd
00000090: 3672 3fbd 4051 d0bc 4afd 34bc 8d03 bd3d
000000a0: 74da a93d 0191 7bbc f32d 3bbd 099f 7fbc
000000b0: 9fbe f43d 4558 123e eeca 2f3c 3a02 8bbb
000000c0: 5126 943d b300 b1bd 257b 5cbd 9cbb 013e
000000d0: 0ebd 063e b5b8 f03b 1be7 d1bd 961d b23d
000000e0: f5b0 763d f565 ae3b f385 fc3d 5ba3 b1bd
000000f0: 8654 edba 1fb7 a03d d802 2ebd 3a56 debd
00000100: 43be 0fba 3237 9f3d d058 60bd 350d 2d3d
00000110: c423 b3bd 05bd 69bd 2503 a83c 9530 0d3e
00000120: 4323 603d fe4e 2d3d 40ab 90bc 55e2 cb3d
00000130: bec9 c53d 97ce d43d 9430 4e3c ba2b d9bd
00000140: da43 90bd 0690 ddbd 5c6b 13bd f2af e23c
00000150: 8edc 5fbb 5f04 4ebd 3489 a33d 428b c93d
00000160: 165b cfbd 319a a83b 6f7c 933d b0c8 f3bb
00000170: d1ff 99bd cfeb 563d 8a37 6e3d b429 9abd
00000180: 184b f2bd 868c a23d e40d 1abe 58b7 5d3c
00000190: 9dc7 e53d e0b3 b73d 6c64 d33c a923 39bd
000001a0: fd10 0b3c 205a 47bd 6ae9 bbbd 7dba 97bd
000001b0: 5506 3dbd c9a2 073d b29b b93d d171 a8bc
000001c0: 2e3c a7bd 6257 183d 86ee c03d 4113 873c
000001d0: c213 eebc ed9a bebd 6948 cebd 9304 273c
000001e0: 2854 693d df5f 023d 4f09 fd3c 5d0d f73c
000001f0: 2ec7 53bd 968b 3ebd 2daf 79bd b8c5 7fbc
00000200: 4739 953d cf18 b0bd 9cfa 04be 1586 c0bc
00000210: 975d 62bd f2ed d9bd 2285 a2bd d787 88bc
00000220: c63c 85bd bbe9 b53d 2294 f6bc 65db c2bc
00000230: f265 8f3d 74ba e6bd 5a96 153d 88de bfbc
00000240: 2912 d03d e14d 4a3c fdda 44bd 7415 babd
00000250: ff39 b3bd 4941 81bd e9e6 e13d 2815 d43d
00000260: 109c db3d 6dbd 52bd 643a 373d 0aca a9bd
00000270: 5291 14bd c5d8 e13d 3188 a7bd 77de 04be
00000280: 0069 a5bb bbbe d53c be9d c23d aea7 573d
00000290: 096a b13c 9a42 fa3d 2a09 d73d 24ba 8dbd
000002a0: 8ff0 e7bd b2a9 eebd c8e6 f93c 606a 183d
000002b0: e362 fcbc 2a4c c93d 060a f83c 7bbd 863c
000002c0: d4aa 81bc 0841 a53d f7e0 2d3d 8175 c4bd
000002d0: 37b7 19bd 6b67 5f3d 7edf 2c3d 5f65 cebc
000002e0: b430 f33d c8c5 d43d b3ab 78bd 555c cd3d
000002f0: 1957 c13d da6d ab3d 4baf 0dbd 31ec 803d

encoder.rnn.bias_hh_l0 f4 [192]
-0.07401299 0.07639669 -0.014289764 0.06658812 0.079091586 0.037837252 0.03974407 -0.05824959
-0.093995206 -0.0918574 -0.030394005 -0.1057962 -0.043509215 -0.0069770357 -0.116075695 0.12695089
0.0005891432 0.07174122 -0.10386338 0.080245316 -0.071118325 0.024423584 0.09007279 0.11068688
-0.10148266 -0.04775351 -0.052592967 0.051255576 -0.068047285 0.085984334 -0.09752208 0.002254019
0.0064268527 -0.07880581 0.0041165804 -0.09389465 -0.06860255 -0.12415508 0.032857332 -0.040227234
-0.023847107 0.0605712 0.06625253 0.055755526 0.022361929 0.1401967 -0.024685057 0.108507015
-0.06993442 -0.11469791 0.0041851164 -0.029798592 -0.071416266 -0.06887717 -0.016451148 0.011126434
-0.0025742967 -0.03572676 0.10561874 0.07897601 -0.058893267 -0.08466267 0.0132869305 0.04600604
0.10139344 0.06689028 0.014143119 0.018835215 -0.10339369 0.073991954 0.038799424 0.10711301
-0.0699616 -0.13455926 0.029981948 -0.0291687 -0.06389471 0.11183044 0.047193576 0.009973094
0.10765177 -0.09556286 0.11463492 0.10404531 -0.10319302 0.02105113 0.08276947 0.02756496
-0.072671086 -0.06205879 -0.08664324 0.070457324 -0.07238996 0.026293052 -0.07526167 -0.058741145
0.09790194 -0.090764984 -0.02553464 0.055379618 -0.07203487 -0.038273588 -0.0064148568 0.1142945
0.010973375 0.0644765 -0.08126661 -0.1393564 0.0808863 0.063130274 0.07592565 0.017591914
0.052870568 0.04715844 -0.054323778 -0.086410515 0.12131946 -0.07401369 0.008733922 -0.09458974
0.10964062 -0.008501223 0.009674778 -0.0027730197 0.04083468 0.11152422 0.11592174 -0.07008235
-0.028975066 -0.061161004 0.0451342 0.05205272 -0.12162782 -0.09944459 -0.03211755 -0.007615362
0.08789086 0.03628917 0.07808742 -0.09142782 0.09613977 0.108504236 0.06751745 0.007468732
0.11039624 -0.0068932856 -0.014522006 -0.019484835 0.032853417 0.04038285 0.101759076 0.09300748
0.046564378 0.025948832 0.03638764 0.09384267 -0.044752408 0.08239542 -0.057382803 -0.058991555
0.040993296 -0.07720514 -0.055769898 0.038952366 -0.0046072793 0.07378318 -0.0746356 -0.10900787
0.01183138 0.050661378 0.012194369 -0.083290294 -0.07876521 0.05512758 0.02474652 0.07056444
-0.06319989 0.09840878 -0.0039700093 0.024493277 -0.08210087 -0.016214093 -0.032424957 -0.096999645
0.0768529 0.043558486 -0.08256608 0.036317375 -0.028852243 -0.12492384 0.031109288 -0.0169294
00000000: 1f94 97bd de75 9c3d 9d1f 6abc 5a5f 883d
00000010: c5fa a13d 3cfb 1a3d aeca 223d 1f97 6ebd
00000020: 8f80 c0bd bc1f bcbd d9fc f8bc aeab d8bd
00000030: b836 32bd 9e9f e4bb 18b9 edbd 6aff 013e
00000040: bb70 1a3a 10ed 923d 53b6 d4bd a857 a43d
00000050: 7ca6 91bd f813 c83c 1578 b83d ceaf e23d
00000060: 24d6 cfbd 2f99 43bd b96b 57bd 5ef1 513d
00000070: 605c 8bbd 8e18 b03d a8b9 c7bd 2ab8 133b
00000080: 5998 d23b f164 a1bd 61e4 863b d74b c0bd
00000090: 7e7f 8cbd 0545 febd 6995 063d 50c5 24bd
000000a0: 025b c3bc 8219 783d 68af 873d e85f 643d
000000b0: 5d30 b73c b98f 0f3e 5138 cabc ed38 de3d
000000c0: c739 8fbd bde6 eabd 4d23 893b 2d1c f4bc
000000d0: b142 92bd 790f 8dbd 8fc4 86bc a64b 363c
000000e0: 88b5 28bb 3956 12bd a34e d83d 2dbe a13d
000000f0: 113a 71bd 9f63 adbd 6db1 593c d470 3c3d
00000100: 5da7 cf3d c5fd 883d 8ab8 673c 4f4c 9a3c
00000110: 12c0 d3bd 1889 973d 25ec 1e3d 115e db3d
00000120: 0748 8fbd e7c9 09be b49c f53c 33f3 eebc
00000130: 3bdb 82bd 5c07 e53d 0d4e 413d 3066 233c
00000140: 8878 dc3d 76b6 c3bd b7c5 ea3d b515 d53d
00000150: dd56 d3bd 6b73 ac3c 0a83 a93d e9cf e13c
00000160: 94d4 94bd 5c31 7ebd 0372 b1bd ee4b 903d
00000170: 3041 94bd 8764 d73c ca22 9abd 8e9a 70bd
00000180: d080 c83d fee2 b9bd 052e d1bc bdd5 623d
00000190: 0587 93bd c4c4 1cbd b833 d2bb 3c13 ea3d
000001a0: acc9 333c 410c 843d 1c6f a6bd 72b3 0ebe
000001b0: b7a7 a53d 724a 813d e87e 9b3d eb1c 903c
000001c0: cf8e 583d 3529 413d 9c82 5ebd fff7 b0bd
000001d0: 5676 f83d 7d94 97bd b918 0f3c 44b8 c1bd
000001e0: 438b e03d b748 0bbc f682 1e3c 8dbb 35bb
000001f0: 4442 273d cf66 e43d 6168 ed3d 5687 8fbd
00000200: 1e5d edbc f683 7abd a4de 383d 3c35 553d
00000210: 0218 f9bd 9ba9 cbbd b18d 03bd 498a f9bb
00000220: 2000 b43d f4a3 143d 4cec 9f3d 823e bbbd
00000230: ede4 c43d 7837 de3d 9746 8a3d 44bc f43b
00000240: 6d17 e23d 12e1 e1bb b5ed 6dbc a99e 9fbc
00000250: 4e91 063d 7d68 253d 1067 d03d b57a be3d
00000260: 4aba 3e3d a592 d43c 350b 153d 9630 c03d
00000270: 4d4e 37bd eebe a83d 3b0a 6bbd 21a1 71bd
00000280: 96e8 273d ba1d 9ebd fa6e 64bd 848c 1f3d
00000290: a9f8 96bb a31b 973d 8dda 98bd 853f dfbd
000002a0: 68d8 413c 4e82 4f3d e4ca 473c 1a94 aabd
000002b0: a84f a1bd 75cd 613d 37b9 ca3c 1784 903d
000002c0: f26e 81bd 8b8a c93d da16 82bb 20a6 c83c
000002d0: 8024 a8bd 6bd3 84bc 08d0 04bd c0a7 c6bd
000002e0: 0e65 9d3d 626a 323d 6818 a9bd 87c1 143d
000002f0: 8a5b ecbc 12d8 ffbd e8d8 fe3c 86af 8abc

encoder.rnn.weight_ih_l1 f4 [192, 64]
0.079497576 -0.00465778 -0.07441438 -0.043233845 0.045735996 -0.08545245 0.011788464 -0.09558716
-0.08622314 -0.024675995 0.09677446 -0.054737125 -0.07262183 -0.047182243 -0.08893836 -0.013618787
-0.10942674 0.04586066 -0.12109006 -0.11628646 -0.1135419 -0.078366846 0.02891644 0.09022005
-0.071676955 0.07552315 -0.106894195 -0.098340034 0.045830384 -0.020724514 -0.057302225 0.014158079
0.0034580873 0.09886341 0.0449656 -0.0029976894 -0.10502421 -0.0460327 -0.10192362 -0.021701548
-0.03047557 -0.024640521 -0.09146735 0.057515793 0.051831644 -0.019403296 -0.049578495 0.030861255
0.070936285 0.04298565 0.007428635 0.019592166 0.018559273 0.010553423 -0.035351325 -0.0819496
0.07665298 0.06807434 -0.11817346 0.012651149 -0.086458534 0.117487885 -0.0054216734 -0.06385521
-0.07428821 0.06405453 -0.03872552 -0.010468959 0.1099662 -0.046806116 -0.07553981 0.03116905
0.011155169 -0.081561774 0.03953055 -0.084651135 -0.074446686 -0.09941431 -0.032178957 -0.007862191
-0.049170393 -0.06873542 -0.047195584 0.026492292 0.005687671 -0.121663176 -0.101502076 0.09679803
0.018246459 0.048330154 0.0010691985 -0.11776242 -0.123504676 0.08145436 -0.03182298 -0.056126058
-0.12589139 0.06663631 0.0073321112 -0.09790066 0.019910123 -0.07429246 -0.029770812 -0.07315118
-0.04183367 -0.028261637 -0.105079494 -0.08861395 -0.12257896 0.09831109 -0.069766685 0.091357805
0.085384145 -0.06588954 0.06739709 0.005283449 -0.01082366 0.066905096 0.08785091 -0.018679118
0.12556241 -0.071030855 0.08618941 0.0729239 0.10718738 -0.013067035 0.11610313 0.10621746
-0.0866285 0.11681881 -0.08750088 0.12682821 -0.091420315 0.015151919 -0.107781135 0.04499614
-0.06716185 -0.05161534 -0.044211473 -0.10716788 -0.023049489 -0.04212858 -0.09380303 -0.0527357
-0.041887723 0.1241316 0.054768797 -0.011019375 0.007637857 0.04040169 0.008899119 -0.06503554
-0.098854505 -0.07857724 0.030727651 -0.0070930673 -0.08037998 0.0739814 0.07847141 0.02366233
0.095144354 -0.08135679 -0.07670014 0.04173687 0.11225449 0.018240009 -0.091028616 -0.018109972
-0.02523521 -0.07542689 -0.044278298 -0.036708727 0.01726766 -0.024891136 0.11994362 -0.08080061
0.018567428 0.09939338 0.0033097893 -0.11333615 0.0032594544 0.051680554 -0.08322178 0.06959619
0.00041610887 -0.07723428 0.031093815 -0.05869744 0.12956636 -0.11059887 -0.08835625 -0.0005734726
0.008413482 -0.029749291 -0.039411716 -0.062352136 0.08744042 0.11776214 -0.07069453 -0.013244644
-0.10601348 0.118245445 -0.055784136 -0.07229266 -0.05557774 0.025641726 0.050099086 -0.09199188
-0.022679597 0.072099365 0.029147707 -0.12072829 0.059074484 0.114564545 0.008022103 0.12980373
0.095205255 -0.10057336 -0.045227986 0.11780408 -0.04659688 0.11560276 -0.099477984 0.093193054
0.024078676 -0.114224695 -0.1279126 -0.10387143 0.10262072 0.03526453 0.04650492 -0.048171423
-0.10721779 0.09178973 -0.069426574 -0.010406891 -0.015972747 0.09806964 0.05706265 -0.020796258
0.12098668 0.11209088 -0.01637126 0.09607918 -0.05132116 -0.1012905 0.11649023 -0.007615098
-0.008089422 -0.076181 -0.04191152 -0.057200372 0.011910964 -0.113228284 0.048000384 0.029401137
00000000: a0cf a23d 4aa0 98bb 9166 98bd f915 31bd
00000010: ab55 3b3d b201 afbd 6724 413c 33c3 c3bd
00000020: c295 b0bd 5025 cabc b031 c63d 0934 60bd
00000030: c1ba 94bd 2b42 41bd 5125 b6bd 5521 5fbc
00000040: 201b e0bd 63d8 3b3d 11fe f7bd 9827 eebd
00000050: a888 e8bd cc7e a0bd 2ce2 ec3c 4ac5 b83d
00000060: 5ecb 92bd e2ab 9a3d 58eb dabd 8066 c9bd
00000070: a4b8 3b3d 75c6 a9bc bdb5 6abd 4af7 673c
00000080: 14a1 623b e678 ca3d d92d 383d e274 44bb
00000090: ef16 d7bd c98c 3cbd 55bd d0bd 72c7 b1bc
000000a0: e7a7 f9bc ebda c9bc 3c53 bbbd ae95 6b3d
000000b0: 6b4d 543d a9f3 9ebc d212 4bbd bed0 fc3c
000000c0: 0b47 913d b911 303d e86b f33b c07f a03c
000000d0: 9e09 983c 44e8 2c3c 8dcc 10bd 31d5 a7bd
000000e0: 3dfc 9c3d 8f6a 8b3d ed04 f2bd c446 4f3c
000000f0: 2c11 b1bd 7d9d f03d 4ba8 b1bb 85c6 82bd
00000100: 6b24 98bd 052f 833d a79e 1ebd ff85 2bbc
00000110: f635 e13d c5b7 3fbd 9eb4 9abd 3c56 ff3c
00000120: 2cc4 363c dc09 a7bd c9ea 213d 935d adbd
00000130: 8177 98bd bb99 cbbd 15ce 03bd 6bd0 00bc
00000140: e566 49bd 28c5 8cbd 2850 41bd 5d06 d93c
00000150: a45f ba3b 8b2a f9bd 52e0 cfbd 0c3e c63d
00000160: 9979 953c d7f5 453d 5924 8c3a 6c2d f1bd
00000170: 05f0 fcbd 8bd1 a63d d058 02bd 70e4 65bd
00000180: ace9 00be 9e78 883d 3542 f03b 2480 c8bd
00000190: 8e1a a33c a526 98bd ebe1 f3bc 49d0 95bd
000001a0: c859 2bbd f384 e7bc eb33 d7bd 3b7b b5bd
000001b0: ae0a fbbd 5357 c93d d6e1 8ebd cd19 bb3d
000001c0: e2dd ae3d 18f1 86bd 7c07 8a3d c820 ad3b
000001d0: b855 31bc 8a05 893d 2eeb b33d f304 99bc
000001e0: 6f93 003e a078 91bd 1384 b03d 2059 953d
000001f0: 0f85 db3d 1e17 56bc 7ac7 ed3d 8a88 d93d
00000200: 486a b1bd b33e ef3d a933 b3bd 41df 013e
00000210: 933a bbbd c13f 783c 5bbc dcbd df4d 383d
00000220: 278c 89bd 9b6a 53bd 1717 35bd d57a dbbd
00000230: 48d2 bcbc 058f 2cbd ce1b c0bd 6401 58bd
00000240: 7692 2bbd b538 fe3d 3f55 603d 9c8a 34bc
00000250: fd46 fa3b 3e7c 253d 9ccd 113c 5a31 85bd
00000260: 3b74 cabd 1bed a0bd 8eb8 fb3c f66c e8bb
00000270: 429e a4bd 8f83 973d 9eb5 a03d 81d7 c13c
00000280: 0bdb c23d 649e a6bd f714 9dbd 48f4 2a3d
00000290: afe5 e53d 126c 953c 366d babd 5d5b 94bc
000002a0: 12ba cebc 6a79 9abd 295d 35bd e45b 16bd
000002b0: e874 8d3c 7fe8 cbbc 00a5 f53d ca7a a5bd
000002c0: b81a 983c c28e cb3d 0de9 583b c91c e8bd
000002d0: 929c 553b fdae 533d 2e70 aabd 7288 8e3d
000002e0: 3029 da39 022d 9ebd 75b8 fe3c ba6c 70bd
000002f0: 0bad 043e a981 e2bd 1ff4 b4bd 1855 16ba
00000300: b4d8 093c c9b4 f3bc 2e6e 21bd f464 7fbd
00000310: f713 b33d 472d f13d 4bc8 90bd 1000 59bc
00000320: 981d d9bd ab2a f23d e87d 64bd 2d0e 94bd
00000330: 7ca5 63bd 990e d23c b334 4d3d 3d66 bcbd
00000340: 90ca b9bc d5a8 933d 2cc7 ee3c 6540 f7bd
00000350: 16f8 713d d1a0 ea3d 246f 033c 45eb 043e
00000360: f9fa c23d 68f9 cdbd fb40 39bd 4443 f13d
00000370: 5fdc 3ebd 24c1 ec3d 1dbb cbbd 00dc be3d
00000380: a540 c53c a3ee e9bd 85fb 02be 8bba d4bd
00000390: d02a d23d 8a71 103d f17b 3e3d 664f 45bd
000003a0: 0095 dbbd 41fc bb3d 852f 8ebd aa81 2abc
000003b0: 47d9 82bc bcd8 c83d 86ba 693d ea5c aabc
000003c0: ddc7 f73d e78f e53d 051d 86bc 29c5 c43d
000003d0: 2336 52bd 6571 cfbd 6e92 ee3d 1288 f9bb
000003e0: 7f89 04bc c904 9cbd 6aab 2bbd f04a 6abd
000003f0: 3426 433c 3be4 e7bd 0d9c 443d a7da f03c

encoder.rnn.weight_hh_l1 f4 [192, 64]
-0.11471158 -0.0620114 -0.039138097 -0.024543345 -0.09020609 -0.025927195 -0.055784415 -0.122246034
-0.07521763 -0.083356485 0.108178295 0.023749856 -0.079749525 0.10639631 -0.038081743 -0.045569304
0.094573304 -0.0053917873 0.056238655 -0.010508087 0.0040477365 0.099752106 -0.035992898 0.08813502
0.107044235 -0.10287074 -0.0061606513 -0.09465343 0.043676876 -0.099419504 -0.01050143 -0.096314825
0.07655997 0.05624954 0.044386555 0.037513636 -0.002991534 -0.10486238 -0.0992561 -0.09296293
0.067364246 -0.077480026 -0.078072906 0.054918863 -0.10123454 0.09050144 -0.096470416 -0.08218576
-0.015501908 -0.014721309 0.10646435 -0.009359266 0.044161413 0.03429143 -0.08742787 0.05271414
-0.10126046 -0.09162354 0.016757168 0.010685845 -0.0009944979 0.0995199 0.010510198 -0.041214414
0.11557011 -0.096079186 0.0033848726 0.12903728 0.024987029 0.017746978 -0.10061427 0.06718804
-0.06279896 -0.062972344 0.08340385 0.1010194 0.10736558 0.033856254 0.02543147 -0.07031106
0.08052932 -0.009993721 -0.055521015 0.053247456 0.11049906 -0.027980411 -0.015232646 0.004630935
-0.11163131 -0.08413359 0.02552819 -0.115550384 0.0033449759 0.023475174 0.07772041 -0.04857143
-0.033049967 -0.015460812 -0.04443977 -0.005243691 -0.0032069837 0.10616278 -0.1025413 0.010394608
0.08460466 -0.01943634 -0.05377626 0.038734876 0.114377216 -0.08492613 0.056829944 -0.06421021
-0.007280285 -0.12386248 -0.11199284 0.094054885 -0.009911453 0.0011163959 0.029933395 0.113626346
0.007140899 -0.103407964 0.0805576 -0.091722645 -0.06352806 -0.0018674496 -0.074661516 0.10287433
0.09572039 0.10151923 0.012623176 0.064740166 -0.07185018 -0.12546116 0.11435389 0.09245509
0.0940989 -0.009923637 0.020648979 0.09597082 -0.105673924 -0.05638435 0.047827143 0.10341617
-0.07862822 0.12665382 -0.067037776 0.06655872 -0.040272743 0.07188694 0.09596692 -0.079244286
-0.058931105 0.10707045 0.13062176 0.009744825 0.04954987 0.00746387 0.026061345 0.061251186
-0.116891555 -0.00905893 0.008799026 -0.09552178 0.05458008 -0.017350037 -0.08367547 0.04758925
0.031856883 -0.11613059 0.010954609 -0.03539183 0.11050541 -0.074053966 0.084523275 -0.034062732
0.110730164 -0.06857747 -0.10580191 -0.06640587 -0.11439895 0.017709251 -0.06715763 0.009570172
-0.0268353 -0.07084771 0.10084883 0.015579307 0.09099234 0.037271313 0.058739804 0.11235801
0.12829861 -0.03941972 0.07144926 -0.0070538945 0.11554233 -0.0658117 -0.11082315 -0.031546947
-0.0047032144 -0.08396882 -0.067963794 -0.04138867 -0.00989555 -0.13069968 0.045874365 -0.12103978
0.11262359 -0.029558845 -0.075205766 -0.05937182 0.11610736 -0.10612583 0.021021983 0.060497463
-0.065742806 -0.0034095983 -0.039128605 -0.03780581 0.08379345 0.098180935 0.05756287 -0.06954425
0.046669535 0.07739332 -0.0019808095 0.0059964885 0.11066507 -0.067760564 -0.075718716 0.10539203
0.009605937 -0.06728434 -0.09387151 -0.11977011 -0.12097896 -0.118501276 -0.06772929 0.039167706
-0.08121041 0.11188082 0.043775916 -0.026151216 0.13157944 0.04034952 0.069366366 -0.1371132
0.028162804 0.12419402 -0.0737288 0.07168491 -0.010866738 -0.08438199 -0.019149462 0.04266738
00000000: e8ed eabd aaff 7dbd 454f 20bd 200f c9bc
00000010: f8bd b8bd 4565 d4bc 337e 64bd 215c fabd
00000020: b30b 9abd ceb6 aabd 958c dd3d 0f8f c23c
00000030: b853 a3bd 4fe6 d93d 9afb 1bbd e1a6 3abd
00000040: a6af c13d 97ad b0bb 815a 663d 1d2a 2cbc
00000050: e0a2 843b d54a cc3d 4a6d 13bd 2280 b43d
00000060: 023a db3d e5ad d2bd 4adf c9bb a8d9 c1bd
00000070: 86e6 323d 749c cbbd 310e 2cbc b540 c5bd
00000080: 79cb 9c3d eb65 663d adce 353d e6a7 193d
00000090: 9d0d 44bb 16c2 d6bd c846 cbbd 5963 bebd
000000a0: 44f6 893d d9ad 9ebd b0e4 9fbd 9af2 603d
000000b0: 0e54 cfbd d258 b93d 4892 c5bd 0251 a8bd
000000c0: b7fb 7dbc a531 71bc fb09 da3d 9b57 19bc
000000d0: 99e2 343d 2c75 0c3d 620d b3bd c8ea 573d
000000e0: a561 cfbd 1fa5 bbbd 5446 893c af13 2f3c
000000f0: d059 82ba 17d1 cb3d f732 2c3c 72d0 28bd
00000100: 06b0 ec3d 2ac5 c4bd bdd4 5d3b 5922 043e
00000110: 99b1 cc3c 1c62 913c db0e cebd e299 893d
00000120: be9c 80bd a5f7 80bd a3cf aa3d 42e3 ce3d
00000130: 7ce2 db3d dbac 0a3d a855 d03c 3fff 8fbd
00000140: 8eec a43d b4bc 23bc 016a 63bd 011a 5a3d
00000150: 554d e23d 2d37 e5bc 5992 79bc 19bf 973b
00000160: f59e e4bd 3b4e acbd 7f20 d13c aea5 ecbd
00000170: 6237 5b3b 024f c03c e12b 9f3d d6f2 46bd
00000180: 675f 07bd 584f 7dbc 7a06 36bd 45d3 abbb
00000190: 422c 52bb df6b d93d 2c01 d2bd 254e 2a3c
000001a0: 3545 ad3d f638 9fbc 7f44 5cbd 76a8 1e3d
000001b0: 9a3e ea3d c0ed adbd 84c6 683d a580 83bd
000001c0: 758f eebb 9dab fdbd 815c e5bd d99f c03d
000001d0: a663 22bc 0854 923a e136 f53c eeb4 e83d
000001e0: 34fe e93b 8ec7 d3bd 62fb a43d 15d9 bbbd
000001f0: 001b 82bd 36c5 f4ba 23e8 98bd c7af d23d
00000200: 0d09 c43d 50e9 cf3d 70d1 4e3c 7e96 843d
00000210: 3026 93bd e478 00be 5f32 ea3d 1859 bd3d
00000220: edb6 c03d c096 22bc 0c28 a93c 598c c43d
00000230: 926b d8bd 47f3 66bd 65e6 433d dbcb d33d
00000240: d507 a1bd 8ab1 013e 1a4b 89bd f04f 883d
00000250: 08f5 24bd 7639 933d 4e8a c43d d44a a2bd
00000260: be61 71bd c147 db3d b6c1 053e c2a8 1f3c
00000270: cef4 4a3d 7b93 f43b 9a7e d53c 86e2 7a3d
00000280: d764 efbd e86b 14bc ca29 103c eca0 c3bd
00000290: 5d8f 5f3d aa21 8ebc 0b5e abbd f2ec 423d
000002a0: 5d7c 023d e0d5 edbd f67a 333c 06f7 10bd
000002b0: a950 e23d 9ba9 97bd 8a1a ad3d 5d85 0bbd
000002c0: 7fc6 e23d 5872 8cbd acae d8bd cdff 87bd
000002d0: ff49 eabd fe12 913c f189 89bd 36cc 1c3c
000002e0: b4d5 dbbc 9b18 91bd d589 ce3d 5a40 7f3c
000002f0: 315a ba3d cea9 183d 2699 703d f51b e63d
00000300: b660 033e 9376 21bd fd53 923d 5b24 e7bb
00000310: 75a1 ec3d 49c8 86bd 3ff7 e2bd 5f37 01bd
00000320: 6c1d 9abb d8f7 abbd 9a30 8bbd 2b87 29bd
00000330: f220 22bc 23d6 05be c2e6 3b3d b4e3 f7bd
00000340: 32a7 e63d 6425 f2bc 7b05 9abd de2f 73bd
00000350: b2c9 ed3d 8058 d9bd 4b36 ac3c 30cc 773d
00000360: 2aa4 86bd 9173 5fbb 5145 20bd 44da 1abd
00000370: e69b ab3d 1613 c93d 0bc7 6b3d 376d 8ebd
00000380: 8e28 3f3d 6480 9e3d 78d0 01bb 317e c43b
00000390: 5ea4 e23d 0dc6 8abd 6a12 9bbd c7d7 d73d
000003a0: 3862 1d3c 5fcc 89bd b53f c0bd 084a f5bd
000003b0: d1c3 f7bd ccb0 f2bd a7b5 8abd 516e 203d
000003c0: a551 a6bd c521 e53d 604e 333d 133b d6bc
000003d0: c3bc 063e 8a45 253d f40f 8e3d 6767 0cbe
000003e0: aeb5 e63c 6f59 fe3d 20ff 96bd 8acf 923d
000003f0: 670a 32bc 77d0 acbd 55df 9cbc fec3 2e3d
