checkpoints/models/single_stock_daily/81to9/000001/model25.pth (torch, 543834 bytes, 24 tensors)

encoder.conv1.weight f4 [18, 6, 3]
00000000: cebc 95bd 5b93 b0bd 23a4 09bc 527b e73d
00000010: 1dbb 5abe 868a fabd a41b 89bd a103 96bd
00000020: 924a 673c 0b79 373e 89ac 963d 1a36 4bbe
00000030: 8730 673e fa71 593e 2146 b63d 5a55 193e
00000040: 3267 0c3e 6d74 7f3e a74c 64be 6d56 17be
00000050: 40dc f1bc cac1 3cbd 1d02 27be d4c8 6abe
00000060: f90b 3dbe 5f33 51bd e790 453e 053c 1d3e
00000070: 1823 6b3d fc99 19be 26f7 c8bd 9bf8 3f3c
00000080: d642 65be 3c90 2cbc da08 223d d107 583e
00000090: eaa1 80bd 8900 683e 7f12 713c f4de 2cbe
000000a0: b309 5e3e dc06 4e3e 5dd6 44be facc 11be
000000b0: 14bf e73d 2170 1abe aef0 1d3e d670 e9bd
000000c0: 817d a1bd 9d39 96bd 501f 653e 4237 a9bd
000000d0: 8e96 59bd 53c8 083e cd72 1bbe d6dd c63b
000000e0: 0eea 35be 2492 5abe ca39 5fbd 630d ca3c
000000f0: e2d1 4e3e 8e15 70be 2084 9ebd d85b 843d
00000100: 6fe1 ac3d f93f 073e 6bc5 3fbe 286b 80bd
00000110: a2ed 463d ecf8 51be 6b93 c73d 2aed 7bbe
00000120: 4d1f 153e 91cd 8a3d 6760 82bd bd4d 8e3d
00000130: 435f 493e 7cc4 383e ca9d 0d3e 9d63 07be
00000140: 73fb b63d fee9 2e3e 134a 2d3d e693 2e3e
00000150: 5b68 1bbe 1b6e 2b3e 9630 f13b b472 52be
00000160: f426 60bd e737 6b3e 81c6 a2bd 3d91 3fbd
00000170: 333a c6bd 59d8 01be 41d8 0a3d 9769 113e
00000180: 8cc5 c33c 4c60 0bbd 575c a73b daea 35be
00000190: cdad 0cbe 14c7 e43b 5ecb 42be cb97 d23d
000001a0: 2762 fc3c 0b45 903c 5e46 9bbc 1b96 483e
000001b0: f982 573e 4ccb e63d 47dd f63d a024 e1bd
000001c0: 3b99 df3d 16c1 13be db2f e53d b29c 10be
000001d0: 9f76 f93c 3611 363e 4d34 343e aa94 6d3e
000001e0: e69a b43d c049 e53d df7e b33d 9c1d 503e
000001f0: af9e 2a3e 4274 f33d f244 b5bd 0fee dcbd
00000200: 12ae 79bd 6ba5 e43d 4633 febd 910c 753d
00000210: a0eb 553e c5af 563e 7e13 3cbe 626d 8b3d
00000220: 5152 253e eb90 62be 6e6d 1b3e 2d14 0fbe
00000230: a895 36be f187 fbbd fcf0 d2bd 955e e4bd
00000240: ea0a 883d 0196 b23d 3b1a b13d e8b8 233e
00000250: 325b 21be 4ff6 6dbe dd24 48be d2a6 16be
00000260: 6591 00be f41c cb3d 7deb 3bbe c503 3ebe
00000270: 9a5c f83d a783 27be be39 fa3c c90f 4abe
00000280: e4d2 893d 1110 ff3d 8e2a 56be d0f1 973d
00000290: 2614 01be 0e05 163e e97a 5d3e 78a7 46be
000002a0: b0d5 b73d 80f9 323e 683c 6d3e 025a 353e
000002b0: a8f5 663d d2cf cd3c 7c62 453d 6b0a 05be
000002c0: 2316 0dbd 0e9d b6bb 5415 0dbe 20d3 6c3b
000002d0: e6e1 05bd 8358 96bd 9ab9 94bd 7f99 70be
000002e0: 9795 673e 3259 df3d 77ef 2f3e 2404 4cbe
000002f0: fc2f 7dbe 4b4b 343e 80a0 21bd 2f3c ce3c
00000300: c6af f33d 1266 853c 7dab a5bc 45c1 fd3d
00000310: 0823 3c3e 24d9 93bd 77e4 47be 4548 f2bd
00000320: a701 2b3e 6b66 a03c c36a 503e a7cc b4bd
00000330: 406b 64be 0215 a23d da89 debd 2829 11be
00000340: ba01 1a3e d9fc 143c e6c3 a6bc d209 6f3e
00000350: 18e5 4a3e 2073 82be ab66 8fbe 47b2 3bbe
00000360: 4e06 41be 2082 01be 8973 1f3e 6132 24be
00000370: b600 603e 0462 993d d015 2d3c 33f4 563d
00000380: 35f0 743d b292 973d 2cc8 3cbe 1cdf dc3a
00000390: bdd4 1e3e f8e8 773e 05d2 cfbb 95ae 29be
000003a0: b1f4 f33d 8696 52be be32 513e d838 093e
000003b0: 0301 c83d fbb2 e53c 0dac 253e b4df d1bd
000003c0: 8719 51be c4f9 17be 181d 263e 04b4 fcbd
000003d0: a77e 4ebe ec9c 293d 1c5a 1cbe f6b5 c7bc
000003e0: c708 24be f1fc 223d 0530 59bd 9f78 813c
000003f0: 2bbc db3d 26e8 1bbe 46ed b0bd 16c0 1fbe
-0.07311402 -0.08621856 -0.00840095 0.11302818 -0.2136044 -0.122334525 -0.06694725 -0.07324911
0.0141169 0.17917268 0.07357127 -0.19844857 0.22577105 0.21234885 0.08900095 0.14973965
0.13711241 0.24946757 -0.22294866 -0.14779063 -0.029523969 -0.04608325 -0.163094 -0.22928172
-0.18461598 -0.051074382 0.19293557 0.15354927 0.057406515 -0.15000147 -0.09812765 0.011716987
-0.22388777 -0.010532435 0.039559223 0.21096732 -0.06280883 0.22656454 0.0147138825 -0.16881925
0.21683387 0.20119804 -0.19222398 -0.14238349 0.11315742 -0.15081836 0.15423843 -0.11398475
-0.07885266 -0.073352076 0.22375226 -0.08262493 -0.053122096 0.13357668 -0.15180512 0.0060689254
-0.17765066 -0.2134481 -0.05449847 0.024664586 0.20197251 -0.23445722 -0.077400446 0.0646283
0.084414355 0.13207997 -0.18727653 -0.062704384 0.048566468 -0.20505112 0.097449146 -0.2460219
0.14562722 0.0677749 -0.063660435 0.06948421 0.19665246 0.18043703 0.13829723 -0.13221593
0.08934679 0.17081448 0.04230697 0.17048606 -0.15176527 0.1674122 0.007360528 -0.20551568
-0.05472465 0.22970544 -0.07948018 -0.04676937 -0.09679069 -0.12680186 0.033897642 0.14200436
0.023897909 -0.034027383 0.0051074433 -0.1776537 -0.13738175 0.00698174 -0.19022891 0.102828585
0.030808521 0.017611047 -0.018954452 0.1958851 0.21046056 0.112692446 0.12053924 -0.10993314
0.10917898 -0.14429125 0.11190768 -0.14122275 0.03045207 0.17780003 0.17598076 0.23201242
0.08818607 0.11195707 0.08764433 0.20323795 0.16662095 0.11887409 -0.08851041 -0.107875936
-0.060957022 0.111643635 -0.124121234 0.059826437 0.20890665 0.20965488 -0.1836681 0.068079725
0.16144682 -0.22125594 0.15178463 -0.1397254 -0.17830527 -0.12281788 -0.1029987 -0.111508526
0.06642707 0.08720017 0.08647581 0.15988505 -0.15757445 -0.2323849 -0.19545312 -0.14712074
-0.12555464 0.09917632 -0.1835155 -0.18556125 0.12127037 -0.16358815 0.030545112 -0.19732584
0.06729677 0.12454236 -0.20914671 0.07419169 -0.12605342 0.14650366 0.21628918 -0.19399822
0.089763045 0.17477989 0.23167574 0.17710117 0.05638662 0.02512351 0.048189625 -0.12992255
-0.03444494 -0.0055729216 -0.13777667 0.0036136582 -0.032686137 -0.07341101 -0.07261963 -0.23496054
0.22615658 0.109056845 0.17181192 -0.19923455 -0.24725336 0.17606847 -0.039459705 0.025175182
0.118987605 0.016284022 -0.020223374 0.12390379 0.18372738 -0.07219151 -0.19520746 -0.118301906
0.16699849 0.019580087 0.20353226 -0.08828097 -0.22306538 0.07914163 -0.10866137 -0.14175856
0.15039721 0.009093487 -0.020357084 0.2334359 0.19813955 -0.25478458 -0.28008017 -0.18329726
-0.18850061 -0.12647295 0.15571417 -0.16034843 0.21875271 0.07489398 0.010564283 0.05247898
0.05979939 0.07401027 -0.18435735 0.001685116 0.1551084 0.24209964 -0.006342175 -0.16570504
0.119119056 -0.20565233 0.20429513 0.1340059 0.09765818 0.028039446 0.16178913 -0.10247746
-0.20419894 -0.14841372 0.16222036 -0.12339023 -0.20165502 0.041409418 -0.15268749 -0.024378758
-0.16018973 0.039792005 -0.05302431 0.015804587 0.107292496 -0.15225276 -0.08639006 -0.15600619

encoder.conv1.bias f4 [18]
00000000: e045 0c3d 7cb2 b33d fe96 13be cf98 5fbd
00000010: fa74 f1bd d129 5f3e 0309 3e3d 6a50 37be
00000020: 56ee 2c3e 4b16 62bd f89f 9a3c fb45 1d3d
00000030: f448 1bbd 6d58 613e 6783 e33d b2d8 213d
00000040: a479 a2bd 84e1 723d
0.034246325 0.087742776 -0.14413068 -0.05458909 -0.1178989 0.21793295 0.046395313 -0.1790177
0.16887793 -0.05519704 0.018875107 0.038396817 -0.03791137 0.22006388 0.111090474 0.039513297
-0.07933357 0.0592971

encoder.conv2.weight f4 [54, 18, 3]
00000000: fd56 c2bd 1578 1dbd f200 9f3d 33b0 07be
00000010: bf8a 16bb 1f23 48bd 7e48 b43d 9cf7 93bd
00000020: 161a 1c3d a855 1bbd 4ccb e93d 4254 a4bc
00000030: a39d c7bd 4c7c 22bd 94c9 c83d e518 583d
00000040: 2275 d53c 7f5a ab3d 35fc 533d 2685 90bc
00000050: 05da 93bd c3fc 04be 5f77 8a3d d919 dc3d
00000060: 8460 82bd 1eb2 98bd 04d2 573c 4e73 dcbb
00000070: 8d4a e93d 5be5 983b d731 7e3b c609 f3bd
00000080: decf 543d 077f 92bb 8e78 173d cb19 a33d
00000090: e158 843d e362 253c 2afc 5abb d692 95bd
000000a0: bc22 f03d a8ae de3d eafe 74bc 7235 053e
000000b0: 5429 eb3d faec a63d 3834 9e3d 7d48 773d
000000c0: 011d 88bc 78c4 723c a61d e63d de73 eabc
000000d0: 3989 123d be41 48bd 9384 953c 5ba3 b53d
000000e0: ca41 b53d 2a8e 893d 7e75 863d 251e f0bc
000000f0: b439 2c3e df5e e03d 76a9 123e 0513 dbbd
00000100: a370 76bd ddef e1bd bed3 823c 5bc1 d93d
00000110: b694 c1bd 1cfb 183d 3d5d 8ebc e572 09be
00000120: d95f dabb 9500 87bc df26 8cbd ed5c b1bd
00000130: 0c03 b03d 3b92 0cbc 595a 42bd 2503 8bbd
00000140: 7807 10bd edbe 19bd 8102 8ebd ea50 813d
00000150: 3b93 fcbc b8ad febd 0871 94bd 07ca efbc
00000160: aa0a 14bd 2834 363d 8d8a 023e 7183 a5bd
00000170: 0010 b43b 714b e53d 107e bdbd 9251 ecbd
00000180: 2635 0a3c 229f dcbb fef1 d53a cb8e a13d
00000190: b84c e2bd 7f4c a2bd fe05 d33d 1b0f d6bd
000001a0: a178 c8bc 1c35 4d3d de08 b6bd 33af e5bd
000001b0: c9aa b1bd 80fa cebd 17b1 efbd d0a1 d9bc
000001c0: 5214 06be 7f3e b1bd d597 e23c 7d84 0c3e
000001d0: 4399 0e3e 5512 e33d 96e0 3d3c 4382 a73d
000001e0: c86d 17bd 1cf3 a7bd dd2b 953d 84d8 703d
000001f0: f100 3f3d 288d 773d 7b0c fbbc d5ef d43d
00000200: 8b05 9e3d a5b1 83bd 6ab2 c73d 05f0 423d
00000210: 0051 43bc ca6f dbbc 4dfb bd3d 488f 1b3c
00000220: 69e1 763d 730d e33d d4b6 3fbc c596 ef3d
00000230: 3838 adbd 2690 b7ba 0c24 313d 5113 293d
00000240: d5bd bbbd 17db 163e dfbc 74bd 70d4 cd3d
00000250: 5675 61bd 4824 5b3d bc5d c2bd 6978 90bd
00000260: 8b15 eb3c 2d43 bf3d e703 aebb 62fa 663d
00000270: 4158 9bbd e090 053d e6d3 cbbc f7ad 27bd
00000280: 358a 623d 2549 5dbd 548d c1bd 2ed9 1ebd
00000290: be52 873d b3d6 053e 6c90 fb3d a5df c63d
000002a0: 7504 48bd 911a 0f3e 06fe 903d 1538 de3c
000002b0: 3efe 9fbd 82f2 8ebd da92 133d 6778 26bc
000002c0: 3a3e 22bd 2206 cdbd ec54 de3d 0a18 143d
000002d0: 6bb5 853c 364a 483c 2023 913d 1937 aebd
000002e0: 9b62 0dbb 4624 ff3d 4f8c 18bd 970b 12be
000002f0: b19c c9bd 8fc9 a63d 7ddf a63d ea3d cc3d
00000300: 29e4 acbd 5716 a4bd e9c3 03be 17c7 923c
00000310: 583a b7bb 47e6 163e 3338 67bd 943b 90bd
00000320: 7ddb 863d d68d 53bd 633a a7bc d325 043e
00000330: dd72 6c3d db61 13be 357f 093c dd69 0abc
00000340: 2d0f 093e 63b7 f1bd 3f10 ba3d e99b 11be
00000350: 9929 10be edca a3bd 8005 15be 4630 85bc
00000360: 9e76 cb3d 12c9 84bd b0e0 fcbd 7762 dfba
00000370: 7b2d cfbd 735d c83d 95a9 debc 1d29 dd3d
00000380: bc24 423d 78f3 643d 7033 5d3d d8b5 063e
00000390: d717 d2bd d52b cabd 89f6 c33d 74be 253d
000003a0: fb0a 0d3e b681 193d e630 243d 79ce 973d
000003b0: 5399 a83d 5ebf b23d 9901 dabd 3be8 273d
000003c0: c1a0 81bd 9003 6e3d 3f0b c63d 43fa 5fbd
000003d0: 8a29 af3d 1614 d13d 4cce 983d fcdb d8bd
000003e0: 396a 81bb 487d db3d bb2e 4b3c e35b ec3d
000003f0: f8c2 b1bb ee5c c5bd 0403 8f3d e8c4 373d
-0.09489248 -0.038444597 0.07763852 -0.13250808 -0.0022970883 -0.04886162 0.08802889 -0.07224962
0.038110815 -0.037923485 0.11415729 -0.020059709 -0.09746864 -0.03966932 0.09804073 0.052758116
0.02605683 0.0836687 0.051754195 -0.017641615 -0.07219318 -0.12987046 0.067610495 0.107471175
-0.06366065 -0.07455848 0.01317263 -0.0067276126 0.113911726 0.004666013 0.003878703 -0.118670985
0.05195605 -0.0044707092 0.036980204 0.07963904 0.06462265 0.010094377 -0.0033414462 -0.07303397
0.11725375 0.10873157 -0.014953354 0.13008669 0.11482492 0.081506684 0.07724804 0.060371865
-0.016615393 0.01481735 0.11236124 -0.028619703 0.035775397 -0.04889082 0.018251693 0.08869048
0.08850439 0.06716569 0.065653786 -0.029311249 0.16818887 0.10955595 0.14322457 -0.10696987
-0.060166012 -0.110320784 0.015970107 0.10632583 -0.094521925 0.03734885 -0.017378444 -0.13422735
-0.006664258 -0.01647977 -0.068433516 -0.08660302 0.08594331 -0.008579786 -0.047449443 -0.06787709
-0.035163373 -0.037535597 -0.06934071 0.06314261 -0.030831924 -0.12435478 -0.072481215 -0.029271139
-0.036142983 0.044483334 0.12748165 -0.08081711 0.0054950714 0.1119603 -0.0925256 -0.11538996
0.008435523 -0.0067328373 0.001632273 0.07888564 -0.11049789 -0.07924747 0.10303877 -0.104521
-0.024471583 0.050099477 -0.0888841 -0.11215057 -0.08675153 -0.10106373 -0.11703699 -0.026566416
-0.13093689 -0.08654498 0.02766029 0.13722415 0.13925652 0.11087481 0.01158919 0.08179142
-0.03696993 -0.08200666 0.07283757 0.058800235 0.046631757 0.06043735 -0.0306456 0.10397307
0.07715901 -0.064303674 0.09750827 0.04759218 -0.011921167 -0.026786704 0.092764474 0.00949461
0.06027356 0.110865496 -0.011701304 0.11698679 -0.084579885 -0.0014004752 0.043247268 0.041278187
-0.09167067 0.14732014 -0.059750434 0.10050285 -0.05504354 0.053501397 -0.09490535 -0.070542164
0.028696796 0.09338985 -0.005310524 0.056391127 -0.075851925 0.032608867 -0.024881314 -0.04093739
0.055307586 -0.054024834 -0.09450784 -0.038781337 0.06607579 0.13070183 0.12283406 0.097106256
-0.048832376 0.13974978 0.07079701 0.027126351 -0.07812165 -0.069798484 0.03602872 -0.010160542
-0.039610125 -0.10010935 0.10856041 0.036155738 0.016321858 0.0122247245 0.07086778 -0.08506603
-0.0021573666 0.124580905 -0.037243184 -0.14262234 -0.0984434 0.08143913 0.08148096 0.09972747
-0.084419556 -0.080120735 -0.12867703 0.017917199 -0.005591672 0.14736281 -0.05645008 -0.070426136
0.06584833 -0.051648937 -0.020413583 0.12905054 0.05772673 -0.14392798 0.008392145 -0.008448091
0.13384695 -0.11802556 0.0908513 -0.14219631 -0.14078368 -0.079976894 -0.1455288 -0.01625837
0.09934734 -0.064836636 -0.12347543 -0.0017042895 -0.101160966 0.09783449 -0.027180472 0.10798857
0.047398314 0.055896252 0.054004133 0.13155305 -0.10258453 -0.098716415 0.09568507 0.040464833
0.1377372 0.037477218 0.040085696 0.074124284 0.08232369 0.08727907 -0.10644836 0.040992957
-0.063294895 0.058108866 0.09670114 -0.054682028 0.08552845 0.10208909 0.07461223 -0.10588834
-0.0039494303 0.10717255 0.012401278 0.115409635 -0.0054248534 -0.096368656 0.06982997 0.04486552

encoder.conv2.bias f4 [54]
00000000: f43d a23d 9592 f43d 0840 9fbd 1c8d aebd
00000010: af8f 06bc 59e2 ef3d 810b a1bc 5bf2 0bbe
00000020: cfcc 61bd 02cc 9abd 1064 c23d 3709 babd
00000030: f3e7 d53d c263 573d b470 6cbc 8a83 08bd
00000040: 6395 8e3d 46b1 95bd beb5 70bd a4ce f43d
00000050: d946 61bd 9b23 823c 9643 da3d b563 d0bd
00000060: c6f3 e43c f268 203b 5097 96bd 9927 fb3d
00000070: 6a17 c23d de71 57bc 057a cebc bd30 c23d
00000080: d4e1 38bd 6b04 943d 0dbb afbd 4870 cebd
00000090: 94f1 be3d e2d6 b63d 4488 d2bd f704 21bd
000000a0: 4d9d 903d f55a 9f3d 091f 953d ec29 be3d
000000b0: 6aca 7cbd 7f01 fc3c 12cd e03d 5d42 dcbd
000000c0: a49b ae3d 6c3c d23c fd6f debb e3f7 063e
000000d0: 6ec4 71bd 1cba 3abd
0.07921973 0.11942021 -0.07775885 -0.08523008 -0.008212968 0.11713094 -0.019658806 -0.1366667
-0.05512696 -0.07558443 0.09491742 -0.09083789 0.104446314 0.05258537 -0.014431167 -0.03332857
0.06962087 -0.07309203 -0.058767073 0.11953476 -0.054999206 0.015886119 0.10657422 -0.101752676
0.027948271 0.0024476615 -0.07353079 0.12263412 0.09477122 -0.013149707 -0.025204668 0.09481952
-0.04513724 0.07227405 -0.08580599 -0.1008001 0.09323421 0.089277044 -0.10279897 -0.039311375
0.07061253 0.077810206 0.0728131 0.0928534 -0.061716475 0.030762432 0.10976614 -0.10754845
0.0852578 0.025663577 -0.0067882524 0.13180499 -0.05902522 -0.045587644

encoder.rnn.weight_ih_l0 f4 [192, 54]
00000000: f54a c5bd 43d7 cf3d 0777 b4bd 12d7 e83d
00000010: bcaf c1bd 0c0f 8b3d de29 87bd 02a3 d93d
00000020: 88c9 a3bd 6263 9ebd 4f9b 22bd 9777 c6bd
00000030: 5a5e fb3d 06d1 4d3d 2897 83bd 7bba c8bd
00000040: d82a 38bd cf7e b73c b143 57bd d325 8d3d
00000050: 27b6 6cbd d1c6 273d 8ed8 b03d 7d5e adbd
00000060: 3ff1 bfbd 1b4c fcbd 61bd dd3c 0385 d03d
00000070: 01d6 aabd 569d 59bc 3acf 983d d3c4 ce3d
00000080: 821b 943d 9918 153d 104b d03c c39e 503c
00000090: 89e1 e63d 38e9 2a3a 6a1a 563d c7bd 50bc
000000a0: 26c8 c23d 42c7 f5bd dcae 31bd 82d6 fcbd
000000b0: 282e 053d a315 d3bc 59ec d9bd db2b cbbd
000000c0: 4f11 033d b6ba b83d 4f9b d23d e349 a83d
000000d0: 4b41 c7bd df5d cd3d 4246 fd3d bc88 8b3c
000000e0: 6531 31be 5ba8 d1bd c02a 26be c9b0 e33c
000000f0: 3390 e93d ca93 ae3d 149f 83bd d90f 81bd
00000100: 55e0 2b3d a01f a0bd ee26 8abc 2f56 cf3c
00000110: cf4a 9ebd 242b 553d 844e 3bbc 4638 da3d
00000120: ceec eabd a1f9 f33d a9bd ac3d 8a92 e7bd
00000130: 4ae4 2e3d 1378 3f3c a00f 793d 1951 cf3d
00000140: 7380 a9bd f30f 74bd 3788 adbd 9040 833d
00000150: 596c bbbd 51e5 9ebd 6fa8 d73d 508c 983d
00000160: 357b b13d ce18 ce3d fc6d debd 381d dabc
00000170: b71f 7cbc 9287 f33d 073a 62bc 2a90 23bd
00000180: 42df 993d 654b 903d cba1 c5bd ccb0 29be
00000190: e995 67bd e219 803d 194a 063e c88d 683d
000001a0: a18f 8f3d 805a 553d 87fe 25bd b072 cfbc
000001b0: eb88 953d 9369 7bbb e0e1 16bd 5eed 50bb
000001c0: 0aec e83d 730a 673c c4c5 34bd 62fe b8bd
000001d0: 2cb1 44bd 6ec0 1cbd 1771 8c3d bf9e f13d
000001e0: b9d9 31bd c1d0 0b3e b146 a3bd f7ee 65bd
000001f0: f41a 463c c6ef 23be 1c87 a9bd e1d0 27bd
00000200: 75b5 99bd 85b2 c73d 62a9 31bd b7d9 a0bd
00000210: b0c0 96bd a3e8 bf3d 62c4 a23d 3bea a4bd
00000220: d04f 03be 5acb 56bd 8a17 a93d e820 af3d
00000230: c418 8d3d e816 3c3d 36fe 8f3d b5ce ee3d
00000240: e3d8 98bd 1fd3 803d 8aed a23d b9cc 223c
00000250: 2f7f ae3d 5072 65bd 5ee6 bebd 9be8 49bd
00000260: c3ad afbd 907c e63c 7a2b f63c 61b4 633c
00000270: 1059 aabc bb04 9f3c ea4e 18be 66f9 b9bd
00000280: 01e8 afbd 2e6b ca3d 8d85 edbd ada5 693d
00000290: 3b5f 993d 4fc3 1cbd eee9 94bc 2aef cb3d
000002a0: 4c85 d6bd 9252 03be 98d9 75bc ec79 67bc
000002b0: 531f 57bd f9a6 363c 0e42 863d ed63 903d
000002c0: a69b 043d 48ac b03d 629d 79bd 5dd1 293c
000002d0: b236 353d 120c 233d cc3a 23bd b983 df3d
000002e0: 5800 c6bd 5420 48bd 866a e8bd dc99 533c
000002f0: 24f9 c3bd 4902 da3d 2af9 b0bd a280 063d
00000300: 1ae8 de3d a01c f13d 10af 363d 5e96 313d
00000310: 5aab e13c b6bd 983d 2bcd 2abb dde8 c3bd
00000320: 2bff e93d 0640 c7bd beeb f63d 32db fb3b
00000330: 3d6d 5a3d deef 2a3a 6266 523d 9566 a63d
00000340: 5d7d eebd ef34 913d baf4 30bd 89c2 eebd
00000350: 7602 d3bd eb37 223c 3eaf cb3d 7d41 fbbd
00000360: ab64 0e3d a4a7 4e3d ded0 e1bd 110a 063d
00000370: 425f c2bd 0e6d 843c 1e52 35bd 1a3c ed3d
00000380: f74f e9bd 2e94 863d f1b4 35bd 156e 103d
00000390: cf9e 773b 6f90 f8bd 982a 5dbd 7126 da3b
000003a0: 6b42 d73b dd00 80bd 1f44 9c3d d697 76bd
000003b0: d201 80bd 2227 2e3d 3950 55bc ad8f 0b3d
000003c0: 17a1 893d f15e 31bd 57a8 1a3d 8009 b53d
000003d0: 78b9 ba3c 3677 d13d a303 633d fd67 a63d
000003e0: 3d31 bc3d 1219 973d 9332 e73c 1a8c 803d
000003f0: dc10 883d 4631 5e3c e5fd b53c 265f 35bd
-0.096334375 0.1014848 -0.08811765 0.113691464 -0.09457347 0.06789979 -0.065997824 0.106267944
-0.079974234 -0.077337995 -0.039698895 -0.09690779 0.122738555 0.05024817 -0.06425315 -0.09801193
-0.044962734 0.022399334 -0.05255479 0.0689198 -0.0577909 0.04096109 0.086350545 -0.08465288
-0.09372186 -0.123192035 0.027067842 0.1018162 -0.08341599 -0.013282141 0.074614 0.10096135
0.07231809 0.03640041 0.025426418 0.012733164 0.11273486 0.00065197377 0.052271284 -0.012740559
0.095108315 -0.12000896 -0.04337965 -0.123456016 0.03251472 -0.025767153 -0.10640783 -0.09920474
0.03199893 0.09019987 0.10283529 0.08217218 -0.097292505 0.1002767 0.12366916 0.017032973
-0.17303999 -0.102371894 -0.16227245 0.027794259 0.11404457 0.08524282 -0.06426826 -0.06301851
0.041961987 -0.07818532 -0.016864266 0.02530965 -0.07729112 0.052043095 -0.011432294 0.106552646
-0.11470948 0.11912847 0.08434612 -0.11307247 0.042698182 0.011686343 0.060805917 0.1012289
-0.08276453 -0.059585523 -0.084732465 0.06408799 -0.09151525 -0.077585824 0.10530173 0.074486375
0.08666078 0.10063325 -0.108608216 -0.02662526 -0.015388421 0.11891092 -0.01380778 -0.039932407
0.07513286 0.0704563 -0.0965 -0.16571349 -0.05653945 0.06254937 0.13114204 0.056775838
0.07009817 0.05208826 -0.04052594 -0.025323242 0.07301506 -0.0038362488 -0.036836505 -0.0031879763
0.11373146 0.014101612 -0.044133916 -0.09032895 -0.048020527 -0.038269453 0.06857508 0.117978565
-0.043420527 0.13653852 -0.07972468 -0.056136098 0.012091387 -0.16009435 -0.08277723 -0.040970687
-0.07505313 0.09750847 -0.043374427 -0.07854026 -0.07360971 0.09370544 0.07947613 -0.080524884
-0.12823415 -0.052440025 0.08256443 0.08551198 0.06889489 0.045920283 0.07030909 0.1166052
-0.07463243 0.06290268 0.07955463 0.009936505 0.08520352 -0.05601722 -0.09321283 -0.049294095
-0.08578064 0.028135568 0.030050028 0.013897986 -0.020794421 0.019411435 -0.14873853 -0.09080772
-0.08589173 0.09883724 -0.115977384 0.057042766 0.07488867 -0.0382722 -0.018177953 0.09957726
-0.10474643 -0.12824467 -0.015005492 -0.0141281895 -0.052520107 0.011148208 0.06555568 0.07050309
0.032375 0.0862661 -0.060941108 0.0103648575 0.044241615 0.039806433 -0.039850995 0.10913796
-0.09668034 -0.048858956 -0.11348443 0.012915101 -0.09569004 0.10644967 -0.08641274 0.032837518
0.108841136 0.11773038 0.044600546 0.043356292 0.027547527 0.074580595 -0.002606223 -0.095658995
0.114256226 -0.097290084 0.12056683 0.007686042 0.053326834 0.00065207283 0.05136717 0.08125035
-0.11645005 0.070901744 -0.04320214 -0.116581984 -0.10303204 0.009901027 0.09945534 -0.1226835
0.034763973 0.050452843 -0.110261664 0.032724444 -0.09490825 0.016165283 -0.044267766 0.11583729
-0.11392205 0.06571232 -0.044362012 0.035261232 0.0037783866 -0.121369235 -0.0539957 0.0066574146
0.006569197 -0.06250165 0.076301806 -0.060203396 -0.06250347 0.04251779 -0.013019615 0.034072567
0.067201786 -0.043303434 0.037758198 0.088397026 0.022793517 0.10227816 0.05542339 0.08125303
0.09189079 0.07377829 0.028222358 0.06276722 0.06643841 0.013561552 0.022215793 -0.044280194

encoder.rnn.weight_hh_l0 f4 [192, 64]
00000000: e0ad e1bd 8f93 f13d b26d a5bd ffb1 f23d
00000010: 4abd 94bb 2d84 76bb 48e9 853d e63d 69bd
00000020: 65db 9c3b a64b 4cbd 7959 babd 48a1 a83d
00000030: 39b0 b33d 0dd6 763d ddce f23d 6740 743d
00000040: 0af0 d03d c197 04bd ee9d b83d 5f2f 103d
00000050: f0cd 663b b0a0 b63d f58e cebd b2bd 01bc
00000060: 7322 77bd 8b6c 003e 2038 98bc a9a9 243d
00000070: e749 bc3d 77db 7b3d 061d 3bbd 8b50 e03b
00000080: 04a9 a63d ade5 48bd 48d9 683c 5a6d b8bd
00000090: 1615 f43c 117c a93d e6bb a73b abed bf3c
000000a0: 9833 d03d f680 fe3b d61c 34bd de4e cf3d
000000b0: 256a b1bd b262 653d 3ac5 9e3d 9a33 173b
000000c0: 2026 01be bdf5 573d ea61 af3d 565c 25bc
000000d0: ea66 a43d d3f4 383d 5d89 c53c 5636 f43d
000000e0: 7d34 82bd 4dbf 863c 372b c8bd 767b d73d
000000f0: 2fe0 143d a7c9 ea3d 62b3 c4bd b4bc e53d
00000100: e91b 883d 49cf c53d 6648 81bd e3cf bbbd
00000110: f0bf efbc b8ad bc3d a194 173e e0c5 bb3c
00000120: 73c5 aebb 7f30 bbbb 1c55 69bc 68f4 a83c
00000130: 733b 753d 05f0 e4bc e04f acbd abb9 c2bb
00000140: c776 933d 0fed aebd 0c0f f83d 40cd 283d
00000150: 89ed 553d 6d08 593d 7541 7f3d 9872 f83d
00000160: 0256 74bd 7b74 413c 8276 b53d 7a76 ddbd
00000170: ba38 7f3d 4981 ebbd d13f b3bd 15e5 9abd
00000180: 6944 b6bd 13ae bfbd c16b ad3d 4188 d3bd
00000190: fd0e 87bd 7ed3 d7bd f499 24bd cfbd 4cbb
000001a0: 6dd4 4e3d 5d68 92bd b952 aaba 154a 7a3d
000001b0: e7b5 b03d 5aa3 91bb 077d 93bd 9ff3 953d
000001c0: 23d8 1ebd 0195 ddbd 1993 16bd 9359 d8bc
000001d0: fd2e ea3c 3422 d93d 4613 b43d cb4c 9fbd
000001e0: e9a1 ef3d 477a 703d 312a e53c af53 a8bd
000001f0: 3f7b 6fbc 5ca7 013d 3064 b6bc 420f 953d
00000200: 58a6 943d 0370 93bd fd4b de3d ce2b 893c
00000210: 39a4 333c 3e5f f5bc 9432 e63c 6ed6 b33c
00000220: d850 2abd f620 af3a b400 44bd 7d82 083e
00000230: a5ae 86bd 6b18 babd 46fc 033e 4ced 763d
00000240: 8fe0 e6bd 2a10 ef3d d0bb 04be 81c3 1dbd
00000250: c7b2 3dbd 1e54 3d3a 37c9 c8bc b7db 7cbd
00000260: 0fdd b9bd 56cc a1bd 958c 9f3d 431a 3c3d
00000270: 06c7 ed3c bc55 64bc 416b f93c a717 c5bc
00000280: 92d4 35bd d2fc 043e b504 71bc 4a47 c0bc
00000290: 8d1a 9b3b ada5 5a3d f140 fbbd 233e 593d
000002a0: dc4b 0dbc 1a6b 29bd 1d73 c4bc b00a 16bb
000002b0: 212b 17be bd40 8c3d a3bc cb3c 74dd 7fbd
000002c0: 0369 8a3d 6a0c 96bd 9711 af3d fd80 3cbd
000002d0: 67d6 ca3c 7172 b73c 48b5 cebc 5da6 c7bd
000002e0: e445 843d 0973 b63c 7099 afbd a7e0 04bd
000002f0: 43bf 1c3d ecf8 b3bd 53bc 473d aefe ab3d
00000300: db35 f8bd 59d1 953c ef93 b1bd c8da e7bd
00000310: b24c e53d 2bbc 8b3d 7074 ca3d 0412 f43d
00000320: 4de0 83bd df5c 5ebd 2c9e b539 63cc 5a3d
00000330: a679 2f3c 9a4b 0ebc 0b0e fd3d 616d 60bd
00000340: d6e6 5f3d c7a5 4f3d 84b8 7bbd 5e10 963d
00000350: a347 b33d 0b75 c4bc 9dc7 c3bd b708 9c3d
00000360: f1c3 b83d 7dc7 723d f888 733c 29eb 803d
00000370: 7381 283d 7dab 2ebd e519 b8bd 72dd 57bd
00000380: 784a 313d 208f 51bd 07d5 973d d6c8 80bd
00000390: 9cf7 c8bd 5a75 af3d 96c4 a3bd fb13 213d
000003a0: 9bff db3d 1374 f53b 7301 a53d e08a efbc
000003b0: 7278 d9bd 6b40 92bd 1a0b 21bd caa8 9dbd
000003c0: 14a7 a2bd 5b7d 533d 75b2 113e edcd 9f3d
000003d0: b884 393d ac0c c4bd 4ae2 aebc c726 3c3d
000003e0: 40a2 e03d f42d 7bbd a359 993d f6d6 8d3d
000003f0: beca d4bc db07 ebbd d379 773d 2252 8f3d
-0.11019492 0.11795723 -0.08077563 0.11850356 -0.0045391666 -0.0037615404 0.065386355 -0.056943797
0.004786896 -0.04987683 -0.09099097 0.08233887 0.08773846 0.06026273 0.11855862 0.05963173
0.10202034 -0.032371286 0.09014498 0.035201427 0.0035217963 0.089173675 -0.10085861 -0.007918762
-0.060335588 0.12541406 -0.01858145 0.040200863 0.09193783 0.061488595 -0.045681976 0.006845539
0.08137706 -0.04904716 0.01421196 -0.09005232 0.02979521 0.08275617 0.005118835 0.023428759
0.10166091 0.007766838 -0.043972813 0.101224646 -0.086628236 0.056002326 0.07752462 0.0023071528
-0.126122 0.05272459 0.085635975 -0.010092815 0.08027442 0.045155358 0.024113351 0.11924426
-0.063576676 0.016448641 -0.097738676 0.10521595 0.03634661 0.114642434 -0.09604527 0.11217633
0.066459484 0.09658677 -0.06312637 -0.091705106 -0.029266328 0.09212822 0.14802791 0.022921503
-0.0053335964 -0.0057125683 -0.014241483 0.020624354 0.05987115 -0.027946481 -0.084136724 -0.0059425435
0.07200389 -0.08541309 0.12112245 0.041211367 0.052228484 0.05298655 0.062318284 0.12131232
-0.059652336 0.011807556 0.08860494 -0.10813613 0.062309958 -0.114992686 -0.087524064 -0.07563225
-0.08899767 -0.09359374 0.08467818 -0.10328723 -0.06594656 -0.10538386 -0.040185884 -0.0031241064
0.050495554 -0.07148812 -0.0012994624 0.061105806 0.08628445 -0.004444522 -0.072015814 0.07321858
-0.038780343 -0.10819436 -0.036761377 -0.0264099 0.028586859 0.10602227 0.087927386 -0.07778319
0.11700804 0.058710363 0.02797422 -0.082190864 -0.0146167865 0.031653747 -0.02226457 0.07278301
0.0725829 -0.07199099 0.10854337 0.01674452 0.010964447 -0.029952642 0.02810029 0.021952834
-0.041581005 0.0013361264 -0.047852233 0.13331027 -0.065762796 -0.090866886 0.12889203 0.060284898
-0.112733 0.11673005 -0.1296227 -0.038516525 -0.046313073 0.0007222312 -0.02451001 -0.061732974
-0.09075367 -0.07900302 0.07790486 0.045923483 0.029025566 -0.013936456 0.03044665 -0.02405913
-0.044392176 0.12987068 -0.014710595 -0.023471493 0.0047333897 0.053380657 -0.12268246 0.053037774
-0.008624043 -0.041361906 -0.023980672 -0.0022894554 -0.14762546 0.06848285 0.024870222 -0.062467054
0.06758311 -0.073265865 0.08548277 -0.04602145 0.024760438 0.022393437 -0.025232926 -0.09748528
0.06458643 0.02227165 -0.08574188 -0.032440808 0.03826834 -0.087877125 0.048763584 0.08398186
-0.12119647 0.018288301 -0.08670794 -0.11321026 0.11196269 0.068229996 0.0988549 0.11917499
-0.06439266 -0.054287788 0.00034640857 0.053417575 0.010710156 -0.008685017 0.12356194 -0.05479181
0.0546635 0.050695207 -0.061455265 0.073273405 0.08753898 -0.023981592 -0.095595576 0.0761885
0.09021748 0.059272278 0.014864199 0.06294853 0.041139077 -0.042644013 -0.08989314 -0.05270142
0.04328391 -0.051161885 0.074136786 -0.062883064 -0.09812853 0.08567305 -0.0799648 0.039325695
0.10742112 0.0074906438 0.08056917 -0.029241025 -0.10618676 -0.07141193 -0.039317228 -0.076982096
-0.07942024 0.05163322 0.14228232 0.07802949 0.045292586 -0.095727295 -0.021348137 0.04593542
0.10968447 -0.06132312 0.074878 0.06925766 -0.025975581 -0.11476108 0.060418915 0.069980875

encoder.rnn.bias_ih_l0 f4 [192]
00000000: 7b4b f53d eecc b8bd 1def d0bd 654f 033a
00000010: f613 c33c 78d9 a9bc ee5b 56bd c751 803c
00000020: 8966 e0bb 14a7 3abd bd03 393d 453b 84bd
00000030: 964d 06be a7a6 dcbd c791 273d ba11 c2bd
00000040: 736e dfbd 6f7d 39bd f770 b13d 0d02 a53d
00000050: a429 d33d 1df3 cfbd eb63 babd 16cb 8e3d
00000060: 4955 0c3e a184 13bc c2c6 edbd 077a 003e
00000070: e37f a43d de04 c03d 5dbe 2f3d 772b 633d
00000080: c6e6 5cbc 204f 853d 43ac 2c3d 66f0 86bd
00000090: b0fe 4abd ffdd ebbc dc6f 30bc cfe7 b63d
000000a0: 5abe a33d f34e 93bc 5740 20bd 7639 83bc
000000b0: e119 f73d 8a09 f83d e15e 4d3c 174b d2bb
000000c0: 351b 983d 6e90 b7bd fc20 8abd 8484 b63d
000000d0: e20e fd3d f4d5 3abb 3a8f d4bd 7b7f b63d
000000e0: 3e75 713d da6a 403b e61d fb3d 8ce1 b7bd
000000f0: 433f 12bc ab08 a03d 78bb 98bd fb8d c4bd
00000100: aa09 003b 32f3 9f3d d975 01be bd10 4e3d
00000110: 83f0 c9bd a941 95bd a677 233e 97a6 ef3d
00000120: 0f2d d93c f9bc 343c 730e 9fbd 5676 c23d
00000130: 7340 b03d 55a9 ac3d d8e2 413c 8228 37be
00000140: 3633 90bd a1b2 f4bd 9c06 68bd 00cb 533c
00000150: e2b3 22bc 49b5 acbd 2c42 833d 2a13 823d
00000160: 50c9 15bd 8a74 19bd af45 723c 831f cebc
00000170: 278b 8bbd e3cf 303d 0e6f ed3c 057f e7bd
00000180: 3ebb 36be 31b5 493d 3238 2dbe 2798 f3bb
00000190: d554 b23d 2a2e 9d3d 74ec c93b 09f8 66bd
000001a0: 52e4 d2bc 0059 22bd 1af3 fdbd e6a0 11be
000001b0: 316e 7dbd 7c8b 79bd 668a 9b3d 1a63 aabd
000001c0: 5fbb afbd 6e02 f439 21e6 b33d 2df1 13bc
000001d0: 8cec 6ebd 5eaa 08be 18f4 e7bd e223 8d3c
000001e0: cc40 b53d 5912 123d 7035 583c c531 c33c
000001f0: 608c f4bd 8d8a 69bd 5b93 bfbd 4f56 eebc
00000200: 92b6 943d 4656 b2bd 76ab 06be 55e5 bdbc
00000210: a831 5fbd 3249 dabd d358 a1bd e22a 64bc
00000220: 9af1 86bd e9d9 ae3d 014f 04bd a8f2 c1bc
00000230: 0276 863d b6f7 e7bd b551 143d 74cb e1bc
00000240: b226 cb3d 12e9 543c 0cef 45bd aece b8bd
00000250: ef5e b1bd d992 86bd f96c dd3d 3ee4 d13d
00000260: 0c94 d63d c6a2 56bd 1eec 353d 310f acbd
00000270: 9765 08bd 5c88 e33d 6810 a3bd 3bc0 06be
00000280: 9cab 8bbb ab25 e23c 0691 c23d 783c 5d3d
00000290: 1749 bb3c de67 fa3d 5d73 d63d 16e5 8bbd
000002a0: eac3 e9bd 4f46 efbd 8c69 ef3c 491e 1c3d
000002b0: a131 fdbc 35ff ce3d cf28 f13c 3009 903c
000002c0: f4fe 80bc 1a0d a43d 842c 2c3d 9df1 bcbd
000002d0: 9737 1dbd c2e8 503d f04a 2a3d 6006 d3bc
000002e0: 0e76 f33d 7868 d33d c036 79bd 5657 d03d
000002f0: 12ae be3d 3a8d ab3d daf2 0dbd b0b0 873d
0.119772874 -0.09023462 -0.10201857 0.0005009084 0.023813229 -0.02073358 -0.052333765 0.015663994
-0.0068481606 -0.045569494 0.04516958 -0.06456617 -0.13115534 -0.10773974 0.04091051 -0.09476037
-0.109097384 -0.04528564 0.086641245 0.08057032 0.10310677 -0.10153792 -0.09101089 0.06972329
0.13704409 -0.009003789 -0.11610176 0.1254655 0.08032205 0.09375928 0.042906154 0.055461373
-0.013482755 0.065092325 0.04215647 -0.06588821 -0.049559295 -0.02879238 -0.010768857 0.08930933
0.07995291 -0.017981982 -0.03912386 -0.01601861 0.12065483 0.121111944 0.012534828 -0.006417643
0.07427064 -0.08963095 -0.067445725 0.08911994 0.12356354 -0.0028508874 -0.10378881 0.08911034
0.0589497 0.0029360563 0.12261562 -0.089785665 -0.008926216 0.07814153 -0.07457632 -0.09597393
0.001953701 0.07810058 -0.12642612 0.05030893 -0.09860327 -0.07287914 0.15963611 0.11701696
0.026510743 0.011031383 -0.07766428 0.09495227 0.08606043 0.08430735 0.011833869 -0.17886546
-0.07041018 -0.11948133 -0.05664693 0.012926817 -0.009930583 -0.08433015 0.06409106 0.063513115
-0.03656894 -0.037464656 0.014787122 -0.02516151 -0.068136506 0.043167006 0.028983619 -0.11303524
-0.17844865 0.049245063 -0.16915968 -0.0074339095 0.08707587 0.07674821 0.0061622206 -0.05638889
-0.025743637 -0.03963566 -0.123998836 -0.14221534 -0.061872665 -0.06092404 0.07594757 -0.083196834
-0.0858066 0.00046541117 0.08784128 -0.009029669 -0.058331057 -0.1334624 -0.11325854 0.017229024
0.0885025 0.03566203 0.013196334 0.023827443 -0.11940837 -0.057016898 -0.09354278 -0.02909389
0.07261385 -0.087078616 -0.13151345 -0.023180643 -0.054490715 -0.10658492 -0.0787827 -0.01392624
-0.065890506 0.08537657 -0.032301906 -0.023675278 0.06565477 -0.11326544 0.036210734 -0.027562834
0.0991949 0.012995021 -0.048323676 -0.09023796 -0.08660685 -0.06570978 0.108118005 0.10248612
0.104774565 -0.052401327 0.044414632 -0.08401335 -0.03330001 0.11109993 -0.079621136 -0.13159268
-0.004262401 0.027605852 0.09500317 0.054012746 0.022862 0.12226842 0.104712225 -0.06830804
-0.11414321 -0.11683332 0.029225133 0.03811482 -0.030907454 0.10107271 0.029438404 0.017582506
-0.015746571 0.080103114 0.04203464 -0.092257716 -0.038383093 0.051003225 0.041575372 -0.025759876
0.118877515 0.1032266 -0.06084323 0.10172908 0.09310545 0.08376546 -0.03465543 0.06625497

encoder.rnn.bias_hh_l0 f4 [192]
00000000: 28c5 97bd 5490 9b3d 52a6 5cbc e035 893d
00000010: 5630 9f3d 7f83 1a3d c63b 1e3d 7fce 68bd
00000020: a0a0 bbbd 052e ccbd 7b33 17bd 6bcd d8bd
00000030: 2b19 42bd 45b4 fabb ebe4 f8bd 05fa e73d
00000040: 9c52 f0ba db25 953d cb91 dabd 0b17 9e3d
00000050: d08a 92bd 5278 703c c1e2 b63d 3eaf df3d
00000060: a4cd bfbd 80c9 5abd 1660 55bd 9a16 4c3d
00000070: fcf7 a2bd aa66 b23d 6632 c3bd c586 c33b
00000080: e348 e23b 31d7 b5bd 2ed1 1fbc e0d4 bebd
00000090: ea45 92bd fc93 02be b7b8 073d e8fc 30bd
000000a0: 67cb dbbc 3656 6d3d 0e26 953d eeaa 623d
000000b0: 8e9d c03c 6678 f23d 426e bbbc 76c4 d93d
000000c0: e244 8bbd 7a76 f1bd 0f8a 1abc c6f9 89bd
000000d0: f7ad a2bd daf1 a1bd 0765 91bc 9c5b 593c
000000e0: 4f70 7cbb 4c1c 1cbd 95e6 d63d fc7f 9b3d
000000f0: a72f 87bd 1312 aebd 790f 9abc 7801 703d
00000100: 11c7 d43d c3b9 893d 4f90 6bbd 4a53 dc3c
00000110: d08c eabd da4b 6e3d 4c32 363e 68a3 b03d
00000120: 580e c9bd b3d1 29be 8ef1 f5bc 8251 0abd
00000130: 8264 98bd 16e2 bc3d bf3a 3e3d 72b8 80bd
00000140: 2c89 dc3d 12d9 dabd 1778 c03d 33e3 b63d
00000150: 6fae e0bd 9fb1 54bc 053c 893d f441 f0bb
00000160: dcf0 02bc bc5c d6bd c952 13be 4b01 583d
00000170: 87cc 85bd b82c 8b3c dbe2 d5bd a4a2 c5bd
00000180: daaa 1a3d e194 f7bd b33f 35bd e4f4 0c3d
00000190: cff9 c6bd 36d0 51bd 3376 d5bc 1d29 d33d
000001a0: f487 bebc e98c 963d cc78 e8bd 1b77 54be
000001b0: ca73 853d 9532 fdbc 24db 7a3d d17e 38bd
000001c0: 2f90 473d 86e7 2a3c 5793 78bd ed3a e5bd
000001d0: 2885 bc3d 504e eabd f610 79bb f14f b3bd
000001e0: 0f91 103e 98fd 98bb 175a 03bc 2e26 15bc
000001f0: 321e dcbc 44e7 ce3d a5ac aa3d 3124 abbd
00000200: 9550 efbc 400a 7fbd 39bb 353d a593 563d
00000210: d683 f7bd 7aec cbbd e5df 00bd 580b 9abb
00000220: 7c2a b23d b0da 053d ce8c 9b3d 6ef5 babd
00000230: fc14 bc3d 5cc0 dc3d f3b2 893d 75fb 533b
00000240: 95dd dc3d 3d5f cdbb c395 72bc e4b6 99bc
00000250: 53bf 0a3d 550b 193d b213 cc3d 5426 bc3d
00000260: 50b4 343d 4fa5 d23c 9ade 123d f3f8 bd3d
00000270: 7c75 2cbd 0c49 aa3d 5e25 63bd 234c 78bd
00000280: 8f27 2b3d cbba 9abd 3a9b 63bd d14a 223d
00000290: 484a 57bb 513e 973d 4c3f 99bd 75b9 dcbd
000002a0: cf25 323c e791 4e3d d4e2 333c 1fd9 a8bd
000002b0: f063 a1bd ae88 6c3d 2dbf c43c e61b 923d
000002c0: 358d 81bd c78f c83d 9f19 92bb f1f4 e93c
000002d0: 9df9 a8bd 400a a3bc 0b92 07bd ff85 c7bd
000002e0: 00d2 9d3d 3ab0 2f3d 3656 a9bd 00bf 1b3d
000002f0: c8f2 f7bc 5bb2 ffbd 4c46 003d e000 75bc
-0.074106514 0.07595888 -0.013467388 0.06699729 0.07772891 0.03772306 0.038631223 -0.056837555
-0.09161496 -0.09969715 -0.03691433 -0.10586055 -0.047387283 -0.0076508843 -0.12153038 0.11326984
-0.0018335166 0.07282611 -0.10672339 0.07719239 -0.07155383 0.014677124 0.089299686 0.10922097
-0.09365395 -0.05341482 -0.052093588 0.049826242 -0.079574555 0.08710988 -0.09531097 0.0059669935
0.0069056614 -0.08878935 -0.009754462 -0.093179464 -0.07142241 -0.12751764 0.033135142 -0.04320994
-0.026830388 0.057943545 0.07282649 0.055338793 0.023512628 0.118393704 -0.022879723 0.10633175
-0.06800248 -0.11790176 -0.00943233 -0.067370936 -0.079433374 -0.07907458 -0.017748369 0.01326647
-0.003851909 -0.038112924 0.10493199 0.075927705 -0.06600886 -0.08499541 -0.018806206 0.05859515
0.103895314 0.06724884 -0.05751067 0.026895184 -0.11452639 0.058177806 0.17792624 0.08624917
-0.09817189 -0.165839 -0.030022409 -0.03376914 -0.07441045 0.0922281 0.046442743 -0.0628518
0.10768351 -0.10685934 0.09397905 0.089300536 -0.109707706 -0.012981801 0.06700901 -0.007332081
-0.007991996 -0.104669064 -0.14387049 0.052735608 -0.06533151 0.016989097 -0.1044366 -0.09650162
0.037760593 -0.12088943 -0.0442502 0.034413233 -0.09715616 -0.051223956 -0.026057338 0.10310576
-0.023258187 0.07351095 -0.11351165 -0.2074856 0.06516226 -0.030907908 0.061244145 -0.045042817
0.04872149 0.010431176 -0.06068739 -0.1119288 0.09205085 -0.11440718 -0.0038004494 -0.08755482
0.14117835 -0.0046689026 -0.008017085 -0.009103341 -0.026869867 0.10102704 0.083337106 -0.08356512
-0.02921323 -0.062265635 0.044368003 0.0523869 -0.120856926 -0.09957214 -0.031463522 -0.0047010593
0.086995095 0.03267926 0.07595216 -0.09128843 0.0918369 0.10778877 0.06723585 0.0032345925
0.10784451 -0.006267457 -0.014806214 -0.018763967 0.033873867 0.037364323 0.09964694 0.09186998
0.044117272 0.02571359 0.03585682 0.09275999 -0.04210423 0.08314714 -0.055455558 -0.060619485
0.041785773 -0.07555159 -0.055567957 0.03962213 -0.0032850672 0.07384933 -0.07482776 -0.107775606
0.010873272 0.050432112 0.010979373 -0.082445376 -0.0788039 0.057747535 0.024016941 0.071342275
-0.06325761 0.09793048 -0.0044586207 0.02855918 -0.08250735 -0.019902349 -0.03309826 -0.097423546
0.0770607 0.042892672 -0.082683966 0.03802395 -0.030267134 -0.124851905 0.03131704 -0.014953822

encoder.rnn.weight_ih_l1 f4 [192, 64]
00000000: 5f34 ae3d 2e5f bc3b 5855 89bd 9bee 4bbd
00000010: 5130 4f3d 4c38 bbbd 7d81 613c d41f e3bd
00000020: f590 afbd a6c2 03bd de08 b63d 508f 57bd
00000030: c9f5 9abd 7e80 2abd e96f bdbd 1e1f e4bc
00000040: 7383 e5bd c846 243d ffbf 04be 8d26 e2bd
00000050: 346d dcbd 4983 b4bd f966 303d 4d97 a53d
00000060: 364d 92bd bc3f 773d 9eba f0bd 6317 e6bd
00000070: 567a 3f3d e356 9ebc 1e79 60bd f30d dd3c
00000080: 5223 4f3c 003c e03d 4a11 f13c 0bea 05bc
00000090: 9f3f b9bd 54c5 33bd fd04 e8bd 43c2 5ebc
000000a0: c712 2bbd aa36 3dbc b2d5 b4bd 1048 523d
000000b0: 379f 5c3d f2bc cebb 6424 6cbd b788 303d
000000c0: 46be 8d3d c91a 2d3d 3fc5 9cbc 91c6 063d
000000d0: b041 c53b 612d b4bb 78ef 38bd 2e5c 8bbd
000000e0: 7974 903d faa9 7b3d e4d2 f2bd 56dc 073c
000000f0: ac1e c8bd bacf 043e f0ed ebba 83e9 9fbd
00000100: 5cab 9abd f442 7c3d b4b0 53bd 121c 11bc
00000110: aa23 e23d 84c5 40bd 385f 98bd 304f 093d
00000120: f32c 563c b986 a5bd cf7f 2d3d 67c8 aebd
00000130: 1a86 98bd aff7 d1bd 788b f1bc e42c 0fbc
00000140: 36cd 47bd 8a2e 88bd 3bc0 33bd b185 d63c
00000150: 95c8 c83b 6001 f4bd b1e7 d6bd eb6a c53d
00000160: d63b 9f3c a6a7 773d 64cf 9b3b 3b12 e7bd
00000170: bb02 fabd ab93 a03d bac0 fabc 04c8 87bd
00000180: fc46 02be 7bef 813d d21a 673c 3f3e c7bd
00000190: 7360 6c3c c01c 9bbd b29b c8bc fc10 9cbd
000001a0: 4304 1bbd 1d71 05bd 55c0 e4bd a9eb b4bd
000001b0: 60b1 f7bd 698b c53d 0300 8ebd 4659 b63d
000001c0: 3d85 b53d b61d 8abd a01f b43d 0ae5 5d3b
000001d0: 6e00 0bbc f525 923d 737e bb3d 8a93 c7bc
000001e0: 18ae 023e 303b 90bd 5d0c ae3d 202e 963d
000001f0: a16a de3d 93b8 82bc 3326 ee3d abfb e93d
00000200: ebc6 b1bd 4d68 ef3d b758 b1bd cb47 023e
00000210: 5bfe bbbd 6a4b 7b3c 0693 dbbd 7707 3f3d
00000220: f5e6 8cbd f7a3 52bd c6da 3abd a969 dbbd
00000230: 33fb bbbc 413d 2dbd 2675 c0bd d48a 5fbd
00000240: 26ea 2cbd bb16 fe3d b3fd 5d3d 6c64 35bc
00000250: c636 e93b 0923 233d f0fc 073c c19d 83bd
00000260: 4846 cbbd e52c b0bd bba2 fe3c df07 00bc
00000270: 2b5c a6bd 1808 993d 5e91 9f3d ffbf cc3c
00000280: 3d18 c53d d42e a5bd 6aee aabd c97f 2a3d
00000290: b858 e93d d99a 993c e706 bbbd df62 90bc
000002a0: 06e9 ddbc 3c4c 99bd 79ba 30bd 4889 22bd
000002b0: a2b4 873c 7d52 acbc a9fd f63d 7861 a2bd
000002c0: cda6 883c 7bed cc3d c121 15bc 19d0 e6bd
000002d0: 57af 1b3b 62e1 4c3d 88cd aabd fb69 8d3d
000002e0: 2817 e739 d777 9dbd aabe f53c ab0d 6ebd
000002f0: 7a4d 043e 4cc2 e2bd 76e1 b3bd ce30 2c3a
00000300: 81f7 483c b393 dcbc e39a 12bd d17a 82bd
00000310: 2dbf b63d fd36 f23d c846 adbd 39bd abbc
00000320: 6fb5 cbbd 2ea9 f13d beeb 44bd 4c92 94bd
00000330: 172e 5abd b204 ef3c eb65 323d 1353 aebd
00000340: 35c0 b7bc a32e 893d 5408 f03c 9c8f f6bd
00000350: 2221 783d 8602 ff3d 9846 843c 25a5 023e
00000360: 5983 cc3d c87b bdbd 14b0 43bd db9c ec3d
00000370: 7dd9 32bd 4d08 e93d f0c3 c9bd 6eac be3d
00000380: 0edb cd3c 8fcf ecbd 4da5 03be dd50 dfbd
00000390: 5034 cd3d 3a11 013d 4a68 353d 1c7f 46bd
000003a0: f7f4 d9bd 5f43 bc3d 9137 70bd b325 5bbc
000003b0: 18ec 68bc e4b9 b63d 1142 5b3d 483c b9bc
000003c0: 2114 023e 9ab8 de3d 74ad 42bc 6ea0 c43d
000003d0: 001d 37bd 50d5 cebd 9772 ec3d 3d26 86ba
000003e0: 81bd 57bc 9a0d a4bd ed2b 21bd f324 76bd
000003f0: cb40 4c3c fa10 e3bd 5acf 293d 1cf3 c33c
0.08506083 0.005748651 -0.06705731 -0.0497881 0.050583187 -0.09141597 0.013763783 -0.11090055
-0.0857257 -0.032168053 0.0888841 -0.052626908 -0.07566411 -0.041626446 -0.09249861 -0.02784687
-0.112067126 0.040106565 -0.12963866 -0.11042509 -0.10763016 -0.08814103 0.043066952 0.08085499
-0.07143633 0.060363516 -0.117543444 -0.112349294 0.046747528 -0.01932854 -0.054803006 0.02698419
0.012642698 0.10948944 0.02942719 -0.008173476 -0.09045338 -0.04388936 -0.113290764 -0.01359612
-0.041765954 -0.011548677 -0.08829822 0.051338255 0.053862777 -0.006309145 -0.057651892 0.04309913
0.069210574 0.042261872 -0.019137023 0.03290421 0.0060197935 -0.0054985736 -0.04515025 -0.06804691
0.070534654 0.0614414 -0.118566304 0.008292278 -0.09771475 0.12969866 -0.0017999988 -0.07808211
-0.075522155 0.06158729 -0.05168219 -0.00885679 0.11041959 -0.047063366 -0.074400365 0.033522785
0.01307224 -0.08082337 0.042358216 -0.085343175 -0.07447453 -0.1025232 -0.02948545 -0.00873873
-0.04877969 -0.066495016 -0.043884497 0.026186796 0.006127427 -0.11914325 -0.104934104 0.096395336
0.019437712 0.060462616 0.0047549475 -0.11282774 -0.12207552 0.078406654 -0.030609477 -0.06629947
-0.12722391 0.063445054 0.014105516 -0.097286694 0.014427292 -0.07573843 -0.024488304 -0.07620427
-0.03784586 -0.032578576 -0.11169497 -0.08834011 -0.120943785 0.09645731 -0.06933596 0.08903746
0.08863304 -0.06743948 0.087950945 0.0033858442 -0.008483989 0.07136146 0.09154978 -0.024362344
0.12761724 -0.07042539 0.08498452 0.073330164 0.108601816 -0.015957152 0.1162838 0.11424955
-0.08680519 0.11689816 -0.08659499 0.127227 -0.09179374 0.015337804 -0.10721402 0.04663798
-0.06879989 -0.0514259 -0.045618795 -0.107135125 -0.02294693 -0.042294744 -0.09397344 -0.054575756
-0.04221549 0.12406679 0.054197025 -0.011071306 0.007117125 0.039828334 0.008300051 -0.064265735
-0.099255145 -0.08602313 0.031083455 -0.007814377 -0.081230484 0.07472247 0.077913985 0.024993895
0.09623764 -0.080655724 -0.08346255 0.04162577 0.11393875 0.018750595 -0.09132176 -0.01762527
-0.027088653 -0.07485244 -0.043146584 -0.039681703 0.016565625 -0.021035427 0.120601006 -0.07928747
0.0166811 0.10006233 -0.009102286 -0.1127016 0.0023755634 0.05001963 -0.08339983 0.0690498
0.00044077006 -0.07688873 0.029998142 -0.058118504 0.1292018 -0.110722154 -0.08783238 0.0006568552
0.012266041 -0.026925897 -0.035792243 -0.063710816 0.08923183 0.118268944 -0.08460766 -0.020964252
-0.09946715 0.117998466 -0.048076384 -0.072544664 -0.05326661 0.029177044 0.043554228 -0.08511939
-0.022430519 0.066983484 0.029300846 -0.1203911 0.060578473 0.12451653 0.016146943 0.1275831
0.0998599 -0.09252125 -0.047775343 0.11553355 -0.043664444 0.113785364 -0.09851825 0.09310232
0.025128867 -0.11563026 -0.12856026 -0.10904095 0.100197434 0.03151057 0.04428891 -0.048461065
-0.106424265 0.091925375 -0.058646742 -0.013375687 -0.014216445 0.089221746 0.053529803 -0.022611752
0.12702991 0.10875054 -0.011882175 0.09600912 -0.04470539 -0.1009928 0.11545294 -0.0010234785
-0.01316774 -0.08010407 -0.03934853 -0.06009383 0.01246662 -0.110872224 0.04145751 0.023919635

encoder.rnn.weight_hh_l1 f4 [192, 64]
00000000: 1d6f 02be f8a3 86bd 99e0 ffbc 7559 d1bc
00000010: 89b9 d1bd c4ef 6abc 0ff8 a3bd e293 eabd
00000020: 420f c8bd 531d 89bd 1f05 d73d 0998 cf3c
00000030: e596 9ebd 97ed f73d 3577 14bd a155 54bd
00000040: 96f3 cc3d d224 aabc a454 833d 79ed 393b
00000050: 1d34 43bc 1bd8 da3d 915a e1bc 5b9d 9d3d
00000060: 118a fb3d 297e e7bd b072 c7bc 9e3e c4bd
00000070: fd89 063d 9a4a d4bd d75b 5dbc 3ed3 bebd
00000080: 7a63 bc3d d31c 503d e925 133d 78d8 3c3d
00000090: b78c d43b 096a debd b35a e2bd ec6c 90bd
000000a0: f431 873d 0d4e 9bbd 29a8 7abd 3812 8e3d
000000b0: 86ca c5bd 2fe8 d43d 4fdd d3bd 0a1d c4bd
000000c0: 8e77 0dbd 4d8d 38bc 8e32 e43d 3a6e 09bd
000000d0: 7a23 943d 0d24 5c3d 628c afbd 7232 723d
000000e0: 30c8 dabd 2118 d9bd 7d78 c53c 8147 9d3c
000000f0: e075 153c 0082 a33d dbad 9f3c d45b 54bd
00000100: 7bcb fd3d 4810 cbbd cd0e 003b 7051 023e
00000110: 4f18 f33c 698e 5e3c 8fe7 a5bd d825 8a3d
00000120: d0f0 17bd 80e9 94bd 7a73 af3d 72a4 ca3d
00000130: fcd0 db3d 854c e43c 0c15 bb3c f82e 86bd
00000140: 2c00 a63d c231 a7bb 0548 5abd 64de 263d
00000150: 9c49 eb3d 9dcc 08bd 6196 89bc 5491 3c3c
00000160: 9e8d eebd b104 a8bd 36ba 093d 5d7a fabd
00000170: 6fef ef3b 4db7 da3c cd77 9f3d 2386 4bbd
00000180: 4e21 2fbd 065e 60bc 0b14 25bd f8b1 91bc
00000190: 25d3 b4bb b25c ca3d c99e c3bd 4e1b f83b
000001a0: 4993 a83d c485 93bc 6548 87bd c2da 073d
000001b0: a4f7 e13d 155d c0bd 5cfd 7a3d ad4d 66bd
000001c0: 1456 22bb c1be fcbd 606a d9bd bd30 dd3d
000001d0: 7e04 ddbc 735f 16bc acc8 ef3c 1999 e03d
000001e0: aa97 eb3b b543 c8bd 6140 a53d 0b5c c3bd
000001f0: 987e 93bd 5655 d93b e7eb 9dbd 89b0 e23d
00000200: c2f6 bf3d 896f d23d a17b 523c 0735 863d
00000210: d625 98bd 0a6f ffbd 9e1d e53d fd06 bc3d
00000220: 7e46 b03d 0ccd 0abc 5b18 ac3c fef2 c83d
00000230: 7190 d9bd 8c4a 56bd 8201 473d b56f d13d
00000240: 87c3 a2bd d9d7 003e a74e 8bbd fb4f 8d3d
00000250: 24f7 24bd 5e6b 973d f0ee c33d 4fce a6bd
00000260: 9bea 67bd 0d87 da3d 3ce4 003e b5b4 463c
00000270: 4ad6 4a3d 45f8 d93b 9178 d63c aa24 7c3d
00000280: 6f3a ebbd ac02 15bc bb93 023c d7f2 bcbd
00000290: df98 5f3d ad74 63bc bfab afbd d0d9 423d
000002a0: 09be 033d eee5 eebd 23a0 7c3c 3e56 04bd
000002b0: 3d21 e43d 04ce 92bd c0f2 ab3d 7da8 13bd
000002c0: 3ed7 e33d bf60 8dbd 5601 e1bd 85a2 8bbd
000002d0: a705 d5bd 63b5 bd3c 6a8c 88bd 2f92 3c3c
000002e0: 7edf d9bc 29f3 92bd a499 cc3d 336f 803c
000002f0: 424c bd3d 10c6 143d ac12 713d 9702 e33d
00000300: 4a7c 113e e158 2abd 6b8d 963d c0b0 1ebc
00000310: a158 f23d 8b16 88bd dd80 dfbd 133e f1bc
00000320: ce56 7d3b 8f69 afbd 33fa 90bd 82fe 48bd
00000330: f2f3 5dbc 3993 07be 57d5 223d 7f3a e8bd
00000340: 7325 ed3d 4b05 efbc dc7c 92bd 7e55 85bd
00000350: 1b2c e73d 827f e5bd e7d5 ca3c a061 7c3d
00000360: d406 84bd 0a61 9ebb 5efe 02bd 167d 32bd
00000370: a6bb ac3d c3cb d93d fad6 6b3d 9ee3 92bd
00000380: 143a 283d bd76 993d 6702 2bbb 1c10 8f3a
00000390: b33f e43d d104 91bd 9a85 8fbd 733b dd3d
000003a0: 9046 ec3b ea18 84bd ca3a d0bd 0a4a fcbd
000003b0: b2c4 fdbd a53f 03be 2122 7cbd 1da3 4c3d
000003c0: 8de6 acbd a337 e73d c066 4d3d 442b fbbc
000003d0: 0ecf 0c3e 66f9 223d 0daa 8d3d 92f8 14be
000003e0: 1490 d63c 4811 fd3d a15a 92bd 3a58 993d
000003f0: aad6 7fbc a4f6 9bbd f83e 87bc d83d 5e3d
-0.12737699 -0.06574243 -0.031235026 -0.025555352 -0.10240466 -0.014339391 -0.08006298 -0.11453988
-0.09768535 -0.06695046 0.10499024 0.02534105 -0.077436246 0.121058635 -0.036246497 -0.051839475
0.10007398 -0.02076951 0.06412628 0.0028370304 -0.01191428 0.1068575 -0.027509006 0.07696029
0.122821935 -0.1130336 -0.02434668 -0.09582256 0.03284644 -0.103657916 -0.013510666 -0.09317635
0.09198661 0.05080874 0.035924826 0.04610488 0.006486501 -0.10860068 -0.11052456 -0.07052025
0.06601325 -0.075832464 -0.061195526 0.06937069 -0.09657769 0.10395848 -0.10344946 -0.09575851
-0.034537844 -0.0112641575 0.11142455 -0.033552386 0.07233329 0.05374532 -0.08571698 0.05913014
-0.10682714 -0.10600305 0.024105305 0.019199135 0.009122342 0.0798378 0.01949208 -0.051845387
0.123923264 -0.09915215 0.0019540072 0.12726378 0.029674677 0.013583758 -0.08100807 0.06745499
-0.03709489 -0.07271099 0.08566947 0.09894647 0.1073322 0.027868519 0.022837184 -0.06551927
0.081055015 -0.005102367 -0.05329134 0.040739432 0.11488649 -0.03339826 -0.016795339 0.011509258
-0.11648105 -0.0820402 0.03362485 -0.1223037 0.007322244 0.026698733 0.07786522 -0.04968847
-0.04275637 -0.013694292 -0.040302318 -0.017785057 -0.0055183345 0.098809615 -0.0955177 0.0075716143
0.082312174 -0.01800812 -0.06605605 0.033167608 0.11033562 -0.09392754 0.06127678 -0.05622642
-0.0024770545 -0.12341071 -0.106159925 0.10800312 -0.026979681 -0.00917803 0.029270492 0.10966701
0.0071897106 -0.09778539 0.0806892 -0.0953904 -0.0720188 0.0066324873 -0.077110104 0.11068828
0.09373237 0.1027518 0.012846858 0.06553083 -0.07429092 -0.12472351 0.1118729 0.091810204
0.08607195 -0.008471739 0.021007707 0.09811972 -0.10623253 -0.052317187 0.048585422 0.102263846
-0.0794745 0.1258234 -0.06802111 0.06900021 -0.040274754 0.073935255 0.09567058 -0.08144819
-0.05662022 0.1067029 0.12587065 0.012128045 0.04952077 0.0066519105 0.026180537 0.061558403
-0.11485755 -0.009094875 0.007969792 -0.092260055 0.05458915 -0.013882798 -0.0857768 0.047571003
0.032163654 -0.11664949 0.015419039 -0.03230881 0.11139152 -0.071682006 0.0839591 -0.036049355
0.111250386 -0.069032185 -0.10986583 -0.068181075 -0.10401469 0.023157781 -0.06667407 0.011509462
-0.026595827 -0.07175285 0.09990242 0.015678024 0.09243061 0.0363217 0.058855698 0.11084478
0.14207569 -0.041588668 0.07351192 -0.009685695 0.11833311 -0.06644925 -0.109132506 -0.029448545
0.0038656476 -0.085650556 -0.07078972 -0.049070843 -0.013546931 -0.13239755 0.039754238 -0.11339282
0.115794085 -0.029177329 -0.07152721 -0.06510447 0.11287709 -0.11205961 0.0247602 0.06161654
-0.06446615 -0.0048333453 -0.031980865 -0.043576322 0.084342286 0.106345676 0.057578065 -0.07172321
0.041071013 0.07493351 -0.0026093961 0.0010914835 0.11144962 -0.07080997 -0.07007904 0.10802355
0.00721056 -0.064500645 -0.10167463 -0.12318809 -0.12391032 -0.12817247 -0.061555985 0.049960244
-0.084424116 0.11289909 0.05014682 -0.03066028 0.1375086 0.039788626 0.069172 -0.14547947
0.026191749 0.12356812 -0.07146192 0.07487531 -0.015615145 -0.07615402 -0.016509518 0.054258198
