checkpoints/models/single_stock_daily/81to9/000001/model70.pth (torch, 292914 bytes, 16 tensors)

encoder.conv1.weight f4 [18, 6, 3]
0	0xbe18e01a	-0.14929238
1	0xbdd91c2d	-0.10601077
2	0xbdf76edd	-0.12081692
3	0xbd0f1f77	-0.034942117
4	0x3e186bcc	0.14884871
5	0x3d42099e	0.047372453
6	0xbe74d238	-0.23908317
7	0x3e518481	0.20460702
8	0x3e57bdab	0.21068446
9	0x3d44bfc2	0.048034437
10	0x3dca0d2b	0.09865793
11	0x3dc7ec7e	0.09761904
12	0x3e286834	0.16446
13	0xbe7b5514	-0.24544173
14	0xbe0da404	-0.13832098
15	0xbd908c83	-0.070580505
16	0xbdb3a38e	-0.0877143
17	0xbe41d361	-0.18928291
18	0xbe64867a	-0.22316924
19	0xbe3748b5	-0.1789883
20	0xbd1c6053	-0.0381778
21	0x3e4a95b1	0.19783665
22	0x3e23bd13	0.15990095
23	0x3da2c1b5	0.07947103
24	0xbe1366d5	-0.14394696
25	0xbda75ef5	-0.081724085
26	0x3d78b366	0.060717963
27	0xbe5f5038	-0.21807945
28	0xba348c20	-0.00068873353
29	0x3d97a105	0.07403759
30	0x3e57e93a	0.21085063
31	0xbd5d665e	-0.054052703
32	0x3e8334cb	0.25626215
33	0x3b459d78	0.0030153673
34	0xbe340ea3	-0.17583708
35	0x3e5886fa	0.2114524
36	0x3e5d09ae	0.21585724
37	0xbe360bee	-0.17777988
38	0xbdff6823	-0.124710344
39	0x3dde45ed	0.10853181
40	0xbe2bf9e0	-0.16794538
41	0x3e183929	0.14865555
42	0xbe04a882	-0.12954906
43	0xbe03f429	-0.12886108
44	0xbde4ece5	-0.111779965
45	0x3e58d516	0.21175036
46	0xbdf8d6ad	-0.12150321
47	0xbd9b814b	-0.0759302
48	0x3e082aaf	0.13297532
49	0xbe4d6961	-0.2005973
50	0xbceeeebe	-0.029166576
51	0xbe40490d	-0.18777867
52	0xbe78e5c5	-0.243064
53	0xbdccd7f2	-0.10002126
54	0x3cb1e71d	0.021716649
55	0x3e3ca1ab	0.18421046
56	0xbe6b258c	-0.22963542
57	0xbd978430	-0.0739826
58	0x3d260f0a	0.040541686
59	0x3dc3ed82	0.095667854
60	0x3df89017	0.12136858
61	0xbe7af299	-0.24506606
62	0xbcec80ad	-0.028869951
63	0x3d2a8e20	0.041639447
64	0xbe6982e2	-0.22803834
65	0x3e0bf695	0.13668282
66	0xbe71ce02	-0.23613742
67	0x3dddef04	0.10836604
68	0x3dc2d1c8	0.09512669
69	0xbd7d2d53	-0.061810803
70	0x3d8babe7	0.06819897
71	0x3e373746	0.17892179
72	0x3e2a3689	0.16622366
73	0x3e099d32	0.13438872
74	0xbe0b99a0	-0.13632822
75	0x3d86ec25	0.0658801
76	0x3e3c71d5	0.18402798
77	0x3d860147	0.065432124
78	0x3e23b96f	0.15988706
79	0xbe04c6c3	-0.12966447
80	0x3e653f8c	0.22387522
81	0xbbb7b34b	-0.00560609
82	0xbe4a14e9	-0.19734539
83	0xbc96c495	-0.018404284
84	0x3e5490d8	0.20758379
85	0xbd912654	-0.07087389
86	0x3a1e1c29	0.0006031418
87	0xbdfa023a	-0.12207456
88	0xbe122065	-0.1427017
89	0x3d349398	0.04408607
90	0x3e08929e	0.1333718
91	0x3ca87306	0.02056266
92	0xbc6d7b5a	-0.014494741
93	0xbad8a182	-0.0016527625
94	0xbe4c201c	-0.19934124
95	0xbdf90295	-0.121586956
96	0xbc1927b7	-0.009347848
97	0xbe726bda	-0.23673955
98	0x3e0da5de	0.13832805
99	0x3c8d8948	0.017277375
100	0xbd000d8e	-0.031262927
101	0xbb2d4d6c	-0.0026443852
102	0x3e3773fe	0.17915341
103	0x3e3787c2	0.17922881
104	0x3e028902	0.12747577
105	0x3de7ad21	0.113123186
106	0xbdf89bbb	-0.12139078
107	0x3da6c68f	0.08143341
108	0xbe285ef0	-0.16442466
109	0x3dbf5fbd	0.093444325
110	0xbe2facf5	-0.17155822
111	0xbba4db04	-0.0050309915
112	0x3e386405	0.18006904
113	0x3e2db062	0.16961816
114	0x3e59f60a	0.21285263
115	0x3de5e0bd	0.11224506
116	0x3e0af44d	0.13569756
117	0x3d85c874	0.06532374
118	0x3e476aca	0.1947433
119	0x3e1dd3a7	0.1541277
120	0x3d8c5f3e	0.068541035
121	0xbd7df6cf	-0.062002953
122	0xbdaeb1f1	-0.085300334
123	0xbda0fb48	-0.07860428
124	0x3dd6acf8	0.1048221
125	0xbdfb65e2	-0.12275292
126	0x3d87e92b	0.0663627
127	0x3e543067	0.20721589
128	0x3e49c4ae	0.19703934
129	0xbe3030e4	-0.1720615
130	0x3d7b14bb	0.061299067
131	0x3e10d958	0.1414541
132	0xbe5df14e	-0.21674082
133	0x3e06f698	0.13180006
134	0xbe3c26f0	-0.18374228
135	0xbe30663c	-0.172265
136	0xbde96feb	-0.113983
137	0xbdeb7de8	-0.11498624
138	0xbdc577cf	-0.09641992
139	0x3d665818	0.056236356
140	0x3d88be9d	0.066769816
141	0x3df28447	0.11841636
142	0x3e3c01e8	0.18360102
143	0xbe112cd0	-0.14177251
144	0xbe5eaeee	-0.21746418
145	0xbe3d07f3	-0.18460064
146	0xbdfd0e52	-0.12356247
147	0xbdd2c7cf	-0.10292017
148	0x3dc2f0a7	0.09518557
149	0xbe392983	-0.18082242
150	0xbe33bcae	-0.17552444
151	0x3dbf93b5	0.09354345
152	0xbe433579	-0.19063367
153	0x3d328d07	0.043591525
154	0xbe4ec6f2	-0.20193079
155	0x3d816002	0.0631714
156	0x3e18c614	0.14919311
157	0xbe60181c	-0.21884197
158	0x3d5ea135	0.054352958
159	0xbda0fb35	-0.07860414
160	0x3e3a2a6f	0.1818025
161	0x3e7770f5	0.24164183
162	0xbe54bebd	-0.20775886
163	0x3d9a5383	0.0753546
164	0x3e1b0b3b	0.15141003
165	0x3e584aa7	0.21122228
166	0x3e34c91d	0.17654844
167	0x3ced51e9	0.028969722
168	0x3c59d6f9	0.013295882
169	0x3d562bbf	0.052287813
170	0xbe3f8ff6	-0.1870726
171	0xbd47b7e6	-0.048759364
172	0xbb92e687	-0.0044830474
173	0xbe3a8c5e	-0.18217608
174	0xbc2428db	-0.010019506
175	0xbcf0e7b8	-0.029407367
176	0xbdeb2ee7	-0.11483555
177	0xbd8a00a1	-0.06738401
178	0xbe641925	-0.22275217
179	0x3e79ba89	0.24387564
180	0x3ddbb15e	0.107271895
181	0x3e266005	0.16247566
182	0xbe542477	-0.20717035
183	0xbe7bee46	-0.24602613
184	0x3e379144	0.17926508
185	0xbd4a8f04	-0.049452797
186	0x3d106a70	0.035257757
187	0x3e21a3d8	0.15785158
188	0x3cca307f	0.024681328
189	0xbc55b008	-0.013042457
190	0x3e287aed	0.16453142
191	0x3e435c28	0.19078124
192	0xbd9930a9	-0.07479984
193	0xbe3759ae	-0.17905304
194	0xbe03466c	-0.12819833
195	0x3e5a1f02	0.21300891
196	0x3d9cc8d4	0.076554924
197	0x3e957eca	0.29198295
198	0xbd850da1	-0.0649674
199	0xbe55ecbd	-0.2089109
200	0x3dc70bf9	0.097190805
201	0xbdb83ce8	-0.08995992
202	0xbe16d907	-0.14731227
203	0x3e2440ec	0.1604039
204	0x3c8258ae	0.015911426
205	0xbd78428a	-0.06061033
206	0x3e70df42	0.23522666
207	0x3e555f2e	0.2083709
208	0xbe5ebb31	-0.21751095
209	0xbe55244a	-0.20814624
210	0xbde341ab	-0.110965095
211	0xbe53a23c	-0.20667356
212	0xbdea802f	-0.1145023
213	0x3e4a0cd6	0.19731459
214	0xbe035830	-0.1282661
215	0x3e76f993	0.24118643
216	0x3d74f587	0.059804466
217	0xbb109025	-0.0022058573
218	0x3cc29ecb	0.023757359
219	0x3d1661ea	0.036714472
220	0x3d9866d3	0.07441487
221	0xbe465bfe	-0.1937103
222	0xbc1d0639	-0.009584003
223	0x3e3556cd	0.17708893
224	0x3e84c622	0.25932413
225	0xbca59036	-0.020210367
226	0xbe20f022	-0.15716603
227	0x3df7e513	0.12104239
228	0xbe674b40	-0.225873
229	0x3e610b7e	0.2197704
230	0x3e2088e8	0.15677226
231	0x3db5889c	0.08863947
232	0x3c8ea903	0.017414575
233	0x3e214ab9	0.1575116
234	0xbd9d5b72	-0.076834574
235	0xbe37031f	-0.17872284
236	0xbdf4cd3c	-0.11953208
237	0x3e3eafff	0.18621825
238	0xbdd48791	-0.1037742
239	0xbe4009d5	-0.1875375
240	0x3d8655c7	0.065593295
241	0xbdfa156a	-0.12211116
242	0xbcd013ca	-0.025400061
243	0xbe0c13b4	-0.13679391
244	0x3d8bf61b	0.0683405
245	0xbd3cf741	-0.046134237
246	0x3d368100	0.044556618
247	0x3e037ef0	0.12841392
248	0xbe2389a5	-0.15970476
249	0xbd7975f7	-0.060903516
250	0xbe09cf16	-0.13457903
251	0x3e5d5cb8	0.216174
252	0xbd5ef5d2	-0.05443365
253	0x3dd964e8	0.106149495
254	0x3d812a81	0.06306935
255	0xbe5cd099	-0.21563949

encoder.conv1.bias f4 [18]
0	0x3e358c22	0.17729238
1	0x3d5177ff	0.051139828
2	0xbe1ea84b	-0.15493886
3	0x3e254784	0.16140562
4	0xbd537b5e	-0.051631324
5	0x3bd8f07a	0.006620464
6	0x3c4f29d4	0.01264425
7	0xbc85ff0e	-0.016356971
8	0x3e74ca01	0.23905183
9	0x3dc244b7	0.094857626
10	0x3d0b6584	0.03403236
11	0xbd7e36e7	-0.062064078
12	0x3d0c6981	0.034280304
13	0xbe1c5639	-0.15267266
14	0xbd174529	-0.03693119
15	0x3dbfff2c	0.09374842
16	0xbe70714b	-0.23480718
17	0x39f980c7	0.00047588928

encoder.conv2.weight f4 [54, 18, 3]
0	0xbd541266	-0.05177536
1	0x3d828f0f	0.063749425
2	0xbdbb272e	-0.09138332
3	0x3b94363a	0.004523066
4	0xbd6ec27a	-0.058290936
5	0x3dc24682	0.094861045
6	0xbcb37bf4	-0.021909691
7	0xbdd1c0db	-0.102418624
8	0xbd334a26	-0.043771885
9	0x3dc92174	0.09820834
10	0x3d51e515	0.05124386
11	0x3d17bff6	0.037048303
12	0x3dae32d5	0.08505789
13	0x3d42ea69	0.047586832
14	0xbc4d7fab	-0.012542645
15	0xbd8dc8be	-0.06923054
16	0xbe074aed	-0.13212176
17	0x3d90f39a	0.07077713
18	0x3dc7540f	0.0973283
19	0xbd7cdb93	-0.06173284
20	0xbd925686	-0.07145409
21	0x3d159b9f	0.036525365
22	0x3bf0bc6e	0.0073466813
23	0x3df51c2c	0.11968264
24	0xbaf23d6c	-0.001848144
25	0xb89a9459	-7.370924e-05
26	0xbdfcbde9	-0.1234091
27	0x3d0abf03	0.03387357
28	0x3c4744f0	0.012162432
29	0x3d16226c	0.03665392
30	0x3dadf91c	0.084947795
31	0x3d70c4bc	0.05878137
32	0x39f257c2	0.00046223222
33	0xbc2c3d58	-0.010512672
34	0xbd8ad6ab	-0.06779226
35	0x3dfcb6b8	0.12339538
36	0x3deaef38	0.114714086
37	0xbb45661f	-0.0030120683
38	0x3e086217	0.13318668
39	0x3df1372b	0.117781006
40	0x3d9dd303	0.07706263
41	0x3d877918	0.06614894
42	0x3d6be13c	0.057587847
43	0xbc9fd28f	-0.019509582
44	0x3c48dc4d	0.012259555
45	0x3de2ff77	0.11083882
46	0xbc9a616d	-0.018845284
47	0x3d3d3c9b	0.046200376
48	0xbd3d66a1	-0.046240453
49	0x3ca9599e	0.020672616
50	0x3d8eb28e	0.0696765
51	0x3db5c118	0.0887472
52	0x3d8c5dd1	0.068538316
53	0x3d7928c0	0.060829878
54	0xbd545dd8	-0.05184731
55	0x3dd9e6ca	0.10639723
56	0x3dc369da	0.09541674
57	0x3dc6d63b	0.0970883
58	0xbdbb2430	-0.091377616
59	0xbd25df53	-0.04049618
60	0xbde903d3	-0.113776825
61	0x3ce2bf1b	0.027679017
62	0x3de1d39b	0.11026689
63	0xbdc5965a	-0.09647818
64	0x3d7a168d	0.061056662
65	0x3bd7184c	0.0065641757
66	0xbe146a04	-0.14493567
67	0xb78e5843	-1.696882e-05
68	0xbc483889	-0.01222051
69	0xbda63f40	-0.08117533
70	0xbd975c30	-0.0739063
71	0x3dab43ea	0.08362563
72	0xbcfe2713	-0.031024491
73	0xbd729aaf	-0.05922955
74	0xbd3966dd	-0.045264114
75	0xbc64531f	-0.013935833
76	0xbd2f51ae	-0.042802505
77	0xbdb81b4f	-0.08989584
78	0x3dc66405	0.09687046
79	0x3d23763f	0.03990769
80	0xbde4bcc5	-0.111688174
81	0xbcaf4b10	-0.021398097
82	0xbd2f4120	-0.042786717
83	0xbd7daaf7	-0.061930623
84	0x3d01666f	0.03159183
85	0x3dee7413	0.11643233
86	0xbdd58eaa	-0.10427602
87	0x3ab97e15	0.0014151955
88	0x3e0f5608	0.13997662
89	0xbd916d10	-0.0710088
90	0xbe060f0c	-0.13091677
91	0x3c846ae1	0.016164245
92	0xbb748b1e	-0.0037314366
93	0x3c00ebb2	0.007868694
94	0x3db7f5b4	0.08982411
95	0xbde9ba19	-0.114124484
96	0xbdb4fbbe	-0.088370785
97	0x3dcbdd36	0.09954302
98	0xbdc0f048	-0.0942083
99	0xbbd926e7	-0.006626952
100	0x3d5b13da	0.05348573
101	0xbda50c23	-0.080589555
102	0xbdbc7ece	-0.092038736
103	0xbde156f8	-0.11002916
104	0xbdddaea4	-0.10824326
105	0xbdf24134	-0.11828843
106	0xbd1f5d3a	-0.038907267
107	0xbe0305c3	-0.12795167
108	0xbd956ee8	-0.07296544
109	0x3cb0c387	0.02157761
110	0x3e0a0e54	0.13482028
111	0x3e0e320a	0.13886276
112	0x3dc6500d	0.09683237
113	0x3b3c2595	0.0028708924
114	0x3daad44d	0.083412744
115	0xbd2f504f	-0.042801198
116	0xbdab4a2b	-0.08363756
117	0x3d8c145d	0.068398215
118	0x3d531090	0.051529467
119	0x3d26f016	0.040756308
120	0x3d94046e	0.072274074
121	0xbcbf1990	-0.023327619
122	0x3dd2cecf	0.10293352
123	0x3d9d4c42	0.07680561
124	0xbd6bdc2b	-0.057583015
125	0x3dc656ad	0.09684501
126	0x3d6d17ce	0.05788403
127	0x3c805173	0.015663838
128	0x3bddc3fe	0.006767749
129	0x3dedabe9	0.11605055
130	0x3a34b983	0.00068940985
131	0x3d2ab0c1	0.041672472
132	0x3dacb144	0.08432248
133	0xbc3707f5	-0.011171331
134	0x3de7cecd	0.11318741
135	0xbd9cf166	-0.076632306
136	0xbc578bbd	-0.013155875
137	0x3c8c3638	0.017115697
138	0x3ae4f916	0.0017469253
139	0xbdcc6d38	-0.09981769
140	0x3dfb4f27	0.122709565
141	0xbda85a21	-0.08220316
142	0x3db35373	0.08756151
143	0xbd769b4c	-0.060206696
144	0x3d6ae34b	0.05734567
145	0xbd932902	-0.07185556
146	0xbd7a999f	-0.06118166
147	0x3cfcdad4	0.030866064
148	0x3db71a5a	0.08940573
149	0xbc2b6b63	-0.010462615
150	0x3d4395a6	0.047750138
151	0xbda72b6f	-0.08162581
152	0x3d2654ac	0.040608093
153	0xbc74cd2e	-0.014941497
154	0xbcf76d19	-0.030203389
155	0x3d864c86	0.065575644
156	0xbd6105ee	-0.054937296
157	0xbdae30e7	-0.08505421
158	0xbd176dd8	-0.03696999
159	0x3d8e991f	0.06962799
160	0x3e0b0c0e	0.13578817
161	0x3e060fa8	0.1309191
162	0x3df71f11	0.12066472
163	0xbd6f1c10	-0.05837637
164	0x3e0e6675	0.13906272
165	0x3dbce2ad	0.092229225
166	0x3b8d1d1b	0.004306448
167	0xbdb87f80	-0.09008694
168	0xbd858778	-0.06519979
169	0x3cdbdd33	0.026838874
170	0x3bc331e1	0.0059568738
171	0xbd269190	-0.040666163
172	0xbe0637f9	-0.1310729
173	0x3dbbc773	0.09168901
174	0x3d7eaf18	0.0621787
175	0x3c956986	0.018238794
176	0x3c6b4e2a	0.0143618975
177	0x3db5cc6b	0.0887688
178	0xbdbe6d70	-0.09298217
179	0xbc9b9abc	-0.018994682
180	0x3e0ef809	0.13961805
181	0x3c574df4	0.013141144
182	0xbdd5f605	-0.10447315
183	0xbdc24eda	-0.09487696
184	0x3da31868	0.079636395
185	0x3d62d586	0.055379413
186	0x3d4d39de	0.050104015
187	0xbdc0e8f4	-0.09419432
188	0xbda83a57	-0.082142524
189	0xbe2762ac	-0.16346234
190	0x3cff982b	0.031200489
191	0xbc9115c9	-0.017710583
192	0x3df26ce8	0.118371785
193	0xbd6cafd8	-0.057784885
194	0xbde8bcda	-0.113641456
195	0x3d46f8d5	0.04857715
196	0xbd9d69f6	-0.07686226
197	0xbcc2e710	-0.02379182
198	0x3e20eb54	0.1571477
199	0x3dc2a587	0.09504228
200	0xbe18cb8d	-0.14921398
201	0xbb39694b	-0.002829152
202	0x3a902c7f	0.0010999589
203	0x3e0fb4da	0.14033833
204	0xbde99a6c	-0.11406407
205	0x3d9aa67b	0.07551285
206	0xbe09fd39	-0.13475503
207	0xbe17ded2	-0.14831093
208	0xbd7f95e2	-0.0623988
209	0xbe11c570	-0.14235473
210	0xbccee400	-0.025255203
211	0x3e0b7ae1	0.13621093
212	0xbd036bad	-0.03208511
213	0xbdcff148	-0.101534426
214	0x3c35ce84	0.0110966
215	0xbdb2109c	-0.08694574
216	0x3da82152	0.0820948
217	0x3c285596	0.0102743115
218	0x3defa031	0.11700476
219	0x3b8ca30e	0.0042918986
220	0x3d487034	0.04893513
221	0x3d423e4e	0.0474227
222	0x3df7db10	0.1210233
223	0xbda6a415	-0.08136765
224	0xbdb2f3f2	-0.08737935
225	0x3dda7886	0.10667519
226	0x3d96de63	0.07366636
227	0x3e123009	0.14276136
228	0x3ce783a1	0.028261008
229	0x3d761e3c	0.060087427
230	0x3dc4942e	0.095985755
231	0x3dae0578	0.08497137
232	0x3dafd1da	0.08584948
233	0xbdc5414f	-0.09631597
234	0x3cf6a066	0.03010578
235	0xbde1ee64	-0.110317975
236	0x3c3ff25a	0.011715496
237	0x3dc1cd4a	0.09462984
238	0xbd071ab9	-0.03298447
239	0x3e0595ef	0.13045476
240	0x3e0d1bb4	0.13780099
241	0x3d7deee6	0.06199541
242	0xbdbee5d4	-0.0932118
243	0x3d2919a5	0.041284222
244	0x3dd87bae	0.10570465
245	0x3cce8497	0.025209708
246	0x3dfd0371	0.12354172
247	0x3bd531f4	0.006506199
248	0xbd6e817a	-0.058228947
249	0x3dada81c	0.0847933
250	0x3d5c4dbe	0.05378508
251	0x3d9cffc0	0.07665968
252	0xbdbd66d2	-0.09248127
253	0xbde55b2b	-0.111990295
254	0x3dbfbe97	0.09362524
255	0x3d446a1e	0.047952764

encoder.conv2.bias f4 [54]
0	0x3df271cf	0.118381135
1	0xbc8880db	-0.016663006
2	0xbe0231ea	-0.12714353
3	0xbd7e9c4b	-0.06216077
4	0xbd8a08e2	-0.067399755
5	0x3dc8185c	0.09770271
6	0xbdbc228f	-0.09186279
7	0x3de93d0f	0.11388599
8	0x3d5e912f	0.054337677
9	0xbc725b53	-0.014792281
10	0xbd0196cb	-0.031637948
11	0x3da437cb	0.08018454
12	0xbda4bcf4	-0.080438524
13	0xbd42dc78	-0.047573537
14	0x3e04d533	0.12971954
15	0xbcefa48b	-0.029253265
16	0x3c253058	0.010082327
17	0x3ddeca70	0.10878456
18	0xbdf50f71	-0.11965836
19	0x3c65afb8	0.014018945
20	0x3b52edb2	0.0032185134
21	0xbdb59f1e	-0.0886824
22	0x3dd603fc	0.10449979
23	0x3dd41e50	0.10357344
24	0xbc6f8c67	-0.014620877
25	0xbc5e8bb3	-0.013583112
26	0x3dc906ff	0.098157875
27	0xbd192d24	-0.037396565
28	0x3d8be10f	0.06830036
29	0xbdbbcb4b	-0.091696344
30	0xbdf123cd	-0.117744066
31	0x3dc3978e	0.09550391
32	0x3db498ab	0.088181816
33	0xbded5201	-0.11587907
34	0xbd38d28a	-0.04512266
35	0x3d76b0b8	0.060227126
36	0x3d960003	0.07324221
37	0x3dc06c22	0.09395625
38	0x3dd3b68a	0.10337551
39	0xbd5b8af9	-0.05359933
40	0x3c7d4c98	0.015460156
41	0x3dffc2f5	0.12488357
42	0xbdd796d1	-0.10526813
43	0x3da84483	0.082161926
44	0x3d2c1b89	0.042018447
45	0xbae45b18	-0.0017422168
46	0x3e03a208	0.12854779
47	0xbd58e364	-0.05295123
48	0xbcd91cfa	-0.026503075
49	0xbdbd2b07	-0.092367224
50	0x3deb150c	0.11478624
51	0xbdc39920	-0.09550691
52	0x3e040346	0.12891874
53	0xbdcd5a63	-0.100270055

encoder.rnn.weight_ih_l0 f4 [192, 54]
0	0x3d97f65b	0.074200355
1	0xbd90c399	-0.07068557
2	0x3ddc963d	0.10770843
3	0xbda6992c	-0.08134684
4	0xbdabff20	-0.083982706
5	0xbcd920c8	-0.02650489
6	0xbdc52f64	-0.0962818
7	0x3dfdfdce	0.12401925
8	0x3d1b5ba7	0.037929203
9	0xbda8eccd	-0.08248291
10	0xbdc16ad4	-0.09444204
11	0xbd02af50	-0.031905472
12	0x3c0dd89d	0.008657602
13	0xbdd02c1b	-0.101646625
14	0x3db728af	0.08943307
15	0xbd89d4fc	-0.06730077
16	0x3c971348	0.018441811
17	0x3dcab175	0.098971285
18	0xbdc8138b	-0.097693525
19	0xbdcce9fb	-0.10005566
20	0xbdeed8fd	-0.11662481
21	0x3c8b50cf	0.017006306
22	0x3dde60d4	0.10858312
23	0xbd9f0081	-0.07763768
24	0xbc5c19ae	-0.013433857
25	0x3d97a8e1	0.07405258
26	0x3de1734c	0.11008319
27	0x3d5c414d	0.053773213
28	0x3d57a5bf	0.052648302
29	0x3cc27f21	0.02374226
30	0xbc3ddc4d	-0.011588168
31	0x3de0fc8d	0.1098567
32	0x3b8b6095	0.004253457
33	0x3d5c5ad1	0.053797547
34	0xbbf54555	-0.0074850717
35	0x3e1678d0	0.14694524
36	0xbe002e75	-0.12517722
37	0xbd19b6fd	-0.037528027
38	0xbdec19e8	-0.11528379
39	0x3cd3d33c	0.02585756
40	0xbce1c5f2	-0.027560208
41	0xbda6934c	-0.081335634
42	0xbdcf0911	-0.10109151
43	0x3d1f12ea	0.038836397
44	0x3dc1d6c9	0.09464795
45	0x3de3c6b4	0.11121884
46	0x3db12ecb	0.08651503
47	0xbdd3371e	-0.10313247
48	0x3ddb26f3	0.10700788
49	0x3df83d95	0.12121121
50	0x3c2deade	0.010615079
51	0xbdf8993a	-0.12138601
52	0xbdd09b3f	-0.10185861
53	0xbdc8c01b	-0.09802266
54	0xbcd264d9	-0.025682854
55	0x3dccb3df	0.09995245
56	0x3ddaec59	0.10689611
57	0xbc06a032	-0.0082169045
58	0xbdb2f56a	-0.08738215
59	0x3c61494a	0.013750384
60	0xbd1cbaee	-0.038264208
61	0xbd25fa98	-0.040522188
62	0x3d7cadeb	0.0616893
63	0x3ba0305e	0.0048885783
64	0x3db6c221	0.08923746
65	0xbcc37534	-0.023859598
66	0x3e157fa6	0.14599475
67	0xbde8cb17	-0.11366861
68	0x3cdb14d5	0.026743332
69	0x3d88a54b	0.06672152
70	0xbd176552	-0.03696186
71	0xbcafb4fa	-0.021448601
72	0x3b833860	0.004004523
73	0x3dd148a0	0.1021893
74	0x3e3ba4ae	0.18324539
75	0xbce70f0e	-0.02820542
76	0xbe09c6c2	-0.13454726
77	0xbde4029a	-0.11133309
78	0x3dc8ad4f	0.09798681
79	0xbd627d61	-0.055295352
80	0xbdaed467	-0.08536606
81	0x3d64863c	0.05579208
82	0x3d0be4a1	0.034153584
83	0x3dc06457	0.09394138
84	0x3e117541	0.14204885
85	0xbe073633	-0.13204269
86	0xbd0dbde9	-0.03460494
87	0x3d2f7ba1	0.04284251
88	0x3d95903f	0.073029034
89	0xbd99f388	-0.07517153
90	0x3d34332c	0.043994114
91	0x3d93390e	0.07188617
92	0x3ab56668	0.0013839724
93	0xbd9d519d	-0.07681582
94	0xbdd2a118	-0.102846324
95	0xbdcea25e	-0.10089563
96	0x3d6878b0	0.05675572
97	0x3dbbedde	0.09176229
98	0x3cba22e4	0.022721715
99	0x3d727b88	0.05919984
100	0x3c9cc4a4	0.019136734
101	0xbce1c79f	-0.027561007
102	0xbc169788	-0.009191401
103	0x3ddcd624	0.107830316
104	0xbc26ff6c	-0.010192733
105	0x3d2cecc6	0.042217992
106	0x3d930083	0.07177832
107	0x3d12da10	0.03585249
108	0x3c6dd76c	0.014516693
109	0xbc9595d1	-0.018259915
110	0xbd16af0f	-0.036788043
111	0xbd6dc104	-0.058045402
112	0xbd9de068	-0.07708818
113	0x3daf9c2b	0.085747086
114	0x3dcba1d1	0.099429734
115	0xbdad896f	-0.08473479
116	0x3ddab721	0.1067946
117	0xbc387f5f	-0.011260836
118	0xbc99088f	-0.018680839
119	0x3d0c1362	0.034198172
120	0xbdacb541	-0.08433009
121	0xbd3edf91	-0.04659993
122	0xbd4f78da	-0.050652362
123	0xbd040fa6	-0.032241486
124	0x3daa33ce	0.08310662
125	0xbd2f564e	-0.042806916
126	0xbdb3f849	-0.08787591
127	0xbdce2b8f	-0.10066902
128	0x3e08edeb	0.13372009
129	0x3d95e5be	0.073192105
130	0xbe10eb5a	-0.1415228
131	0xbdeb8970	-0.115008235
132	0xbdaedf3d	-0.08538673
133	0x3e0303c9	0.12794413
134	0x3d2f3236	0.042772494
135	0x3d198c8c	0.03748755
136	0x3d4f0153	0.050538372
137	0x3d0cbacd	0.034357835
138	0x3de5bd5e	0.112177595
139	0xbde636c9	-0.11240918
140	0x3df488a9	0.11940128
141	0x3da8fd6d	0.08251462
142	0x3cefdf12	0.029281173
143	0x3d332bbb	0.043742876
144	0xbc3cc341	-0.0115211615
145	0xbd4c1023	-0.049820077
146	0xbd5b4eae	-0.05354183
147	0xbda96521	-0.08271242
148	0xbc37c802	-0.011217119
149	0x3d2923af	0.041293796
150	0x3d14de1e	0.03634464
151	0xbcb4a718	-0.022052333
152	0x3cd82caa	0.026388485
153	0xbdfcee0a	-0.1235009
154	0xbdc895a1	-0.097941644
155	0xbde5e368	-0.11225015
156	0x3e0bcce7	0.13652383
157	0xbdcd1cd3	-0.100152634
158	0x3d338aea	0.04383365
159	0x3dd6d364	0.10489538
160	0xbcb9a233	-0.02266035
161	0xbd0d2ff1	-0.03446955
162	0x3dea28ce	0.11433564
163	0xbdc7cfce	-0.097564325
164	0xbe06de03	-0.13170628
165	0xbd0fa187	-0.035066154
166	0xbae97025	-0.0017809911
167	0xbd4caa4b	-0.04996709
168	0x3c0f6ebe	0.00875443
169	0x3d9caa18	0.0764963
170	0x3d9382b5	0.07202665
171	0x3cb618a7	0.022228552
172	0x3d979dde	0.07403158
173	0xbd4d962d	-0.050192047
174	0xbad831a8	-0.0016494291
175	0x3d88cf65	0.06680182
176	0x3dac0509	0.08399398
177	0xbd17a578	-0.037023038
178	0x3db00d4d	0.08596287
179	0xbdad89c3	-0.084735416
180	0xbd932c6f	-0.071862094
181	0xbe16e5a9	-0.14736046
182	0xb9e9507b	-0.00044501186
183	0xbde56311	-0.11200536
184	0x3dc78d4d	0.09743748
185	0xbd81e8f2	-0.06343259
186	0x3cf340a5	0.02969391
187	0x3dc32e90	0.095303655
188	0x3e0fc2c0	0.14039135
189	0x3d86dc78	0.0658502
190	0x3d57bd1b	0.05267058
191	0x3c9d18d7	0.019176884
192	0x3d508cbf	0.050915476
193	0x39439a71	0.00018654183
194	0xbdc7d07a	-0.097565606
195	0x3db63917	0.08897608
196	0xbdb8b68e	-0.090191945
197	0x3e0a3abd	0.1349897
198	0xbac21d96	-0.0014809843
199	0x3d65e612	0.056127615
200	0x3d293e07	0.04131892
201	0x3d5ae3a2	0.053439744
202	0x3da90a8b	0.08253964
203	0xbdb948f5	-0.090471186
204	0x3d8c64a5	0.06855134
205	0xbd0f0b97	-0.034923162
206	0xbdc4544b	-0.0958639
207	0xbdcb8e8a	-0.099392965
208	0x3ca761f6	0.020432454
209	0x3dc86440	0.09784746
210	0xbdfdb45b	-0.12387916
211	0x3d0106af	0.031500515
212	0x3d6dd98b	0.058068793
213	0xbdf5dfb8	-0.120055616
214	0x3d0e1243	0.034685384
215	0xbd17c9da	-0.037057735
216	0x3c0a2405	0.008431439
217	0xbd266a95	-0.04062899
218	0x3de4ea9a	0.11177559
219	0xbde72da5	-0.11288003
220	0x3d67ed4b	0.056622785
221	0xbd7a9e99	-0.061186407
222	0x3d65b16a	0.0560774
223	0xbbcbfde6	-0.0062253354
224	0xbe0257d0	-0.1272881
225	0xbd803084	-0.062592536
226	0x3ac6f927	0.0015180454
227	0x3c824346	0.01590122
228	0xbd8a8094	-0.067628056
229	0x3dd5edc6	0.10445742
230	0xbd4e8c06	-0.050426506
231	0xbd5fde72	-0.0546555
232	0x3d3d9a4a	0.04628972
233	0xbc9eced6	-0.019385736
234	0x3d1405db	0.036138397
235	0x3d8392be	0.06424473
236	0xbd3e0c97	-0.046398725
237	0x3cfa65a3	0.030566042
238	0x3dcf3315	0.10117165
239	0x3d08a7a7	0.03336301
240	0x3dc79254	0.09744707
241	0x3d765aa9	0.060145054
242	0x3dee5d28	0.11638862
243	0x3e040baa	0.12895074
244	0x3d7f6fab	0.062362354
245	0x3d4712f4	0.04860206
246	0x3d3288d1	0.04358751
247	0x3d7b771e	0.061392896
248	0xbc62a8c7	-0.013834185
249	0x3cf4f9b0	0.029904217
250	0xbd66b712	-0.056326933
251	0xbc1a168c	-0.00940479
252	0x3d915e07	0.070980124
253	0x3b7f6957	0.00389727
254	0xbc8a6419	-0.016893433
255	0x3d363209	0.04448131

encoder.rnn.weight_hh_l0 f4 [192, 64]
0	0xbc313261	-0.010815234
1	0x3d8729c5	0.06599764
2	0xbd86ae73	-0.06576242
3	0x3b24c5d5	0.002514233
4	0xbd2c9bdd	-0.04214083
5	0xbd9bf878	-0.07615751
6	0x3d803f5b	0.06262084
7	0x3dde2951	0.10847724
8	0x3d4cb978	0.049981564
9	0x3df8d5a9	0.121501274
10	0x3caf4bb4	0.021398403
11	0x3dda6949	0.10664613
12	0xba0b09dc	-0.00053038984
13	0x3db556e8	0.08854467
14	0x3ce2199f	0.027600108
15	0xbc26a373	-0.010170805
16	0x3de0710e	0.109590635
17	0xbdba101f	-0.09085106
18	0xbab80089	-0.0014038245
19	0xbd570551	-0.052495304
20	0x3dbd7e19	0.09252567
21	0x3c923964	0.017849632
22	0x3d26000f	0.0405274
23	0x3db6fbae	0.08934723
24	0x3d750a72	0.059824415
25	0xbd579414	-0.052631453
26	0xbb1d47c9	-0.0023999086
27	0x3db321f0	0.087467074
28	0xbd33b719	-0.043875787
29	0x3c8e91b6	0.017403465
30	0xbdb63353	-0.08896508
31	0x3d27aa0e	0.04093366
32	0x3dbae972	0.091265574
33	0x3c364ed4	0.0111271925
34	0x3ca98f43	0.020698195
35	0x3dce5569	0.100748844
36	0x3c773f6a	0.015090803
37	0xbd4fb7fc	-0.05071257
38	0x3db2d88b	0.087327085
39	0xbde5c94d	-0.11220036
40	0x3d68c977	0.056832757
41	0x3db0846c	0.086190075
42	0xbb8da6a1	-0.004322842
43	0xbe021870	-0.12704635
44	0x3d7e555f	0.062093135
45	0x3da14176	0.07873814
46	0x3a880b9e	0.0010379439
47	0x3d9934c1	0.07480765
48	0x3d64de15	0.055875856
49	0x3cd8376e	0.026393618
50	0x3de20ba5	0.11037377
51	0xbd6ba2bf	-0.057528254
52	0x3cee311d	0.029076153
53	0xbdc93df2	-0.09826268
54	0x3defd5d6	0.11710708
55	0x3d568361	0.052371386
56	0x3dfcfa1f	0.12352394
57	0xbdd36f3c	-0.10323951
58	0x3e0362fe	0.12830731
59	0x3dcac68e	0.099011526
60	0x3ddfcf92	0.10928263
61	0xbd15723f	-0.036485907
62	0xbdb2bea0	-0.08727765
63	0xbcabc92f	-0.020969955
64	0x3e113d0f	0.14183448
65	0x3e1d55a2	0.15364698
66	0xbd043753	-0.032279324
67	0xbbf6bb13	-0.007529625
68	0xbd032785	-0.03202011
69	0xbd34d5f6	-0.04414936
70	0x3cd39d11	0.025831731
71	0x3d8022c0	0.06256628
72	0xbc6aa383	-0.014321211
73	0xbdf3f04f	-0.119110696
74	0x3c4d2d90	0.01252307
75	0x3d80029c	0.06250498
76	0xbd26ebef	-0.040752348
77	0x3dcb471a	0.09925671
78	0x3d805b0d	0.062673666
79	0x3d2fe0b9	0.04293892
80	0x3c4521fc	0.012032028
81	0x3dda16a6	0.10648851
82	0x3d9b2647	0.0757566
83	0xbd707ea9	-0.058714543
84	0x3cd9075c	0.026492767
85	0x3dd9820e	0.10620509
86	0xbe1e17c5	-0.15438755
87	0x3d92b497	0.07163351
88	0xbe0d135c	-0.13776916
89	0xbd60b0d9	-0.054856155
90	0xbd8cfa9d	-0.06883738
91	0xbdf67c24	-0.12035397
92	0xbd26ba26	-0.04070487
93	0x3d74369f	0.059622403
94	0xbe27a0b3	-0.16369896
95	0xbda1f268	-0.079075634
96	0xbe16e5a2	-0.14736035
97	0xbdfe2216	-0.12408845
98	0x3d55c09c	0.05218564
99	0x3da38eee	0.07986246
100	0xbdecab25	-0.11556081
101	0x3dac5c38	0.08416027
102	0x3d925397	0.0714485
103	0x3dba7ac6	0.091054484
104	0xbda9d29f	-0.08292126
105	0xbdec3cfb	-0.115350686
106	0x3db3c644	0.087780505
107	0xbd229e52	-0.039701767
108	0xbde16bb6	-0.11006872
109	0xbcea9185	-0.028633842
110	0xbd9e262b	-0.07722124
111	0xbd2d0b7a	-0.042247273
112	0x3d9b3b61	0.07579685
113	0x3d83b4ef	0.06430995
114	0xbd083257	-0.033251133
115	0x3d707f8a	0.05871538
116	0x3c71fe09	0.014770039
117	0x3d8989d5	0.067157425
118	0xbe0b5fd1	-0.1361077
119	0x3c16c4bd	0.0092021795
120	0xbbff73b1	-0.007795774
121	0xbcf3c328	-0.029756144
122	0x3dddf843	0.10838368
123	0x3cd51095	0.026008883
124	0xbd575121	-0.052567605
125	0x3e264918	0.1623882
126	0xbcd90b8e	-0.026494768
127	0xbcd44de8	-0.025916055
128	0x3c4e1f13	0.012580651
129	0xbab6dfe8	-0.0013952227
130	0xbc486004	-0.012229923
131	0xbd6b6ae8	-0.057475
132	0x3ac4e999	0.0015023231
133	0xbd66edba	-0.056379057
134	0x3dea76ba	0.114484265
135	0xbd6568b8	-0.05600807
136	0xbdc80634	-0.09766808
137	0x3dd1b650	0.102398515
138	0x3d9e8245	0.07739691
139	0xbddc5a23	-0.1075938
140	0x3debff68	0.11523324
141	0xbd84e6b9	-0.06489319
142	0xbd413ccc	-0.04717712
143	0xbd7edb54	-0.062220886
144	0xbc904705	-0.01761199
145	0x3d03b436	0.032154284
146	0xbd84efe8	-0.06491071
147	0xbd6ad259	-0.05732951
148	0xbd543055	-0.051803906
149	0x3dac12a4	0.08401993
150	0x3d8d54cd	0.0690094
151	0x3cb7bad7	0.02242796
152	0x3c25cdcc	0.010119867
153	0x3cd268ab	0.025684675
154	0xbc7444c2	-0.014908971
155	0xbd9fb19b	-0.077975474
156	0x3e0e091f	0.13870667
157	0xbd7c5c4d	-0.061611462
158	0xbdbb4836	-0.091446325
159	0xbd46fa54	-0.048578575
160	0x3c978afa	0.018498886
161	0xbe1d3920	-0.15353823
162	0x3d66cadf	0.056345817
163	0x3c990e45	0.018683562
164	0xbd7506cd	-0.05982094
165	0x3d16bbf0	0.036800325
166	0x3cd27759	0.025691675
167	0xbdf08c5f	-0.11745524
168	0x3d0da0ff	0.034577366
169	0x3ce60b03	0.028081423
170	0xbd6cc39d	-0.05780374
171	0x3d1e4a60	0.03864515
172	0xbd90c198	-0.07068175
173	0x3db11ee5	0.08648471
174	0xbdc124d3	-0.09430852
175	0x3d00b87e	0.031425945
176	0x3cc73a67	0.02431984
177	0xbcc65ac7	-0.024213208
178	0xbd3e753a	-0.046498515
179	0x3d34857e	0.04407262
180	0x3c55a981	0.013040901
181	0xbd24d247	-0.0402396
182	0xbd09e844	-0.03366877
183	0x3d4c1796	0.04982718
184	0xbe0ac8d6	-0.13553175
185	0x3c60bea7	0.01371733
186	0x3d18b44f	0.03728133
187	0xbe1ce576	-0.15321907
188	0x3c518d35	0.012790014
189	0xbda58d68	-0.08083612
190	0xbe0f38a0	-0.13986444
191	0x3dbe83d2	0.093024865
192	0x3d53f41f	0.051746484
193	0x3d9a3438	0.07529491
194	0x3df69e7c	0.12041947
195	0xbd876734	-0.06611481
196	0xbd426216	-0.047456823
197	0x3c0ea5dd	0.008706537
198	0x3d56b30b	0.052416842
199	0xba042dc5	-0.00050422206
200	0xbc903a5e	-0.017605957
201	0x3e0b41fe	0.13599393
202	0xbd83d933	-0.06437912
203	0x3d7b600c	0.061370894
204	0xbcab55f4	-0.02091501
205	0xbd9d2c4b	-0.07674464
206	0x3d9219e5	0.07133845
207	0x3dbf6f8f	0.0934745
208	0x3c2cec2e	0.0105543565
209	0xbdbe4006	-0.09289555
210	0x3da96545	0.08271269
211	0x3dbf2858	0.09333867
212	0x3d85a253	0.065251015
213	0xbc93acfe	-0.018026825
214	0x3d9dda71	0.0770768
215	0x3d19ba2b	0.03753106
216	0xbd0a4fde	-0.033767574
217	0xbdccfa4f	-0.1000868
218	0xbd5f76e9	-0.05455676
219	0x3d68425d	0.056703914
220	0xbda66fef	-0.081268184
221	0x3d592698	0.05301532
222	0xbd2bd2a2	-0.041948922
223	0xbdad47b6	-0.084609434
224	0x3dcae664	0.09907225
225	0x3b409c47	0.0029390024
226	0x3caa6b53	0.02080313
227	0x3dbe2c6d	0.09285817
228	0x3c35f873	0.011106598
229	0x3d7fe35b	0.062472682
230	0xbd04233d	-0.03226017
231	0xbdb670b6	-0.08908217
232	0xbd25ff1d	-0.040526498
233	0xbcf6271c	-0.030047946
234	0xbd955341	-0.0729127
235	0xbd8292c1	-0.06375647
236	0x3d517bef	0.051143583
237	0x3def048f	0.11670791
238	0x3dcfe836	0.101517126
239	0x3dda3709	0.106550284
240	0xbdc7d1c6	-0.09756808
241	0xbc7af362	-0.015316816
242	0x3d1fa347	0.038974073
243	0x3df7676c	0.12080273
244	0xbd514873	-0.051094484
245	0x3d877414	0.06613937
246	0x3da4fa15	0.08055512
247	0xbd573b3a	-0.052546717
248	0xbdcc390e	-0.0997182
249	0x3d576b3f	0.052592512
250	0x3cdc6a92	0.026906285
251	0xbdb475d0	-0.088115335
252	0x3da44802	0.08021547
253	0xbd76e74e	-0.060279183
254	0xbda595af	-0.080851905
255	0x3c94b9a8	0.018154934

encoder.rnn.bias_ih_l0 f4 [192]
0	0xbc362cbe	-0.011119066
1	0xbd9e4206	-0.07727437
2	0xbbd87ff8	-0.006607052
3	0xbbb40c3c	-0.0054946225
4	0xbd641c7d	-0.05569123
5	0x3d967617	0.073467426
6	0xbd7b6824	-0.061378613
7	0xbe0f3ea0	-0.13988733
8	0xbddb043b	-0.10694166
9	0x3d47b801	0.048759464
10	0xbdcb4cc2	-0.0992675
11	0xbdf7f7a7	-0.12107783
12	0xbdd00743	-0.10157635
13	0x3da64772	0.08119096
14	0x3d901797	0.070357494
15	0x3ddefc57	0.10887974
16	0xbd96a913	-0.07356467
17	0xbdd88ba4	-0.10573509
18	0x3d3896cb	0.045065682
19	0x3db87e9f	0.09008526
20	0xbc042888	-0.008066304
21	0xbe043fbd	-0.12914939
22	0x3df9a598	0.121897876
23	0x3dac701e	0.08419822
24	0x3db6c80d	0.089248754
25	0x3d30ac26	0.043132924
26	0x3d146415	0.03622826
27	0xba62afd3	-0.00086474157
28	0x3d8ef43c	0.06980178
29	0x3c13e584	0.009026889
30	0xbe0537e4	-0.13009602
31	0xbd30fc74	-0.043209508
32	0xbceebbe1	-0.029142322
33	0xbc3c8777	-0.011506907
34	0x3da1b40f	0.078956716
35	0x3d9c3ec5	0.0762916
36	0xbcca5b70	-0.024701804
37	0xbd71dda8	-0.05904928
38	0xbc8bb0c2	-0.017052058
39	0x3deb48b2	0.11488475
40	0x3e030506	0.12794885
41	0xbc3a680c	-0.011377346
42	0xbc6daa3f	-0.014505922
43	0x3d991607	0.074749045
44	0xbdcf1818	-0.101120174
45	0xbd63f53a	-0.05565379
46	0x3dd3aa97	0.10335272
47	0x3db9c159	0.09070081
48	0x3c0774b6	0.008267572
49	0xbdd36f6f	-0.10323989
50	0x3dc091fe	0.09402846
51	0x3d24b96f	0.040215906
52	0x3c0699a0	0.008215338
53	0x3df655d7	0.120280914
54	0xbdc86ff5	-0.09786979
55	0xbc07c385	-0.008286362
56	0x3d7fa53b	0.062413435
57	0xbd3abdbb	-0.045591097
58	0xbd9ae522	-0.07563235
59	0x3b67606c	0.0035305275
60	0x3db33c53	0.0875174
61	0xbc2500e3	-0.010071012
62	0x3cc86cc9	0.024465935
63	0xbda4e646	-0.08051734
64	0xbdaf193e	-0.085497364
65	0x3c5bd4ed	0.013417465
66	0x3d72e6e2	0.05930222
67	0x3c9ebf2a	0.019378264
68	0x3d960393	0.073249005
69	0xbca33a3c	-0.01992523
70	0x3de5d17f	0.11221599
71	0xbd537121	-0.05162156
72	0x3dc3ddf5	0.09563819
73	0xbd7a3acf	-0.06109124
74	0xbc8c4cfc	-0.017126553
75	0xbd06a0dd	-0.032868255
76	0xbe4195fa	-0.18904868
77	0xbd8aa2f8	-0.06769365
78	0x3cff7304	0.031182773
79	0xbbc9f32b	-0.006163021
80	0xbdb19c8e	-0.086724386
81	0x3e21fd23	0.1581922
82	0x3dd4ae61	0.10384823
83	0xbdc5d2fb	-0.09659382
84	0xbda6160d	-0.081096746
85	0xbd9ca2e3	-0.07648256
86	0xbd177111	-0.036973063
87	0xbe28049c	-0.16408008
88	0x3c61463a	0.0137496535
89	0x3dbd79ba	0.09251733
90	0xbdd309cd	-0.10304604
91	0xbe07a599	-0.13246764
92	0xbd8485e6	-0.064708516
93	0xbe78fd46	-0.24315366
94	0x3dcfbd24	0.101434976
95	0x3d97f7a3	0.0742028
96	0x3dbdd18c	0.092684835
97	0xbe4d9c40	-0.20079136
98	0xbe20c853	-0.15701418
99	0x3bd118e4	0.006381141
100	0xbdaefd1b	-0.0854437
101	0xbe1c1d73	-0.15245609
102	0xbdfff51e	-0.12497924
103	0xbe18ab06	-0.1490899
104	0xbb9777ee	-0.004622451
105	0x3df27696	0.11839025
106	0x3caa6c4e	0.020803597
107	0xbe806f0a	-0.25084716
108	0x3d808ad7	0.062764816
109	0x3da7e706	0.08198361
110	0x3e024ad2	0.12723854
111	0x3cf3f280	0.029778719
112	0xbcaa7173	-0.02080605
113	0xbe499790	-0.19686723
114	0xbc7fce79	-0.015613192
115	0x3d52a557	0.05142721
116	0x3ca8a283	0.020585304
117	0x3d6f8e15	0.05848511
118	0x3ceaed82	0.028677706
119	0xbe2a42ab	-0.16626994
120	0x3d38ecc8	0.045147687
121	0x3bd27796	0.006422947
122	0xbea44679	-0.32085016
123	0x3dd71930	0.10502851
124	0xbdf781f5	-0.12085334
125	0xbe796be3	-0.24357562
126	0x3d62edf7	0.055402722
127	0xbc3bc44a	-0.011460373
128	0xbdf52e5e	-0.119717345
129	0xbd9e6a1a	-0.07735081
130	0xbc1100b9	-0.00885027
131	0xbd868c79	-0.06569762
132	0x3db09732	0.08622588
133	0xbc0fb8dd	-0.008772102
134	0xbcf0fb79	-0.029416787
135	0x3d962673	0.07331552
136	0xbdec2331	-0.1153015
137	0x3d390bc0	0.04517722
138	0xbcaf1397	-0.021371646
139	0x3de950ce	0.113923654
140	0x3c34ea16	0.011042139
141	0xbd5c7a90	-0.053827822
142	0xbdb79dd6	-0.08965652
143	0xbd95a367	-0.07306557
144	0xbd3c2f64	-0.045943633
145	0x3dd6b556	0.10483806
146	0x3db4ce4d	0.08828411
147	0x3df10b4d	0.117697336
148	0xbd3bf54b	-0.045888226
149	0x3d2dd449	0.04243878
150	0xbd9ec382	-0.07752134
151	0xbce05345	-0.027383456
152	0x3dd95cd2	0.10613407
153	0xbdb0ec99	-0.086388774
154	0xbdeb98be	-0.11503743
155	0x3c3fbd36	0.011702826
156	0x3cb9c2b5	0.022675851
157	0x3dc25077	0.09488004
158	0x3d41e8cd	0.047341157
159	0x3d2645ce	0.040593915
160	0x3e01c46e	0.12672588
161	0x3def3448	0.11679894
162	0xbd989061	-0.07449413
163	0xbdf02a21	-0.117267855
164	0xbde90c8c	-0.11379346
165	0x3ccefb8a	0.025266428
166	0x3d1a2474	0.03763242
167	0xbd02ca6d	-0.03193133
168	0x3dbedb0f	0.09319126
169	0x3d01859d	0.031621564
170	0x3c8dd3a4	0.017312832
171	0xbc8011f4	-0.01563356
172	0x3d87f409	0.06638343
173	0x3d122b7d	0.035686005
174	0xbdab1525	-0.083536424
175	0xbce703ef	-0.028200118
176	0x3d7e43e0	0.06207645
177	0x3d5312a7	0.05153146
178	0xbcf72d53	-0.03017298
179	0x3df96da2	0.12179114
180	0x3ddcb615	0.10776917
181	0xbd8104a6	-0.06299715
182	0x3dc2c96f	0.09511077
183	0x3d9b2493	0.07575335
184	0x3dc36c11	0.095420964
185	0xbd2f4e42	-0.04279924
186	0x3d27aa36	0.04093381
187	0xbd80a9f6	-0.062824175
188	0x3d88b239	0.06674618
189	0xbb85e392	-0.0040859664
190	0x3d96b17e	0.07358073
191	0x3dae9366	0.08524208

encoder.rnn.bias_hh_l0 f4 [192]
0	0x3d41e4f4	0.047337487
1	0x3c604f34	0.0136907585
2	0xbda203b5	-0.07910863
3	0xbdb8db04	-0.09026149
4	0xbde0e8bb	-0.1098189
5	0xbc0d2c91	-0.0086165825
6	0xbdd24609	-0.102672644
7	0xbd65dd75	-0.0561194
8	0xbbe08b9a	-0.0068525793
9	0xbde8d1b0	-0.1136812
10	0x3ddebef4	0.10876265
11	0xbc625377	-0.013813845
12	0x3c87757d	0.016535515
13	0xbde5bb52	-0.11217369
14	0x3d892c95	0.066979565
15	0xbd86b81c	-0.06578085
16	0x3d2eb226	0.042650364
17	0x3d98bb08	0.074575484
18	0x3dad2f4e	0.08456288
19	0xbe0ffcef	-0.1406133
20	0xbd56f24d	-0.05247717
21	0xbd8568cc	-0.06514129
22	0x3d3d7a5d	0.046259273
23	0xbd9b07c0	-0.075698376
24	0x3da929cc	0.08259925
25	0xbdc2bbb6	-0.09508459
26	0xbc5959f1	-0.013266073
27	0x3c9ff037	0.019523723
28	0xbdac3215	-0.0840799
29	0xbd2fa6e0	-0.042883754
30	0xbe212a2a	-0.1573874
31	0xbd854489	-0.06507213
32	0xbe02ef9e	-0.12786719
33	0x3d04b2bc	0.032397017
34	0xbd5b643a	-0.05356238
35	0xbcf9c9ff	-0.030491827
36	0x3d51d01f	0.05122387
37	0x3d58aef7	0.052901234
38	0x3d5e6f26	0.05430522
39	0x3c91581b	0.017742207
40	0x3e003c76	0.12523064
41	0xbd3fa905	-0.04679205
42	0x3dc933a4	0.09824303
43	0xbd8a4a11	-0.06752408
44	0xbe047f19	-0.12939109
45	0x3b1aa6ad	0.0023597882
46	0xbd59a749	-0.05313805
47	0xbde5fb7f	-0.1122961
48	0xbd8b2c83	-0.06795599
49	0xbc8ce61b	-0.017199567
50	0x3c94f78f	0.018184451
51	0xbcb9059d	-0.022585684
52	0xbd067c90	-0.032833636
53	0x3dd21e80	0.10259724
54	0x3d8af194	0.067843586
55	0xbd85e04d	-0.065369226
56	0xbdce4821	-0.10072351
57	0x3c26c536	0.010178855
58	0x3da1a984	0.07893661
59	0x3dd801f6	0.10547249
60	0x3d9d02e6	0.076665685
61	0x3d710669	0.058844004
62	0x3a89eb96	0.0010522481
63	0xbdc58296	-0.09644048
64	0x3d3a9cc2	0.045559652
65	0x3d01dfbe	0.031707518
66	0x3ce9c14a	0.02853455
67	0xbdd7a9d2	-0.105304375
68	0xbdd437a1	-0.10362173
69	0x3ce30d97	0.027716441
70	0xbc873611	-0.016505273
71	0xbe592e90	-0.21209168
72	0x3dd416ba	0.10355897
73	0xbcd8f15f	-0.026482282
74	0x3dca84e8	0.09888631
75	0x3e14b610	0.14522576
76	0xbe34a91d	-0.17642637
77	0x3da9d877	0.082932405
78	0x3ddc4667	0.10755616
79	0xbdd8f746	-0.10594039
80	0xbc7bebe3	-0.015376064
81	0x3e24fa0b	0.16111009
82	0x3d072e3a	0.03300307
83	0xbd8b4c88	-0.068017066
84	0xbe17dc33	-0.14830093
85	0xbe70c8b5	-0.23514064
86	0x3d279fdf	0.04092395
87	0xbe252558	-0.16127527
88	0xbc4ba05f	-0.012428372
89	0xbd2789a1	-0.040902738
90	0xbdb12d5f	-0.08651232
91	0x3dab809d	0.083741404
92	0xbe707a9f	-0.23484276
93	0xbdf22a2d	-0.11824451
94	0x3e12b883	0.14328198
95	0xbde156fe	-0.110029206
96	0xbd108964	-0.035287276
97	0xbe6e9a82	-0.23301128
98	0x3b228f2c	0.0024804575
99	0x3c1144e7	0.008866525
100	0x3ce2f15b	0.027702978
101	0xbe11604b	-0.14196889
102	0xbe42d0a2	-0.190249
103	0xbcb4ad24	-0.022055216
104	0x3cd0061d	0.02539354
105	0x3dd459cf	0.10368692
106	0x3d717d82	0.058957584
107	0xbdee38c5	-0.11631922
108	0x3d94f3ca	0.072730616
109	0xbd8848b4	-0.06654492
110	0x3cc7639a	0.024339486
111	0x3e387c11	0.18016078
112	0xbae57b30	-0.0017508026
113	0xbdb303c7	-0.08740955
114	0xbdf692b3	-0.120396994
115	0x3dd53422	0.10410334
116	0xbca1c18a	-0.019745607
117	0x3d18aa1a	0.037271596
118	0xbb8b5cac	-0.0042529907
119	0xbd970039	-0.07373089
120	0x3e501176	0.20319161
121	0x3e3bb3aa	0.18330255
122	0xbec029fe	-0.37532037
123	0x3b50c0e0	0.0031853244
124	0xbdc46c00	-0.09590912
125	0xbd8cbce4	-0.068719655
126	0x3e05f02e	0.13079903
127	0xbd9fcf58	-0.078032196
128	0xbde60694	-0.112317234
129	0xbcf6046a	-0.030031402
130	0x391330e1	0.00014037221
131	0x3db28dfa	0.08718486
132	0x3d0ccfb7	0.03437778
133	0x3dc8c610	0.098034024
134	0xbdc7723b	-0.097385846
135	0x3dcf836e	0.1013249
136	0x3dd81e67	0.10552674
137	0x3d99fd52	0.0751902
138	0x3c01aa02	0.007914068
139	0x3dfb8b57	0.12282436
140	0xbc17a58d	-0.009255779
141	0xbca5d432	-0.020242784
142	0xbc8d128d	-0.01722076
143	0x3d4034ab	0.046925228
144	0x3d633dd4	0.055478886
145	0x3dc70fac	0.09719786
146	0x3d9dfd21	0.07714296
147	0x3d675da0	0.056485772
148	0x3d03d350	0.032183945
149	0x3d0c08a7	0.03418794
150	0x3dc8de99	0.09808082
151	0xbd0f7e29	-0.035032425
152	0x3da27d47	0.07934051
153	0xbd7c08c2	-0.06153179
154	0xbd31623c	-0.043306574
155	0x3d6e6bb3	0.05820818
156	0xbda3c7f0	-0.079971194
157	0xbd5c5e9c	-0.053801164
158	0x3d0e042f	0.03467196
159	0x3c5523f5	0.013009061
160	0x3da0469e	0.07825969
161	0xbd7b84ec	-0.06140606
162	0xbde976fc	-0.113996476
163	0x3c02b6db	0.007978166
164	0x3d62c69e	0.055365197
165	0x3bef5661	0.0073039983
166	0xbda8e77a	-0.08247276
167	0xbda0cf23	-0.07852008
168	0x3d445c62	0.047939666
169	0x3cdeaa85	0.02718092
170	0x3d936b09	0.0719815
171	0xbd80d005	-0.062896766
172	0x3dacba34	0.08433953
173	0xbc2c4e01	-0.010516644
174	0x3d165894	0.03670557
175	0xbd947dd5	-0.07250563
176	0xbc174cba	-0.009234602
177	0xbcc5dbe3	-0.024152702
178	0xbdd0d4f8	-0.101968706
179	0x3da4a0f0	0.08038509
180	0x3d3a4c39	0.045482848
181	0xbdacebbb	-0.084433995
182	0x3cfcbceb	0.030851802
183	0xbd4c9b24	-0.04995264
184	0xbde8d698	-0.113690555
185	0x3cc0b2ba	0.023522723
186	0xbd2c03c4	-0.04199578
187	0x3dac0313	0.08399024
188	0xbc0e2af5	-0.008677234
189	0xbd9c1e4b	-0.076229654
190	0xbd13b908	-0.03606513
191	0x3d465dc0	0.04842925

decoder.attn.v f4 [64]
0	0xbce9bc48	-0.028532162
1	0xbd07ecfc	-0.03318499
2	0xbdbabd0a	-0.091180876
3	0x3dee24fe	0.116281494
4	0xbd414944	-0.047189012
5	0x3d82ea38	0.0639233
6	0x3d5222d4	0.051302746
7	0x3d1ebed4	0.038756207
8	0xbd776624	-0.060400143
9	0xbcd85408	-0.026407257
10	0x3d276a60	0.04087293
11	0xbc9d8be8	-0.019231752
12	0xbd9061c2	-0.07049896
13	0xbdcf42ce	-0.10120164
14	0x3daf8c64	0.08571699
15	0xbd916e56	-0.07101123
16	0x3ddd5372	0.108069316
17	0xbd03e478	-0.032200307
18	0x3db81c9c	0.08989832
19	0xbdfe3e52	-0.124142304
20	0xbd37652c	-0.04477422
21	0xbcae9658	-0.021311924
22	0x3cae0168	0.021240905
23	0xbdac9f18	-0.08428782
24	0x3d36bb00	0.04461193
25	0x3d0496c4	0.032370344
26	0x3d0fd610	0.035116255
27	0xba019100	-0.0004942566
28	0x3dd3fd4c	0.10351047
29	0xbdaaac20	-0.083336115
30	0x3d85acfe	0.06527136
31	0x3d672d5c	0.056439742
32	0x3d5a8bb0	0.053355873
33	0xbd471e30	-0.048612773
34	0x3ddbedb6	0.10738699
35	0xbd9f3624	-0.077739984
36	0x3df8f6a0	0.12156415
37	0xbcb19ff8	-0.021682724
38	0xbded753a	-0.11594625
39	0xbce091e8	-0.027413324
40	0xbded7958	-0.1159541
41	0x3dee9ac4	0.11650613
42	0xbcbd1fc8	-0.023086444
43	0xbd6d6864	-0.057960883
44	0x3dcd34d8	0.10019845
45	0xbd787c28	-0.06066528
46	0x3c80e680	0.015734911
47	0x3da2d7c4	0.0795131
48	0x3d8da41c	0.06916067
49	0x3d052308	0.03250411
50	0x3d241850	0.04006225
51	0x3d841f2a	0.064512566
52	0xbd76ff6c	-0.060302183
53	0x3c023470	0.007947072
54	0xbda7fece	-0.08202897
55	0xbdf86580	-0.121287346
56	0xbd97ac7c	-0.07405946
57	0xbdfdcc9a	-0.1239254
58	0xbd698eb0	-0.057020843
59	0xbdd96850	-0.10615599
60	0x3de01a4c	0.10942516
61	0xbc540b00	-0.012942076
62	0xbdf3495c	-0.118792266
63	0x3d98da32	0.074634925

decoder.attn.attn.weight f4 [64, 128]
0	0xbd82c694	-0.06385532
1	0x3bfbf260	0.0076888055
2	0xbd872423	-0.065986894
3	0xbd8a5b76	-0.06755726
4	0xbc81dbb8	-0.01585184
5	0x3d8efde5	0.0698202
6	0xbd25fabe	-0.04052233
7	0xbd4a8010	-0.049438536
8	0xbd131afe	-0.035914414
9	0xbd785242	-0.060625322
10	0xbc25e2c0	-0.010124862
11	0xbd9ba316	-0.075994655
12	0x3d11eae8	0.035624415
13	0xbdac93be	-0.08426617
14	0xbdaafbaf	-0.08348786
15	0xbda7b7fa	-0.081893876
16	0xbd58770a	-0.0528479
17	0x3ca9b2c4	0.020715125
18	0x3d86dc4b	0.06584986
19	0xbd4751cc	-0.048661992
20	0x3d5a7a86	0.053339504
21	0xbd96acee	-0.073572025
22	0xbd86ab48	-0.06575638
23	0x3cfa1158	0.030525848
24	0xbc495160	-0.012287468
25	0xbd2cdd5c	-0.042203292
26	0x3c08de20	0.00835374
27	0x3aae6700	0.0013305843
28	0x3d8bbd85	0.06823257
29	0x3d01bede	0.031676166
30	0xbb97e7f0	-0.0046358034
31	0xbd952096	-0.07281606
32	0xbcf05fec	-0.029342614
33	0xbd8e378f	-0.06944191
34	0xbc8aeaf8	-0.016957745
35	0xbcac7c10	-0.021055251
36	0xbc99eedc	-0.018790655
37	0xbd898382	-0.06714536
38	0x3d0ed3d2	0.034869976
39	0x3d0c452e	0.034245662
40	0xbc272db8	-0.010203771
41	0xbd09b833	-0.03362293
42	0x3cb0a5f4	0.021563508
43	0x3d5858b6	0.052818976
44	0x3d05b362	0.032641776
45	0x3c2bb488	0.010480054
46	0x3c323890	0.010877743
47	0x3c805b04	0.0156684
48	0x3c0e9b58	0.008704029
49	0xbcbe1a34	-0.023205854
50	0xbd7d0408	-0.061771423
51	0x3d674be2	0.056468852
52	0x3d4ed76e	0.05049842
53	0xbdaaff8e	-0.083495244
54	0x3c387a20	0.011259586
55	0xbd75b3d0	-0.059985936
56	0x3da53753	0.08067193
57	0xbbaca060	-0.0052681416
58	0xbd41ee25	-0.047346253
59	0xbd4a1797	-0.049338903
60	0x3d4415a2	0.047872193
61	0xbcbb04ac	-0.022829376
62	0xbc223f80	-0.009902835
63	0x3da3a93f	0.079912655
64	0xbcea5dae	-0.028609123
65	0xbd5afac0	-0.05346179
66	0x3cac69e4	0.021046586
67	0x3c8a81c4	0.01690758
68	0xbd75675e	-0.05991303
69	0x3ce23258	0.027611896
70	0xbd6a980f	-0.05727392
71	0xbd627afa	-0.05529306
72	0xbd886f26	-0.06661825
73	0xbcd1eb30	-0.025624841
74	0x3a77e780	0.00094567984
75	0xbd16e719	-0.036841486
76	0xbd5adb3e	-0.053431742
77	0xbd10eb87	-0.035380866
78	0x3ca87cf0	0.020567387
79	0x3bd8af70	0.0066127107
80	0xbdb1a9fa	-0.086749986
81	0xbd966458	-0.07343358
82	0x3d84d113	0.0648519
83	0x3c20a120	0.00980404
84	0x3d465392	0.048419543
85	0xbb151ea0	-0.002275385
86	0xbdaf1f07	-0.0855084
87	0xbdab2149	-0.08355958
88	0x3d5ce24e	0.05392676
89	0xbca11600	-0.01966381
90	0xbd137ba8	-0.0360066
91	0xbdb35127	-0.08755713
92	0x3d47abfe	0.04874801
93	0x3c3c9d38	0.011512093
94	0xbd814985	-0.06312851
95	0x3c63c4c8	0.013901897
96	0xbd6b69e2	-0.057474025
97	0xbcbf8f28	-0.023383692
98	0xbd4b1e42	-0.049589403
99	0xbcf4c11c	-0.029877238
100	0xbc9b1744	-0.018931992
101	0xbd8e7244	-0.06955388
102	0xbd7691b0	-0.060197532
103	0xbda8cf88	-0.082427084
104	0x3d62b94e	0.0553525
105	0xbd563983	-0.05230094
106	0x3d850691	0.06495393
107	0x3d6e36b2	0.05815763
108	0xbd4e938e	-0.050433688
109	0x3d6b42b2	0.057436652
110	0x3b90de80	0.0044210553
111	0xbc02fcb8	-0.007994823
112	0x3d49cb3a	0.049266078
113	0x3d75190e	0.059838347
114	0xbbc27b10	-0.0059350803
115	0x3dae2ed3	0.08505025
116	0xbd5cf7f8	-0.05394742
117	0x3d741b82	0.059596546
118	0x3d43e202	0.04782296
119	0x3d996d9d	0.0749161
120	0xbbcaa410	-0.0061841086
121	0x3da8e0cf	0.08246004
122	0x3d92810f	0.07153522
123	0xbd721eec	-0.05911152
124	0x3dad5103	0.084627174
125	0xbd8ef1a0	-0.0697968
126	0x3db31867	0.08744889
127	0xbd811924	-0.06303623
128	0x3c2815e8	0.010259129
129	0xbd946ac8	-0.072469294
130	0x3d173e6e	0.036924772
131	0xbd46ea51	-0.048563305
132	0xbd1eed6c	-0.038800642
133	0xbd10f5f5	-0.035390813
134	0xbd964214	-0.07336822
135	0xbc976f8c	-0.018485807
136	0xbce3932a	-0.027780134
137	0xbd8bfb4c	-0.068350405
138	0xbd383222	-0.044969685
139	0xbd010810	-0.03150183
140	0x3db1c8eb	0.086809
141	0x3d107856	0.03527101
142	0xbbb39fc0	-0.00548169
143	0x3beca8a0	0.00722225
144	0x3cd01900	0.025402546
145	0x3b5d9a80	0.0033814013
146	0xbd3ff2cb	-0.046862405
147	0xbd92fbe6	-0.07176952
148	0xbd77ef9e	-0.06053125
149	0x3ca5bc58	0.02023141
150	0xbbdf6250	-0.0068171397
151	0xbd60d6e1	-0.054892424
152	0x3d52137a	0.051288106
153	0x3d6b7c92	0.057491846
154	0x3c9823a8	0.01857169
155	0x3d908f83	0.07058623
156	0xbd5f4e88	-0.054518253
157	0xbd41c565	-0.04730739
158	0x3d0c426e	0.03424304
159	0x3da9d401	0.0829239
160	0x3c4b6618	0.012414478
161	0xbd8702bc	-0.065923184
162	0xbc2b0820	-0.010438949
163	0xbcc09004	-0.023506172
164	0xbd50ea41	-0.051004652
165	0xbcf5b444	-0.029993184
166	0xbcc60b18	-0.024175212
167	0x3c582aa0	0.013193756
168	0xbc4e74f8	-0.01260113
169	0x3da93771	0.08262528
170	0xbd4ae975	-0.04953905
171	0x3c55f4b8	0.013058834
172	0x3d8e7877	0.069565706
173	0xbb1bc760	-0.002376996
174	0xbda1269c	-0.07868692
175	0xbb5344e0	-0.0032237098
176	0x3d04f228	0.0324575
177	0xbd79ac4c	-0.06095533
178	0x3d4813a2	0.04884685
179	0xba80a240	-0.0009813979
180	0xbd61c863	-0.055122744
181	0x3c333268	0.010937311
182	0xbd2f89b8	-0.04285595
183	0x3db48e63	0.088162206
184	0xbd9c3a6c	-0.076283306
185	0xbd721cd9	-0.059109543
186	0x3b179be0	0.002313368
187	0x3c3e9e18	0.011634372
188	0xbc759790	-0.014989749
189	0xbce0260c	-0.027361892
190	0xbd51ff8d	-0.051269103
191	0x3d8a11fd	0.06741712
192	0x3dad2481	0.08454228
193	0xbd1ce4fb	-0.03830431
194	0x3ac767c0	0.0015213415
195	0xbda475dc	-0.080302924
196	0x3d9d7ca9	0.07689793
197	0xbd4a13b6	-0.049335204
198	0xbd35b001	-0.044357304
199	0xbd39ac4d	-0.045330334
200	0x3cb9dbb0	0.022687763
201	0x3cfa5a1c	0.030560546
202	0xbd98496d	-0.0743588
203	0xbcb6d7a0	-0.022319615
204	0x3d408192	0.046998568
205	0x3c539d18	0.012915872
206	0xbda0e505	-0.07856182
207	0x3d44957a	0.047994114
208	0x3d94e457	0.07270115
209	0xbbb0dfe0	-0.0053977817
210	0x3db19ce1	0.086725004
211	0x3d7a43d6	0.06109985
212	0xbd91a186	-0.07110886
213	0xbd190e2e	-0.03736704
214	0x3da4403d	0.08020065
215	0xbcdc4a92	-0.026891027
216	0x3d9d2cdb	0.07674571
217	0xbd83beea	-0.06432898
218	0x3d99f633	0.07517662
219	0x3cc77470	0.024347514
220	0xbd96bd57	-0.073603325
221	0xbda8a19d	-0.0823395
222	0xbd87f5db	-0.0663869
223	0x3da29d9b	0.07940217
224	0x3cc7a4b0	0.024370521
225	0x3ce37d50	0.027769715
226	0xbcdb4502	-0.026766304
227	0xbdabbe37	-0.0838589
228	0x3d931a9f	0.07182812
229	0xbd390340	-0.045169115
230	0xbc476058	-0.012168966
231	0xbbf1ed40	-0.0073830187
232	0x3d984d9f	0.0743668
233	0x3d0d41b8	0.034486502
234	0xbbd1dae0	-0.0064042658
235	0x3d9a7511	0.0754186
236	0x3d97ea33	0.07417717
237	0xbc0728b8	-0.008249454
238	0x3d96de93	0.073666714
239	0xbd30e1b4	-0.043183997
240	0xbd9f851a	-0.07789059
241	0x3d9b84d9	0.07593698
242	0xbb952a00	-0.004552126
243	0xbc204d60	-0.009784073
244	0xbd6c2678	-0.057653874
245	0xbd1ad28a	-0.037798442
246	0xbd3b2687	-0.04569104
247	0x3a952a00	0.0011380315
248	0xbd98dc58	-0.07463902
249	0x3d311e0a	0.043241538
250	0x3c9cb9e8	0.019131616
251	0xbc258890	-0.01010336
252	0xbd711826	-0.05886092
253	0xbda325e0	-0.079662085
254	0xbd255ebf	-0.04037356
255	0x3d5570f6	0.05210968

decoder.attn.attn.bias f4 [64]
0	0xbdaeb1ea	-0.08530028
1	0x3c354e50	0.011066034
2	0xbd947816	-0.07249467
3	0xbda94519	-0.082651325
4	0x3d39b7da	0.04534135
5	0x3d54f596	0.05199202
6	0x3c98dc8c	0.018659852
7	0x3da3df6d	0.080015995
8	0xbc9bd648	-0.019023076
9	0x3dae9caf	0.08525979
10	0x3d2b7d56	0.041867577
11	0x3d91e34b	0.07123431
12	0xbcc7121c	-0.024300627
13	0x3c832634	0.016009428
14	0xbd380a56	-0.044931732
15	0xbce8d78e	-0.028423097
16	0xbc83da60	-0.01609534
17	0xbdaf672d	-0.08564601
18	0xbbada290	-0.00529892
19	0x3d70b43a	0.058765627
20	0x3d715146	0.0589154
21	0xbd81bfab	-0.06335386
22	0xbd815c56	-0.0631644
23	0x3d6bc962	0.0575651
24	0x3d6efd72	0.058347173
25	0x3d954301	0.072881706
26	0xbd721123	-0.059098374
27	0xbdad1f4b	-0.08453234
28	0xbd6bb358	-0.057544082
29	0x3cb312d0	0.021859556
30	0xbd5548d4	-0.052071407
31	0xbd2bde45	-0.04196002
32	0xbcb13228	-0.021630362
33	0xbd0b7cf0	-0.034054697
34	0xbcbd3dac	-0.023100697
35	0xbd9f1be0	-0.077689886
36	0xbce6fcfa	-0.0281968
37	0x3d151bb8	0.036403388
38	0x3d7b5c4a	0.06136731
39	0xbc8b5684	-0.017009027
40	0x3d64321e	0.055711858
41	0x3c5f8990	0.013643637
42	0x3bf052a0	0.0073340684
43	0xbd07b5fb	-0.033132534
44	0x3c1bda28	0.009512462
45	0x3c3984a8	0.011323132
46	0xbb0d13e0	-0.002152674
47	0x3cbc25c0	0.02296722
48	0x3d74553a	0.05965159
49	0xbbf3ca90	-0.007439919
50	0x39b6c200	0.00034858286
51	0xbad8ba00	-0.0016534925
52	0xbd67e20b	-0.056612056
53	0xbb484aa0	-0.0030562058
54	0x3d1670f6	0.03672882
55	0x3c9fcaa4	0.019505806
56	0xbd1d5426	-0.03841033
57	0xbd86d182	-0.06582929
58	0x3c1a6ca8	0.00942532
59	0x3d6881c2	0.05676437
60	0x3c58a290	0.013222352
61	0xbd756d00	-0.059918404
62	0x3da5623d	0.08075378
63	0xbd4ca283	-0.04995967
