checkpoints/models/single_stock_daily/81to9/000001/model45.pth (torch, 543834 bytes, 24 tensors)

encoder.conv1.weight f4 [18, 6, 3]
0	0xbd9db87b	-0.077012025
1	0xbdb3482e	-0.087540016
2	0xbc5ff677	-0.013669602
3	0x3dd63702	0.10459711
4	0xbe5f3e45	-0.21801098
5	0xbe0aa18b	-0.13538186
6	0xbd964930	-0.07338178
7	0xbd88708b	-0.06662091
8	0x3c165212	0.0091748405
9	0x3e2fb384	0.17158324
10	0x3d98ce22	0.07461192
11	0xbe53aa08	-0.2067033
12	0x3e5fc800	0.21853638
13	0x3e5b096a	0.2139031
14	0x3da4bfc0	0.08044386
15	0x3e2b86a7	0.16750585
16	0x3e151577	0.1455897
17	0x3e920225	0.2851726
18	0xbe5e6ed6	-0.21721968
19	0xbe12afec	-0.14324921
20	0xbcb7e869	-0.022449689
21	0xbd2b7bd9	-0.041866157
22	0xbe256195	-0.16150506
23	0xbe665f42	-0.22497275
24	0xbe39c282	-0.18140605
25	0xbd68f8f4	-0.056878045
26	0x3e47ede0	0.19524336
27	0x3e21607a	0.15759459
28	0x3d638349	0.055545125
29	0xbe1604a7	-0.14650212
30	0xbdc189fa	-0.09450145
31	0x3c19a66f	0.00937806
32	0xbe61f2c2	-0.22065261
33	0xbbde28bc	-0.0067797583
34	0x3d4266d8	0.04746136
35	0x3e6925a2	0.22768262
36	0xbd7dfe4b	-0.06201009
37	0x3e66feb1	0.22558095
38	0x3c846b2e	0.016164389
39	0xbe2b822b	-0.16748874
40	0x3e5e0522	0.21681646
41	0x3e4fb3a1	0.20283367
42	0xbe44f451	-0.19233824
43	0xbe107bc4	-0.14109713
44	0x3dfebcf2	0.12438382
45	0xbe1a23cc	-0.15052718
46	0x3e1e284c	0.1544506
47	0xbddd02d7	-0.10791557
48	0xbda06fc5	-0.07833818
49	0xbd94ebf6	-0.072715685
50	0x3e6be9a9	0.23038353
51	0xbda2e011	-0.079528935
52	0xbd3bf63d	-0.045889128
53	0x3e04a83d	0.12954803
54	0xbe16434f	-0.14674114
55	0x3c23aa58	0.009989344
56	0xbe32f88e	-0.17477629
57	0xbe53fa6c	-0.20700997
58	0xbd4a2059	-0.049347255
59	0x3cf0337d	0.029321427
60	0x3e550cc3	0.2080565
61	0xbe711384	-0.23542601
62	0xbda8675e	-0.08222841
63	0x3d918952	0.0710627
64	0x3db19862	0.08671643
65	0x3e073204	0.13202673
66	0xbe396a54	-0.18106967
67	0xbd7938ac	-0.060845062
68	0x3d453fdc	0.048156604
69	0xbe5caa28	-0.21549284
70	0x3db886ce	0.09010087
71	0xbe80f3c0	-0.25185966
72	0x3e121868	0.14267123
73	0x3d84cf5a	0.06484862
74	0xbd80fd58	-0.062983215
75	0x3d88c8c9	0.06678922
76	0x3e4629ac	0.19351834
77	0x3e392973	0.18082218
78	0x3e0a04f6	0.13478455
79	0xbe073db2	-0.13207129
80	0x3dcde215	0.10052887
81	0x3e2b76d0	0.16744542
82	0x3d25808f	0.040405806
83	0x3e34335c	0.17597717
84	0xbe1e9ee4	-0.154903
85	0x3e2a0a6e	0.16605541
86	0x3c5ce40d	0.013482106
87	0xbe4b21aa	-0.1983706
88	0xbd417c08	-0.047237426
89	0x3e6a9cff	0.22911452
90	0xbda29464	-0.079384595
91	0xbd4f22c3	-0.05057026
92	0xbdca5c45	-0.0988088
93	0xbdffdfe6	-0.12493877
94	0x3d035381	0.032062057
95	0x3e14f810	0.14547753
96	0x3cc77326	0.0243469
97	0xbd3bd2c6	-0.045855306
98	0x3c12a6ca	0.008950898
99	0xbe342fe9	-0.17596401
100	0xbe1344fe	-0.14381787
101	0x3c340f28	0.010989942
102	0xbe4194db	-0.1890444
103	0x3dc4302a	0.09579499
104	0x3d0e6ac5	0.034769792
105	0x3c6f210e	0.014595283
106	0xbc2b473d	-0.010453996
107	0x3e57c474	0.21071035
108	0x3e52be1b	0.20580332
109	0x3ddf57ba	0.109054044
110	0x3df13cef	0.117792
111	0xbdeb0272	-0.11475076
112	0x3dd7f01b	0.10543843
113	0xbe1641c7	-0.1467353
114	0x3ddb8374	0.10718432
115	0xbe0e7dae	-0.1391513
116	0x3d215d98	0.0393959
117	0x3e30e8eb	0.17276351
118	0x3e33050e	0.17482397
119	0x3e70a77d	0.23501392
120	0x3daaf5fa	0.083476976
121	0x3de40bd9	0.11135072
122	0x3dbaf374	0.09128466
123	0x3e5901c4	0.2119208
124	0x3e31b42d	0.17353888
125	0x3df65eda	0.1202981
126	0xbda053ee	-0.07828508
127	0xbdc2ec29	-0.095177
128	0xbd761cf6	-0.060086213
129	0x3de7b4eb	0.11313804
130	0xbddf89ff	-0.109149925
131	0x3d7576af	0.05992764
132	0x3e5f87cc	0.21829146
133	0x3e7d439a	0.24732819
134	0xbe46b05e	-0.19403216
135	0x3d95b529	0.07309944
136	0x3e4055ca	0.18782726
137	0xbe678fe2	-0.2261348
138	0x3e20e26b	0.15711372
139	0xbde81b06	-0.11333279
140	0xbe3c47ac	-0.18386716
141	0xbe0b40a3	-0.13598876
142	0xbe1a61c9	-0.15076365
143	0xbdf83883	-0.12120154
144	0x3d8b2823	0.06794765
145	0x3db1b65f	0.08677363
146	0x3db1e704	0.08686641
147	0x3e2636d2	0.1623185
148	0xbe20bbcd	-0.1569664
149	0xbe6c5805	-0.23080452
150	0xbe461e0e	-0.19347402
151	0xbe1d7af8	-0.1537894
152	0xbe091474	-0.13386708
153	0x3dd05d9b	0.10174104
154	0xbe3eab56	-0.18620047
155	0xbe4136f7	-0.18868624
156	0x3dfcd404	0.12345126
157	0xbe2ad657	-0.16683327
158	0x3cdc8a11	0.026921304
159	0xbe530e44	-0.2061091
160	0x3d81242f	0.063057296
161	0x3dfe1b35	0.12407533
162	0xbe582573	-0.21108036
163	0x3d970f42	0.07375957
164	0xbe01a3b6	-0.12660107
165	0x3e1350f6	0.14386353
166	0x3e5c56f1	0.2151754
167	0xbe47ef72	-0.19524935
168	0x3db2fc2c	0.08739504
169	0x3e385a5d	0.18003221
170	0x3e7484a3	0.23878722
171	0x3e325985	0.17416961
172	0x3d6dbb24	0.0580398
173	0x3ce29de7	0.027663184
174	0x3d3b3911	0.04570872
175	0xbe02b97e	-0.12766072
176	0xbd001e49	-0.031278882
177	0xbbc09ce7	-0.005878079
178	0xbe119826	-0.14218196
179	0xbc02f05f	-0.007991879
180	0xbcfc0cf7	-0.0307679
181	0xbd8d79e2	-0.06908013
182	0xbd9513c4	-0.072791606
183	0xbe71668c	-0.23574275
184	0x3e690826	0.22757015
185	0x3ddb5f58	0.10711545
186	0x3e3136b1	0.1730602
187	0xbe4b6cea	-0.19865766
188	0xbe859fc8	-0.26098466
189	0x3e34dd55	0.17662556
190	0xbd1b4daa	-0.037915863
191	0x3c91912b	0.017769417
192	0x3df46dcc	0.119350046
193	0x3c8d960e	0.017283466
194	0xbce869dd	-0.028370792
195	0x3e00901f	0.12554978
196	0x3e36d495	0.17854531
197	0xbd7e9b01	-0.062159542
198	0xbe3a24f3	-0.18178158
199	0xbdd3c87f	-0.10340976
200	0x3e29d9fe	0.16587064
201	0x3cb72a89	0.02235915
202	0x3e5927f2	0.21206644
203	0xbdb5629a	-0.088566974
204	0xbe5f1de6	-0.21788749
205	0x3dcca21e	0.09991859
206	0xbdf3e2e8	-0.11908513
207	0xbe0e3ed6	-0.13891158
208	0x3e281011	0.16412379
209	0x3b4b2c80	0.0031001866
210	0xbc86e3f5	-0.01646612
211	0x3e7e2349	0.24818148
212	0x3e44f637	0.19234549
213	0xbe9b9b85	-0.3039209
214	0xbeb18d8c	-0.34678304
215	0xbe8c5eb4	-0.27416003
216	0xbe40c603	-0.18825535
217	0xbdffb19a	-0.12485047
218	0x3e1de286	0.15418443
219	0xbe255742	-0.16146567
220	0x3e60d187	0.21954928
221	0x3d97c381	0.07410336
222	0x3c2312b9	0.009953194
223	0x3d75f4a8	0.060047776
224	0x3d8639b1	0.065539725
225	0x3d94fd0a	0.07274826
226	0xbe38ddd2	-0.18053368
227	0x3b7c9312	0.003853981
228	0x3e1df074	0.15423757
229	0x3e7c5805	0.24642952
230	0xbb770ae4	-0.00376957
231	0xbe26142c	-0.16218632
232	0x3df06d35	0.117395796
233	0xbe59a030	-0.21252513
234	0x3e4f4c35	0.20243914
235	0x3e0433f8	0.1291045
236	0x3dc2adb6	0.09505789
237	0x3ce17660	0.027522266
238	0x3e2233c6	0.15840062
239	0xbdd610d3	-0.10452428
240	0xbe52c2be	-0.20582101
241	0xbe242fa9	-0.16033806
242	0x3e1f84ee	0.15578052
243	0xbdfe0f85	-0.12405304
244	0xbe55f99d	-0.20896001
245	0x3d18cab1	0.037302677
246	0xbe1d77b5	-0.15377696
247	0xbd042787	-0.03226426
248	0xbe28786f	-0.16452192
249	0x3cf76fe9	0.03020473
250	0xbd57dbe7	-0.05269995
251	0x3c5074fb	0.012723203
252	0x3ddc725a	0.10763998
253	0xbe1b782d	-0.15182562
254	0xbdb2e530	-0.0873512
255	0xbe1f56f5	-0.15560515

encoder.conv1.bias f4 [18]
0	0x3ce58e87	0.028022064
1	0x3dc1918c	0.09451589
2	0xbe14941a	-0.14509621
3	0xbd4340a5	-0.04766907
4	0xbdfb18de	-0.122606024
5	0x3e5f7d76	0.21825203
6	0x3d23575e	0.03987824
7	0xbe2c0f18	-0.16802633
8	0x3e30811f	0.17236756
9	0xbd71717c	-0.058946118
10	0x3cc03fc7	0.023467911
11	0x3d464d9b	0.048413854
12	0xbd238d57	-0.039929714
13	0x3e60ee26	0.21965846
14	0x3de89107	0.11355787
15	0x3d0df343	0.03465582
16	0xbd9611d0	-0.07327616
17	0x3d813964	0.063097745

encoder.conv2.weight f4 [54, 18, 3]
0	0xbdce098d	-0.100604154
1	0xbd277d75	-0.04089113
2	0x3d9c283d	0.07624862
3	0xbe040276	-0.12891564
4	0x3a51256d	0.0007978294
5	0xbd3bb508	-0.04582694
6	0x3dd023aa	0.101630524
7	0xbd87c9fd	-0.06630323
8	0x3d3cef83	0.046126854
9	0xbd0e861d	-0.03479587
10	0x3debcc35	0.11513559
11	0xbc9700d5	-0.018433014
12	0xbdce3366	-0.10068397
13	0xbd31895b	-0.043343883
14	0x3dc37217	0.09543245
15	0x3d56d508	0.052449256
16	0x3cc56c3d	0.024099464
17	0x3dae52fd	0.085119225
18	0x3d4abae6	0.049494646
19	0xbca7433b	-0.0204178
20	0xbd984b5f	-0.07436251
21	0xbe0677ae	-0.13131592
22	0x3d92fce4	0.07177141
23	0x3dde6fdf	0.108611815
24	0xbd890f0f	-0.06692325
25	0xbdacb619	-0.0843317
26	0x3c4a3596	0.012341877
27	0xbc36adf5	-0.011149873
28	0x3dec1c86	0.11528878
29	0x39a3efba	0.00031268393
30	0xbbc128c5	-0.0058947527
31	0xbe0130dd	-0.12616296
32	0x3d4c16c9	0.049826417
33	0xbca9d060	-0.020729244
34	0x3d37d5a4	0.044881478
35	0x3d999c8a	0.075005606
36	0x3d81bfb3	0.06335392
37	0x3c151463	0.009099099
38	0xbb9c1815	-0.004763613
39	0xbd970777	-0.07374471
40	0x3de70743	0.11280682
41	0x3ddb5958	0.107104
42	0xbcf01d68	-0.029310897
43	0x3e07a684	0.13247114
44	0x3dede5ff	0.11616134
45	0x3d921556	0.07132976
46	0x3d9ea5ae	0.07746445
47	0x3d6c62c9	0.057711396
48	0xbbfbe14a	-0.0076867687
49	0x3c54cd0d	0.012988341
50	0x3df01f02	0.11724664
51	0xbcf7585e	-0.030193504
52	0x3cf98909	0.030460851
53	0xbd44be3f	-0.048032995
54	0x3c907563	0.0176341
55	0x3db2cb62	0.087301984
56	0x3db0c3af	0.08631074
57	0x3d8ed71b	0.06974622
58	0x3d8983ed	0.06714616
59	0xbcd063fd	-0.025438303
60	0x3e35f397	0.17768703
61	0x3de4d2bd	0.11173008
62	0x3e145425	0.14485224
63	0xbdd736b9	-0.105084844
64	0xbd7659ca	-0.060144223
65	0xbde099a5	-0.10966805
66	0x3c75af13	0.014995354
67	0x3dd5137e	0.104041085
68	0xbdce0cd3	-0.1006104
69	0x3d299780	0.041404247
70	0xbc9c99d0	-0.019116312
71	0xbe09e27d	-0.13465305
72	0xbbfa7541	-0.0076433723
73	0xbc8df707	-0.017329706
74	0xbd922e2f	-0.07137715
75	0xbdb57573	-0.08860292
76	0x3db40edb	0.08791896
77	0xbb8a5876	-0.004221971
78	0xbd49b9fb	-0.04924963
79	0xbda3a902	-0.0799122
80	0xbd2c52b5	-0.042071063
81	0xbd1a8a98	-0.03772983
82	0xbd8aeee1	-0.06783844
83	0x3d7f1309	0.062274013
84	0xbd1d9480	-0.0384717
85	0xbe066f75	-0.13128455
86	0xbda2d4a9	-0.07950718
87	0xbd3235e5	-0.04350843
88	0xbd02c09a	-0.03192196
89	0x3d556c75	0.052105386
90	0x3e004821	0.12527515
91	0xbda30c47	-0.07961326
92	0x3b3760ea	0.002798135
93	0x3de539ab	0.1119264
94	0xbdc4611d	-0.095888354
95	0xbdf1d03b	-0.11807295
96	0xbad5fc62	-0.0016325826
97	0xbc0a74f4	-0.008450735
98	0x3be04723	0.0068444177
99	0x3d95f035	0.073212065
100	0xbde329db	-0.11091968
101	0xbda2d98f	-0.07951652
102	0x3ddb05cd	0.10694466
103	0xbddade8d	-0.106869794
104	0xbcda5bbf	-0.026655076
105	0x3d44e490	0.048069537
106	0xbdc6c73e	-0.09705971
107	0xbde77441	-0.113014705
108	0xbdbd8847	-0.092545085
109	0xbdd8e9d9	-0.10591478
110	0xbe03f451	-0.12886168
111	0xbce1756f	-0.027521817
112	0xbe08577b	-0.13314621
113	0xbdb31527	-0.08744269
114	0x3d14e307	0.036349323
115	0x3e0b61ac	0.13611478
116	0x3e0d4064	0.13794094
117	0x3de57bc4	0.11205247
118	0x3c2f5fc4	0.010703985
119	0x3daaa8d4	0.08332983
120	0xbd115931	-0.03548545
121	0xbda74a71	-0.081684954
122	0x3d9131f7	0.07089608
123	0x3d6c0cf9	0.05762956
124	0x3d216f9e	0.039413087
125	0x3d504bf8	0.0508537
126	0xbcf9441c	-0.030427985
127	0x3dd54c72	0.104149714
128	0x3d987b29	0.07445366
129	0xbd887a12	-0.06663908
130	0x3dce3d27	0.10070258
131	0x3d59c8ee	0.053170137
132	0xbc863e98	-0.016387269
133	0xbd2c90c1	-0.042130236
134	0x3da9d46c	0.082924694
135	0x3c5f5144	0.013630215
136	0x3d87419b	0.0660431
137	0x3debda18	0.115162075
138	0xbcf59c86	-0.029981863
139	0x3dda36c6	0.106549785
140	0xbdcacf7e	-0.09902857
141	0x3bcaa852	0.006184616
142	0x3d8d76bb	0.06907412
143	0x3dafc22d	0.08581958
144	0xbdb025c5	-0.08600954
145	0x3e1e1402	0.1543732
146	0xbd56b226	-0.05241599
147	0x3dcfa709	0.10139281
148	0xbd6b0326	-0.05737605
149	0x3d541599	0.05177841
150	0xbde07f21	-0.10961748
151	0xbd930e36	-0.07180445
152	0x3d042a4a	0.032266892
153	0x3db1a679	0.0867433
154	0xbbae3640	-0.0053165257
155	0x3d5a6b51	0.053325
156	0xbd9d6174	-0.07684603
157	0x3cd442cf	0.025910763
158	0xbcffa4f5	-0.031206587
159	0xbd3bec91	-0.045879904
160	0x3d409276	0.047014676
161	0xbd65fe5a	-0.05615077
162	0xbdc7889e	-0.097428545
163	0xbd24df35	-0.04025193
164	0x3d7e8290	0.062136233
165	0x3e05d7e4	0.13070637
166	0x3df9524d	0.12173901
167	0x3dca98a5	0.09892396
168	0xbd1b47c7	-0.03791025
169	0x3e0ffcaa	0.14061227
170	0x3d933aa4	0.07188919
171	0x3ce79e5f	0.02827376
172	0xbda36926	-0.0797904
173	0xbd8c1b5f	-0.06841158
174	0x3d178a08	0.03699687
175	0xbc22aeb3	-0.009929347
176	0xbd302893	-0.043007445
177	0xbdcd41d2	-0.1002232
178	0x3dd3d055	0.103424706
179	0x3d01317d	0.031541336
180	0x3c8a11bc	0.01685416
181	0x3c4e5f0e	0.012595905
182	0x3d8b1f70	0.067931056
183	0xbdb5cc00	-0.088768005
184	0x3b141234	0.0022593858
185	0x3e075f80	0.13220024
186	0xbd308ef1	-0.04310507
187	0xbe254411	-0.16139247
188	0xbde396a3	-0.11112716
189	0x3dabc6bc	0.08387515
190	0x3db2cf96	0.08731
191	0x3dd2c538	0.10291523
192	0xbdc97141	-0.098360546
193	0xbdb3db32	-0.087820426
194	0xbe09de45	-0.13463695
195	0x3c41c284	0.011826161
196	0x3c117873	0.008878815
197	0x3e267311	0.16254832
198	0xbd583f48	-0.052794725
199	0xbd897d96	-0.06713407
200	0x3d8a275d	0.06745789
201	0xbd52b7ec	-0.051444933
202	0xbccf031e	-0.025270041
203	0x3dfd6faf	0.123748176
204	0x3d2ae04d	0.041717816
205	0xbe12b869	-0.1432816
206	0x3c6aaeff	0.014323949
207	0xbc7cf4bc	-0.015439209
208	0x3e0b2dfa	0.13591757
209	0xbdf0312c	-0.11728129
210	0x3dbdb444	0.092628986
211	0xbe17bc34	-0.14817888
212	0xbe14197e	-0.1446285
213	0xbdaecabc	-0.08534762
214	0xbe23788f	-0.15963958
215	0xbcb28156	-0.021790188
216	0x3dcea03d	0.10089157
217	0xbd869ae0	-0.06572509
218	0xbdfdbf5c	-0.123900145
219	0xbafc58dd	-0.0019252558
220	0xbdce1624	-0.10062817
221	0x3dc182f0	0.094488025
222	0xbd21a22d	-0.039461304
223	0x3ddb9c75	0.10723201
224	0x3d3a3e30	0.045469463
225	0x3d629e3e	0.055326693
226	0x3d686aff	0.056742664
227	0x3e05af60	0.13055182
228	0xbdd45ef0	-0.103696704
229	0xbdc94f6e	-0.09829603
230	0x3dccfdde	0.10009359
231	0x3d1c8607	0.038213756
232	0x3e10bf40	0.14135456
233	0x3d2708a2	0.040779717
234	0x3d1f6426	0.03891387
235	0x3d962b4e	0.073324785
236	0x3daca4c9	0.08429868
237	0x3dbd2a6c	0.09236607
238	0xbde444a2	-0.11145903
239	0x3d164f07	0.03669646
240	0xbd685227	-0.05671897
241	0x3d9d8e65	0.07693175
242	0x3dd5407f	0.10412692
243	0xbd6401d3	-0.055665802
244	0x3da491eb	0.08035644
245	0x3dd12a63	0.10213163
246	0x3db5bc9f	0.08873867
247	0xbdcf1462	-0.101113096
248	0xbb2317b2	-0.002488595
249	0x3df65e87	0.120297484
250	0x3b6f83f0	0.0036547147
251	0x3df07cd6	0.117425606
252	0xbbf26c99	-0.0073981998
253	0xbdc78241	-0.09741641
254	0x3d935267	0.071934514
255	0x3d34ccc4	0.044140592

encoder.conv2.bias f4 [54]
0	0x3d98473a	0.074354604
1	0x3dedcf8e	0.116118535
2	0xbda0ed67	-0.07857781
3	0xbdb37e5b	-0.08764335
4	0xbbbe9a50	-0.0058167353
5	0x3debf6bd	0.11521671
6	0xbcb69b76	-0.022290926
7	0xbe0f5010	-0.13995385
8	0xbd5498d6	-0.05190357
9	0xbd953fde	-0.07287572
10	0x3db57bb9	0.08861489
11	0xbdaddc0d	-0.08489237
12	0x3dda8e55	0.10671679
13	0x3d65dfb7	0.056121554
14	0xbc8445dc	-0.016146593
15	0xbd15c3be	-0.036563627
16	0x3d8704d5	0.065927185
17	0xbd973bf4	-0.07384482
18	0xbd647c76	-0.055782758
19	0x3def21e0	0.11676383
20	0xbd6f4e4f	-0.05842429
21	0x3c9d1a84	0.019177683
22	0x3dd4e62f	0.103954665
23	0xbdc9a23d	-0.098453976
24	0x3cfce4a7	0.030870749
25	0xba3947e6	-0.00070679036
26	0xbd927c2a	-0.07152589
27	0x3e00479e	0.1252732
28	0x3dbd796a	0.092516735
29	0xbc04221a	-0.008064771
30	0xbced0c99	-0.028936671
31	0x3dc4ea62	0.096150175
32	0xbd28fb7b	-0.041255455
33	0x3d8a7d7d	0.06762216
34	0xbda8a3a0	-0.08234334
35	0xbdc327ac	-0.09529051
36	0x3dc36d40	0.09542322
37	0x3db1bbad	0.086783744
38	0xbdd4fa6b	-0.10399326
39	0xbd2b00e1	-0.041748885
40	0x3d9384fd	0.072031
41	0x3da6c0f1	0.081422694
42	0x3d896045	0.06707815
43	0x3dbb472f	0.091444366
44	0xbd7b801f	-0.061401483
45	0x3d0a1466	0.03371086
46	0x3dd7d946	0.105394885
47	0xbde3a118	-0.111147106
48	0x3da11aac	0.078664154
49	0x3cb7d40b	0.022439977
50	0xbc39a0cb	-0.01132984
51	0x3e06290a	0.13101593
52	0xbd689694	-0.056784227
53	0xbd43f0f6	-0.04783722

encoder.rnn.weight_ih_l0 f4 [192, 54]
0	0xbdc6430a	-0.096807554
1	0x3dce8aa6	0.10085039
2	0xbdc1606c	-0.09442219
3	0x3de624fc	0.11237523
4	0xbdb81ec1	-0.08990241
5	0x3d89eb7d	0.06734369
6	0xbd877e7f	-0.06615924
7	0x3dd97562	0.10618092
8	0xbda2f1ad	-0.07956252
9	0xbd9d5e21	-0.07683969
10	0xbd2299ca	-0.039697446
11	0xbdc61f49	-0.09673936
12	0x3dfb0490	0.122567296
13	0x3d5110bb	0.051041346
14	0xbd895ec5	-0.06707529
15	0xbdc90f62	-0.09817387
16	0xbd39b823	-0.045341622
17	0x3cb2ba78	0.02181743
18	0xbd52555b	-0.051350933
19	0x3d8b5a60	0.06804347
20	0xbd6c12ad	-0.057634998
21	0x3d295bd9	0.04134736
22	0x3db071fd	0.086154915
23	0xbda69012	-0.08132948
24	0xbdbd3c39	-0.09240002
25	0xbdfcac60	-0.123375654
26	0x3ce44f78	0.027869925
27	0x3dd16237	0.10223811
28	0xbdab970e	-0.08378421
29	0xbc548c6b	-0.012972931
30	0x3d987511	0.07444204
31	0x3dcf07d0	0.10108912
32	0x3d952a75	0.07283489
33	0x3d12e5ac	0.035863563
34	0x3cd1f2be	0.025628444
35	0x3c576e4b	0.0131488545
36	0x3de74389	0.11292178
37	0xb73c656b	-1.1229286e-05
38	0x3d5762fe	0.05258464
39	0xbc52cdab	-0.012866418
40	0x3dc135e5	0.09434108
41	0xbdf76d33	-0.12081375
42	0xbd3319e4	-0.043725863
43	0xbdfdb554	-0.12388101
44	0x3d0151f5	0.0315723
45	0xbcd4d950	-0.025982529
46	0xbddab287	-0.10678583
47	0xbdcac636	-0.09901087
48	0x3d029350	0.03187877
49	0x3db7f197	0.089816265
50	0x3dd27f2b	0.102781616
51	0x3da7badb	0.08189937
52	0xbdc609f7	-0.096698694
53	0x3dcc9638	0.099895895
54	0x3df1db40	0.11809397
55	0x3ca7d3dc	0.020486765
56	0xbe40f454	-0.18843204
57	0xbdcd62da	-0.1002862
58	0xbe35d552	-0.17757156
59	0x3cd08659	0.025454687
60	0x3df4c02f	0.119507186
61	0x3dc9c5aa	0.098521546
62	0xbd7c0a0e	-0.061533026
63	0xbd8063b4	-0.06269017
64	0x3d4e0c09	0.050304446
65	0xbda4be72	-0.08044137
66	0xbcb5f79c	-0.022212796
67	0x3c8d778b	0.017268917
68	0xbdad79fa	-0.08470531
69	0x3d520460	0.051273704
70	0xbc36b55f	-0.011151641
71	0x3dd15fd3	0.10223355
72	0xbde8ea22	-0.11372782
73	0x3dfcc190	0.123416066
74	0x3dc3c6e8	0.09559423
75	0xbdf47043	-0.11935475
76	0x3d3eaf2f	0.046553787
77	0x3cbd24ac	0.023088776
78	0x3d61db36	0.055140696
79	0x3de0ae10	0.109707
80	0xbdaecf66	-0.08535652
81	0xbd78b6e7	-0.060721304
82	0xbdaa6c0b	-0.08321389
83	0x3d5058b9	0.050865863
84	0xbdafb820	-0.08580041
85	0xbda667fb	-0.081253015
86	0x3dd20e41	0.10256625
87	0x3d994858	0.074845016
88	0x3db33765	0.087508
89	0x3dd375cf	0.103252046
90	0xbde56364	-0.11200598
91	0xbcd0230b	-0.025407335
92	0xbc53abfa	-0.01291942
93	0x3df66124	0.12030247
94	0xbc0cb661	-0.008588404
95	0xbd858013	-0.06518569
96	0x3d94f2d6	0.0727288
97	0x3d86b93b	0.06578299
98	0xbdc2f3df	-0.09519171
99	0xbe42e32e	-0.19031975
100	0xbd792411	-0.06082541
101	0x3d8e1277	0.06937116
102	0x3e0886e9	0.13332714
103	0x3d6b491d	0.057442773
104	0x3d87bd8b	0.06627949
105	0x3d5e4da5	0.054273266
106	0xbd254a30	-0.040353954
107	0xbce1e51f	-0.027575074
108	0x3d86eab3	0.06587734
109	0xbb8fb2f7	-0.004385348
110	0xbd3c1a94	-0.045923784
111	0xbccdbfd3	-0.025115883
112	0x3dedc0dd	0.116090514
113	0x3ca52c11	0.020162614
114	0xbd3fe3b0	-0.046848
115	0xbdc0f2a3	-0.09421279
116	0xbd26a8f0	-0.040688455
117	0xbd17b347	-0.037036207
118	0x3d8bddfd	0.0682945
119	0x3df25961	0.11833454
120	0xbd21e99d	-0.03952943
121	0x3dea8ab0	0.11452234
122	0xbdc3386a	-0.095322445
123	0xbd69bb7b	-0.05706356
124	0x3c50e7fe	0.012750624
125	0xbe533e8c	-0.20629328
126	0xbdaae482	-0.08344366
127	0xbd1aee9a	-0.037825204
128	0xbda4a31e	-0.08038925
129	0x3dd22a13	0.10261931
130	0xbd1a7299	-0.037706945
131	0xbd956ab4	-0.07295743
132	0xbd8a8c06	-0.067649886
133	0x3dc488ca	0.09596403
134	0x3d90fe7f	0.07079791
135	0xbd93fe5c	-0.072262496
136	0xbe04550a	-0.12923065
137	0xbd592d6a	-0.053021826
138	0x3d9f636d	0.07782636
139	0x3d9a719d	0.07541201
140	0x3d8b076a	0.067885235
141	0x3d37cd4c	0.04487352
142	0x3da1310a	0.078706816
143	0x3df54582	0.11976148
144	0xbd93154a	-0.07181795
145	0x3d74b02f	0.059738334
146	0x3d83f1c6	0.06442599
147	0x3be27960	0.0069114417
148	0x3dd7c8d5	0.105363525
149	0xbdbe3ea5	-0.09289292
150	0xbdcd66a6	-0.10029344
151	0xbd5cd066	-0.05390968
152	0xbda9dbda	-0.082938865
153	0x3cf6870a	0.030093689
154	0x3ce470d9	0.027885841
155	0x3bfacd26	0.00765385
156	0xbcc4e001	-0.024032595
157	0x3c88dfbc	0.016708247
158	0xbe1bd808	-0.15219128
159	0xbdb0d536	-0.08634417
160	0xbdad996c	-0.084765285
161	0x3dcd67da	0.10029574
162	0xbdee14ff	-0.116250984
163	0x3d789182	0.060685642
164	0x3d74294c	0.059609696
165	0xbd209ee3	-0.039214026
166	0xbcd10d25	-0.025518963
167	0x3dcd5eee	0.10027872
168	0xbdd18863	-0.10231092
169	0xbdfda9bd	-0.12385891
170	0xbc69c458	-0.014268003
171	0xbc7e3df6	-0.015517702
172	0xbd3c6ef6	-0.046004258
173	0x3c0015a4	0.0078176595
174	0x3d7f22ec	0.062289163
175	0x3d800fe6	0.062530324
176	0x3cdce395	0.026963988
177	0x3db1df58	0.086851776
178	0xbd739800	-0.05947113
179	0x3bdc4479	0.0067220298
180	0x3d242619	0.040075395
181	0x3d3b257c	0.045690045
182	0xbd03bd00	-0.032162666
183	0x3ddc3707	0.10752683
184	0xbdbdaf25	-0.09261922
185	0xbd2f0bfa	-0.04273603
186	0xbdea04cb	-0.114266954
187	0x3c8ff443	0.017572528
188	0xbdd1d596	-0.102458164
189	0x3de252dc	0.110509604
190	0xbdaec197	-0.08533018
191	0x3cbf3779	0.023341881
192	0x3de55780	0.1119833
193	0x3ded917f	0.11600017
194	0x3d2e53ae	0.042560272
195	0x3d3c8d8b	0.046033423
196	0x3cf390c8	0.029732123
197	0x3d9a2d55	0.07528178
198	0xbb19d39f	-0.0023472083
199	0xbdc03e12	-0.09386839
200	0x3def2cb9	0.11678452
201	0xbdc79556	-0.097452804
202	0x3e04eff2	0.12982157
203	0xbbe20709	-0.0068978113
204	0x3d550b87	0.052012946
205	0xbb0359bd	-0.0020042502
206	0x3d626371	0.055270616
207	0x3d95ce09	0.07314689
208	0xbdeb4ceb	-0.1148928
209	0x3da15a5c	0.07878563
210	0xbd231379	-0.039813492
211	0xbdefb19c	-0.11703798
212	0xbdd86085	-0.10565285
213	0x3c65c79e	0.014024643
214	0x3dc88888	0.09791666
215	0xbdff1001	-0.124542244
216	0x3cf317f1	0.029674502
217	0x3d6f6080	0.05844164
218	0xbdd833b7	-0.10556739
219	0x3d2422d4	0.040072277
220	0xbe0d5224	-0.13800865
221	0x3c4bce50	0.012439325
222	0xbcf8322d	-0.030297363
223	0x3e1772e3	0.1478992
224	0xbdee8586	-0.11646561
225	0x3d6a2fd3	0.057174515
226	0xbd01282c	-0.03153245
227	0x3cf48be7	0.029851867
228	0xbc66f82b	-0.014097254
229	0xbe146458	-0.14491403
230	0xbd2b5cfd	-0.041836727
231	0x3c5b7cc8	0.013396449
232	0x3cbb3eea	0.022857148
233	0xbd9e997a	-0.07744117
234	0x3da21ab0	0.079152465
235	0xbd24202b	-0.04006974
236	0xbd40dad0	-0.047083676
237	0x3c90b3ae	0.017663803
238	0xb8cd1c7a	-9.780466e-05
239	0x3cd508ad	0.026005113
240	0x3d3368b0	0.04380101
241	0xbc7fd785	-0.015615349
242	0x3cf303dd	0.029664928
243	0x3d930393	0.07178416
244	0x3d249cdd	0.04018866
245	0x3d99f6b7	0.0751776
246	0x3d82a4e6	0.06379108
247	0x3d4b2555	0.04959615
248	0x3d8741ad	0.066043235
249	0x3d9cf621	0.07664133
250	0x3d10c7bf	0.035346743
251	0x3d7c6292	0.06161744
252	0x3d2baa68	0.04191056
253	0x3ce922d9	0.028459
254	0x3c98409f	0.018585501
255	0xbd0f6201	-0.035005573

encoder.rnn.weight_hh_l0 f4 [192, 64]
0	0xbde111ee	-0.10989748
1	0x3df347c2	0.11878921
2	0xbda6f0a0	-0.08151364
3	0x3df30541	0.118662365
4	0xbb81b9e4	-0.0039589275
5	0xbb65795a	-0.0035014958
6	0x3d890d41	0.06691981
7	0xbd686d75	-0.05674501
8	0x3b9d58b3	0.0048018335
9	0xbd4e0868	-0.050300986
10	0xbdba6979	-0.091021486
11	0x3da91b8f	0.082572095
12	0x3db3a941	0.08772517
13	0x3d769eb2	0.060209937
14	0x3df1d9a4	0.1180909
15	0x3d6e3ef4	0.058165506
16	0x3dcf8c19	0.101341434
17	0xbd050a38	-0.03248045
18	0x3db753f9	0.089515634
19	0x3d132099	0.03591976
20	0x3b825e29	0.00397851
21	0x3db60b99	0.08888931
22	0xbdce92c1	-0.10086585
23	0xbc10c6b1	-0.008836434
24	0xbd78ec1a	-0.06077204
25	0x3df9c8b4	0.12196484
26	0xbca00ec5	-0.019538293
27	0x3d20a3c1	0.039218668
28	0x3dbba988	0.09163195
29	0x3d7a8047	0.06115749
30	0xbd39b810	-0.04534155
31	0x3bee1d45	0.007266673
32	0x3da9ad76	0.08285038
33	0xbd4767f7	-0.048683133
34	0x3c12ad2d	0.008952421
35	0xbdb79b59	-0.08965177
36	0x3cf36444	0.029710896
37	0x3da90b11	0.08254064
38	0x3b95b9c6	0.004569265
39	0x3cc346c8	0.023837462
40	0x3dd0820c	0.101810545
41	0x3c0a3a33	0.008436727
42	0xbd3699f6	-0.044580422
43	0x3dccfaff	0.10008811
44	0xbdb16e0d	-0.08663569
45	0x3d6b701a	0.057479955
46	0x3d9d4d0f	0.076807134
47	0x3b33f74b	0.002746063
48	0xbe0036a9	-0.12520851
49	0x3d56718e	0.052354388
50	0x3db28665	0.0871704
51	0xbc15b07a	-0.009136314
52	0x3da40f1e	0.08010696
53	0x3d350a78	0.044199437
54	0x3cbef896	0.023311894
55	0x3df4395e	0.119250044
56	0xbd829b4f	-0.06377279
57	0x3c7ef85b	0.015562142
58	0xbdc83af9	-0.09776873
59	0x3dd6e127	0.10492163
60	0x3d1389f7	0.036020245
61	0x3debf5f7	0.115215234
62	0xbdc3c959	-0.095598884
63	0x3de68fa3	0.11257865
64	0x3d824375	0.06360523
65	0x3dc4a4ae	0.09601723
66	0xbd7b0bbf	-0.0612905
67	0xbdac0d8c	-0.08401021
68	0xbcdb02ad	-0.026734674
69	0x3dc623b6	0.0967478
70	0x3e351524	0.17683846
71	0x3d0b698c	0.034036204
72	0xbc41a2b5	-0.011818578
73	0xbbf13d80	-0.0073620677
74	0xbc84c797	-0.016208453
75	0x3cbe36ab	0.023219427
76	0x3d64f4c7	0.0558975
77	0xbcafcaf8	-0.021459088
78	0xbda71920	-0.08159089
79	0xbbd83cb9	-0.0065990356
80	0x3d839763	0.06425359
81	0xbda9b027	-0.082855515
82	0x3df0c58e	0.117564306
83	0x3d3cc00f	0.0460816
84	0x3d5d5ae6	0.054041766
85	0x3d50f181	0.051011566
86	0x3d402c7a	0.046917416
87	0x3df63e02	0.12023546
88	0xbd971597	-0.07377165
89	0x3bcc547f	0.0062356587
90	0x3db90eb5	0.09036008
91	0xbdd1e860	-0.102494
92	0x3d6b8dce	0.057508282
93	0xbdf262b7	-0.118352346
94	0xbdb027a9	-0.086013146
95	0xbd8ed769	-0.0697468
96	0xbda9d13f	-0.08291864
97	0xbdbf8203	-0.0935097
98	0x3dab01f2	0.083499804
99	0xbdd20d18	-0.10256404
100	0xbd865b54	-0.06560388
101	0xbdd96140	-0.10614252
102	0xbd1d1a17	-0.03835496
103	0x3abb4c8a	0.0014289778
104	0x3d60a6e9	0.054846678
105	0xbd92a332	-0.07160033
106	0xbc4ee849	-0.012628623
107	0x3d5a68c2	0.05332256
108	0x3da36edc	0.07980129
109	0xbb4bd03c	-0.003109946
110	0xbd90435f	-0.070441
111	0x3d8f2ac8	0.06990582
112	0xbc92ab39	-0.017903911
113	0xbde0e289	-0.10980708
114	0xbca2fe19	-0.019896554
115	0xbcc483db	-0.023988655
116	0x3d008e63	0.03138579
117	0x3ddbe2c4	0.107366115
118	0x3db0d52c	0.08634409
119	0xbdb4f788	-0.08836275
120	0x3df3ffde	0.11914037
121	0x3d6e9ad3	0.05825312
122	0x3cdd47ac	0.027011715
123	0xbdab5d4b	-0.083674036
124	0xbc707978	-0.014677398
125	0x3cf5b307	0.029992593
126	0xbbcbaa36	-0.006215359
127	0x3da6460c	0.08118829
128	0x3d91e1a5	0.071231164
129	0xbd9877e5	-0.07444743
130	0x3deb6984	0.11494735
131	0x3ca5789f	0.020199118
132	0x3c15be5a	0.009139622
133	0xbce5a85f	-0.028034387
134	0x3d477f88	0.048705608
135	0x3cf9c380	0.03048873
136	0xbd0a2e88	-0.033735782
137	0x3b5b6359	0.0033475964
138	0xbd2e7b18	-0.04259786
139	0x3e0d95c3	0.13826661
140	0xbd7e4e34	-0.0620863
141	0xbdb318eb	-0.08744987
142	0x3e005d13	0.12535505
143	0x3d84d31c	0.064855784
144	0xbdf0b81b	-0.11753865
145	0x3de72583	0.11286452
146	0xbe04371d	-0.12911649
147	0xbd202ee2	-0.03910721
148	0xbd399f41	-0.045317892
149	0x3b8d3754	0.004309574
150	0xbcf3e39f	-0.029771624
151	0xbd605e5e	-0.054777496
152	0xbdea69d7	-0.114459686
153	0xbd9962e5	-0.07489566
154	0x3da2527c	0.07925889
155	0x3d412c6b	0.0471615
156	0x3d013db9	0.031553004
157	0xbd0448ac	-0.032295868
158	0x3cf23c9a	0.029569913
159	0xbc95c512	-0.018282447
160	0xbd45d2a6	-0.048296593
161	0x3e029a25	0.12754114
162	0xbb8d9c01	-0.0043215756
163	0xbc98d68c	-0.018656991
164	0xbaccfc05	-0.0015639073
165	0x3d455c90	0.048183978
166	0xbdfcda06	-0.12346272
167	0x3d58e146	0.052949212
168	0xbb39effb	-0.00283718
169	0xbd2d56c0	-0.04231906
170	0xbd142335	-0.03616639
171	0xbbcbcf44	-0.0062197763
172	0xbe1d9bd5	-0.15391476
173	0x3d8310a1	0.06399656
174	0x3ccc5485	0.024942646
175	0xbd877441	-0.066139705
176	0x3dac8d2c	0.08425364
177	0xbda03a5d	-0.07823632
178	0x3df1e1a6	0.11810617
179	0xbd4e3e14	-0.05035217
180	0x3cf34fa8	0.029701069
181	0x3cd3903f	0.025825618
182	0xbccc5da4	-0.024946995
183	0xbdc2c4cc	-0.09510192
184	0x3da141d0	0.07873881
185	0x3cc88e21	0.024481835
186	0xbdb7c9b7	-0.08974021
187	0xbd090884	-0.033455387
188	0x3d2c00c6	0.041992925
189	0xbdb2d713	-0.087324284
190	0x3d3e97d0	0.0465315
191	0x3db18e65	0.08669738
192	0xbdfe8711	-0.124281056
193	0x3c59cdd0	0.013293698
194	0xbd8c7a68	-0.06859285
195	0xbde0aabe	-0.109700665
196	0x3de232ea	0.11044867
197	0x3d98204d	0.07428036
198	0x3e024e06	0.12725076
199	0x3e095ded	0.13414736
200	0xbd86425a	-0.06555624
201	0xbd514213	-0.051088404
202	0x3b9f1196	0.0048543913
203	0x3d6573a0	0.05601847
204	0x3c3ff1c0	0.011715353
205	0xbbb3dea0	-0.0054891855
206	0x3dff7418	0.12473315
207	0xbd43fee8	-0.04785052
208	0x3d5d6d80	0.054059505
209	0x3d57fd5c	0.052731857
210	0xbd74f5da	-0.059804775
211	0x3d93f10d	0.07223711
212	0x3db04282	0.08606435
213	0xbca465cd	-0.020068074
214	0xbdd9443d	-0.106087185
215	0x3da807ce	0.082046136
216	0x3d9898ce	0.0745102
217	0x3d815f8e	0.06317054
218	0x3cbc7c66	0.023008537
219	0x3d88b48d	0.06675062
220	0x3d28131d	0.041033853
221	0xbd44dee0	-0.048064113
222	0xbdbd6074	-0.092469126
223	0xbd370d10	-0.04469019
224	0x3d24eb68	0.040263563
225	0xbd6139ad	-0.054986645
226	0x3dbd66d9	0.09248132
227	0xbd93ebc9	-0.07222707
228	0xbdd60517	-0.104501896
229	0x3da837cd	0.08213768
230	0xbda2d699	-0.079510875
231	0x3d20659a	0.039159395
232	0x3de4f6f2	0.111799136
233	0x3be045ab	0.0068442426
234	0x3daa152d	0.0830482
235	0xbd2319f9	-0.03981969
236	0xbde3496b	-0.11097988
237	0xbd9f1869	-0.07768328
238	0xbd0de8a9	-0.03464571
239	0xbdab7189	-0.083712645
240	0xbd9f6a31	-0.07783926
241	0x3d4540b8	0.048157424
242	0x3e4f932e	0.20270988
243	0x3d9560e0	0.07293868
244	0x3d59c4e6	0.053166293
245	0xbdb67a93	-0.08910098
246	0xbc9863c9	-0.018602269
247	0x3d24e48f	0.040257033
248	0x3df31ed9	0.11871118
249	0xbd645ccd	-0.055752564
250	0x3db27dc0	0.08715391
251	0x3d916b39	0.07100529
252	0xbcacfaaa	-0.02111562
253	0xbdf3edbc	-0.119105786
254	0x3d81b2d9	0.063329406
255	0x3d9b5ca3	0.075860284

encoder.rnn.bias_ih_l0 f4 [192]
0	0x3df4393d	0.1192498
1	0xbdbd939a	-0.092566684
2	0xbdd01aba	-0.10161348
3	0x3ae0511d	0.0017114017
4	0x3cc76a2a	0.024342615
5	0xbcac691b	-0.021046212
6	0xbd6f90fd	-0.05848788
7	0x3c8fa43b	0.017534366
8	0xbb10516d	-0.002202119
9	0xbd61577e	-0.05501508
10	0x3d0bda3f	0.034143683
11	0xbd86159a	-0.06547089
12	0xbe0cc0c9	-0.13745417
13	0xbddb9d61	-0.10723377
14	0x3d21f2e8	0.039538294
15	0xbdd0c3d4	-0.10193601
16	0xbde46421	-0.111519106
17	0xbd1db96c	-0.03850691
18	0x3daa2b4e	0.08309041
19	0x3d988c66	0.07448654
20	0x3db76001	0.08953858
21	0xbdeb1968	-0.11479455
22	0xbdb4a068	-0.088196576
23	0x3d9060f0	0.07049739
24	0x3e214b10	0.1575129
25	0xbc8fe7cf	-0.01756659
26	0xbdef10c2	-0.11673118
27	0x3df96c50	0.12178862
28	0x3d8decf0	0.06929958
29	0x3dc3238e	0.09528266
30	0x3d26fb50	0.040767014
31	0x3d5ee7e1	0.054420356
32	0xbc45f353	-0.012081939
33	0x3d671ced	0.05642407
34	0x3cbadb7b	0.022809735
35	0xbd773955	-0.06035741
36	0xbd5f1404	-0.054462448
37	0xbd1444f4	-0.03619857
38	0xbc6f4565	-0.014603947
39	0x3db12629	0.086498566
40	0x3da3f0a8	0.08004886
41	0xbca6ca77	-0.020360215
42	0xbceda051	-0.029007109
43	0xbc88ce2b	-0.016699871
44	0x3dfe603d	0.124207
45	0x3de7399b	0.11290284
46	0x3cb21b92	0.021741662
47	0xbc150e4d	-0.009097648
48	0x3db07235	0.08615533
49	0xbdbf17f2	-0.09330739
50	0xbda90e68	-0.08254701
51	0x3d8e1330	0.069372535
52	0x3deef367	0.11667519
53	0xbc1b9e86	-0.009498244
54	0xbdd9d066	-0.10635452
55	0x3db765eb	0.08954986
56	0x3d5d01c4	0.053956762
57	0x39b2532b	0.0003401277
58	0x3dfa83f3	0.122321986
59	0xbddaac4a	-0.10677393
60	0xbc84ebaa	-0.016225655
61	0x3d9d3312	0.076757565
62	0xbdb63720	-0.08897233
63	0xbdb424c2	-0.087960735
64	0x3c493277	0.012280098
65	0x3db8efb0	0.09030092
66	0xbe4a8c34	-0.19780046
67	0x3d523456	0.051319443
68	0xbdf14fc9	-0.11782796
69	0xbdb5315b	-0.088473044
70	0x3e6d2cd7	0.23161636
71	0x3dcebbba	0.100944
72	0xbc74d617	-0.014943621
73	0xba815892	-0.0009868315
74	0xbde0108c	-0.10940656
75	0x3dc40e6f	0.095730655
76	0x3dad8789	0.08473117
77	0x3d9e972f	0.0774368
78	0x3b5a1f2d	0.0033282742
79	0xbe58f245	-0.21186168
80	0xbdc46e0c	-0.09591302
81	0xbe11da79	-0.14243497
82	0xbd80b937	-0.06285327
83	0x38caeb9a	9.675995e-05
84	0xbbcc4f90	-0.0062350705
85	0xbdbc87fc	-0.092056245
86	0x3d72f83e	0.059318773
87	0x3d500c25	0.050792832
88	0xbd0f2921	-0.034951333
89	0xbd59ae7b	-0.053144913
90	0x3c935f10	0.017989665
91	0xbcf92b0c	-0.030416034
92	0xbd8ce329	-0.06879265
93	0x3cbcf464	0.023065753
94	0x3b9501e8	0.0045473464
95	0xbe0b94ff	-0.13631056
96	0xbe4fcffc	-0.20294183
97	0x3d37fa7f	0.044916626
98	0xbe39c65c	-0.18142074
99	0xbd1fc4a9	-0.03900591
100	0x3d6a4a77	0.05719992
101	0x3d749d76	0.05972048
102	0xbc28c5b1	-0.01030104
103	0xbd50cda0	-0.05097735
104	0xbd87edce	-0.066371545
105	0xbd32334b	-0.043505948
106	0xbe17802f	-0.14794992
107	0xbe340927	-0.17581616
108	0xbd8d2a3a	-0.0689282
109	0xbdc947c8	-0.09828144
110	0x3d80484a	0.06263788
111	0xbdcc3311	-0.09970678
112	0xbdf8d924	-0.12150791
113	0xbc026f78	-0.0079611465
114	0x3ddfb66a	0.109234646
115	0xbd4fc465	-0.050724406
116	0xbd881a81	-0.0664568
117	0xbe23694e	-0.1595814
118	0xbe14654f	-0.14491771
119	0x3c4bf90b	0.012449513
120	0x3dfec87a	0.124405816
121	0x3d01b0c3	0.031662714
122	0x3c7db8fb	0.015485997
123	0x3d031541	0.03200269
124	0xbe1d1e83	-0.1534367
125	0xbd95adb8	-0.07308525
126	0xbdecb388	-0.1155768
127	0xbd0ba8c5	-0.034096498
128	0x3d94aea4	0.072598726
129	0xbdb195db	-0.08671161
130	0xbe08a34d	-0.13343544
131	0xbcb4e90f	-0.022083787
132	0xbd565cfc	-0.05233477
133	0xbddc26bf	-0.10749578
134	0xbd9cfa63	-0.07664945
135	0xbc4deb63	-0.012568328
136	0xbd86b8cf	-0.06578218
137	0x3da74f39	0.081694074
138	0xbd0c1fca	-0.034210004
139	0xbcb7014d	-0.022339487
140	0x3d743f74	0.059630826
141	0xbde4ca42	-0.1117139
142	0x3d106795	0.035255034
143	0xbcf37ccf	-0.0297226
144	0x3dc2cbe7	0.095115475
145	0x3c8025c0	0.015643
146	0xbd455f4f	-0.048186596
147	0xbdb69f01	-0.08917046
148	0xbda78dc0	-0.081813335
149	0xbd896e36	-0.06710474
150	0x3dd84387	0.10559755
151	0x3dd08bbb	0.101829015
152	0x3dd5c965	0.104388036
153	0xbd5a6b1c	-0.053324804
154	0x3d335c69	0.0437893
155	0xbdb11571	-0.08646668
156	0xbcda8f98	-0.026679799
157	0x3de4baec	0.11168465
158	0xbd9d0f24	-0.076689035
159	0xbe08ae59	-0.13347758
160	0xbb4366d7	-0.0029815936
161	0x3cf27a54	0.029599346
162	0x3dbba611	0.09162534
163	0x3d5ddb77	0.054164376
164	0x3ccde277	0.0251324
165	0x3dfa33d6	0.12216918
166	0x3dd8a2c2	0.105779186
167	0xbd871492	-0.0659572
168	0xbdf0eccd	-0.11763916
169	0xbdf03c36	-0.11730234
170	0x3cdbd706	0.02683593
171	0x3d2916fe	0.041281693
172	0xbd0459ef	-0.03231233
173	0x3dd25931	0.10270918
174	0x3cef8b6f	0.029241292
175	0x3c9dd3df	0.019266067
176	0xbc61b867	-0.013776875
177	0x3da9a758	0.082838714
178	0x3d2cff02	0.042235382
179	0xbdb9601e	-0.09051536
180	0xbd22edc6	-0.03977754
181	0x3d3fefe4	0.046859637
182	0x3d2a45f5	0.041570622
183	0xbcc5f606	-0.024165165
184	0x3df452a2	0.119298235
185	0x3dd07d48	0.101801455
186	0xbd7e2096	-0.062042795
187	0x3dd78e67	0.10525208
188	0x3db99938	0.09062427
189	0x3dac78b9	0.084214635
190	0xbd0d0acb	-0.03443412
191	0x3d89becc	0.06725845

encoder.rnn.bias_hh_l0 f4 [192]
0	0xbd98d767	-0.0746296
1	0x3d96c9a7	0.07362681
2	0xbc560394	-0.0130623765
3	0x3d8bb09f	0.06820797
4	0x3da045fa	0.07825847
5	0x3d193bb3	0.03741045
6	0x3d0506b7	0.032477107
7	0xbd61253a	-0.054967143
8	0xbdb21cbe	-0.086968884
9	0xbddf862d	-0.10914264
10	0xbd445cf6	-0.047940217
11	0xbddaa7c0	-0.10676527
12	0xbd5be5db	-0.053686004
13	0xbbea1f2e	-0.00714483
14	0xbdfbb455	-0.12290255
15	0x3dd947e6	0.10609417
16	0xbb8b6f85	-0.0042552375
17	0x3da30800	0.0796051
18	0xbde1d773	-0.11027422
19	0x3d91a164	0.07110861
20	0xbdae5474	-0.08512202
21	0x3aba2d33	0.0014204144
22	0x3dbca642	0.09211399
23	0x3de14517	0.10999506
24	0xbd95e22b	-0.07318529
25	0xbd7ddc5a	-0.06197772
26	0xbd57f40c	-0.052722976
27	0x3d3d06fb	0.046149235
28	0xbdb98af0	-0.09059703
29	0x3db58558	0.08863324
30	0xbdc793a2	-0.097449556
31	0x3ba16aee	0.004926077
32	0x3c0817d1	0.0083064595
33	0xbdc797df	-0.09745764
34	0xbcee6599	-0.02910118
35	0xbdb3812a	-0.087648705
36	0xbd9c5098	-0.076325595
37	0xbe0a296f	-0.13492368
38	0x3cf00667	0.029299928
39	0xbd3c805f	-0.04602086
40	0xbcdb0279	-0.026734577
41	0x3d639869	0.05556527
42	0x3da9de57	0.08294361
43	0x3d5fe079	0.054657433
44	0x3cddb733	0.027064895
45	0x3de1a879	0.11018462
46	0xbc60043d	-0.0136728855
47	0x3dd44753	0.103651665
48	0xbd65dbbd	-0.056117762
49	0xbdf8fdfe	-0.1215782
50	0xbcc8fadd	-0.024533683
51	0xbdb26b17	-0.08711832
52	0xbdb0c96e	-0.0863217
53	0xbdaf8eeb	-0.08572181
54	0xbca66982	-0.020313982
55	0x3c608ec9	0.013705918
56	0xbc10e9ef	-0.008844837
57	0xbd26be45	-0.0407088
58	0x3dd64ca2	0.10463835
59	0x3d716a91	0.05893952
60	0xbd9622ba	-0.07330842
61	0xbdb0e7ac	-0.08637938
62	0xbd07ff35	-0.03320237
63	0x3d886a04	0.06660846
64	0x3de9ed26	0.114221856
65	0x3da2b643	0.0794492
66	0xbe03fa68	-0.12888491
67	0x3ce49a53	0.027905619
68	0xbe08f61e	-0.13375136
69	0x3d2e6c44	0.04258372
70	0x3e7fe77e	0.24990651
71	0x3d8fb888	0.070176184
72	0xbe0efa26	-0.13962612
73	0xbe362029	-0.17785706
74	0xbd7cfcbe	-0.06176447
75	0xbd0721a4	-0.032991067
76	0xbd9b1d69	-0.07573969
77	0x3daecfed	0.085357524
78	0x3d1b63f7	0.03793713
79	0xbdc44be9	-0.09584791
80	0x3da84e55	0.08218066
81	0xbe04edcb	-0.12981336
82	0x3db3c232	0.08777274
83	0x3d9c9c95	0.07647053
84	0xbdd91ce3	-0.10601213
85	0xbca9a3ba	-0.020707954
86	0x3d7eebe7	0.062236693
87	0xbca444b7	-0.020052297
88	0xbbd0e0ab	-0.0063744388
89	0xbdf679a7	-0.12034922
90	0xbe100b2b	-0.1406676
91	0x3d427b7a	0.047481038
92	0xbd872485	-0.065987624
93	0xbb4bf5b1	-0.0031121785
94	0xbe03f739	-0.12887277
95	0xbdf54da0	-0.119776964
96	0x3c595ef6	0.013267269
97	0xbe003912	-0.1252177
98	0xbd677835	-0.056511123
99	0x3b3a3434	0.0028412463
100	0xbe0214ae	-0.12703201
101	0xbd8bc799	-0.068251796
102	0xbd2e2a13	-0.042520594
103	0x3dde3e3d	0.10851715
104	0xbd82d6af	-0.06388604
105	0x3d8e9fc6	0.06964068
106	0xbe0cc315	-0.13746293
107	0xbe76df5f	-0.24108647
108	0x3d6e015d	0.05810677
109	0xbd8bcece	-0.06826554
110	0x3d445703	0.047934543
111	0xbd7c1ed1	-0.061552826
112	0x3c55522f	0.013020082
113	0x3b036008	0.0020046253
114	0xbd20f2cf	-0.03929406
115	0xbe1d4f8e	-0.15362379
116	0x3dabe0f8	0.08392519
117	0xbe0fe62b	-0.14052646
118	0xbd113e06	-0.03545954
119	0xbdbd19bd	-0.09233425
120	0x3e3554e2	0.17708161
121	0xbc0e0506	-0.00866819
122	0xbbbbad5a	-0.005727452
123	0xba734d78	-0.0009281258
124	0xbd7970b1	-0.060898487
125	0x3dadfed5	0.08495871
126	0x3d7b18eb	0.06130306
127	0xbdb56314	-0.08856788
128	0xbcefa79d	-0.029254729
129	0xbd7dcfdb	-0.061965805
130	0x3d312a9d	0.04325353
131	0x3d5aecac	0.053448364
132	0xbdf37c06	-0.1188889
133	0xbdcd4f33	-0.10024872
134	0xbcee6ffa	-0.029106129
135	0xbb5aa64c	-0.003336328
136	0x3db2d69d	0.087323405
137	0x3ced02c2	0.02893198
138	0x3d9738e5	0.07383899
139	0xbdb81f92	-0.089903966
140	0x3dafd957	0.08586376
141	0x3ddf7160	0.109102964
142	0x3d883f5c	0.0665271
143	0x3a992aa9	0.0011685687
144	0x3dd54e14	0.10415283
145	0xbb83e87e	-0.004025518
146	0xbc6c7c79	-0.0144339735
147	0xbc8fe69a	-0.017566014
148	0x3d1cd757	0.0382913
149	0x3d117ffb	0.035522442
150	0x3dc817a0	0.09770131
151	0x3dbb5754	0.09147516
152	0x3d31951e	0.0433551
153	0x3ccf000b	0.025268575
154	0x3d0eec3d	0.034893263
155	0x3db932ea	0.09042914
156	0xbd0f8c36	-0.035045825
157	0x3dab4684	0.08363059
158	0xbd58a278	-0.052889317
159	0xbd7f0345	-0.062258977
160	0x3d2f625b	0.04281841
161	0xbd966af9	-0.07344622
162	0xbd6fc6f2	-0.05853934
163	0x3d1e3df4	0.0386333
164	0xba743960	-0.0009316411
165	0x3d96c5c1	0.07361937
166	0xbd9700af	-0.07373177
167	0xbdd7d90e	-0.10539447
168	0x3bf0ba91	0.007346459
169	0x3d4db4e9	0.050221357
170	0x3c151612	0.0090995
171	0xbda33ce4	-0.07970598
172	0xbda425ae	-0.08014999
173	0x3d72ba66	0.059259795
174	0x3cc62e51	0.024192007
175	0x3d9494ba	0.0725493
176	0xbd7b3887	-0.061333206
177	0x3dce0eb1	0.10061396
178	0xbb8a5baa	-0.004222353
179	0x3cfb2a12	0.03065971
180	0xbdaac425	-0.08338193
181	0xbcc50e06	-0.024054538
182	0xbd083e23	-0.033262383
183	0xbdc45164	-0.095858365
184	0x3d9f1a25	0.077686585
185	0x3d29e0f6	0.041474305
186	0xbdab8ab1	-0.08376063
187	0x3d2fe587	0.042943504
188	0xbd060d12	-0.03272731
189	0xbdfe8fa0	-0.12429738
190	0x3cfde345	0.03099216
191	0xbc71f730	-0.014768407

encoder.rnn.weight_ih_l1 f4 [192, 64]
0	0x3db9dd94	0.09075466
1	0x3c400555	0.011720021
2	0xbd868cb3	-0.06569805
3	0xbd5701e6	-0.052492045
4	0x3d697262	0.05699385
5	0xbdc2a484	-0.09504035
6	0x3cbb2bd2	0.022848044
7	0xbde154cb	-0.11002501
8	0xbdb53d9c	-0.08849642
9	0xbd1d9c59	-0.038479183
10	0x3daa4f16	0.08315866
11	0xbd4417d8	-0.0478743
12	0xbda9265b	-0.08259269
13	0xbd03e8af	-0.032204326
14	0xbdc04e0e	-0.09389888
15	0xbd0beaf7	-0.034159627
16	0xbde9c376	-0.11414234
17	0x3d2d9f49	0.042388234
18	0xbe0ddbfb	-0.13853447
19	0xbdd48edd	-0.103788115
20	0xbdd0a8e7	-0.101884656
21	0xbdc30f89	-0.095244475
22	0x3d3d9d1c	0.04629241
23	0x3d98be18	0.074581325
24	0xbdb2ed24	-0.08736637
25	0x3d5fb353	0.054614376
26	0xbe051137	-0.12994848
27	0xbdf2f73d	-0.11863563
28	0x3d346d12	0.04404933
29	0xbca5475a	-0.020175625
30	0xbd4812f9	-0.04884622
31	0x3d0b2c76	0.033977948
32	0x3c955f73	0.01823399
33	0x3deed89b	0.11662408
34	0x3cbbe2f3	0.022935366
35	0xbc0a487e	-0.008440135
36	0xbda92b5f	-0.082602255
37	0xbd2762a9	-0.040865574
38	0xbdf5c87e	-0.120011315
39	0xbbbc39ec	-0.0057442095
40	0xbd3d8914	-0.046273306
41	0xbb8eeec4	-0.004361959
42	0xbdc05a2b	-0.09392198
43	0x3d4b3971	0.049615327
44	0x3d49077d	0.049079407
45	0xbadefd65	-0.0017012773
46	0xbd83fc04	-0.064445525
47	0x3d4a5008	0.04939273
48	0x3d8a8148	0.0676294
49	0x3d33f11b	0.043931108
50	0xbca33eea	-0.01992746
51	0x3d2615b7	0.040548053
52	0xbad05040	-0.0015893057
53	0xbc48f2d8	-0.01226493
54	0xbd51b6eb	-0.051199835
55	0xbd8f921c	-0.0701029
56	0x3d8ec11b	0.06970426
57	0x3d5e2961	0.05423868
58	0xbdfb50ef	-0.12271296
59	0x3b92eaee	0.004483572
60	0xbdd43769	-0.10362131
61	0x3e0f0b99	0.13969268
62	0x3bbaa7a7	0.0056962552
63	0xbd92de5a	-0.071713164
64	0xbd9f2fb4	-0.077727705
65	0x3d6912ea	0.056902803
66	0xbd89c09e	-0.06726192
67	0xbbb53d31	-0.005530976
68	0x3de74aa2	0.11293532
69	0xbd58683d	-0.052833784
70	0xbd41d076	-0.047317944
71	0x3d47283d	0.04862236
72	0xbb6a3c4a	-0.0035741501
73	0xbda75060	-0.08169627
74	0x3d188862	0.03723944
75	0xbda89d32	-0.082331076
76	0xbd9ec0c6	-0.07751612
77	0xbdcd0fd1	-0.10012782
78	0xbcf70014	-0.030151404
79	0xbc5b92e4	-0.013401721
80	0xbd3dd598	-0.046346277
81	0xbd5d1079	-0.053970788
82	0xbd31aac0	-0.04337573
83	0x3ceb02de	0.02868789
84	0x3c08301d	0.008312252
85	0xbdf65281	-0.12027455
86	0xbde29c6d	-0.11064992
87	0x3dd75618	0.10514468
88	0x3c1f699e	0.009729771
89	0x3d557d9c	0.052121744
90	0x3cb4ce10	0.022070915
91	0xbde855d6	-0.11344497
92	0xbdfa68de	-0.12227033
93	0x3d9c18e1	0.07621933
94	0xbcf2cbe1	-0.029638233
95	0xbd87d057	-0.066315345
96	0xbdf24e2d	-0.11831317
97	0x3d807c55	0.062737145
98	0x3c66e397	0.014092348
99	0xbdd7d702	-0.10539056
100	0x3c861d6b	0.01637145
101	0xbd936627	-0.071972184
102	0xbccec081	-0.025238277
103	0xbd9b73c6	-0.075904414
104	0xbd29d54f	-0.041463193
105	0xbd07f8f1	-0.033196393
106	0xbdf0eb97	-0.11763685
107	0xbdc5a8d8	-0.09651345
108	0xbe075049	-0.1321422
109	0x3dd93886	0.10606484
110	0xbd88df2a	-0.0668319
111	0x3dba8dc7	0.09109073
112	0x3de3e2c8	0.111272395
113	0xbd813450	-0.06308806
114	0x3dfcd204	0.12344745
115	0x3bcd1175	0.0062581846
116	0xbc322014	-0.010871906
117	0x3d8e1364	0.06937292
118	0x3dbbc119	0.0916769
119	0xbcfffeb8	-0.031249389
120	0x3e0d9c6e	0.13829204
121	0xbd8abcb4	-0.067742735
122	0x3daa5f10	0.08318913
123	0x3dac67d0	0.08418238
124	0x3dd77388	0.10520083
125	0xbcbc6d96	-0.023001473
126	0x3e04da0c	0.12973803
127	0x3e00cf8a	0.1257917
128	0xbdb498ee	-0.088182315
129	0x3dec0641	0.1152463
130	0xbdafc4e9	-0.085824795
131	0x3e06e081	0.13171579
132	0xbdbc8fd2	-0.09207119
133	0x3c928358	0.017884895
134	0xbddf1fd6	-0.10894744
135	0x3d4f90de	0.050675265
136	0xbd90441d	-0.070442416
137	0xbd4b605e	-0.04965245
138	0xbd329fad	-0.04360931
139	0xbdddd6dd	-0.108319975
140	0xbcbc0eba	-0.02295624
141	0xbd35dc35	-0.04439946
142	0xbdbec1a4	-0.09314278
143	0xbd36eca2	-0.044659264
144	0xbd35e38a	-0.04440645
145	0x3dfdbba8	0.12389308
146	0x3d5c69a4	0.053811684
147	0xbc3d5a22	-0.011557134
148	0x3bafe22e	0.005367539
149	0x3d38a86c	0.045082495
150	0x3b0791f1	0.0020686353
151	0xbd82dd0e	-0.06389819
152	0xbdd26ef2	-0.102750674
153	0xbdac792e	-0.08421551
154	0x3d017b77	0.031611886
155	0xbb61dfac	-0.0034465594
156	0xbdaaeb6a	-0.08345683
157	0x3d998047	0.0749517
158	0x3d9e59f3	0.07732
159	0x3ca92415	0.020647088
160	0x3dc146ca	0.0943733
161	0xbdac1aa0	-0.08403516
162	0xbdae7080	-0.085175514
163	0x3d3c8aa7	0.046030667
164	0x3dde6bdb	0.108604155
165	0x3c958c73	0.018255448
166	0xbdb37781	-0.08763028
167	0xbc949a63	-0.018140024
168	0xbcb82169	-0.022476869
169	0xbda1ff56	-0.079100296
170	0xbd342e06	-0.043989204
171	0xbd156e7e	-0.036482327
172	0x3c66ee5c	0.014094915
173	0xbcdfb5c8	-0.02730836
174	0x3df9f690	0.12205231
175	0xbdb0ecd1	-0.08638919
176	0x3cbd7970	0.023129195
177	0x3dcba24d	0.09943066
178	0xbb6a9016	-0.0035791448
179	0xbdebc887	-0.11512857
180	0x3bfa2efb	0.007634995
181	0x3d5d2acf	0.053995904
182	0xbda807e9	-0.08204634
183	0x3d821f24	0.06353596
184	0xb9ab9757	-0.0003272842
185	0xbd9e3768	-0.07725412
186	0x3cd78c6a	0.026312072
187	0xbd6bba06	-0.057550453
188	0x3e08885a	0.13333264
189	0xbde4ee2e	-0.11178242
190	0xbdb14519	-0.086557575
191	0x3c09b84d	0.008405757
192	0x3c8a02e7	0.016847087
193	0xbcb7b97f	-0.022427319
194	0xbd0ccf8f	-0.03437763
195	0xbd8a73a2	-0.067603365
196	0x3dbb7d60	0.09154773
197	0x3ded0265	0.11572722
198	0xbdd9fe7a	-0.10644241
199	0xbcccc506	-0.024996292
200	0xbdc36a41	-0.09541751
201	0x3decd04a	0.115631655
202	0xbd45fed4	-0.048338726
203	0xbd911fc0	-0.07086134
204	0xbd5a04f4	-0.05322738
205	0x3d050179	0.032472108
206	0x3d13f687	0.03612378
207	0xbdb7441e	-0.08948539
208	0xbcc32568	-0.023821548
209	0x3d8338b4	0.064073
210	0x3ce4d7cc	0.027934931
211	0xbdf2b8c5	-0.11851648
212	0x3d83ec71	0.06441582
213	0x3dfe4735	0.124159254
214	0x3cabfc59	0.020994352
215	0x3e0046e4	0.12527043
216	0x3de75129	0.11294777
217	0xbdba0e79	-0.09084792
218	0xbd5255f0	-0.051351488
219	0x3de3eb31	0.111288436
220	0xbd2a319d	-0.04155122
221	0x3de8988b	0.1135722
222	0xbdc76cc5	-0.09737543
223	0x3dc2ffa9	0.095214196
224	0x3cecd646	0.028910767
225	0xbde58d3c	-0.11208579
226	0xbe097c59	-0.13426341
227	0xbde25f3b	-0.1105332
228	0x3dd3374d	0.10313282
229	0x3cfa405c	0.030548267
230	0x3d20c739	0.039252494
231	0xbd3c68f3	-0.045998525
232	0xbde1aec1	-0.1101966
233	0x3dc46ea3	0.09591415
234	0xbd6a55de	-0.057210796
235	0xbc904765	-0.017612169
236	0xbc5e05d4	-0.013551194
237	0x3db6a770	0.08918655
238	0x3d465125	0.04841723
239	0xbc8da657	-0.017291231
240	0x3e021350	0.1270268
241	0x3ddc219a	0.107485965
242	0xbc4aad66	-0.012370443
243	0x3dcb3bc3	0.09923508
244	0xbd3d2891	-0.046181265
245	0xbddaa249	-0.10675485
246	0x3de6bfce	0.112670526
247	0x3b9abf1d	0.0047224895
248	0xbc9f149b	-0.019419005
249	0xbdab5dc4	-0.08367494
250	0xbd1b6923	-0.037942063
251	0xbd8085b9	-0.062755056
252	0x3c0c5a15	0.008566399
253	0xbdda3d36	-0.10656206
254	0x3d16dd9e	0.036832444
255	0x3cb7657e	0.022387262
